ftl/pretrain/weight/finetune_prxy_0/finetune_prxy_0_3.pth (torch, 187635 bytes, 8 tensors)

hiddenLayer1.weight f4 [150, 3]
-0.9164508 -1.2974373 -0.04363862 -0.021686291 0.00012234377 -0.053491697 -0.5776156 -0.6329085
-1.7097206 -1.0084703 -0.04347467 1.8639902 -2.5058387e-05 -0.003036188 -0.0025911236 -0.11491106
0.0004363449 -0.112245746 -11.653892 -0.25248733 -0.79938656 -0.08587421 0.4909778 0.06517788
-2.532421 -0.29777363 -0.24601479 -0.51779056 -0.07980709 -0.07122152 -0.37772408 0.28734487
-5.804587 -0.3348636 0.0138061335 -0.37920606 -17.134323 -0.21213806 0.30202225 -0.032575484
0.004367758 0.031706855 -0.021713722 0.000505641 -0.0069837803 -0.6323024 -0.010823387 1.3471329
-0.09444375 0.01391173 -0.026190825 -33.686737 -0.019449746 -0.5214359 -3.3495739 -0.007235125
-0.37828252 -0.05708667 -0.00070745073 -0.032307513 0.00019010836 0.008657701 -0.0044600694 -0.8157512
-0.13456891 1.3262902 -0.009914082 -0.07628418 0.0032669338 -11.447745 0.0009290785 0.32952875
0.05857138 -0.09680537 0.64811814 -2.805888 0.104824536 -4.6654096 -1.0072675 0.3329832
-1.573162 -0.19163358 -0.67015713 1.2374804 -0.6192992 1.2558544 -0.21482228 -0.30613258
-0.041856576 -0.029574705 -0.055142235 -0.009458325 1.9850353 -3.6167889 0.30521896 1.166742
-0.2914746 1.0855879 -3.3249457 -0.4643237 0.0005651676 -0.049308866 -0.075492285 -6.0254755e-05
-0.10112852 -0.4221935 -1.3392739 -0.3769752 -0.065648675 0.30696878 -4.6673737 -0.27294838
0.005178786 -0.20599903 -0.0165612 -0.000701565 -0.027785556 -9.8554 -0.3229235 -1.7581025
-0.03140629 -0.004740447 -0.02586291 -0.5604887 -1.2340316 -3.7508845 -0.062008403 0.0001408287
-0.011482914 -0.14920618 -5.0195584e-05 -0.046765797 -0.30258057 -2.0064595 -0.1442528 -1.9355808
-0.18887499 -3.8289752 -0.44274902 0.13161944 1.3777872 -0.11163344 -1.4257274 -2.826815
-8.136744 0.24454582 0.5805715 -1.3145131 0.0678412 -0.37238425 -0.69856226 -1.3136313
0.1666666 -1.2123059 -1.1727422 0.006027043 0.0124201495 -0.1123017 2.3567133 -1.9281055
-0.016680745 0.02741813 -0.07044609 -3.0332656e-05 -0.03537665 0.057676043 0.026937746 -7.6982822
-0.22595985 -0.2753021 -0.2955869 -0.00429485 -0.00017986288 -0.10385108 -40.77957 -0.16364369
-0.10733635 -2.4901788 0.8235485 0.21103203 -0.028260496 0.0005325569 -0.052008737 0.4808225
0.059455663 -5.611454 -0.0062481533 0.059468046 -9.567336 -0.7667746 0.7347133 -4.5878735
-25.237307 -0.18878059 0.31638297 -1.2412932 -0.5539034 -3.9275126 -0.27410153 1.6823642
0.27131164 -0.032643005 -0.013166917 5.7175474 -0.05644776 0.046457294 -0.017846616 -0.08955876
0.0029780245 -0.010934558 -2.36987 0.12956665 0.021473477 -15.859569 0.1755295 -0.7740405
-6.8495517 0.5030943 -0.0039172103 -0.114817694 0.0068946197 -0.021754602 -0.06996511 0.003529325
-0.0069130315 -0.073599875 0.00046261257 -0.08730927 -0.45496443 -0.64005107 -0.26853386 -0.05243463
-0.005576323 -0.04125022 -5.191067 0.16193593 0.027429003 -0.017639726 -0.018443894 3.385596
-0.024480032 0.0036145954 -0.015546311 -31.01416 -0.12738277 -0.4307217 -6.2780404 -0.5614024
-0.48910847 3.6516274e-05 0.0010332367 -0.0023561995 -1.3799541 -0.11507842 -0.651845 -1.6803669
00000000: 859c 6abf 6d12 a6bf 69be 32bd 73a7 b1bc
00000010: 6849 0039 1c1a 5bbd 9ede 13bf 4b06 22bf
00000020: 20d8 dabf 8e15 81bf 7f12 32bd 3b97 ee3f
00000030: 7a34 d2b7 c8fa 46bb d7cf 29bb 7d56 ebbd
00000040: 39c5 e439 19e1 e5bd 5776 3ac1 0546 81be
00000050: 99a4 4cbf d1de afbd 7161 fb3e fb7b 853d
00000060: 3013 22c0 c975 98be 4deb 7bbe ec8d 04bf
00000070: e671 a3bd 97dc 91bd 0d65 c1be de1e 933e
00000080: 2dbf b9c0 3e73 abbe 1f33 623c 4c27 c2be
00000090: 1813 89c1 b83a 59be a9a2 9a3e df6d 05bd
000000a0: 691f 8f3b 0cdf 013d fae0 b1bc fe8c 043a
000000b0: 32d8 e4bb 92de 21bf 9354 31bc da6e ac3f
000000c0: ba6b c1bd 06ee 633c 248e d6bc 38bf 06c2
000000d0: 1355 9fbc d37c 05bf 6b5f 56c0 a114 edbb
000000e0: 3fae c1be b6d3 69bd 3774 39ba e254 04bd
000000f0: d357 4739 08d9 0d3c c625 92bb 12d5 50bf
00000100: 6fcc 09be e1c3 a93f ac6e 22bc e13a 9cbd
00000110: 0e1a 563b f729 37c1 678d 733a feb7 a83e
00000120: 8be8 6f3d e541 c6bd 12eb 253f ab93 33c0
00000130: 3fae d63d 094b 95c0 24ee 80bf c67c aa3e
00000140: 5f5d c9bf 983b 44be 6b8f 2bbf c265 9e3f
00000150: 648a 1ebf d6bf a03f 5ffa 5bbe 69bd 9cbe
00000160: cd71 2bbd a746 f2bc d3dc 61bd 17f7 1abc
00000170: a315 fe3f 7879 67c0 a945 9c3e cd57 953f
00000180: 293c 95be 8bf4 8a3f e9cb 54c0 d6bb edbe
00000190: c127 143a 18f8 49bd b39b 9abd 0dba 7cb8
000001a0: 781c cfbd bf29 d8be 546d abbf e502 c1be
000001b0: d072 86bd 032b 9d3e 205b 95c0 e4bf 8bbe
000001c0: ceb2 a93b 69f1 52be 5bab 87bc 3be9 37ba
000001d0: 899e e3bc b8af 1dc1 3b56 a5be 8109 e1bf
000001e0: e2a3 00bd c055 9bbb 74de d3bc 307c 0fbf
000001f0: bff4 9dbf 7e0e 70c0 86fc 7dbd 6bab 1339
00000200: d522 3cbc 81c9 18be 1989 52b8 7e8d 3fbd
00000210: d7eb 9abe d569 00c0 02b7 13be 1dc1 f7bf
00000220: 7268 41be ee0d 75c0 00b0 e2be 3fc7 063e
00000230: 555b b03f 13a0 e4bd 3c7e b6bf 89ea 34c0
00000240: 1a30 02c1 386a 7a3e 55a0 143f f741 a8bf
00000250: 54f0 8a3d 26a9 bebe fad4 32bf 1225 a8bf
00000260: a6aa 2a3e d72c 9bbf 6b1c 96bf 807e c53b
00000270: e27d 4b3c 6ffe e5bd 64d4 1640 29cc f6bf
00000280: 0fa6 88bc fc9b e03c 0a46 90bd e272 feb7
00000290: 1be7 10bd b73d 6c3d 8cac dc3c 5458 f6c0
000002a0: 0562 67be 66f4 8cbe 2b57 97be d0bb 8cbb
000002b0: 9399 3cb9 e0af d4bd 481e 23c2 3692 27be
000002c0: 29d3 dbbd 175f 1fc0 13d4 523f c818 583e
000002d0: 8e82 e7bc 4a9b 0b3a 1d07 55bd 5e2e f63e
000002e0: c887 733d 0891 b3c0 4fbd ccbb c494 733d
000002f0: cf13 19c1 574b 44bf 2c16 3c3f dccf 92c0
00000300: 01e6 c9c1 b34f 41be f3fc a13e b2e2 9ebf
00000310: 9dcc 0dbf 5e5c 7bc0 0957 8cbe b657 d73f
00000320: 5ce9 8a3e acb4 05bd 0dba 57bc 26f6 b640
00000330: c435 67bd 014a 3e3d 1133 92bc 956a b7bd
00000340: f62a 433b dc26 33bc f3ab 17c0 1fad 043e
00000350: 25e9 af3c cbc0 7dc1 01be 333e 8527 46bf
00000360: 872f dbc0 caca 003f f15b 80bb 8a25 ebbd
00000370: 43ec e13b b536 b2bc de49 8fbd 3f4c 673b
00000380: b686 e2bb 88bb 96bd cf8a f239 34cf b2bd
00000390: 19f1 e8be 63da 23bf 457d 89be b2c5 56bd
000003a0: 96b9 b6bb fef5 28bd 391d a6c0 88d2 253e
000003b0: cab2 e03c 3081 90bc a617 97bc 9bad 5840
000003c0: 598a c8bc d9e2 6c3b f4b5 7ebc 001d f8c1
000003d0: a170 02be 8e87 dcbe b5e5 c8c0 11b8 0fbf
000003e0: 6d6c fabe 0d29 1938 ac6d 873a 786a 1abb
000003f0: 56a2 b0bf 3cae ebbd 50df 26bf 4316 d7bf

hiddenLayer1.bias f4 [150]
-5.465063 -0.08761147 -2.4668925 -2.05448 -0.059627254 -0.091084905 -0.44497925 0.3338715
0.17367567 -1.1979284 -0.24836478 -0.38067248 -1.3822135 -4.0769424 -0.0107353665 0.36921412
-0.26611435 -1.8767524 -0.6572218 -0.03835703 -0.18856902 -4.2950816 -1.1864355 -0.31171998
-2.4328282 0.285149 -0.8395076 -8.081916 -1.3977655 -0.6433544 3.4991806 -5.5193205
-1.5814275 -0.093723744 -0.17178053 -4.3750257 -1.2809219 -0.20401832 -0.033318777 -0.9590549
-0.14628151 -0.99145633 -0.014968357 -0.04346149 -1.3310121 -1.3899008 -2.6359668 0.0023467469
0.08216638 -1.0967898 -1.1983063 -4.2269454 -5.2928076 -1.7815199 -0.030258374 -0.10282108
-3.9850419 -0.08308648 -0.83521473 -5.9328413 -0.09127812 2.469414 0.6896745 -2.044756
-1.1923096 -0.61465746 -4.4308023 0.26121977 -0.66102177 -0.06732466 -1.8624475 -3.3698702
-1.5510997 -0.15573733 -0.07936348 -0.07299324 -7.581081 -0.11849184 -2.3614607 -4.429231
-0.06206175 -2.563808 -1.7987332 -0.028479282 0.571259 -3.570524 -1.771865 2.6521845
-0.013381488 -0.23125352 -0.34598818 -0.4908458 -2.125987 -1.5445383 -3.065576 -0.09326719
0.54267037 -3.66711 -0.10197772 -2.241187 -0.1372041 -0.6302336 -2.282415 -1.0230649
-3.4458172 -0.27432027 -0.035754465 -2.9239244 -0.7624154 -7.695823 -0.3944737 -0.10884183
-3.7259383 -4.0477796 -0.25217104 -0.017480554 -4.052991 -0.36757407 -3.3026037 -0.12052022
-0.054244444 -4.9216065 -15.671685 -0.026571877 -0.04486456 -0.028602762 -1.4324272 -0.11475543
-0.82555264 -0.84025174 -1.1949918 -0.4969905 -0.13345857 -1.779865 -0.56105024 -2.6904516
-0.19129646 -0.4358141 -3.665629 -0.10076139 3.359563 -3.4158225 -7.8177404 -0.8283245
-0.27947095 -0.013747211 -3.0879643 -0.46087244 -0.12532479 0.68380135
00000000: cce1 aec0 a46d b3bd 91e1 1dc0 9a7c 03c0
00000010: b53b 74bd b98a babd 52d4 e3be 35f1 aa3e
00000020: 09d8 313e b855 99bf 5653 7ebe 81e7 c2be
00000030: 5fec b0bf 5076 82c0 64e3 2fbc a209 bd3e
00000040: 2440 88be 6c39 f0bf b03f 28bf 431c 1dbd
00000050: 3d18 41be 4f71 89c0 1edd 97bf c399 9fbe
00000060: 75b3 1bc0 0dff 913e f8e9 56bf 874f 01c1
00000070: fbe9 b2bf e0b2 24bf 93f2 5f40 469e b0c0
00000080: 376c cabf 3cf2 bfbd 3ce7 2fbe 3600 8cc0
00000090: 40f5 a3bf 2eea 50be 4579 08bd 9f84 75bf
000000a0: d2ca 15be 15d0 7dbf d73d 75bc ad04 32bd
000000b0: 9b5e aabf 45e8 b1bf aeb3 28c0 e1cb 193b
000000c0: d946 a83d 9c63 8cbf 1a62 99bf 2343 87c0
000000d0: ae5e a9c0 d808 e4bf 69e0 f7bc dc93 d2bd
000000e0: ed0a 7fc0 3f29 aabd a2d0 55bf d6d9 bdc0
000000f0: 06f0 babd e10a 1e40 828e 303f 48dd 02c0
00000100: 9a9d 98bf 315a 1dbf 22c9 8dc0 99be 853e
00000110: b938 29bf 83e1 89bd ae64 eebf f4ab 57c0
00000120: 6f8a c6bf 9b79 1fbe 5289 a2bd 7b7d 95bd
00000130: 3798 f2c0 daab f2bd 2c22 17c0 43bc 8dc0
00000140: 7634 7ebd 6e15 24c0 e43c e6bf 624d e9bc
00000150: 083e 123f 7783 64c0 79cc e2bf 64bd 2940
00000160: 073e 5bbc b9cd 6cbe 5d25 b1be 2450 fbbe
00000170: 2c10 08c0 6eb3 c5bf 6632 44c0 de02 bfbd
00000180: 72ec 0a3f eeb1 6ac0 b2d9 d0bd 9c6f 0fc0
00000190: 3b7f 0cbe fd56 21bf 1613 12c0 caf3 82bf
000001a0: 4588 5cc0 b573 8cbe 4673 12bd 9421 3bc0
000001b0: a82d 43bf 2f44 f6c0 75f8 c9be 77e8 debd
000001c0: c675 6ec0 6987 81c0 901c 81be 6133 8fbc
000001d0: 1ab2 81c0 ab32 bcbe dc5d 53c0 4ed3 f6bd
000001e0: 6c2f 5ebd cd7d 9dc0 39bf 7ac1 44ad d9bc
000001f0: e7c3 37bd 5750 eabc c659 b7bf e504 ebbd
00000200: 6b57 53bf bd1a 57bf 7ef5 98bf 8a75 febe
00000210: 5da9 08be 9ed2 e3bf fda0 0fbf 5c30 2cc0
00000220: 38e3 43be 0723 dfbe aa99 6ac0 fd5b cebd
00000230: 1503 5740 d69c 5ac0 ee2a fac0 130d 54bf
00000240: d116 8fbe fb3b 61bc 35a1 45c0 79f7 ebbe
00000250: 2455 00be 9b0d 2f3f

hiddenLayer2.weight f4 [150, 150]
-0.33624887 0.07611778 -1.78064 -1.7875625 -0.59487414 0.24902679 -5.2399373 -0.61384225
4.1096797 -1.4060246 -7.4923606 -2.492816 -10.836908 -0.11867403 0.10053787 1.0364232
-0.096617855 0.18019891 -0.03911274 -0.13611515 -3.1554506 -0.37966242 -0.41363215 -2.0139766
-4.2042847 -1.5592566 0.8458045 -2.120906 2.3106506 -0.76298916 -0.65453815 -0.8352308
-4.8511844 -0.26534298 -0.08441459 -0.41881326 -1.4096452 -0.399036 0.06797514 -5.4208245
-0.21211317 -22.978949 -0.0942391 -0.18589705 -0.019531582 0.30814055 -1.4406576 -13.458742
-8.9074545 2.2391202 -4.5522366 1.6511418 -1.1552039 -4.6085114 0.019724634 -14.936644
-5.3017673 0.10412201 2.707327 -1.5313206 -0.47416076 -0.49103498 -0.4329886 -19.464943
-11.397569 0.5190458 -8.722013 -12.146923 0.62490124 -0.106045574 2.0449705 -6.2797947
-37.98588 -0.041170053 -0.0451855 -0.17476158 -4.1080966 -0.26702517 -6.1561866 -0.25052983
-0.12308942 2.7010918 -0.095372654 -0.0838232 1.4751155 -3.0463624 -6.0636168 -0.2436859
0.27293137 3.4192195 -6.185922 -0.4391318 -2.7311583 4.5402822 -0.284525 1.6750631
-0.21814367 -0.29121238 0.93353367 -5.1049995 0.40305275 1.8514181 1.964254 -0.005793735
-0.75534457 0.4935539 0.3313597 0.15521485 -4.3395123 -0.8170372 5.5929914 -0.1189245
-3.240397 0.90555644 -4.041022 0.010613404 -4.0261936 6.666617 -11.562347 -0.19187196
-0.018664945 -1.8577703 -0.31438857 -0.08067993 -0.08590939 -0.23828194 -2.5113897 2.2995734
-2.1633043 1.1445988 -0.35879755 -0.15575272 -0.11266164 -1.2402469 -4.7768846 -10.561975
1.7842956 -2.3348207 1.5129589 0.08447807 -0.40070477 -0.8713595 -0.60377973 -0.6658451
-0.94833666 -0.028227566 -5.9421663 -3.7398133 0.052904807 2.1674442 -17.514624 0.0448798
-0.58388144 2.9439769 -0.066948675 -0.2473073 -5.528183 -0.7538098 -0.09649091 -5.009714
-0.66475934 -1.3151531 1.4465871 -5.4584928 0.02462586 0.4532965 0.18612412 -3.4035618
-0.87670183 -0.055897053 5.9851265 1.0365766 0.5442554 -1.4151558 -5.6772337 -0.9254836
-0.77135444 -0.9038706 -2.4520488 -0.55171615 -0.8846285 0.48628464 -1.9224323 0.39528555
0.34588104 -0.5125791 -1.3308967 0.3810698 0.047568616 2.6013525 -0.54068 2.042859
-0.011623005 -0.024058897 -7.690216 -0.6361747 1.5476828 -0.6282451 -9.345845 -0.4554732
2.5342064 0.5249385 -3.8411226 2.7137887 -0.13889188 -1.2171161 2.843264 -0.32022116
-0.10447345 -0.7926862 -0.8000516 -2.9563334 0.27762836 -1.2146543 4.4815116 -0.46455187
-2.5882776 0.44204938 -0.38949502 -0.15223269 -3.7858272 1.1549988 -2.6573648 0.08912285
-0.08557787 0.113186434 2.674611 -0.3316419 0.5032696 5.9746604 0.23681372 -2.1818292
-10.869438 -0.042767644 -1.9658504 -1.977511 -4.6199074 -3.7854302 -0.01799707 -1.8321912
-0.15586337 -1.0711906 -1.5665511 1.8574445 -1.4365997 -1.7957325 0.034641717 -2.4727726
0.29221696 1.2119052 0.5216482 0.8209799 -0.74767435 -0.83502454 -8.264965 -1.1178601
00000000: d028 acbe a3e3 9b3d 03ec e3bf d9ce e4bf
00000010: ac49 18bf e100 7f3e 91ad a7c0 c424 1dbf
00000020: 7f82 8340 9df8 b3bf 6bc1 efc0 4c8a 1fc0
00000030: fa63 2dc1 5f0b f3bd cce6 cd3d 84a9 843f
00000040: 95df c5bd 1086 383e ae34 20bd c561 0bbe
00000050: e7f2 49c0 1d63 c2be 98c7 d3be fee4 00c0
00000060: 8089 86c0 b895 c7bf a586 583f edbc 07c0
00000070: b3e1 1340 4253 43bf d08f 27bf b0d1 55bf
00000080: e73c 9bc0 09db 87be 8ee1 acbd b16e d6be
00000090: 416f b4bf 724e ccbe 8d36 8b3d 6577 adc0
000000a0: 3234 59be e3d4 b7c1 6e00 c1bd cc5b 3ebe
000000b0: b200 a0bc 99c4 9d3e 7867 b8bf 0257 57c1
000000c0: ef84 0ec1 bf4d 0f40 ecab 91c0 9d58 d33f
000000d0: b9dd 93bf ed78 93c0 8e95 a13c 7efc 6ec1
000000e0: 14a8 a9c0 ec3d d53d d844 2d40 5002 c4bf
000000f0: 33c5 f2be f068 fbbe afb0 ddbe 34b8 9bc1
00000100: 715c 36c1 30e0 043f 5e8d 0bc1 cc59 42c1
00000110: 87f9 1f3f 6c2e d9bd cce0 0240 14f4 c8c0
00000120: 8bf1 17c2 eea1 28bd 6e14 39bd b3f4 32be
00000130: 8775 83c0 86b7 88be 7bff c4c0 7245 80be
00000140: 4e16 fcbd b0de 2c40 bd52 c3bd 7fab abbd
00000150: 96d0 bc3f 9af7 42c0 2609 c2c0 cc88 79be
00000160: a9bd 8b3e 7ed4 5a40 13f3 c5c0 e2d5 e0be
00000170: 4ccb 2ec0 fe49 9140 43ad 91be 7868 d63f
00000180: 0e61 5fbe ca19 95be 10fc 6e3f 285c a3c0
00000190: ee5c ce3e 45fb ec3f ad6c fb3f 5fd9 bdbb
000001a0: 435e 41bf 19b3 fc3e fba7 a93e a4f0 1e3e
000001b0: 49dd 8ac0 5a29 51bf c9f9 b240 b08e f3bd
000001c0: aa62 4fc0 8cd2 673f 0d50 81c0 d8e3 2d3c
000001d0: 94d6 80c0 ed54 d540 60ff 38c1 157a 44be
000001e0: 3ae7 98bc 6bcb edbf 8af7 a0be 853b a5bd
000001f0: 43f1 afbd 2e00 74be 9cba 20c0 362c 1340
00000200: 9473 0ac0 3782 923f 50b4 b7be a47d 1fbe
00000210: 25bb e6bd 69c0 9ebf 3ddc 98c0 d9fd 28c1
00000220: cc63 e43f b46d 15c0 a3a8 c13f d702 ad3d
00000230: 2d29 cdbe 6b11 5fbf 4f91 1abf d374 2abf
00000240: 31c6 72bf 7f3d e7bc 3a26 bec0 1a59 6fc0
00000250: b6b2 583d 68b7 0a40 f31d 8cc1 e2d3 373d
00000260: 4179 15bf 1e6a 3c40 631c 89bd 203e 7dbe
00000270: e0e6 b0c0 aef9 40bf 079d c5bd 944f a0c0
00000280: ab2d 2abf f056 a8bf c429 b93f f9ab aec0
00000290: 2cbc c93c 7b16 e83e 5297 3e3e f5d3 59c0
000002a0: 886f 60bf 4ff4 64bd 2886 bf40 8bae 843f
000002b0: 5254 0b3f d323 b5bf e6ab b5c0 7eec 6cbf
000002c0: 7c77 45bf 1064 67bf 5eee 1cc0 453d 0dbf
000002d0: 0377 62bf 4dfa f83e 4312 f6bf de62 ca3e
000002e0: 5217 b13e 6238 03bf d35a aabf 951b c33e
000002f0: 4fd7 423d 8f7c 2640 016a 0abf 34be 0240
00000300: 6b6e 3ebc 2a17 c5bc 4016 f6c0 58dc 22bf
00000310: 781a c63f acd4 20bf 9588 15c1 c933 e9be
00000320: 7030 2240 5f62 063f f4d4 75c0 b7ae 2d40
00000330: ac39 0ebe 76ca 9bbf 0af8 3540 07f4 a3be
00000340: 2df6 d5bd 7ced 4abf 2fd0 4cbf 9134 3dc0
00000350: 4e25 8e3e cb79 9bbf 8b68 8f40 bed9 edbe
00000360: 57a6 25c0 4c54 e23e e46b c7be e3e2 1bbe
00000370: fe4a 72c0 00d7 933f 4412 2ac0 0a86 b63d
00000380: 7343 afbd 4ace e73d d42c 2b40 f8cc a9be
00000390: 47d6 003f 6b30 bf40 4c7f 723e 17a3 0bc0
000003a0: 38e9 2dc1 202d 2fbd fca0 fbbf 151f fdbf
000003b0: 48d6 93c0 7d44 72c0 976e 93bc 3e85 eabf
000003c0: a69a 1fbe c61c 89bf bf84 c8bf bec0 ed3f
000003d0: 80e2 b7bf 90da e5bf 79e4 0d3d e841 1ec0
000003e0: 769d 953e b61f 9b3f bd8a 053f bd2b 523f
000003f0: 9667 3fbf 2bc4 55bf 4c3d 04c1 0a16 8fbf

hiddenLayer2.bias f4 [150]
-0.49092287 -1.3700147 1.7621881 0.13412105 -0.82283705 0.31375957 1.7671685 -0.2823322
7.305405 0.45056894 -0.0037905981 0.2613288 0.37198675 -0.477253 -0.0708255 -4.4098163
4.211616 0.45546195 1.9100443 1.6768931 -0.49313775 -0.053309556 -0.8271788 -1.6376932
-0.10596867 -1.7042516 -1.7900568 0.28493288 0.29758072 0.022910481 1.1584622 -0.19287853
0.057065528 -0.19412701 2.1739001 -2.4332607 -0.16820695 -0.2939837 -1.6656507 0.45379227
-0.9766162 -0.0122227715 -0.16057502 -0.07519976 -2.2187078 -0.53844553 -3.9254606 -2.8879406
0.1244068 -0.7133169 -0.23951155 -1.09275 -0.64851654 -0.44771996 -0.26467016 0.017725172
-0.09965506 -0.48178676 0.059879255 -0.45496735 -0.2621576 -0.7899848 -0.070502676 -0.0032164783
-0.42632252 4.909348 -3.044213 0.028912773 -0.37900087 0.897212 2.0462523 -0.80845946
0.8345125 0.541087 -0.5312767 -0.59571546 0.20781341 0.07573514 -0.11363814 -0.66436017
-1.8346769 -0.038725834 -0.86529845 -1.624258 0.2104986 -1.5727984 1.4764215 -0.16627829
1.42523 -0.12848686 -1.0155015 -0.025890602 -0.7171019 1.4093992 -0.6291378 0.075321905
-0.22582747 0.26565504 0.17098173 7.2834415 -1.688027 -0.25626278 -0.22457269 0.84515876
0.026319787 1.7682105 0.037177157 0.32281402 -0.086811095 -8.424558 -0.054045208 -0.45499837
-0.2113884 0.2919543 0.7770491 -0.08584055 -2.1561553 -1.5006117 -0.4139329 -0.82957906
-0.07760001 -0.99356735 -1.3896677 -0.09183048 -0.5331674 0.81033695 0.27490655 -0.15806058
0.21290618 -0.13609606 -0.5630285 -0.21227603 6.2042947 -1.7070842 -0.4271076 0.025810689
-2.4649282 -1.1601284 0.9362509 1.6978528 0.16176191 -0.7890294 -0.06842626 -0.64670736
-0.82619905 -1.2272694 0.97244084 -0.24290949 -0.29550603 0.6166558
00000000: 3e5a fbbe a45c afbf 618f e13f 0757 093e
00000010: 73a5 52bf 18a5 a03e 9432 e23f d98d 90be
00000020: e1c5 e940 f9b0 e63e af6b 78bb e3cc 853e
00000030: 0c75 be3e 815a f4be f60c 91bd 371d 8dc0
00000040: 8fc5 8640 4f32 e93e 557c f43f 6fa4 d63f
00000050: 8d7c fcbe 1f5b 5abd fdc1 53bf ee9f d1bf
00000060: 1a06 d9bd eb24 dabf 9520 e5bf b9e2 913e
00000070: 805c 983e c3ae bb3c 7d48 943f f381 45be
00000080: 8bbd 693d 3bc9 46be 2e21 0b40 8bba 1bc0
00000090: 713e 2cbe 0885 96be 0b34 d5bf 7657 e83e
000000a0: 8503 7abf 0542 48bc c76d 24be 5502 9abd
000000b0: 4fff 0dc0 91d7 09bf bf3a 7bc0 05d4 38c0
000000c0: fec8 fe3d f09b 36bf 8442 75be 3bdf 8bbf
000000d0: 2e05 26bf 8d3b e5be d982 87be 6134 913c
000000e0: f417 ccbd c1ac f6be f343 753d 7bf1 e8be
000000f0: 8539 86be 723c 4abf b563 90bd 8dcb 52bb
00000100: f246 dabe 6119 9d40 63d4 42c0 7bda ec3c
00000110: 670c c2be b0af 653f ccf5 0240 33f7 4ebf
00000120: 9ca2 553f ad84 0a3f c001 08bf cf80 18bf
00000130: 0acd 543e 061b 9b3d 1dbb e8bd 8213 2abf
00000140: b1d6 eabf fb9e 1ebd 3384 5dbf b0e7 cfbf
00000150: f28c 573e 7551 c9bf 61fb bc3f db44 2abe
00000160: f06d b63f 0f92 03be f4fb 81bf 8718 d4bc
00000170: fd93 37bf 3167 b43f 2d0f 21bf 5f42 9a3d
00000180: 513f 67be f003 883e d615 2f3e f411 e940
00000190: 4511 d8bf e034 83be 62f6 65be 535c 583f
000001a0: 989c d73c b954 e23f 1347 183d e147 a53e
000001b0: 04ca b1bd fdca 06c1 825e 5dbd 8cf5 e8be
000001c0: 3376 58be 097b 953e b1ec 463f 2ccd afbd
000001d0: 73fe 09c0 0b14 c0bf 03ef d3be 4b5f 54bf
000001e0: c1ec 9ebd 6e5a 7ebf a2e0 b1bf 9e11 bcbd
000001f0: a97d 08bf 3e72 4f3f 8dc0 8c3e a2da 21be
00000200: 1404 5a3e c45c 0bbe a322 10bf e35e 59be
00000210: 9589 c640 bc81 dabf d9ad dabe f070 d33c
00000220: 62c1 1dc0 167f 94bf 24ae 6f3f 3e53 d93f
00000230: eaa4 253e d5fd 49bf 1123 8cbd 9d8e 25bf
00000240: c881 53bf 2a17 9dbf e2f1 783f 44bd 78be
00000250: 914c 97be 28dd 1d3f

hiddenLayer3.weight f4 [150, 150]
2.6029747 0.7228779 -0.62439626 -0.21726052 -0.71072006 -1.4914078 1.9804684 0.19340406
0.54811054 -1.0485464 0.029605852 0.55922526 -0.0985178 0.26414627 -0.039478198 0.43920687
-4.404414 -0.7736733 -13.479857 -10.650055 -0.5377874 -0.055006057 0.066386975 0.58814394
0.04191951 0.03468188 -3.7802808 -0.23721796 3.5299976 -2.382041 -1.0750388 0.20361036
-2.4086263 -2.4138367 -0.7714405 -0.7758163 -0.646825 0.20283481 -4.6459155 2.1772718
3.9800239 -2.0202146 0.44348615 0.018513782 10.137939 0.2180321 1.6222432 -0.21468516
-2.2012823 0.9795254 -0.0007188387 -2.3179128 0.0021822047 1.1071285 -7.4131804 -0.7867676
-0.44583893 -0.8635884 0.09595453 0.7419346 -0.3427615 0.53060305 1.8358797 5.843229
-5.6372075 -0.34132686 -3.9359636 0.14093357 0.16350156 -3.3719563 -1.4709167 1.4582382
-0.06161602 -0.25595653 0.5071413 -0.051215038 -3.199294 -2.7269049 -3.1528144 -0.6555355
-1.2186016 0.70246917 -6.74838 -0.9350533 -0.42188534 -9.287261 -2.1151485 0.13937196
-0.5893299 0.0018452138 -1.5215629 2.0717885 0.69201505 2.2747872 -2.147632 -1.0073475
-6.068737 -0.2431248 -0.14231052 0.72688204 -6.2434278 -0.31858724 0.27195716 5.614
-0.03982475 -3.1029058 -5.1324487 0.51308864 2.2845206 -0.66030985 -0.15723927 -0.56535655
0.038710184 0.01501192 0.19548106 -2.0822697 0.017258888 -1.2267678 0.3272094 4.371286
0.033637494 0.32774407 -3.4064744 0.09183906 -0.055465028 2.365343 -0.005679916 -1.8267914
1.2495036 -0.07497147 -2.3089368 -1.4510294 -0.5245817 0.58284086 -1.4419218 0.5493221
-7.232311 -0.34114292 -3.0848458 4.940656 0.06607957 -1.707404 -0.020323692 0.1487548
-3.3462365 1.3671635 1.3233901 0.10188059 1.1343116 0.070887126 -0.7443087 -3.0695558
-11.849708 -4.7100716 -0.77611095 -4.9299445 -2.6019974 0.606388 -0.41471735 -5.8173122
-4.5570807 -1.7743376 -5.7680106 -5.356196 -0.019001503 -0.28788102 -1.6329328 0.13367735
-1.9626358 -1.1651977 1.7265811 -0.03476436 -0.41150668 -2.7459967 0.0428853 3.408806
2.5386412 0.95177966 -0.33013624 -20.634384 -0.67261916 0.5898275 -5.1948547 -0.3844166
-1.8859048 -3.150197 0.59561276 -6.3437066 3.557501 -2.252834 -3.555593 -2.2856412
3.502757 0.07555381 -8.067909 0.025171995 -0.023959132 1.8220725 -1.0473485 0.38652834
-0.07994464 4.006854 -6.894326 0.43075928 -0.45482334 -0.24196751 -0.15237576 1.9291593
-0.2694796 -0.04516563 -0.13711968 -10.069244 -5.7985244 0.559607 -14.084487 -0.386631
-3.1251884 -0.6012833 -0.14368398 -0.36479184 2.094106 0.8044804 0.11232229 -1.9726915
0.0031139795 1.0913576 -1.3140033 -5.035101 -3.7715397 -0.002796365 -4.2507176 3.3231802
-1.432228 -2.1950583 -0.82030255 -18.813217 0.45348418 -0.060362916 0.6259356 0.05891534
2.928085 -5.7037773 2.3151345 0.5629301 0.33323672 -3.782825 -5.774338 0.6316989
5.4440684 -0.3073864 -5.229489 -0.04270583 0.22608232 -4.96748 0.0228396 5.0166416
00000000: 2397 2640 870e 393f 6fd8 1fbf 8b79 5ebe
00000010: c0f1 35bf 73e6 bebf fd7f fd3f b70b 463e
00000020: f950 0c3f c536 86bf f987 f23c 6329 0f3f
00000030: b3c3 c9bd 2e3e 873e e4b3 21bd b9df e03e
00000040: f6f0 8cc0 740f 46bf 7fad 57c1 a066 2ac1
00000050: 6fac 09bf 084e 61bd e5f5 873d 9a90 163f
00000060: cbb3 2b3d 960e 0e3d 1ff0 71c0 44e9 72be
00000070: 7beb 6140 5c73 18c0 df9a 89bf 3c7f 503e
00000080: ef26 1ac0 4d7c 1ac0 207d 45bf e69b 46bf
00000090: 5396 25bf eeb3 4f3e 57ab 94c0 6c58 0b40
000000a0: b6b8 7e40 324b 01c0 9e10 e33e 37aa 973c
000000b0: 0035 2241 cf43 5f3e aaa5 cf3f 6dd6 5bbe
000000c0: cfe1 0cc0 2dc2 7a3f 7370 3cba af58 14c0
000000d0: 5203 0f3b 63b6 8d3f c638 edc0 9a69 49bf
000000e0: 0045 e4be 2114 5dbf cf83 c43d 6def 3d3f
000000f0: 6f7e afbe 9ad5 073f 1bfe ea3f bbfb ba40
00000100: 0164 b4c0 65c2 aebe d4e6 7bc0 e450 103e
00000110: f46c 273e 22ce 57c0 0047 bcbf 8da7 ba3f
00000120: 1461 7cbd bc0c 83be 03d4 013f dcc6 51bd
00000130: 3cc1 4cc0 9c85 2ec0 b6c7 49c0 2dd1 27bf
00000140: 23fb 9bbf 05d5 333f bbf2 d7c0 a75f 6fbf
00000150: 5b01 d8be 9f98 14c1 985e 07c0 86b7 0e3e
00000160: 53de 16bf 1adb f13a 93c2 c2bf 2f98 0440
00000170: e627 313f 1d96 1140 cd72 09c0 c3f0 80bf
00000180: 1833 c2c0 b5f5 78be d9b9 11be f114 3a3f
00000190: 29ca c7c0 de1d a3be f83d 8b3e e3a5 b340
000001a0: 471f 23bd 0296 46c0 053d a4c0 c759 033f
000001b0: 9635 1240 110a 29bf 5503 21be 35bb 10bf
000001c0: 928e 1e3d 8ef4 753c 302c 483e e843 05c0
000001d0: 8362 8d3c ba06 9dbf fe87 a73e 93e1 8b40
000001e0: 78c7 093d 12ce a73e ad03 5ac0 1e16 bc3d
000001f0: 4c2f 63bd c861 1740 971e babb 4dd4 e9bf
00000200: bcef 9f3f a48a 99bd 9fc5 13c0 55bb b9bf
00000210: fc4a 06bf 0f35 153f e590 b8bf 60a0 0c3f
00000220: 176f e7c0 49aa aebe 1d6e 45c0 db19 9e40
00000230: ba54 873d 378c dabf df7d a6bc 2e53 183e
00000240: bd28 56c0 37ff ae3f d964 a93f c5a6 d03d
00000250: 1f31 913f 452d 913d 048b 3ebf 9a73 44c0
00000260: 6798 3dc1 e8b8 96c0 35af 46bf 1bc2 9dc0
00000270: 2087 26c0 3e3c 1b3f d555 d4be 6c27 bac0
00000280: 9bd3 91c0 7f1d e3bf 8b93 b8c0 f565 abc0
00000290: 0aa9 9bbc 2465 93be f103 d1bf b7e2 083e
000002a0: a637 fbbf 3325 95bf 9c00 dd3f 1365 0ebd
000002b0: 01b1 d2be 69be 2fc0 7fa8 2f3d e129 5a40
000002c0: 1979 2240 d5a7 733f 9e07 a9be 3813 a5c1
000002d0: c530 2cbf effe 163f 403c a6c0 41d2 c4be
000002e0: 5465 f1bf d49c 49c0 147a 183f a5ff cac0
000002f0: 19ae 6340 6f2e 10c0 d68e 63c0 f247 12c0
00000300: 2c2d 6040 f5bb 9a3d 2816 01c1 8035 ce3c
00000310: f145 c4bc ac39 e93f 840f 86bf 0be7 c53e
00000320: 04ba a3bd 2638 8040 529e dcc0 7b8c dc3e
00000330: 9bde e8be 55c6 77be 6408 1cbe b1ee f63f
00000340: 3bf9 89be 98ff 38bd 1a69 0cbe a01b 21c1
00000350: 838d b9c0 6842 0f3f 0f5a 61c1 80f4 c5be
00000360: 1603 48c0 b4ed 19bf e521 13be ffc5 babe
00000370: d505 0640 6df2 4d3f 3b09 e63d 2881 fcbf
00000380: e813 4c3b 9bb1 8b3f 4331 a8bf 8c1f a1c0
00000390: e860 71c0 3843 37bb e105 88c0 fcae 5440
000003a0: 3f53 b7bf d67b 0cc0 59ff 51bf 7881 96c1
000003b0: 142f e83e 1b3f 77bd 513d 203f 3651 713d
000003c0: bf65 3b40 5885 b6c0 2a2b 1440 301c 103f
000003d0: 019e aa3e ce19 72c0 60c7 b8c0 05b7 213f
000003e0: cf35 ae40 c061 9dbe f957 a7c0 4fec 2ebd
000003f0: 2082 673e 99f5 9ec0 1d1a bb3c 5488 a040

hiddenLayer3.bias f4 [150]
9.084318 8.073349 -0.29009405 -0.6869599 0.33979413 5.9849224 -4.468376 0.7143723
-0.90811276 -1.0759413 -0.2850629 2.8874807 -0.48658153 -3.1759303 6.9424396 -0.8210645
-0.3339974 6.150039 -0.15851338 -0.7345756 4.9494143 -0.54416776 13.124484 1.5430452
-0.6186588 3.566465 5.7500386 -0.1726447 4.0837154 1.3682033 0.034381796 8.0374155
-0.5763199 5.9636106 -1.1369435 -0.4487875 8.020652 2.317758 -0.77778935 -0.7322972
-0.09635492 -0.35569662 3.1674333 -0.7841934 -0.060626525 6.1572495 -0.5057843 14.732571
-0.7211353 4.216916 10.903241 -0.2209917 -9.70652 -0.07737688 -0.2787361 3.9689202
-0.6676947 6.878854 3.3583558 -13.010105 -0.7196559 -0.120635666 -0.49708635 8.278184
-0.19737475 -0.27291784 -0.8247287 -8.868692 -0.44518605 -0.18328115 7.3682756 1.7335418
1.1990008 11.183285 8.3347645 3.8956397 -8.021869 -1.1576134 8.962065 -0.93634886
-1.1376247 9.11851 3.3556921 0.24495968 -2.6373858 -0.08417235 -0.45419443 -0.58741385
-0.11156683 -0.33437043 1.564699 10.748652 -0.31785005 -1.9522827 -0.2218491 -4.1952415
8.46085 -0.6679877 -9.697502 9.897923 -0.14858466 6.083044 -0.64789045 -0.45590737
3.3941574 -0.13558355 5.35196 -1.2232407 -0.12899697 14.1221695 -0.8484035 1.5393195
10.578714 0.120245606 1.7390826 14.172976 0.0082779275 -0.04316597 14.505936 -1.4216138
-0.5278004 -0.50631195 -0.10461432 -0.12583351 -0.60736024 -9.132665 0.015021 -0.18464684
5.123976 7.649146 -0.76196426 6.8245935 -1.6574898 4.0496087 0.9811703 12.395832
-0.9322969 -3.7067912 0.7244675 -0.21786775 -0.0650501 10.072015 -0.5072137 -6.938271
3.6663024 0.19094172 1.2623665 5.5866694 -3.4862254 -0.023711355
00000000: 5e59 1141 702c 0141 3587 94be 9bdc 2fbf
00000010: 7ff9 ad3e 7c84 bf40 f0fc 8ec0 1ae1 363f
00000020: 147a 68bf 72b8 89bf c4f3 91be 7ccc 3840
00000030: 3721 f9be 7142 4bc0 7728 de40 4831 52bf
00000040: b501 abbe 1fcd c440 5551 22be 260d 3cbf
00000050: 9a61 9e40 944e 0bbf e3fd 5141 8182 c53f
00000060: 6c60 1ebf f640 6440 5100 b840 c6c9 30be
00000070: ccad 8240 4921 af3f edd3 0c3d 4199 0041
00000080: b389 13bf e6d5 be40 5d87 91bf 7ac7 e5be
00000090: 9754 0041 2656 1440 341d 47bf d477 3bbf
000000a0: ba55 c5bd de1d b6be 3ab7 4a40 e6c0 48bf
000000b0: 8553 78bd 3008 c540 147b 01bf 9cb8 6b41
000000c0: 539c 38bf faf0 8640 ad73 2e41 a64b 62be
000000d0: e84d 1bc1 c577 9ebd 80b6 8ebe ca02 7e40
000000e0: 0aee 2abf 921f dc40 4def 5640 6429 50c1
000000f0: 5e3b 38bf d50f f7bd 1a82 febe 7173 0441
00000100: 9b1c 4abe e3bb 8bbe 6c21 53bf 2ae6 0dc1
00000110: 6def e3be 0eae 3bbe eac8 eb40 b3e4 dd3f
00000120: dc78 993f bcee 3241 325b 0541 2952 7940
00000130: 9359 00c1 ad2c 94bf 9e64 0f41 8fb4 6fbf
00000140: b09d 91bf 6be5 1141 a9c3 5640 b6d6 7a3e
00000150: eeca 28c0 8e62 acbd 2c8c e8be c160 16bf
00000160: 267d e4bd 9a32 abbe 0f48 c83f 7bfa 2b41
00000170: 3ebd a2be 66e4 f9bf 692c 63be 6b3f 86c0
00000180: a45f 0741 3e01 2bbf f828 1bc1 e55d 1e41
00000190: 9426 18be 4ca8 c240 26dc 25bf b16c e9be
000001a0: e039 5940 6ad6 0abe 4243 ab40 2793 9cbf
000001b0: c817 04be 68f4 6141 f930 59bf 6c08 c53f
000001c0: 6a42 2941 5443 f63d 429a de3f 82c4 6241
000001d0: 25a0 073c cdce 30bd 5018 6841 71f7 b5bf
000001e0: ed1d 07bf a99d 01bf 0840 d6bd 80da 00be
000001f0: f67b 1bbf 651f 12c1 a41a 763c 1014 3dbe
00000200: 9df7 a340 cec5 f440 1710 43bf 1263 da40
00000210: a028 d4bf 6596 8140 fa2d 7b3f 5455 4641
00000220: 02ab 6ebf 113c 6dc0 b476 393f b918 5fbe
00000230: fd38 85bd f926 2141 c2d8 01bf 5106 dec0
00000240: b3a4 6a40 3a86 433e 3a95 a13f ffc5 b240
00000250: 511e 5fc0 513e c2bc

outputLayer.weight f4 [2, 150]
2.8882422 2.5313475 0.00016172936 -0.37165856 0.14386666 1.0894036 -5.5642576 0.013927238
-1.4966273 2.6882622 0.47506523 0.4255629 0.4664927 -4.094581 3.8182557 1.7070203
0.013877263 3.1633837 -0.020919697 1.9345652 0.9791537 -0.027860578 1.5127764 1.2055182
-2.3437202 9.139071 0.7275207 0.285649 -0.23420836 1.957302 -0.5734515 2.1702118
5.3558397 0.8659273 -7.126287 0.5402802 0.37748635 0.49451905 0.88168484 1.0569267
0.36390537 1.0368779 13.28045 1.0480752 0.1139454 0.3174436 1.1073351 2.4470577
-0.34129125 2.7880633 0.9625654 -0.029441472 -2.462616 0.027908899 2.874843 1.9920243
1.4777931 3.0096874 0.77823824 -4.019413 1.1920921 -1.1756264 -0.3234836 7.3615074
-1.4325324 -1.9764551 1.3970195 -1.1900419 -3.576024 -0.03774108 2.818419 6.30601
-1.660451 1.0586796 0.88134 1.0193487 -1.1755899 -0.72449553 3.4043944 -1.5788022
1.6070384 1.0524167 -1.23658 1.6473131 -0.22206053 -0.08756433 -0.49413738 3.5730994
-0.026105719 -0.9044898 -3.8804274 0.7236495 -0.34431034 -1.2894987 0.025645152 -13.522627
2.0891955 5.550912 -1.4280795 0.15867257 -7.536411 1.4999427 1.8104193 -1.5781078
0.7119337 -2.491873 0.32062352 -0.023471897 -1.1457816 0.903757 -0.38589677 -0.5993412
6.1707945 0.6916457 -1.8143315 2.1501982 -0.01194166 -0.0054362626 0.958861 -2.1968195
-0.2494355 -0.20019002 -0.04536982 -0.43549198 0.017523961 -1.966427 -0.002015359 0.0183364
-1.0229838 1.0614966 -9.060673 -0.18424137 -4.1124606 -3.5804014 2.7726905 0.9148678
-0.14588219 -1.279093 5.9999013 2.091224 -0.014709378 2.171355 2.2855113 -0.075242266
-0.6938924 0.23212695 4.06817 1.0548918 4.809734 -0.015066528 2.841732 2.4634516
0.014177368 0.1887613 0.13436668 0.70048314 -6.5570374 0.021959864 3.5187027 -2.8390503
-0.042870924 0.588891 -0.6121577 -4.1495366 3.9019182 -0.82842237 0.022050727 3.1827624
-0.0033920147 -2.0361302 1.0355484 -0.2699591 1.5623103 1.1055044 2.5371435 9.170321
0.73275566 -0.29780993 0.25645405 5.2700133 1.1473444 2.1504989 -1.5819441 0.7734577
-7.9155927 0.38715276 0.34820715 -0.41796964 0.527382 0.056951992 0.13241546 -0.88266176
14.643464 -1.2581706 -0.22502224 0.31377175 -2.5691872 2.4530735 0.18626735 2.8196368
0.9169261 -0.022358513 -2.445615 -0.00650935 -2.29029 1.917 2.0923266 2.9389284
0.7030267 -4.042583 -1.1209916 0.9578313 0.19454537 7.843892 1.6109143 -0.8730609
2.1175592 -1.1999702 -2.532837 0.011114664 2.9078162 6.127605 0.21169004 1.0788246
0.93731016 1.0403925 -1.1867889 -0.6955202 2.9864562 -2.065697 1.6814 1.0623907
2.3862977 1.8024393 -0.23528561 0.018444631 1.2240012 2.92398 -0.029242331 0.74386674
-2.8514917 0.72350645 0.83649945 -1.3092761 -0.005326242 -16.666899 2.0415082 3.802682
-1.4056519 0.17458421 -2.05485 0.78633153 1.5683712 1.6315687 4.9949365 2.4855378
00000000: f6d8 3840 9901 2240 e595 2939 084a bebe
00000010: c851 133e 9471 8b3f 660e b2c0 122f 643c
00000020: 7c91 bfbf 7d0c 2c40 c03b f33e 61e3 d93e
00000030: 22d8 ee3e cf06 83c0 4d5e 7440 a47f da3f
00000040: 765d 633c e174 4a40 c95f abbc d59f f73f
00000050: d1a9 7a3f de3b e4bc a8a2 c13f 6c4e 9a3f
00000060: 83ff 15c0 a339 1241 cc3e 3a3f 9640 923e
00000070: 51d4 6fbe df88 fa3f b8cd 12bf c0e4 0a40
00000080: 0a63 ab40 69ad 5d3f 8b0a e4c0 ce4f 0a3f
00000090: e445 c13e 9a31 fd3e 19b6 613f 6049 873f
000000a0: ce51 ba3e 6ab8 843f b97c 5441 5427 863f
000000b0: 355c e93d f887 a23e 28bd 8d3f 989c 1c40
000000c0: babd aebe a16f 3240 b06a 763f 3e2f f1bc
000000d0: 809b 1dc0 34a1 e43c 6dfd 3740 a7fa fe3f
000000e0: 5328 bd3f b89e 4040 9f3a 473f 089f 80c0
000000f0: 7996 983f ed7a 96bf a49f a5be 7891 eb40
00000100: 395d b7bf 7bfc fcbf 89d1 b23f 4b53 98bf
00000110: 94dd 64c0 6496 1abd fa60 3440 d5ca c940
00000120: a989 d4bf d082 873f 809f 613f 057a 823f
00000130: bb79 96bf 8a78 39bf 99e1 5940 3116 cabf
00000140: 6fb3 cd3f 97b5 863f 4148 9ebf 28db d23f
00000150: d663 63be ed54 b3bd 93ff fcbe a9ad 6440
00000160: a9db d5bc a58c 67bf ec58 78c0 1841 393f
00000170: 7249 b0be 4b0e a5bf c815 d23c ae5c 58c1
00000180: 61b5 0540 12a1 b140 4fcb b6bf 107b 223e
00000190: 472a f1c0 1ffe bf3f d2bb e73f 70ff c9bf
000001a0: 4941 363f d97a 1fc0 c428 a43e 2348 c0bc
000001b0: f9a8 92bf 9e5c 673f 4394 c5be 6d6e 19bf
000001c0: 2677 c540 b10f 313f 043c e8bf d99c 0940
000001d0: f4a6 43bc ad22 b2bb ea77 753f b198 0cc0
000001e0: 056c 7fbe 9dfe 4cbe b4d5 39bd cef8 debe
000001f0: 698e 8f3c e1b3 fbbf 1d14 04bb 3836 963c
00000200: 22f1 82bf 1fdf 873f 84f8 10c1 c5a9 3cbe
00000210: 4799 83c0 4c25 65c0 c373 3140 c734 6a3f
00000220: 2462 15be 52b9 a3bf 31ff bf40 9dd6 0540
00000230: 9aff 70bc 7bf7 0a40 d145 1240 9e18 9abd
00000240: efa2 31bf b0b2 6d3e 732e 8240 b206 873f
00000250: 57e9 9940 99d9 76bc f0de 3540 31a9 1d40
00000260: 3148 683c a44a 413e 6b97 093e dd52 333f
00000270: 40d3 d1c0 2ce5 b33c 6d32 6140 00b3 35c0
00000280: 6c99 2fbd 90c1 163f 5eb6 1cbf 01c9 84c0
00000290: 07b9 7940 7d13 54bf baa3 b43c 61b2 4b40
000002a0: 904c 5ebb f54f 02c0 da8c 843f 1438 8abe
000002b0: c9f9 c73f 2b81 8d3f 8f60 2240 a3b9 1241
000002c0: e095 3b3f 8b7a 98be f24d 833e f3a3 a840
000002d0: 2edc 923f c6a1 0940 257d cabf 5301 463f
000002e0: 894c fdc0 e338 c63e 3548 b23e 1e00 d6be
000002f0: 8202 073f 7e46 693d eb97 073e 1ff6 61bf
00000300: a14b 6a41 bc0b a1bf 3b6c 66be b1a6 a03e
00000310: 906d 24c0 28ff 1c40 debc 3e3e ee74 3440
00000320: abbb 6a3f 3329 b7bc f584 1cc0 634c d5bb
00000330: 1d94 12c0 4260 f53f aee8 0540 6717 3c40
00000340: 8ff9 333f d75c 81c0 a77c 8fbf 6f34 753f
00000350: e736 473e 2a01 fb40 7132 ce3f eb80 5fbf
00000360: 1786 0740 a098 99bf 001a 22c0 481a 363c
00000370: a919 3a40 5715 c440 46c5 583e ed16 8a3f
00000380: 8ff3 6f3f 952b 853f b3e8 97bf 9d0d 32bf
00000390: 1922 3f40 6134 04c0 1d38 d73f 6bfc 873f
000003a0: 1ab9 1840 55b6 e63f b6ee 70be 3219 973c
000003b0: 12ac 9c3f 7d22 3b40 9d8d efbc 0d6e 3e3f
000003c0: d77e 36c0 b837 393f d424 563f 5c96 a7bf
000003d0: c287 aebb cf55 85c1 12a8 0240 245f 7340
000003e0: 67ec b3bf 34c6 323e aa82 03c0 064d 493f
000003f0: 63c0 c83f 3ed7 d03f 85d6 9f40 0d13 1f40

outputLayer.bias f4 [2]
14.432869 14.416224
00000000: 08ed 6641 daa8 6641
