ftl/pretrain/weight/finetune_prxy_0/finetune_prxy_0_31.pth (torch, 187645 bytes, 8 tensors)

hiddenLayer1.weight f4 [150, 3]
-0.60376084 -1.12987 -0.4025117 -0.021686291 0.00012234377 -0.053491697 -1.6931864 -0.41476676
-1.2437686 -0.06314321 -0.008357514 1.5754273 -2.5058387e-05 -0.003036188 -0.0025911236 -0.11491106
0.0004363449 -0.112245746 -10.245076 -0.03588646 -0.4969129 -1.203759 0.015298042 -0.21927702
-2.6758602 -0.0019104546 -0.7581157 -0.51779056 -0.07980709 -0.07122152 -0.3468423 -0.017644433
-5.3991637 -0.3348636 0.0138061335 -0.37920606 -16.602915 -0.25267392 -1.1303016 -0.032575484
0.004367758 0.031706855 -0.021713722 0.000505641 -0.0069837803 -0.72478414 -0.025537755 1.1319562
-0.09444375 0.01391173 -0.026190825 -33.48287 -0.1505696 -0.5589236 -3.1823764 0.0054594576
-0.29264572 -0.05708667 -0.00070745073 -0.032307513 0.00019010836 0.008657701 -0.0044600694 -0.4764161
0.6236281 0.27864337 -0.009914082 -0.07628418 0.0032669338 -11.253713 -0.06881475 0.24440584
-0.025638046 0.0069422894 0.81235594 -2.9695196 -0.039792493 -2.903538 -0.9225467 0.179135
-0.68603384 -0.14020693 -0.1094402 1.3600206 -0.96035534 0.9536667 -0.67308676 -0.30613258
-0.041856576 -0.029574705 -0.068448275 0.00022090529 2.0727475 -3.185834 -0.006973166 0.5753172
-0.5410363 0.88589483 -1.2187366 -0.46535766 -0.0006787362 -0.050207965 -0.075492285 -6.0254755e-05
-0.10112852 -1.0445236 -0.9459147 -0.2066793 -0.13250042 0.023199316 -4.3904285 -0.27294838
0.005178786 -0.20599903 -0.0165612 -0.000701565 -0.027785556 -9.717971 0.17308423 -1.4039712
-0.03140629 -0.004740447 -0.02586291 -3.5143275 -0.21890596 -2.4815793 -0.062008403 0.0001408287
-0.011482914 -0.14920618 -5.0195584e-05 -0.046765797 -1.4405806 -0.5373103 -2.6576734 -1.0642418
-0.00035101015 -3.6359227 -0.56522703 0.010269358 1.3368412 -0.4598878 -0.33195886 -2.1622248
-7.58561 0.02799626 -0.04753707 -1.3145131 0.0678412 -0.37238425 -1.11477 -0.42086217
-0.7493547 -0.8126865 -0.9166551 -0.049029477 -0.08499901 0.011951526 2.3733618 -1.9281055
-0.016680745 0.02741813 -0.07044609 -3.0332656e-05 -0.03537665 0.0493104 0.0034775415 -7.3239427
-0.22595985 -0.2753021 -0.2955869 -0.00429485 -0.00017986288 -0.10385108 -39.04663 -0.15964934
-0.7715469 -2.9714289 0.6908271 0.4519338 -0.028260496 0.0005325569 -0.052008737 0.42946416
0.008681129 -5.305271 -0.004536968 -0.062264387 -7.066376 -0.3400004 0.44648266 -1.0274332
-25.169321 -0.12138686 -0.13708594 -2.0304196 -0.17681192 -2.1102357 -1.2683132 1.3502631
0.09621437 -0.009469905 0.005895422 5.281219 -0.05644776 0.046457294 -0.017846616 -0.08955876
0.0029780245 -0.010934558 -2.36987 0.12956665 0.021473477 -15.844739 0.15800406 -0.7971167
-6.2180834 0.34858817 -0.30417195 -0.114817694 0.0068946197 -0.021754602 -0.06996511 0.003529325
-0.0069130315 -0.073599875 0.00046261257 -0.08730927 -0.45496443 -0.64005107 -0.26853386 -0.05243463
-0.005576323 -0.04125022 -5.191067 0.16193593 0.027429003 -0.013469412 -0.004719176 3.2669387
-0.024480032 0.0036145954 -0.015546311 -30.882545 -0.14659056 -1.165786 -6.0521703 -0.16395234
-1.2443911 3.6516274e-05 0.0010332367 -0.0023561995 -1.0835128 -0.0022189023 -1.1714524 -1.6278381
00000000: 1290 1abf 959f 90bf 0316 cebe 73a7 b1bc
00000010: 6849 0039 1c1a 5bbd 55ba d8bf 4f5c d4be
00000020: cf33 9fbf 3a51 81bd f4ed 08bc 9aa7 c93f
00000030: 7a34 d2b7 c8fa 46bb d7cf 29bb 7d56 ebbd
00000040: 39c5 e439 19e1 e5bd d5eb 23c1 aefd 12bd
00000050: 5e6b febe c614 9abf a4a4 7a3c 288a 60be
00000060: 4b41 2bc0 3868 faba df13 42bf ec8d 04bf
00000070: e671 a3bd 97dc 91bd 5095 b1be 0f8b 90bc
00000080: f3c5 acc0 3e73 abbe 1f33 623c 4c27 c2be
00000090: c5d2 84c1 7a5e 81be b9ad 90bf df6d 05bd
000000a0: 691f 8f3b 0cdf 013d fae0 b1bc fe8c 043a
000000b0: 32d8 e4bb 748b 39bf 8e34 d1bc f1e3 903f
000000c0: ba6b c1bd 06ee 633c 248e d6bc 75ee 05c2
000000d0: eb2e 1abe 9e15 0fbf 0eac 4bc0 40e5 b23b
000000e0: a9d5 95be b6d3 69bd 3774 39ba e254 04bd
000000f0: d357 4739 08d9 0d3c c625 92bb d0ec f3be
00000100: 17a6 1f3f 58aa 8e3e ac6e 22bc e13a 9cbd
00000110: 0e1a 563b 350f 34c1 bfee 8cbd 8645 7a3e
00000120: e106 d2bc 257c e33b 8ff6 4f3f 9c0c 3ec0
00000130: 74fd 22bd 91d3 39c0 052c 6cbf 2a6f 373e
00000140: ea9f 2fbf 6892 0fbe 2f22 e0bd 2815 ae3f
00000150: d9d9 75bf 8023 743f 6a4f 2cbf 69bd 9cbe
00000160: cd71 2bbd a746 f2bc 9c2e 8cbd d0a2 6739
00000170: e5a7 0440 b4e4 4bc0 287f e4bb fd47 133f
00000180: 5b81 0abf 01ca 623f 90ff 9bbf 5c43 eebe
00000190: 37ed 31ba dea6 4dbd b39b 9abd 0dba 7cb8
000001a0: 781c cfbd f3b2 85bf 7727 72bf bda3 53be
000001b0: 31ae 07be 7e0c be3c 647e 8cc0 e4bf 8bbe
000001c0: ceb2 a93b 69f1 52be 5bab 87bc 3be9 37ba
000001d0: 899e e3bc cf7c 1bc1 fe3c 313e 54b5 b3bf
000001e0: e2a3 00bd c055 9bbb 74de d3bc beea 60c0
000001f0: e228 60be 32d2 1ec0 86fc 7dbd 6bab 1339
00000200: d522 3cbc 81c9 18be 1989 52b8 7e8d 3fbd
00000210: f264 b8bf 2b8d 09bf 5217 2ac0 1339 88bf
00000220: c907 b8b9 f5b2 68c0 b8b2 10bf cf40 283c
00000230: 9d1d ab3f 6a76 ebbe 83f6 a9be e461 0ac0
00000240: 51bd f2c0 6a58 e53c 3bb6 42bd f741 a8bf
00000250: 54f0 8a3d 26a9 bebe c9b0 8ebf 3f7b d7be
00000260: b6d5 3fbf 390c 50bf e9a9 6abf 22d3 48bd
00000270: f613 aebd 55d0 433c 29e5 1740 29cc f6bf
00000280: 0fa6 88bc fc9b e03c 0a46 90bd e272 feb7
00000290: 1be7 10bd b4f9 493d 77e7 633b bd5d eac0
000002a0: 0562 67be 66f4 8cbe 2b57 97be d0bb 8cbb
000002b0: 9399 3cb9 e0af d4bd c02f 1cc2 1e7b 23be
000002c0: 1984 45bf e42b 3ec0 0bda 303f de63 e73e
000002d0: 8e82 e7bc 4a9b 0b3a 1d07 55bd bae2 db3e
000002e0: 4b3b 0e3c c8c4 a9c0 d9aa 94bb f108 7fbd
000002f0: c11f e2c0 8814 aebe 6099 e43e ee82 83bf
00000300: c55a c9c1 ad99 f8bd 4260 0cbe 65f2 01c0
00000310: 2f0e 35be 1a0e 07c0 1658 a2bf 6cd5 ac3f
00000320: 0a0c c53d a927 1bbc 622e c13b bfff a840
00000330: c435 67bd 014a 3e3d 1133 92bc 956a b7bd
00000340: f62a 433b dc26 33bc f3ab 17c0 1fad 043e
00000350: 25e9 af3c 0d84 7dc1 d1cb 213e d70f 4cbf
00000360: 8afa c6c0 267a b23e 6dbc 9bbe 8a25 ebbd
00000370: 43ec e13b b536 b2bc de49 8fbd 3f4c 673b
00000380: b686 e2bb 88bb 96bd cf8a f239 34cf b2bd
00000390: 19f1 e8be 63da 23bf 457d 89be b2c5 56bd
000003a0: 96b9 b6bb fef5 28bd 391d a6c0 88d2 253e
000003b0: cab2 e03c cfae 5cbc 51a3 9abb 8615 5140
000003c0: 598a c8bc d9e2 6c3b f4b5 7ebc 740f f7c1
000003d0: d61b 16be 7a38 95bf 61ab c1c0 1fe3 27be
000003e0: 3548 9fbf 0d29 1938 ac6d 873a 786a 1abb
000003f0: 8cb0 8abf 016b 11bb 27f2 95bf 005d d0bf

hiddenLayer1.bias f4 [150]
-5.5585885 -0.08761147 -2.6648219 -2.194482 -0.059627254 -0.091084905 -1.8728433 0.68523616
-0.73501956 -1.1979284 -0.35834712 -0.38067248 -1.8590561 -4.0769424 -0.0107353665 0.6950894
-0.26611435 -2.2671516 -0.62172884 -0.03835703 -0.18856902 -5.2606335 -1.1864355 -0.50196403
-2.1852772 -0.00297027 -1.2484788 -8.449256 -1.8154033 -0.6433544 3.6885796 -6.347743
-1.8060211 -0.09267674 -0.17178053 -4.687612 -1.7913876 -0.20401832 -0.033318777 -2.0290444
-0.14628151 -1.2390006 -0.014968357 -0.04346149 -1.9346852 -1.5403436 -2.9739368 -0.94159025
-0.7517909 -1.0967898 -2.3727741 -4.4906282 -5.654726 -1.7815199 -0.030258374 -0.32140353
-3.9850419 -0.08308648 -1.6774453 -5.8279443 -0.09127812 2.4699829 0.24741802 -2.098172
-1.1657907 -1.7295954 -4.1841855 0.2646372 -0.66102177 -0.06732466 -1.8624475 -3.3837192
-1.4942557 -0.15573733 -0.07936348 -0.07299324 -7.581081 -0.11849184 -2.3614607 -4.746134
-0.06206175 -2.8206449 -2.0662034 -0.028479282 -0.6262251 -3.7004101 -1.771865 2.5197086
-0.013381488 -0.8436049 -0.34598818 -0.4908458 -2.125987 -2.2546415 -3.4401915 -0.09326719
-0.86083746 -3.66711 -0.10197772 -3.0845134 -0.1372041 -0.6302336 -2.113363 -1.0230649
-3.3232644 -1.0312169 -0.035754465 -2.9239244 -1.2308209 -7.695823 -1.1015309 -0.10884183
-3.7259383 -4.1127114 -1.4546376 -0.017480554 -4.278156 -0.5466243 -3.3026037 -0.12052022
-0.054244444 -5.2896147 -16.094118 -0.026571877 -0.04486456 -0.028602762 -1.4324272 -0.25249186
-0.82555264 -0.6774333 -0.34751177 -1.3508838 -0.13345857 -1.2587079 -0.56105024 -2.3433678
-0.19129646 -0.61119175 -3.8109417 -0.10076139 3.5023608 -4.0299973 -7.732196 -1.100425
-0.27947095 -0.013747211 -3.0515087 -1.7269046 -0.12532479 -0.8546965
00000000: f5df b1c0 a46d b3bd 718c 2ac0 6572 0cc0
00000010: b53b 74bd b98a babd 54b9 efbf a36b 2f3f
00000020: 3e2a 3cbf b855 99bf 4679 b7be 81e7 c2be
00000030: 8df5 edbf 5076 82c0 64e3 2fbc 61f1 313f
00000040: 2440 88be 0319 11c0 9f29 1fbf 431c 1dbd
00000050: 3d18 41be 1c57 a8c0 1edd 97bf b780 00bf
00000060: 95db 0bc0 dda8 42bb 27ce 9fbf 2730 07c1
00000070: 235f e8bf e0b2 24bf b011 6c40 b620 cbc0
00000080: b32b e7bf 4dcd bdbd 3ce7 2fbe eb00 96c0
00000090: 304c e5bf 2eea 50be 4579 08bd dddb 01c0
000000a0: d2ca 15be 9297 9ebf d73d 75bc ad04 32bd
000000b0: c4a3 f7bf fb29 c5bf fb54 3ec0 0f0c 71bf
000000c0: 5e75 40bf 9c63 8cbf 88db 17c0 3ab3 8fc0
000000d0: 84f3 b4c0 d808 e4bf 69e0 f7bc 018f a4be
000000e0: ed0a 7fc0 3f29 aabd 87b6 d6bf 857e bac0
000000f0: 06f0 babd 3314 1e40 265b 7d3e 7348 06c0
00000100: a138 95bf 6263 ddbf d9e4 85c0 877e 873e
00000110: b938 29bf 83e1 89bd ae64 eebf db8e 58c0
00000120: c543 bfbf 9b79 1fbe 5289 a2bd 7b7d 95bd
00000130: 3798 f2c0 daab f2bd 2c22 17c0 54e0 97c0
00000140: 7634 7ebd 7285 34c0 ad3c 04c0 624d e9bc
00000150: 4a50 20bf 85d3 6cc0 79cc e2bf e842 2140
00000160: 073e 5bbc 7ef6 57bf 5d25 b1be 2450 fbbe
00000170: 2c10 08c0 0c4c 10c0 192c 5cc0 de02 bfbd
00000180: d85f 5cbf eeb1 6ac0 b2d9 d0bd ab68 45c0
00000190: 3b7f 0cbe fd56 21bf 5741 07c0 caf3 82bf
000001a0: 5db0 54c0 eafe 83bf 4673 12bd 9421 3bc0
000001b0: 8a8b 9dbf 2f44 f6c0 f7fe 8cbf 77e8 debd
000001c0: c675 6ec0 559b 83c0 9131 babf 6133 8fbc
000001d0: a7e6 88c0 92ef 0bbf dc5d 53c0 4ed3 f6bd
000001e0: 6c2f 5ebd 8644 a9c0 c1c0 80c1 44ad d9bc
000001f0: e7c3 37bd 5750 eabc c659 b7bf 9d46 81be
00000200: 6b57 53bf 456c 2dbf 10ed b1be c3e9 acbf
00000210: 5da9 08be 571d a1bf fda0 0fbf bdf9 15c0
00000220: 38e3 43be 1077 1cbf 78e6 73c0 fd5b cebd
00000230: ae26 6040 bdf5 80c0 266e f7c0 bada 8cbf
00000240: d116 8fbe fb3b 61bc eb4b 43c0 360b ddbf
00000250: 2455 00be 64cd 5abf

hiddenLayer2.weight f4 [150, 150]
-0.33624887 0.07611778 -1.78064 -1.7875625 -0.59487414 0.24902679 -5.088003 -0.6027318
4.1704836 -1.4060246 -7.4923606 -2.492816 -11.315158 -0.11867403 0.10053787 1.0455372
-0.096617855 0.3645457 0.01749531 -0.13611515 -3.1554506 -0.37966242 -0.41363215 -2.0058165
-4.2042847 -1.5595161 0.8458045 -2.120906 2.7830026 -0.76298916 -0.64561975 -0.8352308
-4.8511844 -0.26534298 -0.08441459 -0.41881326 -1.4096452 -0.399036 0.06797514 -5.4208245
-0.21211317 -22.978949 -0.0942391 -0.18589705 -0.019531582 0.30814055 -1.4406576 -13.458742
-8.961867 2.2391202 -4.5522366 1.6511418 -1.1552039 -4.6085114 0.019724634 -14.936644
-5.3017673 0.10412201 2.7163095 -1.5313206 -0.47416076 -0.48229477 -0.42959112 -19.464943
-11.213832 0.5190458 -8.722013 -12.129964 0.62490124 -0.106045574 2.0449705 -6.2797947
-37.98588 -0.041170053 -0.0451855 -0.17476158 -4.1080966 -0.26702517 -6.1561866 -0.25052983
-0.12308942 2.6127596 -0.095372654 -0.0838232 1.4787074 -2.6740267 -6.0636168 -0.23490436
0.27293137 3.4185488 -6.185922 -0.4391318 -2.7311583 4.75942 -0.284525 1.6750631
-0.2095919 -0.29121238 0.93353367 -5.1049995 0.40305275 1.8514181 1.964254 -0.005793735
-0.75534457 0.4935539 0.3313597 0.15521485 -4.319844 -0.8170372 5.603524 -0.1189245
-3.240397 0.90555644 -4.041022 0.010613404 -4.0261936 6.6760635 -11.562347 -0.19187196
-0.018664945 -1.8577703 -0.31438857 -0.08067993 -0.08590939 -0.23828194 -2.5113897 2.448119
-2.1633043 1.0891817 -0.35879755 -0.15575272 -0.11266164 -1.3658496 -4.7768846 -10.6417885
1.7842956 -2.4136224 1.5129589 0.08447807 -0.39181408 -0.8713595 -0.60377973 -0.6658451
-0.94833666 -0.028227566 -5.9421663 -3.7398133 0.052904807 2.3270755 -17.514624 0.0448798
-0.58388144 0.97592944 -0.066948675 -0.2473073 -5.528183 -0.9081575 -0.09649091 -5.009714
-0.66475934 -1.3151531 1.4465871 -5.4584928 0.02462586 0.6531424 0.18612412 -3.4035618
-0.87670183 -0.055897053 5.9851265 1.0365766 0.5442554 -1.4151558 -3.0463026 -0.9254836
-0.77135444 -0.9038706 -2.5005941 -0.55171615 -1.397086 0.48628464 -1.9224323 0.39528555
0.34588104 -0.5125791 -1.3308967 0.3810698 0.047568616 2.6013525 -0.54068 2.042859
-0.011623005 -0.024058897 -8.75738 -0.6361747 1.4515822 -0.6282451 -9.42917 -0.4554732
2.522181 0.5249385 -3.4593759 2.7137887 -0.13889188 -1.2171161 2.843264 -0.32022116
-0.10447345 -0.7926862 -0.8000516 -3.307793 0.27762836 -1.2146543 4.4815116 -0.46455187
-2.0685666 -0.07225729 -0.38949502 -0.15223269 -3.7858272 1.1549988 -2.6573648 0.08912285
-0.08557787 0.113186434 2.674611 -0.3316419 0.5032696 6.3425126 0.23681372 -2.1818292
-10.869438 -0.042767644 -1.9658504 -2.7377677 -4.6199074 -3.7854302 -0.01799707 -1.8321912
-0.15586337 -1.0711906 -1.5665511 1.8574445 -1.4365997 -1.7957325 0.034641717 -2.4727726
0.29221696 1.0433799 0.5216482 0.8209799 -0.74767435 -0.83502454 -17.10497 -1.1178601
00000000: d028 acbe a3e3 9b3d 03ec e3bf d9ce e4bf
00000010: ac49 18bf e100 7f3e ecd0 a2c0 a24c 1abf
00000020: 9a74 8540 9df8 b3bf 6bc1 efc0 4c8a 1fc0
00000030: e30a 35c1 5f0b f3bd cce6 cd3d 2ad4 853f
00000040: 95df c5bd bca5 ba3e 5352 8f3c c561 0bbe
00000050: e7f2 49c0 1d63 c2be 98c7 d3be 4c5f 00c0
00000060: 8089 86c0 399e c7bf a586 583f edbc 07c0
00000070: b71c 3240 4253 43bf 5647 25bf b0d1 55bf
00000080: e73c 9bc0 09db 87be 8ee1 acbd b16e d6be
00000090: 416f b4bf 724e ccbe 8d36 8b3d 6577 adc0
000000a0: 3234 59be e3d4 b7c1 6e00 c1bd cc5b 3ebe
000000b0: b200 a0bc 99c4 9d3e 7867 b8bf 0257 57c1
000000c0: cf63 0fc1 bf4d 0f40 ecab 91c0 9d58 d33f
000000d0: b9dd 93bf ed78 93c0 8e95 a13c 7efc 6ec1
000000e0: 14a8 a9c0 ec3d d53d 04d8 2d40 5002 c4bf
000000f0: 33c5 f2be 57ef f6be 5ef3 dbbe 34b8 9bc1
00000100: db6b 33c1 30e0 043f 5e8d 0bc1 5514 42c1
00000110: 87f9 1f3f 6c2e d9bd cce0 0240 14f4 c8c0
00000120: 8bf1 17c2 eea1 28bd 6e14 39bd b3f4 32be
00000130: 8775 83c0 86b7 88be 7bff c4c0 7245 80be
00000140: 4e16 fcbd 7437 2740 bd52 c3bd 7fab abbd
00000150: 4946 bd3f 4123 2bc0 2609 c2c0 c58a 70be
00000160: a9bd 8b3e 81c9 5a40 13f3 c5c0 e2d5 e0be
00000170: 4ccb 2ec0 2b4d 9840 43ad 91be 7868 d63f
00000180: 429f 56be ca19 95be 10fc 6e3f 285c a3c0
00000190: ee5c ce3e 45fb ec3f ad6c fb3f 5fd9 bdbb
000001a0: 435e 41bf 19b3 fc3e fba7 a93e a4f0 1e3e
000001b0: 293c 8ac0 5a29 51bf 1250 b340 b08e f3bd
000001c0: aa62 4fc0 8cd2 673f 0d50 81c0 d8e3 2d3c
000001d0: 94d6 80c0 50a2 d540 60ff 38c1 157a 44be
000001e0: 3ae7 98bc 6bcb edbf 8af7 a0be 853b a5bd
000001f0: 43f1 afbd 2e00 74be 9cba 20c0 fbad 1c40
00000200: 9473 0ac0 4e6a 8b3f 50b4 b7be a47d 1fbe
00000210: 25bb e6bd 29d4 aebf 3ddc 98c0 c444 2ac1
00000220: cc63 e43f ca78 1ac0 a3a8 c13f d702 ad3d
00000230: db9b c8be 6b11 5fbf 4f91 1abf d374 2abf
00000240: 31c6 72bf 7f3d e7bc 3a26 bec0 1a59 6fc0
00000250: b6b2 583d ceee 1440 f31d 8cc1 e2d3 373d
00000260: 4179 15bf 83d6 793f 631c 89bd 203e 7dbe
00000270: e0e6 b0c0 037d 68bf 079d c5bd 944f a0c0
00000280: ab2d 2abf f056 a8bf c429 b93f f9ab aec0
00000290: 2cbc c93c 5734 273f 5297 3e3e f5d3 59c0
000002a0: 886f 60bf 4ff4 64bd 2886 bf40 8bae 843f
000002b0: 5254 0b3f d323 b5bf 9ff6 42c0 7eec 6cbf
000002c0: 7c77 45bf 1064 67bf bc09 20c0 453d 0dbf
000002d0: b7d3 b2bf 4dfa f83e 4312 f6bf de62 ca3e
000002e0: 5217 b13e 6238 03bf d35a aabf 951b c33e
000002f0: 4fd7 423d 8f7c 2640 016a 0abf 34be 0240
00000300: 6b6e 3ebc 2a17 c5bc 3a1e 0cc1 58dc 22bf
00000310: 72cd b93f acd4 20bf e1dd 16c1 c933 e9be
00000320: 6a6b 2140 5f62 063f 6a66 5dc0 b7ae 2d40
00000330: ac39 0ebe 76ca 9bbf 0af8 3540 07f4 a3be
00000340: 2df6 d5bd 7ced 4abf 2fd0 4cbf e1b2 53c0
00000350: 4e25 8e3e cb79 9bbf 8b68 8f40 bed9 edbe
00000360: 6563 04c0 a1fb 93bd e46b c7be e3e2 1bbe
00000370: fe4a 72c0 00d7 933f 4412 2ac0 0a86 b63d
00000380: 7343 afbd 4ace e73d d42c 2b40 f8cc a9be
00000390: 47d6 003f ddf5 ca40 4c7f 723e 17a3 0bc0
000003a0: 38e9 2dc1 202d 2fbd fca0 fbbf 9637 2fc0
000003b0: 48d6 93c0 7d44 72c0 976e 93bc 3e85 eabf
000003c0: a69a 1fbe c61c 89bf bf84 c8bf bec0 ed3f
000003d0: 80e2 b7bf 90da e5bf 79e4 0d3d e841 1ec0
000003e0: 769d 953e 798d 853f bd8a 053f bd2b 523f
000003f0: 9667 3fbf 2bc4 55bf fbd6 88c1 0a16 8fbf

hiddenLayer2.bias f4 [150]
-0.48202425 -1.7102417 1.4569287 -0.049171098 -0.41126215 0.006536118 1.8404077 -0.1336205
7.583071 0.011958019 -0.30889678 0.028958589 0.75412387 -0.477253 -0.0708255 -4.4098163
4.6127014 -0.011556006 1.8198113 1.6530468 -0.49313775 -0.053309556 -0.8271788 -1.9607956
-0.10596867 -2.076548 -1.7900568 -0.12207482 0.5052243 -0.36138606 1.2185498 -0.19287853
-1.9710299 -0.38789672 2.25842 -2.4761028 -0.23935726 -0.47444323 -1.7786629 1.0118102
-0.83361197 -0.0122227715 -0.18928248 -0.07519976 -2.4968777 -0.53844553 -3.8404548 -3.6470025
0.44146848 -0.7133169 -0.23951155 -1.1793871 -1.0132883 -0.44771996 -0.30143586 -0.32453522
-0.09965506 -0.9304403 0.15804285 -0.1717578 -0.350418 -0.9544988 -0.44213143 0.04372478
-0.9455354 4.857747 -3.044213 0.028912773 -0.37900087 0.897212 1.9597329 -0.7535396
0.8474552 0.541087 -0.5312767 -0.59571546 0.19490492 -0.041810405 0.13681905 -1.1980133
-1.4548715 -0.12003109 -0.9395875 -1.504274 0.2104986 -1.8125422 0.92550963 -0.15028502
0.6961439 -0.12848686 -1.0155015 -0.4141435 -1.8220904 0.60300875 -0.6291378 -0.6536835
-0.24246356 0.10729125 -1.1206802 7.4571786 -1.7356586 -0.25626278 -0.31135952 0.31573504
0.010466929 1.5323168 -0.14417566 0.04625811 -0.086811095 -8.325891 -0.054045208 -0.4352565
-0.2113884 0.26664287 0.7770491 -0.11272255 -2.1535563 -2.2468069 -0.4139329 -0.82957906
-0.07760001 -0.99356735 -1.3896677 -0.09183048 -0.5331674 0.5888415 0.24774069 -0.18727386
1.0318042 -0.13609606 -0.72279185 -0.21227603 6.38296 -1.7070842 -0.4271076 0.009961174
-2.580675 -1.1601284 0.566879 1.2790765 0.16176191 -0.46403408 -0.06842626 -0.64670736
-1.0254405 -1.2314365 1.4633696 -0.24290949 -0.7231535 0.055086292
00000000: e2cb f6be 33e9 dabf a47c ba3f a267 49bd
00000010: f490 d2be ef2c d63b 7b92 eb3f d0d3 08be
00000020: 85a8 f240 91eb 433c b827 9ebe 903a ed3c
00000030: 430e 413f 815a f4be f60c 91bd 371d 8dc0
00000040: 409b 9340 6755 3dbc 94ef e83f 0a97 d33f
00000050: 8d7c fcbe 1f5b 5abd fdc1 53bf 5afb fabf
00000060: 1a06 d9bd 2ae6 04c0 9520 e5bf 5d02 fabd
00000070: 6156 013f 9807 b9be 71f9 9b3f f381 45be
00000080: b54a fcbf 669a c6be f489 1040 7878 1ec0
00000090: 121a 75be 39ea f2be 3aab e3bf ff82 813f
000000a0: 9867 55bf 0542 48bc 44d3 41be 5502 9abd
000000b0: d8cc 1fc0 91d7 09bf 03ca 75c0 7d68 69c0
000000c0: 2808 e23e f09b 36bf 8442 75be 28f6 96bf
000000d0: 6eb3 81bf 8d3b e5be cd55 9abe 7b29 a6be
000000e0: f417 ccbd 5631 6ebf fcd5 213e 47e1 2fbe
000000f0: fd69 b3be 095a 74bf 0d5f e2be c118 333d
00000100: 9c0e 72bf aa72 9b40 63d4 42c0 7bda ec3c
00000110: 670c c2be b0af 653f 87d8 fa3f f9e7 40bf
00000120: d3f2 583f ad84 0a3f c001 08bf cf80 18bf
00000130: 2895 473e 6341 2bbd 4b1a 0c3e 8058 99bf
00000140: 3b39 babf dcd2 f5bd ce88 70bf 0d8c c0bf
00000150: f28c 573e 6201 e8bf 33ee 6c3f 51e4 19be
00000160: 7d36 323f 0f92 03be f4fb 81bf 9e0a d4be
00000170: 423a e9bf c85e 1a3f 2d0f 21bf cd57 27bf
00000180: 5e48 78be 84bb db3d 7372 8fbf 35a1 ee40
00000190: 102a debf e034 83be 846a 9fbe 06a8 a13e
000001a0: 7b7d 2b3c f522 c43f c9a2 13be 2579 3d3d
000001b0: 04ca b1bd d936 05c1 825e 5dbd f1d9 debe
000001c0: 3376 58be 6a85 883e b1ec 463f 15db e6bd
000001d0: ded3 09c0 afcb 0fc0 03ef d3be 4b5f 54bf
000001e0: c1ec 9ebd 6e5a 7ebf a2e0 b1bf 9e11 bcbd
000001f0: a97d 08bf 51be 163f bcaf 7d3e b8c4 3fbe
00000200: 2912 843f c45c 0bbe e308 39bf e35e 59be
00000210: 3541 cc40 bc81 dabf d9ad dabe 3134 233c
00000220: c729 25c0 167f 94bf fb1e 113f c7b8 a33f
00000230: eaa4 253e e095 edbe 1123 8cbd 9d8e 25bf
00000240: a241 83bf b69f 9dbf b24f bb3f 44bd 78be
00000250: 9620 39bf 2aa2 613d

hiddenLayer3.weight f4 [150, 150]
2.6029747 0.85383034 0.16495013 -0.21726052 -0.71072006 -1.8387812 1.5692059 -0.3322659
0.15872684 -1.1521964 0.029605852 0.43215248 -0.6083703 0.26414627 -0.039478198 0.43920687
-3.9217412 -0.917275 -14.607015 -12.405467 -0.5377874 -0.055006057 0.066386975 0.36798453
0.04191951 0.03468188 -3.7802808 -0.23721796 2.8318882 -2.382041 -0.9805906 0.20361036
-2.4086263 -3.064662 -0.764841 -0.7758163 -0.646825 -0.11835457 -4.6459155 1.5521381
4.034607 -2.0202146 0.7402751 0.018513782 10.137939 0.2180321 3.3327966 -0.21468516
-2.168558 0.9795254 -0.0007188387 -2.3179128 0.0021822047 1.1071285 -7.4131804 -0.28534892
-0.44583893 -1.09851 0.065937735 0.73232496 -0.3427615 0.53060305 1.9240332 5.843229
-5.6372075 -4.6871715 -3.9359636 0.14093357 0.16350156 -3.3719563 -0.31423348 0.7015461
-0.06161602 -0.25595653 0.5071413 -0.051215038 -3.199294 -8.988193 -8.915567 -0.6555355
-1.6255047 4.010867 -7.839129 -0.2954632 -0.42188534 -9.1489315 -3.5493472 0.13937196
-1.3530146 0.0018452138 -1.5215629 2.0717885 0.69201505 2.2747872 -2.147632 -0.99093354
-6.052994 -0.3892305 1.1361772 0.25276977 -6.2434278 -0.31858724 0.3574403 5.4002085
-0.03982475 -3.1029058 -2.2222345 0.51308864 2.2845206 1.915477 -0.15723927 -0.5394735
0.038710184 0.01501192 0.19548106 -2.0822697 -0.463248 -1.2267678 0.3272094 4.371286
0.033637494 0.32774407 -3.4064744 0.09183906 -0.055465028 2.672203 0.90946907 -1.8267914
1.2495036 -0.07497147 -3.178382 -1.4510294 -0.69013155 0.58284086 -1.4419218 0.5493221
-6.6326203 -0.34114292 -3.193067 3.1032233 0.06607957 -1.7503716 -0.020323692 0.1487548
-3.3462365 1.3671635 1.2533726 0.10188059 1.1343116 0.070887126 -0.73536724 -3.0695558
-11.493503 -4.7100716 -0.77611095 -5.9598417 -1.7801741 0.081888795 -0.100150295 -5.8173122
-4.5570807 -1.8685633 -5.789351 -5.356196 -0.019001503 -0.28788102 -3.5572536 0.43076378
-1.7150589 -0.35599437 1.7265811 -0.03476436 -0.41150668 -2.603468 0.0428853 3.408806
2.5386412 0.95177966 -1.0263951 -20.634384 -2.7003179 0.5898275 -5.1948547 0.1619948
-1.9475089 -3.150197 0.59561276 -6.391233 3.7436366 -2.2572093 -3.555593 -2.2856412
3.424136 0.07555381 -8.067909 0.025171995 -0.14985567 1.2460902 -0.5542977 0.38652834
-0.07994464 4.006854 -6.868412 0.43075928 -0.45482334 0.011734143 -0.15237576 2.0047066
-0.2694796 -1.3274853 -0.13711968 -10.069244 -6.1032953 0.559607 -13.904873 -2.168412
-3.1251884 -0.6012833 -0.14368398 -0.36479184 -1.28551 0.15137142 0.11232229 -1.9726915
0.0031139795 1.0913576 -1.3140033 -8.932545 -5.2447205 -0.002796365 -2.1343906 2.8238666
-2.0414584 -1.9806789 -0.82030255 -18.813217 0.085675105 -0.099795155 1.6494113 0.05891534
2.928085 -5.7037773 2.3151345 0.5629301 0.33323672 -3.9122632 -5.774338 0.15341468
5.0608807 -0.072782554 -5.229489 -0.04270583 -0.32704693 -5.03856 0.0228396 5.0415335
00000000: 2397 2640 a094 5a3f b0e8 283e 8b79 5ebe
00000010: c0f1 35bf 2f5d ebbf bddb c83f c21e aabe
00000020: 4a89 223e 2c7b 93bf f987 f23c 1743 dd3e
00000030: 28be 1bbf 2e3e 873e e4b3 21bd b9df e03e
00000040: cffd 7ac0 89d2 6abf 55b6 69c1 cb7c 46c1
00000050: 6fac 09bf 084e 61bd e5f5 873d 7868 bc3e
00000060: cbb3 2b3d 960e 0e3d 1ff0 71c0 44e9 72be
00000070: a83d 3540 5c73 18c0 fc07 7bbf 3c7f 503e
00000080: ef26 1ac0 6c23 44c0 9fcc 43bf e69b 46bf
00000090: 5396 25bf e163 f2bd 57ab 94c0 76ac c63f
000000a0: 801b 8140 324b 01c0 ab82 3d3f 37aa 973c
000000b0: 0035 2241 cf43 5f3e 8a4c 5540 6dd6 5bbe
000000c0: a7c9 0ac0 2dc2 7a3f 7370 3cba af58 14c0
000000d0: 5203 0f3b 63b6 8d3f c638 edc0 4119 92be
000000e0: 0045 e4be fa9b 8cbf 5d0a 873d a679 3b3f
000000f0: 6f7e afbe 9ad5 073f b846 f63f bbfb ba40
00000100: 0164 b4c0 4ffd 95c0 d4e6 7bc0 e450 103e
00000110: f46c 273e 22ce 57c0 36e3 a0be 8698 333f
00000120: 1461 7cbd bc0c 83be 03d4 013f dcc6 51bd
00000130: 3cc1 4cc0 a3cf 0fc1 2aa6 0ec1 2dd1 27bf
00000140: 8a10 d0bf 0659 8040 25da fac0 f446 97be
00000150: 5b01 d8be 0662 12c1 8128 63c0 86b7 0e3e
00000160: 952f adbf 1adb f13a 93c2 c2bf 2f98 0440
00000170: e627 313f 1d96 1140 cd72 09c0 d2ad 7dbf
00000180: 20b2 c1c0 3849 c7be 416e 913f 0a6b 813e
00000190: 29ca c7c0 de1d a3be 6a02 b73e 82ce ac40
000001a0: 471f 23bd 0296 46c0 1739 0ec0 c759 033f
000001b0: 9635 1240 5a2e f53f 5503 21be ef1a 0abf
000001c0: 928e 1e3d 8ef4 753c 302c 483e e843 05c0
000001d0: d82e edbe ba06 9dbf fe87 a73e 93e1 8b40
000001e0: 78c7 093d 12ce a73e ad03 5ac0 1e16 bc3d
000001f0: 4c2f 63bd 6005 2b40 f7d2 683f 4dd4 e9bf
00000200: bcef 9f3f a48a 99bd 9c6a 4bc0 55bb b9bf
00000210: 76ac 30bf 0f35 153f e590 b8bf 60a0 0c3f
00000220: 6d3e d4c0 49aa aebe 365b 4cc0 369b 4640
00000230: ba54 873d 2d0c e0bf df7d a6bc 2e53 183e
00000240: bd28 56c0 37ff ae3f 836e a03f c5a6 d03d
00000250: 1f31 913f 452d 913d 0741 3cbf 9a73 44c0
00000260: 63e5 37c1 e8b8 96c0 35af 46bf 06b7 bec0
00000270: bfdc e3bf 50b5 a73d 991b cdbd 6c27 bac0
00000280: 9bd3 91c0 152d efbf 5d42 b9c0 f565 abc0
00000290: 0aa9 9bbc 2465 93be 0baa 63c0 128d dc3e
000002a0: 0d87 dbbf e544 b6be 9c00 dd3f 1365 0ebd
000002b0: 01b1 d2be 389f 26c0 7fa8 2f3d e129 5a40
000002c0: 1979 2240 d5a7 733f ea60 83bf 3813 a5c1
000002d0: 02d2 2cc0 effe 163f 403c a6c0 f7e1 253e
000002e0: f947 f9bf d49c 49c0 147a 183f fb84 ccc0
000002f0: be97 6f40 1e76 10c0 d68e 63c0 f247 12c0
00000300: 0b25 5b40 f5bb 9a3d 2816 01c1 8035 ce3c
00000310: c473 19be e27f 9f3f 74e6 0dbf 0be7 c53e
00000320: 04ba a3bd 2638 8040 08ca dbc0 7b8c dc3e
00000330: 9bde e8be 9040 403c 6408 1cbe 1d4d 0040
00000340: 3bf9 89be 0aeb a9bf 1a69 0cbe a01b 21c1
00000350: 324e c3c0 6842 0f3f 5c7a 5ec1 43c7 0ac0
00000360: 1603 48c0 b4ed 19bf e521 13be ffc5 babe
00000370: 978b a4bf 1c01 1b3e 3b09 e63d 2881 fcbf
00000380: e813 4c3b 9bb1 8b3f 4331 a8bf b4eb 0ec1
00000390: c0d4 a7c0 3843 37bb db99 08c0 3bba 3440
000003a0: 41a7 02c0 e386 fdbf 59ff 51bf 7881 96c1
000003b0: 6e76 af3d 6761 ccbd e91f d33f 3651 713d
000003c0: bf65 3b40 5885 b6c0 2a2b 1440 301c 103f
000003d0: 019e aa3e 8562 7ac0 60c7 b8c0 bd18 1d3e
000003e0: bcf2 a140 050f 95bd f957 a7c0 4fec 2ebd
000003f0: b272 a7be e23b a1c0 1d1a bb3c 3e54 a140

hiddenLayer3.bias f4 [150]
8.838412 8.426792 -0.29009405 -0.593079 0.40502903 6.2437453 -4.7143674 0.7143723
-0.94836676 -1.0759413 -0.2850629 2.508545 -0.34260547 -3.2199965 6.600217 -1.2650568
-0.33449447 6.154386 -0.15851338 -0.7345756 5.203334 -0.54416776 13.205464 1.3723837
-0.65667284 3.566465 5.555951 -0.1726447 3.9016721 1.3682033 -0.29859728 7.876046
-0.5763199 6.1631336 -1.1568204 -0.4487875 8.152794 2.2072115 -1.6911582 -0.7322972
-0.29029185 -0.38099316 3.057431 -0.7841934 -0.060626525 5.872573 -0.8215858 15.141279
-0.7211353 4.0953813 11.136909 -0.2209917 -9.91485 -0.07737688 -0.2787361 3.8666131
-0.6676947 6.995242 3.243953 -13.179067 -0.7196559 -0.110091336 -0.49708635 8.263068
-0.19737475 -0.5397729 -1.0029733 -9.162296 -1.3897425 -0.18328115 7.480789 1.535814
0.6614278 11.5826845 8.152664 2.9609795 -8.623603 -2.3629081 8.663334 -0.93634886
-1.1376247 9.225926 3.3203473 0.24495968 -2.599381 -0.08417235 -0.42322725 -0.61200154
-0.11156683 -0.3308787 1.5625249 10.969333 -0.31785005 -1.9522827 -0.2218491 -4.1952415
8.488607 -0.6679877 -9.787455 9.99194 -0.14858466 5.8369555 0.14714509 -0.45590737
3.3941574 -0.15712833 5.102667 -1.2232407 -0.12899697 14.34067 -0.8484035 1.0587239
10.323019 0.1131139 2.025501 14.20126 0.0082779275 -0.04316597 14.81005 -1.8795346
-0.24669203 -0.4747941 -0.10461432 -0.12583351 -0.39321816 -9.4690695 0.015021 -0.18464684
5.0902476 7.541919 -0.76196426 6.8526506 -1.6574898 3.9637346 1.1488825 12.444701
-0.9322969 -4.1535397 0.7244675 -0.21786775 -0.07416101 10.232747 -0.5315525 -6.9909797
3.672912 0.2068194 1.1747553 5.3256497 -3.4862254 -0.023711355
00000000: 236a 0d41 24d4 0641 3587 94be 06d4 17bf
00000010: f75f cf3e c3cc c740 19dc 96c0 1ae1 363f
00000020: 2ac8 72bf 72b8 89bf c4f3 91be 008c 2040
00000030: fc69 afbe 6c14 4ec0 fa34 d340 62ed a1bf
00000040: dc42 abbe bbf0 c440 5551 22be 260d 3cbf
00000050: b681 a640 944e 0bbf 9549 5341 45aa af3f
00000060: b61b 28bf f640 6440 5aca b140 c6c9 30be
00000070: ffb4 7940 4921 af3f bee1 98be 9208 fc40
00000080: b389 13bf 6438 c540 b112 94bf 7ac7 e5be
00000090: d871 0241 f442 0d40 df77 d8bf d477 3bbf
000000a0: 22a1 94be 8911 c3be f3ac 4340 e6c0 48bf
000000b0: 8553 78bd 1eec bb40 7253 52bf ae42 7241
000000c0: 539c 38bf 5d0d 8340 c730 3241 a64b 62be
000000d0: 3aa3 1ec1 c577 9ebd 80b6 8ebe 9776 7740
000000e0: 0aee 2abf 06d9 df40 ed9c 4f40 75dd 52c1
000000f0: 5e3b 38bf 9177 e1bd 1a82 febe 8735 0441
00000100: 9b1c 4abe 8f2e 0abf 6e61 80bf c498 12c1
00000110: 15e3 b1bf 0eae 3bbe a062 ef40 8e95 c43f
00000120: 5553 293f ad52 3941 5071 0241 b080 3d40
00000130: 47fa 09c1 e339 17c0 049d 0a41 8fb4 6fbf
00000140: b09d 91bf 659d 1341 9280 5440 b6d6 7a3e
00000150: 425c 26c0 8e62 acbd 3eb1 d8be 22ac 1cbf
00000160: 267d e4bd ef68 a9be d100 c83f 6382 2f41
00000170: 3ebd a2be 66e4 f9bf 692c 63be 6b3f 86c0
00000180: 56d1 0741 3e01 2bbf 6a99 1cc1 fcde 1f41
00000190: 9426 18be 57c8 ba40 34ad 163e b16c e9be
000001a0: e039 5940 40e6 20be 0c49 a340 2793 9cbf
000001b0: c817 04be 6273 6541 f930 59bf 4484 873f
000001c0: 162b 2541 43a8 e73d cfa1 0140 5c38 6341
000001d0: 25a0 073c cdce 30bd f7f5 6c41 9794 f0bf
000001e0: d69c 7cbe 3618 f3be 0840 d6bd 80da 00be
000001f0: e453 c9be 4f81 17c1 a41a 763c 1014 3dbe
00000200: 4fe3 a240 6757 f140 1710 43bf ea48 db40
00000210: a028 d4bf d4ad 7d40 950e 933f 7f1d 4741
00000220: 02ab 6ebf cce9 84c0 b476 393f b918 5fbe
00000230: bae1 97bd 55b9 2341 d313 08bf 1bb6 dfc0
00000240: fd10 6b40 77c8 533e 625e 963f b96b aa40
00000250: 511e 5fc0 513e c2bc

outputLayer.weight f4 [2, 150]
0.63032067 1.1442145 0.00016172936 -0.46362308 0.018389042 0.607079 -6.115278 0.013927238
-1.3839419 2.6882622 0.47506523 0.6125468 0.38257098 -3.3105927 0.20279443 0.7252092
0.013419479 0.14589119 -0.020919697 1.9345652 0.382151 -0.027860578 0.90760386 0.913134
-2.000619 9.139071 0.6329544 0.285649 -0.010490836 1.957302 -0.8265271 0.5642675
5.3558397 0.4038322 -6.582411 0.5402802 0.29073858 0.8372689 1.2056388 1.0569267
0.4820676 0.98758394 13.304655 1.0480752 0.1139454 0.21561858 1.633311 2.372371
-0.34129125 2.393825 0.9556817 -0.029441472 -0.57881886 0.027908899 2.874843 1.9887699
1.4777931 0.22329167 1.3039927 -3.5493433 1.1920921 -0.28272706 -0.3234836 7.216379
-1.4325324 -1.8446833 1.4935497 -0.42576233 -2.3298023 -0.03774108 0.99099785 1.186226
-1.0075539 0.7555739 0.05804133 0.4719658 -0.11064309 -0.28905883 1.2783015 -1.5788022
1.6070384 1.0611062 -1.5108626 1.6473131 -0.09008616 -0.08756433 -0.86698145 3.368554
-0.026105719 -0.35769546 -2.5704222 0.6750798 -0.34431034 -1.2894987 0.025645152 -13.522627
1.4379723 5.550912 -0.7357647 0.30493185 -7.536411 0.76828295 0.029871507 -1.5781078
0.7119337 -2.4619179 0.18369897 -0.023471897 -1.1457816 0.8656741 -0.38589677 -0.06136919
5.092747 0.6475256 -2.0417633 1.0446758 -0.01194166 -0.0054362626 1.0308262 -0.30293992
-0.31328532 -0.18711013 -0.04536982 -0.43549198 0.25567776 -0.34544632 -0.002015359 0.0183364
-1.0022869 0.23318978 -9.060673 -0.38434857 -4.1124606 -4.4890137 3.4450648 0.8586891
-0.14588219 -0.26474297 5.9999013 2.091224 -0.06333882 1.073181 2.262643 -0.15792283
-0.7586674 0.24766345 4.6501327 0.05688883 4.809734 -0.015066528 0.6402041 1.1695912
0.014177368 0.37647635 0.05206416 0.60622513 -5.7214994 0.021959864 3.409253 -2.8390503
-0.042870924 0.65084153 0.19432354 -3.3129635 -0.14568016 -1.1925905 0.022050727 0.18855254
-0.0033920147 -2.0361302 0.39139974 -0.2699591 0.905139 0.414205 2.596083 9.170321
0.6265463 -0.29780993 0.19593263 5.2700133 2.59187 0.18483056 -1.5819441 0.38035023
-7.881063 0.38715276 0.2974374 -0.30234635 0.856322 0.056951992 0.8238527 -0.9190687
14.539424 -1.2581706 -0.22502224 0.6772439 -2.337909 2.3730645 0.18626735 2.4036875
0.9539923 -0.022358513 -0.58172935 -0.00650935 -2.29029 1.8419254 2.0923266 0.24531475
1.1058841 -3.555241 -1.1209916 1.460836 0.19454537 7.718998 1.6109143 -0.6198163
1.90667 -0.4238352 -0.8152575 0.011114664 1.0196443 0.4817248 -0.6224353 0.7531804
0.28278664 0.049726967 -0.12226026 -0.28156978 0.99065197 -2.065697 1.6814 1.055762
2.7405286 1.8024393 -0.094717845 0.018444631 1.3075944 3.1316402 -0.029242331 0.9271712
-3.3747377 0.6760068 0.83649945 -1.3092761 -0.005326242 -16.666899 1.4256151 3.802682
-0.7263159 0.30701134 -2.05485 0.625806 0.10292402 1.6315687 4.9949365 2.4768782
00000000: b25c 213f 9f75 923f e595 2939 0160 edbe
00000010: 9ea4 963c 8869 1b3f 5bb0 c3c0 122f 643c
00000020: 0225 b1bf 7d0c 2c40 c03b f33e decf 1c3f
00000030: 58e0 c33e c0e0 53c0 58a9 4f3e 4fa7 393f
00000040: 60dd 5b3c 8064 153e c95f abbc d59f f73f
00000050: 4ca9 c33e de3b e4bc ba58 683f 26c3 693f
00000060: 240a 00c0 a339 1241 4d09 223f 9640 923e
00000070: c1e1 2bbc df88 fa3f 4897 53bf d673 103f
00000080: 0a63 ab40 18c3 ce3e 1ca3 d2c0 ce4f 0a3f
00000090: b0db 943e 4157 563f 5f52 9a3f 6049 873f
000000a0: 91d1 f63e 4dd2 7c3f dedf 5441 5427 863f
000000b0: 355c e93d 1ecb 5c3e 5610 d13f edd4 1740
000000c0: babd aebe 6e34 1940 8ea7 743f 3e2f f1bc
000000d0: 792d 14bf 34a1 e43c 6dfd 3740 0390 fe3f
000000e0: 5328 bd3f 92a6 643e 3ce9 a63f 7128 63c0
000000f0: 7996 983f 9ac1 90be a49f a5be 94ec e640
00000100: 395d b7bf 951e ecbf a32c bf3f 85fd d9be
00000110: 7b1b 15c0 6496 1abd 09b2 7d3f 41d6 973f
00000120: 87f7 80bf 4b6d 413f bfbc 6d3d 80a5 f13e
00000130: d898 e2bd 85ff 93be 629f a33f 3116 cabf
00000140: 6fb3 cd3f 54d2 873f f263 c1bf 28db d23f
00000150: 187f b8bd ed54 b3bd 7ff2 5dbf 6496 5740
00000160: a9db d5bc dc23 b7be cc81 24c0 08d2 2c3f
00000170: 7249 b0be 4b0e a5bf c815 d23c ae5c 58c1
00000180: 7a0f b83f 12a1 b140 135b 3cbf 0720 9c3e
00000190: 472a f1c0 31ae 443f 17b5 f43c 70ff c9bf
000001a0: 4941 363f 1090 1dc0 951b 3c3e 2348 c0bc
000001b0: f9a8 92bf d19c 5d3f 4394 c5be 435e 7bbd
000001c0: c9f7 a240 3dc4 253f 40ac 02c0 f0b7 853f
000001d0: f4a6 43bc ad22 b2bb 1df2 833f f11a 9bbe
000001e0: ef66 a0be cc99 3fbe b4d5 39bd cef8 debe
000001f0: 32e8 823e 57de b0be 1d14 04bb 3836 963c
00000200: f04a 80bf 4dc9 6e3e 84f8 10c1 56c9 c4be
00000210: 4799 83c0 00a6 8fc0 f17b 5c40 0dd3 5b3f
00000220: 2462 15be 648c 87be 31ff bf40 9dd6 0540
00000230: c9b7 81bd ff5d 893f 25cf 1040 86b6 21be
00000240: 0738 42bf 7d9b 7d3e e3cd 9440 4304 693d
00000250: 57e9 9940 99d9 76bc 6ae4 233f 2ab5 953f
00000260: 3148 683c 82c1 c03e 3b41 553d 9231 1b3f
00000270: 8616 b7c0 2ce5 b33c 3331 5a40 00b3 35c0
00000280: 6c99 2fbd 8d9d 263f c0fc 463e 9807 54c0
00000290: 2e2d 15be cea6 98bf baa3 b43c eb13 413e
000002a0: 904c 5ebb f54f 02c0 8c65 c83e 1438 8abe
000002b0: 31b7 673f ae12 d43e 3926 2640 a3b9 1241
000002c0: 5765 203f 8b7a 98be 90a2 483e f3a3 a840
000002d0: 33e1 2540 3944 3d3e 257d cabf 44bd c23e
000002e0: ab31 fcc0 e338 c63e b749 983e 24cd 9abe
000002f0: eb37 5b3f 7e46 693d 03e8 523f 1648 6bbf
00000300: 7ba1 6841 bc0b a1bf 3b6c 66be db5f 2d3f
00000310: 4da0 15c0 4ae0 1740 debc 3e3e 04d6 1940
00000320: d738 743f 3329 b7bc 37ec 14bf 634c d5bb
00000330: 1d94 12c0 36c4 eb3f aee8 0540 ca33 7b3e
00000340: 9c8d 8d3f 1289 63c0 a77c 8fbf adfc ba3f
00000350: e736 473e 0802 f740 7132 ce3f 48ac 1ebf
00000360: c30d f43f ed00 d9be b7b4 50bf 481a 363c
00000370: b483 823f a2a4 f63e eb57 1fbf 6ed0 403f
00000380: 69c9 903e 81ae 4b3d 9663 fabd ea29 90be
00000390: 5e9b 7d3f 6134 04c0 1d38 d73f 3623 873f
000003a0: d264 2f40 55b6 e63f 6efb c1bd 3219 973c
000003b0: 415f a73f cb6c 4840 9d8d efbc 175b 6d3f
000003c0: b4fb 57c0 c80e 2d3f d424 563f 5c96 a7bf
000003d0: c287 aebb cf55 85c1 8e7a b63f 245f 7340
000003e0: d7ef 39bf 9730 9d3e aa82 03c0 d234 203f
000003f0: d4c9 d23d 3ed7 d03f 85d6 9f40 2c85 1e40

outputLayer.bias f4 [2]
14.819366 14.882331
00000000: 201c 6d41 071e 6e41
