ftl/pretrain/weight/finetune_prxy_0/finetune_prxy_0_61.pth (torch, 187645 bytes, 8 tensors)

hiddenLayer1.weight f4 [150, 3]
0	0xbf1a9012	-0.60376084
1	0xbf909f95	-1.12987
2	0xbece1603	-0.4025117
3	0xbcb1a773	-0.021686291
4	0x39004968	0.00012234377
5	0xbd5b1a1c	-0.053491697
6	0xbfd8ba55	-1.6931864
7	0xbed45c4f	-0.41476676
8	0xbf9f33cf	-1.2437686
9	0xbd8fb12d	-0.070162155
10	0x3cf7e13a	0.030258764
11	0x3fc47428	1.5347948
12	0xb7d2347a	-2.5058387e-05
13	0xbb46fac8	-0.003036188
14	0xbb29cfd7	-0.0025911236
15	0xbdeb567d	-0.11491106
16	0x39e4c539	0.0004363449
17	0xbde5e119	-0.112245746
18	0xc123ab29	-10.229287
19	0xbca48e86	-0.020087492
20	0xbef654f5	-0.48111692
21	0xc00cc3a6	-2.1994414
22	0xbc9045ae	-0.01761135
23	0xbf06e600	-0.526947
24	0xc02b414b	-2.6758602
25	0xbafa6838	-0.0019104546
26	0xbf4213df	-0.7581157
27	0xbf048dec	-0.51779056
28	0xbda371e6	-0.07980709
29	0xbd91dc97	-0.07122152
30	0xbf01fcaf	-0.5077619
31	0xbbd5e751	-0.006527819
32	0xc090bf98	-4.523388
33	0xbeab733e	-0.3348636
34	0x3c62331f	0.0138061335
35	0xbec2274c	-0.37920606
36	0xc17acff7	-15.675773
37	0xbcfb08ff	-0.030643938
38	0xbf91c72f	-1.1388911
39	0xbd056ddf	-0.032575484
40	0x3b8f1f69	0.004367758
41	0x3d01df0c	0.031706855
42	0xbcb1e0fa	-0.021713722
43	0x3a048cfe	0.000505641
44	0xbbe4d832	-0.0069837803
45	0xbf27c3da	-0.6553322
46	0x3b632526	0.0034659593
47	0x3f8b5dfd	1.0888058
48	0xbdc16bba	-0.09444375
49	0x3c63ee06	0.01391173
50	0xbcd68e24	-0.026190825
51	0xc2048ece	-33.139458
52	0xbda3de70	-0.08001411
53	0xbf85e3f3	-1.046019
54	0xc04bac0e	-3.1823764
55	0x3bb2e540	0.0054594576
56	0xbe95d5a9	-0.29264572
57	0xbd69d3b6	-0.05708667
58	0xba397437	-0.00070745073
59	0xbd0454e2	-0.032307513
60	0x394757d3	0.00019010836
61	0x3c0dd908	0.008657701
62	0xbb9225c6	-0.0044600694
63	0xbed48a99	-0.41511992
64	0x3f0ff3cd	0.56231385
65	0x3e5e8b3f	0.21732806
66	0xbc226eac	-0.009914082
67	0xbd9c3ae1	-0.07628418
68	0x3b561a0e	0.0032669338
69	0xc11b7d19	-9.718041
70	0x3d02b95a	0.031915046
71	0x3e155391	0.1458266
72	0xbfa2afbd	-1.2709881
73	0x3dcd65d3	0.10029187
74	0x3f29e25f	0.6636104
75	0xc042113f	-3.0323026
76	0xbc89cd2d	-0.016821468
77	0xc04c3b5d	-3.1911232
78	0xbf6c2c05	-0.9225467
79	0x3e376f2a	0.179135
80	0xbf2f9fea	-0.68603384
81	0xbe19c337	-0.15015875
82	0x3c068b5c	0.008211937
83	0x3fb5df97	1.4208859
84	0xbfa6a78e	-1.3019884
85	0x3ec09a2a	0.37617618
86	0xbf67c642	-0.9053689
87	0xbe9cbd69	-0.30613258
88	0xbd2b71cd	-0.041856576
89	0xbcf246a7	-0.029574705
90	0xbd862692	-0.065503255
91	0x3acc1734	0.001557088
92	0x4003d087	2.0596025
93	0xc03956cf	-2.8959234
94	0x3e637133	0.22211151
95	0x3ecb6d17	0.39731666
96	0xbbe89ae9	-0.007098545
97	0x3ee589c2	0.44831663
98	0xbdc6b538	-0.097025335
99	0xbeee435c	-0.46535766
100	0xba31ed37	-0.0006787362
101	0xbd4da6de	-0.050207965
102	0xbd9a9bb3	-0.075492285
103	0xb87cba0d	-6.0254755e-05
104	0xbdcf1c78	-0.10112852
105	0xbf85b2f3	-1.0445236
106	0xbf722777	-0.9459147
107	0xbe53a3bd	-0.2066793
108	0xbe07ae31	-0.13250042
109	0x3cbe0c7e	0.023199316
110	0xc08c7e64	-4.3904285
111	0xbe8bbfe4	-0.27294838
112	0x3ba9b2ce	0.005178786
113	0xbe52f169	-0.20599903
114	0xbc87ab5b	-0.0165612
115	0xba37e93b	-0.000701565
116	0xbce39e89	-0.027785556
117	0xc11c9d76	-9.788443
118	0x3e390fbd	0.1807241
119	0x3cacd78b	0.021098873
120	0xbd00a3e2	-0.03140629
121	0xbb9b55c0	-0.004740447
122	0xbcd3de74	-0.02586291
123	0xc04c7b1b	-3.1950138
124	0xbdaee9af	-0.08540665
125	0xc0045fd2	-2.0683484
126	0xbd7dfc86	-0.062008403
127	0x3913ab6b	0.0001408287
128	0xbc3c22d5	-0.011482914
129	0xbe18c981	-0.14920618
130	0xb8528919	-5.0195584e-05
131	0xbd3f8d7e	-0.046765797
132	0xbfe76d17	-1.8080167
133	0xbe7bb74c	-0.24581641
134	0xc0158310	-2.3361244
135	0xbf883913	-1.0642418
136	0xb9b807c9	-0.00035101015
137	0xc068b2f5	-3.6359227
138	0xbebb7bf8	-0.36618018
139	0x3eb17d46	0.3466589
140	0x3f8706e7	1.0548981
141	0xbf1ddce3	-0.6166517
142	0xbdf84b20	-0.12123704
143	0xbfd189e5	-1.6370207
144	0xc0e41e39	-7.1286893
145	0xbc95ef8f	-0.018302707
146	0xbe1f9fe0	-0.15588331
147	0xbfa841f7	-1.3145131
148	0x3d8af054	0.0678412
149	0xbebea926	-0.37238425
150	0xbf8eb0c9	-1.11477
151	0xbed77b3f	-0.42086217
152	0xbf3fd5b6	-0.7493547
153	0xbf500c39	-0.8126865
154	0xbf6aa9e9	-0.9166551
155	0xbd48d322	-0.049029477
156	0xbd869ce0	-0.0657289
157	0xbbdb8127	-0.006698746
158	0x401cc847	2.449724
159	0xbff6cc29	-1.9281055
160	0xbc88a60f	-0.016680745
161	0x3ce09bfc	0.02741813
162	0xbd90460a	-0.07044609
163	0xb7fe72e2	-3.0332656e-05
164	0xbd10e71b	-0.03537665
165	0xbd613fb5	-0.054992396
166	0xbbaeb6b5	-0.005331839
167	0xc0d88e5b	-6.7673774
168	0xbe676205	-0.22595985
169	0xbe8cf466	-0.2753021
170	0xbe97572b	-0.2955869
171	0xbb8cbbd0	-0.00429485
172	0xb93c9993	-0.00017986288
173	0xbdd4afe0	-0.10385108
174	0xc215836a	-37.378334
175	0xbdb4eb60	-0.08833957
176	0xbf733d25	-0.95015174
177	0xc03e8bef	-2.9772909
178	0x3eef8804	0.4678346
179	0x3e89e6f9	0.2693403
180	0xbce7828e	-0.028260496
181	0x3a0b9b4a	0.0005325569
182	0xbd55071d	-0.052008737
183	0x3ec977b3	0.39349136
184	0xbacf40e3	-0.0015812184
185	0xc097ec48	-4.747593
186	0xbef3ea34	-0.4763962
187	0xbbb64d15	-0.005563388
188	0xc0c5bcce	-6.1792974
189	0x3c890cea	0.01672979
190	0x3ecc0ccb	0.3985351
191	0xbf99390c	-1.1970534
192	0xc1c896ab	-25.073568
193	0xbd8e5645	-0.06950048
194	0xbe674b1d	-0.22587247
195	0xbfffd9fa	-1.9988396
196	0xbe14b776	-0.1452311
197	0xc00508b4	-2.0786562
198	0xbf51b7c9	-0.8192106
199	0x3f54d897	0.8314299
200	0xbbbe711b	-0.005811823
201	0xbb8c59cc	-0.0042831656
202	0xbbb13964	-0.005408453
203	0x409d7f47	4.921787
204	0xbd6735c4	-0.05644776
205	0x3d3e4a01	0.046457294
206	0xbc923311	-0.017846616
207	0xbdb76a95	-0.08955876
208	0x3b432af6	0.0029780245
209	0xbc3326dc	-0.010934558
210	0xc017abf3	-2.36987
211	0x3e04ad1f	0.12956665
212	0x3cafe925	0.021473477
213	0xc17d840d	-15.844739
214	0x3e21cbd1	0.15800406
215	0xbf4c0fd7	-0.7971167
216	0xc0b019ff	-5.5031734
217	0x3e223d30	0.15843654
218	0xbe0c9605	-0.13729103
219	0xbdeb258a	-0.114817694
220	0x3be1ec43	0.0068946197
221	0xbcb236b5	-0.021754602
222	0xbd8f49de	-0.06996511
223	0x3b674c3f	0.003529325
224	0xbbe286b6	-0.0069130315
225	0xbd96bb88	-0.073599875
226	0x39f28acf	0.00046261257
227	0xbdb2cf34	-0.08730927
228	0xbee8f119	-0.45496443
229	0xbf23da63	-0.64005107
230	0xbe897d45	-0.26853386
231	0xbd56c5b2	-0.05243463
232	0xbbb6b996	-0.005576323
233	0xbd28f5fe	-0.04125022
234	0xc0a61d39	-5.191067
235	0x3e25d288	0.16193593
236	0x3ce0b2ca	0.027429003
237	0x3c42f75a	0.0118997935
238	0xbd7d4b36	-0.061839305
239	0x404bf792	3.1869855
240	0xbcc88a59	-0.024480032
241	0x3b6ce2d9	0.0036145954
242	0xbc7eb5f4	-0.015546311
243	0xc1f6a741	-30.831667
244	0xbdce6171	-0.10077179
245	0xbf78aa74	-0.9713509
246	0xc0c1ab61	-6.0521703
247	0xbe27e31f	-0.16395234
248	0xbf9f4835	-1.2443911
249	0x3819290d	3.6516274e-05
250	0x3a876dac	0.0010332367
251	0xbb1a6a78	-0.0023561995
252	0xbf8ab08c	-1.0835128
253	0xbb116b01	-0.0022189023
254	0xbf95f227	-1.1714524
255	0xbff10495	-1.8829523

hiddenLayer1.bias f4 [150]
0	0xc0b1dff5	-5.5585885
1	0xbdb36da4	-0.08761147
2	0xc02a8c71	-2.6648219
3	0xc0007269	-2.006983
4	0xbd743bb5	-0.059627254
5	0xbdba8ab9	-0.091084905
6	0xbff1befc	-1.8886409
7	0x3efc859e	0.49320692
8	0xbf3c2a3e	-0.73501956
9	0xbf9955b8	-1.1979284
10	0xbef216a7	-0.47282907
11	0xbec2e781	-0.38067248
12	0xc03baeba	-2.9325395
13	0xc0827650	-4.0769424
14	0xbc2fe364	-0.0107353665
15	0x3f22df8b	0.6362235
16	0xbe884024	-0.26611435
17	0xc032a812	-2.7915082
18	0xbf1f299f	-0.62172884
19	0xbd1d1c43	-0.03835703
20	0xbe41183d	-0.18856902
21	0xc0aa4d5d	-5.3219438
22	0xbf97dd1e	-1.1864355
23	0xbfd2eb31	-1.6478025
24	0xbffb1c79	-1.9618064
25	0xbda83c6a	-0.08214648
26	0xbf9fce27	-1.2484788
27	0xc10a573a	-8.646296
28	0xc014e885	-2.3266919
29	0xbf24b2e0	-0.6433544
30	0x40766d98	3.850439
31	0xc0d09188	-6.517765
32	0xc00ea77b	-2.2289722
33	0xbdbdcd4d	-0.09267674
34	0xbe2fe73c	-0.17178053
35	0xc09600eb	-4.687612
36	0xbfe54c30	-1.7913876
37	0xbe50ea2e	-0.20401832
38	0xbd087945	-0.033318777
39	0xc027a43a	-2.6193986
40	0xbe15cad2	-0.14628151
41	0xbfd4d9f5	-1.6629015
42	0xbc753dd7	-0.014968357
43	0xbd3204ad	-0.04346149
44	0xc00fa407	-2.2443864
45	0xbfc529fb	-1.5403436
46	0xc05d2076	-3.4551063
47	0xbfa79528	-1.3092394
48	0xbf9e0afd	-1.2347103
49	0xbf8c639c	-1.0967898
50	0xc017db88	-2.3727741
51	0xc08fb33a	-4.4906282
52	0xc0ba2637	-5.817165
53	0xbfe408d8	-1.7815199
54	0xbcf7e069	-0.030258374
55	0xbf138efb	-0.57640046
56	0xc07f0aed	-3.9850419
57	0xbdaa293f	-0.08308648
58	0xc0266a81	-2.6002505
59	0xc0c0563e	-6.0105276
60	0xbdbaf006	-0.09127812
61	0x4027781d	2.6167061
62	0xbf8e2dc1	-1.1107713
63	0xc0163d1f	-2.3474805
64	0xbfb34146	-1.4004295
65	0xbfe16e3b	-1.7611765
66	0xc08676a0	-4.2019806
67	0x3ee32344	0.44362843
68	0xbf2938b9	-0.66102177
69	0xbd89e183	-0.06732466
70	0xbfee64ae	-1.8624475
71	0xc0588edb	-3.3837192
72	0xbfc9f472	-1.5777724
73	0xbe1f799b	-0.15573733
74	0xbda28952	-0.07936348
75	0xbd957d7b	-0.07299324
76	0xc0f29837	-7.581081
77	0xbdf2abda	-0.11849184
78	0xc017222c	-2.3614607
79	0xc0a235ad	-5.069052
80	0xbd7e3476	-0.06206175
81	0xc0445533	-3.0677001
82	0xc0043cad	-2.0662034
83	0xbce94d62	-0.028479282
84	0xbf20504a	-0.6262251
85	0xc09cba04	-4.897707
86	0xbfe2cc79	-1.771865
87	0x40144516	2.3167167
88	0xbc5b3e07	-0.013381488
89	0xbfcb7cdd	-1.589748
90	0xbeb1255d	-0.34598818
91	0xbefb5024	-0.4908458
92	0xc008102c	-2.125987
93	0xc02567a5	-2.584451
94	0xc05e2b1b	-3.471381
95	0xbdbf02de	-0.09326719
96	0xbf80fd21	-1.0077249
97	0xc06ab1ee	-3.66711
98	0xbdd0d9b2	-0.10197772
99	0xc025dd70	-2.5916405
100	0xbe0c7f3b	-0.1372041
101	0xbf2156fd	-0.6302336
102	0xc0163872	-2.3471951
103	0xbf82f3ca	-1.0230649
104	0xc0838c3b	-4.110868
105	0xbf83feea	-1.0312169
106	0xbd127346	-0.035754465
107	0xc03b2194	-2.9239244
108	0xc056391c	-3.3472357
109	0xc0f6442f	-7.695823
110	0xbfcbb186	-1.5913551
111	0xbddee877	-0.10884183
112	0xc06e75c6	-3.7259383
113	0xc08b9d95	-4.362986
114	0xbfba3191	-1.4546376
115	0xbc8f3361	-0.017480554
116	0xc0904965	-4.5089593
117	0xbf12e08c	-0.5737388
118	0xc0535ddc	-3.3026037
119	0xbdf6d34e	-0.12052022
120	0xbd5e2f6c	-0.054244444
121	0xc0a64687	-5.1961093
122	0xc1811f7c	-16.140373
123	0xbcd9ad44	-0.026571877
124	0xbd37c3e7	-0.04486456
125	0xbcea5057	-0.028602762
126	0xbfb759c6	-1.4324272
127	0xbf31ed6c	-0.695029
128	0xbf53576b	-0.82555264
129	0xbf4edbe8	-0.808043
130	0xbf25367d	-0.6453627
131	0xbfaeeee2	-1.3666651
132	0xbe08a95d	-0.13345857
133	0xc00caa90	-2.1979103
134	0xbf0fa0fd	-0.56105024
135	0xc01f46b3	-2.4886901
136	0xbe43e338	-0.19129646
137	0xbf1c7710	-0.61119175
138	0xc08bb8e6	-4.3663206
139	0xbdce5bfd	-0.10076139
140	0x4066a176	3.6036048
141	0xc080f5bd	-4.0299973
142	0xc104b79b	-8.294826
143	0xbf8cdaba	-1.100425
144	0xbe8f16d1	-0.27947095
145	0xbc613bfb	-0.013747211
146	0xc0434beb	-3.0515087
147	0xc03f077d	-2.984832
148	0xbe005524	-0.12532479
149	0xbf618b1b	-0.88102883

hiddenLayer2.weight f4 [150, 150]
0	0xbeac28d0	-0.33624887
1	0x3d9be3a3	0.07611778
2	0xbfe3ec03	-1.78064
3	0xbfe4ced9	-1.7875625
4	0xbf1849ac	-0.59487414
5	0x3e7f00e1	0.24902679
6	0xc0a2d0ec	-5.088003
7	0xbf855712	-1.0417197
8	0x4085749a	4.1704836
9	0xbfb3f89d	-1.4060246
10	0xc0f61d64	-7.6910877
11	0xc01f8a4c	-2.492816
12	0xc137c7b5	-11.486257
13	0xbdf30b5f	-0.11867403
14	0x3dcde6cc	0.10053787
15	0x3f17abea	0.59246695
16	0xbdc5df95	-0.096617855
17	0xbdfe6c6e	-0.12423025
18	0x3c8f5253	0.01749531
19	0xbe0b61c5	-0.13611515
20	0xc049f2e7	-3.1554506
21	0xbec2631d	-0.37966242
22	0xbed3c798	-0.41363215
23	0xc014f89d	-2.3276742
24	0xc0868980	-4.2042847
25	0xc000b21d	-2.0108712
26	0x3f5886a5	0.8458045
27	0xc007bced	-2.120906
28	0x403b14e2	2.9231496
29	0xbf435342	-0.76298916
30	0xbf8b2705	-1.0871283
31	0xbf55d1b0	-0.8352308
32	0xc0954bb9	-4.6654935
33	0xbe87db09	-0.26534298
34	0xbdace18e	-0.08441459
35	0xbed66eb1	-0.41881326
36	0xbfb46f41	-1.4096452
37	0xbecc4e72	-0.399036
38	0x3d8b368d	0.06797514
39	0xc0b6f367	-5.717212
40	0xbe593432	-0.21211317
41	0xc1b7d4e3	-22.978949
42	0xbdc1006e	-0.0942391
43	0xbe3e5bcc	-0.18589705
44	0xbca000b2	-0.019531582
45	0x3e9dc499	0.30814055
46	0xbfb86778	-1.4406576
47	0xc1575702	-13.458742
48	0xc10fa463	-8.977633
49	0x400f4dbf	2.2391202
50	0xc091abec	-4.5522366
51	0x3fd3589d	1.6511418
52	0xbf93ddb9	-1.1552039
53	0xc09378ed	-4.6085114
54	0x3ca1958e	0.019724634
55	0xc17399df	-15.225066
56	0xc0a9a814	-5.3017673
57	0x3dd53dec	0.10412201
58	0x400f52f3	2.2394378
59	0xbfc40250	-1.5313206
60	0xbef2c533	-0.47416076
61	0xbf6c1c6a	-0.92230856
62	0xbf376eb6	-0.71653306
63	0xc19bb834	-19.464943
64	0xc13b05ab	-11.688884
65	0x3f04e030	0.5190458
66	0xc108e9f1	-8.557115
67	0xc144c381	-12.29773
68	0x3f1ff987	0.62490124
69	0xbdd92e6c	-0.106045574
70	0x4002e0cc	2.0449705
71	0xc0c8f414	-6.2797947
72	0xc218224c	-38.033493
73	0xbd28a1ee	-0.041170053
74	0xbd39146e	-0.0451855
75	0xbe32f4b3	-0.17476158
76	0xc0837587	-4.1080966
77	0xbe88b786	-0.26702517
78	0xc0c4ff7b	-6.1561866
79	0xbe804572	-0.25052983
80	0xbdfc164e	-0.12308942
81	0x4006be0d	2.1053498
82	0xbdc352bd	-0.095372654
83	0xbdabab7f	-0.0838232
84	0x3fbd4649	1.4787074
85	0xc021ea69	-2.5299323
86	0xc0c20926	-6.0636168
87	0xbf2d1715	-0.67613345
88	0x3e8bbda9	0.27293137
89	0x405bbf7e	3.4335628
90	0xc0c5f313	-6.185922
91	0xbee0d5e2	-0.4391318
92	0xc02ecb4c	-2.7311583
93	0x4088013c	4.2501507
94	0xbe91ad43	-0.284525
95	0x3fd66878	1.6750631
96	0xbe569f42	-0.2095919
97	0xbe9519ca	-0.29121238
98	0x3f6efc10	0.93353367
99	0xc0a35c28	-5.1049995
100	0x3ece5cee	0.40305275
101	0x3fecfb45	1.8514181
102	0x3fe8ca1c	1.8186679
103	0xbbbdd95f	-0.005793735
104	0xbf415e43	-0.75534457
105	0x3efcb319	0.4935539
106	0x3ea9a7fb	0.3313597
107	0x3e1ef0a4	0.15521485
108	0xc0a34dde	-5.1032553
109	0xbf51295a	-0.8170372
110	0x40a3dd9e	5.120803
111	0xbdf38eb0	-0.1189245
112	0xc04f62aa	-3.240397
113	0x3f67d28c	0.90555644
114	0xc081500d	-4.041022
115	0x3c2de3d8	0.010613404
116	0xc080d694	-4.0261936
117	0x40c6b37e	6.2094107
118	0xc138ff60	-11.562347
119	0xbe447a15	-0.19187196
120	0xbc98e73a	-0.018664945
121	0xbfedcb6b	-1.8577703
122	0xbea0f78a	-0.31438857
123	0xbda53b85	-0.08067993
124	0xbdaff143	-0.08590939
125	0xbe74002e	-0.23828194
126	0xc020ba9c	-2.5113897
127	0x401b291f	2.4243848
128	0xc00a7394	-2.1633043
129	0x3f89adbb	1.0756143
130	0xbeb7b450	-0.35879755
131	0xbe1f7da4	-0.15575272
132	0xbde6bb25	-0.11266164
133	0xbfa6cca5	-1.3031203
134	0xc098dc3d	-4.7768846
135	0xc1322065	-11.132909
136	0x3fe463cc	1.7842956
137	0xc01a78ca	-2.4136224
138	0x3fc1a8a3	1.5129589
139	0x3dad02d7	0.08447807
140	0xbf5543ea	-0.83306754
141	0xbf5f116b	-0.8713595
142	0xbf1a914f	-0.60377973
143	0xbf2a74d3	-0.6658451
144	0xbf72c631	-0.94833666
145	0xbce73d7f	-0.028227566
146	0xc0be263a	-5.9421663
147	0xc06f591a	-3.7398133
148	0x3d58b2b6	0.052904807
149	0x4014eece	2.3270755
150	0xc18c1df3	-17.514624
151	0x3d37d3e2	0.0448798
152	0xbf157941	-0.58388144
153	0xbf419e38	-0.7563205
154	0xbd891c63	-0.066948675
155	0xbe7d3e20	-0.2473073
156	0xc0b0e6e0	-5.528183
157	0xbf89bc86	-1.0760658
158	0xbdc59d07	-0.09649091
159	0xc0a04f94	-5.009714
160	0xbf2a2dab	-0.66475934
161	0xbfa856f0	-1.3151531
162	0x3fb929c4	1.4465871
163	0xc0aeabf9	-5.4584928
164	0x3cc9bc2c	0.02462586
165	0x3eb3596c	0.3502916
166	0x3e3e9752	0.18612412
167	0xc069f358	-3.6554775
168	0xbf606f88	-0.87670183
169	0xbd64f44f	-0.055897053
170	0x40bf8628	5.9851265
171	0x3f84ae8b	1.0365766
172	0x3f0b5452	0.5442554
173	0xbfb21245	-1.3911825
174	0xc047970f	-3.118595
175	0xbf6cec7e	-0.9254836
176	0xbf45777c	-0.77135444
177	0xbf676410	-0.9038706
178	0xc02009bc	-2.5005941
179	0xbf0d3d45	-0.55171615
180	0xbfd45cee	-1.659086
181	0x3ef8fa4d	0.48628464
182	0xbff61243	-1.9224323
183	0x3eca62de	0.39528555
184	0x3eb11752	0.34588104
185	0xbf033862	-0.5125791
186	0xbfaa5ad3	-1.3308967
187	0x3ec31b95	0.3810698
188	0x3d42d74f	0.047568616
189	0x402ecc7f	2.7312315
190	0xbf0a6a01	-0.54068
191	0x4002be34	2.042859
192	0xbc3e6e6b	-0.011623005
193	0xbcc5172a	-0.024058897
194	0xc10c1e3a	-8.75738
195	0xbf22dc58	-0.6361747
196	0x3fb9cd72	1.4515822
197	0xbf20d4ac	-0.6282451
198	0xc116dde1	-9.42917
199	0xbee933c9	-0.4554732
200	0x40216b6a	2.522181
201	0x3f06625f	0.5249385
202	0xc0c8b5db	-6.272199
203	0x402daeb7	2.7137887
204	0xbe0e39ac	-0.13889188
205	0xbf9bca76	-1.2171161
206	0x4035f80a	2.843264
207	0xbea3f407	-0.32022116
208	0xbdf7cb51	-0.120993264
209	0xbf4aed7c	-0.7926862
210	0xbf4cd02f	-0.8000516
211	0xc04484b4	-3.0705996
212	0x3e8e254e	0.27762836
213	0xbf9b79cb	-1.2146543
214	0x408fe209	4.496342
215	0xbeedd9be	-0.46455187
216	0xc008f7fb	-2.1401355
217	0xbe0a8ca6	-0.13530216
218	0xbec76be4	-0.38949502
219	0xbe1be2e3	-0.15223269
220	0xc0724afe	-3.7858272
221	0x3f93d700	1.1549988
222	0xc02a1244	-2.6573648
223	0x3db6860a	0.08912285
224	0xbdaf4373	-0.08557787
225	0x3de7ce4a	0.113186434
226	0x402b2cd4	2.674611
227	0xbea9ccf8	-0.3316419
228	0x3f00d647	0.5032696
229	0x40e42344	7.129305
230	0x3e727f4c	0.23681372
231	0xc02532e9	-2.5812323
232	0xc12de938	-10.869438
233	0xbd2f2d20	-0.042767644
234	0xbffba0fc	-1.9658504
235	0xc030e9e8	-2.7642765
236	0xc093d648	-4.6199074
237	0xc072447d	-3.7854302
238	0xbc936e97	-0.01799707
239	0xbfea853e	-1.8321912
240	0xbe1f9aa6	-0.15586337
241	0xbf891cc6	-1.0711906
242	0xbfc884bf	-1.5665511
243	0x3fed7d28	1.855382
244	0xbfb7e280	-1.4365997
245	0xbfe5da90	-1.7957325
246	0x3d0de479	0.034641717
247	0xc01e41e8	-2.4727726
248	0x3e959d76	0.29221696
249	0x3f93959b	1.1530031
250	0x3f058abd	0.5216482
251	0x3f522bbd	0.8209799
252	0xbf3f6796	-0.74767435
253	0xbf55c42b	-0.83502454
254	0xc18681cd	-16.81338
255	0xbf8f160a	-1.1178601

hiddenLayer2.bias f4 [150]
0	0xbf6c4a8d	-0.92301255
1	0xbfd813db	-1.688106
2	0x3fae58e5	1.3620878
3	0xbeaf0b54	-0.3418833
4	0x3b93ff0e	0.004516489
5	0x3bd62cef	0.006536118
6	0x400803f1	2.1252406
7	0xbdf23bdb	-0.11827823
8	0x40f9db65	7.8080316
9	0xbb79133c	-0.003800585
10	0xbe9e27b8	-0.30889678
11	0xbe839dd9	-0.25706366
12	0x3f2e8359	0.6816917
13	0xbef45a81	-0.477253
14	0xbd910cf6	-0.0708255
15	0xc08d1d37	-4.4098163
16	0x40a114fc	5.0338116
17	0xbc3d5567	-0.011556006
18	0x3fd77cc8	1.6834955
19	0x3fc73b76	1.5565021
20	0xbefc7c8d	-0.49313775
21	0xbd5a5b1f	-0.053309556
22	0xbf53c1fd	-0.8271788
23	0xc01dd463	-2.466088
24	0xbdd9061a	-0.10596867
25	0xc004e62a	-2.076548
26	0xbfe52095	-1.7900568
27	0xbdfa025d	-0.12207482
28	0x3ea8c6b8	0.3296411
29	0xbfa9add7	-1.3256177
30	0x3fa424e0	1.2823753
31	0xbe4581f3	-0.19287853
32	0xbffc49b1	-1.9709989
33	0xbe49ada7	-0.1969515
34	0x40023dca	2.0350213
35	0xc0274996	-2.6138663
36	0xbe751a12	-0.23935726
37	0xbf18dc8d	-0.59711534
38	0xbfe3ab3a	-1.7786629
39	0x3e3853a6	0.1800066
40	0xbf596eb2	-0.8493453
41	0xbd73d579	-0.059529755
42	0xbea5b2dd	-0.32363024
43	0xbd9a0255	-0.07519976
44	0xc03dab50	-2.963581
45	0xbf09d791	-0.53844553
46	0xc075ca03	-3.8404548
47	0xc06cfd7b	-3.7029712
48	0x3e5d9381	0.216383
49	0xbf369bf0	-0.7133169
50	0xbe754284	-0.23951155
51	0xbfd48a7d	-1.6604763
52	0xbf902d4f	-1.1263827
53	0xbee53b8d	-0.44771996
54	0xbe9a55cd	-0.30143586
55	0xbeb61b3b	-0.3556765
56	0xbdcc17f4	-0.09965506
57	0xbf6e3156	-0.9304403
58	0x3bd06a22	0.0063603083
59	0xbec7b3d2	-0.3900438
60	0xbebb7ec2	-0.36620146
61	0xbf745a09	-0.9544988
62	0xbf1546da	-0.58311236
63	0x3d3318c1	0.04372478
64	0xbfd314f4	-1.6490769
65	0x409ac350	4.836342
66	0xc042d463	-3.044213
67	0x3cecda7b	0.028912773
68	0xbec20c67	-0.37900087
69	0x3f65afb0	0.897212
70	0x4007c841	2.1215975
71	0xbf0b1b26	-0.543383
72	0x3f448506	0.7676548
73	0x3f0a84ad	0.541087
74	0xbf0801c0	-0.5312767
75	0xbf1880cf	-0.59571546
76	0xbea30b77	-0.31844684
77	0x3d980c84	0.07424262
78	0x3e293d5b	0.16527312
79	0xbf913a34	-1.1345887
80	0xbf9dc6e0	-1.2326317
81	0xbe1ff96c	-0.1562249
82	0xbfa95306	-1.3228462
83	0xbfd50885	-1.6643225
84	0x3e578cf2	0.2104986
85	0xbfeaef68	-1.8354311
86	0x3f63e2f0	0.89018154
87	0xbe19e451	-0.15028502
88	0x3f1ff09b	0.6247651
89	0xbe03920f	-0.12848686
90	0xbf81fbf4	-1.0155015
91	0xbf12ca86	-0.57340276
92	0xbffebe7c	-1.9901881
93	0x3f1a5ec8	0.60300875
94	0xbf210f2d	-0.6291378
95	0xbf2757cd	-0.6536835
96	0xbe78485e	-0.24246356
97	0xbe82f7ab	-0.2557958
98	0xbfb5bd1e	-1.4198339
99	0x40f3bf12	7.617074
100	0xc0004db3	-2.0047424
101	0xbe8334e0	-0.25626278
102	0xbedd81be	-0.43263048
103	0x3ea1a806	0.31573504
104	0x3c2b7d7b	0.010466929
105	0x3fa5f764	1.2966123
106	0xbe23beda	-0.15990773
107	0x3d3d7925	0.04625811
108	0xbdb1ca04	-0.086811095
109	0xc108440d	-8.516614
110	0xbd5d5e82	-0.054045208
111	0xbeded9f1	-0.4352565
112	0xbe81ce6c	-0.253528
113	0x3e88856a	0.26664287
114	0x3f46ecb1	0.7770491
115	0xbde6db15	-0.11272255
116	0xc009d3de	-2.1535563
117	0xc02939da	-2.644156
118	0xbed3ef03	-0.4139329
119	0xbf545f4b	-0.82957906
120	0xbd9eecc1	-0.07760001
121	0xbf7e5a6e	-0.99356735
122	0xbfb1e0a2	-1.3896677
123	0xbdbc119e	-0.09183048
124	0xbf087da9	-0.5331674
125	0x3f16be51	0.5888415
126	0x3f0957ac	0.536494
127	0xbe3fc4b8	-0.18727386
128	0x3fb8d4ef	1.4439982
129	0xbe0b5cc4	-0.13609606
130	0xbf678cab	-0.9044902
131	0xbe97819f	-0.2959108
132	0x40d121c1	6.5353703
133	0xbfda81bc	-1.7070842
134	0xbedaadd9	-0.4271076
135	0xbe33d408	-0.17561352
136	0xc02f9f86	-2.7441115
137	0xbf9ee664	-1.241406
138	0x3cbbe3de	0.022935804
139	0x3f7a1acd	0.97697145
140	0x3d90f57f	0.07078075
141	0xbf4193c0	-0.75616074
142	0xbd8c2311	-0.06842626
143	0xbf258e9d	-0.64670736
144	0xbf91086a	-1.1330693
145	0xbfa202fe	-1.2657163
146	0x3fc884ad	1.566549
147	0xbe78bd44	-0.24290949
148	0xbf4b6882	-0.7945634
149	0x3d61a22a	0.055086292

hiddenLayer3.weight f4 [150, 150]
0	0x40269723	2.6029747
1	0x3f5a94a0	0.85383034
2	0xbe30ec7d	-0.17277713
3	0xbe5e798b	-0.21726052
4	0xbf35f1c0	-0.71072006
5	0xbfeb5d2f	-1.8387812
6	0x3d2b0d58	0.041760772
7	0xbfe6e5dc	-1.8038898
8	0x3c24f6e9	0.010068634
9	0xbf937b2c	-1.1521964
10	0x3cf287f9	0.029605852
11	0x3edd4317	0.43215248
12	0xbfabdc28	-1.3426561
13	0x3e873e2e	0.26414627
14	0xbd21b3e4	-0.039478198
15	0x3ee0dfb9	0.43920687
16	0x3dd00a68	0.10158235
17	0xbf6ad289	-0.917275
18	0xc16a5ff5	-14.648427
19	0xc1467ccb	-12.405467
20	0xbf09ac6f	-0.5377874
21	0xbd614e08	-0.055006057
22	0x3d87f5e5	0.066386975
23	0x3ebc6878	0.36798453
24	0x3d2bb3cb	0.04191951
25	0x3d0e0e96	0.03468188
26	0xc071f01f	-3.7802808
27	0xbe72e944	-0.23721796
28	0x40353da8	2.8318882
29	0xc018735c	-2.382041
30	0xc083df56	-4.1210127
31	0x3e507f3c	0.20361036
32	0xc01a26ef	-2.4086263
33	0xc044236c	-3.064662
34	0xbf43cc9f	-0.764841
35	0xbf469be6	-0.7758163
36	0xbf259653	-0.646825
37	0xbdf263e1	-0.11835457
38	0xc094ab57	-4.6459155
39	0x3fc6ac76	1.5521381
40	0x40811b80	4.034607
41	0xc0014b32	-2.0202146
42	0x3f3d82ab	0.7402751
43	0x3c97aa37	0.018513782
44	0x41223500	10.137939
45	0x3e5f43cf	0.2180321
46	0x40554c8a	3.3327966
47	0xbe5bd66d	-0.21468516
48	0xc00ac9a7	-2.168558
49	0x3f7ac22d	0.9795254
50	0xba3c7073	-0.0007188387
51	0xc0144299	-2.3165648
52	0x3b0f0352	0.0021822047
53	0x3f8db663	1.1071285
54	0xc0ed38c6	-7.4131804
55	0xbe921941	-0.28534892
56	0xbee44500	-0.44583893
57	0xbf8c9bfa	-1.09851
58	0x3d870a5d	0.065937735
59	0x3f0a0ffe	0.5393065
60	0xbeaf7e6f	-0.3427615
61	0x3f07d59a	0.53060305
62	0x3ff646b8	1.9240332
63	0x40bafbbb	5.843229
64	0xc0b46401	-5.6372075
65	0xc0a43ad9	-5.1321836
66	0xc07be6d4	-3.9359636
67	0x3e1050e4	0.14093357
68	0x3e276cf4	0.16350156
69	0xc057ce22	-3.3719563
70	0xbf4a7412	-0.7908336
71	0x3ebcfcae	0.3691153
72	0xbd7c6114	-0.06161602
73	0xbe830cbc	-0.25595653
74	0x3f01d403	0.5071413
75	0xbd51c6dc	-0.051215038
76	0xc04cc13c	-3.199294
77	0xc10c8a0d	-8.783704
78	0xc11356ad	-9.208661
79	0xbf27d12d	-0.6555355
80	0xc019ebbe	-2.4050136
81	0x4099ea77	4.809871
82	0xc0f957a3	-7.791948
83	0xbf1d2786	-0.6138843
84	0xbed8015b	-0.42188534
85	0xc1136308	-9.211678
86	0xbfb687b8	-1.4260168
87	0x3e0eb786	0.13937196
88	0xbfad2f95	-1.3530146
89	0x3af1db1a	0.0018452138
90	0xbfc2c293	-1.5215629
91	0x4004982f	2.0717885
92	0x3f3127e6	0.69201505
93	0x4011961d	2.2747872
94	0xc00972cd	-2.147632
95	0xbf7dadd2	-0.99093354
96	0xc0c1b220	-6.052994
97	0xbec74938	-0.3892305
98	0x3f916e41	1.1361772
99	0x3dfe8702	0.124280944
100	0xc0c7ca29	-6.2434278
101	0xbea31dde	-0.31858724
102	0x3eb7026a	0.3574403
103	0x40acce82	5.4002085
104	0xbd231f47	-0.03982475
105	0xc0469602	-3.1029058
106	0xc00e3917	-2.2222345
107	0x3f0359c7	0.51308864
108	0x40123596	2.2845206
109	0x3ff52e5a	1.915477
110	0xbe210355	-0.15723927
111	0xbf0a1aef	-0.5394735
112	0x3d1e8e92	0.038710184
113	0x3c75f48e	0.01501192
114	0x3e482c30	0.19548106
115	0xc00543e8	-2.0822697
116	0xbeed2ed8	-0.463248
117	0xbf9d06ba	-1.2267678
118	0x3ea787fe	0.3272094
119	0x408be193	4.371286
120	0x3d09c778	0.033637494
121	0x3ea7ce12	0.32774407
122	0xc05a03ad	-3.4064744
123	0x3dbc161e	0.09183906
124	0xbd632f4c	-0.055465028
125	0x402b0560	2.672203
126	0x3f571002	0.840088
127	0xbfe9d44d	-1.8267914
128	0x3f85f2a7	1.0464677
129	0xbd998aa4	-0.07497147
130	0xc04b6a9c	-3.178382
131	0xbfb9bb55	-1.4510294
132	0xbf4daf8c	-0.8034599
133	0x3f15350f	0.58284086
134	0xbfb890e5	-1.4419218
135	0x3f0ca060	0.5493221
136	0xc11241c5	-9.141057
137	0xbeaeaa49	-0.34114292
138	0xc04c5b36	-3.193067
139	0x4036eb18	2.858099
140	0x3e1f1b3f	0.15537737
141	0xbfe00c2d	-1.7503716
142	0xbca67ddf	-0.020323692
143	0x3e18532e	0.1487548
144	0xc05628bd	-3.3462365
145	0x3faeff37	1.3671635
146	0x3f699c91	0.91254526
147	0x3dd0a6c5	0.10188059
148	0x3f91311f	1.1343116
149	0x3d912d45	0.070887126
150	0xbf3c4107	-0.73536724
151	0xc044739a	-3.0695558
152	0xc137e563	-11.493503
153	0xc096b8e8	-4.7100716
154	0xbf46af35	-0.77611095
155	0xc0beb706	-5.9598417
156	0xbffe6b5a	-1.9876511
157	0x3da7b550	0.081888795
158	0xbeba26c9	-0.36357716
159	0xc0ba276c	-5.8173122
160	0xc091d39b	-4.5570807
161	0xbfef2d15	-1.8685633
162	0xc0b9425d	-5.789351
163	0xc0ab65f5	-5.356196
164	0xbc9ba90a	-0.019001503
165	0xbe936524	-0.28788102
166	0xc07421b1	-3.8145564
167	0x3edc8d12	0.43076378
168	0xbfd45919	-1.658969
169	0xbeb644e5	-0.35599437
170	0x3fdd009c	1.7265811
171	0xbd0e6513	-0.03476436
172	0xbed2b101	-0.41150668
173	0xc0269f38	-2.603468
174	0x3d2fa87f	0.0428853
175	0x405a29e1	3.408806
176	0x40227919	2.5386412
177	0x3f73a7d5	0.95177966
178	0xbf8360ea	-1.0263951
179	0xc1a51338	-20.634384
180	0xc026958a	-2.6028771
181	0x3f16feef	0.5898275
182	0xc0a63c40	-5.1948547
183	0x3e25e1f7	0.1619948
184	0xbff947f9	-1.9475089
185	0xc0499cd4	-3.150197
186	0x3f187a14	0.59561276
187	0xc0cc84fb	-6.391233
188	0x406f97be	3.7436366
189	0xc010761e	-2.2572093
190	0xc0638ed6	-3.555593
191	0xc01247f2	-2.2856412
192	0x405b250b	3.424136
193	0x3d9abbf5	0.07555381
194	0xc1011628	-8.067909
195	0x3cce3580	0.025171995
196	0xbe1973c4	-0.14985567
197	0x3f9f7fe2	1.2460902
198	0x3faa1def	1.3290385
199	0x3ec5e70b	0.38652834
200	0xbda3ba04	-0.07994464
201	0x40803826	4.006854
202	0xc0dbca08	-6.868412
203	0x3edc8c7b	0.43075928
204	0xbee8de9b	-0.45482334
205	0x3c404090	0.011734143
206	0xbe1c0864	-0.15237576
207	0x40004d1d	2.0047066
208	0xbe89f93b	-0.2694796
209	0xbfa9eb0a	-1.3274853
210	0xbe0c691a	-0.13711968
211	0xc1211ba0	-10.069244
212	0xc0c34e32	-6.1032953
213	0x3f0f4268	0.559607
214	0xc15e7a5c	-13.904873
215	0xc00ac743	-2.168412
216	0xc0480316	-3.1251884
217	0xbf19edb4	-0.6012833
218	0xbe1321e5	-0.14368398
219	0xbebac5ff	-0.36479184
220	0xbfa48b97	-1.28551
221	0x3e1b011c	0.15137142
222	0x3de6093b	0.11232229
223	0xbffc8128	-1.9726915
224	0x3b4c13e8	0.0031139795
225	0x3f8bb19b	1.0913576
226	0xbfa83143	-1.3140033
227	0xc10eab73	-8.916858
228	0xc0ad6df1	-5.4196706
229	0xbb374338	-0.002796365
230	0xc00d726f	-2.2101095
231	0x402f0594	2.7347155
232	0xc002a741	-2.0414584
233	0xbffd86e3	-1.9806789
234	0xbf51ff59	-0.82030255
235	0xc1968178	-18.813217
236	0x3e9b39e3	0.30317602
237	0xbdcc6167	-0.099795155
238	0x3fd31fe9	1.6494113
239	0x3d715136	0.05891534
240	0x403b65bf	2.928085
241	0xc0b68558	-5.7037773
242	0x40142b2a	2.3151345
243	0x3f101c30	0.5629301
244	0x3eaa9e01	0.33323672
245	0xc07a6285	-3.9122632
246	0xc0b8c760	-5.774338
247	0x3e1d18bd	0.15341468
248	0x40a1f2bc	5.0608807
249	0xbea8c954	-0.329661
250	0xc0a757f9	-5.229489
251	0xbd2eec4f	-0.04270583
252	0xbea772b2	-0.32704693
253	0xc0a13be2	-5.03856
254	0x3cbb1a1d	0.0228396
255	0x40a1543e	5.0415335

hiddenLayer3.bias f4 [150]
0	0x410c8bce	8.784132
1	0x4102b8e9	8.170144
2	0xbe948735	-0.29009405
3	0xbf17d406	-0.593079
4	0x3ebf44d0	0.37357187
5	0x40c47b1d	6.1400285
6	0xc096dc19	-4.7143674
7	0x3f36e11a	0.7143723
8	0xbf72c82a	-0.94836676
9	0xbf89b872	-1.0759413
10	0xbe91f3c4	-0.2850629
11	0x40208c00	2.508545
12	0xbeaf69fc	-0.34260547
13	0xc051cea9	-3.2782385
14	0x40d01723	6.5028243
15	0xbfa1ed62	-1.2650568
16	0xbeab42dc	-0.33449447
17	0x40c3d2f1	6.1194997
18	0xbe225155	-0.15851338
19	0xbf3c0d26	-0.7345756
20	0x40994282	4.7893686
21	0xbf0b4e94	-0.54416776
22	0x4156fc03	13.436526
23	0x3fa38e7a	1.2777855
24	0xbf281bb6	-0.65667284
25	0x406440f6	3.566465
26	0x40b1ca5a	5.555951
27	0xbe30c9c6	-0.1726447
28	0x4079b4ff	3.9016721
29	0x3faf2149	1.3682033
30	0xbe98e1be	-0.29859728
31	0x40fa0e4e	7.814246
32	0xbf1389b3	-0.5763199
33	0x40bebbb5	5.9604135
34	0xbf9412b1	-1.1568204
35	0xbee5c77a	-0.4487875
36	0x41073f62	8.452974
37	0x400d42f4	2.2072115
38	0xbfd877df	-1.6911582
39	0xbf3b77d4	-0.7322972
40	0xbe9cb74e	-0.306086
41	0xbec31189	-0.38099316
42	0x4033eb00	2.8112183
43	0xbf48c0e6	-0.7841934
44	0xbd785385	-0.060626525
45	0x40bbec1e	5.872573
46	0xbf525372	-0.8215858
47	0x41779364	15.473484
48	0xbf389c53	-0.7211353
49	0x4084c7ab	4.1493735
50	0x41353553	11.325519
51	0xbe624ba6	-0.2209917
52	0xc12d0575	-10.813832
53	0xbd9e77c5	-0.07737688
54	0xbe8eb680	-0.2787361
55	0x40777697	3.8666131
56	0xbf2aee0a	-0.6676947
57	0x40daeac2	6.841157
58	0x404f476f	3.238735
59	0xc1553428	-13.325233
60	0xbf383b5e	-0.7196559
61	0xbde17791	-0.110091336
62	0xbefe821a	-0.49708635
63	0x41043587	8.263068
64	0xbe4a1c9b	-0.19737475
65	0xbf0a2e8f	-0.5397729
66	0xbf80616e	-1.0029733
67	0xc1150e7f	-9.316039
68	0xbfb1e315	-1.3897425
69	0xbe3bae0e	-0.18328115
70	0x40ec3d46	7.3824797
71	0x3fb0ee96	1.3822811
72	0x3f295355	0.6614278
73	0x413d9545	11.848943
74	0x4102309b	8.136867
75	0x403d80b0	2.9609795
76	0xc110dd0d	-9.053967
77	0xc02e3bd8	-2.7224026
78	0x410b0b61	8.690278
79	0xbf6fb48f	-0.93634886
80	0xbf919db0	-1.1376247
81	0x4114d352	9.301592
82	0x40548092	3.3203473
83	0x3e7ad6b6	0.24495968
84	0xc0275e22	-2.6151204
85	0xbdac628e	-0.08417235
86	0xbed8b13e	-0.42322725
87	0xbf1cac22	-0.61200154
88	0xbde47d26	-0.11156683
89	0xbea968ef	-0.3308787
90	0x3fc800d1	1.5625249
91	0x4131c9de	11.111784
92	0xbea2bd3e	-0.31785005
93	0xbff9e466	-1.9522827
94	0xbe632c69	-0.2218491
95	0xc0863f6b	-4.1952415
96	0x41072b54	8.448078
97	0xbf2b013e	-0.6679877
98	0xc1204200	-10.016113
99	0x411f3812	9.951189
100	0xbe182694	-0.14858466
101	0x40bac857	5.8369555
102	0x3d09fe8b	0.033690017
103	0xbee96cb1	-0.45590737
104	0x405939e0	3.3941574
105	0xbe20e640	-0.15712833
106	0x40a7417f	5.226745
107	0xbf9c9327	-1.2232407
108	0xbe0417c8	-0.12899697
109	0x41688e3e	14.534727
110	0xbf5930f9	-0.8484035
111	0x3f9d1d58	1.227458
112	0x41246001	10.273438
113	0x3de7a843	0.1131139
114	0x4001a1cf	2.025501
115	0x4163385c	14.20126
116	0x3c07a025	0.0082779275
117	0xbd30cecd	-0.04316597
118	0x41704a45	15.018132
119	0xbffa6727	-1.956273
120	0xbf147056	-0.5798391
121	0xbef31836	-0.4747941
122	0xbdd64008	-0.10461432
123	0xbe00da80	-0.12583351
124	0xbec953e4	-0.39321816
125	0xc117814f	-9.4690695
126	0x3c761aa4	0.015021
127	0xbe3d1410	-0.18464684
128	0x40a2e34f	5.0902476
129	0x40f2dec2	7.589692
130	0xbf431017	-0.76196426
131	0x40dacd48	6.8375587
132	0xbfd428a0	-1.6574898
133	0x4072aa82	3.791657
134	0x3f930e95	1.1488825
135	0x4146b775	12.419789
136	0xbf6eab02	-0.9322969
137	0xc0953b11	-4.6634603
138	0x3f3976b4	0.7244675
139	0xbe5f18b9	-0.21786775
140	0xbd97e1ba	-0.07416101
141	0x411d78fe	9.842039
142	0xbf0813d3	-0.5315525
143	0xc0dfb61b	-6.9909797
144	0x406b10fd	3.672912
145	0x3e53c877	0.2068194
146	0x3f825968	1.0183535
147	0x40aa6bb9	5.3256497
148	0xc05f1e51	-3.4862254
149	0xbcc23e51	-0.023711355

outputLayer.weight f4 [2, 150]
0	0x3e72f021	0.23724414
1	0x3f318434	0.6934235
2	0x392995e5	0.00016172936
3	0xbeed6001	-0.46362308
4	0x3c96a49e	0.018389042
5	0xbe282db7	-0.16423689
6	0xc0c3b05b	-6.115278
7	0x3c642f12	0.013927238
8	0xbfb12502	-1.3839419
9	0x402c0c7d	2.6882622
10	0x3ef33bc0	0.47506523
11	0x3f1ccfde	0.6125468
12	0x3ec3e058	0.38257098
13	0xc008c96c	-2.1372938
14	0x3caf9283	0.021432167
15	0x3f39a74f	0.7252092
16	0x3c5bdd60	0.013419479
17	0x3df6c094	0.1204845
18	0xbcab5fc9	-0.020919697
19	0x3ff79fd5	1.9345652
20	0x3eaf953d	0.34293547
21	0xbce43bde	-0.027860578
22	0x3ed7af24	0.4212581
23	0x3f02205d	0.5083063
24	0xc0000a24	-2.000619
25	0x411239a3	9.139071
26	0x3f22094d	0.6329544
27	0x3e924096	0.285649
28	0xbc2be1c1	-0.010490836
29	0x3ffa88df	1.957302
30	0xbf539748	-0.8265271
31	0x3f00baa7	0.5028481
32	0x40ab630a	5.3558397
33	0x3ebd6c5a	0.36996728
34	0xc0d2a31c	-6.582411
35	0x3f0a4fce	0.5402802
36	0x3f2a2a63	0.66470927
37	0x3f565741	0.8372689
38	0x3f9a525f	1.2056388
39	0x3f874960	1.0569267
40	0x3eeebb47	0.46627256
41	0x3f7cd24d	0.98758394
42	0x41538533	13.220019
43	0x3f862754	1.0480752
44	0x3de95c35	0.1139454
45	0x3e5ccb1e	0.21561858
46	0x3fd11056	1.633311
47	0x4019d5af	2.4036672
48	0xbeaebdba	-0.34129125
49	0x40052706	2.0805068
50	0x3f7144bd	0.9424551
51	0xbcf12f3e	-0.029441472
52	0xbea65625	-0.32487598
53	0x3ce4a134	0.027908899
54	0x4037fd6d	2.874843
55	0x3ffe9003	1.9887699
56	0x3fbd2853	1.4777931
57	0x3ed1b068	0.409549
58	0x3f96daa6	1.1785476
59	0xc056a8e1	-3.3540576
60	0x3f989679	1.1920921
61	0xbe90c19a	-0.28272706
62	0xbea59fa4	-0.3234836
63	0x40e6ec94	7.216379
64	0xbfb75d39	-1.4325324
65	0xbfec1e95	-1.8446833
66	0x3fbf2ca3	1.4935497
67	0xbe7cc972	-0.2468622
68	0xc0151b7b	-2.3298023
69	0xbd1a9664	-0.03774108
70	0xbea3a184	-0.31959164
71	0x3f3d8bbe	0.74041355
72	0xbf80f787	-1.0075539
73	0x3f331960	0.69960594
74	0x3d2d047f	0.042240616
75	0x3ef1a580	0.4719658
76	0x3f042906	0.51625097
77	0xbea45145	-0.32093254
78	0x3f81ba0a	1.01349
79	0xbfca1631	-1.5788022
80	0x3fcdb36f	1.6070384
81	0x3f80f844	1.0075765
82	0xbfc163f2	-1.5108626
83	0x3fd2db28	1.6473131
84	0xbdb87f18	-0.09008616
85	0xbdb354ed	-0.08756433
86	0xbf5df27f	-0.86698145
87	0x40579664	3.368554
88	0xbcd5dba9	-0.026105719
89	0xbeb723dc	-0.35769546
90	0xc02481cc	-2.5704222
91	0x3f284192	0.6572505
92	0xbeb04972	-0.34431034
93	0xbfa50e4b	-1.2894987
94	0x3cd215c8	0.025645152
95	0xc1585cae	-13.522627
96	0x3e357cd9	0.17723407
97	0x40b1a112	5.550912
98	0xbec77c9a	-0.3896225
99	0x3e559450	0.20857358
100	0xc0f12a47	-7.536411
101	0x3f44ae31	0.76828295
102	0x3c2acc0a	0.010424623
103	0xbfc9ff70	-1.5781078
104	0x3f364149	0.7119337
105	0xc01d9010	-2.4619179
106	0xbeacef73	-0.33776435
107	0xbcc04823	-0.023471897
108	0xbf92a8f9	-1.1457816
109	0x3f603813	0.8758556
110	0xbec59443	-0.38589677
111	0x3cf6f8c7	0.030147923
112	0x40a16183	5.0431533
113	0x3f25c43d	0.6475256
114	0xc002ac40	-2.0417633
115	0x3f85b7f0	1.0446758
116	0xbc43a6f4	-0.01194166
117	0xbbb222ad	-0.0054362626
118	0x3f8470e4	1.0346951
119	0xbe8ef392	-0.27920204
120	0xbf2c0158	-0.6718955
121	0xbe3f99cc	-0.18711013
122	0xbd39d5b4	-0.04536982
123	0xbedef8ce	-0.43549198
124	0x3e82e832	0.25567776
125	0xbeb0de57	-0.34544632
126	0xbb04141d	-0.002015359
127	0x3c963638	0.0183364
128	0xbf804af0	-1.0022869
129	0xbc979f8e	-0.018508699
130	0xc110f884	-9.060673
131	0xbeb532d7	-0.3539035
132	0xc0839947	-4.1124606
133	0xc05c064c	-3.4378843
134	0x405c7bf1	3.4450648
135	0x3f40f9bd	0.7538107
136	0xbe156224	-0.14588219
137	0xbe8500a7	-0.2597706
138	0x40bfff31	5.9999013
139	0x4005d69d	2.091224
140	0xbd81b7c9	-0.06333882
141	0x3f52bcf3	0.82319564
142	0x4010cf25	2.262643
143	0xbe21b686	-0.15792283
144	0xbf423807	-0.7586674
145	0x3e7d9b7d	0.24766345
146	0x408b6cef	4.3570476
147	0x3d690443	0.05688883
148	0x4099e957	4.809734
149	0xbc76d999	-0.015066528
150	0x3eafdc25	0.34347644
151	0x3f1af0ba	0.6052357
152	0x3c684831	0.014177368
153	0x3ec0c182	0.37647635
154	0x3ca7ce4c	0.020484112
155	0xbe902209	-0.28150967
156	0xc0b71686	-5.7214994
157	0x3cb3e52c	0.021959864
158	0x405a3133	3.409253
159	0xc035b300	-2.8390503
160	0xbd2f996c	-0.042870924
161	0x3f269d8d	0.65084153
162	0x3e46fcc0	0.19432354
163	0xc0083faa	-2.1288857
164	0xbdfaf397	-0.12253492
165	0xbf98a6ce	-1.1925905
166	0x3cb4a3ba	0.022050727
167	0x3e1b2d5e	0.15154025
168	0xbb5e4c90	-0.0033920147
169	0xc0024ff5	-2.0361302
170	0x3f1cb7d4	0.61218
171	0xbe8a3814	-0.2699591
172	0x3edc83a1	0.43069175
173	0x3ede748a	0.43448287
174	0x40262639	2.596083
175	0x4112b9a3	9.170321
176	0x3f206557	0.6265463
177	0xbe987a8b	-0.29780993
178	0x3e48a290	0.19593263
179	0x40a8a3f3	5.2700133
180	0x4025e133	2.59187
181	0x3e3c02b9	0.18360414
182	0xbfca7d25	-1.5819441
183	0x3f7d3bd8	0.9891944
184	0xc0fc31ab	-7.881063
185	0x3ec638e3	0.38715276
186	0x3f3bf029	0.7341333
187	0xbe9acd24	-0.30234635
188	0x3f5b37eb	0.856322
189	0x3d69467e	0.056951992
190	0x3f52e803	0.8238527
191	0xbf6b4816	-0.9190687
192	0x4166d357	14.426597
193	0xbfa10bbc	-1.2581706
194	0xbe666c3b	-0.22502224
195	0x3f2d5fdb	0.6772439
196	0xc015a04d	-2.337909
197	0x4019b658	2.4017544
198	0x3e3ebcde	0.18626735
199	0x4003a737	2.057081
200	0x3f6fb606	0.9363712
201	0xbcb72933	-0.022358513
202	0xbeaa8841	-0.33307078
203	0xbbd54c63	-0.00650935
204	0xc012941d	-2.29029
205	0x3febc436	1.8419254
206	0x4005e8ae	2.0923266
207	0x3ea5e53f	0.32401463
208	0x3f9cef88	1.2260599
209	0xc0564c57	-3.3484094
210	0xbf8f7ca7	-1.1209916
211	0x3fbafcad	1.460836
212	0x3e4736e7	0.19454537
213	0x40f70208	7.718998
214	0x3fce3271	1.6109143
215	0xbf1eac48	-0.6198163
216	0x3ff40dc3	1.90667
217	0xbe7d984b	-0.24765126
218	0xbf50b4b7	-0.8152575
219	0x3c361a48	0.011114664
220	0x3ee37d4c	0.4443153
221	0x3f1a9267	0.6037964
222	0xbf1f57eb	-0.6224353
223	0x3f3417fd	0.70349103
224	0x3e88b2b9	0.26698855
225	0x3d4bae81	0.049726967
226	0xbd2e2375	-0.042514283
227	0xbf264517	-0.6494917
228	0x3f7d9b5e	0.99065197
229	0xc0043461	-2.065697
230	0x3fd7381d	1.6814
231	0x3f814433	1.0098938
232	0x402f64d2	2.7405286
233	0x3fe6b655	1.8024393
234	0xbda1b90d	-0.07896624
235	0x3c971932	0.018444631
236	0x3fa75f41	1.3075944
237	0x40486ccb	3.1316402
238	0xbcef8d9d	-0.029242331
239	0x3f6d5b17	0.9271712
240	0xc057fbb4	-3.3747377
241	0x3f2857e6	0.6575912
242	0x3f5624d4	0.83649945
243	0xbfa7965c	-1.3092761
244	0xbbae87c2	-0.005326242
245	0xc18555cf	-16.666899
246	0x3f133be6	0.5751327
247	0x40735f24	3.802682
248	0xbf250a6d	-0.64469033
249	0x3e5a7693	0.21334295
250	0xc00382aa	-2.05485
251	0x3f2034d2	0.625806
252	0x3c0e6906	0.008692032
253	0x3fd0d73e	1.6315687
254	0x409fd685	4.9949365
255	0x401e852c	2.4768782

outputLayer.bias f4 [2]
0	0x41727fd9	15.156213
1	0x4173cc37	15.237357
