ftl/pretrain/weight/finetune_prxy_0/finetune_prxy_0_8.pth (torch, 187635 bytes, 8 tensors)

hiddenLayer1.weight f4 [150, 3]
0	0xbf1dd383	-0.61650866
1	0xbf92414a	-1.1426175
2	0xbed49d3a	-0.41526204
3	0xbcb1a773	-0.021686291
4	0x39004968	0.00012234377
5	0xbd5b1a1c	-0.053491697
6	0xbfdac095	-1.7090021
7	0xbedc7761	-0.4305983
8	0xbfa13a67	-1.2595948
9	0xbda2d98f	-0.07951652
10	0xbd3a6f25	-0.045516152
11	0x3fcc83df	1.5977744
12	0xb7d2347a	-2.5058387e-05
13	0xbb46fac8	-0.003036188
14	0xbb29cfd7	-0.0025911236
15	0xbdeb567d	-0.11491106
16	0x39e4c539	0.0004363449
17	0xbde5e119	-0.112245746
18	0xc13833c3	-11.512637
19	0xbebb03d3	-0.36526355
20	0xbf7cdecf	-0.9877748
21	0xbdcebc63	-0.10094526
22	0x3ee24b96	0.44198292
23	0x3e771c96	0.24131998
24	0xc0478e56	-3.1180625
25	0xbe32f5c8	-0.1747657
26	0xbefb8d51	-0.49131253
27	0xbf048dec	-0.51779056
28	0xbda371e6	-0.07980709
29	0xbd91dc97	-0.07122152
30	0xbede0b13	-0.43367824
31	0xbda5e4ff	-0.08100318
32	0xc0b41d84	-5.628603
33	0xbeab733e	-0.3348636
34	0x3c62331f	0.0138061335
35	0xbec2274c	-0.37920606
36	0xc186cd3d	-16.850214
37	0xbe50506a	-0.20343176
38	0xbeb9638b	-0.36208758
39	0xbd056ddf	-0.032575484
40	0x3b8f1f69	0.004367758
41	0x3d01df0c	0.031706855
42	0xbcb1e0fa	-0.021713722
43	0x3a048cfe	0.000505641
44	0xbbe4d832	-0.0069837803
45	0xbf731405	-0.9495242
46	0x3c8d8871	0.017276974
47	0x3fbab5d2	1.4586737
48	0xbdc16bba	-0.09444375
49	0x3c63ee06	0.01391173
50	0xbcd68e24	-0.026190825
51	0xc206d3f6	-33.706993
52	0x3d5fdf86	0.054656528
53	0xbee5d5c4	-0.44889653
54	0xc064ef5e	-3.5771098
55	0xbe4c0391	-0.19923235
56	0xbeff004a	-0.49804908
57	0xbd69d3b6	-0.05708667
58	0xba397437	-0.00070745073
59	0xbd0454e2	-0.032307513
60	0x394757d3	0.00019010836
61	0x3c0dd908	0.008657701
62	0xbb9225c6	-0.0044600694
63	0xbf1d3d29	-0.6142145
64	0x3e58108a	0.21100059
65	0x3fa487e2	1.2853968
66	0xbc226eac	-0.009914082
67	0xbd9c3ae1	-0.07628418
68	0x3b561a0e	0.0032669338
69	0xc1370e85	-11.441045
70	0xbe22e9c3	-0.15909486
71	0x3e8a37c8	0.26995683
72	0x3da80954	0.08204904
73	0xb9b2e525	-0.00034121532
74	0x3f323ab9	0.69620854
75	0xc04015af	-3.0013235
76	0x3d9348d7	0.071916275
77	0xc06e3d8a	-3.722506
78	0xbf751ed5	-0.9575017
79	0x3eb29ab5	0.34883657
80	0xbf37d63a	-0.7181126
81	0xbd1fca1b	-0.039011102
82	0xbd7d1b14	-0.0617934
83	0x3f989770	1.1921215
84	0xbf3de77f	-0.7418136
85	0x3f952b38	1.1653814
86	0xbece22b0	-0.4026084
87	0xbe9cbd69	-0.30613258
88	0xbd2b71cd	-0.041856576
89	0xbcf246a7	-0.029574705
90	0xbd9c7a25	-0.07640485
91	0x3ab0681b	0.001345876
92	0x4002ac92	2.0417829
93	0xc06029e8	-3.5025578
94	0x3e5acbe9	0.21366848
95	0x3f32f94d	0.6991165
96	0xbe65d39b	-0.22444002
97	0x3f923b90	1.1424427
98	0xc042046d	-3.0315201
99	0xbeee435c	-0.46535766
100	0xba31ed37	-0.0006787362
101	0xbd4da6de	-0.050207965
102	0xbd9a9bb3	-0.075492285
103	0xb87cba0d	-6.0254755e-05
104	0xbdcf1c78	-0.10112852
105	0xbf90a24e	-1.1299531
106	0xbf842656	-1.0324199
107	0xbd5a4309	-0.053286586
108	0xbda5d109	-0.08096511
109	0xbe150a8c	-0.14554805
110	0xc092ef81	-4.5917363
111	0xbe8bbfe4	-0.27294838
112	0x3ba9b2ce	0.005178786
113	0xbe52f169	-0.20599903
114	0xbc87ab5b	-0.0165612
115	0xba37e93b	-0.000701565
116	0xbce39e89	-0.027785556
117	0xc11d2dec	-9.823711
118	0xbe9a55fb	-0.30143723
119	0xbfd06b90	-1.6282825
120	0xbd00a3e2	-0.03140629
121	0xbb9b55c0	-0.004740447
122	0xbcd3de74	-0.02586291
123	0xbf0c10fe	-0.5471343
124	0xbf866504	-1.0499578
125	0xc06968ac	-3.6470137
126	0xbd7dfc86	-0.062008403
127	0x3913ab6b	0.0001408287
128	0xbc3c22d5	-0.011482914
129	0xbe18c981	-0.14920618
130	0xb8528919	-5.0195584e-05
131	0xbd3f8d7e	-0.046765797
132	0xbf186e02	-0.5954286
133	0xbfc45c4f	-1.534067
134	0xbfad10af	-1.3520716
135	0xbf883913	-1.0642418
136	0xb9b807c9	-0.00035101015
137	0xc068b2f5	-3.6359227
138	0xbf1f2055	-0.6215871
139	0x3d5e96d8	0.054343075
140	0x3fb32242	1.399483
141	0x3c0aadb8	0.008464269
142	0xbf6232fb	-0.8835904
143	0xc015cd03	-2.340638
144	0xc0f69382	-7.7055063
145	0x3ebf90ae	0.3741507
146	0x3f31d2d0	0.694623
147	0xbfa841f7	-1.3145131
148	0x3d8af054	0.0678412
149	0xbebea926	-0.37238425
150	0xbea1d3ac	-0.31606805
151	0xbf4f424d	-0.8096054
152	0xbf03d4b4	-0.51496434
153	0xbf5e4aa3	-0.86832637
154	0xbf8234e2	-1.0172389
155	0x3d2ad48c	0.041706607
156	0x3c6669d0	0.014063314
157	0xbd17dd85	-0.03707649
158	0x40113743	2.268998
159	0xbff6cc29	-1.9281055
160	0xbc88a60f	-0.016680745
161	0x3ce09bfc	0.02741813
162	0xbd90460a	-0.07044609
163	0xb7fe72e2	-3.0332656e-05
164	0xbd10e71b	-0.03537665
165	0x3d579db1	0.05264062
166	0xbc8fa8c3	-0.017536527
167	0xc0f6d4f0	-7.7134933
168	0xbe676205	-0.22595985
169	0xbe8cf466	-0.2753021
170	0xbe97572b	-0.2955869
171	0xbb8cbbd0	-0.00429485
172	0xb93c9993	-0.00017986288
173	0xbdd4afe0	-0.10385108
174	0xc221abae	-40.417656
175	0xbd5371e8	-0.0516223
176	0xbe8c30ce	-0.27380985
177	0xc0271ce6	-2.6111388
178	0x3f5ece80	0.87033844
179	0x3e1f0993	0.15530996
180	0xbce7828e	-0.028260496
181	0x3a0b9b4a	0.0005325569
182	0xbd55071d	-0.052008737
183	0x3ee77d6a	0.4521287
184	0xbb95b906	-0.0045691757
185	0xc0b66275	-5.6995187
186	0xbd739c08	-0.059474975
187	0x3ca048b7	0.019565923
188	0xc112fb08	-9.186287
189	0xbf89d276	-1.0767353
190	0x3f601659	0.875341
191	0xc07e7f95	-3.976537
192	0xc1c97bf3	-25.185522
193	0xbd91742b	-0.071022354
194	0x3e82fa6e	0.25581688
195	0xbf9f31c6	-1.2437065
196	0xbf15e12e	-0.5854672
197	0xc01b03d6	-2.4221091
198	0xbf89bfbd	-1.0761639
199	0x3fcf9b5e	1.6219289
200	0x3e2915f7	0.16512285
201	0xbcc1ca9c	-0.023656182
202	0x3c36c5a0	0.011155516
203	0x40b21633	5.56521
204	0xbd6735c4	-0.05644776
205	0x3d3e4a01	0.046457294
206	0xbc923311	-0.017846616
207	0xbdb76a95	-0.08955876
208	0x3b432af6	0.0029780245
209	0xbc3326dc	-0.010934558
210	0xc017abf3	-2.36987
211	0x3e04ad1f	0.12956665
212	0x3cafe925	0.021473477
213	0xc17d840d	-15.844739
214	0x3e21cbd1	0.15800406
215	0xbf4c0fd7	-0.7971167
216	0xc0d7442d	-6.7270722
217	0x3ef4b560	0.47794628
218	0xbe30ab3e	-0.17252824
219	0xbdeb258a	-0.114817694
220	0x3be1ec43	0.0068946197
221	0xbcb236b5	-0.021754602
222	0xbd8f49de	-0.06996511
223	0x3b674c3f	0.003529325
224	0xbbe286b6	-0.0069130315
225	0xbd96bb88	-0.073599875
226	0x39f28acf	0.00046261257
227	0xbdb2cf34	-0.08730927
228	0xbee8f119	-0.45496443
229	0xbf23da63	-0.64005107
230	0xbe897d45	-0.26853386
231	0xbd56c5b2	-0.05243463
232	0xbbb6b996	-0.005576323
233	0xbd28f5fe	-0.04125022
234	0xc0a61d39	-5.191067
235	0x3e25d288	0.16193593
236	0x3ce0b2ca	0.027429003
237	0xbc4a3a02	-0.012342932
238	0x3cbc09e2	0.022953931
239	0x4056c49e	3.3557506
240	0xbcc88a59	-0.024480032
241	0x3b6ce2d9	0.0036145954
242	0xbc7eb5f4	-0.015546311
243	0xc1f867cb	-31.05068
244	0xbe022c33	-0.12712173
245	0xbf234023	-0.6376974
246	0xc0c9733b	-6.295316
247	0xbef0b9ab	-0.47016653
248	0xbf9cb6b2	-1.2243254
249	0x3819290d	3.6516274e-05
250	0x3a876dac	0.0010332367
251	0xbb1a6a78	-0.0023561995
252	0xbfca10cc	-1.5786376
253	0xbec5da53	-0.3864313
254	0xbf0ca90d	-0.5494545
255	0xbff78124	-1.9336286

hiddenLayer1.bias f4 [150]
0	0xc0b1778b	-5.5458426
1	0xbdb36da4	-0.08761147
2	0xc0298912	-2.648991
3	0xbffccbe6	-1.9749725
4	0xbd743bb5	-0.059627254
5	0xbdba8ab9	-0.091084905
6	0xbf247f3f	-0.6425666
7	0x3ede649a	0.43436128
8	0xbdf127d0	-0.11775172
9	0xbf9955b8	-1.1979284
10	0xbe9793a7	-0.29604837
11	0xbec2e781	-0.38067248
12	0xbfe44224	-1.7832685
13	0xc0827650	-4.0769424
14	0xbc2fe364	-0.0107353665
15	0x3f0563c7	0.52105373
16	0xbe884024	-0.26611435
17	0xbfec5eb4	-1.8466401
18	0xbdc977bb	-0.0983729
19	0xbd1d1c43	-0.03835703
20	0xbe41183d	-0.18856902
21	0xc0877a01	-4.233643
22	0xbf97dd1e	-1.1864355
23	0xbedc87bc	-0.43072307
24	0xc01c7360	-2.444542
25	0x3c83b916	0.016079467
26	0xbf864e8f	-1.0492724
27	0xc1068660	-8.407806
28	0xbfcc821c	-1.5977206
29	0xbf24b2e0	-0.6433544
30	0x40629977	3.5406168
31	0xc0bff366	-5.9984617
32	0xbfd64a54	-1.6741433
33	0xbdbdcd4d	-0.09267674
34	0xbe2fe73c	-0.17178053
35	0xc0930b1f	-4.5951076
36	0xbfc4f569	-1.5387393
37	0xbe50ea2e	-0.20401832
38	0xbd087945	-0.033318777
39	0xbfc97712	-1.5739462
40	0xbe15cad2	-0.14628151
41	0xbf6ba54f	-0.92049116
42	0xbc753dd7	-0.014968357
43	0xbd3204ad	-0.04346149
44	0xc002402c	-2.0351667
45	0xbfc529fb	-1.5403436
46	0xc030a38b	-2.7599819
47	0xbed3e7f3	-0.413879
48	0xbe509788	-0.20370305
49	0xbf8c639c	-1.0967898
50	0xbff2b17f	-1.8960418
51	0xc08c8cea	-4.3922014
52	0xc0b1b53c	-5.5533733
53	0xbfe408d8	-1.7815199
54	0xbcf7e069	-0.030258374
55	0xbe2cc750	-0.16872907
56	0xc07f0aed	-3.9850419
57	0xbdaa293f	-0.08308648
58	0xbf85dae4	-1.0457425
59	0xc0bd8cb7	-5.923427
60	0xbdbaf006	-0.09127812
61	0x401986b1	2.398846
62	0x3f4063f1	0.751525
63	0xbfc63bf2	-1.5487044
64	0xbf97ceed	-1.1860024
65	0xbfa223f0	-1.2667217
66	0xc08ae318	-4.3402214
67	0x3e4038da	0.18771687
68	0xbf2938b9	-0.66102177
69	0xbd89e183	-0.06732466
70	0xbfee64ae	-1.8624475
71	0xc0588edb	-3.3837192
72	0xbfbc89c7	-1.4729546
73	0xbe1f799b	-0.15573733
74	0xbda28952	-0.07936348
75	0xbd957d7b	-0.07299324
76	0xc0f29837	-7.581081
77	0xbdf2abda	-0.11849184
78	0xc017222c	-2.3614607
79	0xc08cc725	-4.3993096
80	0xbd7e3476	-0.06206175
81	0xc01f3650	-2.48769
82	0xbfe2f704	-1.7731633
83	0xbce94d62	-0.028479282
84	0x3e172f48	0.1476413
85	0xc05e5e5a	-3.4745088
86	0xbfe2cc79	-1.771865
87	0x4027c16a	2.62118
88	0xbc5b3e07	-0.013381488
89	0xbf384945	-0.719868
90	0xbeb1255d	-0.34598818
91	0xbefb5024	-0.4908458
92	0xc008102c	-2.125987
93	0xbfe4124d	-1.7818085
94	0xc03fee67	-2.998926
95	0xbdbf02de	-0.09326719
96	0x3ea39bf3	0.31954917
97	0xc06ab1ee	-3.66711
98	0xbdd0d9b2	-0.10197772
99	0xc03e3288	-2.9718342
100	0xbe0c7f3b	-0.1372041
101	0xbf2156fd	-0.6302336
102	0xc0145f8a	-2.3183312
103	0xbf82f3ca	-1.0230649
104	0xc0531a97	-3.298498
105	0xbf3f1a9b	-0.7464997
106	0xbd127346	-0.035754465
107	0xc03b2194	-2.9239244
108	0xbf56a132	-0.83839715
109	0xc0f6442f	-7.695823
110	0xbf27344f	-0.6531419
111	0xbddee877	-0.10884183
112	0xc06e75c6	-3.7259383
113	0xc0789126	-3.8838592
114	0xbef340c8	-0.47510362
115	0xbc8f3361	-0.017480554
116	0xc084a8bd	-4.145598
117	0xbf06d346	-0.5266613
118	0xc0535ddc	-3.3026037
119	0xbdf6d34e	-0.12052022
120	0xbd5e2f6c	-0.054244444
121	0xc0a8f0f0	-5.2794113
122	0xc17ddeaf	-15.866866
123	0xbcd9ad44	-0.026571877
124	0xbd37c3e7	-0.04486456
125	0xbcea5057	-0.028602762
126	0xbfb759c6	-1.4324272
127	0xbdce2210	-0.10065091
128	0xbf53576b	-0.82555264
129	0xbf11130f	-0.56669706
130	0xbf4c14cd	-0.7971924
131	0xbf30ff7d	-0.69139844
132	0xbe08a95d	-0.13345857
133	0xbfd781d7	-1.6836499
134	0xbf0fa0fd	-0.56105024
135	0xc0056a2b	-2.084605
136	0xbe43e338	-0.19129646
137	0xbe2bfc8e	-0.1679556
138	0xc073c310	-3.8087807
139	0xbdce5bfd	-0.10076139
140	0x40597139	3.3975356
141	0xc07ccd94	-3.9500475
142	0xc1049eaf	-8.288741
143	0xbf8cdaba	-1.100425
144	0xbe8f16d1	-0.27947095
145	0xbc613bfb	-0.013747211
146	0xc04323cf	-3.0490606
147	0xbf461d2e	-0.77388275
148	0xbe005524	-0.12532479
149	0x3e079aec	0.13242692

hiddenLayer2.weight f4 [150, 150]
0	0xbeac28d0	-0.33624887
1	0x3d9be3a3	0.07611778
2	0xbfe3ec03	-1.78064
3	0xbfe4ced9	-1.7875625
4	0xbf1849ac	-0.59487414
5	0x3e7f00e1	0.24902679
6	0xc0a78666	-5.235156
7	0xbf1c68aa	-0.61097205
8	0x4083bad3	4.1165557
9	0xbfb3f89d	-1.4060246
10	0xc0efc16b	-7.4923606
11	0xc01f8a4c	-2.492816
12	0xc12d63fa	-10.836908
13	0xbdf30b5f	-0.11867403
14	0x3dcde6cc	0.10053787
15	0x3f8532c6	1.040612
16	0xbdc5df95	-0.096617855
17	0x3eb87421	0.360261
18	0xbd2034ae	-0.03911274
19	0xbe0b61c5	-0.13611515
20	0xc049f2e7	-3.1554506
21	0xbec2631d	-0.37966242
22	0xbed3c798	-0.41363215
23	0xc0006315	-2.0060475
24	0xc0868980	-4.2042847
25	0xbfc6ef75	-1.5541826
26	0x3f5886a5	0.8458045
27	0xc007bced	-2.120906
28	0x4013e1b3	2.3106506
29	0xbf435342	-0.76298916
30	0xbf26c46a	-0.65143454
31	0xbf55d1b0	-0.8352308
32	0xc09b3ce7	-4.8511844
33	0xbe87db09	-0.26534298
34	0xbdace18e	-0.08441459
35	0xbed66eb1	-0.41881326
36	0xbfb46f41	-1.4096452
37	0xbecc4e72	-0.399036
38	0x3d8b368d	0.06797514
39	0xc0ad7765	-5.4208245
40	0xbe593432	-0.21211317
41	0xc1b7d4e3	-22.978949
42	0xbdc1006e	-0.0942391
43	0xbe3e5bcc	-0.18589705
44	0xbca000b2	-0.019531582
45	0x3e9dc499	0.30814055
46	0xbfb86778	-1.4406576
47	0xc1575702	-13.458742
48	0xc10e6703	-8.900149
49	0x400f4dbf	2.2391202
50	0xc091abec	-4.5522366
51	0x3fd3589d	1.6511418
52	0xbf93ddb9	-1.1552039
53	0xc09378ed	-4.6085114
54	0x3ca1958e	0.019724634
55	0xc16efc7e	-14.936644
56	0xc0a9a814	-5.3017673
57	0x3dd53dec	0.10412201
58	0x402d91b8	2.712019
59	0xbfc40250	-1.5313206
60	0xbef2c533	-0.47416076
61	0xbef9e998	-0.4881103
62	0xbedc2ec0	-0.43004417
63	0xc19bb834	-19.464943
64	0xc133783c	-11.216854
65	0x3f04e030	0.5190458
66	0xc10b8d5e	-8.722013
67	0xc1423fa0	-12.140533
68	0x3f1ff987	0.62490124
69	0xbdd92e6c	-0.106045574
70	0x4002e0cc	2.0449705
71	0xc0c8f414	-6.2797947
72	0xc217f18b	-37.98588
73	0xbd28a1ee	-0.041170053
74	0xbd39146e	-0.0451855
75	0xbe32f4b3	-0.17476158
76	0xc0837587	-4.1080966
77	0xbe88b786	-0.26702517
78	0xc0c4ff7b	-6.1561866
79	0xbe804572	-0.25052983
80	0xbdfc164e	-0.12308942
81	0x402cdeb0	2.7010918
82	0xbdc352bd	-0.095372654
83	0xbdabab7f	-0.0838232
84	0x3fbd4649	1.4787074
85	0xc042f79a	-3.0463624
86	0xc0c20926	-6.0636168
87	0xbe765d69	-0.2405907
88	0x3e8bbda9	0.27293137
89	0x405ad47e	3.4192195
90	0xc0c5f313	-6.185922
91	0xbee0d5e2	-0.4391318
92	0xc02ecb4c	-2.7311583
93	0x409a295a	4.817548
94	0xbe91ad43	-0.284525
95	0x3fd66878	1.6750631
96	0xbe5c233d	-0.21497817
97	0xbe9519ca	-0.29121238
98	0x3f6efc10	0.93353367
99	0xc0a35c28	-5.1049995
100	0x3ece5cee	0.40305275
101	0x3fecfb45	1.8514181
102	0x3ffb6cad	1.964254
103	0xbbbdd95f	-0.005793735
104	0xbf415e43	-0.75534457
105	0x3efcb319	0.4935539
106	0x3ea9a7fb	0.3313597
107	0x3e1ef0a4	0.15521485
108	0xc08a74e2	-4.326768
109	0xbf51295a	-0.8170372
110	0x40b32566	5.5983152
111	0xbdf38eb0	-0.1189245
112	0xc04f62aa	-3.240397
113	0x3f67d28c	0.90555644
114	0xc081500d	-4.041022
115	0x3c2de3d8	0.010613404
116	0xc080d694	-4.0261936
117	0x40d58595	6.6725564
118	0xc138ff60	-11.562347
119	0xbe447a15	-0.19187196
120	0xbc98e73a	-0.018664945
121	0xbfedcb6b	-1.8577703
122	0xbea0f78a	-0.31438857
123	0xbda53b85	-0.08067993
124	0xbdaff143	-0.08590939
125	0xbe74002e	-0.23828194
126	0xc020ba9c	-2.5113897
127	0x4013d2ed	2.309749
128	0xc00a7394	-2.1633043
129	0x3f85c9db	1.0452226
130	0xbeb7b450	-0.35879755
131	0xbe1f7da4	-0.15575272
132	0xbde6bb25	-0.11266164
133	0xbf9ec069	-1.2402469
134	0xc098dc3d	-4.7768846
135	0xc128fdd9	-10.561975
136	0x3fe463cc	1.7842956
137	0xc01a78ca	-2.4136224
138	0x3fc1a8a3	1.5129589
139	0x3dad02d7	0.08447807
140	0xbecb9707	-0.39763662
141	0xbf5f116b	-0.8713595
142	0xbf1a914f	-0.60377973
143	0xbf2a74d3	-0.6658451
144	0xbf72c631	-0.94833666
145	0xbce73d7f	-0.028227566
146	0xc0be263a	-5.9421663
147	0xc06f591a	-3.7398133
148	0x3d58b2b6	0.052904807
149	0x400afa25	2.1715176
150	0xc18c1df3	-17.514624
151	0x3d37d3e2	0.0448798
152	0xbf157941	-0.58388144
153	0x401dcfff	2.46582
154	0xbd891c63	-0.066948675
155	0xbe7d3e20	-0.2473073
156	0xc0b0e6e0	-5.528183
157	0xbfb95f06	-1.4482124
158	0xbdc59d07	-0.09649091
159	0xc0a04f94	-5.009714
160	0xbf2a2dab	-0.66475934
161	0xbfa856f0	-1.3151531
162	0x3fb929c4	1.4465871
163	0xc0aeabf9	-5.4584928
164	0x3cc9bc2c	0.02462586
165	0xbff2cbe5	-1.8968474
166	0x3e3e9752	0.18612412
167	0xc059d3f5	-3.4035618
168	0xbf606f88	-0.87670183
169	0xbd64f44f	-0.055897053
170	0x40bf8628	5.9851265
171	0x3f84ae8b	1.0365766
172	0x3f0b5452	0.5442554
173	0xbfb523d3	-1.4151558
174	0xc0b9ab10	-5.8021317
175	0xbf6cec7e	-0.9254836
176	0xbf45777c	-0.77135444
177	0xbf676410	-0.9038706
178	0xc01df265	-2.4679196
179	0xbf0d3d45	-0.55171615
180	0xbf7d9423	-0.99054164
181	0x3ef8fa4d	0.48628464
182	0xbff61243	-1.9224323
183	0x3eca62de	0.39528555
184	0x3eb11752	0.34588104
185	0xbf033862	-0.5125791
186	0xbfaa5ad3	-1.3308967
187	0x3ec31b95	0.3810698
188	0x3d42d74f	0.047568616
189	0x40267c8f	2.6013525
190	0xbf0a6a01	-0.54068
191	0x4002be34	2.042859
192	0xbc3e6e6b	-0.011623005
193	0xbcc5172a	-0.024058897
194	0xc10c1e3a	-8.75738
195	0xbf22dc58	-0.6361747
196	0x3fc61a78	1.5476828
197	0xbf20d4ac	-0.6282451
198	0xc1158895	-9.345845
199	0xbee933c9	-0.4554732
200	0x40216b6a	2.522181
201	0x3f06625f	0.5249385
202	0xc054c8e4	-3.3247614
203	0x402daeb7	2.7137887
204	0xbe0e39ac	-0.13889188
205	0xbf9bca76	-1.2171161
206	0x4035f80a	2.843264
207	0xbea3f407	-0.32022116
208	0xbdd5f62d	-0.10447345
209	0xbf4aed7c	-0.7926862
210	0xbf4cd02f	-0.8000516
211	0xc029db6a	-2.654017
212	0x3e8e254e	0.27762836
213	0xbf9b79cb	-1.2146543
214	0x408f688b	4.4815116
215	0xbeedd9be	-0.46455187
216	0xc01cecc7	-2.4519517
217	0x3e981011	0.29699758
218	0xbec76be4	-0.38949502
219	0xbe1be2e3	-0.15223269
220	0xc0724afe	-3.7858272
221	0x3f93d700	1.1549988
222	0xc02a1244	-2.6573648
223	0x3db6860a	0.08912285
224	0xbdaf4373	-0.08557787
225	0x3de7ce4a	0.113186434
226	0x402b2cd4	2.674611
227	0xbea9ccf8	-0.3316419
228	0x3f00d647	0.5032696
229	0x40bba22e	5.8635473
230	0x3e727f4c	0.23681372
231	0xc00ba317	-2.1818292
232	0xc12de938	-10.869438
233	0xbd2f2d20	-0.042767644
234	0xbffba0fc	-1.9658504
235	0xbffb4c4b	-1.9632658
236	0xc093d648	-4.6199074
237	0xc072447d	-3.7854302
238	0xbc936e97	-0.01799707
239	0xbfea853e	-1.8321912
240	0xbe1f9aa6	-0.15586337
241	0xbf891cc6	-1.0711906
242	0xbfc884bf	-1.5665511
243	0x3fedc0be	1.8574445
244	0xbfb7e280	-1.4365997
245	0xbfe5da90	-1.7957325
246	0x3d0de479	0.034641717
247	0xc01e41e8	-2.4727726
248	0x3e959d76	0.29221696
249	0x3f8f38c5	1.11892
250	0x3f058abd	0.5216482
251	0x3f522bbd	0.8209799
252	0xbf3f6796	-0.74767435
253	0xbf55c42b	-0.83502454
254	0xc182601e	-16.296932
255	0xbf8f160a	-1.1178601

hiddenLayer2.bias f4 [150]
0	0xbef9c8b9	-0.48785952
1	0xbfb70ffd	-1.4301754
2	0x3fba1fa1	1.4540902
3	0x3e095707	0.13412105
4	0xbf29a68b	-0.6626975
5	0x3dd34ae7	0.10317021
6	0x3fd9dbd7	1.7020215
7	0xbdbcbc76	-0.092156336
8	0x40ebcfe3	7.369127
9	0x3e3333a7	0.17500173
10	0x3cad8741	0.021182658
11	0x3ec88cd8	0.39169955
12	0x3f38277a	0.71935236
13	0xbef45a81	-0.477253
14	0xbd910cf6	-0.0708255
15	0xc08d1d37	-4.4098163
16	0x4086fd57	4.2184253
17	0x3b8cbb9e	0.0042948266
18	0x3ffee513	1.9913658
19	0x3fe8bb9b	1.8182253
20	0xbefc7c8d	-0.49313775
21	0xbd5a5b1f	-0.053309556
22	0xbf53c1fd	-0.8271788
23	0xbfdbf55d	-1.7184254
24	0xbdd9061a	-0.10596867
25	0xbfe23406	-1.7672126
26	0xbfe52095	-1.7900568
27	0x3e4012ff	0.18757246
28	0x3ef0bcae	0.4701895
29	0x3c22db36	0.009939959
30	0x3f96e3e9	1.1788303
31	0xbe4581f3	-0.19287853
32	0xbf016b06	-0.5055393
33	0xbea8dea9	-0.32982376
34	0x401a7380	2.4132996
35	0xc0056543	-2.0843055
36	0xbe620145	-0.22070797
37	0xbdaa495b	-0.08314773
38	0xbfdd829b	-1.7305483
39	0x3f700173	0.9375221
40	0xbf556798	-0.83361197
41	0xbc484205	-0.0122227715
42	0xbe00961d	-0.12557264
43	0xbd9a0255	-0.07519976
44	0xc00b3f3b	-2.1757343
45	0xbf09d791	-0.53844553
46	0xc069cff8	-3.6533184
47	0xc047d446	-3.1223311
48	0x3ed8870c	0.42290533
49	0xbf369bf0	-0.7133169
50	0xbe754284	-0.23951155
51	0xbf8bdf3b	-1.09275
52	0xbf5adf2c	-0.85496783
53	0xbee53b8d	-0.44771996
54	0xbe9a55cd	-0.30143586
55	0xbe14d690	-0.14534974
56	0xbdcc17f4	-0.09965506
57	0xbf5d2261	-0.86380583
58	0x3e4282ab	0.18995158
59	0xbebb79f4	-0.3661648
60	0xbe878afb	-0.2647322
61	0xbf704bd4	-0.93865705
62	0xbeb2b773	-0.34905586
63	0x3d3318c1	0.04372478
64	0xbee0017c	-0.43751132
65	0x409736bc	4.7254314
66	0xc042d463	-3.044213
67	0x3cecda7b	0.028912773
68	0xbec20c67	-0.37900087
69	0x3f65afb0	0.897212
70	0x3fe81d8c	1.8134017
71	0xbf6bcd66	-0.9211029
72	0x3f55a29c	0.8345125
73	0x3f0a84ad	0.541087
74	0xbf0801c0	-0.5312767
75	0xbf1880cf	-0.59571546
76	0x3eb81491	0.3595319
77	0x39dd625c	0.00042225688
78	0xbebf4af8	-0.37361884
79	0xbf543351	-0.828908
80	0xbfd54feb	-1.6665014
81	0xbe24e30d	-0.16102238
82	0xbf7088ce	-0.9395875
83	0xbfd0698c	-1.628221
84	0x3e578cf2	0.2104986
85	0xbfe405ae	-1.7814233
86	0x3fad7fc2	1.3554614
87	0xbe03da18	-0.12876165
88	0x3f8f28f1	1.1184369
89	0xbe03920f	-0.12848686
90	0xbf81fbf4	-1.0155015
91	0xbf03b6a1	-0.51450545
92	0xbfdc7097	-1.722186
93	0x3f5d393f	0.86415476
94	0xbf210f2d	-0.6291378
95	0xbf2757cd	-0.6536835
96	0xbe78485e	-0.24246356
97	0x3ebf7048	0.3739035
98	0xbed7ff13	-0.42186794
99	0x40e9bc19	7.304211
100	0xbfde2a10	-1.7356586
101	0xbe8334e0	-0.25626278
102	0xbe35bc06	-0.17747506
103	0x3ea1a806	0.31573504
104	0x3c2b7d7b	0.010466929
105	0x3fddb7aa	1.7321675
106	0xbc993f7e	-0.018707033
107	0x3e20d996	0.15708002
108	0xbdb1ca04	-0.086811095
109	0xc10266c0	-8.150085
110	0xbd5d5e82	-0.054045208
111	0xbeded9f1	-0.4352565
112	0xbe587633	-0.2113884
113	0x3e957b09	0.2919543
114	0x3f46ecb1	0.7770491
115	0xbdafcd2c	-0.08584055
116	0xc009d3de	-2.1535563
117	0xbfed69fd	-1.854797
118	0xbed3ef03	-0.4139329
119	0xbf545f4b	-0.82957906
120	0xbd9eecc1	-0.07760001
121	0xbf7e5a6e	-0.99356735
122	0xbfb1e0a2	-1.3896677
123	0xbdbc119e	-0.09183048
124	0xbf087da9	-0.5331674
125	0x3f28b7db	0.6590554
126	0xbbebe6d7	-0.007199149
127	0xbe3fc4b8	-0.18727386
128	0x3e8bc397	0.2729766
129	0xbe0b5cc4	-0.13609606
130	0xbf3908e3	-0.72279185
131	0xbe595ee3	-0.21227603
132	0x40c7e88e	6.247138
133	0xbfda81bc	-1.7070842
134	0xbedaadd9	-0.4271076
135	0x3cd370f0	0.025810689
136	0xc02071bd	-2.506942
137	0xbf947f16	-1.1601284
138	0x3f3b8438	0.73248625
139	0x3facf6c8	1.3512812
140	0x3e25a4ea	0.16176191
141	0xbf74e8c3	-0.95667666
142	0xbd8c2311	-0.06842626
143	0xbf258e9d	-0.64670736
144	0xbf52f7a3	-0.82409114
145	0xbfa4582f	-1.2839411
146	0x3f9df915	1.2341639
147	0xbe78bd44	-0.24290949
148	0xbf130caf	-0.5744123
149	0x3d61a22a	0.055086292

hiddenLayer3.weight f4 [150, 150]
0	0x40269723	2.6029747
1	0x3f5a94a0	0.85383034
2	0x3e9cc26d	0.30617085
3	0xbe5e798b	-0.21726052
4	0xbf35f1c0	-0.71072006
5	0xbfe9579d	-1.8229862
6	0x3fcfd26d	1.6236092
7	0xbe9aa282	-0.3020211
8	0x3ea6bfff	0.32568356
9	0xbf8636c5	-1.0485464
10	0x3cf287f9	0.029605852
11	0x3ecd2798	0.4006927
12	0xbeef92b8	-0.46791625
13	0x3e873e2e	0.26414627
14	0xbd21b3e4	-0.039478198
15	0x3ee0dfb9	0.43920687
16	0xc0548074	-3.3203402
17	0xbf6ad289	-0.917275
18	0xc1243d21	-10.264924
19	0xc1788152	-15.531572
20	0xbf09ac6f	-0.5377874
21	0xbd614e08	-0.055006057
22	0x3d87f5e5	0.066386975
23	0x3ebc6878	0.36798453
24	0x3d2bb3cb	0.04191951
25	0x3d0e0e96	0.03468188
26	0xc071f01f	-3.7802808
27	0xbe72e944	-0.23721796
28	0x40353da8	2.8318882
29	0xc018735c	-2.382041
30	0xbe439e2a	-0.19103304
31	0x3e507f3c	0.20361036
32	0xc01a26ef	-2.4086263
33	0xc043202a	-3.0488381
34	0xbf43cc9f	-0.764841
35	0xbf469be6	-0.7758163
36	0xbf259653	-0.646825
37	0xbdf263e1	-0.11835457
38	0xc094ab57	-4.6459155
39	0x3fda1ebf	1.7040633
40	0x40811b80	4.034607
41	0xc0014b32	-2.0202146
42	0x3f3d82ab	0.7402751
43	0x3c97aa37	0.018513782
44	0x41223500	10.137939
45	0x3e5f43cf	0.2180321
46	0x3ff249d0	1.8928776
47	0xbe5bd66d	-0.21468516
48	0xc00ac9a7	-2.168558
49	0x3f7ac22d	0.9795254
50	0xba3c7073	-0.0007188387
51	0xc01458af	-2.3179128
52	0x3b0f0352	0.0021822047
53	0x3f8db663	1.1071285
54	0xc0ed38c6	-7.4131804
55	0xbe921941	-0.28534892
56	0xbee44500	-0.44583893
57	0xbf8c9bfa	-1.09851
58	0x3d870a5d	0.065937735
59	0x3f4e058f	0.8047723
60	0xbeaf7e6f	-0.3427615
61	0x3f07d59a	0.53060305
62	0x3ff646b8	1.9240332
63	0x40bafbbb	5.843229
64	0xc0b46401	-5.6372075
65	0xc0413c93	-3.0193222
66	0xc07be6d4	-3.9359636
67	0x3e1050e4	0.14093357
68	0x3e276cf4	0.16350156
69	0xc057ce22	-3.3719563
70	0xbf943d8b	-1.1581281
71	0x3f339886	0.7015461
72	0xbd7c6114	-0.06161602
73	0xbe830cbc	-0.25595653
74	0x3f01d403	0.5071413
75	0xbd51c6dc	-0.051215038
76	0xc04cc13c	-3.199294
77	0xc0b26b60	-5.5756073
78	0xc0bf90d5	-5.9864297
79	0xbf27d12d	-0.6555355
80	0xbfbfddc6	-1.4989555
81	0x409aa257	4.832317
82	0xc0fada25	-7.839129
83	0xbe9746f4	-0.2954632
84	0xbed8015b	-0.42188534
85	0xc11378b9	-9.216973
86	0xc01b8da4	-2.43052
87	0x3e0eb786	0.13937196
88	0xbfad2f95	-1.3530146
89	0x3af1db1a	0.0018452138
90	0xbfc2c293	-1.5215629
91	0x4004982f	2.0717885
92	0x3f3127e6	0.69201505
93	0x4011961d	2.2747872
94	0xc00972cd	-2.147632
95	0xbf7dadd2	-0.99093354
96	0xc0c1b220	-6.052994
97	0xbe8eac0e	-0.27865642
98	0x3f9b9e49	1.215768
99	0x3f0420b9	0.5161243
100	0xc0c7ca29	-6.2434278
101	0xbea31dde	-0.31858724
102	0x3eb7026a	0.3574403
103	0x40acce82	5.4002085
104	0xbd231f47	-0.03982475
105	0xc0469602	-3.1029058
106	0xc083b89d	-4.116286
107	0x3f0359c7	0.51308864
108	0x40123596	2.2845206
109	0x3ff52e5a	1.915477
110	0xbe210355	-0.15723927
111	0xbf0a1aef	-0.5394735
112	0x3d1e8e92	0.038710184
113	0x3c75f48e	0.01501192
114	0x3e482c30	0.19548106
115	0xc00543e8	-2.0822697
116	0xbeed2ed8	-0.463248
117	0xbf9d06ba	-1.2267678
118	0x3ea787fe	0.3272094
119	0x408be193	4.371286
120	0x3d09c778	0.033637494
121	0x3ea7ce12	0.32774407
122	0xc05a03ad	-3.4064744
123	0x3dbc161e	0.09183906
124	0xbd632f4c	-0.055465028
125	0x402b0560	2.672203
126	0x3ebf46aa	0.373586
127	0xbfe9d44d	-1.8267914
128	0x3f9fefbc	1.2495036
129	0xbd998aa4	-0.07497147
130	0xc04b6a9c	-3.178382
131	0xbfb9bb55	-1.4510294
132	0xbf3a680b	-0.72815007
133	0x3f15350f	0.58284086
134	0xbfb890e5	-1.4419218
135	0x3f0ca060	0.5493221
136	0xc1094502	-8.579348
137	0xbeaeaa49	-0.34114292
138	0xc043b93a	-3.0581803
139	0x40632498	3.5491085
140	0x3d8754ba	0.06607957
141	0xbfe00c2d	-1.7503716
142	0xbca67ddf	-0.020323692
143	0x3e18532e	0.1487548
144	0xc05628bd	-3.3462365
145	0x3faeff37	1.3671635
146	0x3fa06e83	1.2533726
147	0x3dd0a6c5	0.10188059
148	0x3f91311f	1.1343116
149	0x3d912d45	0.070887126
150	0xbf3c4107	-0.73536724
151	0xc044739a	-3.0695558
152	0xc137e563	-11.493503
153	0xc096b8e8	-4.7100716
154	0xbf46af35	-0.77611095
155	0xc0beb706	-5.9598417
156	0xbfd6aebc	-1.6772075
157	0x3e9beab7	0.3045251
158	0xbe2f2bc8	-0.17106545
159	0xc0ba276c	-5.8173122
160	0xc091d39b	-4.5570807
161	0xbfe5afb8	-1.794425
162	0xc0b9425d	-5.789351
163	0xc0ab65f5	-5.356196
164	0xbc9ba90a	-0.019001503
165	0xbe936524	-0.28788102
166	0xbf34ac91	-0.70575815
167	0x3edc8d12	0.43076378
168	0xc018c0e3	-2.3867729
169	0xbf7538e4	-0.95789933
170	0x3fdd009c	1.7265811
171	0xbd0e6513	-0.03476436
172	0xbed2b101	-0.41150668
173	0xc0259b63	-2.587609
174	0x3d2fa87f	0.0428853
175	0x405a29e1	3.408806
176	0x40227919	2.5386412
177	0x3f73a7d5	0.95177966
178	0xbf1f37f8	-0.62194777
179	0xc1a51338	-20.634384
180	0xbfb70e82	-1.4301302
181	0x3f16feef	0.5898275
182	0xc0a63c40	-5.1948547
183	0x3e25e1f7	0.1619948
184	0xbff947f9	-1.9475089
185	0xc0499cd4	-3.150197
186	0x3f187a14	0.59561276
187	0xc0cc84fb	-6.391233
188	0x406f97be	3.7436366
189	0xc010761e	-2.2572093
190	0xc0638ed6	-3.555593
191	0xc01247f2	-2.2856412
192	0x405b250b	3.424136
193	0x3d9abbf5	0.07555381
194	0xc1011628	-8.067909
195	0x3cce3580	0.025171995
196	0xbe1a3bdf	-0.15061902
197	0x3f9f7fe2	1.2460902
198	0xbfdb65e8	-1.7140474
199	0x3ec5e70b	0.38652834
200	0xbda3ba04	-0.07994464
201	0x40803826	4.006854
202	0xc0dbca08	-6.868412
203	0x3edc8c7b	0.43075928
204	0xbee8de9b	-0.45482334
205	0x3c404090	0.011734143
206	0xbe1c0864	-0.15237576
207	0x40004d1d	2.0047066
208	0xbe89f93b	-0.2694796
209	0xbfa403a3	-1.281361
210	0xbe0c691a	-0.13711968
211	0xc1211ba0	-10.069244
212	0xc0c34e32	-6.1032953
213	0x3f0f4268	0.559607
214	0xc15e7a5c	-13.904873
215	0x3f6538b6	0.8953966
216	0xc0480316	-3.1251884
217	0xbf19edb4	-0.6012833
218	0xbe1321e5	-0.14368398
219	0xbebac5ff	-0.36479184
220	0x3ea426bc	0.32060802
221	0x3f86e0d5	1.0537363
222	0x3de6093b	0.11232229
223	0xbffc8128	-1.9726915
224	0x3b4c13e8	0.0031139795
225	0x3f8bb19b	1.0913576
226	0xbfa83143	-1.3140033
227	0xc0c3c724	-6.118059
228	0xc07c4462	-3.9416738
229	0xbb374338	-0.002796365
230	0xc0426ffc	-3.038085
231	0x4059d67b	3.4037158
232	0xc002a741	-2.0414584
233	0xbff2d56b	-1.897138
234	0xbf51ff59	-0.82030255
235	0xc1968178	-18.813217
236	0xbf3f69c2	-0.7477075
237	0xbdcc6167	-0.099795155
238	0x3fd31fe9	1.6494113
239	0x3d715136	0.05891534
240	0x403b65bf	2.928085
241	0xc0b68558	-5.7037773
242	0x40142b2a	2.3151345
243	0x3f101c30	0.5629301
244	0x3eaa9e01	0.33323672
245	0xc07a6285	-3.9122632
246	0xc0b8c760	-5.774338
247	0x3e1d18bd	0.15341468
248	0x40ac161d	5.3776994
249	0xbde7d602	-0.113201156
250	0xc0a757f9	-5.229489
251	0xbd2eec4f	-0.04270583
252	0xbe67affd	-0.22625728
253	0xc0a13be2	-5.03856
254	0x3cbb1a1d	0.0228396
255	0x40a1543e	5.0415335

hiddenLayer3.bias f4 [150]
0	0x410da376	8.852407
1	0x41056dc2	8.339296
2	0xbe948735	-0.29009405
3	0xbf17d406	-0.593079
4	0x3f011b88	0.50432634
5	0x40c838f6	6.2569532
6	0xc0923e83	-4.570131
7	0x3f36e11a	0.7143723
8	0xbf72c82a	-0.94836676
9	0xbf89b872	-1.0759413
10	0xbe91f3c4	-0.2850629
11	0x4024b5a1	2.5735857
12	0xbe485eef	-0.19567464
13	0xc04a1975	-3.1578038
14	0x40e304a4	7.0943165
15	0xbfa1ed62	-1.2650568
16	0xbeab42dc	-0.33449447
17	0x40c99fd1	6.300759
18	0xbe225155	-0.15851338
19	0xbf3c0d26	-0.7345756
20	0x40a0bb5f	5.0228724
21	0xbf0b4e94	-0.54416776
22	0x414fe32b	12.992961
23	0x3fc98c49	1.5745937
24	0xbf281bb6	-0.65667284
25	0x406440f6	3.566465
26	0x40b94e0a	5.7907763
27	0xbe30c9c6	-0.1726447
28	0x4079b4ff	3.9016721
29	0x3faf2149	1.3682033
30	0xbe98e1be	-0.29859728
31	0x4100defc	8.05444
32	0xbf1389b3	-0.5763199
33	0x40c03e0d	6.0075746
34	0xbf90b641	-1.130562
35	0xbee5c77a	-0.4487875
36	0x410170b0	8.090012
37	0x400d645b	2.2092502
38	0xbfd877df	-1.6911582
39	0xbf3b77d4	-0.7322972
40	0xbe65079f	-0.22366188
41	0xbec31189	-0.38099316
42	0x4044b0d7	3.0732934
43	0xbf48c0e6	-0.7841934
44	0xbd785385	-0.060626525
45	0x40c75daf	6.230186
46	0xbf3f3c94	-0.7470181
47	0x416d2028	14.820351
48	0xbf389c53	-0.7211353
49	0x40822dc4	4.0680866
50	0x412f4f82	10.956911
51	0xbe624ba6	-0.2209917
52	0xc11fc166	-9.984716
53	0xbd9e77c5	-0.07737688
54	0xbe8eb680	-0.2787361
55	0x40777697	3.8666131
56	0xbf2aee0a	-0.6676947
57	0x40e00c27	7.0014834
58	0x404f814b	3.2422664
59	0xc150bc55	-13.0459795
60	0xbf383b5e	-0.7196559
61	0xbde17791	-0.110091336
62	0xbefe821a	-0.49708635
63	0x41043587	8.263068
64	0xbe4a1c9b	-0.19737475
65	0xbf045251	-0.51688105
66	0xbf80616e	-1.0029733
67	0xc10da49a	-8.852686
68	0xbf79631d	-0.9741686
69	0xbe3bae0e	-0.18328115
70	0x40ecdfc8	7.402317
71	0x3fd378e7	1.6521271
72	0x3f8435c8	1.0328913
73	0x4134d250	11.301346
74	0x41074ed9	8.45675
75	0x404b08cd	3.1724122
76	0xc1022701	-8.134522
77	0xbfca1b6f	-1.5789622
78	0x410c6400	8.774414
79	0xbf6fb48f	-0.93634886
80	0xbf919db0	-1.1376247
81	0x411275df	9.153777
82	0x40548092	3.3203473
83	0x3e7ad6b6	0.24495968
84	0xc022c5a1	-2.5433123
85	0xbdac628e	-0.08417235
86	0xbed8b13e	-0.42322725
87	0xbf04e8b7	-0.51917595
88	0xbde47d26	-0.11156683
89	0xbea968ef	-0.3308787
90	0x3fce7863	1.6130489
91	0x412c937f	10.78601
92	0xbea2bd3e	-0.31785005
93	0xbff9e466	-1.9522827
94	0xbe632c69	-0.2218491
95	0xc0863f6b	-4.1952415
96	0x4106587f	8.3966055
97	0xbf2b013e	-0.6679877
98	0xc119c8d0	-9.6115265
99	0x411e89d1	9.908647
100	0xbe182694	-0.14858466
101	0x40bb36b2	5.8504267
102	0x3db1dfb4	0.08685246
103	0xbee96cb1	-0.45590737
104	0x405939e0	3.3941574
105	0xbe20e640	-0.15712833
106	0x40a41c60	5.1284637
107	0xbf9c9327	-1.2232407
108	0xbe0417c8	-0.12899697
109	0x4162ba4c	14.170483
110	0xbf5930f9	-0.8484035
111	0x3fe48b41	1.7854997
112	0x412971ba	10.590265
113	0x3e0b64cc	0.1361267
114	0x3fffc5d4	1.9982247
115	0x41638480	14.219849
116	0x3c07a025	0.0082779275
117	0xbd30cecd	-0.04316597
118	0x4169901f	14.597686
119	0xbfc03513	-1.5016197
120	0xbe8a6f78	-0.2703817
121	0xbef31836	-0.4747941
122	0xbdd64008	-0.10461432
123	0xbe00da80	-0.12583351
124	0xbeb91c02	-0.3615418
125	0xc1141d54	-9.25716
126	0x3c761aa4	0.015021
127	0xbe3d1410	-0.18464684
128	0x40a3f79d	5.123976
129	0x40f4262c	7.6296597
130	0xbf431017	-0.76196426
131	0x40dd1858	6.9092216
132	0xbfd428a0	-1.6574898
133	0x40845e8b	4.136541
134	0x3f930e95	1.1488825
135	0x4146fd9d	12.436917
136	0xbf6eab02	-0.9322969
137	0xc0758545	-3.8362591
138	0x3f3976b4	0.7244675
139	0xbe5f18b9	-0.21786775
140	0xbd97e1ba	-0.07416101
141	0x4123d311	10.23903
142	0xbf0813d3	-0.5315525
143	0xc0dfb61b	-6.9909797
144	0x406b10fd	3.672912
145	0x3e53c877	0.2068194
146	0x3fb6dbcc	1.4285827
147	0x40b34779	5.6024747
148	0xc05f1e51	-3.4862254
149	0xbcc23e51	-0.023711355

outputLayer.weight f4 [2, 150]
0	0x400970a1	2.1474993
1	0x40885451	4.2602925
2	0x392995e5	0.00016172936
3	0xbeed6001	-0.46362308
4	0x3e55aa78	0.2086581
5	0x3f36e5ab	0.71444196
6	0xc0c6dfbe	-6.2148123
7	0x3c642f12	0.013927238
8	0xbfb12502	-1.3839419
9	0x402c0c7d	2.6882622
10	0x3ef33bc0	0.47506523
11	0x3f9443d6	1.1583202
12	0x3f366861	0.7125302
13	0xc083a6f2	-4.114129
14	0xbec2c643	-0.38041887
15	0x3f39a74f	0.7252092
16	0x3c5bdd60	0.013419479
17	0x3f56b04e	0.8386277
18	0xbcab5fc9	-0.020919697
19	0x3ff79fd5	1.9345652
20	0x3f69212e	0.91066253
21	0xbce43bde	-0.027860578
22	0x3f8b4996	1.0881832
23	0x3f9287f1	1.1447736
24	0xc0000a24	-2.000619
25	0x411239a3	9.139071
26	0x3d9219fd	0.07133863
27	0x3e924096	0.285649
28	0xbc2be1c1	-0.010490836
29	0x3ffa88df	1.957302
30	0xbf539748	-0.8265271
31	0x3fdd2066	1.7275512
32	0x40ab630a	5.3558397
33	0x3f92032b	1.1407217
34	0xc0d35444	-6.6040363
35	0x3f0a4fce	0.5402802
36	0x3f1e6de3	0.61886424
37	0x3f67de44	0.90573525
38	0x3f9a525f	1.2056388
39	0x3f874960	1.0569267
40	0x3ef6d191	0.4820676
41	0x3f7cd24d	0.98758394
42	0x4154dfde	13.304655
43	0x3f862754	1.0480752
44	0x3de95c35	0.1139454
45	0x3e46f954	0.19431049
46	0x3fd813db	1.688106
47	0x4019157a	2.3919358
48	0xbeaebdba	-0.34129125
49	0x402aebef	2.6706502
50	0x3f74f582	0.95687115
51	0xbcf12f3e	-0.029441472
52	0xbf2d0869	-0.6759096
53	0x3ce4a134	0.027908899
54	0x4037fd6d	2.874843
55	0x3ffe9003	1.9887699
56	0x3fbd2853	1.4777931
57	0x3f8469af	1.0344752
58	0x3fe0dcdb	1.75674
59	0xc0795637	-3.8958871
60	0x3f989679	1.1920921
61	0xbe90c19a	-0.28272706
62	0xbea59fa4	-0.3234836
63	0x40e6ec94	7.216379
64	0xbfb75d39	-1.4325324
65	0xbfec1e95	-1.8446833
66	0x3fbf2ca3	1.4935497
67	0xbf4b5175	-0.7942117
68	0xc01b8d28	-2.4304905
69	0xbd1a9664	-0.03774108
70	0x400e6e9c	2.225501
71	0x4052c4ad	3.2932541
72	0xbfb0085e	-1.3752553
73	0x3f76e414	0.9644177
74	0x3f43a599	0.76424557
75	0x3f64637b	0.89214295
76	0xbf21d78a	-0.6321951
77	0xbeffe997	-0.49982902
78	0x3fdd1ad1	1.7273809
79	0xbfca1631	-1.5788022
80	0x3fcdb36f	1.6070384
81	0x3f8a55d3	1.0807441
82	0xbfc163f2	-1.5108626
83	0x3fd2db28	1.6473131
84	0xbe003915	-0.12521775
85	0xbdb354ed	-0.08756433
86	0xbf5df27f	-0.86698145
87	0x405c8b5f	3.4460065
88	0xbcd5dba9	-0.026105719
89	0xbeb723dc	-0.35769546
90	0xc02be954	-2.6861162
91	0x3f2d4ce2	0.6769544
92	0xbeb04972	-0.34431034
93	0xbfa50e4b	-1.2894987
94	0x3cd215c8	0.025645152
95	0xc1585cae	-13.522627
96	0x4002fcf0	2.046688
97	0x40b1a112	5.550912
98	0xbf8eb3cf	-1.1148623
99	0x3e9db7e5	0.30804363
100	0xc0f12a47	-7.536411
101	0x3f6ae1ff	0.9175109
102	0x3fb3cfb4	1.4047761
103	0xbfc9ff70	-1.5781078
104	0x3f364149	0.7119337
105	0xc01d9010	-2.4619179
106	0x3f0bfb8c	0.54680705
107	0xbcc04823	-0.023471897
108	0xbf92a8f9	-1.1457816
109	0x3f649137	0.8928408
110	0xbec59443	-0.38589677
111	0xbee6cbb8	-0.450773
112	0x40abe4ae	5.371665
113	0x3f351a79	0.7074352
114	0xbfe35ff1	-1.7763654
115	0x3f85b7f0	1.0446758
116	0xbc43a6f4	-0.01194166
117	0xbbb222ad	-0.0054362626
118	0x3f8106a8	1.0080156
119	0xbfbd50b7	-1.4790257
120	0xbf90ab49	-1.1302272
121	0xbe3f99cc	-0.18711013
122	0xbd39d5b4	-0.04536982
123	0xbedef8ce	-0.43549198
124	0x3e931d2c	0.28733194
125	0xbfaf936f	-1.3716868
126	0xbb04141d	-0.002015359
127	0x3c963638	0.0183364
128	0xbf82f122	-1.0229838
129	0x3f4faba9	0.8112131
130	0xc110f884	-9.060673
131	0xbeccdd51	-0.400126
132	0xc0839947	-4.1124606
133	0xc0d2787f	-6.577209
134	0x405c7bf1	3.4450648
135	0x3f6b1466	0.91828
136	0xbe156224	-0.14588219
137	0xbf5790f7	-0.84205574
138	0x40bfff31	5.9999013
139	0x4005d69d	2.091224
140	0xbd81b7c9	-0.06333882
141	0x3ff77e89	1.933549
142	0x4010cf25	2.262643
143	0xbe21b686	-0.15792283
144	0xbf423807	-0.7586674
145	0x3e7d9b7d	0.24766345
146	0x40daaff9	6.833981
147	0x3f273a7a	0.65323603
148	0x4099e957	4.809734
149	0xbc76d999	-0.015066528
150	0x400b5f6f	2.1776998
151	0x408b57eb	4.354482
152	0x3c684831	0.014177368
153	0x3ec0c182	0.37647635
154	0x3e493406	0.19648752
155	0x3f36bb90	0.7137995
156	0xc0bb9369	-5.8617444
157	0x3cb3e52c	0.021959864
158	0x405a3133	3.409253
159	0xc035b300	-2.8390503
160	0xbd2f996c	-0.042870924
161	0x3f6dff7b	0.9296796
162	0x3ee91035	0.45520177
163	0xc0840b02	-4.1263437
164	0xbec56444	-0.3855306
165	0xbf98a6ce	-1.1925905
166	0x3cb4a3ba	0.022050727
167	0x3f768131	0.9629088
168	0xbb5e4c90	-0.0033920147
169	0xc0024ff5	-2.0361302
170	0x3f6496db	0.8929269
171	0xbe8a3814	-0.2699591
172	0x3f8a9c89	1.0829021
173	0x3f1a54c9	0.6028562
174	0x40262639	2.596083
175	0x4112b9a3	9.170321
176	0x3e75017a	0.23926345
177	0xbe987a8b	-0.29780993
178	0x3e48a290	0.19593263
179	0x40a8a3f3	5.2700133
180	0x4025e133	2.59187
181	0x3fd2b95c	1.6462817
182	0xbfca7d25	-1.5819441
183	0x3f95c4ef	1.1700724
184	0xc0fce955	-7.903483
185	0x3ec638e3	0.38715276
186	0x3f257e2c	0.6464565
187	0xbe9acd24	-0.30234635
188	0x3f5b37eb	0.856322
189	0x3d69467e	0.056951992
190	0x3f60d019	0.8781753
191	0xbf6b4816	-0.9190687
192	0x4168e26c	14.555279
193	0xbfa10bbc	-1.2581706
194	0xbe666c3b	-0.22502224
195	0x3e474878	0.19461238
196	0xc016a3dd	-2.3537514
197	0x401957fc	2.3959951
198	0x3e3ebcde	0.18626735
199	0x402d0bb9	2.7038405
200	0x3f73ec4d	0.9528244
201	0xbcb72933	-0.022358513
202	0xbf61aae4	-0.88151383
203	0xbbd54c63	-0.00650935
204	0xc012941d	-2.29029
205	0x3febc436	1.8419254
206	0x4005e8ae	2.0923266
207	0x3f8e0a18	1.109683
208	0x3fc6a273	1.5518326
209	0xc0799150	-3.8994942
210	0xbf8f7ca7	-1.1209916
211	0x3fbafcad	1.460836
212	0x3e4736e7	0.19454537
213	0x40f70208	7.718998
214	0x3fce3271	1.6109143
215	0xbf243435	-0.6414216
216	0x3ff40dc3	1.90667
217	0xbf4cfb93	-0.8007137
218	0xbfe5ab7e	-1.794296
219	0x3c361a48	0.011114664
220	0x400a8891	2.1645854
221	0x404e2631	3.221081
222	0xbf8ebc30	-1.115118
223	0x3f761a84	0.9613421
224	0x3f443cb9	0.76655155
225	0xb9837916	-0.00025076483
226	0xbf315431	-0.6926909
227	0xbefdef63	-0.495967
228	0x3fc7725c	1.5581775
229	0xc0043461	-2.065697
230	0x3fd7381d	1.6814
231	0x3f88c4e0	1.0685081
232	0x402f64d2	2.7405286
233	0x3fe6b655	1.8024393
234	0xbe047341	-0.12934591
235	0x3c971932	0.018444631
236	0x3fa75f41	1.3075944
237	0x40422cc9	3.0339835
238	0xbcef8d9d	-0.029242331
239	0x3f6d5b17	0.9271712
240	0xc0633f5e	-3.5507426
241	0x3f2c7550	0.67366505
242	0x3f5624d4	0.83649945
243	0xbfa7965c	-1.3092761
244	0xbbae87c2	-0.005326242
245	0xc18555cf	-16.666899
246	0x40048596	2.0706534
247	0x40735f24	3.802682
248	0xbf8f8f47	-1.12156
249	0x3e9a3628	0.30119443
250	0xc00382aa	-2.05485
251	0x3f385adc	0.7201364
252	0x3fb0e2b8	1.3819189
253	0x3fd0d73e	1.6315687
254	0x409fd685	4.9949365
255	0x401e852c	2.4768782

outputLayer.bias f4 [2]
0	0x4167cd35	14.487599
1	0x4168aa29	14.541543
