ftl/pretrain/weight/scratch_ts_0/scratch_ts_0_25.pth (torch, 187615 bytes, 8 tensors)

hiddenLayer1.weight f4 [150, 3]
-0.048497986 -0.30291134 -0.6478104 -0.08843974 -0.0108718425 -0.2251717 -0.14214581 -0.0051238756
-0.08610063 -0.17690882 -0.029216113 -0.78908974 -0.04988469 -0.0006696209 -0.018785814 -0.07269037
-0.0016454204 -0.042286452 0.1600124 -0.070198976 0.655962 -0.24205363 0.062560715 0.02306538
-0.117865965 0.00016526911 -0.39060813 -0.76102096 -0.06826439 -0.012381793 -5.7521286 0.0006372394
-0.002165698 -2.890835 0.052712366 0.023690747 -3.1937091 0.09435546 0.0610396 -0.34264445
-0.0037127705 0.13052778 -2.6730144 -0.064292364 -0.01910673 -4.9180894 -0.0011442933 -0.034611285
-0.0936703 -0.04931846 -0.08847048 -4.6078196 0.00019646231 -0.03721863 -0.022274023 -0.01824899
0.14451128 -0.097633086 -0.008292313 0.122938655 -0.027673317 -0.050551094 -0.003113188 -0.01280484
-0.09797596 0.031127863 -0.4632896 -0.06469543 -0.8156026 -0.019799072 0.054763477 0.16002499
0.2090862 0.01775081 0.23663431 -2.6716352 0.038274985 -1.0085639 -0.11032303 -0.027497064
-0.17703436 -0.10513698 -0.0012426742 -0.555598 -1.4226134 0.051464505 -0.10517639 -0.11623511
0.15612425 -0.058745645 0.019325756 0.031776343 0.726341 -0.045472942 -0.026323846 -0.35481986
-0.005205385 -0.06852436 -0.9572464 -0.047519326 -0.059272528 -0.22602972 -0.08925376 -0.016100792
-0.18535379 0.123546526 0.0016132261 0.7751874 -0.16772833 -0.0478869 -1.1683097 -1.1101581
-0.04702206 -0.30909967 -0.0165612 -0.000701565 -0.027785556 -2.21298 0.0020144174 -0.03872118
0.16515781 0.0032848758 1.6396382 0.10784623 -0.0006629003 -1.082287 -2.6827016 0.008410824
0.035981994 0.021880666 -0.041932993 -0.09969809 -0.14220399 -0.16711994 -0.21687894 -0.31774488
-0.001694796 -0.25419027 0.26939705 -0.010595933 0.8829862 -0.27976903 -0.0033294486 -0.36895233
-0.22258507 -0.045285664 -0.110600464 -0.032616664 0.08669539 -0.10200865 -5.2504497 -0.003316081
-0.016109373 -1.0117869 -0.0833314 -0.12524308 0.004626184 0.054001648 -1.1919274 -0.4866766
0.036576238 -0.72705126 -0.060032044 0.011971126 -0.27827272 0.002476186 0.01429033 -2.0586607
-0.95068777 0.07412185 0.1963884 -2.9020934 0.00031368138 -0.004342278 -5.910299 -0.13658425
-0.22683844 -0.12815315 0.23972951 -0.60962236 -0.5082406 0.020043803 0.08337312 -2.7982738
0.0008896442 -0.029761383 -0.04522391 0.00040641113 -1.670254 -0.027530694 0.061521716 -0.85206187
-1.5627036 -0.09250607 -0.13428156 -0.06866785 0.0015274292 -0.04995581 -1.9300559 0.013206367
-0.017262617 -0.059288263 -0.0038389894 1.0969564 -2.5606267 -0.008320331 0.025405543 -2.6161804
-0.003289402 -0.029844712 -2.4225042 -0.0003904178 -0.057144422 -0.06634062 -0.029117685 -0.9998486
-0.015785752 -0.182712 0.030030284 -0.10426752 0.032956153 -0.100546665 -1.1135896 0.0031121625
-0.011077276 -0.39098883 -0.011225832 -0.02656712 -2.2782288 -0.018367995 -0.72577703 -0.09344161
-0.0100974785 0.13814409 -1.5392616 0.015704922 0.28886637 0.10539528 0.0019507824 1.1424158
-0.3360813 0.009841766 -0.031028623 -0.06749535 -0.17865321 -0.35428318 -0.47567323 -0.09744009
-1.0176077 3.6516274e-05 0.0010332367 -0.0023561995 -0.015450577 -0.00019292746 -0.06184264 -0.57030267
00000000: d3a5 46bd 3217 9bbe e7d6 25bf e51f b5bd
00000010: d01f 32bc 6993 66be ac8e 11be 2fe6 a7bb
00000020: 8755 b0bd 9627 35be a156 efbc c901 4abf
00000030: e453 4cbd 7f89 2fba b5e4 99bc b0de 94bd
00000040: 26ab d7ba 8f34 2dbd 4ada 233e 7bc4 8fbd
00000050: 20ed 273f e8dc 77be d51f 803d 9cf3 bc3c
00000060: b663 f1bd 174c 2d39 cafd c7be 45d2 42bf
00000070: 33ce 8bbd 01dd 4abc 7011 b8c0 6a0c 273a
00000080: 62ee 0dbb 7103 39c0 ece8 573d 1913 c23c
00000090: bb65 4cc0 6f3d c13d a904 7a3d 186f afbe
000000a0: f451 73bb 13a9 053e ab12 2bc0 b7ab 83bd
000000b0: b885 9cbc fd60 9dc0 1dfc 95ba 90c4 0dbd
000000c0: 37d6 bfbd 2702 4abd 0330 b5bd 4273 93c0
000000d0: 7301 4e39 9072 18bd 0378 b6bc e87e 95bc
000000e0: c4fa 133e dbf3 c7bd 7bdc 07bc 43c7 fb3d
000000f0: 27b3 e2bc aa0e 4fbd a106 4cbb 64cb 51bc
00000100: 9fa7 c8bd dcff fe3c 4b34 edbe 0a7f 84bd
00000110: 55cb 50bf aa31 a2bc ab4f 603d 97dd 233e
00000120: b11a 563e 266a 913c 4450 723e 12fc 2ac0
00000130: 3bc6 1c3d 9f18 81bf 0af1 e1bd 8641 e1bc
00000140: 7f48 35be 0f52 d7bd 3ae1 a2ba ac3b 0ebf
00000150: 3218 b6bf 72cc 523d b866 d7bd ac0c eebd
00000160: 09df 1f3e 469f 70bd 0c51 9e3c e927 023d
00000170: 7cf1 393f d641 3abd 1ba5 d7bc f3aa b5be
00000180: ef91 aabb 8056 8cbd 1a0e 75bf a0a3 42bd
00000190: c0c7 72bd 5674 67be adca b6bd cfe5 83bc
000001a0: 62cd 3dbe f605 fd3d e372 d33a ae72 463f
000001b0: fac0 2bbe 0e25 44bd 2c8b 95bf a919 8ebf
000001c0: 349a 40bd 5042 9ebe 5bab 87bc 3be9 37ba
000001d0: 899e e3bc 77a1 0dc0 5104 043b 1a9a 1ebd
000001e0: 211f 293e 1247 573b aadf d13f 7cde dc3d
000001f0: 7cc6 2dba 6188 8abf 62b1 2bc0 8ecd 093c
00000200: db61 133d 153f b33c eec1 2bbd 832e ccbd
00000210: ec9d 11be 7d21 2bbe 8315 5ebe 75af a2be
00000220: eb23 deba 3a25 82be 69ee 893e 909a 2dbc
00000230: 620b 623f e33d 8fbe e132 5abb 52e7 bcbe
00000240: 57ed 63be 767d 39bd 7f82 e2bd 0d99 05bd
00000250: 5a8d b13d e9e9 d0bd af03 a8c0 9b52 59bb
00000260: cef7 83bc 3c82 81bf a7a9 aabd b93f 00be
00000270: 3e97 973b d530 5d3d 1491 98bf ad2d f9be
00000280: f7d0 153d 0820 3abf 29e4 75bd 8b22 443c
00000290: c379 8ebe 8247 223b fd21 6a3c 19c1 03c0
000002a0: 4660 73bf 32cd 973d 0a1a 493e e6bb 39c0
000002b0: 9a75 a439 ab49 8ebb 2b21 bdc0 bedc 0bbe
000002c0: 5648 68be 943a 03be a77b 753e 3610 1cbf
000002d0: 0e1c 02bf e732 a43c 87bf aa3d eb16 33c0
000002e0: 0337 693a 25ce f3bc b53c 39bd 9413 d539
000002f0: e2ca d5bf 0d88 e1bc 32fe 7b3d ba20 5abf
00000300: ac06 c8bf d373 bdbd 1b81 09be bba1 8cbd
00000310: 0534 c83a 779e 4cbd 120c f7bf 855f 583c
00000320: 556a 8dbc 40d8 72bd 8e97 7bbb 1169 8c3f
00000330: 4fe1 23c0 ff51 08bc 491f d03c 806f 27c0
00000340: 0293 57bb e67c f4bc 4f0a 1bc0 fdb0 ccb9
00000350: 4510 6abd 97dd 87bd 3688 eebc 14f6 7fbf
00000360: 1f51 81bc db18 3bbe 1202 f63c 368a d5bd
00000370: 08fd 063d 69eb cdbd 1b8a 8ebf 6cf5 4b3b
00000380: 777d 35bc b02f c8be 8dec 37bc 4aa3 d9bc
00000390: 80ce 11c0 7a78 96bc 86cc 39bf 515e bfbd
000003a0: e56f 25bc a575 0d3e 8606 c5bf 9ca7 803c
000003b0: 4be6 933e 7bd9 d73d 65b1 ff3a ae3a 923f
000003c0: d912 acbe 5c3f 213c bd2f febc 013b 8abd
000003d0: def0 36be 9b64 b5be 718b f3be ab8e c7bd
000003e0: f840 82bf 0d29 1938 ac6d 873a 786a 1abb
000003f0: 6b24 7dbc 924c 4ab9 b54e 7dbd 5bff 11bf

hiddenLayer1.bias f4 [150]
-2.8925736 0.7208517 -0.25837672 -0.8544573 -0.21111268 -0.05404601 2.3132997 -0.5755579
1.2327344 -0.61787754 -0.22813931 -0.3630872 -0.86515385 -1.439619 -0.84260374 -0.23110573
0.4010928 -0.12721863 -1.7069385 1.7511019 -0.4735435 -3.3113885 -1.0957118 -1.1195362
-2.7117002 -1.0735061 1.2983524 -0.39181358 -0.8056485 -1.4805262 2.7359245 -0.6061568
-1.1804712 -0.6556968 1.0453937 -2.8127859 -1.1508418 -0.7472989 -0.033318777 -0.12032118
2.032165 -2.7407675 -0.19754098 2.1067467 -1.7991203 -0.23959748 -2.817089 -0.3113217
-0.44929168 -0.99471694 -0.27171347 -0.8330698 -1.2935683 -0.5207649 0.8743612 -1.5382793
-2.1518397 -0.1529113 -1.6280491 -2.3620372 -0.91740054 -0.055440888 2.2258964 -0.982999
-1.0396981 -0.09752094 -0.24128741 -1.5158075 0.21607564 -0.13997322 -0.2030685 -0.88510865
-2.8897972 1.120878 -0.14394194 -0.13901533 -0.6755665 1.7818508 -2.1598935 -4.134087
-0.121207826 -1.8152634 -1.5531825 -0.028479282 -0.049294725 -0.28919527 -1.287357 2.1163173
-0.21419065 -0.7856905 -1.819653 -0.518329 -1.006097 -0.398479 -1.3119102 1.6467565
2.013671 -0.5196674 2.0911622 -1.2014488 -0.21164659 -0.19782546 -0.7257346 -1.0332031
-1.3613789 1.3216316 -0.45326436 -0.8012705 -0.31473517 -0.3379289 -1.1511992 -0.17688423
-2.222169 -0.5471375 -1.1773522 -0.017480554 -0.974495 -0.82929236 -1.3619134 -0.18903986
-0.030309713 -1.9644395 -3.6658475 1.9669055 -0.3154564 -0.028602762 -0.07504232 1.0503453
0.8333465 -1.0783648 -0.9093551 -0.7601862 -0.5048868 -0.48829558 -1.6852328 -0.39425775
-0.064676486 -0.524846 -0.38803044 -0.3994554 2.718046 -0.62554884 -1.9097762 -2.3889976
-0.41946688 -0.048151895 -0.52951187 -0.7589086 -0.5897937 2.3350582
00000000: ed1f 39c0 bd89 383f f449 84be b7bd 5abf
00000010: ec2d 58be 595f 5dbd 1a0d 1440 c357 13bf
00000020: 3eca 9d3f 392d 1ebf 5a9d 69be 91e6 b9be
00000030: b97a 5dbf 6f45 b8bf e1b4 57bf fba6 6cbe
00000040: 095c cd3e 9a45 02be f67c dabf 1b24 e03f
00000050: 4b74 f2be caed 53c0 4940 8cbf f64c 8fbf
00000060: 7f8c 2dc0 a668 89bf 6930 a63f ca9b c8be
00000070: fb3e 4ebf e281 bdbf 6319 2f40 182d 1bbf
00000080: ae19 97bf bfdb 27bf 76cf 853f af04 34c0
00000090: c94e 93bf fb4e 3fbf 4579 08bd f36a f6bd
000000a0: fe0e 0240 bc68 2fc0 2f48 4abe f0d4 0640
000000b0: 9349 e6bf 0b59 75be 304b 34c0 8f65 9fbe
000000c0: 8f09 e6be c5a5 7ebf 071e 8bbe 1044 55bf
000000d0: a593 a5bf d950 05bf 23d6 5f3f 56e6 c4bf
000000e0: beb7 09c0 c894 1cbe ea63 d0bf 9e2b 17c0
000000f0: c3da 6abf fc15 63bd 1675 0e40 d3a5 7bbf
00000100: d414 85bf 0fb9 c7bd 0c14 77be fb05 c2bf
00000110: ef42 5d3e 2455 0fbe 30f1 4fbe 7b96 62bf
00000120: 70f2 38c0 ee78 8f3f 8465 13be 095a 0ebe
00000130: edf1 2cbf b013 e43f b23b 0ac0 714a 84c0
00000140: cf3b f8bd 8d5a e8bf afce c6bf 624d e9bc
00000150: 44e9 49bd 6711 94be 1dc8 a4bf be71 0740
00000160: cb54 5bbe 0323 49bf 64ea e8bf 36b1 04bf
00000170: c9c7 80bf 7105 ccbe acec a7bf ebc8 d23f
00000180: fcdf 0040 ec08 05bf 9ad5 0540 13c9 99bf
00000190: e2b9 58be c292 4abe bec9 39bf 0040 84bf
000001a0: aa41 aebf 392b a93f 4412 e8be 1020 4dbf
000001b0: f824 a1be 0405 adbe 7f5a 93bf 2421 35be
000001c0: 0438 0ec0 3411 0cbf 7ab3 96bf 6133 8fbc
000001d0: 8178 79bf 814c 54bf 2e53 aebf aa93 41be
000001e0: 134c f8bc c172 fbbf 3f9d 6ac0 8fc3 fb3f
000001f0: 8083 a1be 5750 eabc caaf 99bd b771 863f
00000200: 3256 553f dc07 8abf 7fcb 68bf 909b 42bf
00000210: 4340 01bf e101 fabe b5b5 d7bf 27dc c9be
00000220: 1b75 84bd 4f5c 06bf edab c6be 6b85 ccbe
00000230: 77f4 2d40 f823 20bf 8c73 f4bf 56e5 18c0
00000240: 5dc4 d6be ec3a 45bd 178e 07bf d647 42bf
00000250: b8fc 16bf 9871 1540

hiddenLayer2.weight f4 [150, 150]
-0.18322048 -0.1463806 -0.09892619 -0.9933659 -1.2371662 0.07893857 -0.2526909 -0.24849883
0.19935252 -0.31177944 -0.29809934 -0.029633066 -0.020573758 0.12897098 -1.2151127 -0.37067896
-0.09466822 -0.022358555 -0.11115429 -0.31968442 -1.5224023 -0.5663486 -0.46695015 -1.5236478
0.27327284 -0.115607634 0.14020938 -0.3396944 0.17753148 -0.5580397 -0.041193947 -0.33311427
-0.9110756 -0.42861262 0.01974061 -0.2740265 -0.23543799 -0.1782257 0.06797514 0.06430291
-0.9211454 0.35450572 -0.021459892 -0.31446403 0.50232553 -0.03177501 -0.94159734 -0.051906426
-1.3671048 0.4664885 -0.5179156 0.090137795 -0.5410637 -0.37670913 -0.019861294 -0.069346786
-1.1182479 -0.004173814 1.2839313 -0.23305729 -2.056405 0.14404565 0.18626718 0.5597143
-0.13958487 -0.07318375 -0.01345395 0.0013107982 0.12827834 0.024500601 -0.094459355 -0.16956432
0.3419255 0.17074086 -0.14923233 -0.40461144 -0.76231027 -0.41128677 -0.018004974 -1.2074156
0.29769346 0.08123084 -0.21988447 -0.0838232 0.040513758 -0.2714739 -0.60891783 0.20756821
0.12956981 0.20700169 -0.2467911 -0.23835453 -1.9132715 -0.6065841 0.42721492 -0.055050667
-0.09527977 -0.3599317 0.14358796 -0.9400613 0.40632895 -0.26819035 0.27042672 -0.69670683
-1.711113 -0.25873113 -0.06825944 -0.14581291 -0.5849258 -0.21218105 0.038400352 0.104198106
-1.5246102 -0.71170753 -0.34068376 0.010613404 0.04657422 -0.6581253 -0.029810248 -0.4468806
-0.017021805 -1.0123255 -0.10126489 -0.44084707 -0.1923663 -0.23828194 -2.2187288 -0.018577375
-0.21839802 -0.18940063 -0.2167343 -0.6757041 -0.34045008 -0.4587795 -0.2837659 0.6262929
-0.003737907 -3.035887 -0.8203463 -0.0912992 0.07483687 0.5131112 0.04628943 0.09112659
-0.32574365 -0.15192519 0.21098824 0.32143942 0.052904807 -0.3296961 -4.4915466 0.2011482
-0.5197255 1.0910608 0.2381938 0.055970598 -0.38455388 0.38358775 0.15205827 0.43669677
0.3785771 -0.6831782 -1.3908173 -8.615659 0.064209014 0.36634916 -0.18455945 -0.90509623
-3.9600456 -0.2327423 -0.63104576 -0.21115492 0.25827485 0.009433787 0.12948848 1.9421251
0.12893535 0.19591342 -2.2308588 -0.28389457 0.01620883 -0.025730088 -1.031835 -0.114686035
-0.0550247 1.8527429 -1.6068379 -1.5082124 0.047568616 -2.2068806 -0.4699113 1.6114703
0.037064206 -0.3107702 -0.57960737 -0.34432396 -0.7804425 -0.4186372 0.4667654 0.10814432
0.084449455 -6.5336695 -1.5495435 -0.52871346 -0.053162638 -0.13969171 0.10709294 -0.26961422
-1.5994744 -0.30405596 -0.573056 -0.03952694 -0.09296053 -0.15569925 1.6888995 -0.37780574
-0.24193396 0.39990026 -0.07503436 -0.65584487 -0.3695512 0.16804186 -0.73972815 0.19733472
-0.062052757 -0.2794585 0.73084575 -0.5555829 0.19746089 0.8053819 -0.0369612 -0.6934607
-2.0210054 -0.042767644 -0.02459748 -2.8048754 -1.8397472 0.052836936 -0.4366068 0.055283654
-0.7237303 -0.35218933 0.11238524 -2.7685742 -0.7712304 -0.19377151 -0.11947374 -0.054188274
-0.057155464 -0.60589004 0.14665818 -0.027598778 -1.8320793 -0.1620951 -1.3521438 0.14398631
00000000: 269e 3bbe cce4 15be d099 cabd 3a4d 7ebf
00000010: 765b 9ebf 8caa a13d b460 81be 7a76 7ebe
00000020: 1123 4c3e 8ea1 9fbe 7aa0 98be 0bc1 f2bc
00000030: 4c8a a8bc f810 043e d088 9bbf a2c9 bdbe
00000040: 69e1 c1bd 4a29 b7bc dca4 e3bd adad a3be
00000050: 14de c2bf 39fc 10bf 1714 efbe e406 c3bf
00000060: 6bea 8b3e b2c3 ecbd 0c93 0f3e 6dec adbe
00000070: d0ca 353e b1db 0ebf fcba 28bd f48d aabe
00000080: 403c 69bf 1d73 dbbe 0fb7 a13c 344d 8cbe
00000090: a816 71be cc80 36be 8d36 8b3d 3eb1 833d
000000a0: 2fd0 6bbf c681 b53e a8cc afbc 6e01 a1be
000000b0: 6898 003f 8326 02bd 860c 71bf d59b 54bd
000000c0: 4afd aebf 95d7 ee3e 1e96 04bf 2a9a b83d
000000d0: 2783 0abf 05e0 c0be 27b4 a2bc b005 8ebd
000000e0: bf22 8fbf 7dc4 88bb dc57 a43f 92a6 6ebe
000000f0: 249c 03c0 b480 133e d3bc 3e3e 7049 0f3f
00000100: 56ef 0ebe 5de1 95bd f56d 5cbc 17cf ab3a
00000110: 665b 033e 7cb5 c83c e873 c1bd 45a2 2dbe
00000120: dc10 af3e b1d6 2e3e 5cd0 18be 3b29 cfbe
00000130: c426 43bf 2e94 d2be 2b7f 93bc 988c 9abf
00000140: 476b 983e 5b5c a63d 6529 61be 7fab abbd
00000150: c1f1 253d a1fe 8abe 0ae2 1bbf c38c 543e
00000160: f3ad 043e 40f8 533e ceb6 7cbe 3613 74be
00000170: 15e6 f4bf 1849 1bbf eabb da3e cf7c 61bd
00000180: 0a22 c3bd f848 b8be b908 133e dba7 70bf
00000190: 590a d03e 3f50 89be 5f75 8a3e 615b 32bf
000001a0: c005 dbbf 6878 84be 9bcb 8bbd fb4f 15be
000001b0: b2bd 15bf fd45 59be b049 1d3d d165 d53d
000001c0: 6d26 c3bf 7732 36bf 1a6e aebe d8e3 2d3c
000001d0: 9cc4 3e3d e67a 28bf 9f34 f4bc 89cd e4be
000001e0: 5071 8bbc e293 81bf f763 cfbd b5b6 e1be
000001f0: acfb 44be 2e00 74be a7ff 0dc0 942f 98bc
00000200: bba3 5fbe 3df2 41be 99ef 5dbe f2fa 2cbf
00000210: 794f aebe 26e5 eabe c449 91be bb54 203f
00000220: acf7 74bb f94b 42c0 3702 52bf 13fb babd
00000230: 1344 993d 415b 033f fc99 3d3d 94a0 ba3d
00000240: dfc7 a6be 4792 1bbe 4d0d 583e b593 a43e
00000250: b6b2 583d edcd a8be c0ba 8fc0 cbf9 4d3e
00000260: bb0c 05bf e1a7 8b3f 13e9 733e 6d41 653d
00000270: 3fe4 c4be 9d65 c43e 2ab5 1b3e b896 df3e
00000280: dcd4 c13e c4e4 2ebf 4d06 b2bf bdd9 09c1
00000290: 0480 833d 1e92 bb3e 27fd 3cbe 63b4 67bf
000002a0: 6371 7dc0 ff53 6ebe 378c 21bf ff38 58be
000002b0: 9a3c 843e 2c90 1a3c a198 043e 8e97 f83f
000002c0: a107 043e 879d 483e 64c6 0ec0 a15a 91be
000002d0: 61c8 843c e8c7 d2bc 2b13 84bf 83e0 eabd
000002e0: 9461 61bd ae26 ed3f ddac cdbf 1b0d c1bf
000002f0: 4fd7 423d 883d 0dc0 3798 f0be a944 ce3f
00000300: a3d0 173d 461d 9fbe 2661 14bf 3b4b b0be
00000310: 14cb 47bf 9d57 d6be e0fb ee3e c57a dd3d
00000320: d6f3 ac3d d213 d1c0 7157 c6bf c459 07bf
00000330: 11c1 59bd 580b 0fbe 8b53 db3d e00a 8abe
00000340: 94bb ccbf 39ad 9bbe ccb3 12bf 00e7 21bd
00000350: 1762 bebd a06f 1fbe dc2d d83f c16f c1be
00000360: 89bd 77be babf cc3e 9dab 99bd 73e5 27bf
00000370: d135 bdbe 2a13 2c3e d35e 3dbf 1d12 4a3e
00000380: 082b 7ebd 2f15 8fbe b518 3b3f ae3a 0ebf
00000390: 3033 4a3e 822d 4e3f a164 17bd a486 31bf
000003a0: 2758 01c0 202d 2fbd a880 c9bc 1483 33c0
000003b0: d67c ebbf 8b6b 583d ed8a dfbe 1d71 623d
000003c0: 6446 39bf 2952 b4be 3c2a e63d 5230 31c0
000003d0: 5b6f 45bf 0a6c 46be a6ae f4bd 86f4 5dbd
000003e0: d91b 6abd 9c1b 1bbf 902d 163e d516 e2bc
000003f0: 9381 eabf 42fc 25be 0c13 adbf 2671 133e

hiddenLayer2.bias f4 [150]
0.11966168 0.020698512 -0.0482529 0.60847765 0.3401701 -0.26952246 0.04293733 -0.0031363827
0.051721286 -0.0645938 -0.028293572 0.1800672 0.094298854 0.046639897 -0.039713003 0.16181178
0.15005085 0.051480997 0.32423806 0.49155274 -1.4215181 0.01897344 0.06633573 -0.10885084
-0.054077994 -0.10875547 0.37762114 0.27378115 0.04721873 0.10634031 0.13701102 0.46126083
-0.006751041 0.048699606 -0.021864606 0.041262258 -0.059775077 -0.030354783 0.23830265 -0.19580586
0.19133644 0.089193024 0.041040555 -0.043426033 -0.14192884 -0.13806601 -0.6945132 0.11551556
2.993765 0.28607336 -0.14326847 0.0016298788 0.12557402 -0.048955947 -0.08767626 0.4256959
-0.47175497 -0.008080181 2.3108604 0.065910436 -0.07128332 -0.027326908 0.049670573 -0.48063
-0.046010222 3.1798394 -0.93375456 0.2803325 -0.2700901 -0.02063381 2.4473374 0.026850458
0.5965591 3.3507683 0.04477027 -0.111037984 0.5256608 0.69385016 0.026309645 0.24921104
-0.66798186 0.24502687 0.051098157 0.03216058 0.17830113 0.20253226 0.09915793 -0.07449693
0.3399193 -0.014343106 0.07308662 2.709746 0.12532435 -0.15333746 0.001005498 -0.287999
0.07731556 0.14062087 0.66513515 3.0826435 -0.28463086 0.06537784 -0.017186424 0.39143202
0.049807746 3.049405 0.17883748 0.10635002 2.5185697 -0.46197623 0.03428649 1.5718875
-0.02378325 1.0315776 2.2127469 0.08521054 -1.7407104 0.26854563 -0.25907645 0.009385229
-0.045951545 -0.45133072 0.5254073 -0.060432326 -0.37070152 2.9179797 -0.12030034 0.057149954
0.1934702 0.302244 1.082831 0.027590422 3.3069017 0.14805803 -0.020481635 -0.5181799
-0.510994 0.16015914 0.12205384 -0.058664322 2.5069597 0.10855431 -0.0727953 -0.051622182
0.08554775 0.0139291575 0.03725261 -0.108200185 0.09575474 0.053183768
00000000: 2f11 f53d ed8f a93c d5a4 45bd 31c5 1b3f
00000010: c62a ae3e d9fe 89be 0edf 2f3d c58b 4dbb
00000020: b3d9 533d c149 84bd ecc7 e7bc 8963 383e
00000030: c21f c13d 7a09 3f3d 1aaa 22bd fdb1 253e
00000040: eea6 193e bddd 523d 8802 a63e cdac fb3e
00000050: 4ef4 b5bf 306e 9b3c 07db 873d 30ed debd
00000060: e380 5dbd 30bb debd 8f57 c13e 0b2d 8c3e
00000070: 6d68 413d f3c8 d93d 9e4c 0c3e 612a ec3e
00000080: d637 ddbb 3d79 473d 671d b3bc 9d02 293d
00000090: b6d6 74bd 98aa f8bc 9c05 743e 5581 48be
000000a0: b3ed 433e d5aa b63d 241a 283d 7fdf 31bd
000000b0: cb55 11be 2d61 0dbe 9ecb 31bf 6c93 ec3d
000000c0: d999 3f40 3578 923e f8b4 12be a8a1 d53a
000000d0: 7a96 003e 0886 48bd 9c8f b3bd d0f4 d93e
000000e0: de89 f1be bc62 04bc 23e5 1340 0dfc 863d
000000f0: fdfc 91bd aedc dfbc 5f73 4b3d 2315 f6be
00000100: 3775 3cbd 7d82 4b40 8a0a 6fbf be87 8f3e
00000110: 4049 8abe 3c08 a9bc 2da1 1c40 7ef5 db3c
00000120: 19b8 183f fd72 5640 0861 373d e267 e3bd
00000130: b591 063f 2aa0 313f 5387 d73c 2e31 7f3e
00000140: dc00 2bbf 53e8 7a3e 4d4c 513d d0ba 033d
00000150: 9294 363e 9e64 4f3e 5013 cb3d d991 98bd
00000160: e709 ae3e 59ff 6abc 70ae 953d 7a6c 2d40
00000170: 0755 003e 7f04 1dbe eaca 833a 9b74 93be
00000180: 9f57 9e3d ebfe 0f3e 4c46 2a3f 084a 4540
00000190: 23bb 91be d1e4 853d 8bca 8cbc c769 c83e
000001a0: 3503 4c3d 7429 4340 2c21 373e 0ace d93d
000001b0: 3f30 2140 2688 ecbe fe6f 0c3d 9c33 c93f
000001c0: 17d5 c2bc bc0a 843f a59d 0d40 dd82 ae3d
000001d0: 99cf debf d07e 893e aba5 84be 81c4 193c
000001e0: b037 3cbd d214 e7be 1881 063f e387 77bd
000001f0: 97cc bdbe 2ec0 3a40 0660 f6bd 1216 6a3d
00000200: 0d1d 463e babf 9a3e 359a 8a3f 4f05 e23c
00000210: 47a4 5340 869c 173e 1ac9 a7bc 70a7 04bf
00000220: 81d0 02bf c200 243e 5df7 f93d 004a 70bd
00000230: 0772 2040 b951 de3d b415 95bd c871 53bd
00000240: a933 af3d 1f37 643c 3196 183d 0f98 ddbd
00000250: 101b c43d 39d7 593d

hiddenLayer3.weight f4 [150, 150]
-0.081711 0.02706172 -0.34700337 -0.08232599 -0.044676684 0.0131662395 -0.30178156 -0.21156235
0.13937409 0.74271953 0.184768 0.12820627 0.06255086 0.02932542 -0.04345662 -0.13156757
-0.19469653 0.42254716 0.03195311 -0.24331704 -6.298587 -0.05628691 0.022195103 0.1590717
0.03827495 -0.06691518 0.54012793 0.33671638 0.19188593 -0.40664333 0.15530428 0.09865293
-0.3874289 -0.35365194 0.022208886 0.1462703 -0.6614945 -0.041520845 -0.40140972 0.19708277
-0.18844849 0.017727068 0.056321703 0.07328187 -0.16721797 0.20240371 -0.039724927 0.45090732
0.60816944 -0.0982847 -0.20161556 0.25608504 -0.6621968 -0.06827924 -0.38872913 -0.04472775
-0.5334998 -0.15070717 0.29962546 -0.115233675 -0.24981299 0.11498033 0.027823698 0.4877956
0.20577702 0.79483306 0.34139517 -0.2001902 0.34143016 0.37342745 0.5460149 0.14200315
-0.30692506 0.88138723 0.4933907 -0.17931572 -0.18763943 -0.69893545 0.095602676 -0.17600182
-0.51240766 -0.7854998 0.12223546 0.5027366 0.33283696 0.12297078 0.0667454 0.5443287
-0.013625875 0.033907168 0.03421682 0.46668857 0.16180383 -0.051663376 -2.2852936 0.50198656
0.519028 -0.13845836 0.35784173 0.7850184 -0.14902218 -0.29474443 0.30335948 -0.27484128
-0.059475154 0.5809398 0.45128945 0.17990136 0.5031238 -0.027276276 0.07334611 0.83585596
0.7284036 -0.06786624 0.5908485 0.22230017 -0.119078845 0.21995082 0.3136804 0.26403743
0.0019574559 -0.07709283 0.13646667 0.06237528 -0.12281289 0.50697684 0.09796559 -0.42397964
0.16549248 0.09396374 0.24578814 0.38966548 0.7634676 0.6055492 -1.580545 0.1096182
0.5090559 0.15958472 0.2814696 0.052772727 0.1848218 -0.6220582 0.009518018 -0.06916748
-0.15060638 0.03415418 -0.018904904 0.08957653 -0.0114478795 0.09790298 0.1780096 -0.43910882
-0.11283396 -0.24316706 -0.2870509 0.07050057 -0.5350522 0.5800061 -0.15418868 -0.32965592
0.07452427 -0.4388014 -0.014511277 -0.19807297 -0.052142475 -0.2369492 -0.4445402 1.0202234
0.16540416 -0.65056413 -0.96702623 -0.015259862 -0.36016238 -0.4070038 0.08545516 0.08254532
0.22635688 -0.19181584 -0.21609537 0.008352398 -0.45684502 -0.07802715 -0.42405918 0.33946508
0.103819236 0.35202414 0.6033315 -0.15565833 -0.25753003 0.32779962 -0.026249666 -0.44753578
-0.36982447 0.049896594 -0.09726372 0.044446986 -0.6411664 0.20103508 0.17328791 0.6131783
-0.0871499 -0.03877651 -0.39868087 -0.021928633 0.09378075 -0.4431603 -0.7238046 -0.2554597
-0.116616026 0.26475126 -0.049845356 -0.29776943 0.04408527 -0.21200949 0.122843474 -0.46344012
-0.42055777 -0.5948714 -0.33667636 -0.34682262 -0.19141741 0.29022738 -1.0494852 -0.12146281
0.11115765 0.75539404 0.24725153 0.17680407 -0.06893633 -0.15907496 -0.027092764 0.20363835
-0.31141666 0.3122443 0.58973134 -0.21286198 -0.029961895 0.731944 -0.30703416 0.064390555
-0.108094275 -0.22172269 -0.18000615 -0.008838447 0.052014764 -0.020429026 -0.31602585 0.15001988
0.26613718 -0.16958363 -1.2600383 0.44281346 0.28579 0.36154494 0.011586942 -0.10291962
00000000: 1958 a7bd 8ab0 dd3c 6daa b1be 879a a8bd
00000010: e6fe 36bd 36b7 573c 1d83 9abe cda3 58be
00000020: 15b8 0e3e de22 3e3f d333 3d3e 8148 033e
00000030: aa1a 803d dd3b f03c 92ff 31bd a6b9 06be
00000040: 875e 47be 1a58 d83e 44e1 023d 1a28 79be
00000050: 068e c9c0 1a8d 66bd 81d2 b53c b1e3 223e
00000060: 32c6 1c3d d30a 89bd d345 0a3f 1766 ac3e
00000070: bf7d 443e 8e33 d0be 1608 1f3e 8c0a ca3d
00000080: 155d c6be de11 b5be 69ef b53c e2c7 153e
00000090: b457 29bf c311 2abd 9385 cdbe 11d0 493e
000000a0: a4f8 40be 5b38 913c 96b1 663d ce14 963d
000000b0: 303b 2bbe eb42 4f3e 9bb6 22bd 53dd e63e
000000c0: feb0 1b3f 7d49 c9bd 4f74 4ebe 941d 833e
000000d0: bb85 29bf fcd5 8bbd 8107 c7be 7234 37bd
000000e0: 7193 08bf fb52 1abe 8268 993e a2ff ebbd
000000f0: face 7fbe cf7a eb3d 86ee e33c 58c0 f93e
00000100: 36b7 523e 2e7a 4b3f 59cb ae3e a9fe 4cbe
00000110: efcf ae3e e231 bf3e a2c7 0b3f 4669 113e
00000120: 4825 9dbe 98a2 613f b59d fc3e 8a9e 37be
00000130: 8d24 40be 6fed 32bf 56cb c33d d239 34be
00000140: 262d 03bf 8416 49bf 9656 fa3d 59b3 003f
00000150: 9b69 aa3e 1bd8 fb3d d0b1 883d 2059 0b3f
00000160: 103f 5fbc 3ee2 0a3d f026 0c3d cef1 ee3e
00000170: e7af 253e fa9c 53bd 4042 12c0 3182 003f
00000180: 05df 043f 07c8 0dbe 0837 b73e f7f6 483f
00000190: 4599 18be bee8 96be ef51 9b3e ffb7 8cbe
000001a0: 389c 73bd 79b8 143f 690f e73e 1038 383e
000001b0: b9cc 003f 7f72 dfbc 7c36 963d a8fa 553f
000001c0: a978 3a3f 75fd 8abd d941 173f a8a2 633e
000001d0: 9cdf f3bd ca3a 613e b89a a03e ea2f 873e
000001e0: a948 003b d8e2 9dbd ebbd 0b3e 397d 7f3d
000001f0: 5385 fbbd 3cc9 013f 2fa2 c83d dc13 d9be
00000200: dc76 293e 1070 c03d e3af 7b3e 3c82 c73e
00000210: 9d72 433f 4605 1b3f 4c4f cabf 827f e03d
00000220: 7d51 023f 2d6a 233e c91c 903e 3728 583d
00000230: ed41 3d3e 353f 1fbf 76f1 1b3c aea7 8dbd
00000240: 8f38 1abe 41e5 0b3d 75de 9abc e673 b73d
00000250: e38f 3bbc 5c81 c83d 2648 363e dfd2 e0be
00000260: 7e15 e7bd c900 79be 56f8 92be 9a62 903d
00000270: 2ef9 08bf 487b 143f a3e3 1dbe a9c8 a8be
00000280: 2ea0 983d 94aa e0be b5c0 6dbc a4d3 4abe
00000290: 5993 55bd d0a2 72be c69a e3be ae96 823f
000002a0: b55f 293e 5f8b 26bf 088f 77bf 8004 7abc
000002b0: 3467 b8be cd62 d0be 1d03 af3d 850d a93d
000002c0: 19ca 673e 5f6b 44be 1b48 5dbe 7fd8 083c
000002d0: 97e7 e9be b3cc 9fbd 491e d9be 5ece ad3e
000002e0: 2e9f d43d 823c b43e ef73 1a3f e664 1fbe
000002f0: fada 83be 5ad5 a73e 8a09 d7bc 6923 e5be
00000300: a259 bdbe 5f60 4c3d 3432 c7bd 0b0e 363d
00000310: 7b23 24bf 24dc 4d3e 6372 313e 41f9 1c3f
00000320: a67b b2bd 1ed4 1ebd e61f ccbe ada3 b3bc
00000330: 1f10 c03d e8e5 e2be 424b 39bf 9dcb 82be
00000340: 62d4 eebd 7a8d 873e a52a 4cbd 3c75 98be
00000350: c292 343d 0419 59be 5c95 fb3d 0648 edbe
00000360: 5953 d7be 7e49 18bf d860 acbe bc92 b1be
00000370: ed02 44be af98 943e 8855 86bf 7ec1 f8bd
00000380: 9fa6 e33d 8161 413f 812f 7d3e 200c 353e
00000390: 7e2e 8dbd 8ce4 22be a5f1 ddbc 9286 503e
000003a0: 0172 9fbe 7cde 9f3e a2f8 163f 7ef8 59be
000003b0: a672 f5bc af60 3b3f 9533 9dbe 32df 833d
000003c0: 8860 ddbd 460b 63be 8853 38be 22cf 10bc
000003d0: 6f0d 553d c65a a7bc 24ce a1be d09e 193e
000003e0: 2243 883e 55a7 2dbe ef48 a1bf 72b8 e23e
000003f0: 1153 923e 6b1c b93e 28d7 3d3c 86c7 d2bd

hiddenLayer3.bias f4 [150]
3.4201753 0.7685664 -0.21547978 -0.29930016 0.57562625 0.8689456 -0.486168 0.05658538
-0.06767911 -0.6700262 0.07958098 -0.1789419 -0.15825135 -0.26949796 0.3641565 -0.45397416
-0.25330755 3.5683331 -0.013666122 -0.33614245 -0.16535796 0.42763695 3.7924156 -0.42747682
-0.3756616 0.21227418 0.43478125 -0.181759 0.031701446 2.0553033 0.16423601 -0.2756979
-0.04433618 0.042575173 4.0600424 -0.05384348 1.321588 3.1855805 -0.045857683 -0.24562602
-0.20251513 -0.25711414 3.3564925 -0.58562416 0.15414688 -0.19922833 -0.34001005 2.5235727
-0.5527147 -0.030159619 3.2058234 -0.11197005 0.85421395 -0.07731701 2.679175 2.269901
0.16406995 -0.08132393 -0.18242653 -0.05764717 -0.32298896 0.004935926 -0.18520871 -0.19226559
-0.15114832 0.07563089 -0.2989043 -0.012372216 0.3264805 -0.17623198 3.7448235 -0.021011526
0.046531275 3.4275112 3.716813 -0.013705962 -0.0066148443 0.052119967 -0.045151897 -0.46210077
-0.11548853 1.9480326 3.0020943 0.16596854 -1.2091702 -0.08417235 -0.2124314 -0.36913285
-0.04873194 -0.15195426 -0.27214712 3.3532097 -0.13208166 1.7258734 -0.17171858 -0.15994734
0.04378548 -0.13995749 0.57478315 3.3655472 -0.08105525 0.61956304 -0.11088936 -0.43800536
3.6515157 0.013999822 -0.14959441 -1.1749243 -0.116240345 3.4087193 -0.54314554 -0.55614245
2.2860518 0.32429194 0.07177563 -0.25325975 0.059018172 0.019474447 3.5725343 0.11078561
0.0123548 -0.20936969 3.691659 -0.021395503 -0.25658125 -0.87722605 3.740751 -0.12532759
1.8715515 0.5349781 -0.15797786 -0.18510014 -0.074421234 -0.17342897 -0.11568234 2.2011745
-0.4198687 -0.16755155 -0.0093372045 -0.11123898 -0.013064916 0.071452394 0.008485218 -0.4120234
1.7353964 0.2545337 3.053733 -0.2131438 0.15613171 0.059559453
00000000: 27e4 5a40 c5c0 443f bba6 5cbe df3d 99be
00000010: 3e5c 133f 3873 5e3f 03eb f8be 12c6 673d
00000020: 589b 8abd d686 2bbf 5afb a23d 8c3c 37be
00000030: a40c 22be a3fb 89be b972 ba3e 4d6f e8be
00000040: 87b1 81be 925f 6440 dfe7 5fbc dd1a acbe
00000050: 9953 29be 3bf3 da3e f0b6 7240 3ede dabe
00000060: b856 c0be 675e 593e a69b de3e 081f 3abe
00000070: 60d9 013d 178a 0340 7c2d 283e 4628 8dbe
00000080: db99 35bd 4e63 2e3d deeb 8140 fb8a 5cbd
00000090: cc29 a93f 8de0 4b40 44d5 3bbd 6385 7bbe
000000a0: 2060 4fbe 77a4 83be c6d0 5640 77eb 15bf
000000b0: aed8 1d3e 8302 4cbe cc15 aebe 3782 2140
000000c0: b67e 0dbf 4e11 f7bc 362c 4d40 8e50 e5bd
000000d0: c4ad 5a3f 6158 9ebd 9a77 2b40 0f46 1140
000000e0: f401 283e 298d a6bd 05ce 3abe 701f 6cbd
000000f0: cf5e a5be 8cbd a13b 5aa7 3dbe 45e1 44be
00000100: a0c6 1abe 5ee4 9a3d fc09 99be d6b4 4abc
00000110: 7428 a73e 2876 34be 30ab 6f40 5d20 acbc
00000120: 9497 3e3d 585c 5b40 44e0 6d40 f98e 60bc
00000130: 56c1 d8bb bf7b 553d 32f1 38bd 7998 ecbe
00000140: 4085 ecbd 2259 f93f 5022 4040 a8f3 293e
00000150: 17c6 9abf 8e62 acbd 9e87 59be fbfe bcbe
00000160: 259b 47bd e699 1bbe de56 8bbe fd9a 5640
00000170: 6a40 07be 6be9 dc3f ffd6 2fbe 3cc9 23be
00000180: 6758 333d 0451 0fbe fd24 133f 2065 5740
00000190: 4b00 a6bd af9b 1e3f f619 e3bd 3d42 e0be
000001a0: 6fb2 6940 825f 653c 472f 19be eb63 96bf
000001b0: 6b0f eebd 7528 5a40 960b 0bbf 5a5f 0ebf
000001c0: ac4e 1240 9809 a63e 1aff 923d 43ab 81be
000001d0: 0abd 713d e088 9f3c 67a4 6440 91e3 e23d
000001e0: c96b 4a3c 0265 56be 2444 6c40 9f45 afbc
000001f0: 9e5e 83be e391 60bf 7768 6f40 e055 00be
00000200: 008f ef3f 53f4 083f f3c4 21be e48a 3dbe
00000210: 296a 98bd 5d97 31be ddea ecbd 0be0 0c40
00000220: 08f9 d6be a292 2bbe 13fb 18bc 43d1 e3bd
00000230: 3b0e 56bc a255 923d 9505 0b3c bbf4 d2be
00000240: 7821 de3f 3e52 823e 5d70 4340 5e42 5abe
00000250: fee0 1f3e 9df4 733d

outputLayer.weight f4 [2, 150]
0.5197205 -0.23725988 0.018668452 -0.39920348 0.32135582 0.677795 -0.012105813 -0.2591263
-2.7491207 2.931052 0.2989512 -0.5610315 0.8836314 1.0271236 0.14012925 -0.44353145
0.004985181 0.7444579 0.017635733 2.2909963 -0.699309 -0.2544007 0.50751495 -0.00047884908
-3.9561858 -0.067658655 0.22008748 0.29304567 1.3044306 -0.29401982 -1.0260412 0.6668518
3.5982387 0.11006051 0.43002045 -0.017753154 0.009671306 0.8351274 -1.6003354 -0.3116807
-0.60305494 0.92136663 0.2569302 1.2626784 0.31502432 0.28354245 1.1841804 -0.026370008
-0.4741243 0.6216847 0.06744422 -0.0012160451 -0.14633803 -0.0021567584 0.21611938 0.009651439
0.7873017 -0.06288783 0.63302916 0.1388189 1.796984 -2.0258193 -0.60059154 0.9568958
-1.3654265 0.06991245 -0.7359168 -1.9916201 0.08397985 0.015199543 0.81758994 -0.010082702
-0.59179145 0.3748867 0.6350835 0.07291119 -0.07375238 -0.59141433 -0.40894583 0.16743454
0.69334906 0.25925687 0.83988875 -0.037461568 -0.34739193 -0.08756433 -0.93204874 -1.0482203
0.001231004 -1.0198494 -0.12681124 0.21839283 -0.4679361 0.098078206 -0.026982808 -1.8464448
-0.03516801 0.59310406 0.1401069 0.7922881 -0.50295025 -0.05558151 0.42848492 -1.7234805
0.44996828 -2.6556334 0.825674 0.021486422 0.1794879 0.46891657 -0.5908989 -0.012065948
-0.0031157348 0.8677105 0.09461012 -0.05570151 -0.018987488 0.02620484 0.39688244 -0.7708769
0.7212046 -0.6605107 0.5393346 -0.5405964 0.58281356 -0.24210322 0.5863166 -0.04059355
-0.3489131 -0.111274935 -0.29117295 -0.65405935 0.33542472 -0.69946283 -0.32711014 -0.002387483
-0.3954296 -0.24306564 0.7710078 2.1172678 -0.026593972 -0.9575768 0.47522342 -0.18445721
0.19155641 0.33676806 0.19660696 -0.030677365 -0.15087223 -0.050618105 1.1279322 0.047978815
0.048230655 0.09121893 -0.32479852 0.48500055 0.3461628 -0.5951572 2.906762 -2.941388
-0.05436852 0.46942288 -0.7844232 -1.0016471 0.11859846 0.86179525 -0.045074258 0.7057977
-0.008638171 -2.2378433 0.77149075 -0.11763865 0.5307725 0.08413154 3.9679747 0.0010825676
0.011230132 -0.29021573 -1.399853 0.060425974 1.0182114 -0.5757165 -3.6334658 -0.038115017
0.43329597 -0.043288108 -0.018770017 0.5950563 1.641342 0.120587274 0.1730886 -1.0584966
0.2505502 -1.0948784 -0.29582 0.14543156 -1.2386272 0.005877214 0.17426857 -0.5632326
0.07765392 -0.008963456 0.12552227 -0.037242204 0.44222978 -0.055152304 -0.74178284 -0.033675063
-0.5997394 -0.17094247 -1.461374 2.2198644 -0.55037624 -1.0012946 1.6957854 0.09051982
-0.41918012 2.045139 0.4104241 -0.017319066 0.8524519 -0.65303147 -0.013353638 0.2629975
0.8358617 -0.22271755 0.11951594 -0.11310228 0.40438938 -1.025494 -0.741125 0.49936128
0.39961684 -0.21046238 0.5758469 0.018444631 0.95669955 0.959132 0.037278652 0.9194793
-0.26403603 0.19450401 0.8775408 0.0041636946 -0.037608948 -0.8091997 0.025010122 -0.5188922
0.00089624804 0.5824764 0.5321474 0.21319102 -0.6256368 1.5901796 0.46275908 2.538648
00000000: 670c 053f 41f4 72be 95ee 983c 6664 ccbe
00000010: c088 a43e f983 2d3f 7657 46bc 34ac 84be
00000020: 98f1 2fc0 5b96 3b40 2210 993e c39f 0fbf
00000030: ab35 623f c978 833f 0b7e 0f3e 8e16 e3be
00000040: bb5a a33b cb94 3e3f d078 903c af9f 1240
00000050: ea05 33bf cf40 82be 80ec 013f 090e fbb9
00000060: 2632 7dc0 9f90 8abd 9d5e 613e 150a 963e
00000070: 95f7 a63f c489 96be 5155 83bf cdb6 2a3f
00000080: 8b49 6640 6867 e13d a42b dc3e 106f 91bc
00000090: 6674 1e3c e9ca 553f cad7 ccbf 9d94 9fbe
000000a0: cf61 1abf afde 6b3f 5b8c 833e 729f a13f
000000b0: de4a a13e 7a2c 913e 3993 973f ea05 d8bc
000000c0: 6cc0 f2be ba26 1f3f 3220 8a3d b463 9fba
000000d0: a3d9 15be 6758 0dbb 664e 5d3e 1221 1e3c
000000e0: 9b8c 493f 56cb 80bd 330e 223f 8b26 0e3e
000000f0: 9203 e63f 06a7 01c0 5ec0 19bf 20f7 743f
00000100: 4cc6 aebf 422e 8f3d 0b65 3cbf 68ed febf
00000110: a1fd ab3d 8107 793c 934d 513f eb31 25bc
00000120: a57f 17bf 26f1 bf3e d594 223f 7652 953d
00000130: 7d0b 97bd ee66 17bf 5961 d1be f673 2b3e
00000140: 537f 313f 51bd 843e f302 573f 4d71 19bd
00000150: 5bdd b1be ed54 b3bd bf9a 6ebf 152c 86bf
00000160: a459 a13a 6d8a 82bf ceda 01be 5fa2 5f3e
00000170: 5295 efbe 3add c83d 0d0b ddbc 4e58 ecbf
00000180: 550c 10bd abd5 173f 2f78 0f3e 65d3 4a3f
00000190: 59c1 00bf 70a9 63bd 6062 db3e 029b dcbf
000001a0: 3e62 e63e e6f5 29c0 5f5f 533f 4b04 b03c
000001b0: adcb 373e d515 f03e 2645 17bf 41b0 45bc
000001c0: 5b31 4cbb 4622 5e3f f3c2 c13d 4427 64bd
000001d0: a68b 9bbc 88ab d63c 2d34 cb3e 3058 45bf
000001e0: dda0 383f 3b17 29bf d511 0a3f 8764 0abf
000001f0: 4533 153f e8e9 77be d818 163f 6c45 26bd
00000200: bda4 b2be 1de4 e3bd 9f14 95be 6f70 27bf
00000210: cabc ab3e ff0f 33bf fb7a a7be 5177 1cbb
00000220: c075 cabe 33e6 78be c460 453f 5181 0740
00000230: 9adb d9bc c123 75bf 7c50 f33e 5ae2 3cbe
00000240: 5d27 443e dd6c ac3e 5653 493e 194f fbbc
00000250: 407e 1abe ee54 4fbd 1560 903f 6f85 443d
00000260: 828d 453d fed0 ba3d fe4b a6be fe51 f83e
00000270: 403c b13e 395c 18bf 6308 3a40 b33f 3cc0
00000280: 86b1 5ebd 3258 f03e f5cf 48bf f935 80bf
00000290: c0e3 f23d 9d9e 5c3f c99f 38bd 28af 343f
000002a0: 1d87 0dbc d338 0fc0 6b80 453f 88ec f0bd
000002b0: b5e0 073f 284d ac3d 4cf3 7d40 f1e4 8d3a
000002c0: 96fe 373c 2897 94be 622e b3bf 3a81 773d
000002d0: c054 823f 2862 13bf b48a 68c0 7e1e 1cbd
000002e0: f8d8 dd3e df4e 31bd 94c3 99bc 9c55 183f
000002f0: 7f17 d23f 76f6 f63d 233e 313e d17c 87bf
00000300: 1e48 803e fa24 8cbf b875 97be 03ec 143e
00000310: 568b 9ebf a595 c03b 7673 323e 0330 10bf
00000320: 0509 9f3d 76db 12bc e988 003e 488b 18bd
00000330: f16b e23e 62e7 61bd 7be5 3dbf ddee 09bd
00000340: 8588 19bf 8b0b 2fbe 4e0e bbbf 4212 0e40
00000350: 75e5 0cbf 6c2a 80bf 7f0f d93f 7562 b93d
00000360: c79e d6be 8fe3 0240 1c23 d23e b7e0 8dbc
00000370: 4a3a 5a3f 122d 27bf 38c9 5abc 9ca7 863e
00000380: 08fb 553f 1210 64be c6c4 f43d 2ba2 e7bd
00000390: 200c cf3e 6343 83bf 5eba 3dbf 48ac ff3e
000003a0: 949a cc3e 7383 57be b46a 133f 3219 973c
000003b0: 43ea 743f ad89 753f 80b1 183d ff62 6b3f
000003c0: bb2f 87be 0f2c 473e 84a6 603f 9a6f 883b
000003d0: d70b 1abd b627 4fbf 07e2 cc3c 1fd6 04bf
000003e0: 30f2 6a3a 2c1d 153f d03a 083f bf4e 5a3e
000003f0: bc29 20bf 018b cb3f c2ee ec3e 3579 2240

outputLayer.bias f4 [2]
3.512347 3.8429105
00000000: 4bca 6040 3ff2 7540
