ftl/pretrain/weight/scratch_ts_0/scratch_ts_0_14.pth (torch, 187615 bytes, 8 tensors)

hiddenLayer1.weight f4 [150, 3]
00000000: d3a5 46bd 3217 9bbe e7d6 25bf 71b3 b9bd
00000010: d79d d03c 16d0 32be ac8e 11be 2fe6 a7bb
00000020: 8755 b0bd 9627 35be a156 efbc c901 4abf
00000030: e453 4cbd 7f89 2fba b5e4 99bc b0de 94bd
00000040: 26ab d7ba 8f34 2dbd 62c9 3e3e a252 58bd
00000050: b8af 373f 3d11 39be f14b f9ba 2a98 3d3f
00000060: 3cb5 debd 5f56 c8bc 9b79 b0be 45d2 42bf
00000070: 33ce 8bbd 01dd 4abc 7011 b8c0 6a0c 273a
00000080: 62ee 0dbb 8951 41c0 59ce 5b3c 4f54 67bc
00000090: d636 61c0 4c36 d4bc d2c0 243d 7a47 dcbe
000000a0: f3eb eebd 1d1c 993d ab12 2bc0 b7ab 83bd
000000b0: b885 9cbc fd60 9dc0 1dfc 95ba 90c4 0dbd
000000c0: 2f17 8fbc b37e 803d ae89 153f 21cc acbe
000000d0: e230 1e3d 4f38 c4be cc27 d1bb d139 edbd
000000e0: a4e4 dd3d 9bb2 35bc 481d cb3c 3f27 df3e
000000f0: 27b3 e2bc aa0e 4fbd a106 4cbb b12b e53d
00000100: fc8d 17bd 414b fc3e f8fb f0be 789c 93bd
00000110: 03af 52bf 96bc 78bc 8dda 8c3d d7c2 e63d
00000120: 09c2 3c3e 56fc ac3c 0071 f33e 12fc 2ac0
00000130: 3bc6 1c3d 9f18 81bf b65a ddbd d49e aeba
00000140: 98ad 38be 0f52 d7bd 3ae1 a2ba ac3b 0ebf
00000150: 3218 b6bf 72cc 523d b866 d7bd ac0c eebd
00000160: 09df 1f3e 469f 70bd bc4c 383d 818a 823d
00000170: 8b96 513f 296e ea3d 2a19 0a3c b3c0 933d
00000180: ef91 aabb 8056 8cbd 1a0e 75bf a0a3 42bd
00000190: c0c7 72bd 5674 67be da43 afbd 37c9 bcbc
000001a0: aea8 a9be aa98 cd3d a802 593b 7ab5 4f3f
000001b0: 7d61 7ebd e63f 6fbd 5654 96bf a919 8ebf
000001c0: 349a 40bd 5042 9ebe 5bab 87bc 3be9 37ba
000001d0: 899e e3bc 77a1 0dc0 5104 043b 1a9a 1ebd
000001e0: 64ae 563e bcb9 5cbd 93d0 df3f 4aa1 d43d
000001f0: 1a7b 42be cf6a acbf 8995 c6be b755 873e
00000200: d123 7bbe 2e2f 2c3d 8b87 cfbd ebb9 bb3c
00000210: ec9d 11be 7d21 2bbe 8315 5ebe 75af a2be
00000220: eb23 deba 3a25 82be c36b 673e 1a18 86ba
00000230: e2f5 4c3f e33d 8fbe e132 5abb 52e7 bcbe
00000240: 57ed 63be 767d 39bd 7f82 e2bd 0d99 05bd
00000250: 5a8d b13d e9e9 d0bd 07f4 6fbf 0ee9 99be
00000260: d23a 96bd 3c82 81bf a7a9 aabd b93f 00be
00000270: 3e97 973b d530 5d3d 1491 98bf 0035 4bbc
00000280: 71f0 e0bd 0646 823e ce7f 94bd 6293 c1bb
00000290: 5e62 fbbb 8247 223b fd21 6a3c 19c1 03c0
000002a0: e873 75bf 4c00 373e f341 6c3e e598 d0bd
000002b0: 5f1f 843c 2488 c2be 8324 bec0 f64e 2cbe
000002c0: 0b5d 84be 943a 03be a77b 753e 3610 1cbf
000002d0: 090e 07bf f5a1 16bd bf0b d93d 48c6 83bd
000002e0: 12fd 3b3c d5c5 7fbf e8dc a1bc 400b 03bc
000002f0: 1428 03c0 0d88 e1bc 32fe 7b3d ba20 5abf
00000300: ac06 c8bf d373 bdbd 1b81 09be bba1 8cbd
00000310: 0534 c83a 779e 4cbd 43fb a3bd 4699 133c
00000320: 5d2d 25be 45bb 8fbb 5bed 36ba 6569 8b3f
00000330: aa26 e9bf 6008 e23c f9ff bc3a 806f 27c0
00000340: 0293 57bb e67c f4bc 1626 74bf 6046 a6be
00000350: 1751 91bd 97dd 87bd 3688 eebc 14f6 7fbf
00000360: 73cd 173e f12b bf3c fac4 35bd 71c7 c0bd
00000370: eee6 dc3b ba83 18bd 1b8a 8ebf 6cf5 4b3b
00000380: 777d 35bc b02f c8be 8dec 37bc 4aa3 d9bc
00000390: 80ce 11c0 7a78 96bc 86cc 39bf f5a9 ab3d
000003a0: 4ab6 2abe ac17 9e3e db51 95bf 3d54 97bc
000003b0: e045 1e3f 0db0 f03d e481 4d3b c0c6 6f3f
000003c0: d912 acbe 5c3f 213c bd2f febc 013b 8abd
000003d0: def0 36be 9b64 b5be e783 bcbd 6054 ebbd
000003e0: fb89 88bf 0d29 1938 ac6d 873a 786a 1abb
000003f0: 6b24 7dbc 924c 4ab9 b54e 7dbd 5bff 11bf
-0.048497986 -0.30291134 -0.6478104 -0.09067429 0.025465889 -0.17462191 -0.14214581 -0.0051238756
-0.08610063 -0.17690882 -0.029216113 -0.78908974 -0.04988469 -0.0006696209 -0.018785814 -0.07269037
-0.0016454204 -0.042286452 0.18631509 -0.05281318 0.717525 -0.18072982 -0.0019019825 0.7406031
-0.108744115 -0.024455247 -0.34467778 -0.76102096 -0.06826439 -0.012381793 -5.7521286 0.0006372394
-0.002165698 -3.0206015 0.013415896 -0.014119222 -3.518972 -0.025904797 0.04022295 -0.43023282
-0.116660975 0.07476065 -2.6730144 -0.064292364 -0.01910673 -4.9180894 -0.0011442933 -0.034611285
-0.01746711 0.06274166 0.5841321 -0.33749488 0.038620837 -0.3832421 -0.006382918 -0.11583293
0.10834625 -0.011089946 0.024794236 0.4358463 -0.027673317 -0.050551094 -0.003113188 0.11189974
-0.03700064 0.49276164 -0.47067237 -0.072075784 -0.82298297 -0.015181681 0.06877623 0.112676315
0.18433394 0.021116417 0.4754715 -2.6716352 0.038274985 -1.0085639 -0.10808317 -0.0013322481
-0.18034971 -0.10513698 -0.0012426742 -0.555598 -1.4226134 0.051464505 -0.10517639 -0.11623511
0.15612425 -0.058745645 0.044995055 0.06374074 0.81870335 0.11446793 0.008428851 0.07214489
-0.005205385 -0.06852436 -0.9572464 -0.047519326 -0.059272528 -0.22602972 -0.085578635 -0.023045165
-0.33136505 0.10038884 0.0033113156 0.81136286 -0.06210469 -0.058410548 -1.1744487 -1.1101581
-0.04702206 -0.30909967 -0.0165612 -0.000701565 -0.027785556 -2.21298 0.0020144174 -0.03872118
0.20964962 -0.053888068 1.7485527 0.10382326 -0.18992272 -1.3470095 -0.3878596 0.26432583
-0.24525382 0.04203718 -0.10133275 0.022915801 -0.14220399 -0.16711994 -0.21687894 -0.31774488
-0.001694796 -0.25419027 0.22599702 -0.0010230571 0.8006269 -0.27976903 -0.0033294486 -0.36895233
-0.22258507 -0.045285664 -0.110600464 -0.032616664 0.08669539 -0.10200865 -0.9373173 -0.3006062
-0.07335438 -1.0117869 -0.0833314 -0.12524308 0.004626184 0.054001648 -1.1919274 -0.012402773
-0.109833606 0.2544405 -0.07250939 -0.005907462 -0.0076716384 0.002476186 0.01429033 -2.0586607
-0.95879984 0.17871207 0.23072033 -0.10185412 0.01612824 -0.37994492 -5.941957 -0.16826996
-0.25852236 -0.12815315 0.23972951 -0.60962236 -0.5275579 -0.036775548 0.105979435 -0.064343035
0.011473911 -0.9991124 -0.019758657 -0.007998288 -2.0493212 -0.027530694 0.061521716 -0.85206187
-1.5627036 -0.09250607 -0.13428156 -0.06866785 0.0015274292 -0.04995581 -0.08006909 0.009008711
-0.16130586 -0.004386338 -0.0006978118 1.0891539 -1.8214924 0.027591884 0.0014419548 -2.6161804
-0.003289402 -0.029844712 -0.95370615 -0.32475567 -0.07095545 -0.06634062 -0.029117685 -0.9998486
0.14824466 0.023336383 -0.044377305 -0.094130404 0.006741396 -0.037235 -1.1135896 0.0031121625
-0.011077276 -0.39098883 -0.011225832 -0.02656712 -2.2782288 -0.018367995 -0.72577703 0.08382026
-0.166711 0.30877435 -1.1665605 -0.018472785 0.6182537 0.11752329 0.0031357938 0.93662643
-0.3360813 0.009841766 -0.031028623 -0.06749535 -0.17865321 -0.35428318 -0.09204846 -0.11490703
-1.0667108 3.6516274e-05 0.0010332367 -0.0023561995 -0.015450577 -0.00019292746 -0.06184264 -0.57030267

hiddenLayer1.bias f4 [150]
00000000: ed1f 39c0 78b1 5e3f f449 84be b7bd 5abf
00000010: ec2d 58be 595f 5dbd 7b86 e83f a2c4 11bf
00000020: 01c5 823f 392d 1ebf 5a9d 69be 6b52 31be
00000030: c357 1cbf d572 b6bf e1b4 57bf fba6 6cbe
00000040: a90e 9f3f 73bf dd3d 7bc0 cebf c532 c53f
00000050: 4b74 f2be da4c 27c0 7c4e 8bbf 6cfa 8bbf
00000060: 2bc1 0dc0 a668 89bf 0df1 893f ca9b c8be
00000070: fb3e 4ebf e281 bdbf 96c0 0c40 5123 63bf
00000080: ae19 97bf bfdb 27bf 0ebf 653f f468 0fc0
00000090: b3d3 91bf fb4e 3fbf 4579 08bd f36a f6bd
000000a0: 2def c93f 7ca1 0cc0 6a6b 313e c0ab d13f
000000b0: 9349 e6bf 0b59 75be 844a 1ac0 8f65 9fbe
000000c0: 8f09 e6be c5a5 7ebf 534d 903d 1044 55bf
000000d0: a593 a5bf 9fe6 a53f 257b 9e3f 56e6 c4bf
000000e0: 7292 07c0 0760 853f ad55 ccbf 9e2b 17c0
000000f0: 2acd 63bf 047b 8c3f 0aa5 db3f d3a5 7bbf
00000100: d414 85bf 0fb9 c7bd d442 463f 2b5c 60bf
00000110: c2ab ed3d 2455 0fbe dbcd 533d 7b96 62bf
00000120: aed8 10c0 c481 793f 8465 13be 095a 0ebe
00000130: edf1 2cbf 2253 be3f 7871 cfbf 7d2b 57c0
00000140: cf3b f8bd 8d5a e8bf 245f bdbf 624d e9bc
00000150: 44e9 49bd 6711 94be 35fa 95bf 26df d63f
00000160: cdbb 19be 0323 49bf b927 8ebf efe0 e6be
00000170: c9c7 80bf 7105 ccbe 05cb a0bf ac1c c33f
00000180: fbcc c83f ec08 05bf 6db0 d33f 13c9 99bf
00000190: e2b9 58be 177c c7bd bec9 39bf 0040 84bf
000001a0: aa41 aebf 4a82 973f 3b4d a1be 1020 4dbf
000001b0: b3d6 e0be 0405 adbe b38f 71bf 2421 35be
000001c0: 865b 07c0 3411 0cbf 7ab3 96bf 6133 8fbc
000001d0: 8178 79bf d333 4cbf 2e53 aebf de02 8c3d
000001e0: 134c f8bc 4343 ffbf 8e10 31c0 7cb9 c23f
000001f0: f050 72be 5750 eabc caaf 99bd 779a 693f
00000200: a93e 723f dc07 8abf 7fcb 68bf 909b 42bf
00000210: 2951 1a3e eff9 ebbe b5b5 d7bf 2f69 a63d
00000220: 1b75 84bd 4f5c 06bf edab c6be 87b1 88be
00000230: 4f88 0b40 f823 20bf 8c73 f4bf d3f7 0cc0
00000240: 5dc4 d6be ec3a 45bd 178e 07bf d647 42bf
00000250: 8157 0ebf e985 eb3f
-2.8925736 0.86989546 -0.25837672 -0.8544573 -0.21111268 -0.05404601 1.816604 -0.5694066
1.0216371 -0.61787754 -0.22813931 -0.17316596 -0.61071414 -1.4253794 -0.84260374 -0.23110573
1.2426349 0.10827532 -1.615249 1.5406119 -0.4735435 -2.6140656 -1.0883327 -1.0935798
-2.214915 -1.0735061 1.0776688 -0.39181358 -0.8056485 -1.4805262 2.1992545 -0.88725764
-1.1804712 -0.6556968 0.8974465 -2.2407808 -1.139273 -0.7472989 -0.033318777 -0.12032118
1.5776116 -2.1973562 0.17326131 1.6380539 -1.7991203 -0.23959748 -2.410798 -0.3113217
-0.44929168 -0.99471694 0.070459984 -0.8330698 -1.2935683 1.2961005 1.2381331 -1.5382793
-2.1183133 1.041993 -1.5963646 -2.3620372 -0.8898493 1.0975041 1.7159741 -0.982999
-1.0396981 -0.09752094 0.7744572 -0.8764064 0.11605026 -0.13997322 0.05170999 -0.88510865
-2.263225 0.9746363 -0.14394194 -0.13901533 -0.6755665 1.486912 -1.6206503 -3.3620293
-0.121207826 -1.8152634 -1.479466 -0.028479282 -0.049294725 -0.28919527 -1.1716982 1.678685
-0.15013047 -0.7856905 -1.1105872 -0.45093486 -1.006097 -0.398479 -1.2561957 1.5243125
1.5687555 -0.5196674 1.6538216 -1.2014488 -0.21164659 -0.09740465 -0.7257346 -1.0332031
-1.3613789 1.1836636 -0.31504235 -0.8012705 -0.43913803 -0.3379289 -0.9435989 -0.17688423
-2.1149611 -0.5471375 -1.1773522 -0.017480554 -0.974495 -0.7976658 -1.3619134 0.068364844
-0.030309713 -1.9942402 -2.7666354 1.5212855 -0.23663688 -0.028602762 -0.07504232 0.9125132
0.9462686 -1.0783648 -0.9093551 -0.7601862 0.15070023 -0.46089122 -1.6852328 0.08125531
-0.064676486 -0.524846 -0.38803044 -0.26697943 2.1801946 -0.62554884 -1.9097762 -2.202626
-0.41946688 -0.048151895 -0.52951187 -0.7589086 -0.5560227 1.8400241

hiddenLayer2.weight f4 [150, 150]
00000000: 269e 3bbe cce4 15be d099 cabd 3a4d 7ebf
00000010: 765b 9ebf 8caa a13d b460 81be 7a76 7ebe
00000020: 1123 4c3e 8ea1 9fbe 7aa0 98be 0bc1 f2bc
00000030: 4c8a a8bc f810 043e d088 9bbf a2c9 bdbe
00000040: 69e1 c1bd 4a29 b7bc dca4 e3bd adad a3be
00000050: 14de c2bf 39fc 10bf 1714 efbe e406 c3bf
00000060: 6bea 8b3e b2c3 ecbd 0c93 0f3e 6dec adbe
00000070: d0ca 353e b1db 0ebf fcba 28bd f48d aabe
00000080: 403c 69bf 1d73 dbbe 0fb7 a13c 344d 8cbe
00000090: a816 71be cc80 36be 8d36 8b3d 3eb1 833d
000000a0: 2fd0 6bbf c681 b53e a8cc afbc 6e01 a1be
000000b0: 6898 003f 8326 02bd 860c 71bf d59b 54bd
000000c0: 4afd aebf 95d7 ee3e 1e96 04bf 2a9a b83d
000000d0: 2783 0abf 05e0 c0be 27b4 a2bc b005 8ebd
000000e0: bf22 8fbf 7dc4 88bb dc57 a43f 92a6 6ebe
000000f0: 249c 03c0 b480 133e d3bc 3e3e 7049 0f3f
00000100: 56ef 0ebe 5de1 95bd f56d 5cbc 17cf ab3a
00000110: 665b 033e 7cb5 c83c e873 c1bd 45a2 2dbe
00000120: dc10 af3e b1d6 2e3e 5cd0 18be 3b29 cfbe
00000130: c426 43bf 2e94 d2be 2b7f 93bc 988c 9abf
00000140: 476b 983e 5b5c a63d 6529 61be 7fab abbd
00000150: c1f1 253d a1fe 8abe 0ae2 1bbf c38c 543e
00000160: f3ad 043e 40f8 533e ceb6 7cbe 3613 74be
00000170: 15e6 f4bf 1849 1bbf eabb da3e cf7c 61bd
00000180: 0a22 c3bd f848 b8be b908 133e dba7 70bf
00000190: 590a d03e 3f50 89be 5f75 8a3e 615b 32bf
000001a0: c005 dbbf 6878 84be 9bcb 8bbd fb4f 15be
000001b0: b2bd 15bf fd45 59be b049 1d3d d165 d53d
000001c0: 6d26 c3bf 7732 36bf 1a6e aebe d8e3 2d3c
000001d0: 9cc4 3e3d e67a 28bf 9f34 f4bc 89cd e4be
000001e0: 5071 8bbc e293 81bf f763 cfbd b5b6 e1be
000001f0: acfb 44be 2e00 74be a7ff 0dc0 942f 98bc
00000200: bba3 5fbe 3df2 41be 99ef 5dbe f2fa 2cbf
00000210: 794f aebe 26e5 eabe c449 91be bb54 203f
00000220: acf7 74bb f94b 42c0 3702 52bf 13fb babd
00000230: 1344 993d 415b 033f fc99 3d3d 94a0 ba3d
00000240: dfc7 a6be 4792 1bbe 4d0d 583e b593 a43e
00000250: b6b2 583d edcd a8be c0ba 8fc0 cbf9 4d3e
00000260: bb0c 05bf e1a7 8b3f 13e9 733e 6d41 653d
00000270: e944 82be 9d65 c43e 2ab5 1b3e b896 df3e
00000280: dcd4 c13e c4e4 2ebf 4d06 b2bf bdd9 09c1
00000290: 0480 833d 1e92 bb3e 27fd 3cbe 63b4 67bf
000002a0: 6371 7dc0 ff53 6ebe 378c 21bf d1c9 37be
000002b0: 9a3c 843e 2c90 1a3c 6aeb 843e 8e97 f83f
000002c0: a107 043e 879d 483e 64c6 0ec0 a15a 91be
000002d0: 29f1 153e fac6 c23b 2b13 84bf 83e0 eabd
000002e0: 9461 61bd 40d4 fd3f ddac cdbf 1b0d c1bf
000002f0: 4fd7 423d 883d 0dc0 bbf8 adbe 03e9 de3f
00000300: a3d0 173d ebea 38be 2661 14bf 3b4b b0be
00000310: e37e 26bf 9d57 d6be e0fb ee3e c57a dd3d
00000320: d6f3 ac3d d213 d1c0 7157 c6bf c459 07bf
00000330: 11c1 59bd 580b 0fbe 8b53 db3d e00a 8abe
00000340: 94bb ccbf 39ad 9bbe ccb3 12bf 00e7 21bd
00000350: 1762 bebd a06f 1fbe dc2d d83f c16f c1be
00000360: 89bd 77be babf cc3e 9dab 99bd 73e5 27bf
00000370: d135 bdbe 2a13 2c3e c328 2dbf 1d12 4a3e
00000380: 082b 7ebd 2f15 8fbe b518 3b3f e91e 06bf
00000390: 3033 4a3e 9976 6f3f a164 17bd a486 31bf
000003a0: 2758 01c0 202d 2fbd a880 c9bc 1483 33c0
000003b0: d67c ebbf 8b6b 583d ed8a dfbe 1d71 623d
000003c0: bc2a 31bf 2952 b4be 3c2a e63d 5230 31c0
000003d0: 5b6f 45bf 0a6c 46be 450a 2f3c 86f4 5dbd
000003e0: d91b 6abd 9c1b 1bbf 902d 163e d516 e2bc
000003f0: 9381 eabf 42fc 25be 0c13 adbf 2671 133e
-0.18322048 -0.1463806 -0.09892619 -0.9933659 -1.2371662 0.07893857 -0.2526909 -0.24849883
0.19935252 -0.31177944 -0.29809934 -0.029633066 -0.020573758 0.12897098 -1.2151127 -0.37067896
-0.09466822 -0.022358555 -0.11115429 -0.31968442 -1.5224023 -0.5663486 -0.46695015 -1.5236478
0.27327284 -0.115607634 0.14020938 -0.3396944 0.17753148 -0.5580397 -0.041193947 -0.33311427
-0.9110756 -0.42861262 0.01974061 -0.2740265 -0.23543799 -0.1782257 0.06797514 0.06430291
-0.9211454 0.35450572 -0.021459892 -0.31446403 0.50232553 -0.03177501 -0.94159734 -0.051906426
-1.3671048 0.4664885 -0.5179156 0.090137795 -0.5410637 -0.37670913 -0.019861294 -0.069346786
-1.1182479 -0.004173814 1.2839313 -0.23305729 -2.056405 0.14404565 0.18626718 0.5597143
-0.13958487 -0.07318375 -0.01345395 0.0013107982 0.12827834 0.024500601 -0.094459355 -0.16956432
0.3419255 0.17074086 -0.14923233 -0.40461144 -0.76231027 -0.41128677 -0.018004974 -1.2074156
0.29769346 0.08123084 -0.21988447 -0.0838232 0.040513758 -0.2714739 -0.60891783 0.20756821
0.12956981 0.20700169 -0.2467911 -0.23835453 -1.9132715 -0.6065841 0.42721492 -0.055050667
-0.09527977 -0.3599317 0.14358796 -0.9400613 0.40632895 -0.26819035 0.27042672 -0.69670683
-1.711113 -0.25873113 -0.06825944 -0.14581291 -0.5849258 -0.21218105 0.038400352 0.104198106
-1.5246102 -0.71170753 -0.34068376 0.010613404 0.04657422 -0.6581253 -0.029810248 -0.4468806
-0.017021805 -1.0123255 -0.10126489 -0.44084707 -0.1923663 -0.23828194 -2.2187288 -0.018577375
-0.21839802 -0.18940063 -0.2167343 -0.6757041 -0.34045008 -0.4587795 -0.2837659 0.6262929
-0.003737907 -3.035887 -0.8203463 -0.0912992 0.07483687 0.5131112 0.04628943 0.09112659
-0.32574365 -0.15192519 0.21098824 0.32143942 0.052904807 -0.3296961 -4.4915466 0.2011482
-0.5197255 1.0910608 0.2381938 0.055970598 -0.254432 0.38358775 0.15205827 0.43669677
0.3785771 -0.6831782 -1.3908173 -8.615659 0.064209014 0.36634916 -0.18455945 -0.90509623
-3.9600456 -0.2327423 -0.63104576 -0.1794808 0.25827485 0.009433787 0.25960857 1.9421251
0.12893535 0.19591342 -2.2308588 -0.28389457 0.14642777 0.00594413 -1.031835 -0.114686035
-0.0550247 1.9830399 -1.6068379 -1.5082124 0.047568616 -2.2068806 -0.3397883 1.741486
0.037064206 -0.18058364 -0.57960737 -0.34432396 -0.65037364 -0.4186372 0.4667654 0.10814432
0.084449455 -6.5336695 -1.5495435 -0.52871346 -0.053162638 -0.13969171 0.10709294 -0.26961422
-1.5994744 -0.30405596 -0.573056 -0.03952694 -0.09296053 -0.15569925 1.6888995 -0.37780574
-0.24193396 0.39990026 -0.07503436 -0.65584487 -0.3695512 0.16804186 -0.6764032 0.19733472
-0.062052757 -0.2794585 0.73084575 -0.52390915 0.19746089 0.9354034 -0.0369612 -0.6934607
-2.0210054 -0.042767644 -0.02459748 -2.8048754 -1.8397472 0.052836936 -0.4366068 0.055283654
-0.6920583 -0.35218933 0.11238524 -2.7685742 -0.7712304 -0.19377151 0.010683601 -0.054188274
-0.057155464 -0.60589004 0.14665818 -0.027598778 -1.8320793 -0.1620951 -1.3521438 0.14398631

hiddenLayer2.bias f4 [150]
00000000: 2f11 f53d 7c61 1a3e d5a4 45bd 7dc8 373f
00000010: c62a ae3e d9fe 89be 0edf 2f3d c58b 4dbb
00000020: b3d9 533d c149 84bd ecc7 e7bc 8963 383e
00000030: c21f c13d 80c6 8d3d 1aaa 22bd f9ed 313e
00000040: eea6 193e bddd 523d 8802 a63e 46f1 053f
00000050: 42c1 b0bf 306e 9b3c 07db 873d 30ed debd
00000060: e380 5dbd 30bb debd 8f57 c13e 0b2d 8c3e
00000070: 6d68 413d f3c8 d93d 9e4c 0c3e 612a ec3e
00000080: d637 ddbb 8127 873e 671d b3bc 9d02 293d
00000090: b6d6 74bd 06d5 063d b28f 453e ec30 fcbd
000000a0: b3ed 433e d5aa b63d 241a 283d 7fdf 31bd
000000b0: cb55 11be 2d61 0dbe 9ecb 31bf 6c93 ec3d
000000c0: b0f1 1740 3578 923e f8b4 12be a8a1 d53a
000000d0: 7a96 003e 0886 48bd 4662 12bd d0f4 d93e
000000e0: de89 f1be bc62 04bc da9e 0140 70de c73d
000000f0: fdfc 91bd aedc dfbc 5f73 4b3d 2315 f6be
00000100: 3775 3cbd 429f 2040 8a0a 6fbf be87 8f3e
00000110: 4049 8abe 3c08 a9bc 299d f23f 7ef5 db3c
00000120: 19b8 183f ce8b 2940 0861 373d b28c a2bd
00000130: b591 063f 2aa0 313f 5387 d73c 2e31 7f3e
00000140: f0d5 a1bf 53e8 7a3e a56f a93d d242 c13d
00000150: 9294 363e 9e64 4f3e 5013 cb3d d991 98bd
00000160: a8f4 e93e 59ff 6abc 70ae 953d af2b 0840
00000170: 6c5b 463d 7f04 1dbe eaca 833a 9b74 93be
00000180: 9f57 9e3d ebfe 0f3e cb62 323f 23c6 1e40
00000190: 23bb 91be d1e4 853d 8bca 8cbc c769 c83e
000001a0: 3503 4c3d 173d 1b40 2c21 373e 6559 663d
000001b0: 10ee f93f 2688 ecbe fe6f 0c3d 5196 a03f
000001c0: 65a1 003c b56e 9a3f 52fd d63f dd82 ae3d
000001d0: 99cf debf d07e 893e aba5 84be 81c4 193c
000001e0: b037 3cbd 2c8b e2be 1881 063f e387 77bd
000001f0: c031 cbbe ea95 1240 0660 f6bd 1216 6a3d
00000200: 0d1d 463e babf 9a3e 9d4d 753f 4f05 e23c
00000210: f1b6 2640 869c 173e 1ac9 a7bc 70a7 04bf
00000220: 81d0 02bf c200 243e 5df7 f93d 004a 70bd
00000230: ddd3 0140 7aa3 f43d b415 95bd a0d7 adba
00000240: a933 af3d 94ad 3a3d 3196 183d 0f98 ddbd
00000250: 6594 ed3d 39d7 593d
0.11966168 0.1507625 -0.0482529 0.71790296 0.3401701 -0.26952246 0.04293733 -0.0031363827
0.051721286 -0.0645938 -0.028293572 0.1800672 0.094298854 0.069226265 -0.039713003 0.17375936
0.15005085 0.051480997 0.32423806 0.5232128 -1.3808978 0.01897344 0.06633573 -0.10885084
-0.054077994 -0.10875547 0.37762114 0.27378115 0.04721873 0.10634031 0.13701102 0.46126083
-0.006751041 0.26397327 -0.021864606 0.041262258 -0.059775077 0.032918 0.19293097 -0.123140186
0.19133644 0.089193024 0.041040555 -0.043426033 -0.14192884 -0.13806601 -0.6945132 0.11551556
2.3741264 0.28607336 -0.14326847 0.0016298788 0.12557402 -0.048955947 -0.035738252 0.4256959
-0.47175497 -0.008080181 2.0253205 0.097592235 -0.07128332 -0.027326908 0.049670573 -0.48063
-0.046010222 2.5097203 -0.93375456 0.2803325 -0.2700901 -0.02063381 1.8954211 0.026850458
0.5965591 2.649158 0.04477027 -0.07936992 0.5256608 0.69385016 0.026309645 0.24921104
-1.2643414 0.24502687 0.08273248 0.09436573 0.17830113 0.20253226 0.09915793 -0.07449693
0.4569447 -0.014343106 0.07308662 2.1276662 0.04842703 -0.15333746 0.001005498 -0.287999
0.07731556 0.14062087 0.69681996 2.4808433 -0.28463086 0.06537784 -0.017186424 0.39143202
0.049807746 2.4256036 0.17883748 0.056237597 1.9525776 -0.46197623 0.03428649 1.2545873
0.007850979 1.2065035 1.6796057 0.08521054 -1.7407104 0.26854563 -0.25907645 0.009385229
-0.045951545 -0.44246805 0.5254073 -0.060432326 -0.39686394 2.2904 -0.12030034 0.057149954
0.1934702 0.302244 0.95821553 0.027590422 2.6049159 0.14805803 -0.020481635 -0.5181799
-0.510994 0.16015914 0.12205384 -0.058664322 2.028556 0.11945243 -0.0727953 -0.0013263114
0.08554775 0.045575693 0.03725261 -0.108200185 0.1160057 0.053183768

hiddenLayer3.weight f4 [150, 150]
00000000: 1958 a7bd 8ab0 dd3c 6daa b1be e67d 9f3d
00000010: e6fe 36bd 36b7 573c 1d83 9abe cda3 58be
00000020: 15b8 0e3e de22 3e3f d333 3d3e 8148 033e
00000030: aa1a 803d 19a3 833d 92ff 31bd 0b99 dabd
00000040: 875e 47be 1a58 d83e 44e1 023d bcbc 8cbe
00000050: a9db 85c0 1a8d 66bd 81d2 b53c b1e3 223e
00000060: 32c6 1c3d d30a 89bd d345 0a3f 1766 ac3e
00000070: bf7d 443e 8e33 d0be 1608 1f3e 8c0a ca3d
00000080: 155d c6be 65cb 763c 69ef b53c e2c7 153e
00000090: b457 29bf 5e69 ae3c f3d9 96be 11d0 493e
000000a0: a4f8 40be 5b38 913c 96b1 663d ce14 963d
000000b0: 303b 2bbe eb42 4f3e 9bb6 22bd 53dd e63e
000000c0: 1d80 e43e 7d49 c9bd 4f74 4ebe 941d 833e
000000d0: bb85 29bf fcd5 8bbd 0e74 ccbe 7234 37bd
000000e0: 7193 08bf fb52 1abe 3e37 a83e 3d8b b4bd
000000f0: face 7fbe cf7a eb3d 86ee e33c 58c0 f93e
00000100: 36b7 523e 6dd6 213f 59cb ae3e a9fe 4cbe
00000110: efcf ae3e e231 bf3e f1f6 173f 4669 113e
00000120: 4825 9dbe 72d7 3c3f b59d fc3e 8a9e 37be
00000130: 8d24 40be 6fed 32bf 56cb c33d d239 34be
00000140: 01f6 c4be 8416 49bf 9656 fa3d 59b3 003f
00000150: 9b69 aa3e 1bd8 fb3d d0b1 883d 2059 0b3f
00000160: c7a8 44be 3ee2 0a3d f026 0c3d bb20 eb3e
00000170: 6d84 d83d fa9c 53bd 4042 12c0 3182 003f
00000180: 05df 043f 07c8 0dbe 7a41 c73e 3977 2a3f
00000190: 4599 18be bee8 96be ef51 9b3e ffb7 8cbe
000001a0: 389c 73bd b47b e53e 690f e73e 244d 2a3e
000001b0: ea5a fe3e 7f72 dfbc 7c36 963d 5e73 5c3f
000001c0: 6c7a 423f 0361 9d3e 7866 f63e a8a2 633e
000001d0: 9cdf f3bd ca3a 613e b89a a03e ea2f 873e
000001e0: a948 003b fad6 083e ebbd 0b3e 397d 7f3d
000001f0: cb7a a1bd b2b6 b93e 2fa2 c83d dc13 d9be
00000200: dc76 293e 1070 c03d 683b d43e 3c82 c73e
00000210: 6934 203f 4605 1b3f 4c4f cabf 827f e03d
00000220: 7d51 023f 2d6a 233e c91c 903e 3728 583d
00000230: c20c 303e f33d 14bf 76f1 1b3c aea7 8dbd
00000240: 8f38 1abe 2a45 253b 75de 9abc e673 b73d
00000250: 9ff8 123e 5c81 c83d 2648 363e dfd2 e0be
00000260: 7e15 e7bd c900 79be 56f8 92be 9a62 903d
00000270: 2ef9 08bf 487b 143f a3e3 1dbe a9c8 a8be
00000280: 2ea0 983d 94aa e0be b5c0 6dbc a4d3 4abe
00000290: 5993 55bd d0a2 72be c69a e3be ae96 823f
000002a0: b55f 293e 5f8b 26bf 088f 77bf 8004 7abc
000002b0: 3467 b8be cd62 d0be 1d03 af3d 850d a93d
000002c0: 19ca 673e 5f6b 44be 1b48 5dbe 7fd8 083c
000002d0: 97e7 e9be b3cc 9fbd 491e d9be 5ece ad3e
000002e0: 2e9f d43d 823c b43e ef73 1a3f e664 1fbe
000002f0: fada 83be 5ad5 a73e 8a09 d7bc 6923 e5be
00000300: a259 bdbe 5f60 4c3d 3432 c7bd 0b0e 363d
00000310: 7b23 24bf 24dc 4d3e 8b7d 16bd 41f9 1c3f
00000320: a67b b2bd 1ed4 1ebd e61f ccbe ada3 b3bc
00000330: 1f10 c03d e8e5 e2be 424b 39bf 9dcb 82be
00000340: 62d4 eebd 7a8d 873e a52a 4cbd 3c75 98be
00000350: c292 343d 0419 59be 5c95 fb3d 681f eebe
00000360: 5953 d7be 7e49 18bf d860 acbe bc92 b1be
00000370: ed02 44be af98 943e 8855 86bf d53e 14be
00000380: 9fa6 e33d 8161 413f 812f 7d3e 200c 353e
00000390: 7e2e 8dbd 8ce4 22be c0d9 71bd 9286 503e
000003a0: 0172 9fbe 7cde 9f3e a2f8 163f 7ef8 59be
000003b0: a672 f5bc af60 3b3f 9533 9dbe 32df 833d
000003c0: 8860 ddbd 460b 63be 8853 38be 22cf 10bc
000003d0: 6f0d 553d c65a a7bc 24ce a1be d09e 193e
000003e0: 2243 883e 55a7 2dbe ef48 a1bf 72b8 e23e
000003f0: 1153 923e 6b1c b93e 28d7 3d3c 86c7 d2bd
-0.081711 0.02706172 -0.34700337 0.07787685 -0.044676684 0.0131662395 -0.30178156 -0.21156235
0.13937409 0.74271953 0.184768 0.12820627 0.06255086 0.06427593 -0.04345662 -0.10673722
-0.19469653 0.42254716 0.03195311 -0.27487743 -4.183064 -0.05628691 0.022195103 0.1590717
0.03827495 -0.06691518 0.54012793 0.33671638 0.19188593 -0.40664333 0.15530428 0.09865293
-0.3874289 0.0150631415 0.022208886 0.1462703 -0.6614945 0.021290477 -0.29463157 0.19708277
-0.18844849 0.017727068 0.056321703 0.07328187 -0.16721797 0.20240371 -0.039724927 0.45090732
0.44628993 -0.0982847 -0.20161556 0.25608504 -0.6621968 -0.06827924 -0.39932293 -0.04472775
-0.5334998 -0.15070717 0.32854646 -0.0881562 -0.24981299 0.11498033 0.027823698 0.4877956
0.20577702 0.6321781 0.34139517 -0.2001902 0.34143016 0.37342745 0.5936118 0.14200315
-0.30692506 0.73766243 0.4933907 -0.17931572 -0.18763943 -0.69893545 0.095602676 -0.17600182
-0.38468936 -0.7854998 0.12223546 0.5027366 0.33283696 0.12297078 0.0667454 0.5443287
-0.19205008 0.033907168 0.03421682 0.4592341 0.10572133 -0.051663376 -2.2852936 0.50198656
0.519028 -0.13845836 0.38917142 0.6658817 -0.14902218 -0.29474443 0.30335948 -0.27484128
-0.059475154 0.4482094 0.45128945 0.1663099 0.49678737 -0.027276276 0.07334611 0.86113536
0.7596805 0.30738077 0.48125052 0.22230017 -0.119078845 0.21995082 0.3136804 0.26403743
0.0019574559 0.13363257 0.13646667 0.06237528 -0.07884749 0.36272198 0.09796559 -0.42397964
0.16549248 0.09396374 0.41451573 0.38966548 0.6257997 0.6055492 -1.580545 0.1096182
0.5090559 0.15958472 0.2814696 0.052772727 0.17192367 -0.57907027 0.009518018 -0.06916748
-0.15060638 0.0025218227 -0.018904904 0.08957653 0.14352654 0.09790298 0.1780096 -0.43910882
-0.11283396 -0.24316706 -0.2870509 0.07050057 -0.5350522 0.5800061 -0.15418868 -0.32965592
0.07452427 -0.4388014 -0.014511277 -0.19807297 -0.052142475 -0.2369492 -0.4445402 1.0202234
0.16540416 -0.65056413 -0.96702623 -0.015259862 -0.36016238 -0.4070038 0.08545516 0.08254532
0.22635688 -0.19181584 -0.21609537 0.008352398 -0.45684502 -0.07802715 -0.42405918 0.33946508
0.103819236 0.35202414 0.6033315 -0.15565833 -0.25753003 0.32779962 -0.026249666 -0.44753578
-0.36982447 0.049896594 -0.09726372 0.044446986 -0.6411664 0.20103508 -0.03674082 0.6131783
-0.0871499 -0.03877651 -0.39868087 -0.021928633 0.09378075 -0.4431603 -0.7238046 -0.2554597
-0.116616026 0.26475126 -0.049845356 -0.29776943 0.04408527 -0.21200949 0.122843474 -0.46508336
-0.42055777 -0.5948714 -0.33667636 -0.34682262 -0.19141741 0.29022738 -1.0494852 -0.14477094
0.11115765 0.75539404 0.24725153 0.17680407 -0.06893633 -0.15907496 -0.059045553 0.20363835
-0.31141666 0.3122443 0.58973134 -0.21286198 -0.029961895 0.731944 -0.30703416 0.064390555
-0.108094275 -0.22172269 -0.18000615 -0.008838447 0.052014764 -0.020429026 -0.31602585 0.15001988
0.26613718 -0.16958363 -1.2600383 0.44281346 0.28579 0.36154494 0.011586942 -0.10291962

hiddenLayer3.bias f4 [150]
00000000: 1737 2840 1755 413f bba6 5cbe df3d 99be
00000010: 3e5c 133f 3873 5e3f 81fc ebbe 12c6 673d
00000020: 589b 8abd 7553 2cbf c879 1e3e 8c3c 37be
00000030: 45c7 24be a3fb 89be b972 ba3e 4d6f e8be
00000040: 87b1 81be 3084 3240 dfe7 5fbc 56e9 9bbe
00000050: 9953 29be 3bf3 da3e 763f 3f40 3ede dabe
00000060: b856 c0be 675e 593e a69b de3e 081f 3abe
00000070: 60d9 013d 0a87 0440 7c2d 283e 4628 8dbe
00000080: 9b60 6dbd 4e63 2e3d 586e 4a40 7e8d 973c
00000090: cc29 a93f e153 1a40 44d5 3bbd 6385 7bbe
000000a0: 2060 4fbe 77a4 83be b361 2a40 77eb 15bf
000000b0: aed8 1d3e 56fe 1ebe cc15 aebe 66c4 2240
000000c0: b67e 0dbf 6108 b33c 6883 2740 8e50 e5bd
000000d0: c4ad 5a3f 6158 9ebd 9c7e 1d40 d12e 0f40
000000e0: f401 283e 298d a6bd b86b 1abe 701f 6cbd
000000f0: c080 b3be 607a d4ba 5aa7 3dbe 45e1 44be
00000100: 923c 03be 5ee4 9a3d fc09 99be d6b4 4abc
00000110: 7428 a73e 2876 34be 9bfc 3c40 5d20 acbc
00000120: 9497 3e3d 177c 2c40 1ce4 3740 f98e 60bc
00000130: 56c1 d8bb bf7b 553d 32f1 38bd 7998 ecbe
00000140: 4085 ecbd 2259 f93f 13f9 0f40 a8f3 293e
00000150: 17c6 9abf 8e62 acbd 9e87 59be fbfe bcbe
00000160: 259b 47bd 8337 fdbd e7da bebe 7cd2 2a40
00000170: 6a40 07be 6be9 dc3f ffd6 2fbe 3cc9 23be
00000180: 6758 333d 0451 0fbe d799 263f 4e0f 2640
00000190: 4b00 a6bd af9b 1e3f f619 e3bd 3d42 e0be
000001a0: f36a 3740 825f 653c 472f 19be eb63 96bf
000001b0: 66e7 d9b9 24ba 2840 960b 0bbf 5a5f 0ebf
000001c0: ac4e 1240 9809 a63e 1aff 923d 43ab 81be
000001d0: 0abd 713d e088 9f3c e5d9 3340 91e3 e23d
000001e0: c96b 4a3c 56c5 d3bd 506c 3840 9f45 afbc
000001f0: 9e5e 83be e391 60bf 5151 3b40 e055 00be
00000200: d78d f33f 53f4 083f f3c4 21be e48a 3dbe
00000210: 296a 98bd 5d97 31be f930 05be 0be0 0c40
00000220: 08f9 d6be a292 2bbe 13fb 18bc 43d1 e3bd
00000230: 3b0e 56bc 8874 0c3d e6fd 053d bbf4 d2be
00000240: 19bd cb3f 3e52 823e 6ab7 1140 5e42 5abe
00000250: 9d40 403e 9df4 733d
2.6283624 0.7552046 -0.21547978 -0.29930016 0.57562625 0.8689456 -0.46091083 0.05658538
-0.06767911 -0.67314845 0.15476143 -0.1789419 -0.1609164 -0.26949796 0.3641565 -0.45397416
-0.25330755 2.789318 -0.013666122 -0.3045146 -0.16535796 0.42763695 2.9882483 -0.42747682
-0.3756616 0.21227418 0.43478125 -0.181759 0.031701446 2.0707421 0.16423601 -0.2756979
-0.05795346 0.042575173 3.1629848 0.018500086 1.321588 2.4113696 -0.045857683 -0.24562602
-0.20251513 -0.25711414 2.662213 -0.58562416 0.15414688 -0.15526709 -0.34001005 2.5432372
-0.5527147 0.021854581 2.6173954 -0.11197005 0.85421395 -0.07731701 2.4608526 2.2372324
0.16406995 -0.08132393 -0.15080154 -0.05764717 -0.35059166 -0.0016210787 -0.18520871 -0.19226559
-0.12816074 0.07563089 -0.2989043 -0.012372216 0.3264805 -0.17623198 2.9529178 -0.021011526
0.046531275 2.6950738 2.8732977 -0.013705962 -0.0066148443 0.052119967 -0.045151897 -0.46210077
-0.11548853 1.9480326 2.2495773 0.16596854 -1.2091702 -0.08417235 -0.2124314 -0.36913285
-0.04873194 -0.12364104 -0.37276384 2.669097 -0.13208166 1.7258734 -0.17171858 -0.15994734
0.04378548 -0.13995749 0.6507849 2.5946841 -0.08105525 0.61956304 -0.11088936 -0.43800536
2.8659027 0.013999822 -0.14959441 -1.1749243 -0.0004156187 2.6363611 -0.54314554 -0.55614245
2.2860518 0.32429194 0.07177563 -0.25325975 0.059018172 0.019474447 2.8101742 0.11078561
0.0123548 -0.10340373 2.8816109 -0.021395503 -0.25658125 -0.87722605 2.9268382 -0.12532759
1.9027661 0.5349781 -0.15797786 -0.18510014 -0.074421234 -0.17342897 -0.13006963 2.2011745
-0.4198687 -0.16755155 -0.0093372045 -0.11123898 -0.013064916 0.03429082 0.03271284 -0.4120234
1.5917083 0.2545337 2.2768197 -0.2131438 0.18774648 0.059559453

outputLayer.weight f4 [2, 150]
00000000: b1ae c33e 7669 06be 95ee 983c 6664 ccbe
00000010: c088 a43e f983 2d3f 0601 d5be 34ac 84be
00000020: 98f1 2fc0 a32d 3e40 0704 3e3c c39f 0fbf
00000030: e514 6b3f c978 833f 0b7e 0f3e 8e16 e3be
00000040: bb5a a33b 2848 213f d078 903c e3a5 1440
00000050: ea05 33bf cf40 82be b72b d33e 090e fbb9
00000060: 2632 7dc0 9f90 8abd 9d5e 613e 150a 963e
00000070: 95f7 a63f 852b 19bd 5155 83bf cdb6 2a3f
00000080: 7ba1 6740 6867 e13d 292f d13e 7d9e ec3d
00000090: 6674 1e3c c8b7 3c3f cad7 ccbf 9d94 9fbe
000000a0: cf61 1abf afde 6b3f f416 963e 729f a13f
000000b0: de4a a13e 0a35 02be 3993 973f 142b 2e3e
000000c0: 6cc0 f2be d8cd 1b3f d171 763e b463 9fba
000000d0: a3d9 15be 6758 0dbb c6cd fe3e 4490 d13e
000000e0: 9b8c 493f 56cb 80bd 0227 2a3f 8b26 0e3e
000000f0: 8db9 c33f 8c6a 16c0 5ec0 19bf 20f7 743f
00000100: 8d2a b3bf 422e 8f3d 0b65 3cbf 68ed febf
00000110: a1fd ab3d 8107 793c 9b8b 313f eb31 25bc
00000120: a57f 17bf d705 bf3e 1404 073f 7652 953d
00000130: 7d0b 97bd ee66 17bf 5961 d1be f673 2b3e
00000140: 537f 313f 51bd 843e 1eb0 493f 4d71 19bd
00000150: 5bdd b1be ed54 b3bd bf9a 6ebf 152c 86bf
00000160: a459 a13a 08f0 7bbf 2712 4abb ef30 903e
00000170: 5295 efbe 3add c83d 0d0b ddbc 4e58 ecbf
00000180: 550c 10bd abd5 173f e31e 433e ade8 303f
00000190: 59c1 00bf 70a9 63bd 6062 db3e 029b dcbf
000001a0: 2ec3 bc3e e6f5 29c0 5f5f 533f 4b04 b03c
000001b0: ad9d c9bd 4337 ce3e 2645 17bf 41b0 45bc
000001c0: 5b31 4cbb 4622 5e3f f3c2 c13d 4427 64bd
000001d0: a68b 9bbc 88ab d63c 4b34 b33e 3058 45bf
000001e0: dda0 383f 860f 48bf 9112 f23e 8764 0abf
000001f0: 4533 153f e8e9 77be d789 fd3e 6c45 26bd
00000200: fca7 803b 1de4 e3bd 9f14 95be 6f70 27bf
00000210: cabc ab3e ff0f 33bf cf51 8bbe 5177 1cbb
00000220: c075 cabe 33e6 78be c460 453f 5181 0740
00000230: 9adb d9bc b11b 85bf d315 e83e 5ae2 3cbe
00000240: 9567 503e dd6c ac3e 2a35 2b3e 194f fbbc
00000250: 69e1 3abe ee54 4fbd c53f 823f 6f85 443d
00000260: 828d 453d fed0 ba3d fe4b a6be fe51 f83e
00000270: 403c b13e 395c 18bf 6308 3a40 b33f 3cc0
00000280: 86b1 5ebd 3258 f03e f5cf 48bf f935 80bf
00000290: c0e3 f23d 9d9e 5c3f c99f 38bd 667e 123f
000002a0: 1d87 0dbc d338 0fc0 6b80 453f 88ec f0bd
000002b0: 260c ee3e 284d ac3d 4cf3 7d40 f1e4 8d3a
000002c0: 96fe 373c 2897 94be 622e b3bf aa01 1fbd
000002d0: c054 823f 2862 13bf b48a 68c0 7e1e 1cbd
000002e0: 1fbf ba3e d5a0 c0be 94c3 99bc 77a4 ea3e
000002f0: 7f17 d23f 76f6 f63d 233e 313e d17c 87bf
00000300: 3b5b 9f3e fa24 8cbf b875 97be 03ec 143e
00000310: 568b 9ebf 5bf9 eb3d 7673 323e 0330 10bf
00000320: 7c68 843e 76db 12bc e988 003e 488b 18bd
00000330: eb9e 123f 6b3b f2bd 7be5 3dbf ddee 09bd
00000340: 8588 19bf 8b0b 2fbe 4e0e bbbf 4212 0e40
00000350: 75e5 0cbf 6c2a 80bf 7f0f d93f 7562 b93d
00000360: c79e d6be 8fe3 0240 1c23 d23e b7e0 8dbc
00000370: e2bc 323f 122d 27bf 38c9 5abc 6d78 813e
00000380: d145 483f 1210 64be c6c4 f43d 2ba2 e7bd
00000390: 200c cf3e 6343 83bf 5eba 3dbf 48ac ff3e
000003a0: 93b5 853e 7383 57be b46a 133f 3219 973c
000003b0: 43ea 743f ad89 753f 80b1 183d d943 743f
000003c0: bb2f 87be 1f2b 923e 84a6 603f 9a6f 883b
000003d0: d70b 1abd b627 4fbf 07e2 cc3c 1fd6 04bf
000003e0: d319 913b fffa e53e d03a 083f bf4e 5a3e
000003f0: bc29 20bf 018b cb3f 79dc d53e 3579 2240
0.38219216 -0.13126168 0.018668452 -0.39920348 0.32135582 0.677795 -0.41602343 -0.2591263
-2.7491207 2.9715354 0.01159764 -0.5610315 0.9182876 1.0271236 0.14012925 -0.44353145
0.004985181 0.63000727 0.017635733 2.322625 -0.699309 -0.2544007 0.4124429 -0.00047884908
-3.9561858 -0.067658655 0.22008748 0.29304567 1.3044306 -0.03739502 -1.0260412 0.6668518
3.619231 0.11006051 0.40856293 0.11553667 0.009671306 0.7371793 -1.6003354 -0.3116807
-0.60305494 0.92136663 0.29314387 1.2626784 0.31502432 -0.12715545 1.1841804 0.1700862
-0.4741243 0.6086097 0.24066855 -0.0012160451 -0.14633803 -0.0021567584 0.49766368 0.40930378
0.7873017 -0.06288783 0.6646577 0.1388189 1.5291001 -2.350253 -0.60059154 0.9568958
-1.399736 0.06991245 -0.7359168 -1.9916201 0.08397985 0.015199543 0.69353646 -0.010082702
-0.59179145 0.37309143 0.527406 0.07291119 -0.07375238 -0.59141433 -0.40894583 0.16743454
0.69334906 0.25925687 0.7878436 -0.037461568 -0.34739193 -0.08756433 -0.93204874 -1.0482203
0.001231004 -0.98413134 -0.0030833574 0.28162333 -0.4679361 0.098078206 -0.026982808 -1.8464448
-0.03516801 0.59310406 0.19054751 0.69105035 -0.50295025 -0.05558151 0.42848492 -1.7234805
0.3686766 -2.6556334 0.825674 0.021486422 -0.098445274 0.40276536 -0.5908989 -0.012065948
-0.0031157348 0.8677105 0.09461012 -0.05570151 -0.018987488 0.02620484 0.35000834 -0.7708769
0.7212046 -0.78148687 0.4727979 -0.5405964 0.58281356 -0.24210322 0.49519226 -0.04059355
0.0039262753 -0.111274935 -0.29117295 -0.65405935 0.33542472 -0.69946283 -0.27210853 -0.002387483
-0.3954296 -0.24306564 0.7710078 2.1172678 -0.026593972 -1.0399076 0.4532915 -0.18445721
0.20352013 0.33676806 0.16719499 -0.030677365 -0.1825005 -0.050618105 1.0175711 0.047978815
0.048230655 0.09121893 -0.32479852 0.48500055 0.3461628 -0.5951572 2.906762 -2.941388
-0.05436852 0.46942288 -0.7844232 -1.0016471 0.11859846 0.86179525 -0.045074258 0.5722412
-0.008638171 -2.2378433 0.77149075 -0.11763865 0.46493644 0.08413154 3.9679747 0.0010825676
0.011230132 -0.29021573 -1.399853 -0.038819946 1.0182114 -0.5757165 -3.6334658 -0.038115017
0.3647394 -0.37622705 -0.018770017 0.45828602 1.641342 0.120587274 0.1730886 -1.0584966
0.3112429 -1.0948784 -0.29582 0.14543156 -1.2386272 0.1152217 0.17426857 -0.5632326
0.25860965 -0.008963456 0.12552227 -0.037242204 0.5727374 -0.11827739 -0.74178284 -0.033675063
-0.5997394 -0.17094247 -1.461374 2.2198644 -0.55037624 -1.0012946 1.6957854 0.09051982
-0.41918012 2.045139 0.4104241 -0.017319066 0.6981946 -0.65303147 -0.013353638 0.2528719
0.7823153 -0.22271755 0.11951594 -0.11310228 0.40438938 -1.025494 -0.741125 0.49936128
0.26115093 -0.21046238 0.5758469 0.018444631 0.95669955 0.959132 0.037278652 0.9541603
-0.26403603 0.28548524 0.8775408 0.0041636946 -0.037608948 -0.8091997 0.025010122 -0.5188922
0.0044281273 0.44918057 0.5321474 0.21319102 -0.6256368 1.5901796 0.4176977 2.538648

outputLayer.bias f4 [2]
00000000: 15c2 2640 e986 3c40
2.6055958 2.9457343
