ftl/pretrain/weight/scratch_web_0/scratch_web_0_5.pth (torch, 187615 bytes, 8 tensors)

hiddenLayer1.weight f4 [150, 3]
0	0xbe4faa63	-0.20279841
1	0xbf2a38ce	-0.6649293
2	0x3d9df6f6	0.0771312
3	0xbeeba0af	-0.4602103
4	0xbe3faebe	-0.18719003
5	0xbe7e811b	-0.24853937
6	0xbca2e09f	-0.019882498
7	0x3e4fc17e	0.20288655
8	0xbf092042	-0.53564847
9	0xbf621b52	-0.8832294
10	0xbec7867e	-0.38969797
11	0xbe3060f1	-0.1722448
12	0xbb4d37ce	-0.003131378
13	0x3cab1bbd	0.02088725
14	0x3d876d83	0.066126846
15	0xbce57d94	-0.028013982
16	0x3ac83037	0.0015273158
17	0xbc97f2c1	-0.018548371
18	0x3e6d6f94	0.23187095
19	0xbc839ab8	-0.016064987
20	0x3f16fe81	0.5898209
21	0x3d40c268	0.0470604
22	0xbd5969c2	-0.053079374
23	0x3fc5d1f6	1.54547
24	0xbdb95513	-0.0904943
25	0x3e19e2f9	0.1502799
26	0xbea06f37	-0.3133485
27	0xc01227ef	-2.2836874
28	0xbdfdac29	-0.123863526
29	0xbdc9103d	-0.0981755
30	0xbebf340b	-0.37344393
31	0xbeea34a9	-0.45743302
32	0xbf3c70de	-0.7360972
33	0xbc57df01	-0.013175727
34	0x3c79d8a0	0.015249401
35	0xbf84403e	-1.0332105
36	0xc0aae813	-5.3408294
37	0x3d66fff9	0.05639646
38	0xbe90c820	-0.28277683
39	0xbf8c302f	-1.0952204
40	0xbe62b067	-0.22137605
41	0xbe8be43d	-0.2732257
42	0xc00cc2c0	-2.1993866
43	0xbc28726e	-0.010281188
44	0x3b4d70fc	0.0031347862
45	0xbec21b34	-0.3791138
46	0xbdd402d7	-0.10352104
47	0x3e029167	0.12750779
48	0x3d8c3e2c	0.06847796
49	0x3f0e6e0e	0.5563668
50	0x3ece19ae	0.40253967
51	0xc07ba0b0	-3.9316826
52	0xbd070ef0	-0.03297323
53	0x3cf0180e	0.029308345
54	0xc0852651	-4.1609273
55	0x3d21973e	0.039450876
56	0xbe2bb58d	-0.16768475
57	0x3dd86f91	0.105681546
58	0xbc98b489	-0.018640773
59	0x3eac8796	0.33697194
60	0xbf00c19c	-0.50295424
61	0xbb62a611	-0.0034583847
62	0x3d4ab131	0.04948539
63	0x3dcd9492	0.10038103
64	0x3f497f8f	0.78710264
65	0x3f3935c6	0.72347677
66	0xbd0311fd	-0.031999577
67	0xbebfbc06	-0.37448138
68	0x3f0ed6ce	0.55796516
69	0xbd1e3475	-0.038624246
70	0x3a610536	0.00085838453
71	0x3e091279	0.13385953
72	0x3df43028	0.119232476
73	0xbdbc4ab4	-0.09193936
74	0x3f5143d2	0.8174411
75	0xbf26608b	-0.6499106
76	0x3ced1790	0.0289419
77	0xbf1009fd	-0.5626524
78	0xbdb71467	-0.08939438
79	0x39f929b5	0.00047524055
80	0xbe97b5af	-0.296308
81	0xbe60b519	-0.21944083
82	0xbdd88bcc	-0.10573539
83	0xbdce004c	-0.100586504
84	0xbe954dba	-0.29160863
85	0x3f56b4d9	0.838697
86	0xbdd249e7	-0.10268002
87	0xbdbfb9e7	-0.0936163
88	0xbba652ea	-0.005075802
89	0x3d723709	0.059134517
90	0x3d55a7d4	0.052162006
91	0x3e30cc7e	0.17265508
92	0x3f432d80	0.762413
93	0x3e2a7e09	0.16649641
94	0xbed9efb5	-0.42565694
95	0x3e9bac4d	0.30404893
96	0xbeb4cb9a	-0.35311586
97	0xbd3abe1b	-0.045591455
98	0xbf2cf3c1	-0.6755944
99	0xc02e99a2	-2.728127
100	0xbd5d424b	-0.0540183
101	0xbdaca058	-0.08429021
102	0xbddd1848	-0.10795647
103	0xbe4975a8	-0.19673789
104	0xbd3ff49d	-0.04686414
105	0x3da1e18b	0.07904347
106	0x3c069a07	0.008215434
107	0xbe0e1344	-0.13874537
108	0xbc937330	-0.017999262
109	0xbddb6809	-0.107132025
110	0xbf513d1b	-0.81733865
111	0xbfc05693	-1.502642
112	0xbc680c50	-0.014163092
113	0xbe9ed59a	-0.3102234
114	0xbc87ab5b	-0.0165612
115	0xba37e93b	-0.000701565
116	0xbce39e89	-0.027785556
117	0xbfa5dbb3	-1.2957672
118	0xbf19e29c	-0.60111403
119	0xbe5aa8bb	-0.21353428
120	0x3e8a1998	0.2697265
121	0xbcf74669	-0.030184941
122	0x3fe12220	1.7588539
123	0x3d27db73	0.040980767
124	0xbf22fc58	-0.63666296
125	0xbfd0bbc6	-1.6307304
126	0xbb464ca3	-0.0030258081
127	0x3e2d5c15	0.16929658
128	0x3e0a4223	0.13501792
129	0xbba3ab66	-0.0049947975
130	0xbee1e3bb	-0.44119057
131	0xbe2dbcb4	-0.16966516
132	0xbf2a82d5	-0.66605884
133	0xbf01f756	-0.5076803
134	0x3ca87886	0.020565283
135	0xbf20eefe	-0.62864673
136	0xbdaa6977	-0.08320897
137	0xbeefb20e	-0.46815532
138	0x3e4f68b7	0.2025479
139	0xbcb61988	-0.022228971
140	0x3f5bde97	0.8588652
141	0xbdaa2dfe	-0.083095536
142	0xbc9f157a	-0.01941942
143	0xbfa943c6	-1.3223808
144	0xc04a3882	-3.159699
145	0x3cb4c487	0.022066368
146	0x3c239ad4	0.009985644
147	0xbb319d6e	-0.0027101892
148	0x3bd01f79	0.006351408
149	0xbe3c4c80	-0.18388557
150	0xb9c0fe35	-0.00036810493
151	0xbfa14eb2	-1.2602141
152	0x3f365272	0.7121955
153	0xbd7ab73a	-0.061209895
154	0xbefb4300	-0.49074554
155	0x3e864164	0.26221764
156	0xbeb60208	-0.35548425
157	0xbd40cdc8	-0.04707125
158	0x3c6f600c	0.014610302
159	0x3def1dca	0.11675604
160	0xbee4456a	-0.4458421
161	0x3ced5e33	0.028975582
162	0xbbe13607	-0.0068728956
163	0x3d14f8d3	0.03637011
164	0xbdd0c0a1	-0.10192991
165	0x3c848bd6	0.01617996
166	0x3eb9d756	0.362971
167	0xbfc26497	-1.5186948
168	0x3a2af1f7	0.0006521041
169	0x3d275b11	0.040858332
170	0x3e00a48b	0.12562768
171	0x3dc3ac39	0.09554333
172	0xbe79ab2e	-0.24381706
173	0xbdff2118	-0.12457484
174	0xc08f1713	-4.4715667
175	0x3d335389	0.043780837
176	0x3e804bf4	0.25057948
177	0xbf136580	-0.5757675
178	0x3e183a4c	0.14865988
179	0xbf7359f0	-0.9505911
180	0x3ce1ecbe	0.027578708
181	0x3be4e34f	0.006985105
182	0x3d6d1865	0.057884593
183	0x3bd650a0	0.006540373
184	0x3eaf391a	0.34223253
185	0xbfab63b5	-1.3389803
186	0xbc59b5aa	-0.013287941
187	0xbd25de1a	-0.040495016
188	0xc000ab38	-2.0104504
189	0xbcd6e815	-0.026233712
190	0x3ed00273	0.4062687
191	0xbf39d884	-0.72596
192	0xc062ed7d	-3.5457451
193	0x3b7bbeb5	0.003841323
194	0xbf72f581	-0.9490586
195	0xbca37743	-0.01995433
196	0x3cf38854	0.029728092
197	0xbd7d4213	-0.06183059
198	0xbd9b8afe	-0.0759487
199	0x3f083901	0.5321198
200	0xbd0fb38c	-0.03508334
201	0xbd7e55af	-0.062093433
202	0xbe32e520	-0.17470217
203	0x3f84d552	1.03776
204	0x3c17559d	0.00923672
205	0x3f941da5	1.1571547
206	0x3f4aba82	0.7919084
207	0xbfd55f64	-1.6669736
208	0x3e528010	0.20556664
209	0x3d29dbd1	0.0414694
210	0xbbe8e649	-0.0071075303
211	0x3f81d2d4	1.0142465
212	0x3f010b9e	0.5040835
213	0xc084a9e8	-4.1457405
214	0xbd234c0d	-0.03986745
215	0xbf092db8	-0.53585386
216	0x3e16f56a	0.14742056
217	0x3f11374e	0.56725013
218	0xbe0fae11	-0.14031245
219	0xbde69c77	-0.11260312
220	0xbd049245	-0.032366056
221	0x3d706cf4	0.058697656
222	0xbc250eb0	-0.010074303
223	0x3e856e66	0.2606079
224	0x3ed7b192	0.42127663
225	0xbdc342f1	-0.095342524
226	0xbdb6dae0	-0.08928466
227	0xbd2f1051	-0.04274017
228	0xbfa81262	-1.313061
229	0x3c063309	0.008190879
230	0xbf3d0d2b	-0.7384822
231	0x3e364b37	0.1780213
232	0xbf22864d	-0.63486177
233	0x3e9b4ebd	0.3033351
234	0xbef79cff	-0.48361966
235	0x3ef3dc65	0.47629085
236	0xbe52d26b	-0.2058808
237	0x3dd7b4ce	0.10532533
238	0xbecc4d7e	-0.39902872
239	0x3f6f2182	0.93410504
240	0xbd3a730b	-0.04551987
241	0x3ef0d2d9	0.47035864
242	0x3eb211c1	0.3477917
243	0xbdf162ce	-0.117864236
244	0xbf135070	-0.5754461
245	0x3efde066	0.49585265
246	0xbd24c2b1	-0.040224735
247	0xbef01531	-0.46891168
248	0xbe01db73	-0.1268137
249	0x3819290d	3.6516274e-05
250	0x3a876dac	0.0010332367
251	0xbb1a6a78	-0.0023561995
252	0xbcfb3e04	-0.03066922
253	0xba4c70d9	-0.0007798798
254	0xbdd4b601	-0.10386277
255	0xbfd27b52	-1.6443884

hiddenLayer1.bias f4 [150]
0	0xbfaccc79	-1.34999
1	0x3f090b28	0.5353265
2	0xbdfbcfa1	-0.122954614
3	0xbf322157	-0.6958212
4	0xbf1f6b26	-0.6227287
5	0xbcc0d286	-0.023537885
6	0x3fba1be9	1.4539768
7	0x3fb945e6	1.4474456
8	0x3f39b17c	0.72536445
9	0xbf5a7ee4	-0.8534987
10	0xbf424dcd	-0.75899965
11	0xbec05ab5	-0.37569204
12	0xbef3dcb2	-0.47629315
13	0xbea6f8b4	-0.3261162
14	0xbe1e1d73	-0.15440921
15	0x3f1338a0	0.5750828
16	0x3f864e15	1.0492579
17	0xbec3a685	-0.38212982
18	0xbecba7c8	-0.39776444
19	0x3f9ba008	1.2158213
20	0xbe937689	-0.28801373
21	0xbfb6ee7c	-1.429153
22	0xbf01ef87	-0.50756115
23	0xbf5ef103	-0.87086505
24	0xbffa1c0a	-1.9539807
25	0xbef75021	-0.4830332
26	0x3f2d28d1	0.67640406
27	0xbf4a3837	-0.7899203
28	0xbf3c34bc	-0.73517966
29	0xbef8e11f	-0.48609254
30	0x3fd6b58c	1.6774154
31	0xbfcaaca7	-1.5833939
32	0xbf38d9b5	-0.72207195
33	0xbecc00a6	-0.39844245
34	0x3f29d46f	0.6633977
35	0xbfc82554	-1.5636392
36	0xbf9d928a	-1.2310345
37	0xbefb5dad	-0.49094906
38	0xbd087945	-0.033318777
39	0xbed2a63c	-0.41142452
40	0x3f737b62	0.9511014
41	0xbfebfed3	-1.8437141
42	0x3f753b9e	0.95794094
43	0x3f8d90b2	1.1059783
44	0xbf515e80	-0.8178482
45	0x3c458301	0.01205516
46	0xbffdcc49	-1.9827968
47	0x3d09eb18	0.03367147
48	0xbea010ac	-0.3126272
49	0xbe192f9a	-0.14959565
50	0x3f90dfc1	1.1318284
51	0xbf6b2268	-0.91849375
52	0xbea29f18	-0.31762004
53	0x3f8a304b	1.0795988
54	0x3f8b83b0	1.0899563
55	0xbf9caaa7	-1.2239579
56	0xbf6d89b2	-0.9278823
57	0x3f8c36c6	1.0954216
58	0xbfbe234f	-1.4854525
59	0xbf928f79	-1.1450034
60	0xbd0f1a14	-0.03493698
61	0x3f880aa8	1.0628252
62	0x3f98793b	1.1911997
63	0xbf542fab	-0.82885236
64	0xbf3e5c62	-0.74359715
65	0xbe3b9d2f	-0.1832168
66	0x3f27bc87	0.65522045
67	0xbf60db6a	-0.878348
68	0x3f31c062	0.6943418
69	0xbcd55a59	-0.026044058
70	0x3f1997f8	0.5999751
71	0xbf1d4164	-0.61427903
72	0xbfd1bf8f	-1.6386584
73	0x3f7a2c3f	0.97723764
74	0x3f3cb981	0.73720556
75	0x3f2e8fef	0.68188375
76	0xbf0e1451	-0.5549975
77	0x3f8b3b58	1.0877485
78	0xbf837671	-1.027052
79	0xbfd62cae	-1.6732385
80	0xbf12142b	-0.57062024
81	0xbf547470	-0.8299017
82	0xbf1ded94	-0.6169064
83	0xbce94d62	-0.028479282
84	0xbd993228	-0.0748027
85	0xbfa9bd1c	-1.3260837
86	0xbf3e8bfa	-0.7443234
87	0x3fa36bd7	1.2767285
88	0xbe0713cb	-0.13191144
89	0xbf27fdf3	-0.6562187
90	0xbf39aecb	-0.7253234
91	0xbe85d4af	-0.26138827
92	0xbf50e76b	-0.81603116
93	0xbe6f6824	-0.2337957
94	0xbf971adc	-1.1805072
95	0x3f826ab3	1.0188812
96	0x3f443db3	0.76656646
97	0x3e416db1	0.188895
98	0x3f9affe5	1.2109343
99	0xbf374d36	-0.7160219
100	0xbf839fd4	-1.0283151
101	0x3f3c12c2	0.7346612
102	0xbe3dfde5	-0.18553884
103	0xbf31a29d	-0.69388753
104	0xbee17e3b	-0.4404162
105	0x3f97bd79	1.1854697
106	0x3eee869b	0.4658707
107	0xbf6e2d59	-0.93037945
108	0xbe98728b	-0.2977489
109	0xbe39c344	-0.18140894
110	0xbe5e2218	-0.21692693
111	0xbf10cbe9	-0.5656114
112	0xbfb3d196	-1.4048336
113	0xbf6dd697	-0.92905563
114	0xbf926958	-1.1438398
115	0xbc8f3361	-0.017480554
116	0xbfb8982f	-1.4421443
117	0xbdde0c37	-0.108421735
118	0xbf552125	-0.832537
119	0x3eb0e2d1	0.34548047
120	0xbde3caef	-0.11122691
121	0xbf5990bc	-0.8498647
122	0xc0429aff	-3.0407102
123	0x3f9e4759	1.2365524
124	0xbdefd37a	-0.11710258
125	0xbcea5057	-0.028602762
126	0xbe88fdf3	-0.26756248
127	0xbde2dc24	-0.11077145
128	0xbca5b55b	-0.020228079
129	0xbf82a83f	-1.0207595
130	0xbfc7a27b	-1.559646
131	0xbebe4764	-0.37163842
132	0x3f87a058	1.0595808
133	0xbeb62815	-0.35577455
134	0xbfc2d4c5	-1.5221182
135	0xbf1f82ad	-0.6230877
136	0xbd0f7bb2	-0.035030074
137	0xbe7d4e9a	-0.24737015
138	0xbfb20d38	-1.3910284
139	0x3f1b9c11	0.60785013
140	0x3fc7e5be	1.5616987
141	0xbf6dcdaf	-0.92891973
142	0xc0068438	-2.10182
143	0xbf37544a	-0.7161299
144	0xbe8c5b63	-0.27413473
145	0xbdc5e3a6	-0.09662561
146	0xbeae892d	-0.34089032
147	0xbf9de0a0	-1.2334175
148	0xbd1fd2c8	-0.039019376
149	0x3fb68c35	1.4261538

hiddenLayer2.weight f4 [150, 150]
0	0xbf4477ae	-0.76745117
1	0xbff995bf	-1.9498824
2	0x3ec67d6f	0.38767573
3	0xbfc89941	-1.5671769
4	0xbf6278d2	-0.8846561
5	0x3d2247fd	0.039619435
6	0xbd75a0c3	-0.059967767
7	0xbc06633c	-0.00820237
8	0xbe205414	-0.15657073
9	0xbec92a25	-0.39289966
10	0x3e739cc6	0.23790273
11	0x3e1cf8eb	0.1532933
12	0x3eb8071c	0.35942924
13	0xbfd4b36e	-1.6617258
14	0xbe6b967a	-0.23006621
15	0xc0195a8a	-2.396151
16	0xbe5260c4	-0.20544726
17	0xbdafa0f2	-0.0857562
18	0xc0023ce7	-2.0349672
19	0xbe324f6c	-0.1741311
20	0xbffa451a	-1.9552338
21	0xbfa84db5	-1.3148714
22	0xbf61e052	-0.8823291
23	0xbef02928	-0.469064
24	0xbf08c58e	-0.53426445
25	0xbe7f6ab5	-0.24943049
26	0xbe26ab65	-0.1627632
27	0xbe9017c9	-0.28143147
28	0xbf016960	-0.50551414
29	0xbe5ea4ac	-0.21742505
30	0xbccc90ca	-0.024971385
31	0xc0122189	-2.2832968
32	0x3eae28a7	0.3401539
33	0xbf742aee	-0.95378006
34	0xbc9c408f	-0.019073753
35	0xbebbbe88	-0.366688
36	0xbf788919	-0.97084194
37	0xbf48b266	-0.78397214
38	0x3d8b368d	0.06797514
39	0xbf287ffa	-0.65820277
40	0xbeec79c9	-0.46186665
41	0xbd1e8004	-0.038696304
42	0xbe0d4e00	-0.13799286
43	0xbddeceb7	-0.108792715
44	0x3d651fb1	0.055938426
45	0xbda2909f	-0.079377405
46	0xbfabba24	-1.3416181
47	0xbcdb9e55	-0.026808897
48	0xbfbfa5a6	-1.4972427
49	0x3e279cb8	0.16368377
50	0xbf3e0c2b	-0.74237317
51	0xbf48d237	-0.7844576
52	0xbf635b2a	-0.8881098
53	0xbd814d6e	-0.06313597
54	0xbc53d802	-0.012929918
55	0x3fd006b2	1.6252043
56	0xbf2d97de	-0.67809856
57	0x3e0a6b4a	0.1351749
58	0x3ff7fee4	1.9374661
59	0x3e85ddc3	0.26145753
60	0xbfb16105	-1.3857733
61	0x3dd5fcc9	0.104486056
62	0x3e475146	0.19464597
63	0x3f3a1867	0.72693485
64	0x3efcc1dd	0.49366656
65	0x3e3a6638	0.18203056
66	0xbdb3ddb7	-0.08782523
67	0x3e5f8693	0.2182868
68	0xbda1bbff	-0.078971855
69	0xc00775f1	-2.1165736
70	0xbe84228a	-0.258076
71	0xbf75c8db	-0.96009606
72	0xbdf06162	-0.11737324
73	0x3b94e527	0.0045439187
74	0xbe4282a8	-0.18995154
75	0xbeed1e4b	-0.46312174
76	0xbfb4d28a	-1.4126751
77	0xbe46184d	-0.19345208
78	0xbe7cf235	-0.2470177
79	0x3ea9f7ef	0.3319697
80	0xbe1dff40	-0.15429401
81	0xc05756c7	-3.3646715
82	0xbfc73311	-1.5562459
83	0xbdabab7f	-0.0838232
84	0x3d4d14d1	0.05006868
85	0x3f2394ac	0.6389873
86	0xbdafd691	-0.08585847
87	0x3e47571e	0.19466826
88	0xbfa211eb	-1.2661718
89	0x3db5ef09	0.08883483
90	0xbf51dc40	-0.819767
91	0xbf007725	-0.501818
92	0xc006d24d	-2.1065857
93	0xbf1557e3	-0.5833723
94	0xbefb88e6	-0.49127883
95	0x3db6b602	0.08921434
96	0x3d868c0d	0.06569681
97	0xbfbef5d9	-1.4918777
98	0x3daa049d	0.08301661
99	0xbf32ddce	-0.698697
100	0xbe351e9b	-0.17687456
101	0xbe57294b	-0.21011846
102	0x3e2952d1	0.16535498
103	0xbf4a05e2	-0.78915226
104	0xc0262aa8	-2.5963535
105	0xbe88c435	-0.26712194
106	0xbee7eb22	-0.4529658
107	0xbe3062ff	-0.17225264
108	0xbf1cd08b	-0.6125571
109	0xbec038f0	-0.3754344
110	0xbddcb66b	-0.10776981
111	0x3cbd8fc1	0.023139836
112	0xbffbbb9a	-1.9666626
113	0xbf9cde11	-1.2255269
114	0xbe152d75	-0.14568122
115	0x3c2de3d8	0.010613404
116	0xbecac09f	-0.39600083
117	0xbefa89ef	-0.4893336
118	0xbe80dbaa	-0.2516759
119	0xbf6f393f	-0.93446726
120	0xb95c6f1e	-0.0002102223
121	0xc0023a8e	-2.034824
122	0xbfa88e53	-1.3168434
123	0xbdf7a0e7	-0.120912366
124	0xbe3d73fd	-0.18501277
125	0xbe74002e	-0.23828194
126	0xc019a690	-2.4007912
127	0xc03be9dd	-2.936149
128	0xbd20d002	-0.03926087
129	0xb9885c28	-0.00026008603
130	0x3f444404	0.76666284
131	0xbf3de4bc	-0.74177146
132	0xbdc6d890	-0.09709275
133	0x3e4feb40	0.20304585
134	0xbf1db552	-0.616048
135	0x3e949fbe	0.29028124
136	0x3c2845ca	0.010270545
137	0xbfbf05d9	-1.492366
138	0x3e078c50	0.13237119
139	0x3bb7f829	0.0056143
140	0x3db3a4bf	0.08771657
141	0xbe9d7b80	-0.30758286
142	0xbdb1e213	-0.08685698
143	0xbebf4f3c	-0.3736514
144	0xbe87bc93	-0.26511058
145	0x3f0c3e00	0.54782104
146	0xbef15cb5	-0.47141042
147	0xbf13f2b1	-0.5779219
148	0x3d58b2b6	0.052904807
149	0xbda3b768	-0.07993966
150	0xbf554ce7	-0.8332047
151	0xbe4f35d4	-0.20235378
152	0x3b15e05e	0.002286933
153	0xc0134e78	-2.3016644
154	0xbf28af98	-0.65892935
155	0xbd49987a	-0.04921768
156	0xbe009621	-0.1255727
157	0xbe0d9b0f	-0.13828681
158	0xbdf9902d	-0.121857025
159	0xbfc711d7	-1.5552319
160	0xbebfac87	-0.37436315
161	0x3ea75869	0.3268464
162	0x3e9d42cb	0.30715021
163	0xc0a3b65e	-5.1160116
164	0xbec415e1	-0.38297942
165	0xbe3bb888	-0.18332112
166	0xbe336340	-0.1751833
167	0xbe28d021	-0.16485645
168	0x3ebbddb9	0.36692598
169	0xbe15191b	-0.14560358
170	0x3dd57d1e	0.10424255
171	0x3dda85d3	0.10670056
172	0xbe847494	-0.25870192
173	0xbebcab1b	-0.36849293
174	0xbf963d1e	-1.1737401
175	0x3e01dcd6	0.12681898
176	0x3b88935c	0.004167957
177	0xbe044871	-0.12918259
178	0xbfa12601	-1.2589723
179	0x3be7565e	0.0070598563
180	0x3e00a3a3	0.12562422
181	0xbf667fb6	-0.9003862
182	0x3ff8d503	1.9440006
183	0xbdbe84a7	-0.09302645
184	0xbe3a5fff	-0.18200682
185	0x3ed7732f	0.42080066
186	0xbf15ddd3	-0.585416
187	0x3eee8dfc	0.465927
188	0x3d42d74f	0.047568616
189	0x3f73079a	0.94933474
190	0xbf4671c8	-0.77517366
191	0x4040b144	3.0108194
192	0xbd858599	-0.06519622
193	0xbe005bbd	-0.12534995
194	0x400b8e85	2.1805737
195	0xbd8cf4e9	-0.068826504
196	0xbeff2b35	-0.49837652
197	0x3d207b16	0.039179884
198	0x3e98d0b5	0.2984673
199	0x3d279974	0.04091783
200	0xbfa9f3e1	-1.3277551
201	0xc0ca320f	-6.3186107
202	0x3c9b6ea8	0.018973663
203	0xbeb3deb9	-0.3513086
204	0xbc08a075	-0.008339037
205	0x3fbe2975	1.4856402
206	0x3f1294ec	0.57258487
207	0xbd47a775	-0.048743684
208	0xbdae4692	-0.08509554
209	0xbeffd325	-0.49965778
210	0xbe700722	-0.23440221
211	0x3caa5645	0.02079309
212	0x3c4b40e0	0.012405604
213	0xbec05523	-0.37564954
214	0x4058574a	3.3803277
215	0xbea1e53e	-0.3162021
216	0xbea04791	-0.313046
217	0x3e28589b	0.1644005
218	0xbe3353e1	-0.17512466
219	0xbe198b6a	-0.14994588
220	0xbeea8725	-0.45806232
221	0x3f8792b2	1.0591643
222	0xc0acfdb8	-5.4059715
223	0x3caf28f8	0.02138184
224	0xbe4097a0	-0.1880784
225	0xbe6044c4	-0.21901232
226	0xbf4f3d59	-0.80952984
227	0xbf1bd93c	-0.6087835
228	0x3cbacef3	0.02280376
229	0xbf9bbcf7	-1.2167042
230	0x3ea99344	0.33120167
231	0xc02b0365	-2.6720822
232	0xc013651a	-2.3030457
233	0xbd2f2d20	-0.042767644
234	0xbdd2396a	-0.10264857
235	0x3ca7f05c	0.020500354
236	0xc01792f3	-2.368344
237	0x3d26060f	0.04053312
238	0xbe083755	-0.13302357
239	0x3edabcc3	0.4272214
240	0xbff3e73c	-1.9054942
241	0x3ffd76c5	1.980187
242	0x3f5fb373	0.8738319
243	0x3f7d58c1	0.9896355
244	0xbef56ea7	-0.47935984
245	0x3d3348c4	0.043770567
246	0x3d760b31	0.060069267
247	0xbfc16b89	-1.5110942
248	0x3dccc4c8	0.099984705
249	0x3e5b0c0b	0.21391313
250	0xbf8de18c	-1.1084456
251	0xbe9e0960	-0.30866528
252	0x3dfafbeb	0.12255081
253	0xbd9aebb6	-0.075644895
254	0xbe102a9f	-0.14078759
255	0xbd83addd	-0.06429646

hiddenLayer2.bias f4 [150]
0	0x3e0258da	0.12729207
1	0x3e8554dd	0.26041308
2	0x3d559483	0.052143585
3	0x3f37357e	0.71566
4	0x3e3730df	0.17889737
5	0xbe110301	-0.14161302
6	0x3c1a59f5	0.0094208615
7	0xbd81f040	-0.06344652
8	0x3db88496	0.09009664
9	0x3c88a75d	0.016681368
10	0x3c8313c0	0.016000628
11	0x3bbdd806	0.0057935743
12	0x3e0da487	0.13832293
13	0xbd011ce4	-0.031521693
14	0xbc029981	-0.0079711685
15	0x3c7c0ac6	0.015383428
16	0x3f07ba01	0.53018194
17	0x3dda09ef	0.10646426
18	0x3e00d548	0.1258136
19	0x3fa86e33	1.315863
20	0x3d86a132	0.06573714
21	0x3c9b6e30	0.01897344
22	0x3e033013	0.12811308
23	0x3dc07dbb	0.09398981
24	0xbd86c1cc	-0.065799326
25	0xbd83b4c2	-0.06430961
26	0x3e15e650	0.14638638
27	0x3fc90288	1.5703897
28	0x3da031be	0.078219876
29	0xbc511401	-0.012761117
30	0x3dfd15b3	0.123576544
31	0xbe09da35	-0.13462146
32	0x3be20a81	0.006898225
33	0x3e596db1	0.2123325
34	0xbd0c8d80	-0.034314632
35	0x3c453cb8	0.012038402
36	0x3d128c97	0.03577861
37	0x3eca0275	0.39455
38	0x3f84957e	1.0358121
39	0x3c9295f5	0.01789377
40	0x3dc87f10	0.0978986
41	0x3e328e0f	0.17437004
42	0x3f4049b2	0.7511245
43	0xbd2f6224	-0.042818204
44	0xbdcb56bb	-0.09928652
45	0xbe302a29	-0.17203583
46	0xbf30d6af	-0.6907758
47	0xbda88492	-0.08228411
48	0x3fadfc41	1.3592607
49	0x3e696fb9	0.22796525
50	0xbf1dfdc0	-0.61715317
51	0x3d899d33	0.067194365
52	0x3cac323b	0.021020046
53	0xbd3311af	-0.043718036
54	0xbd980517	-0.07422846
55	0x3ec6cf40	0.38829994
56	0xbc0e68b9	-0.00869196
57	0xbe1c3be6	-0.15257224
58	0x3d790416	0.060794912
59	0x3e4f061a	0.20217171
60	0xbd567965	-0.052361865
61	0x3e919111	0.2843099
62	0xbd7b3ef3	-0.06133933
63	0x3ce4a293	0.027909553
64	0x3d186e76	0.03721472
65	0x3ff5ff55	1.9218546
66	0xbee8f236	-0.45497292
67	0x3ea0a440	0.31375313
68	0x3e0280b9	0.12744416
69	0x3f09841b	0.537172
70	0x3e2282af	0.15870164
71	0x3c392c0c	0.0113020055
72	0x3e4734a2	0.19453672
73	0x3ff1e6b9	1.8898536
74	0x3d5abb4c	0.053401276
75	0xbdfb6e89	-0.12276942
76	0x3e80fce0	0.25192928
77	0x3f7231c2	0.94607174
78	0x3c7f3f80	0.015579104
79	0x3edd1b67	0.4318497
80	0xbf6e8fcd	-0.9318817
81	0x3dc14ccd	0.09438477
82	0x3ded7b9c	0.11595842
83	0xbd29d021	-0.041458253
84	0x3de4aca7	0.11165743
85	0x3fa9b0e3	1.3257107
86	0x3c7e3cbf	0.015517413
87	0xbd1d298f	-0.03836971
88	0x3f04c72e	0.51866424
89	0xbc921479	-0.017832028
90	0x3e3ee27d	0.18641086
91	0x3e21b2b0	0.1579082
92	0x3e95a80a	0.29229766
93	0xbd688218	-0.056764692
94	0x3dab6859	0.08369512
95	0xbe203bf3	-0.15647869
96	0x3d2f0303	0.04272748
97	0xbd4adfc3	-0.049529802
98	0x3e46ec53	0.19426088
99	0x3fe380a5	1.7773634
100	0x3d971626	0.07377271
101	0xbe1bca61	-0.1521392
102	0x3d477e66	0.048704527
103	0x3f48c42b	0.7842433
104	0x3d4c0335	0.049807746
105	0x3fe5a298	1.7940245
106	0x3eab6b35	0.3348023
107	0x3c4e8293	0.0126043735
108	0x3fba76b2	1.4567473
109	0xbed3c62a	-0.41362125
110	0x3c06f839	0.008237892
111	0x3f4b9687	0.7952656
112	0xbf23e13c	-0.64015555
113	0x3fe93a3a	1.8220894
114	0x3fccc9bf	1.5999068
115	0x3c47dabe	0.012198148
116	0xbf22c453	-0.63580817
117	0x3e14da84	0.14536482
118	0xbe86ac58	-0.26303363
119	0x3d91e356	0.07123439
120	0xbd1e9ebd	-0.038725603
121	0xbeddd9fe	-0.43330377
122	0x3f15ea73	0.58560866
123	0xbd42d620	-0.047567487
124	0xbefa65e5	-0.48905864
125	0x3fa7e8c1	1.3117906
126	0xbde428a0	-0.11140561
127	0x3d960532	0.0732521
128	0x3ed9b09a	0.4251755
129	0x3ad140cd	0.0015964747
130	0x3e34538a	0.17609993
131	0xbd7695e1	-0.06020153
132	0x3fedf357	1.8589886
133	0x3efa7f7c	0.48925388
134	0x3b05709e	0.0020361315
135	0x3f1ceabb	0.6129567
136	0x3d55054e	0.052007012
137	0xbd0869e3	-0.033304106
138	0x3eda2970	0.4260974
139	0xbea1e675	-0.31621137
140	0x3f9c3ef5	1.2206713
141	0x3db1390e	0.086534604
142	0xbdb6b8ae	-0.089219436
143	0x3d50c216	0.050966345
144	0xbd6b6458	-0.057468742
145	0x3ce6ad5b	0.028158834
146	0x3d6d7154	0.057969406
147	0xbdcdb04d	-0.10043392
148	0xbd43bc4e	-0.047787003
149	0xbd4f672a	-0.050635494

hiddenLayer3.weight f4 [150, 150]
0	0xbe0d0b52	-0.1377385
1	0x3c716786	0.014734155
2	0xbdbc2daf	-0.09188401
3	0x3e86ad8e	0.26304287
4	0x3d416045	0.04721095
5	0xbd961e48	-0.073299944
6	0x3e3507fb	0.17678826
7	0xbd9e0890	-0.07716477
8	0x3ef3bf4d	0.47606888
9	0x3e1ea761	0.15493537
10	0x3dd8c204	0.105838805
11	0x3eb1807e	0.34668344
12	0x3ecd93ee	0.40151924
13	0x3ea9041a	0.33010942
14	0xbc401cf3	-0.011725652
15	0xbe641d06	-0.22276697
16	0x3ebd17f3	0.36932334
17	0x3e925956	0.28583783
18	0xbe1daeed	-0.1539876
19	0x3eae523d	0.34047118
20	0xbd829b7e	-0.06377314
21	0xbd668d1a	-0.05628691
22	0x3ee8a9d2	0.45442063
23	0x3dbb0005	0.09130863
24	0x3d8f8d49	0.0700937
25	0xbe36c159	-0.17847194
26	0xbeae5edb	-0.34056744
27	0x3f424da1	0.758997
28	0xbe0a3635	-0.13497241
29	0xbe9dba45	-0.30806175
30	0xbea46504	-0.3210832
31	0xbe8aa865	-0.270816
32	0xbe69c0f8	-0.22827518
33	0x3ea92caf	0.33041903
34	0xbc8af008	-0.016960159
35	0x3e760112	0.24023846
36	0xbe9f1c0d	-0.3107609
37	0x3d719af2	0.058985658
38	0x3ecd72ac	0.4012655
39	0x3e53612e	0.2064254
40	0x3d854622	0.065075174
41	0x3dd3b9cc	0.10338172
42	0x3ea45ce4	0.3210212
43	0x3ce2e231	0.027695747
44	0x3dcc0c81	0.099633224
45	0x3e31ded3	0.17370157
46	0x3d94382c	0.072372764
47	0xbf068159	-0.5254112
48	0x3ea5c900	0.32379913
49	0xbe45fc00	-0.19334412
50	0x3ebbd18f	0.36683318
51	0x3d8850a4	0.06656006
52	0xbe61a1e7	-0.22034417
53	0x3e75fd05	0.240223
54	0xbeebd706	-0.46062487
55	0xbc59fa6c	-0.013304334
56	0xbf32202d	-0.69580346
57	0xbe85c026	-0.2612316
58	0x3d249dd4	0.04018958
59	0x3b0c54f6	0.0021412945
60	0xbead054f	-0.33793113
61	0x3e9427b5	0.28936544
62	0x3ec16641	0.37773326
63	0xbf556d43	-0.83369845
64	0xbeb6dae2	-0.3571387
65	0x3f37c7d8	0.7178931
66	0x3eff916f	0.49915645
67	0xbe799f79	-0.2437724
68	0xbe9caf03	-0.30602273
69	0x3ebcc440	0.36868477
70	0x3ea96d2f	0.33091113
71	0x3d319bf9	0.043361638
72	0x3b5ef2d3	0.0034019246
73	0x3f3bc010	0.7333994
74	0x3df0bdfe	0.11754988
75	0x3dce91c6	0.10086398
76	0x3dbe545a	0.092934325
77	0x3da4cba7	0.08046656
78	0xbe9f0f26	-0.31066245
79	0x3ddcc5af	0.10779893
80	0xbf47af51	-0.78001887
81	0xbf45b42d	-0.7722805
82	0x3e403462	0.18769982
83	0x3dbacf9b	0.09121629
84	0x3e27d02d	0.16388007
85	0x3eeb54b2	0.45963055
86	0xbd6038c1	-0.054741625
87	0x3e58dd64	0.21178204
88	0x3e37e5fe	0.17958829
89	0x3d6fa879	0.058510277
90	0x3e1452d6	0.14484724
91	0x3e1165c7	0.14198981
92	0x3e54c1f2	0.2077711
93	0x3e809c6e	0.25119346
94	0xc01dd243	-2.4659584
95	0xbbd8b83c	-0.0066137593
96	0x3ed49dff	0.4152679
97	0x3e4460d0	0.19177556
98	0x3e56c1aa	0.20972314
99	0x3ed68361	0.4189711
100	0x3c851247	0.016244067
101	0xbe830d92	-0.2559629
102	0x3f1d1510	0.61360264
103	0x3ee6d4dc	0.45084274
104	0xbd739c38	-0.059475154
105	0x3f05bf2e	0.5224484
106	0xbe2cafbd	-0.16863914
107	0x3edba682	0.42900473
108	0x3f1bf623	0.6092245
109	0x3d6d9281	0.058001045
110	0xbcdfd806	-0.027324688
111	0x3f0132d1	0.50468165
112	0xbe3232e9	-0.17402233
113	0x3f23f7cf	0.6405
114	0x3f454807	0.7706303
115	0x3bf2fb6f	0.007415227
116	0xbece937a	-0.4034689
117	0xbf8275bb	-1.0192178
118	0x3ecd4db4	0.40098345
119	0x3de3c359	0.11121244
120	0x3d106fdd	0.03526293
121	0x3e6f6009	0.23376478
122	0x3de2b2e0	0.11069274
123	0x3d2ee984	0.042703167
124	0xbd5156c9	-0.051108155
125	0x3ea813ba	0.3282755
126	0xbe0ae99c	-0.13565677
127	0xbda91f57	-0.08257931
128	0xbe8d2757	-0.27569076
129	0xbe84c0b7	-0.2592828
130	0xbd766ea8	-0.060164124
131	0x3dfa000d	0.12207041
132	0x3eb5cc44	0.35507405
133	0x3e3120c6	0.17297658
134	0xc01b51c5	-2.4268658
135	0x3e993166	0.299205
136	0x3df5d74f	0.120039575
137	0xbdc06d91	-0.09395898
138	0xbe104c03	-0.14091496
139	0x3c834b57	0.016027136
140	0x3e965023	0.29358014
141	0xbeab64e2	-0.33475405
142	0x38881709	6.489276e-05
143	0xbe68730c	-0.22700137
144	0xbaa06ad9	-0.0012238874
145	0xbe85a97d	-0.26105872
146	0x3ea71719	0.3263481
147	0x3d570b1f	0.05250084
148	0xbe7db367	-0.24775468
149	0xbe5eafc7	-0.21746741
150	0xbed0ae1c	-0.40757835
151	0xbe2234c3	-0.1584044
152	0xbec7b1cd	-0.3900284
153	0x3d59fd35	0.053219993
154	0x3d824d9f	0.06362461
155	0xbe8cf5b6	-0.27531213
156	0xbf0c9be1	-0.5492535
157	0x3f09aebd	0.53782254
158	0x3f063004	0.52417016
159	0xbed014e5	-0.4064094
160	0x3e0ab9ac	0.1354739
161	0x3f3c0d95	0.73458225
162	0x3d33bad3	0.04387934
163	0xbe321893	-0.17392187
164	0xbca953fd	-0.020669932
165	0x3de5d391	0.11221994
166	0x3ddb40fc	0.10705754
167	0x3e8b40e4	0.27197945
168	0xbd4c3abb	-0.049860697
169	0x3e212e3a	0.1574029
170	0xbe3f2572	-0.18666628
171	0xbc7a0480	-0.015259862
172	0xbe3f2c2d	-0.18669195
173	0xbf453c72	-0.7704536
174	0x3d9b81aa	0.07593091
175	0x3e4e7b60	0.20164251
176	0xbe8cacfb	-0.27475724
177	0x3da16d5d	0.078821875
178	0xbeb3ea91	-0.35139897
179	0xbe80e2b3	-0.25172958
180	0xbead8dff	-0.33897397
181	0xbda2469c	-0.07923624
182	0xbf0f0574	-0.55867696
183	0x3db6c289	0.089238234
184	0x3e952a4b	0.2913383
185	0xbe39631a	-0.1810421
186	0x3eff19af	0.49824283
187	0xbe4fa04a	-0.20275989
188	0xbe78718a	-0.24262062
189	0x3dfda1ef	0.12384402
190	0xbcdf8fe2	-0.027290288
191	0xbe6f2035	-0.2335213
192	0x3e857825	0.26068226
193	0x3d295af0	0.04134649
194	0xbe72b497	-0.23701702
195	0x3e23d306	0.15998468
196	0x3e597169	0.21234669
197	0xbe0c9788	-0.1372968
198	0xbefb9bf4	-0.4914242
199	0x3ed7203d	0.42016783
200	0x3e4eb3d3	0.20185785
201	0xbd43e8cc	-0.047829434
202	0x3e7d4705	0.24734123
203	0x3e806443	0.25076494
204	0xbca8723a	-0.02056228
205	0x3e248e44	0.16069895
206	0xbe134891	-0.1438315
207	0x3e3b5eef	0.18297933
208	0x3d95e6ac	0.07319388
209	0xbd9bba77	-0.07603925
210	0x3e1c39bd	0.152564
211	0x3ecc75ca	0.39933616
212	0xbee0027e	-0.437519
213	0xbda6de72	-0.08147897
214	0xbe8f8e95	-0.2803847
215	0x3dac250a	0.08405502
216	0xbe8e82c5	-0.27834144
217	0xbee55390	-0.44790316
218	0xbf497b56	-0.7870382
219	0x3d83f919	0.06443996
220	0xbe682697	-0.22670971
221	0xbd15c47b	-0.03656433
222	0xbd4eb004	-0.05046083
223	0xbe8482d0	-0.25881052
224	0x3ee7024a	0.45118934
225	0x3f14256f	0.5786962
226	0x3c651001	0.013980866
227	0xbd8bf482	-0.068337455
228	0x3de6d454	0.11270967
229	0xbe0d7f96	-0.13818201
230	0x3e93e593	0.2888609
231	0xbd5de1c7	-0.054170396
232	0xbe14943e	-0.14509675
233	0x3e10169a	0.14071122
234	0x3e183a91	0.14866091
235	0x3bf767d8	0.007550221
236	0x3b7c724e	0.003852028
237	0xbe915fb9	-0.28393343
238	0xba87878d	-0.001034008
239	0x3d83df32	0.064390555
240	0xbfc7ec86	-1.5619056
241	0xbcdb43d3	-0.02676574
242	0x3e6e3076	0.23260674
243	0x3ea9cd81	0.331646
244	0xbb802ace	-0.0039113527
245	0xbfbecb79	-1.4905845
246	0xbe1afd36	-0.15135655
247	0x3edcb389	0.43105724
248	0x3f6a0216	0.9140943
249	0x3d965a9e	0.073415026
250	0x3d557fd5	0.052123863
251	0x3cfa6b50	0.030568749
252	0x3e50f2a5	0.20405062
253	0x3ed0feaf	0.40819308
254	0x3c3dd728	0.011586942
255	0xbbb79e9c	-0.0056036245

hiddenLayer3.bias f4 [150]
0	0x3fe209d7	1.7659253
1	0x3fd8937c	1.6920009
2	0xbe5a4594	-0.21315604
3	0xbe05e307	-0.13074885
4	0x3f08b6fa	0.534042
5	0x3c91fccf	0.017820744
6	0xbedf22aa	-0.43581134
7	0xbe3795a9	-0.17928185
8	0xbd3f2e32	-0.046674915
9	0xbf2e9b55	-0.6820577
10	0x3dc9bbd9	0.09850282
11	0xbe43de88	-0.19127858
12	0xbdff2190	-0.124575734
13	0xbe64d8ce	-0.2234833
14	0x3fc70062	1.5546992
15	0xbede2f12	-0.43395287
16	0xbe7fe955	-0.24991353
17	0x3e1b35ff	0.15157317
18	0x3c833ed8	0.016021177
19	0xbe73b178	-0.23798168
20	0xbdd6519b	-0.10464784
21	0x3fb6d04e	1.428232
22	0x400791e5	2.1182797
23	0xbee19811	-0.4406133
24	0xbef1c090	-0.47217226
25	0x3b5a8cc4	0.0033348063
26	0x3fac1b58	1.3445845
27	0xbe2c8f44	-0.16851526
28	0x3d0efaff	0.034907337
29	0x3fedee7b	1.8588403
30	0x3e0df0bf	0.13861369
31	0xbe811a9d	-0.25215617
32	0xbd8c004d	-0.06835995
33	0xbd8ed054	-0.06973329
34	0x3fffbd9e	1.9979742
35	0x3f1a944b	0.6038253
36	0x3ffffbfe	1.9998777
37	0x3c5c889a	0.013460303
38	0x3d5575b9	0.052114222
39	0xbe4d4784	-0.20046812
40	0xbe30bf2d	-0.17260428
41	0xbe809e5c	-0.2512082
42	0x3ff0699d	1.8782231
43	0xbf159e5a	-0.5844475
44	0x3e16a2ac	0.14710492
45	0xbd409f00	-0.047026634
46	0xbebc65d4	-0.3679644
47	0x3fea5a4a	1.8308804
48	0xbef5a622	-0.47978312
49	0xbf111634	-0.56674504
50	0x3fe6e8b4	1.8039765
51	0x3d8cd3f2	0.06876363
52	0x3f482d13	0.7819378
53	0xbd3b1b47	-0.04568031
54	0x3f8a496c	1.0803657
55	0x3f8bf424	1.0933881
56	0x3e1b5161	0.15167762
57	0x3c655dc6	0.013999408
58	0xbe52d088	-0.20587361
59	0xbd3274e8	-0.04356852
60	0xbe9a3e0f	-0.30125472
61	0x3e0b4bc2	0.13603118
62	0xbe269f9a	-0.1627182
63	0xbe13c282	-0.14429668
64	0xbd92c4d0	-0.07166445
65	0x3d05397d	0.03252553
66	0xbe6466d8	-0.22304857
67	0x3c18d128	0.0093272105
68	0x3e29dca1	0.1658807
69	0xbe279ca8	-0.16368353
70	0x400b5b2f	2.1774404
71	0xbe0f0b83	-0.13969235
72	0x3e177b86	0.14793214
73	0x3fef4c7b	1.8695215
74	0x3fca6546	1.5812156
75	0x3e1b3d61	0.15160133
76	0x3c27d4e9	0.010243633
77	0x3e532f70	0.20623565
78	0xbd7719d9	-0.060327385
79	0xbe080479	-0.13282956
80	0xbda50de3	-0.08059289
81	0x3fd6bf7b	1.6777185
82	0x3fb72731	1.4308835
83	0x3fc23083	1.5171055
84	0xbf97e1ba	-1.1865761
85	0xbdac628e	-0.08417235
86	0xbe8173d9	-0.25283697
87	0xbeaa45cf	-0.33256385
88	0xbd2fd25a	-0.042925216
89	0xbe09527f	-0.13410376
90	0xbec89f3e	-0.39183992
91	0x3fee2177	1.8603963
92	0xbe2376a0	-0.1596322
93	0x3e759688	0.23983204
94	0xbe113d4c	-0.14183539
95	0xbe004dfd	-0.1252975
96	0x3d233097	0.03984126
97	0xbdebb38a	-0.11508854
98	0xbd79ad57	-0.060956325
99	0x3fdc9f5c	1.7236133
100	0xbe0bba60	-0.13645315
101	0x3f287848	0.65808535
102	0xbe363765	-0.17794569
103	0xbe9887ab	-0.29791006
104	0x40010e88	2.016512
105	0x3def9988	0.11699206
106	0xbe2f0af3	-0.1709402
107	0xbf925bde	-1.1434286
108	0x3e8796bf	0.26482198
109	0x3fe692af	1.8013514
110	0xbf08cd8a	-0.5343863
111	0xbefca5d0	-0.49345255
112	0x3fe05936	1.7527225
113	0x3e994e6b	0.2994264
114	0xbe9233d5	-0.2855517
115	0x3fd0c5d1	1.6310369
116	0x3d4c2813	0.049842905
117	0x3cee5354	0.029092468
118	0x3ffb6b5e	1.9642141
119	0x3e2d2818	0.16909826
120	0xbd10d2ca	-0.035357274
121	0x3ec3730c	0.3817371
122	0x3fffe324	1.9991193
123	0x3d04334a	0.032275476
124	0xbe5972af	-0.21235155
125	0xbf523249	-0.8210798
126	0x4000ae5b	2.0106418
127	0xbe203a20	-0.15647173
128	0x3fc57967	1.5427674
129	0x3f230299	0.6367584
130	0xbe13283f	-0.14370821
131	0xbe7f677d	-0.24941821
132	0x3bf4df59	0.007472914
133	0xbe3c960b	-0.18416612
134	0xbe88fbdf	-0.26754662
135	0x3fcc6245	1.596749
136	0xbd94f414	-0.07273117
137	0xbd274669	-0.040838633
138	0x3fc3433a	1.5254891
139	0xbe12363a	-0.14278498
140	0x3c168807	0.009187705
141	0xbce2831a	-0.027650405
142	0x3ebed215	0.37269655
143	0xbe9088b7	-0.28229305
144	0x3fc83a59	1.5642806
145	0x3e82d003	0.25549325
146	0x3f90422f	1.1270198
147	0xbe4dec21	-0.20109607
148	0x3f55ad9f	0.8346805
149	0x3d87fcac	0.0663999

outputLayer.weight f4 [2, 150]
0	0x3ecb2aa8	0.39680982
1	0x3e2f2f35	0.17107852
2	0x3d41e8db	0.04734121
3	0xbed8c105	-0.42334762
4	0x3e9f8e1e	0.31163114
5	0x3d48daac	0.049036667
6	0xbea52c2d	-0.32260266
7	0xbec41f6b	-0.3830522
8	0xc0269b20	-2.603218
9	0x403c8f1e	2.9462352
10	0xbc418e1d	-0.011813668
11	0xbf147693	-0.5799343
12	0x3f648952	0.89272034
13	0x3f6ee267	0.9331421
14	0x3e927f81	0.28612903
15	0xbe830112	-0.25586754
16	0x3c306fd3	0.0107688485
17	0xbeb1e022	-0.34741312
18	0xbc3a24ae	-0.011361284
19	0x40137cfe	2.304504
20	0xbf6f94d8	-0.9358649
21	0x3ddb1308	0.10696989
22	0x3e9bc5e7	0.30424425
23	0xbfab88e4	-1.3401151
24	0xc07c6373	-3.94357
25	0x3eadb48c	0.3392681
26	0x3ffea641	1.9894487
27	0x3e96d1a8	0.2945683
28	0x3fb74525	1.4317976
29	0x3ebc97bb	0.3683451
30	0xbf785cd3	-0.9701664
31	0x3f2cbb6f	0.674735
32	0x406a7a90	3.6637306
33	0x3f05843f	0.52154917
34	0x3e42efa6	0.19036731
35	0x3dfcc921	0.1234305
36	0x3eba0fa7	0.36340067
37	0xbd558f30	-0.052138507
38	0xbfd4aade	-1.6614645
39	0xbe80cea9	-0.2515767
40	0xbf4fb08c	-0.81128764
41	0x3f7f3676	0.99692476
42	0x3e77a562	0.24184182
43	0x3fa2f6f2	1.2731612
44	0x3e9e3243	0.30897722
45	0xbe3741e7	-0.17896233
46	0x3f9a3a09	1.2048961
47	0x3e91b8d7	0.28461334
48	0xbec44cb1	-0.3833976
49	0x3d5ea35e	0.054355018
50	0x3e793409	0.24336256
51	0xbc5ba27b	-0.013405438
52	0xbd228967	-0.03968182
53	0x3ce4a134	0.027908899
54	0x3f10ee86	0.5661396
55	0x3f0ad330	0.54228497
56	0x3f486c93	0.7829067
57	0xbeb56346	-0.35427302
58	0x3f3b0d72	0.7306739
59	0x3e882866	0.26593322
60	0x3fbfd3ea	1.4986546
61	0xc01b2c7b	-2.4245899
62	0xbf1a9562	-0.6038419
63	0x3f789444	0.97101235
64	0xbfd72469	-1.6807986
65	0x3e73d0bc	0.23810095
66	0xbd3506be	-0.044195883
67	0xc0075ecb	-2.1151607
68	0x3ead1b7a	0.33810025
69	0xbb9e1619	-0.0048244116
70	0x3f40bf6a	0.75292075
71	0x3e797b58	0.24363458
72	0x3e1bef05	0.15227897
73	0x3ebe04c2	0.37113005
74	0x3de4d711	0.11173833
75	0x3d98b550	0.074564576
76	0xbd6ae131	-0.057343666
77	0xbe96e69a	-0.2947281
78	0xbec505a2	-0.3848086
79	0xbf340d43	-0.70332736
80	0x3f37d691	0.7181178
81	0x3d7b0c64	0.061291113
82	0x3f6db92d	0.9286068
83	0xbc176c31	-0.009242103
84	0xbef4e145	-0.47828117
85	0xbdb354ed	-0.08756433
86	0xbfa1aa1a	-1.2630036
87	0xbf7288f1	-0.94740206
88	0xbcb70328	-0.022340372
89	0xbf72d487	-0.9485554
90	0x3f84a810	1.0363789
91	0x3e8ce7e3	0.27520666
92	0xbf2fa8eb	-0.68617123
93	0x3d28e7e4	0.041236773
94	0xbcc72767	-0.02431078
95	0xbf997190	-1.1987782
96	0xbd1d85e2	-0.03845776
97	0x3f17f720	0.5936146
98	0x3e0624f0	0.13100028
99	0x3ed67a79	0.41890314
100	0xbefce40f	-0.49392745
101	0xbc405d80	-0.011741042
102	0x3eb373cd	0.35049286
103	0xbfdaba91	-1.7088186
104	0x3e982b9c	0.2972077
105	0xc0269475	-2.602811
106	0x3f6a98f9	0.9163967
107	0xbc2833b4	-0.010266233
108	0xbc4204c7	-0.011841959
109	0x3eb38fb0	0.35070562
110	0xbf162ad4	-0.586591
111	0xbe797b75	-0.24363501
112	0x3e549f95	0.20764
113	0x3f4d0603	0.800873
114	0x3b3a8ec6	0.0028466447
115	0x3e91f76a	0.28509074
116	0xbcf7d02f	-0.030250637
117	0x3bb3c765	0.005486416
118	0x3e8dd725	0.27703205
119	0xbf46677e	-0.77501667
120	0x3f1d05b4	0.6133683
121	0xbd8ac836	-0.067764685
122	0x3eccd768	0.40008092
123	0xbee9eaa6	-0.45686835
124	0x3f1a77e0	0.60339165
125	0xbdbac5b6	-0.091197416
126	0x3eb8af23	0.3607112
127	0xbd26456c	-0.04059355
128	0x3e529ad6	0.20566878
129	0xbb483633	-0.0030549883
130	0xbe42daec	-0.19028825
131	0xbf3282ed	-0.69731027
132	0xbf4d061b	-0.8008744
133	0xbf27bedf	-0.6552562
134	0x3f9b457b	1.2130579
135	0x3dba0752	0.090834275
136	0xbcb07d65	-0.021544168
137	0xbeaca39b	-0.3371857
138	0x3f9095a6	1.1295669
139	0x40082608	2.1273212
140	0x3c849302	0.01618338
141	0xbec62843	-0.38702592
142	0x3e0faab5	0.14029963
143	0xbeb92ef8	-0.36168647
144	0x3dec8931	0.11549605
145	0x3ea89240	0.3292408
146	0xbe1e49d9	-0.15457858
147	0x3c24b7a2	0.010053547
148	0x3f1de18e	0.61672294
149	0xbd8a1447	-0.06742149
150	0x3f8794c7	1.0592278
151	0x3df4ac2d	0.119469024
152	0x3cc046c4	0.023471244
153	0x3f5560d3	0.8335087
154	0xbe9943ab	-0.2993444
155	0x3d6afffa	0.057373025
156	0x3ebd83a7	0.37014505
157	0xbee503e7	-0.4472954
158	0x401158f2	2.2710538
159	0xc03b41eb	-2.9258983
160	0x3bc283c8	0.0059361197
161	0x3e97d3a4	0.29653656
162	0xbf5b7fbb	-0.85741776
163	0xbf8bf52b	-1.0934194
164	0x3e04e809	0.1297914
165	0xbf2b495c	-0.6690881
166	0xbc818ca3	-0.015814131
167	0xbf1a39ae	-0.6024426
168	0xbd293a2a	-0.041315235
169	0xc00f834e	-2.2423892
170	0x3f60573f	0.87633127
171	0x3e9f571b	0.31121144
172	0x3ecffa92	0.40620857
173	0x3fd265b1	1.6437284
174	0x407aea50	3.9205513
175	0x3e7222ef	0.23646139
176	0x3febc468	1.8419313
177	0xbe94d269	-0.2906678
178	0xbfaedecf	-1.3661746
179	0x3eca2f15	0.39489046
180	0x3f875310	1.0572224
181	0xbf054b88	-0.52068377
182	0xc0672ab6	-3.6119819
183	0xbdb1dcea	-0.08684714
184	0x3e468650	0.19387174
185	0xbc961130	-0.018318743
186	0x3f1ddea5	0.61667854
187	0x3c00ce35	0.007861664
188	0x3fda1fd1	1.704096
189	0x3e8a04c5	0.26956764
190	0x3f1ec1d9	0.6201454
191	0xbf81250a	-1.0089428
192	0x3e8ead05	0.27866378
193	0xbf9315ab	-1.1490988
194	0xbe9bbad2	-0.3041597
195	0x3e17122f	0.1475303
196	0xbf93bc7d	-1.1541897
197	0x3e26d5bc	0.1629247
198	0x3f14d44e	0.5813645
199	0xbf040fab	-0.5158641
200	0x3e84940c	0.258942
201	0x3f099b8a	0.5375296
202	0x3eaf9d7b	0.34299836
203	0xbd188b48	-0.037242204
204	0x3f158fae	0.5842236
205	0xbe8cc332	-0.27492672
206	0xbf3e1289	-0.7424703
207	0xbcff4a78	-0.03116344
208	0xbedf5c78	-0.43625236
209	0xbe87e024	-0.26538193
210	0xbfbace4f	-1.459421
211	0x400af1e3	2.1710136
212	0x3f090439	0.5352207
213	0xbf847114	-1.0347009
214	0x3fe0f257	1.7573956
215	0xbde6545f	-0.11246561
216	0xbfc7c3d0	-1.5606632
217	0x400d8b25	2.2116177
218	0xbf08ed8f	-0.53487486
219	0x3c4a697b	0.01235425
220	0x3f427c15	0.75970584
221	0xbf4dafc9	-0.8034635
222	0x3e91d5b6	0.2848336
223	0x3e3e541f	0.18586777
224	0x3ebb7690	0.36613894
225	0xbd8ed802	-0.06974794
226	0x3c5d8cb7	0.013522319
227	0x3ea2df8a	0.31811172
228	0x3ee2047d	0.4414405
229	0x3f31adc8	0.69405794
230	0xbf3efd90	-0.74605656
231	0x3d8fb489	0.07016856
232	0x3ea49184	0.3214227
233	0x3ed36680	0.4128914
234	0x3f132d9e	0.5749148
235	0x3c971932	0.018444631
236	0x3fa5865c	1.2931628
237	0x3f5e0d7d	0.8673933
238	0x3cbd3ae4	0.02309937
239	0x3f54e0c2	0.83155453
240	0xbf48c2e3	-0.78422374
241	0x3e8f809c	0.2802781
242	0x3f49285a	0.78577197
243	0x3d987adc	0.074453086
244	0xbd42359e	-0.047414415
245	0x3f9c6236	1.2217472
246	0xbc8adb6d	-0.016950333
247	0xbea553e2	-0.3229056
248	0xbdeadcd1	-0.11467899
249	0x3e60b701	0.2194481
250	0x3eecd33f	0.46254918
251	0x3c9e6fe1	0.019340457
252	0xbe835add	-0.2565526
253	0x3fd51463	1.6646847
254	0x3ed08afc	0.40731037
255	0x4028010f	2.6250646

outputLayer.bias f4 [2]
0	0x3fcec245	1.6153036
1	0x3ffbd18d	1.9673325
