ftl/pretrain/weight/retrain/finetune_usr_0/finetune_usr_0_31.pth (torch, 187635 bytes, 8 tensors)

hiddenLayer1.weight f4 [150, 3]
000000 f7 bf b8 bf 93 9f b0 bf 1e dc 15 bd 73 a7 b1 bc
       -1.4433583 -1.3798698 -0.036586873 -0.021686291
000010 68 49 00 39 1c 1a 5b bd 33 3f 0b c0 4c 42 d6 be
       0.00012234377 -0.053491697 -2.1757324 -0.41847456
000020 f5 42 bc bf 00 aa b1 be be 5c 43 3e d5 a2 18 3f
       -1.4707934 -0.34700012 0.19078347 0.5962346
000030 7a 34 d2 b7 c8 fa 46 bb d7 cf 29 bb 7d 56 eb bd
       -2.5058387e-05 -0.003036188 -0.0025911236 -0.11491106
000040 39 c5 e4 39 19 e1 e5 bd 7f 75 4b c1 84 38 79 3b
       0.0004363449 -0.112245746 -12.716186 0.003802807
000050 f6 d4 83 bd d0 49 ee bf 2b a3 c6 3c fd b1 fa bc
       -0.064371035 -1.8616276 0.024247726 -0.03060245
000060 e8 b9 94 c0 61 96 36 3a 27 29 6c bb ec 8d 04 bf
       -4.6476936 0.0006965157 -0.003603527 -0.51779056
000070 e6 71 a3 bd 97 dc 91 bd a8 58 a7 c0 cc a7 e5 3d
       -0.07980709 -0.07122152 -5.2295723 0.11213645
000080 2a 13 18 c0 3e 73 ab be 1f 33 62 3c 4c 27 c2 be
       -2.3761697 -0.3348636 0.0138061335 -0.37920606
000090 a0 e3 87 c1 47 23 98 bd 94 80 56 be df 6d 05 bd
       -16.986145 -0.074286036 -0.20947486 -0.032575484
0000a0 69 1f 8f 3b 0c df 01 3d fa e0 b1 bc fe 8c 04 3a
       0.004367758 0.031706855 -0.021713722 0.000505641
0000b0 32 d8 e4 bb e8 d2 1b bd 4e 45 0f bc be 34 34 3f
       -0.0069837803 -0.038042933 -0.008744551 0.7039298
0000c0 ba 6b c1 bd 06 ee 63 3c 24 8e d6 bc b0 a2 07 c2
       -0.09444375 0.01391173 -0.026190825 -33.908875
0000d0 79 92 51 3d 76 18 6b be d0 e1 5d c0 6d 75 5d bc
       0.051165078 -0.2295855 -3.4669075 -0.013516766
0000e0 31 51 50 bc b6 d3 69 bd 37 74 39 ba e2 54 04 bd
       -0.01271467 -0.05708667 -0.00070745073 -0.032307513
0000f0 d3 57 47 39 08 d9 0d 3c c6 25 92 bb 12 aa fa bf
       0.00019010836 0.008657701 -0.0044600694 -1.9583151
000100 10 bb 71 3e 39 58 58 3f ac 6e 22 bc e1 3a 9c bd
       0.23606515 0.8450962 -0.009914082 -0.07628418
000110 0e 1a 56 3b e8 37 32 c1 59 5f 81 3c ed 65 d4 ba
       0.0032669338 -11.138649 0.015792536 -0.0016204693
000120 cb b4 05 3d 71 37 58 be 38 de 0d 3f 3c ff eb c0
       0.03264312 -0.21114899 0.55417204 -7.3749065
000130 31 d9 77 ba 7e 19 1e c0 b2 9d 0a bf d0 e2 ce 3d
       -0.0009454666 -2.470306 -0.54146874 0.10101855
000140 46 f7 8d bf 91 c4 61 be 6f b4 5e bf 70 d3 7c 3f
       -1.1091087 -0.2204764 -0.8699407 0.9876013
000150 75 48 35 c0 5a 84 b9 3e f5 b1 29 bd 69 bd 9c be
       -2.8325474 0.3623379 -0.04142948 -0.30613258
000160 cd 71 2b bd a7 46 f2 bc 96 9a 24 bd dd 51 81 3b
       -0.041856576 -0.029574705 -0.040186487 0.0039465264
000170 dc 60 02 40 46 8c 4d c0 90 ab 02 be da e0 63 3f
       2.0371618 -3.2116866 -0.12760758 0.8901497
000180 0f 1e d7 bf c9 96 8e 3e 3c ef e0 bf 65 4c f0 be
       -1.6806048 0.27849415 -1.7573009 -0.46933284
000190 00 b2 09 3b 76 02 5e bd b3 9b 9a bd 0d ba 7c b8
       0.0021010637 -0.054201566 -0.075492285 -6.0254755e-05
0001a0 78 1c cf bd a9 a8 17 bf 3b 2e 87 bf f0 08 ff be
       -0.10112852 -0.5924173 -1.0560983 -0.49811506
0001b0 5f 7f 03 c0 ab 73 2c be 1f 3f 99 c0 e4 bf 8b be
       -2.054649 -0.16840999 -4.788955 -0.27294838
0001c0 ce b2 a9 3b 69 f1 52 be 5b ab 87 bc 3b e9 37 ba
       0.005178786 -0.20599903 -0.0165612 -0.000701565
0001d0 89 9e e3 bc 13 87 1b c1 2c b0 33 bc b9 bd 89 bf
       -0.027785556 -9.720477 -0.010967296 -1.0761024
0001e0 e2 a3 00 bd c0 55 9b bb 74 de d3 bc 69 7f 12 bf
       -0.03140629 -0.004740447 -0.02586291 -0.5722566
0001f0 34 7c c0 be 6f c3 99 bf 86 fc 7d bd 6b ab 13 39
       -0.3759476 -1.2012767 -0.062008403 0.0001408287
000200 d5 22 3c bc 81 c9 18 be 19 89 52 b8 7e 8d 3f bd
       -0.011482914 -0.14920618 -5.0195584e-05 -0.046765797
000210 e3 28 39 bf d0 2f 32 bf b7 78 08 bb b0 01 59 c0
       -0.72328013 -0.69604206 -0.0020823905 -3.390728
000220 2e 0a 9d b9 a8 5b 54 c0 a3 c2 1e c0 91 af 9b be
       -0.00029952958 -3.3180943 -2.4806297 -0.30407384
000230 f0 7b fe 3e 6b 2a 46 bf 94 33 91 b9 d8 a2 4c be
       0.49703932 -0.77408475 -0.00027694984 -0.19983995
000240 13 5a 46 c1 c8 b5 30 bd 06 74 9f 3b f7 41 a8 bf
       -12.396991 -0.04314211 0.004866126 -1.3145131
000250 54 f0 8a 3d 26 a9 be be 5f 42 b7 be 11 3b ec be
       0.0678412 -0.37238425 -0.35792825 -0.46138814
000260 7a e8 f9 3a cf 5a b6 bf 0f 8a 5d bf 25 cd 9e 3e
       0.0019066476 -1.4246463 -0.86538786 0.31015888
000270 db 78 34 bc 6b 93 ed 3d a3 11 1d 40 29 cc f6 bf
       -0.011015142 0.11600383 2.4542015 -1.9281055
000280 0f a6 88 bc fc 9b e0 3c 0a 46 90 bd e2 72 fe b7
       -0.016680745 0.02741813 -0.07044609 -3.0332656e-05
000290 1b e7 10 bd 7b ca 1c bd 68 d8 42 3c 52 e0 e2 c0
       -0.03537665 -0.038279038 0.011892416 -7.089883
0002a0 05 62 67 be 66 f4 8c be 2b 57 97 be d0 bb 8c bb
       -0.22595985 -0.2753021 -0.2955869 -0.00429485
0002b0 93 99 3c b9 e0 af d4 bd b5 a8 25 c2 3d 58 42 ba
       -0.00017986288 -0.10385108 -41.414753 -0.0007413661
0002c0 4e 60 a8 be 60 ac 1d c0 51 05 40 3f c2 08 67 3e
       -0.32885975 -2.463646 0.7500811 0.22561935
0002d0 8e 82 e7 bc 4a 9b 0b 3a 1d 07 55 bd ed b1 7b 3e
       -0.028260496 0.0005325569 -0.052008737 0.24579592
0002e0 b9 d9 f9 ba 1b 05 87 c0 7f 19 09 c1 50 c5 0b 3c
       -0.0019062079 -4.219373 -8.568725 0.00853093
0002f0 4c 81 56 c0 5b 08 3e c0 bc 20 de 3e 69 7d fb bf
       -3.3516417 -2.96926 0.4338435 -1.9647647
000300 0b 12 c6 c1 85 8d bc bc b1 d2 3d 3c a7 28 b9 c0
       -24.75881 -0.0230167 0.011585877 -5.7862124
000310 22 50 2f bc a9 55 03 c0 0b d8 03 bf 9a 55 86 3f
       -0.0107002575 -2.0521033 -0.5150153 1.0494874
000320 41 db e4 3d 18 da 5f be 75 61 8b bc 94 5c 97 40
       0.11174632 -0.2186054 -0.017014245 4.730051
000330 c4 35 67 bd 01 4a 3e 3d 11 33 92 bc 95 6a b7 bd
       -0.05644776 0.046457294 -0.017846616 -0.08955876
000340 f6 2a 43 3b dc 26 33 bc f3 ab 17 c0 1f ad 04 3e
       0.0029780245 -0.010934558 -2.36987 0.12956665
000350 25 e9 af 3c a8 56 7e c1 f0 17 59 3e d1 7f 4f bf
       0.021473477 -15.896156 0.21200538 -0.8105441
000360 52 cf bf c0 fe 3e da 3e 63 64 37 bc 8a 25 eb bd
       -5.9940577 0.42626184 -0.011193368 -0.114817694
000370 43 ec e1 3b b5 36 b2 bc de 49 8f bd 3f 4c 67 3b
       0.0068946197 -0.021754602 -0.06996511 0.003529325
000380 b6 86 e2 bb 88 bb 96 bd cf 8a f2 39 34 cf b2 bd
       -0.0069130315 -0.073599875 0.00046261257 -0.08730927
000390 19 f1 e8 be 63 da 23 bf 45 7d 89 be b2 c5 56 bd
       -0.45496443 -0.64005107 -0.26853386 -0.05243463
0003a0 96 b9 b6 bb fe f5 28 bd 39 1d a6 c0 88 d2 25 3e
       -0.005576323 -0.04125022 -5.191067 0.16193593
0003b0 ca b2 e0 3c 7c fc 33 3b d7 2e 0f 3c 22 6c 42 40
       0.027429003 0.0027463725 0.008739195 3.03785
0003c0 59 8a c8 bc d9 e2 6c 3b f4 b5 7e bc 45 dd f8 c1
       -0.024480032 0.0036145954 -0.015546311 -31.108042
0003d0 be 4f cc bd cf d3 eb bd f8 74 bc c0 4f f6 e8 be
       -0.09976147 -0.11515009 -5.8892784 -0.4550042
0003e0 55 59 18 bf 0d 29 19 38 ac 6d 87 3a 78 6a 1a bb
       -0.5951131 3.6516274e-05 0.0010332367 -0.0023561995
0003f0 f3 67 dd bf 9c d1 e3 3b 75 ad b7 be a3 42 7d c0
       -1.7297348 0.0069524776 -0.35874525 -3.9571922

hiddenLayer1.bias f4 [150]
000000 5c 66 a8 c0 a4 6d b3 bd fb 5f 20 c0 2f fb 45 c0
       -5.262495 -0.08761147 -2.5058582 -3.093456
000010 b5 3b 74 bd b9 8a ba bd 3d d7 bc be 72 d8 4c be
       -0.059627254 -0.091084905 -0.36882964 -0.20004442
000020 95 5f 00 be b8 55 99 bf 64 89 07 c0 81 e7 c2 be
       -0.12536462 -1.1979284 -2.1177607 -0.38067248
000030 bb df d0 bf 50 76 82 c0 64 e3 2f bc d7 0f 9e be
       -1.6318277 -4.0769424 -0.0107353665 -0.3087146
000040 24 40 88 be 27 7e bf bf 38 9a ac be 43 1c 1d bd
       -0.26611435 -1.4960374 -0.3371141 -0.03835703
000050 3d 18 41 be 66 24 9d c0 1e dd 97 bf db c8 20 bf
       -0.18856902 -4.910693 -1.1864355 -0.6280648
000060 9a 60 38 c0 e6 65 f8 bf 41 d0 8f bf 11 c7 04 c1
       -2.880896 -1.9406097 -1.1235429 -8.2986
000070 3b 3c b6 bf e0 b2 24 bf c5 98 59 40 70 c1 b9 c0
       -1.4237131 -0.6433544 3.3999493 -5.804863
000080 df 8b 0a c0 66 ab b5 bd 3c e7 2f be ab c2 93 c0
       -2.164787 -0.08870582 -0.17178053 -4.617513
000090 8d c4 f1 bf 2e ea 50 be 45 79 08 bd f9 42 b7 bf
       -1.8888108 -0.20401832 -0.033318777 -1.4317313
0000a0 d2 ca 15 be 29 6e 0c c0 d7 3d 75 bc ad 04 32 bd
       -0.14628151 -2.1942236 -0.014968357 -0.04346149
0000b0 0c b5 2d c0 26 69 1c c0 e7 0a 7f c0 39 6a 4d be
       -2.7141752 -2.4439178 -3.9850404 -0.20060052
0000c0 3b d0 cb be 9c 63 8c bf 0a 80 e7 bf 2e 41 87 c0
       -0.39807305 -1.0967898 -1.808595 -4.2267065
0000d0 be 40 ab c0 d8 08 e4 bf 69 e0 f7 bc 30 a4 db bc
       -5.351653 -1.7815199 -0.030258374 -0.02681169
0000e0 ed 0a 7f c0 3f 29 aa bd 6c 8e 8e bf 54 62 bd c0
       -3.9850419 -0.08308648 -1.1137214 -5.918253
0000f0 06 f0 ba bd 08 c6 27 40 fc 5f 25 c0 60 e3 32 c0
       -0.09127812 2.6214619 -2.5839834 -2.7951279
000100 27 bf ce bf 79 b0 d6 bf 21 62 90 c0 5c eb dd 3e
       -1.6152085 -1.6772605 -4.5119786 0.43343627
000110 b9 38 29 bf 83 e1 89 bd ae 64 ee bf ea 55 55 c0
       -0.66102177 -0.06732466 -1.8624475 -3.3333688
000120 82 b6 e6 bf 9b 79 1f be 52 89 a2 bd 7b 7d 95 bd
       -1.8024447 -0.15573733 -0.07936348 -0.07299324
000130 37 98 f2 c0 da ab f2 bd 2c 22 17 c0 4d db a1 c0
       -7.581081 -0.11849184 -2.3614607 -5.05802
000140 76 34 7e bd f9 15 1c c0 30 bb 09 c0 62 4d e9 bc
       -0.06206175 -2.438841 -2.15205 -0.028479282
000150 9b 83 9d be bc 01 8e c0 79 cc e2 bf 28 86 3d 3f
       -0.3076447 -4.4377117 -1.771865 0.7403283
000160 07 3e 5b bc 8a 60 e5 bc 5d 25 b1 be 24 50 fb be
       -0.013381488 -0.028000135 -0.34598818 -0.4908458
000170 2c 10 08 c0 be d1 f3 bf 21 28 4f c0 de 02 bf bd
       -2.125987 -1.9048383 -3.2368243 -0.09326719
000180 40 13 f4 be ee b1 6a c0 b2 d9 d0 bd 4e d5 08 c0
       -0.47670937 -3.66711 -0.10197772 -2.138019
000190 3b 7f 0c be fd 56 21 bf 13 7c 1b c0 ca f3 82 bf
       -0.1372041 -0.6302336 -2.429448 -1.0230649
0001a0 cc 36 87 c0 af 4c b7 bd 46 73 12 bd 94 21 3b c0
       -4.225439 -0.08950173 -0.035754465 -2.9239244
0001b0 08 55 87 bf 2f 44 f6 c0 dc bf 05 bf 77 e8 de bd
       -1.0572824 -7.695823 -0.5224588 -0.10884183
0001c0 c6 75 6e c0 24 44 86 c0 b9 e0 49 bf 61 33 8f bc
       -3.7259383 -4.195818 -0.78858525 -0.017480554
0001d0 a8 88 a1 c0 4c 71 8a bf dc 5d 53 c0 4e d3 f6 bd
       -5.0479317 -1.0815825 -3.3026037 -0.12052022
0001e0 6c 2f 5e bd 73 11 ba c0 af 4c 7c c1 44 ad d9 bc
       -0.054244444 -5.81463 -15.768722 -0.026571877
0001f0 e7 c3 37 bd 57 50 ea bc c6 59 b7 bf e4 81 b3 bf
       -0.04486456 -0.028602762 -1.4324272 -1.4024014
000200 6b 57 53 bf 6f d4 41 bf e5 ff 98 bd 16 4a b3 bf
       -0.82555264 -0.7571477 -0.07470683 -1.4006984
000210 5d a9 08 be cf cb c3 bf fd a0 0f bf eb 46 2a c0
       -0.13345857 -1.5296572 -0.56105024 -2.6605785
000220 38 e3 43 be 39 75 c4 be a8 18 79 c0 fd 5b ce bd
       -0.19129646 -0.38370684 -3.89213 -0.10076139
000230 77 4d 4f 40 8d 75 6d c0 56 cf fe c0 c3 07 a9 bf
       3.239103 -3.7102997 -7.9628096 -1.3205494
000240 d1 16 8f be fb 3b 61 bc 22 98 4a c0 71 09 1c c0
       -0.27947095 -0.013747211 -3.1655354 -2.4380763
000250 24 55 00 be 63 16 23 be
       -0.12532479 -0.15926509

hiddenLayer2.weight f4 [150, 150]
000000 d0 28 ac be a3 e3 9b 3d 03 ec e3 bf d9 ce e4 bf
       -0.33624887 0.07611778 -1.78064 -1.7875625
000010 ac 49 18 bf e1 00 7f 3e 1c 5a a8 c0 17 2c 23 bf
       -0.59487414 0.24902679 -5.2609997 -0.6373915
000020 37 e3 82 40 9d f8 b3 bf 6b c1 ef c0 4c 8a 1f c0
       4.090236 -1.4060246 -7.4923606 -2.492816
000030 fa 63 2d c1 5f 0b f3 bd cc e6 cd 3d 82 ed 81 3f
       -10.836908 -0.11867403 0.10053787 1.0150607
000040 95 df c5 bd 65 d5 ea 3e ae 34 20 bd c5 61 0b be
       -0.096617855 0.45865932 -0.03911274 -0.13611515
000050 e7 f2 49 c0 1d 63 c2 be 98 c7 d3 be a9 0f 02 c0
       -3.1554506 -0.37966242 -0.41363215 -2.0322058
000060 80 89 86 c0 a3 22 ca bf a5 86 58 3f ed bc 07 c0
       -4.2042847 -1.579182 0.8458045 -2.120906
000070 b3 e1 13 40 42 53 43 bf f6 81 2d bf b0 d1 55 bf
       2.3106506 -0.76298916 -0.6777643 -0.8352308
000080 e7 3c 9b c0 09 db 87 be 8e e1 ac bd b1 6e d6 be
       -4.8511844 -0.26534298 -0.08441459 -0.41881326
000090 41 6f b4 bf 72 4e cc be 8d 36 8b 3d 65 77 ad c0
       -1.4096452 -0.399036 0.06797514 -5.4208245
0000a0 32 34 59 be e3 d4 b7 c1 6e 00 c1 bd cc 5b 3e be
       -0.21211317 -22.978949 -0.0942391 -0.18589705
0000b0 b2 00 a0 bc 99 c4 9d 3e 78 67 b8 bf 02 57 57 c1
       -0.019531582 0.30814055 -1.4406576 -13.458742
0000c0 d0 d2 0e c1 bf 4d 0f 40 ec ab 91 c0 9d 58 d3 3f
       -8.926468 2.2391202 -4.5522366 1.6511418
0000d0 b9 dd 93 bf ed 78 93 c0 8e 95 a1 3c 7e fc 6e c1
       -1.1552039 -4.6085114 0.019724634 -14.936644
0000e0 14 a8 a9 c0 ec 3d d5 3d 4f ee 2b 40 50 02 c4 bf
       -5.3017673 0.10412201 2.6864202 -1.5313206
0000f0 33 c5 f2 be 65 b4 03 bf 4c ad e9 be 34 b8 9b c1
       -0.47416076 -0.51447135 -0.45640028 -19.464943
000100 d5 e4 31 c1 30 e0 04 3f 5e 8d 0b c1 c2 ab 42 c1
       -11.118367 0.5190458 -8.722013 -12.166933
000110 87 f9 1f 3f 6c 2e d9 bd cc e0 02 40 14 f4 c8 c0
       0.62490124 -0.106045574 2.0449705 -6.2797947
000120 8b f1 17 c2 ee a1 28 bd 6e 14 39 bd b3 f4 32 be
       -37.98588 -0.041170053 -0.0451855 -0.17476158
000130 87 75 83 c0 86 b7 88 be 7b ff c4 c0 72 45 80 be
       -4.1080966 -0.26702517 -6.1561866 -0.25052983
000140 4e 16 fc bd b0 de 2c 40 bd 52 c3 bd 7f ab ab bd
       -0.12308942 2.7010918 -0.095372654 -0.0838232
000150 70 e2 b9 3f 9a f7 42 c0 26 09 c2 c0 a0 a9 88 be
       1.4522228 -3.0463624 -6.0636168 -0.26691914
000160 a9 bd 8b 3e 7e d4 5a 40 13 f3 c5 c0 e2 d5 e0 be
       0.27293137 3.4192195 -6.185922 -0.4391318
000170 4c cb 2e c0 5a 29 9a 40 43 ad 91 be 78 68 d6 3f
       -2.7311583 4.817548 -0.284525 1.6750631
000180 53 62 77 be ca 19 95 be 10 fc 6e 3f 28 5c a3 c0
       -0.24158601 -0.29121238 0.93353367 -5.1049995
000190 ee 5c ce 3e 45 fb ec 3f ad 6c fb 3f 5f d9 bd bb
       0.40305275 1.8514181 1.964254 -0.005793735
0001a0 43 5e 41 bf 19 b3 fc 3e fb a7 a9 3e a4 f0 1e 3e
       -0.75534457 0.4935539 0.3313597 0.15521485
0001b0 c2 51 8b c0 5a 29 51 bf 39 4f b2 40 b0 8e f3 bd
       -4.35373 -0.8170372 5.5721707 -0.1189245
0001c0 aa 62 4f c0 8c d2 67 3f 0d 50 81 c0 d8 e3 2d 3c
       -3.240397 0.90555644 -4.041022 0.010613404
0001d0 94 d6 80 c0 ad b1 d4 40 60 ff 38 c1 15 7a 44 be
       -4.0261936 6.646689 -11.562347 -0.19187196
0001e0 3a e7 98 bc 6b cb ed bf 8a f7 a0 be 85 3b a5 bd
       -0.018664945 -1.8577703 -0.31438857 -0.08067993
0001f0 43 f1 af bd 2e 00 74 be 9c ba 20 c0 34 32 12 40
       -0.08590939 -0.23828194 -2.5113897 2.2843142
000200 94 73 0a c0 37 82 92 3f 50 b4 b7 be a4 7d 1f be
       -2.1633043 1.1445988 -0.35879755 -0.15575272
000210 25 bb e6 bd 69 c0 9e bf 3d dc 98 c0 d9 fd 28 c1
       -0.11266164 -1.2402469 -4.7768846 -10.561975
000220 cc 63 e4 3f b4 6d 15 c0 a3 a8 c1 3f d7 02 ad 3d
       1.7842956 -2.3348207 1.5129589 0.08447807
000230 2b 11 d9 be 6b 11 5f bf 4f 91 1a bf d3 74 2a bf
       -0.4239591 -0.8713595 -0.60377973 -0.6658451
000240 31 c6 72 bf 7f 3d e7 bc 3a 26 be c0 1a 59 6f c0
       -0.94833666 -0.028227566 -5.9421663 -3.7398133
000250 b6 b2 58 3d 15 47 09 40 f3 1d 8c c1 e2 d3 37 3d
       0.052904807 2.1449635 -17.514624 0.0448798
000260 41 79 15 bf 0d c7 93 3f 63 1c 89 bd 20 3e 7d be
       -0.58388144 1.154512 -0.066948675 -0.2473073
000270 13 f7 b0 c0 47 d3 67 c0 94 49 02 be 94 4f a0 c0
       -5.5301604 -3.6222703 -0.1272338 -5.009714
000280 ab 2d 2a bf f0 56 a8 bf c4 29 b9 3f f9 ab ae c0
       -0.66475934 -1.3151531 1.4465871 -5.4584928
000290 2c bc c9 3c e3 d9 1b c0 52 97 3e 3e f5 d3 59 c0
       0.02462586 -2.4351737 0.18612412 -3.4035618
0002a0 88 6f 60 bf 4f f4 64 bd 28 86 bf 40 8b ae 84 3f
       -0.87670183 -0.055897053 5.9851265 1.0365766
0002b0 52 54 0b 3f d3 23 b5 bf 4a a2 82 c0 7e ec 6c bf
       0.5442554 -1.4151558 -4.0823107 -0.9254836
0002c0 7c 77 45 bf 10 64 67 bf 8d 08 f6 bf 45 3d 0d bf
       -0.77135444 -0.9038706 -1.922136 -0.55171615
0002d0 57 65 d3 bf 4d fa f8 3e 43 12 f6 bf de 62 ca 3e
       -1.6515301 0.48628464 -1.9224323 0.39528555
0002e0 52 17 b1 3e 62 38 03 bf d3 5a aa bf 95 1b c3 3e
       0.34588104 -0.5125791 -1.3308967 0.3810698
0002f0 4f d7 42 3d 8f 7c 26 40 01 6a 0a bf 34 be 02 40
       0.047568616 2.6013525 -0.54068 2.042859
000300 6b 6e 3e bc 2a 17 c5 bc 02 e7 fb c0 58 dc 22 bf
       -0.011623005 -0.024058897 -7.871949 -0.6361747
000310 0a d7 be 3f ac d4 20 bf 93 86 2b c1 c9 33 e9 be
       1.4909375 -0.6282451 -10.720355 -0.4554732
000320 64 38 15 40 5f 62 06 3f 6f 61 3a c0 b7 ae 2d 40
       2.3315668 0.5249385 -2.9121969 2.7137887
000330 ac 39 0e be 76 ca 9b bf 0a f8 35 40 07 f4 a3 be
       -0.13889188 -1.2171161 2.843264 -0.32022116
000340 2d f6 d5 bd 7c ed 4a bf 2f d0 4c bf 1b 1e b6 bf
       -0.10447345 -0.7926862 -0.8000516 -1.4227937
000350 4e 25 8e 3e cb 79 9b bf 8b 68 8f 40 be d9 ed be
       0.27762836 -1.2146543 4.4815116 -0.46455187
000360 ac d5 24 c0 9b 7f db be e4 6b c7 be e3 e2 1b be
       -2.5755415 -0.42870793 -0.38949502 -0.15223269
000370 fe 4a 72 c0 00 d7 93 3f 44 12 2a c0 0a 86 b6 3d
       -3.7858272 1.1549988 -2.6573648 0.08912285
000380 73 43 af bd 4a ce e7 3d d4 2c 2b 40 f8 cc a9 be
       -0.08557787 0.113186434 2.674611 -0.3316419
000390 47 d6 00 3f 18 40 a0 40 4c 7f 72 3e 17 a3 0b c0
       0.5032696 5.007824 0.23681372 -2.1818292
0003a0 38 e9 2d c1 20 2d 2f bd fc a0 fb bf e1 74 ea bf
       -10.869438 -0.042767644 -1.9658504 -1.8316919
0003b0 48 d6 93 c0 83 de 81 c0 97 6e 93 bc 3e 85 ea bf
       -4.6199074 -4.058412 -0.01799707 -1.8321912
0003c0 a6 9a 1f be c6 1c 89 bf bf 84 c8 bf be c0 ed 3f
       -0.15586337 -1.0711906 -1.5665511 1.8574445
0003d0 02 0a d4 c0 90 da e5 bf 79 e4 0d 3d e8 41 1e c0
       -6.6262217 -1.7957325 0.034641717 -2.4727726
0003e0 76 9d 95 3e 3b 0e 5b 3e bd 8a 05 3f bd 2b 52 3f
       0.29221696 0.21392147 0.5216482 0.8209799
0003f0 96 67 3f bf 2b c4 55 bf ba 27 fa c0 0a 16 8f bf
       -0.74767435 -0.83502454 -7.8173494 -1.1178601

hiddenLayer2.bias f4 [150]
000000 41 a2 03 bf 4d 28 cd bf 36 cd 9b 3f 07 57 09 3e
       -0.51419455 -1.6027924 1.2172 0.13412105
000010 fb 01 3a bf bb 50 6b bd ef c2 1d 40 97 2c c2 bd
       -0.7265927 -0.057450037 2.4650228 -0.09481161
000020 cb cd e7 40 7c e2 03 be c8 00 b9 bd a4 e8 2b be
       7.243871 -0.12879366 -0.09033352 -0.16787964
000030 a6 37 42 3e 18 e2 0e bf f6 0c 91 bd ec 0a 8e c0
       0.1896654 -0.5581374 -0.0708255 -4.438833
000040 f9 db 86 40 da f1 63 be ae c9 b9 3f b2 0d ca 3f
       4.214352 -0.22260228 1.4514673 1.578543
000050 8d 7c fc be 1f 5b 5a bd fd c1 53 bf c5 6a c6 bf
       -0.49313775 -0.053309556 -0.8271788 -1.5501333
000060 1a 06 d9 bd cd c9 b1 bf 95 20 e5 bf b9 e2 91 3e
       -0.10596867 -1.388971 -1.7900568 0.28493288
000070 91 12 98 3e a7 0f 86 bf 8c cc 30 3f f3 81 45 be
       0.29701665 -1.0473527 0.69062114 -0.19287853
000080 d0 4d ab be e2 9d 19 bf 42 d9 1c 40 04 30 17 c0
       -0.33457804 -0.60006535 2.4507604 -2.3623056
000090 0e e2 20 be 77 90 26 bf 08 50 dc bf e0 df 39 3f
       -0.15711233 -0.65064186 -1.7211924 0.7260723
0000a0 c3 ff 76 bf 9a d5 cf bc 65 1b b9 be 55 02 9a bd
       -0.9648401 -0.025370408 -0.36153713 -0.07519976
0000b0 34 42 fa bf 91 d7 09 bf 73 67 89 c0 52 06 43 c0
       -1.9551454 -0.53844553 -4.293878 -3.0472608
0000c0 d9 2f 12 bd 86 eb 3e bf 84 42 75 be 8d ea fb bf
       -0.035690162 -0.7457813 -0.23951155 -1.9680954
0000d0 51 a3 77 bf 8d 3b e5 be 4c 0d ab be f6 88 d3 be
       -0.96733576 -0.44771996 -0.33408582 -0.4131543
0000e0 f4 17 cc bd f3 50 42 bf d0 b1 09 3e 3c 48 1f bf
       -0.09965506 -0.7590477 0.13446736 -0.62219596
0000f0 94 39 82 be e5 fc c1 be 15 a2 ed be b8 90 a0 bc
       -0.25434554 -0.37888256 -0.4641272 -0.019600257
000100 7e 0d 40 bf 1e 79 8b 40 63 d4 42 c0 7b da ec 3c
       -0.7502059 4.358535 -3.044213 0.028912773
000110 67 0c c2 be a2 e4 4d 3f c0 de dd 3f ca 9b 8f bf
       -0.37900087 0.8042699 1.7333603 -1.1219418
000120 68 94 30 3f ad 84 0a 3f 83 3a 55 bf cf 80 18 bf
       0.6897645 0.541087 -0.83292407 -0.59571546
000130 f2 9c 50 be 54 7d 95 bd 8b ed 82 bf 56 d8 17 bf
       -0.2037237 -0.07299295 -1.0228742 -0.5931448
000140 4c fd cf bf 21 24 04 bf ac fd 8d bf 76 cb b4 bf
       -1.6249175 -0.5161763 -1.109304 -1.4124591
000150 f2 8c 57 3e 27 05 0a c0 c3 4b d4 3e 5b d7 11 be
       0.2104986 -2.1565645 0.41464052 -0.14242308
000160 36 bd 0b 3f 0f 92 03 be 5d ae 87 bf 3e 48 32 be
       0.5458559 -0.12848686 -1.0600086 -0.1741037
000170 93 87 47 bf ba 20 ad 3f 2d 0f 21 bf 6f 72 7d 3d
       -0.77941245 1.3525612 -0.6291378 0.06187671
000180 a1 26 f8 be 32 49 be be 84 e5 2d 3e 4a 9c eb 40
       -0.48466972 -0.3716522 0.16982085 7.3628283
000190 8a 42 d8 bf e0 34 83 be 89 e2 0b be 00 cc 17 3f
       -1.6895306 -0.25626278 -0.13660635 0.59295654
0001a0 01 39 2c 3c 04 f8 d7 3f 67 33 e7 be 7e a9 5c be
       0.010511638 1.6872563 -0.45156404 -0.21549031
0001b0 1f 6f df bd 20 87 ff c0 82 5e 5d bd c2 f1 e6 be
       -0.109098665 -7.9852448 -0.054045208 -0.45106322
0001c0 33 76 58 be 77 63 8d 3e b1 ec 46 3f 2c cd af bd
       -0.2113884 0.27614948 0.7770491 -0.08584055
0001d0 fb b4 1e c0 d6 70 f4 bf 03 ef d3 be 4b 5f 54 bf
       -2.4797962 -1.9096935 -0.4139329 -0.82957906
0001e0 c1 ec 9e bd 6e 5a 7e bf a2 e0 b1 bf 9e 11 bc bd
       -0.07760001 -0.99356735 -1.3896677 -0.09183048
0001f0 a9 7d 08 bf b8 41 0f 3f ec 2f 9f be 8c 70 fb bd
       -0.5331674 0.55959654 -0.3109125 -0.12277326
000200 86 a9 18 be 4a 62 11 be aa 2e 40 bf e3 5e 59 be
       -0.14908418 -0.1419765 -0.75071204 -0.21227603
000210 31 f8 cd 40 bc 81 da bf d9 ad da be 01 b1 ad bd
       6.436547 -1.7070842 -0.4271076 -0.084810264
000220 17 83 23 c0 35 85 96 bf 09 f7 4e 3e cc 9c 7c 3f
       -2.554876 -1.1759402 0.20211424 0.98676753
000230 07 ce 08 bf b1 3d 99 bf 11 23 8c bd 9d 8e 25 bf
       -0.5343937 -1.1971952 -0.06842626 -0.64670736
000240 b3 58 56 bf 78 dd fd bf 6c 6d c7 3e 44 bd 78 be
       -0.83729094 -1.9833212 0.3895067 -0.24290949
000250 1b df a3 be 19 ee 52 bd
       -0.32006153 -0.0514966

hiddenLayer3.weight f4 [150, 150]
000000 23 97 26 40 a0 94 5a 3f cd 48 36 bf 8b 79 5e be
       2.6029747 0.85383034 -0.71204835 -0.21726052
000010 c0 f1 35 bf 53 7c d3 bf 51 37 b9 3e 5c 0d b1 be
       -0.71072006 -1.6522316 0.36175016 -0.34580505
000020 5e ca e4 3d c5 36 86 bf 1a 07 94 3d a8 64 81 3f
       0.11171411 -1.0485464 0.07227917 1.0108843
000030 f7 0a 11 3f 2e 3e 87 3e e4 b3 21 bd 9f 8c dd 3e
       0.56657356 0.26414627 -0.039478198 0.43271348
000040 b3 2e 50 c0 fe fe ba bd b8 c4 38 c1 77 0e 26 c1
       -3.2528503 -0.09130667 -11.548027 -10.378531
000050 6f ac 09 bf 08 4e 61 bd e5 f5 87 3d 9a 90 16 3f
       -0.5377874 -0.055006057 0.066386975 0.58814394
000060 cb b3 2b 3d 96 0e 0e 3d 1f f0 71 c0 44 e9 72 be
       0.04191951 0.03468188 -3.7802808 -0.23721796
000070 19 7f 5b 40 5c 73 18 c0 bf 65 65 bf 3c 7f 50 3e
       3.4296324 -2.382041 -0.8960838 0.20361036
000080 e0 0f ef bf eb 32 2c c0 b6 9f 44 bf e6 9b 46 bf
       -1.867672 -2.6906078 -0.768062 -0.7758163
000090 53 96 25 bf e1 63 f2 bd 57 ab 94 c0 0e 40 21 40
       -0.646825 -0.11835457 -4.6459155 2.5195346
0000a0 31 07 9e 40 32 4b 01 c0 45 09 95 3e 37 aa 97 3c
       4.938378 -2.0202146 0.29108635 0.018513782
0000b0 00 35 22 41 cf 43 5f 3e dd e2 24 40 6d d6 5b be
       10.137939 0.2180321 2.5763466 -0.21468516
0000c0 a7 c9 0a c0 2d c2 7a 3f 73 70 3c ba af 58 14 c0
       -2.168558 0.9795254 -0.0007188387 -2.3179128
0000d0 bf ff aa 3e 63 b6 8d 3f c6 38 ed c0 41 19 92 be
       0.33398244 1.1071285 -7.4131804 -0.28534892
0000e0 00 45 e4 be 21 14 5d bf c8 05 96 3d 66 38 c8 3f
       -0.44583893 -0.8635884 0.073253214 1.5642211
0000f0 6f 7e af be 9a d5 07 3f 8b a0 ae 3f 4c 63 c1 40
       -0.3427615 0.53060305 1.3642744 6.043371
000100 01 64 b4 c0 a6 da b6 bf d4 e6 7b c0 e4 50 10 3e
       -5.6372075 -1.4285476 -3.9359636 0.14093357
000110 f4 6c 27 3e 22 ce 57 c0 2f d2 11 bf 37 3b 8f 3f
       0.16350156 -3.3719563 -0.5696134 1.1189946
000120 0a 41 a5 3c bc 0c 83 be d9 1d 95 3e dc c6 51 bd
       0.020172615 -0.25595653 0.29124334 -0.051215038
000130 3c c1 4c c0 23 10 32 c0 3c d2 94 c0 2d d1 27 bf
       -3.199294 -2.782235 -4.6506634 -0.6555355
000140 f6 00 a0 bf 78 ca 8f bf 7f aa ec bf 1f 4c 24 bf
       -1.2500293 -1.1233664 -1.8489531 -0.6417865
000150 5b 01 d8 be 25 31 0d c1 d6 1a f3 c0 86 b7 0e 3e
       -0.42188534 -8.824498 -7.597026 0.13937196
000160 95 15 ab 3f 1a db f1 3a 93 c2 c2 bf 2f 98 04 40
       1.3365961 0.0018452138 -1.5215629 2.0717885
000170 e6 27 31 3f 1d 96 11 40 cd 72 09 c0 03 42 22 bf
       0.69201505 2.2747872 -2.147632 -0.63381976
000180 ad 5a c2 c0 73 1d 72 3f 5b 72 0f 3f 4e bf 97 3e
       -6.073569 0.94576186 0.5603387 0.2963814
000190 29 ca c7 c0 de 1d a3 be f8 3d 8b 3e d3 be d1 40
       -6.2434278 -0.31858724 0.27195716 6.554544
0001a0 47 1f 23 bd 02 96 46 c0 4c 13 21 c0 c7 59 03 3f
       -0.03982475 -3.1029058 -2.5168028 0.51308864
0001b0 96 35 12 40 ba 4e 17 3f 55 03 21 be ef 1a 0a bf
       2.2845206 0.591045 -0.15723927 -0.5394735
0001c0 92 8e 1e 3d 53 5f 00 ba 30 2c 48 3e e8 43 05 c0
       0.038710184 -0.0004897017 0.19548106 -2.0822697
0001d0 6e 85 94 bd ba 06 9d bf fe 87 a7 3e 93 e1 8b 40
       -0.07252012 -1.2267678 0.3272094 4.371286
0001e0 78 c7 09 3d 12 ce a7 3e ad 03 5a c0 1e 16 bc 3d
       0.033637494 0.32774407 -3.4064744 0.09183906
0001f0 4c 2f 63 bd cb 17 4a 40 2d cc 88 3f 4c ce 73 bf
       -0.055465028 3.1577022 1.068731 -0.9523666
000200 bc ef 9f 3f cb 69 85 bd 9f c5 13 c0 55 bb b9 bf
       1.2495036 -0.06514319 -2.3089368 -1.4510294
000210 81 cd 9f bf 0f 35 15 3f e5 90 b8 bf 60 a0 0c 3f
       -1.248459 0.58284086 -1.4419218 0.5493221
000220 92 00 04 c1 49 aa ae be 89 43 11 c0 f0 37 8a 40
       -8.250139 -0.34114292 -2.269747 4.3193283
000230 b5 fe 49 3f 37 8c da bf df 7d a6 bc 2e 53 18 3e
       0.7890428 -1.707404 -0.020323692 0.1487548
000240 bd 28 56 c0 37 ff ae 3f c6 31 aa 3f c5 a6 d0 3d
       -3.3462365 1.3671635 1.329644 0.10188059
000250 1f 31 91 3f 45 2d 91 3d 07 41 3c bf 9a 73 44 c0
       1.1343116 0.070887126 -0.73536724 -3.0695558
000260 d2 50 36 c1 e8 b8 96 c0 35 af 46 bf 06 b7 be c0
       -11.3947315 -4.7100716 -0.77611095 -5.9598417
000270 20 87 26 c0 3e 3c 1b 3f 05 72 94 bf 6c 27 ba c0
       -2.6019974 0.606388 -1.1597296 -5.8173122
000280 9b d3 91 c0 b2 60 e7 bf 83 00 b0 c0 f5 65 ab c0
       -4.5570807 -1.8076384 -5.5000625 -5.356196
000290 0a a9 9b bc 24 65 93 be d9 a9 e4 bf 12 8d dc 3e
       -0.019001503 -0.28788102 -1.7864333 0.43076378
0002a0 98 a1 3e c0 61 85 9c bf 9c 00 dd 3f 13 65 0e bd
       -2.978613 -1.2228204 1.7265811 -0.03476436
0002b0 01 b1 d2 be 69 be 2f c0 7f a8 2f 3d e1 29 5a 40
       -0.41150668 -2.7459967 0.0428853 3.408806
0002c0 19 79 22 40 d5 a7 73 3f 9e 07 a9 be 38 13 a5 c1
       2.5386412 0.95177966 -0.33013624 -20.634384
0002d0 db fe ab bf ef fe 16 3f 40 3c a6 c0 cb 42 fc bc
       -1.3437151 0.5898275 -5.1948547 -0.030793568
0002e0 f9 47 f9 bf d4 9c 49 c0 14 7a 18 3f fd 96 cd c0
       -1.9475089 -3.150197 0.59561276 -6.424681
0002f0 21 6e 6d 40 91 12 17 c0 d6 8e 63 c0 f2 47 12 c0
       3.7098467 -2.3605082 -3.555593 -2.2856412
000300 2c 2d 60 40 f5 bb 9a 3d 28 16 01 c1 80 35 ce 3c
       3.502757 0.07555381 -8.067909 0.025171995
000310 7c 68 04 bc 68 ef ca 3f 00 b5 81 bf 0b e7 c5 3e
       -0.008081552 1.5854311 -1.0133362 0.38652834
000320 04 ba a3 bd 26 38 80 40 08 ca db c0 7b 8c dc 3e
       -0.07994464 4.006854 -6.868412 0.43075928
000330 9b de e8 be c3 18 78 be 64 08 1c be b1 ee f6 3f
       -0.45482334 -0.24228196 -0.15237576 1.9291593
000340 3b f9 89 be d2 a5 90 3e 1a 69 0c be a0 1b 21 c1
       -0.2694796 0.2825151 -0.13711968 -10.069244
000350 83 8d b9 c0 68 42 0f 3f 9b 67 62 c1 35 f1 85 be
       -5.7985244 0.559607 -14.150294 -0.2616059
000360 16 03 48 c0 b4 ed 19 bf e5 21 13 be ff c5 ba be
       -3.1251884 -0.6012833 -0.14368398 -0.36479184
000370 1d 15 dd 3f 6d f2 4d 3f 3b 09 e6 3d 28 81 fc bf
       1.7272068 0.8044804 0.11232229 -1.9726915
000380 e8 13 4c 3b 9b b1 8b 3f 43 31 a8 bf d8 c5 be c0
       0.0031139795 1.0913576 -1.3140033 -5.961651
000390 cd fe 7e c0 38 43 37 bb 5e ee 85 c0 57 c3 3d 40
       -3.9843018 -0.002796365 -4.1853476 2.9650476
0003a0 f7 4a b5 bf e9 07 1b c0 59 ff 51 bf a9 7f 96 c1
       -1.4163502 -2.4223578 -0.82030255 -18.812334
0003b0 05 8d 35 3f 67 61 cc bd 87 ea 29 3f 36 51 71 3d
       0.70918304 -0.099795155 0.66373485 0.05891534
0003c0 bf 65 3b 40 58 85 b6 c0 2a 2b 14 40 30 1c 10 3f
       2.928085 -5.7037773 2.3151345 0.5629301
0003d0 01 9e aa 3e ce 19 72 c0 60 c7 b8 c0 d3 aa 25 3f
       0.33323672 -3.782825 -5.774338 0.6471378
0003e0 3f 84 b4 40 95 e6 74 bf f9 57 a7 c0 4f ec 2e bd
       5.6411433 -0.9566434 -5.229489 -0.04270583
0003f0 20 82 67 3e e2 3b a1 c0 1d 1a bb 3c 3e 54 a1 40
       0.22608232 -5.03856 0.0228396 5.0415335

hiddenLayer3.bias f4 [150]
000000 6f 10 12 41 e4 5f e8 40 35 87 94 be 06 d4 17 bf
       9.129012 7.2617054 -0.29009405 -0.593079
000010 0e e7 b8 3e 18 79 bd 40 05 bb 92 c0 1a e1 36 3f
       0.3611378 5.921032 -4.5853295 0.7143723
000020 16 d1 17 bf 72 b8 89 bf c4 f3 91 be 5c ee 2e 40
       -0.59303415 -1.0759413 -0.2850629 2.7332983
000030 68 24 e7 be fb d6 58 c0 02 ae da 40 37 ff 86 bf
       -0.45144963 -3.3881214 6.833741 -1.0546635
000040 16 aa a8 be 74 b9 c0 40 55 51 22 be 26 0d 3c bf
       -0.32942265 6.0226383 -0.15851338 -0.7345756
000050 49 2b 93 40 94 4e 0b bf a6 48 54 41 b5 61 8e 3f
       4.599034 -0.54416776 13.267736 1.1123568
000060 2a 22 24 bf de bf 5d 40 80 1b b5 40 c6 c9 30 be
       -0.6411463 3.4648356 5.659607 -0.1726447
000070 e6 cd 7f 40 49 21 af 3f ed d3 0c 3d 1b 5e 00 41
       3.996942 1.3682033 0.034381796 8.022975
000080 b3 89 13 bf 86 6c c5 40 47 12 90 bf a5 1c fd be
       -0.5763199 6.1694975 -1.1255578 -0.49435917
000090 50 51 f4 40 72 d3 1f 40 5b da bb bf d4 77 3b bf
       7.634926 2.4972806 -1.4676012 -0.7322972
0000a0 7a 27 9c 3d f0 ef ba be 56 34 3a 40 e6 c0 48 bf
       0.07624717 -0.36511183 2.9094443 -0.7841934
0000b0 9c a9 9c bd 5e 55 be 40 63 b4 2d bf c9 1e 71 41
       -0.07649538 5.947921 -0.67853373 15.070016
0000c0 53 9c 38 bf db 79 7a 40 db 40 33 41 a6 4b 62 be
       -0.7211353 3.9136875 11.203334 -0.2209917
0000d0 dd 09 24 c1 c5 77 9e bd 80 b6 8e be 0a b8 62 40
       -10.252408 -0.07737688 -0.2787361 3.5424829
0000e0 0a ee 2a bf 34 de d0 40 5a d5 23 40 24 ff 55 c1
       -0.6676947 6.5271244 2.559897 -13.37479
0000f0 5e 3b 38 bf 30 ed 01 be 1a 82 fe be 39 ad 08 41
       -0.7196559 -0.12688136 -0.49708635 8.542291
000100 9b 1c 4a be 55 5b 0c bf 9c b7 3d bf 59 dc 09 c1
       -0.19737475 -0.5482686 -0.7410829 -8.616296
000110 3a b1 0d bf 0e ae 3b be cd d8 e8 40 c0 8a ce 3f
       -0.5534855 -0.18328115 7.276465 1.6136093
000120 80 d4 84 3f c0 ef 37 41 6d ca fd 40 d5 e3 7f 40
       1.037735 11.496033 7.93096 3.9982808
000130 05 6c 06 c1 d9 06 c8 bf c1 1d 03 41 8f b4 6f bf
       -8.401372 -1.562709 8.194764 -0.93634886
000140 b0 9d 91 bf 11 25 14 41 1b 59 59 40 b6 d6 7a 3e
       -1.1376247 9.259049 3.3960636 0.24495968
000150 dc a9 1b c0 8e 62 ac bd af e4 e1 be 46 bf be be
       -2.4322424 -0.08417235 -0.44119784 -0.37255305
000160 26 7d e4 bd 54 53 a8 be 3a 49 ee 3f 9b e4 2f 41
       -0.11156683 -0.32876074 1.8616097 10.993312
000170 86 00 b3 be 66 e4 f9 bf 69 2c 63 be d2 3e 8a c0
       -0.34961337 -1.9522827 -0.2218491 -4.3201685
000180 4c 50 09 41 3e 01 2b bf 07 e2 25 c1 32 d6 1f 41
       8.582104 -0.6679877 -10.367682 9.989794
000190 cc 49 85 be 3e cc be 40 85 39 1d bf b1 6c e9 be
       -0.26032865 5.962432 -0.6141589 -0.45590737
0001a0 e0 39 59 40 55 9a c4 bd 0b c1 95 40 27 93 9c bf
       3.3941574 -0.09599749 4.679815 -1.2232407
0001b0 c8 17 04 be aa f6 65 41 f9 30 59 bf 43 95 c1 3f
       -0.12899697 14.372721 -0.8484035 1.5123676
0001c0 0c d4 26 41 cc 64 0b 3e 25 d1 cb 3f 84 06 6c 41
       10.426769 0.1361267 1.5923201 14.751591
0001d0 ab a6 3a bc 17 03 72 bd 50 ff 6c 41 27 09 0e c0
       -0.011392276 -0.059084978 14.812332 -2.2193086
0001e0 0d 30 f2 be 77 04 d3 be 08 40 d6 bd 80 da 00 be
       -0.47302285 -0.41214344 -0.10461432 -0.12583351
0001f0 ea 9b 9b be d5 38 1b c1 a4 1a 76 3c 10 14 3d be
       -0.3039239 -9.701375 0.015021 -0.18464684
000200 9d f7 a3 40 df 54 ef 40 4f 68 2f bf c8 17 cd 40
       5.123976 7.4791102 -0.6851854 6.409153
000210 a0 28 d4 bf 0a 18 72 40 c5 e2 5a 3f b1 18 4a 41
       -1.6574898 3.7827172 0.8550227 12.631028
000220 02 ab 6e bf 64 2f 9c c0 b4 76 39 3f b9 18 5f be
       -0.9322969 -4.880785 0.7244675 -0.21786775
000230 fd 38 85 bd 5c 8b 21 41 c2 d8 01 bf 38 b3 e3 c0
       -0.0650501 10.096523 -0.5072137 -7.1156273
000240 b3 a4 6a 40 77 c8 53 3e b8 fd 9b 3f e0 38 b2 40
       3.6663024 0.2068194 1.2186804 5.5694427
000250 51 1e 5f c0 51 3e c2 bc
       -3.4862254 -0.023711355

outputLayer.weight f4 [2, 150]
000000 52 a4 1e 3f 67 ac 15 40 e5 95 29 39 01 60 ed be
       0.6196948 2.3386476 0.00016172936 -0.46362308
000010 d5 5c 17 3e db bc 8a 3f f1 96 cb c0 12 2f 64 3c
       0.14781506 1.0838884 -6.3621755 0.013927238
000020 2a f2 c5 bf 7d 0c 2c 40 c0 3b f3 3e 88 80 cf be
       -1.5464528 2.6882622 0.47506523 -0.4052775
000030 36 c9 fa 3e 61 58 52 c0 b7 38 69 be e3 36 95 3f
       0.48981637 -3.2866442 -0.22775541 1.1657375
000040 cf 2c 97 3c 7c 7a 31 40 c9 5f ab bc d5 9f f7 3f
       0.018453984 2.7731009 -0.020919697 1.9345652
000050 73 8d a4 3f de 3b e4 bc bc 4d 5f 3f a2 3b e9 3e
       1.2855667 -0.027860578 0.8722799 0.4555331
000060 a0 9e 56 c0 10 60 13 41 e4 2e d8 3e 96 40 92 3e
       -3.3534317 9.210953 0.42223275 0.285649
000070 41 08 88 bd df 88 fa 3f b8 cd 12 bf 0e c7 ba 3f
       -0.06642199 1.957302 -0.5734515 1.4591997
000080 0a 63 ab 40 cc 38 4f 3f 2d 36 e1 c0 3e 96 b8 3f
       5.3558397 0.8094604 -7.0378633 1.442085
000090 3c 33 b0 3e 82 ea 44 3f 05 78 ae bd 60 49 87 3f
       0.3441409 0.7692033 -0.08518986 1.0569267
0000a0 94 25 39 3d 4d d2 7c 3f e5 bc 53 41 54 27 86 3f
       0.045201853 0.98758394 13.233617 1.0480752
0000b0 f7 06 c9 3d 19 cf 85 3f a1 55 75 3f 8a be 03 40
       0.098157816 1.0453826 0.95833784 2.0585046
0000c0 ba bd ae be cd 53 2a 40 33 6f 64 3f 3e 2f f1 bc
       -0.34129125 2.6613648 0.89232177 -0.029441472
0000d0 33 5e 3a bf 34 a1 e4 3c 6d fd 37 40 4c a7 f0 3f
       -0.72799987 0.027908899 2.874843 1.8801055
0000e0 53 28 bd 3f 48 2f 63 3f b8 e8 eb 3d 23 13 4d c0
       1.4777931 0.8874402 0.11518997 -3.204293
0000f0 79 96 98 3f 22 cd 06 c0 a4 9f a5 be 0d a9 de 40
       1.1920921 -2.1062703 -0.3234836 6.958136
000100 39 5d b7 bf 7e ee db bf 5b 5c 98 3f 9c 1f 90 bf
       -1.4325324 -1.7182157 1.1903185 -1.1259646
000110 f6 b5 28 c0 64 96 1a bd c2 c2 e8 3f d9 dc 3d 40
       -2.636106 -0.03774108 1.8184435 2.9666045
000120 54 7e 70 be 33 67 8d 3f 76 d6 4e 3d f3 bb da 3f
       -0.2348569 1.1047119 0.050497495 1.7088608
000130 18 8d c8 be e8 cc a1 be 02 17 21 40 31 16 ca bf
       -0.39170146 -0.31601644 2.5170293 -1.5788022
000140 6f b3 cd 3f ac 78 9e 3f ad 63 98 bf 28 db d2 3f
       1.6070384 1.2380576 -1.1905419 1.6473131
000150 44 bc 07 bf ed 54 b3 bd 46 28 97 bf 97 d2 55 40
       -0.53021646 -0.08756433 -1.1809165 3.3409784
000160 a9 db d5 bc 8d 3d 72 bf 9a fc 97 c0 46 dd 05 3f
       -0.026105719 -0.9462517 -4.749585 0.5229076
000170 6d 37 a8 be 4b 0e a5 bf c8 15 d2 3c 60 73 57 c1
       -0.32854787 -1.2894987 0.025645152 -13.465668
000180 e9 b9 fa 3f 12 a1 b1 40 68 c9 ab be 3b 0e 22 3f
       1.9587985 5.550912 -0.33552098 0.63302964
000190 9d ca ec c0 9a 60 9d 3f 0b 00 c9 3f 70 ff c9 bf
       -7.399733 1.2295105 1.5703138 -1.5781078
0001a0 49 41 36 3f 65 e2 20 c0 ff b9 dc 3e 23 48 c0 bc
       0.7119337 -2.513818 0.43110654 -0.023471897
0001b0 f9 a8 92 bf 88 3a 28 3f 43 94 c5 be b6 69 23 bf
       -1.1457816 0.6571431 -0.38589677 -0.6383318
0001c0 2d 76 c7 40 79 1a 35 3f 1d b2 cc bf ba 69 ee 3f
       6.2331758 0.7074352 -1.5991856 1.8626015
0001d0 25 9b a9 3e a2 15 b5 bc 28 7b 47 3f 96 37 d3 bf
       0.33126178 -0.022105042 0.77922297 -1.6501338
0001e0 f5 e3 a0 3d d5 a1 5b be b4 d5 39 bd ce f8 de be
       0.07855979 -0.21448453 -0.04536982 -0.43549198
0001f0 8e 42 0b 3f f1 85 df be 1d 14 04 bb 38 36 96 3c
       0.5439843 -0.43656877 -0.002015359 0.0183364
000200 22 f1 82 bf 3a 8a 7a 3f 64 03 0a c1 fd 44 5f be
       -1.0229838 0.97867167 -8.625828 -0.2180366
000210 47 99 83 c0 d7 88 29 c0 20 c6 54 40 7c af 74 3f
       -4.1124606 -2.648977 3.3245926 0.9558027
000220 24 62 15 be 9c 75 94 3e 31 ff bf 40 9d d6 05 40
       -0.14588219 0.2899598 5.9999013 2.091224
000230 9a ff 70 bc 9d 11 bf 3f d1 45 12 40 95 58 f0 3e
       -0.014709378 1.492725 2.2855113 0.46942583
000240 ef a2 31 bf 7d 9b 7d 3e ec 17 80 40 c8 b3 85 3f
       -0.6938924 0.24766345 4.00292 1.044549
000250 57 e9 99 40 99 d9 76 bc 81 f8 3d 3f f7 f8 14 40
       4.809734 -0.015066528 0.7420731 2.3276956
000260 31 48 68 3c 82 c1 c0 3e b0 a7 a4 be 22 c9 89 3f
       0.014177368 0.37647635 -0.32159185 1.0764506
000270 e5 d5 c1 c0 2c e5 b3 3c 53 14 69 40 00 b3 35 c0
       -6.05736 0.021959864 3.6418655 -2.8390503
000280 6c 99 2f bd 13 80 81 3c 5e b6 1c bf 36 a3 4b c0
       -0.042870924 0.01580814 -0.6121577 -3.1818366
000290 b9 f8 ac be bb 83 98 bf ba a3 b4 3c 99 63 37 40
       -0.3378351 -1.1915201 0.022050727 2.865454
0002a0 90 4c 5e bb f5 4f 02 c0 2f 28 3c bd 14 38 8a be
       -0.0033920147 -2.0361302 -0.04593676 -0.2699591
0002b0 32 2d 56 3f 2b 1e 6c 3f ed 1c 81 40 55 49 0f 41
       0.8366271 0.9223353 4.034781 8.955403
0002c0 d8 72 d8 3e 8b 7a 98 be 5d 51 8b 3e f3 a3 a8 40
       0.4227512 -0.29780993 0.27210513 5.2700133
0002d0 2e dc 92 3f 06 23 1a 40 25 7d ca bf 24 22 56 3f
       1.1473444 2.4083877 -1.5819441 0.83645844
0002e0 d6 7b 00 c1 65 c3 91 3f b5 6f 83 3e 1e 92 52 bf
       -8.030233 1.1387755 0.25671163 -0.8225421
0002f0 a4 a3 93 3f 7e 46 69 3d 85 42 13 3e 99 3f 6f bf
       1.1534314 0.056951992 0.14380844 -0.9345642
000300 f1 fb 67 41 bc 0b a1 bf 3b 6c 66 be 77 34 59 3f
       14.499009 -1.2581706 -0.22502224 0.8484568
000310 34 fe 87 bf 06 81 03 40 de bc 3e 3e 09 53 22 40
       -1.0624452 2.05475 0.18626735 2.536318
000320 b0 db 63 3f 33 29 b7 bc d3 8d 47 bf 63 4c d5 bb
       0.8900709 -0.022358513 -0.7795078 -0.00650935
000330 1d 94 12 c0 53 eb e0 3f ae e8 05 40 e2 0d 6b 3f
       -2.29029 1.7571815 2.0923266 0.9181806
000340 79 8b 80 3f c4 98 4d c0 a7 7c 8f bf ae 91 0d 40
       1.0042564 -3.212449 -1.1209916 2.2120166
000350 e7 36 47 3e 29 10 e9 40 71 32 ce 3f f4 64 2a bf
       0.19454537 7.2832227 1.6109143 -0.6656029
000360 e3 43 15 40 75 36 0d c0 9a 76 2d c0 48 1a 36 3c
       2.3322685 -2.2064488 -2.7103639 0.011114664
000370 fa d3 f3 3f 42 a2 25 40 8d db d4 bc 15 62 8d 3f
       1.9049065 2.5880284 -0.025983596 1.1045557
000380 21 df a3 be b3 ca de 3f 5e 77 1a be eb ac a8 bd
       -0.3200617 1.7405609 -0.15084597 -0.082361065
000390 dd f5 1c 40 61 34 04 c0 1d 38 d7 3f 67 51 9d 3f
       2.4525063 -2.065697 1.6814 1.2290467
0003a0 13 e8 19 40 55 b6 e6 3f c2 01 85 be 32 19 97 3c
       2.4047897 1.8024393 -0.25977904 0.018444631
0003b0 30 47 9b 3f f7 ed 63 40 9d 8d ef bc 9f ef 1f 3f
       1.21311 3.5613992 -0.029242331 0.6247501
0003c0 df 83 95 c0 b1 d9 06 3f 5f 12 4e 3f 5c 96 a7 bf
       -4.6723475 0.5267592 0.8049678 -1.3092761
0003d0 c2 87 ae bb 01 b0 84 c1 a0 44 ff 3f 24 5f 73 40
       -0.005326242 -16.58594 1.9942818 3.802682
0003e0 1e ac a6 bd 0b d1 26 3f 02 9e 07 c0 13 ea d2 3e
       -0.081382975 0.65162724 -2.119019 0.4119421
0003f0 43 d8 c3 3f 3e d7 d0 3f 85 d6 9f 40 88 16 20 40
       1.5300373 1.6315687 4.9949365 2.5013752

outputLayer.bias f4 [2]
000000 bf 9a 6b 41 6a 6e 6d 41
       14.72528 14.839457
