ftl/pretrain/weight/finetune_wdev_0/finetune_wdev_0_23.pth (torch, 187645 bytes, 8 tensors)

hiddenLayer1.weight f4 [150, 3]
-0.40532434 -0.53751695 -0.58797294 -0.021686291 0.00012234377 -0.053491697 -0.535005 -0.21052498
-1.1692693 -0.15740386 0.022506777 1.3304507 -2.5058387e-05 -0.003036188 -0.0025911236 -0.11491106
0.0004363449 -0.112245746 -14.137602 0.008837382 -0.60907197 -2.756584 0.003723944 0.008830223
-1.7332224 -0.0042609717 -0.4011194 -0.51779056 -0.07980709 -0.07122152 -0.083591804 -0.0061828797
-4.635284 -0.3348636 0.0138061335 -0.37920606 -16.986145 -0.074286036 -0.20947486 -0.032575484
0.004367758 0.031706855 -0.021713722 0.000505641 -0.0069837803 -0.4016153 -0.009565189 0.6070037
-0.09444375 0.01391173 -0.026190825 -33.893017 0.035289846 -0.21371073 -3.4669075 -0.013516766
-0.01271467 -0.05708667 -0.00070745073 -0.032307513 0.00019010836 0.008657701 -0.0044600694 -2.5668955
-0.12253465 0.36863908 -0.009914082 -0.07628418 0.0032669338 -11.138649 0.015792536 -0.0016204693
-1.8930614 0.03923713 0.6898096 -6.690448 -0.004431174 -2.0802362 -0.6059861 0.15488134
-0.53403753 0.04966663 -0.27039132 0.92359895 -2.9811833 0.18638188 -0.13632448 -0.30613258
-0.041856576 -0.029574705 -0.04733317 0.00022093355 2.1056902 -3.8849099 0.041736342 0.91062486
-1.2170618 0.22688371 -0.99275666 -0.46933284 0.0021010637 -0.054201566 -0.075492285 -6.0254755e-05
-0.10112852 -0.49501008 -0.53160757 -0.48943898 -2.1102643 0.00436824 -4.3147044 -0.27294838
0.005178786 -0.20599903 -0.0165612 -0.000701565 -0.027785556 -9.720477 -0.010967296 -1.0761024
-0.03140629 -0.004740447 -0.02586291 -0.82900417 -0.23510167 -0.74246544 -0.062008403 0.0001408287
-0.011482914 -0.14920618 -5.0195584e-05 -0.046765797 -0.85656196 -0.31578338 -0.69432104 -2.8555338
0.0028104929 -3.1263459 -4.540195 0.005635463 0.5479616 -2.367586 0.019359136 -0.6953907
-8.199047 -0.0017941926 -0.08411961 -1.3145131 0.0678412 -0.37238425 -0.46141058 -0.138161
-0.22717723 -0.41731298 -0.38165298 0.11275028 -0.103380956 -0.016024353 2.3181126 -1.9281055
-0.016680745 0.02741813 -0.07044609 -3.0332656e-05 -0.03537665 -0.07899415 -0.00017297978 -7.6704555
-0.22595985 -0.2753021 -0.2955869 -0.00429485 -0.00017986288 -0.10385108 -38.285885 0.0057123993
-0.021413578 -1.9774389 0.6101453 -0.4282543 -0.028260496 0.0005325569 -0.052008737 0.36874816
0.0001843533 -4.476297 -6.5814657 -0.026810784 -3.929187 -2.9380713 0.20458679 -1.9020343
-24.75881 -0.0230167 0.011585877 -7.3482184 0.012335111 -1.8837396 -3.1903934 0.43536526
-0.31392398 -0.22082448 -0.0026925586 5.212261 -0.05644776 0.046457294 -0.017846616 -0.08955876
0.0029780245 -0.010934558 -2.36987 0.12956665 0.021473477 -15.896156 0.21200538 -0.8105441
-5.0179157 0.21548314 -0.039130412 -0.114817694 0.0068946197 -0.021754602 -0.06996511 0.003529325
-0.0069130315 -0.073599875 0.00046261257 -0.08730927 -0.45496443 -0.64005107 -0.26853386 -0.05243463
-0.005576323 -0.04125022 -5.191067 0.16193593 0.027429003 0.011670483 -0.019776419 3.113675
-0.024480032 0.0036145954 -0.015546311 -31.108042 -0.09976147 -0.11515009 -5.9503846 -0.1687884
-0.8485084 3.6516274e-05 0.0010332367 -0.0023561995 -6.1870346 -0.017366903 0.0039358055 -4.4399853
00000000: ac86 cfbe b69a 09bf 6585 16bf 73a7 b1bc
00000010: 6849 0039 1c1a 5bbd 16f6 08bf dc93 57be
00000020: 9eaa 95bf 7a2e 21be 2260 b83c 354c aa3f
00000030: 7a34 d2b7 c8fa 46bb d7cf 29bb 7d56 ebbd
00000040: 39c5 e439 19e1 e5bd 9e33 62c1 abca 103c
00000050: 24ec 1bbf df6b 30c0 6a0d 743b a4ac 103c
00000060: 3bda ddbf 9f9f 8bbb 865f cdbe ec8d 04bf
00000070: e671 a3bd 97dc 91bd 2e32 abbd c199 cabb
00000080: 3f54 94c0 3e73 abbe 1f33 623c 4c27 c2be
00000090: a0e3 87c1 4723 98bd 9480 56be df6d 05bd
000000a0: 691f 8f3b 0cdf 013d fae0 b1bc fe8c 043a
000000b0: 32d8 e4bb 85a0 cdbe 4fb7 1cbc 9864 1b3f
000000c0: ba6b c1bd 06ee 633c 248e d6bc 7392 07c2
000000d0: 168c 103d fcd6 5abe d0e1 5dc0 6d75 5dbc
000000e0: 3151 50bc b6d3 69bd 3774 39ba e254 04bd
000000f0: d357 4739 08d9 0d3c c625 92bb 0448 24c0
00000100: 72f3 fabd 43be bc3e ac6e 22bc e13a 9cbd
00000110: 0e1a 563b e837 32c1 595f 813c ed65 d4ba
00000120: d64f f2bf 1db7 203d 5d97 303f 2618 d6c0
00000130: 6233 91bb 9722 05c0 e821 1bbf 3799 1e3e
00000140: afb6 08bf 3c6f 4b3d bb70 8abe fb70 6c3f
00000150: b5cb 3ec0 e4da 3e3e a598 0bbe 69bd 9cbe
00000160: cd71 2bbd a746 f2bc 6de0 41bd 66aa 6739
00000170: a1c3 0640 5da2 78c0 baf3 2a3d b61e 693f
00000180: aec8 9bbf 3454 683e 4d25 7ebf 654c f0be
00000190: 00b2 093b 7602 5ebd b39b 9abd 0dba 7cb8
000001a0: 781c cfbd f671 fdbe 6f17 08bf bf97 fabe
000001b0: 920e 07c0 7423 8f3b 0f12 8ac0 e4bf 8bbe
000001c0: ceb2 a93b 69f1 52be 5bab 87bc 3be9 37ba
000001d0: 899e e3bc 1387 1bc1 2cb0 33bc b9bd 89bf
000001e0: e2a3 00bd c055 9bbb 74de d3bc 9e39 54bf
000001f0: 7ebe 70be 3712 3ebf 86fc 7dbd 6bab 1339
00000200: d522 3cbc 81c9 18be 1989 52b8 7e8d 3fbd
00000210: a547 5bbf 5cae a1be 06bf 31bf 11c1 36c0
00000220: 3f30 383b 0d16 48c0 4749 91c0 b1a9 b83b
00000230: 3647 0c3f 8786 17c0 0d97 9e3c 2005 32bf
00000240: 4c2f 03c1 1d2b ebba e746 acbd f741 a8bf
00000250: 54f0 8a3d 26a9 bebe 023e ecbe 147a 0dbe
00000260: 26a1 68be 0caa d5be 0568 c3be 9ee9 e63d
00000270: 65b9 d3bd 8145 83bc f55b 1440 29cc f6bf
00000280: 0fa6 88bc fc9b e03c 0a46 90bd e272 feb7
00000290: 1be7 10bd afc7 a1bd e861 35b9 5f74 f5c0
000002a0: 0562 67be 66f4 8cbe 2b57 97be d0bb 8cbb
000002b0: 9399 3cb9 e0af d4bd bf24 19c2 142f bb3b
000002c0: 876b afbc b81c fdbf 7b32 1c3f 2644 dbbe
000002d0: 8e82 e7bc 4a9b 0b3a 1d07 55bd 8fcc bc3e
000002e0: f64e 4139 d33d 8fc0 5e9b d2c0 4aa2 dbbc
000002f0: cd77 7bc0 5c09 3cc0 337f 513e dc75 f3bf
00000300: 0b12 c6c1 858d bcbc b1d2 3d3c 9b24 ebc0
00000310: 3519 4a3c 611e f1bf 682f 4cc0 32e8 de3e
00000320: a5ba a0be d01f 62be a375 30bb d8ca a640
00000330: c435 67bd 014a 3e3d 1133 92bc 956a b7bd
00000340: f62a 433b dc26 33bc f3ab 17c0 1fad 043e
00000350: 25e9 af3c a856 7ec1 f017 593e d17f 4fbf
00000360: c492 a0c0 9da7 5c3e 3647 20bd 8a25 ebbd
00000370: 43ec e13b b536 b2bc de49 8fbd 3f4c 673b
00000380: b686 e2bb 88bb 96bd cf8a f239 34cf b2bd
00000390: 19f1 e8be 63da 23bf 457d 89be b2c5 56bd
000003a0: 96b9 b6bb fef5 28bd 391d a6c0 88d2 253e
000003b0: cab2 e03c 8e35 3f3c 2802 a2bc 7446 4740
000003c0: 598a c8bc d9e2 6c3b f4b5 7ebc 45dd f8c1
000003d0: be4f ccbd cfd3 ebbd 8d69 bec0 ded6 2cbe
000003e0: d937 59bf 0d29 1938 ac6d 873a 786a 1abb
000003f0: 30fc c5c0 0945 8ebc eef7 803b 5c14 8ec0

hiddenLayer1.bias f4 [150]
-5.4896097 -0.08761147 -2.8146205 -2.0544367 -0.059627254 -0.091084905 -0.99363774 -0.24678153
-0.38115448 -1.1979284 -1.555122 -0.38067248 -1.6318277 -4.0769424 -0.0107353665 -0.22974096
-0.26611435 -1.5119125 -0.3371141 -0.03835703 -0.18856902 -5.0178614 -1.1864355 -0.6280648
-2.5508173 -1.8617892 -1.7161617 -8.551182 -2.0324712 -0.6433544 3.6151266 -5.705414
-2.572508 -0.08870582 -0.17178053 -5.3432775 -1.7921219 -0.20401832 -0.033318777 -1.4317313
-0.14628151 -2.874952 -0.014968357 -0.04346149 -3.4267824 -2.4126406 -3.4295712 -0.72073954
-0.35007602 -1.0967898 -1.5860782 -4.2928386 -5.4621015 -1.7815199 -0.030258374 0.4948954
-3.9850419 -0.08308648 -1.2808472 -6.067887 -0.09127812 2.736592 -0.5186594 -2.8373225
-1.6152085 -0.978652 -4.3309894 0.43199807 -0.66102177 -0.06732466 -1.8624475 -3.3333688
-2.2767246 -0.15573733 -0.07936348 -0.07299324 -7.581081 -0.11849184 -2.3614607 -4.8676076
-0.06206175 -2.438841 -2.3361053 -0.028479282 -0.38954705 -4.5062566 -1.771865 1.8916392
-0.013381488 -1.4817894 -0.34598818 -0.4908458 -2.125987 -1.9048383 -3.3930838 -0.09326719
-0.35948363 -3.66711 -0.10197772 -2.3552566 -0.1372041 -0.6302336 -2.429448 -1.0230649
-4.8480115 -0.08950173 -0.035754465 -2.9239244 -1.0572824 -7.695823 -1.5762002 -0.10884183
-3.7259383 -4.146382 -1.4136257 -0.017480554 -4.423028 -1.2168565 -3.3026037 -0.12052022
-0.054244444 -4.8087907 -15.539241 -0.026571877 -0.04486456 -0.028602762 -1.4324272 -0.6516726
-0.82555264 -1.1936734 -1.4966552 -0.8246285 -0.13345857 -1.5296572 -0.56105024 -3.0699737
-0.19129646 -0.38370684 -4.3596644 -0.10076139 3.3838973 -3.6457453 -7.8723164 -1.1525674
-0.27947095 -0.013747211 -3.229709 -1.1566278 -0.12532479 -0.18417369
00000000: e2aa afc0 a46d b3bd be22 34c0 e47b 03c0
00000010: b53b 74bd b98a babd 0b5f 7ebf 4cb4 7cbe
00000020: ae26 c3be b855 99bf 3d0e c7bf 81e7 c2be
00000030: bbdf d0bf 5076 82c0 64e3 2fbc 3741 6bbe
00000040: 2440 88be 5986 c1bf 389a acbe 431c 1dbd
00000050: 3d18 41be 5292 a0c0 1edd 97bf dbc8 20bf
00000060: 9740 23c0 1c4f eebf 30ab dbbf a4d1 08c1
00000070: 0214 02c0 e0b2 24bf 3c5e 6740 c092 b6c0
00000080: f9a3 24c0 66ab b5bd 3ce7 2fbe 21fc aac0
00000090: 4064 e5bf 2eea 50be 4579 08bd f942 b7bf
000000a0: d2ca 15be 37ff 37c0 d73d 75bc ad04 32bd
000000b0: 6750 5bc0 b468 1ac0 187e 5bc0 6382 38bf
000000c0: 2a3d b3be 9c63 8cbf 9c04 cbbf ef5e 89c0
000000d0: 89c9 aec0 d808 e4bf 69e0 f7bc ee62 fd3e
000000e0: ed0a 7fc0 3f29 aabd cdf2 a3bf 212c c2c0
000000f0: 06f0 babd 5324 2f40 ddc6 04bf b196 35c0
00000100: 27bf cebf f088 7abf 7797 8ac0 da2e dd3e
00000110: b938 29bf 83e1 89bd ae64 eebf ea55 55c0
00000120: dbb5 11c0 9b79 1fbe 5289 a2bd 7b7d 95bd
00000130: 3798 f2c0 daab f2bd 2c22 17c0 71c3 9bc0
00000140: 7634 7ebd f915 1cc0 c082 15c0 624d e9bc
00000150: b672 c7be 4133 90c0 79cc e2bf 3c21 f23f
00000160: 073e 5bbc 46ab bdbf 5d25 b1be 2450 fbbe
00000170: 2c10 08c0 bed1 f3bf 4928 59c0 de02 bfbd
00000180: 3d0e b8be eeb1 6ac0 b2d9 d0bd 86bc 16c0
00000190: 3b7f 0cbe fd56 21bf 137c 1bc0 caf3 82bf
000001a0: e922 9bc0 af4c b7bd 4673 12bd 9421 3bc0
000001b0: 0855 87bf 2f44 f6c0 eec0 c9bf 77e8 debd
000001c0: c675 6ec0 29af 84c0 b0f1 b4bf 6133 8fbc
000001d0: 7289 8dc0 f4c1 9bbf dc5d 53c0 4ed3 f6bd
000001e0: 6c2f 5ebd 9de1 99c0 bba0 78c1 44ad d9bc
000001f0: e7c3 37bd 5750 eabc c659 b7bf 04d4 26bf
00000200: 6b57 53bf 4aca 98bf 6692 bfbf da1a 53bf
00000210: 5da9 08be cfcb c3bf fda0 0fbf 737a 44c0
00000220: 38e3 43be 3975 c4be 5f82 8bc0 fd5b cebd
00000230: c691 5840 e453 69c0 04ea fbc0 5487 93bf
00000240: d116 8fbe fb3b 61bc 8db3 4ec0 610c 94bf
00000250: 2455 00be 0798 3cbe

hiddenLayer2.weight f4 [150, 150]
-0.33624887 0.07611778 -1.78064 -1.7875625 -0.59487414 0.24902679 -5.3241086 -0.73710203
4.090236 -1.4060246 -7.508228 -2.492816 -10.836908 -0.11867403 0.10053787 0.9519169
-0.096617855 0.45865932 -0.03911274 -0.13611515 -3.1554506 -0.37966242 -0.41363215 -2.0322058
-4.2042847 -1.7040406 0.8458045 -2.120906 2.144453 -0.76298916 -0.7265887 -0.8352308
-4.8511844 -0.26534298 -0.08441459 -0.41881326 -1.4096452 -0.399036 0.06797514 -5.4208245
-0.21211317 -22.978949 -0.0942391 -0.18589705 -0.019531582 0.30814055 -1.4406576 -13.791469
-8.924838 2.2391202 -4.5522366 1.6511418 -1.1552039 -4.6085114 0.019724634 -14.958483
-5.3017673 0.10412201 2.6068673 -1.5313206 -0.47416076 -0.56386524 -0.51009554 -19.464943
-11.118367 0.5190458 -8.722013 -12.062583 0.62490124 -0.106045574 2.0449705 -6.2797947
-37.98588 -0.041170053 -0.0451855 -0.17476158 -4.1080966 -0.26702517 -6.1561866 -0.25052983
-0.12308942 2.7010918 -0.095372654 -0.0838232 1.4115769 -3.225359 -6.0636168 -0.31404358
0.27293137 3.5647233 -6.185922 -0.4391318 -2.7311583 4.817548 -0.284525 1.6750631
-0.23067428 -0.29121238 0.93353367 -5.1049995 0.40305275 1.8514181 1.964254 -0.005793735
-0.75534457 0.4935539 0.3313597 0.15521485 -4.35373 -0.8170372 5.4755983 -0.1189245
-3.240397 0.90555644 -4.041022 0.010613404 -4.0261936 6.5693283 -11.562347 -0.19187196
-0.018664945 -1.8577703 -0.31438857 -0.08067993 -0.08590939 -0.23828194 -2.5113897 2.2704563
-2.1633043 1.2929101 -0.35879755 -0.15575272 -0.11266164 -1.2402469 -4.7768846 -10.561975
1.7842956 -2.3348207 1.5129589 0.08447807 -0.4731227 -0.8713595 -0.60377973 -0.7318415
-0.94833666 -0.028227566 -5.9421663 -3.7534735 0.052904807 2.1116023 -17.514624 0.0448798
-0.58388144 2.326179 -0.066948675 -0.2473073 -5.528183 -1.9834424 -0.09649091 -5.009714
-0.66475934 -1.3151531 1.4465871 -5.4584928 0.02462586 -0.25981274 0.18612412 -3.4035618
-0.87670183 -0.055897053 5.9851265 1.0365766 0.5442554 -1.4151558 -5.8499722 -0.9254836
-0.77135444 -0.9038706 -2.4520488 -0.55171615 -1.5529147 0.48628464 -1.9224323 0.39528555
0.34588104 -0.5125791 -1.3308967 0.3810698 0.047568616 2.6013525 -0.54068 2.042859
-0.011623005 -0.024058897 -7.690216 -0.6361747 1.5476828 -0.6282451 -10.309999 -0.4554732
2.5342064 0.5249385 -4.4059668 2.7137887 -0.13889188 -1.2171161 2.843264 -0.32022116
-0.10447345 -0.7926862 -0.8000516 -3.0611098 0.27762836 -1.2146543 4.4815116 -0.46455187
-2.5755415 -0.21029426 -0.38949502 -0.15223269 -3.7858272 1.1549988 -2.6573648 0.08912285
-0.08557787 0.113186434 2.674611 -0.3316419 0.5032696 5.4811263 0.23681372 -2.1818292
-10.869438 -0.042767644 -1.4963418 -1.9418406 -4.6199074 -3.7854302 -0.01799707 -1.8321912
-0.15586337 -1.0711906 -1.5665511 1.8574445 -1.4365997 -1.7957325 0.034641717 -2.4727726
0.29221696 0.6051956 0.5216482 0.8209799 -0.74767435 -0.83502454 -8.646422 -1.1178601
00000000: d028 acbe a3e3 9b3d 03ec e3bf d9ce e4bf
00000010: ac49 18bf e100 7f3e 195f aac0 b8b2 3cbf
00000020: 37e3 8240 9df8 b3bf 6743 f0c0 4c8a 1fc0
00000030: fa63 2dc1 5f0b f3bd cce6 cd3d d3b0 733f
00000040: 95df c5bd 65d5 ea3e ae34 20bd c561 0bbe
00000050: e7f2 49c0 1d63 c2be 98c7 d3be a90f 02c0
00000060: 8089 86c0 011e dabf a586 583f edbc 07c0
00000070: b83e 0940 4253 43bf b801 3abf b0d1 55bf
00000080: e73c 9bc0 09db 87be 8ee1 acbd b16e d6be
00000090: 416f b4bf 724e ccbe 8d36 8b3d 6577 adc0
000000a0: 3234 59be e3d4 b7c1 6e00 c1bd cc5b 3ebe
000000b0: b200 a0bc 99c4 9d3e 7867 b8bf dba9 5cc1
000000c0: 23cc 0ec1 bf4d 0f40 ecab 91c0 9d58 d33f
000000d0: b9dd 93bf ed78 93c0 8e95 a13c f255 6fc1
000000e0: 14a8 a9c0 ec3d d53d ead6 2640 5002 c4bf
000000f0: 33c5 f2be 7959 10bf 9f95 02bf 34b8 9bc1
00000100: d5e4 31c1 30e0 043f 5e8d 0bc1 5700 41c1
00000110: 87f9 1f3f 6c2e d9bd cce0 0240 14f4 c8c0
00000120: 8bf1 17c2 eea1 28bd 6e14 39bd b3f4 32be
00000130: 8775 83c0 86b7 88be 7bff c4c0 7245 80be
00000140: 4e16 fcbd b0de 2c40 bd52 c3bd 7fab abbd
00000150: 8dae b43f 486c 4ec0 2609 c2c0 52ca a0be
00000160: a9bd 8b3e 6d24 6440 13f3 c5c0 e2d5 e0be
00000170: 4ccb 2ec0 5a29 9a40 43ad 91be 7868 d63f
00000180: e135 6cbe ca19 95be 10fc 6e3f 285c a3c0
00000190: ee5c ce3e 45fb ec3f ad6c fb3f 5fd9 bdbb
000001a0: 435e 41bf 19b3 fc3e fba7 a93e a4f0 1e3e
000001b0: c251 8bc0 5a29 51bf 1a38 af40 b08e f3bd
000001c0: aa62 4fc0 8cd2 673f 0d50 81c0 d8e3 2d3c
000001d0: 94d6 80c0 f037 d240 60ff 38c1 157a 44be
000001e0: 3ae7 98bc 6bcb edbf 8af7 a0be 853b a5bd
000001f0: 43f1 afbd 2e00 74be 9cba 20c0 284f 1140
00000200: 9473 0ac0 147e a53f 50b4 b7be a47d 1fbe
00000210: 25bb e6bd 69c0 9ebf 3ddc 98c0 d9fd 28c1
00000220: cc63 e43f b46d 15c0 a3a8 c13f d702 ad3d
00000230: 233d f2be 6b11 5fbf 4f91 1abf f759 3bbf
00000240: 31c6 72bf 7f3d e7bc 3a26 bec0 e938 70c0
00000250: b6b2 583d 7e24 0740 f31d 8cc1 e2d3 373d
00000260: 4179 15bf 1ee0 1440 631c 89bd 203e 7dbe
00000270: e0e6 b0c0 71e1 fdbf 079d c5bd 944f a0c0
00000280: ab2d 2abf f056 a8bf c429 b93f f9ab aec0
00000290: 2cbc c93c 2d06 85be 5297 3e3e f5d3 59c0
000002a0: 886f 60bf 4ff4 64bd 2886 bf40 8bae 843f
000002b0: 5254 0b3f d323 b5bf f932 bbc0 7eec 6cbf
000002c0: 7c77 45bf 1064 67bf 5eee 1cc0 453d 0dbf
000002d0: e9c5 c6bf 4dfa f83e 4312 f6bf de62 ca3e
000002e0: 5217 b13e 6238 03bf d35a aabf 951b c33e
000002f0: 4fd7 423d 8f7c 2640 016a 0abf 34be 0240
00000300: 6b6e 3ebc 2a17 c5bc 4016 f6c0 58dc 22bf
00000310: 781a c63f acd4 20bf c2f5 24c1 c933 e9be
00000320: 7030 2240 5f62 063f aefd 8cc0 b7ae 2d40
00000330: ac39 0ebe 76ca 9bbf 0af8 3540 07f4 a3be
00000340: 2df6 d5bd 7ced 4abf 2fd0 4cbf 39e9 43c0
00000350: 4e25 8e3e cb79 9bbf 8b68 8f40 bed9 edbe
00000360: acd5 24c0 6157 57be e46b c7be e3e2 1bbe
00000370: fe4a 72c0 00d7 933f 4412 2ac0 0a86 b63d
00000380: 7343 afbd 4ace e73d d42c 2b40 f8cc a9be
00000390: 47d6 003f 6365 af40 4c7f 723e 17a3 0bc0
000003a0: 38e9 2dc1 202d 2fbd 2188 bfbf 3c8e f8bf
000003b0: 48d6 93c0 7d44 72c0 976e 93bc 3e85 eabf
000003c0: a69a 1fbe c61c 89bf bf84 c8bf bec0 ed3f
000003d0: 80e2 b7bf 90da e5bf 79e4 0d3d e841 1ec0
000003e0: 769d 953e 19ee 1a3f bd8a 053f bd2b 523f
000003f0: 9667 3fbf 2bc4 55bf bf57 0ac1 0a16 8fbf

hiddenLayer2.bias f4 [150]
-0.56296885 -2.0656774 1.4379407 0.118258536 -0.8481572 0.31125244 2.7399766 -0.09481161
7.393296 -0.0310286 -0.2802898 0.48142672 1.00015 -0.477253 -0.0708255 -4.4098163
4.2329817 0.48082748 1.5377485 1.401296 -0.49313775 -0.053309556 -0.8271788 -1.5930921
-0.10596867 -1.4850137 -1.7900568 0.28493288 -0.008029375 -0.7482002 1.1319288 -0.19287853
-0.11227169 -0.583731 2.3677552 -2.7258728 -0.15711233 -0.5601507 -1.6759344 0.35995013
-0.9618369 -0.11455779 -0.25462946 -0.07519976 -2.0726347 -0.53844553 -4.277521 -3.0534828
0.00018857699 -0.9353799 -0.23951155 -1.9655482 -0.5103288 -0.44771996 -0.40114617 -0.38757452
-0.09965506 -0.7590477 0.014445572 -1.0123631 -0.25434554 -0.37888256 -0.8389795 -0.052514553
-0.44446015 4.709544 -3.044213 0.028912773 -0.39484048 0.8662478 1.6413034 -1.3890597
0.3479721 0.541087 -0.60732746 -0.59571546 -0.2591462 -0.5963275 -0.54351676 -0.88053876
-1.7321652 -0.6692559 -1.7158592 -2.542382 0.211828 -1.5232785 0.044171754 -0.12876165
1.0632615 -0.12848686 -1.0472107 -0.1694092 -0.8150861 0.8815526 -0.6291378 -0.12627698
0.12686968 -0.22964092 0.112741 7.445178 -1.9163917 -0.25626278 -0.13660635 0.38532323
0.010547687 1.7659701 -0.4269298 -0.17425475 -0.108895846 -7.5396256 -0.054045208 -0.4571417
-0.22722793 0.2614711 1.0876482 -0.18549804 -2.3890305 -1.9096935 -0.4139329 -0.82957906
-0.07760001 -0.99356735 -1.3896677 -0.09183048 -0.5331674 0.5899912 -0.47832823 -0.13128382
0.22287996 -0.13609606 -0.9736159 -0.21227603 6.410732 -1.7070842 -0.4271076 -0.14212887
-2.520586 -1.564441 0.22086746 1.2727724 0.13214624 -1.5709795 -0.0842533 -0.64670736
-0.8438762 -2.3689446 1.0115807 -0.24290949 -0.60007685 -0.16320454
00000000: ba1e 10bf 0f34 04c0 710e b83f 8831 f23d
00000010: d520 59bf 7b5c 9f3e c75b 2f40 972c c2bd
00000020: e195 ec40 b12f febc 2582 8fbe 907d f63e
00000030: ea04 803f 815a f4be f60c 91bd 371d 8dc0
00000040: 9674 8740 052f f63e f1d4 c43f ab5d b33f
00000050: 8d7c fcbe 1f5b 5abd fdc1 53bf 71ea cbbf
00000060: 1a06 d9bd ee14 bebf 9520 e5bf b9e2 913e
00000070: a48d 03bc 0c8a 3fbf 0be3 903f f381 45be
00000080: b3ee e5bd 656f 15bf 4d89 1740 b374 2ec0
00000090: 0ee2 20be 0966 0fbf 0585 d6bf 624b b83e
000000a0: f13a 76bf 469d eabd cb5e 82be 5502 9abd
000000b0: 0ca6 04c0 91d7 09bf 74e1 88c0 436c 43c0
000000c0: c0bc 4539 0f75 6fbf 8442 75be 1597 fbbf
000000d0: e9a4 02bf 8d3b e5be 0863 cdbe 2b70 c6be
000000e0: f417 ccbd f350 42bf 1fad 6c3c 1d95 81bf
000000f0: 9439 82be e5fc c1be 5cc7 56bf 8019 57bd
00000100: 4890 e3be 96b4 9640 63d4 42c0 7bda ec3c
00000110: 8828 cabe 6ac2 5d3f 3b16 d23f b5cc b1bf
00000120: 6629 b23e ad84 0a3f d079 1bbf cf80 18bf
00000130: d0ae 84be eba8 18bf ea23 0bbf fd6a 61bf
00000140: 97b7 ddbf 5b54 2bbf 46a1 dbbf 63b6 22c0
00000150: 70e9 583e cafa c2bf 71ed 343d 18da 03be
00000160: f418 883f 0f92 03be 000b 86bf 9b79 2dbe
00000170: 7ca9 50bf 6ead 613f 2d0f 21bf c14e 01be
00000180: 20ea 013e fd26 6bbe c1e4 e63d e63e ee40
00000190: 534c f5bf e034 83be 89e2 0bbe 1649 c53e
000001a0: 35d0 2c3c 4f0b e23f 8b96 dabe d66f 32be
000001b0: c904 dfbd 9d44 f1c0 825e 5dbd 7a0e eabe
000001c0: 70ae 68be 8adf 853e 0e38 8b3f 33f3 3dbe
000001d0: e0e5 18c0 d670 f4bf 03ef d3be 4b5f 54bf
000001e0: c1ec 9ebd 6e5a 7ebf a2e0 b1bf 9e11 bcbd
000001f0: a97d 08bf aa09 173f 70e7 f4be 446f 06be
00000200: a53a 643e c45c 0bbe e43e 79bf e35e 59be
00000210: b724 cd40 bc81 dabf d9ad dabe 3b8a 11be
00000220: 4851 21c0 9a3f c8bf 142b 623e 35ea a23f
00000230: 5851 073e db15 c9bf ff8c acbd 9d8e 25bf
00000240: 4508 58bf ca9c 17c0 7a7b 813f 44bd 78be
00000250: a39e 19bf 171f 27be

hiddenLayer3.weight f4 [150, 150]
2.6029747 0.85383034 -0.3788484 -0.21726052 -0.71072006 -2.6626377 0.053038478 -0.34580505
0.17516154 -1.0485464 0.029605852 0.20380302 -1.9045117 0.26414627 -0.039478198 0.43920687
-2.690924 -0.78861815 -13.58826 -11.312397 -0.5377874 -0.055006057 0.066386975 0.58814394
0.04191951 0.03468188 -3.7802808 -0.23721796 3.3040237 -2.382041 -1.7513525 0.20361036
-2.4086263 -1.5603877 -0.79007864 -0.7758163 -0.646825 0.1521053 -4.630093 2.7135823
3.9800239 -2.0202146 0.44348615 0.018513782 10.137939 0.2180321 2.010961 -0.21468516
-2.168558 0.9795254 -0.0007188387 -2.3179128 0.0021822047 1.1071285 -7.4131804 -1.0345567
-0.44583893 -0.8635884 0.065937735 1.1111064 -0.3427615 0.53060305 1.6078447 5.495792
-5.6372075 -3.5672078 -3.9359636 0.14093357 0.16350156 -3.3719563 -2.0191429 1.4582382
-0.06161602 -0.25595653 0.5071413 -0.051215038 -3.199294 -3.1321049 -4.598244 -0.6273557
-1.7890707 -0.082801655 -2.6231108 -0.12995134 -0.40606502 -9.11944 -1.3593597 0.13937196
0.8166189 0.0018452138 -1.5215629 2.0717885 0.69201505 2.2747872 -2.147632 -0.83363575
-5.2803183 0.77606183 -0.19223095 0.3194841 -6.210851 -0.31858724 0.27195716 5.788604
-0.03982475 -3.2643764 -6.039665 0.51308864 2.2845206 -0.05746382 -0.15723927 -0.5394735
0.038710184 0.01501192 -0.030920552 -2.0822697 -0.3608189 -1.2267678 0.3272094 4.371286
0.033637494 0.32774407 -3.4064744 0.09183906 -0.055465028 3.318306 -0.8941307 -1.6345909
1.066882 -0.07497147 -2.3089368 -1.4510294 -1.168753 0.58284086 -1.4419218 0.5493221
-7.7776313 -0.34114292 -2.5494416 3.1736515 0.08578653 -1.707404 -0.020323692 0.1487548
-3.3462365 1.3671635 1.329644 0.10188059 1.1343116 0.070887126 -0.73536724 -3.0695558
-11.50366 -4.7100716 -0.77611095 -6.149945 -2.6019974 0.606388 -0.6373977 -5.8173122
-4.5570807 -2.017119 -6.118751 -5.356196 -0.019001503 -0.28788102 -1.3904176 0.39683333
-3.0125673 -1.1216983 1.7265811 -0.03476436 -0.41150668 -2.7459967 0.0428853 3.408806
2.5386412 0.95177966 -0.16442743 -20.634384 -1.5081593 0.5898275 -5.1790023 -0.7613455
-1.9475089 -3.150197 0.59561276 -6.547982 3.7542727 -2.9638124 -3.6949334 -2.2856412
3.502757 0.07555381 -8.067909 0.025171995 -0.008081552 1.8365524 -1.0133362 0.38652834
-0.07994464 3.9441392 -6.868412 0.43075928 -0.45482334 -0.1596721 -0.15237576 1.9291593
-0.2694796 -0.12376232 -0.13711968 -10.069244 -5.681227 0.559607 -14.150294 -0.4920739
-3.1251884 -0.6012833 -0.14368398 -0.36479184 1.2727573 0.8044804 0.11232229 -1.9726915
0.0031139795 1.0913576 -1.3140033 -5.961651 -3.7730584 -0.002796365 -3.618238 2.8019865
-1.5730734 -2.3686938 -0.82030255 -19.002966 0.5588279 -0.099795155 0.45309582 0.05891534
2.928085 -5.7037773 2.3151345 0.5629301 0.33323672 -3.8099189 -5.774338 0.701373
5.304825 -0.5380402 -5.229489 -0.04270583 0.22608232 -5.03856 0.0228396 5.0415335
00000000: 2397 2640 a094 5a3f 6bf8 c1be 8b79 5ebe
00000010: c0f1 35bf a868 2ac0 e03e 593d 5c0d b1be
00000020: 8c5d 333e c536 86bf f987 f23c bdb1 503e
00000030: 0ac7 f3bf 2e3e 873e e4b3 21bd b9df e03e
00000040: 1938 2cc0 e1e2 49bf 8369 59c1 94ff 34c1
00000050: 6fac 09bf 084e 61bd e5f5 873d 9a90 163f
00000060: cbb3 2b3d 960e 0e3d 1ff0 71c0 44e9 72be
00000070: 2075 5340 5c73 18c0 522c e0bf 3c7f 503e
00000080: ef26 1ac0 c9ba c7bf 9842 4abf e69b 46bf
00000090: 5396 25bf 7ec1 1b3e b929 94c0 55ab 2d40
000000a0: b6b8 7e40 324b 01c0 9e10 e33e 37aa 973c
000000b0: 0035 2241 cf43 5f3e 96b3 0040 6dd6 5bbe
000000c0: a7c9 0ac0 2dc2 7a3f 7370 3cba af58 14c0
000000d0: 5203 0f3b 63b6 8d3f c638 edc0 5b6c 84bf
000000e0: 0045 e4be 2114 5dbf 5d0a 873d bc38 8e3f
000000f0: 6f7e afbe 9ad5 073f dbcd cd3f 87dd af40
00000100: 0164 b4c0 224d 64c0 d4e6 7bc0 e450 103e
00000110: f46c 273e 22ce 57c0 a339 01c0 8da7 ba3f
00000120: 1461 7cbd bc0c 83be 03d4 013f dcc6 51bd
00000130: 3cc1 4cc0 6874 48c0 d124 93c0 629a 20bf
00000140: 4500 e5bf ea93 a9bd 0ce1 27c0 f711 05be
00000150: c1e7 cfbe 3ae9 11c1 80ff adbf 86b7 0e3e
00000160: f00d 513f 1adb f13a 93c2 c2bf 2f98 0440
00000170: e627 313f 1d96 1140 cd72 09c0 2769 55bf
00000180: 5ef8 a8c0 fdab 463f 31d8 44be 6c93 a33e
00000190: 4bbf c6c0 de1d a3be f83d 8b3e 3e3c b940
000001a0: 471f 23bd 8beb 50c0 f044 c1c0 c759 033f
000001b0: 9635 1240 2f5f 6bbd 5503 21be ef1a 0abf
000001c0: 928e 1e3d 8ef4 753c 194d fdbc e843 05c0
000001d0: 41bd b8be ba06 9dbf fe87 a73e 93e1 8b40
000001e0: 78c7 093d 12ce a73e ad03 5ac0 1e16 bc3d
000001f0: 4c2f 63bd 205f 5440 c0e5 64bf 463a d1bf
00000200: 978f 883f a48a 99bd 9fc5 13c0 55bb b9bf
00000210: b399 95bf 0f35 153f e590 b8bf 60a0 0c3f
00000220: 5be2 f8c0 49aa aebe 0d2a 23c0 1b1d 4b40
00000230: d9b0 af3d 378c dabf df7d a6bc 2e53 183e
00000240: bd28 56c0 37ff ae3f c631 aa3f c5a6 d03d
00000250: 1f31 913f 452d 913d 0741 3cbf 9a73 44c0
00000260: fe0e 38c1 e8b8 96c0 35af 46bf 59cc c4c0
00000270: 2087 26c0 3e3c 1b3f 7f2c 23bf 6c27 bac0
00000280: 9bd3 91c0 7a18 01c0 cfcc c3c0 f565 abc0
00000290: 0aa9 9bbc 2465 93be 34f9 b1bf bd2d cb3e
000002a0: e7cd 40c0 cf93 8fbf 9c00 dd3f 1365 0ebd
000002b0: 01b1 d2be 69be 2fc0 7fa8 2f3d e129 5a40
000002c0: 1979 2240 d5a7 733f aa5f 28be 3813 a5c1
000002d0: 5d0b c1bf effe 163f 63ba a5c0 8ae7 42bf
000002e0: f947 f9bf d49c 49c0 147a 183f 1289 d1c0
000002f0: 0146 7040 1aaf 3dc0 ca79 6cc0 f247 12c0
00000300: 2c2d 6040 f5bb 9a3d 2816 01c1 8035 ce3c
00000310: 7c68 04bc 2614 eb3f 00b5 81bf 0be7 c53e
00000320: 04ba a3bd c76c 7c40 08ca dbc0 7b8c dc3e
00000330: 9bde e8be 1581 23be 6408 1cbe b1ee f63f
00000340: 3bf9 89be 1977 fdbd 1a69 0cbe a01b 21c1
00000350: 9dcc b5c0 6842 0f3f 9b67 62c1 1cf1 fbbe
00000360: 1603 48c0 b4ed 19bf e521 13be ffc5 babe
00000370: b6e9 a23f 6df2 4d3f 3b09 e63d 2881 fcbf
00000380: e813 4c3b 9bb1 8b3f 4331 a8bf d8c5 bec0
00000390: ca79 71c0 3843 37bb 3691 67c0 bf53 3340
000003a0: 785a c9bf ae98 17c0 59ff 51bf 1306 98c1
000003b0: 580f 0f3f 6761 ccbd 2dfc e73e 3651 713d
000003c0: bf65 3b40 5885 b6c0 2a2b 1440 301c 103f
000003d0: 019e aa3e b6d5 73c0 60c7 b8c0 2e8d 333f
000003e0: 20c1 a940 01bd 09bf f957 a7c0 4fec 2ebd
000003f0: 2082 673e e23b a1c0 1d1a bb3c 3e54 a140

hiddenLayer3.bias f4 [150]
8.988289 7.7456765 -0.29009405 -0.6685088 0.1625756 5.896826 -4.4229345 0.7143723
-0.7226755 -1.0759413 -0.2850629 2.3728952 -0.45144963 -3.4243405 6.937896 -1.2637264
-0.32942265 6.0227513 -0.15851338 -0.7345756 4.3106623 -0.5794905 13.319265 1.544413
-0.6411463 3.543191 5.655564 -0.1726447 3.996942 1.3682033 0.034381796 7.853628
-0.5763199 5.6162105 -1.1255578 -0.4487875 7.6233516 2.5117395 -1.6063696 -0.7322972
0.027391797 -0.3809762 2.808988 -0.7841934 -0.060626525 5.75439 -0.67853373 14.962927
-0.7211353 4.0625234 11.125118 -0.2209917 -10.433713 -0.07737688 -0.2787361 3.6486645
-0.6676947 6.407425 2.9236248 -13.342823 -0.7196559 -0.12688136 -0.49708635 8.374879
-0.19737475 -0.5482686 -0.8512801 -8.763084 -0.7258188 -0.18328115 7.198663 1.3449173
1.037735 11.395177 8.311498 3.5137024 -8.350927 -1.2765801 8.400891 -0.93634886
-1.1376247 9.122657 3.3679316 0.24495968 -2.4751635 -0.08417235 -0.44119784 -0.42066333
-0.11156683 -0.32876074 1.5999987 10.958127 -0.31785005 -1.9522827 -0.2218491 -4.1952415
8.498363 -0.6679877 -10.785478 10.022879 -0.18210538 6.114005 -0.58646923 -0.45590737
3.36469 -0.09599749 4.9819922 -1.2232407 -0.12899697 14.311097 -0.87560093 1.3413851
10.138579 0.120245606 1.6986814 14.744278 0.0082779275 -0.04316597 14.737334 -1.4041053
-0.52485096 -0.41214344 -0.10461432 -0.12583351 -0.3039239 -9.795732 0.015021 -0.18464684
5.123976 7.377567 -0.7599155 6.4471097 -1.6574898 4.0206823 0.68479586 12.441729
-0.9322969 -4.180029 0.7244675 -0.21786775 -0.0650501 10.162705 -0.5072137 -7.146395
3.6663024 0.19783102 1.1290761 5.572289 -3.4862254 -0.023711355
00000000: 08d0 0f41 95dc f740 3587 94be 6523 2bbf
00000010: 387a 263e ccb2 bc40 ae88 8dc0 1ae1 363f
00000020: 4301 39bf 72b8 89bf c4f3 91be 84dd 1740
00000030: 6824 e7be 6528 5bc0 3e03 de40 c9c1 a1bf
00000040: 16aa a8be 61ba c040 5551 22be 260d 3cbf
00000050: f2f0 8940 7d59 14bf b61b 5541 53af c53f
00000060: 2a22 24bf a4c3 6240 61fa b440 c6c9 30be
00000070: e6cd 7f40 4921 af3f edd3 0c3d ec50 fb40
00000080: b389 13bf ffb7 b340 4712 90bf 7ac7 e5be
00000090: 7ff2 f340 57c0 2040 859d cdbf d477 3bbf
000000a0: c364 e03c 500f c3be 76c6 3340 e6c0 48bf
000000b0: 8553 78bd f623 b840 63b4 2dbf 2668 6f41
000000c0: 539c 38bf 3100 8240 7c00 3241 a64b 62be
000000d0: 7df0 26c1 c577 9ebd 80b6 8ebe b883 6940
000000e0: 0aee 2abf a009 cd40 ab1c 3b40 347c 55c1
000000f0: 5e3b 38bf 30ed 01be 1a82 febe 81ff 0541
00000100: 9b1c 4abe 555b 0cbf 7eed 59bf 9835 0cc1
00000110: 43cf 39bf 0eae 3bbe 735b e640 4026 ac3f
00000120: 80d4 843f a552 3641 e5fb 0441 80e0 6040
00000130: 669d 05c1 fa66 a3bf 0d6a 0641 8fb4 6fbf
00000140: b09d 91bf 67f6 1141 318c 5740 b6d6 7a3e
00000150: 1469 1ec0 8e62 acbd afe4 e1be 2f61 d7be
00000160: 267d e4bd 5453 a8be c2cc cc3f 7d54 2f41
00000170: 3ebd a2be 66e4 f9bf 692c 63be 6b3f 86c0
00000180: 4bf9 0741 3e01 2bbf 5191 2cc1 b65d 2041
00000190: d579 3abe eea5 c340 d922 16bf b16c e9be
000001a0: 1557 5740 559a c4bd 7b6c 9f40 2793 9cbf
000001b0: c817 04be 41fa 6441 6227 60bf 82b2 ab3f
000001c0: 9f37 2241 5443 f63d 646e d93f 90e8 6b41
000001d0: 25a0 073c cdce 30bd 1fcc 6b41 b9b9 b3bf
000001e0: a25c 06bf 7704 d3be 0840 d6bd 80da 00be
000001f0: ea9b 9bbe 51bb 1cc1 a41a 763c 1014 3dbe
00000200: 9df7 a340 0715 ec40 d289 42bf b94e ce40
00000210: a028 d4bf 6ea9 8040 c84e 2f3f 5211 4741
00000220: 02ab 6ebf ccc2 85c0 b476 393f b918 5fbe
00000230: fd38 85bd 719a 2241 c2d8 01bf 45af e4c0
00000240: b3a4 6a40 3794 4a3e 9185 903f 3150 b240
00000250: 511e 5fc0 513e c2bc

outputLayer.weight f4 [2, 150]
3.8046925 2.346301 0.00016172936 -0.46362308 0.4392446 0.11405447 -6.226313 0.013927238
-1.4238315 2.6882622 0.47506523 0.4827043 0.48981637 -1.4738063 0.6848838 0.64458
0.018453984 0.34327528 -0.020919697 1.9345652 0.9728708 0.00028602374 1.3396374 0.9073595
-3.3534317 8.642873 -0.49328077 0.285649 -0.06642199 1.957302 -0.5734515 2.1567085
5.3558397 0.6053407 -7.0378633 0.5402802 0.55754536 0.44342193 -0.034611277 1.0569267
-0.045546368 0.98758394 13.50512 1.0480752 0.1139454 0.3159713 0.95833784 2.4105575
-0.34129125 4.2178984 0.98309976 -0.029441472 -0.24422711 0.027908899 2.874843 1.5622315
1.4777931 0.7517391 1.1315663 -2.995936 1.1920921 -2.1062703 -0.3234836 6.926928
-1.4325324 -1.7182157 1.0459825 -1.1319534 -3.0484858 -0.03774108 1.9389147 5.7726283
-0.2348569 1.2177415 1.337772 0.021573551 0.15485452 -1.5769995 2.8735344 -1.5788022
1.6070384 1.1775153 -1.2501361 1.6473131 -0.53021646 -0.08756433 -1.1809165 3.6683586
-0.026105719 -0.9462517 -2.3159366 0.7063727 -0.34431034 -1.2894987 0.025645152 -13.522627
0.81085324 5.550912 -0.40306997 1.7313647 -7.536411 1.6110603 1.4087626 -1.5781078
0.6905592 -2.513818 1.1918395 -0.023471897 -1.1457816 0.8145592 -0.36367494 -0.48748645
6.677533 0.7074352 -1.0992173 4.601944 -0.01194166 -0.0054362626 0.9186933 -1.3639585
0.19687393 -0.21448453 -0.04536982 -0.43549198 0.5439843 0.366572 -0.002015359 0.0183364
-1.0229838 0.32548276 -8.792973 0.012056643 -4.1124606 -3.7247787 3.2776635 0.9759488
-0.14588219 -0.35188174 5.9999013 2.091224 -0.014709378 3.3665147 2.2855113 -0.47395518
-0.6938924 0.24219869 4.156716 0.35470575 4.809734 -0.015066528 3.786599 2.1111906
0.014177368 -0.023770219 0.2405346 -0.17691949 -6.5008035 0.021959864 3.4009051 -2.8390503
-0.042870924 0.66294706 -0.6121577 -1.95459 0.68502027 -1.3366814 0.022050727 0.74296063
-0.0033920147 -2.0361302 0.8793327 -0.2699591 1.3390208 1.5156641 4.034781 9.123446
1.2309424 -0.29780993 0.27210513 5.2700133 1.1473444 2.2567837 -1.5819441 0.26029626
-8.030233 0.38715276 0.32625127 -1.1675941 1.0645471 0.056951992 -0.12802514 -0.91873103
13.609354 -1.2581706 -0.22502224 0.43014646 -1.0624452 2.4089818 0.18626735 4.218744
0.989037 -0.022358513 -1.7055755 -0.00650935 -2.29029 1.374075 2.0923266 1.5198287
0.52286184 -2.99726 -1.1209916 2.2120166 0.19454537 7.9653068 1.6109143 -0.6656029
2.2228577 -1.9348515 -3.014099 0.011114664 1.8423307 5.7407985 -0.025983596 1.2164938
1.3382143 0.043970898 0.17284082 -0.4781124 2.6969004 -2.065697 1.6814 1.1719133
2.3364773 1.8024393 -0.22886643 0.018444631 1.21311 2.5437443 -0.029242331 0.6247501
-3.398272 0.7070407 0.83649945 -1.3092761 -0.005326242 -16.666899 0.81517476 3.802682
-0.06111862 1.737495 -2.001335 0.6878241 1.4999315 1.6315687 4.930111 2.5013752
00000000: 1580 7340 cc29 1640 e595 2939 0160 edbe
00000010: abe4 e03e 6495 e93d f53d c7c0 122f 643c
00000020: 1c40 b6bf 7d0c 2c40 c03b f33e 0525 f73e
00000030: 36c9 fa3e afa5 bcbf 8b54 2f3f 3203 253f
00000040: cf2c 973c c7c1 af3e c95f abbc d59f f73f
00000050: 100e 793f 75f5 9539 3d79 ab3f b648 683f
00000060: a09e 56c0 3549 0a41 4c8f fcbe 9640 923e
00000070: 4108 88bd df88 fa3f b8cd 12bf 8307 0a40
00000080: 0a63 ab40 9cf7 1a3f 2d36 e1c0 ce4f 0a3f
00000090: 4bbb 0e3f 3308 e33e 8ec4 0dbd 6049 873f
000000a0: d48e 3abd 4dd2 7c3f f914 5841 5427 863f
000000b0: 355c e93d fdc6 a13e a155 753f 9346 1a40
000000c0: babd aebe 06f9 8640 6dac 7b3f 3e2f f1bc
000000d0: ac16 7abe 34a1 e43c 6dfd 3740 34f7 c73f
000000e0: 5328 bd3f f971 403f 2ad7 903f 6abd 3fc0
000000f0: 7996 983f 22cd 06c0 a49f a5be 65a9 dd40
00000100: 395d b7bf 7eee dbbf c1e2 853f d9e3 90bf
00000110: 641a 43c0 6496 1abd 5b2e f83f 5fb9 b840
00000120: 547e 70be f4de 9b3f 1d3c ab3f 04bb b03c
00000130: 2f92 1e3e 1fdb c9bf fde7 3740 3116 cabf
00000140: 6fb3 cd3f d2b8 963f 7604 a0bf 28db d23f
00000150: 44bc 07bf ed54 b3bd 4628 97bf 63c6 6a40
00000160: a9db d5bc 8d3d 72bf 4e38 14c0 d7d4 343f
00000170: 7249 b0be 4b0e a5bf c815 d23c ae5c 58c1
00000180: 1494 4f3f 12a1 b140 305f cebe 5c9d dd3f
00000190: 472a f1c0 3937 ce3f 5552 b43f 70ff c9bf
000001a0: 7dc8 303f 65e2 20c0 328e 983f 2348 c0bc
000001b0: f9a8 92bf f486 503f 9a33 babe d397 f9be
000001c0: 5aae d540 791a 353f 27b3 8cbf 2043 9340
000001d0: f4a6 43bc ad22 b2bb 7c2f 6b3f 3196 aebf
000001e0: 5299 493e d5a1 5bbe b4d5 39bd cef8 debe
000001f0: 8e42 0b3f 53af bb3e 1d14 04bb 3836 963c
00000200: 22f1 82bf ada5 a63e 04b0 0cc1 3a89 453c
00000210: 4799 83c0 c662 6ec0 3dc5 5140 c8d7 793f
00000220: 2462 15be d829 b4be 31ff bf40 9dd6 0540
00000230: 9aff 70bc fa74 5740 d145 1240 41aa f2be
00000240: efa2 31bf ef02 783e d103 8540 fe9b b53e
00000250: 57e9 9940 99d9 76bc a357 7240 bf1d 0740
00000260: 3148 683c c3b9 c2bc b44e 763e 622a 35be
00000270: 9506 d0c0 2ce5 b33c 6ea8 5940 00b3 35c0
00000280: 6c99 2fbd e6b6 293f 5eb6 1cbf 0130 fabf
00000290: 7d5d 2f3f 6018 abbf baa3 b43c ab32 3e3f
000002a0: 904c 5ebb f54f 02c0 f31b 613f 1438 8abe
000002b0: 0965 ab3f 4801 c23f ed1c 8140 a3f9 1141
000002c0: 858f 9d3f 8b7a 98be 5d51 8b3e f3a3 a840
000002d0: 2edc 923f 256f 1040 257d cabf 8d45 853e
000002e0: d67b 00c1 e338 c63e 680a a73e b973 95bf
000002f0: 1443 883f 7e46 693d 0619 03be f531 6bbf
00000300: eabf 5941 bc0b a1bf 3b6c 66be 283c dc3e
00000310: 34fe 87bf c22c 1a40 debc 3e3e f3ff 8640
00000320: 8731 7d3f 3329 b7bc 4c50 dabf 634c d5bb
00000330: 1d94 12c0 b1e1 af3f aee8 0540 bf89 c23f
00000340: 46da 053f 1cd3 3fc0 a77c 8fbf ae91 0d40
00000350: e736 473e cbe3 fe40 7132 ce3f f464 2abf
00000360: 4d43 0e40 37a9 f7bf ffe6 40c0 481a 363c
00000370: 7ed1 eb3f 9fb4 b740 8ddb d4bc 12b6 9b3f
00000380: 9b4a ab3f d41a 343d 2ffd 303e 26cb f4be
00000390: 049a 2c40 6134 04c0 1d38 d73f 4101 963f
000003a0: d888 1540 55b6 e63f f65b 6abe 3219 973c
000003b0: 3047 9b3f b5cc 2240 9d8d efbc 9fef 1f3f
000003c0: 4a7d 59c0 9f00 353f d424 563f 5c96 a7bf
000003d0: c287 aebb cf55 85c1 4baf 503f 245f 7340
000003e0: 8557 7abd 3c66 de3f df15 00c0 3d15 303f
000003f0: c1fd bf3f 3ed7 d03f 78c3 9d40 8816 2040

outputLayer.bias f4 [2]
14.62519 14.789255
00000000: c700 6a41 caa0 6c41
