ftl/pretrain/weight/scratch_prxy_0/scratch_prxy_0_9.pth (torch, 187625 bytes, 8 tensors)

hiddenLayer1.weight f4 [150, 3]
0.17618614 -0.44315857 0.056855835 -0.74900746 0.011716912 -0.51719886 -0.78730035 -0.023736283
-0.4318849 -0.14742765 -0.10195958 0.04668946 -0.090604566 -0.009557425 0.0031720018 -0.030663801
-0.0039646598 -0.07366433 0.2479076 -0.06811086 0.47455016 0.07102101 -0.17231135 1.3069183
-0.109396346 0.0806912 -0.45306152 -0.46599552 0.004298898 -0.014451202 -0.13605891 -0.008547946
-1.5178156 -0.32739398 -0.0010359475 -1.4502734 -2.4432795 -0.0046190717 -0.44317344 -0.40290242
-0.00040596104 -0.4210095 -0.059887443 -0.00023907148 -0.0020742689 -0.31092575 0.008616332 0.13258225
0.119007 0.45345855 0.31673437 -1.7424303 -0.018755171 0.010122949 -1.0809535 -0.04077155
0.014464343 0.12525591 -0.08984603 0.22294858 0.11119783 -0.12795398 0.2464331 0.14049056
0.41891158 0.91297615 -0.20056795 -0.089262776 -0.42468598 -0.25138932 0.2048011 0.22551492
0.18887687 -0.45487726 0.65930444 -0.672671 -0.16220114 -0.63363385 -0.09629741 -0.120629385
-0.40990886 -0.56142884 -0.07297171 -0.7361803 -0.058591433 0.4351252 -0.13092244 -0.13486382
0.09707809 0.4775023 0.04338206 0.11719272 0.691062 0.30585012 -0.14540842 0.114805244
0.11671455 -0.21531454 -0.5827359 -0.19007863 -0.005106102 -0.5048016 -0.0545791 0.0043408778
-0.26699665 0.1514033 -0.035403095 0.3864124 0.17316 -0.012289302 -0.9955906 -0.91533095
-0.0029399875 -1.5535102 -0.0165612 -0.000701565 -0.027785556 -1.1936543 -0.008758728 -0.7219077
0.19875842 0.05454882 1.8039353 -0.1266814 -0.21810578 -0.58806825 0.0206364 0.2218244
-0.007069154 -0.007950725 -0.2666285 -0.16140988 -1.138704 0.010280142 -0.69645405 0.10163341
0.08819898 -1.2281147 0.19099224 -0.1669109 0.7837516 0.0068227863 -0.16184224 -1.5228821
-0.5275622 0.008926815 -0.042657323 -0.05406332 0.006553471 -0.7168816 0.02840118 -1.069005
0.8638588 -0.357606 -0.5889827 -0.058658253 -0.0059000067 -0.0035271125 -0.034732565 0.045406144
-0.29645932 0.0024545796 0.008087536 0.10258367 -0.3344646 0.14021191 0.37914208 -2.182207
-0.04265163 0.0071711047 -0.017091325 0.14791985 -0.3341881 -0.38379565 -7.2119 -0.052362755
0.01892618 0.07243511 -0.23627606 -1.1689854 -0.11305364 -0.035211522 0.0003192231 0.027354658
0.47764516 -1.1977026 -0.11735045 0.26702112 -1.9765134 0.12378351 0.18145 -0.7071676
-2.4656408 -0.08505258 -0.68423146 -0.92818666 -0.010909288 -0.2520657 -0.3448336 0.016505862
-0.16301073 -0.21575187 0.019612191 1.2295423 0.019265687 0.7608357 0.18695632 -0.36206433
0.14792763 -0.12583219 -0.47710285 -0.019913396 -0.30266815 -1.6551836 0.033010967 -0.83606875
0.20058283 0.42357954 -0.04771468 -0.09695378 0.09180596 0.011973046 0.050325446 0.14392343
0.19226044 -0.3783063 0.0046068495 -0.1095637 -2.0537906 0.058179326 -0.5142382 0.11588471
-0.57780975 0.18895128 0.021475503 0.08990683 0.65009636 0.07222373 -0.27035913 1.2221974
-0.12815608 -0.001142162 -0.021965653 -0.4849325 -0.29434896 0.21809292 -0.2327256 -0.34137094
-0.28355828 3.6516274e-05 0.0010332367 -0.0023561995 -0.029701589 0.014017887 -0.09268589 -0.06461948
00000000: 246a 343e aee5 e2be aae1 683d f4be 3fbf
00000010: 4af8 3f3c 2567 04bf 848c 49bf 9872 c2bc
00000020: 0520 ddbe 46f7 16be 2fd0 d0bd 723d 3f3d
00000030: e38e b9bd bf96 1cbc 5ce1 4f3b a732 fbbc
00000040: fae9 81bb 53dd 96bd 7ddb 7d3e b57d 8bbd
00000050: 3df8 f23e 7773 913d 6372 30be 1949 a73f
00000060: 310b e0bd 6e41 a53d aef7 e7be f796 eebe
00000070: c5dd 8c3b bcc4 6cbc 0753 0bbe af0c 0cbc
00000080: c847 c2bf 2fa0 a7be a1c8 87ba 8fa2 b9bf
00000090: b15e 1cc0 955b 97bb a1e7 e2be 3a49 cebe
000000a0: 2bd7 d4b9 8f8e d7be 894c 75bd 43af 7ab9
000000b0: 75f0 07bb a931 9fbe 842b 0d3c a4c3 073e
000000c0: f1b9 f33d b82b e83e 022b a23e f507 dfbf
000000d0: 72a4 99bc bada 253c af5c 8abf 1200 27bd
000000e0: dafb 6c3c 1643 003e 3201 b8bd a24c 643e
000000f0: b0bb e33d 5e06 03be f558 7c3e c2dc 0f3e
00000100: 947b d63e ceb8 693f af61 4dbe 67cf b6bd
00000110: 7170 d9be 1ab6 80be 61b7 513e 62ed 663e
00000120: f068 413e ace5 e8be 2dc8 283f 2b34 2cbf
00000130: 0e18 26be d435 22bf 9437 c5bd 8a0c f7bd
00000140: 93df d1be cdb9 0fbf 3172 95bd 5076 3cbf
00000150: 92fd 6fbd bbc8 de3e 8810 06be be19 0abe
00000160: e1d0 c63d 2e7b f43e 63b1 313d bd02 f03d
00000170: 70e9 303f 6398 9c3e f2e5 14be 031f eb3d
00000180: 0a08 ef3d 6a7b 5cbe 2e2e 15bf f9a3 42be
00000190: 1751 a7bb ad3a 01bf 568e 5fbd ec3d 8e3b
000001a0: c9b3 88be 7709 1b3e d602 11bd d9d7 c53e
000001b0: db50 313e 1259 49bc 07df 7ebf 2153 6abf
000001c0: ceac 40bb 6cd9 c6bf 5bab 87bc 3be9 37ba
000001d0: 899e e3bc aac9 98bf c580 0fbc f1ce 38bf
000001e0: 5487 4b3e 956e 5f3d 5ae7 e63f c5b8 01be
000001f0: 1f57 5fbe a48b 16bf ab0d a93c ef25 633e
00000200: 5da4 e7bb c243 02bc 8883 88be a248 25be
00000210: 0dc1 91bf 0a6e 283c d04a 32bf 2d25 d03d
00000220: aba1 b43d dd32 9dbf 7893 433e b1ea 2abe
00000230: f2a3 483f ae91 df3b f9b9 25be cded c2bf
00000240: 510e 07bf c741 123c 72b9 2ebd 8071 5dbd
00000250: 80be d63b 8d85 37bf 97a9 e83c 28d5 88bf
00000260: da25 5d3f 2218 b7be 92c7 16bf a343 70bd
00000270: d854 c1bb 2127 67bb bc43 0ebd cbfb 393d
00000280: 84c9 97be 03dd 203b 9681 043c 6317 d23d
00000290: f23e abbe b693 0f3e e91e c23e 48a9 0bc0
000002a0: 7ab3 2ebd 96fb ea3b 1b03 8cbc 4d78 173e
000002b0: b41a abbe dd80 c4be e3c7 e6c0 547a 56bd
000002c0: 140b 9b3c dc58 943d 5af2 71be 50a1 95bf
000002d0: ab88 e7bd f539 10bd 665d a739 e016 e03c
000002e0: e88d f43e 524e 99bf 6f55 f0bd feb6 883e
000002f0: 64fe fcbf 3582 fd3d 07ce 393e f008 35bf
00000300: 0fcd 1dc0 0c30 aebd cb29 2fbf a49d 6dbf
00000310: dfbc 32bc c10e 81be 088e b0be 4d37 873c
00000320: 49ec 26be 0fee 5cbe bfa9 a03c a461 9d3f
00000330: 13d3 9d3c 21c6 423f 7a71 3f3e 7f60 b9be
00000340: 577a 173e 27da 00be d346 f4be 6b21 a3bc
00000350: 52f7 9abe 0edd d3bf 8236 073d 9a08 56bf
00000360: 9665 4d3e 6bdf d83e 7870 43bd b48f c6bd
00000370: c304 bc3d 982a 443c 0e22 4e3d aa60 133e
00000380: ecdf 443e 5db1 c1be 0ef5 963b ef62 e0bd
00000390: 4e71 03c0 724d 6e3d 1da5 03bf f654 ed3d
000003a0: 57eb 13bf 727c 413e 65ed af3c 1221 b83d
000003b0: b76c 263f 09ea 933d 836c 8abe f770 9c3f
000003c0: 593b 03be 99b4 95ba 50f1 b3bc 1349 f8be
000003d0: e8b4 96be c053 5f3e 9f4f 6ebe 2cc8 aebe
000003e0: 8d2e 91be 0d29 1938 ac6d 873a 786a 1abb
000003f0: bf50 f3bc 48ab 653c 1ad2 bdbd 3857 84bd

hiddenLayer1.bias f4 [150]
-1.7209854 -0.41168565 -0.36725533 -1.0222194 -0.3463259 -0.08785433 1.0557417 1.0148556
0.9393837 -0.30082127 -0.6365979 -0.6414466 -0.56432563 -0.23775025 -0.013055398 1.043586
0.7327133 -0.6815601 -0.7643738 0.8832141 -0.3861198 -1.7346326 -0.5818064 -1.839025
-1.8070599 -0.7519692 0.8361948 -0.7911144 -0.94944584 -2.0699434 1.1294512 -0.9995607
-0.74756706 -0.24808647 -0.24807987 -1.8326485 -0.8096246 -0.7738505 -0.033318777 -0.52882284
0.59787196 -1.2344966 0.66128564 0.74253005 -0.5342994 0.57531154 -1.8191367 0.36499974
-0.12937199 -0.33256882 0.96492684 -1.1267196 -0.16345544 0.5795421 0.6819035 -1.7522116
-0.20802747 0.6677972 -1.5774643 -3.0524237 -0.38803318 0.8033833 0.4820117 -1.0915632
-1.0324706 -0.23805077 -0.18193552 -1.0675099 0.5730196 1.0240719 -0.10738445 -0.6924953
-2.0268254 0.97391033 0.76481825 -0.15165597 -0.7435593 0.63308746 -1.4802421 -1.7058473
-0.13396499 -1.862377 -0.30120367 -0.028479282 -0.1496787 -0.6331438 -0.2046113 0.6996317
-0.58146524 -0.67272776 -0.5135492 -0.3839778 -0.101997465 -1.1162118 -1.6214439 0.67870677
0.7510516 -0.07728659 0.9457039 -0.073341936 -0.24030127 0.2577023 -0.17197962 -0.395928
-1.4094276 0.35311553 -0.22111279 -0.83894306 -1.4985356 -0.18123217 -0.124497 0.76809347
-1.7437563 -1.4578844 -0.5322482 -0.017480554 -1.1670594 -0.11943337 -1.7627771 -0.29622868
-0.04591139 -0.79176813 -2.0761797 0.8363047 -0.077822715 -0.028602762 -0.1993315 -0.19430044
-0.4633448 -1.2781684 -0.8385811 -0.3532031 0.6614286 -0.88449466 -1.4510092 -0.7437605
-0.12911968 -0.5591524 -0.7506851 0.40170634 1.1769513 -1.1436156 -1.7108047 -0.45560032
-0.08885523 -0.113694645 -0.66992474 -0.72221965 -0.039019376 1.0599166
00000000: 4049 dcbf 76c8 d2be e408 bcbe 16d8 82bf
00000010: a151 b1be f9ec b3bd 8b22 873f cae6 813f
00000020: 737b 703f 3f05 9abe 14f8 22bf d835 24bf
00000030: a577 10bf cd74 73be 4fe6 55bc 3a94 853f
00000040: 1993 3b3f b97a 2ebf 00ae 43bf 521a 623f
00000050: 7fb1 c5be 7108 debf 44f1 14bf 2c65 ebbf
00000060: bd4d e7bf 0e81 40bf dd10 563f 7986 4abf
00000070: e20e 73bf f479 04c0 db91 903f 36e3 7fbf
00000080: 8e60 3fbf 610a 7ebe a608 7ebe 3a94 eabf
00000090: 8f43 4fbf 111b 46bf 4579 08bd ef60 07bf
000000a0: 230e 193f fc03 9ebf 044a 293f 7316 3e3f
000000b0: d8c7 08bf 9e47 133f 79d9 e8bf 3fe1 ba3e
000000c0: 177a 04be 7646 aabe 7205 773f 5938 90bf
000000d0: dd60 27be df5c 143f 3a91 2e3f 7848 e0bf
000000e0: 2705 55be c2f4 2a3f 5aea c9bf e95a 43c0
000000f0: 49ac c6be 87aa 4d3f 3dca f63e 58b8 8bbf
00000100: ff27 84bf 95c3 73be 4e4d 3abe 2aa4 88bf
00000110: 6ab1 123f ca14 833f 61ec dbbd 5f47 31bf
00000120: 82b7 01c0 3052 793f 21cb 433f b44b 1bbe
00000130: e759 3ebf 0512 223f 9378 bdbf 3459 dabf
00000140: 1e2e 09be 5f62 eebf 5e37 9abe 624d e9bc
00000150: 6045 19be b615 22bf a085 51be 101b 333f
00000160: e8da 14bf e337 2cbf f677 03bf bd98 c4be
00000170: 0ce4 d0bd 07e0 8ebf 798b cfbf babf 2d3f
00000180: eb44 403f 6f48 9ebd a719 723f 4c34 96bd
00000190: 8911 76be 8ef1 833e 6d1b 30be 13b7 cabe
000001a0: 2068 b4bf 8fcb b43e 646b 62be f9c4 56bf
000001b0: 04d0 bfbf ed94 39be 48f8 febd c6a1 443f
000001c0: 6833 dfbf f59b babf 6b41 08bf 6133 8fbc
000001d0: 3462 95bf 7c99 f4bd aea2 e1bf 49ab 97be
000001e0: 950d 3cbd 51b1 4abf 21e0 04c0 1118 563f
000001f0: 8461 9fbd 5750 eabc 8f1d 4cbe b2f6 46be
00000200: 883b edbe 069b a3bf 40ad 56bf 09d7 b4be
00000210: 6253 293f 3e6e 62bf abba b9bf 1767 3ebf
00000220: f337 04be 9d24 0fbf e62c 40bf 74ac cd3e
00000230: 57a6 963f ff61 92bf a6fb dabf 7244 e9be
00000240: bbf9 b5bd bdd8 e8bd 3080 2bbf 63e3 38bf
00000250: c8d2 1fbd 59ab 873f

hiddenLayer2.weight f4 [150, 150]
-3.0190654 0.21084078 0.35976174 -0.64487225 -0.6760501 0.017851055 -0.03125679 0.28126082
0.5014174 0.3775359 0.30543151 0.07710825 -0.011866102 0.10090538 0.17382252 0.3211804
-0.3058592 0.64511424 -0.04347842 -0.09429395 -6.644425 0.009081213 0.9315577 -0.51286983
-4.691959 -0.21707632 0.4893385 -0.11044244 -0.26121217 0.70379764 0.27996042 -15.896904
-10.555939 -0.24494655 0.041053675 -0.654061 -8.625027 -0.42646655 0.06797514 0.2047059
-0.44496527 0.08488949 -0.08141499 -0.04076689 0.4841094 -0.021834323 -4.0651083 -0.04120415
0.5278475 0.4540441 0.31751356 -0.047838155 -0.39343962 -0.21199703 0.11112302 1.2019345
-1.118094 0.06189412 2.110141 -1.0104729 -0.81764674 0.029649178 0.19953737 0.35619894
0.35684618 -0.059182074 -0.08622998 1.6804004 -0.30119878 0.14443187 -0.064248964 0.014890746
-8.088655 0.5887786 -0.05181564 -0.23803772 -0.18868378 -0.26843563 -5.9784107 -0.63331944
0.029233143 0.7915837 -0.6658515 -0.0838232 0.023546327 -0.8940041 0.081222765 0.5471169
0.7413506 0.29038322 0.16092871 -0.11333967 -4.3388376 -1.1934192 0.59777606 0.036809295
0.4866075 0.0855644 0.16618375 -2.2633991 0.4266391 -0.11485128 0.19247435 -2.4041085
-1.2360213 0.2675557 0.015822869 0.5989878 -1.1365836 -0.022156276 -0.071493044 0.08389313
-8.279877 -3.4724367 -0.11672475 0.010613404 -0.17432635 -0.20482968 -1.6371164 0.32908046
0.002173676 -1.749812 -1.443186 -0.2255087 0.024353828 -0.23828194 -2.0570025 -0.3899697
-0.15426184 -0.6195925 -8.953104 -0.2881532 0.16731358 0.21237922 0.22797596 0.70594454
0.16911797 -1.9422077 0.39353383 -0.30784014 0.31886205 1.5498799 -3.8308828 -0.38237175
-0.0034947116 -0.039212123 -0.32594374 0.16357286 0.052904807 -0.1989723 -0.54650587 0.038477447
0.17366745 0.18826833 -0.055973742 -0.01265733 0.45352715 0.6301032 0.50657934 -0.66483384
-0.008805544 0.077085815 -0.35380772 -4.9369183 0.06157878 0.6324602 0.40253812 0.17089862
-0.18498847 0.3792373 0.034880344 0.4440629 -0.008145583 -0.043981414 -0.008448917 0.43477437
0.35784656 0.108759455 -0.05258174 0.12818912 0.74255985 -0.13139507 0.35446283 0.052606735
0.06161234 0.62457 0.25375316 0.46862254 0.047568616 0.34157532 0.29162455 2.6416676
0.34526357 0.0851182 -0.28137285 0.2019864 -0.046524897 0.115204655 0.17972335 0.11149716
0.33602726 -4.0358152 0.09789303 0.04940009 0.28072426 0.46213835 -0.030848365 0.25953954
0.006453365 -0.32376242 -0.13696702 0.33567947 0.15961504 0.49117547 1.9292529 -0.027062498
-0.051056042 0.18551229 0.49462825 0.64615613 0.042134132 0.29739934 0.38824514 0.7594069
0.40556595 0.07755553 0.5997432 0.12050923 -0.14289643 0.33200678 0.31785375 -2.5153952
-0.49401706 -0.042767644 -0.025029706 -0.02385617 -0.36624977 0.4224695 0.23740995 0.24300541
-0.034822825 0.20756637 -0.029386194 0.14263579 -0.38397023 0.32731783 0.43179682 -0.023918075
0.6131358 -0.06412029 0.40322813 -0.10690142 -0.016955769 -0.03083918 -0.479762 0.18442537
00000000: 5e38 41c0 a5e6 573e b132 b83e 5916 25bf
00000010: 9f11 2dbf 603c 923c 1f07 00bd 6b01 903e
00000020: e45c 003f 634c c13e 8561 9c3e eeea 9d3d
00000030: 0a6a 42bc 7ba7 ce3d 88fe 313e c271 a43e
00000040: 9499 9cbe 3526 253f 6d16 32bd 301d c1bd
00000050: 219f d4c0 5ec9 143c 917a 6e3f 704b 03bf
00000060: 8724 96c0 4149 5ebe 938a fa3e a52f e2bd
00000070: 9abd 85be 152c 343f f956 8f3e b859 7ec1
00000080: 20e5 28c1 45d3 7abe e627 283d 8b70 27bf
00000090: 1c00 0ac1 d359 dabe 8d36 8b3d 6c9e 513e
000000a0: 7dd2 e3be 8ada ad3d e7bc a6bd 2ffb 26bd
000000b0: 30dd f73e e5dd b2bc 5e15 82c0 afc5 28bd
000000c0: 0421 073f 7878 e83e 2391 a23e f1f1 43bd
000000d0: eb70 c9be c015 59be 7794 e33d fdd8 993f
000000e0: b41d 8fbf b084 7d3d 8d0c 0740 2d57 81bf
000000f0: 4c51 51bf d5e2 f23c 8653 4c3e b55f b63e
00000100: 8bb4 b63e e768 72bd 5899 b0bd 5c17 d73f
00000110: ba36 9abe f3e5 133e f694 83bd 51f8 733c
00000120: 226b 01c1 32ba 163f a33c 54bd 29c0 73be
00000130: 5236 41be 6570 89be 244f bfc0 3921 22bf
00000140: 587a ef3c 3ba5 4a3f 3e75 2abf 7fab abbd
00000150: 3ae4 c03c 74dd 64bf 1f58 a63d da0f 0c3f
00000160: 27c9 3d3f 1cad 943e 7fca 243e a11e e8bd
00000170: c2d7 8ac0 f6c1 98bf da07 193f 58c5 163d
00000180: 9e24 f93e 633c af3d 132c 2a3e 88db 10c0
00000190: 7170 da3e 2637 ebbd ff17 453e eadc 19c0
000001a0: f235 9ebf 10fd 883e f69e 813c 4457 193f
000001b0: 927b 91bf 1481 b5bc f26a 92bd 29d0 ab3d
000001c0: 607a 04c1 673c 5ec0 630d efbd d8e3 2d3c
000001d0: 9b82 32be dfbe 51be 088d d1bf 3c7d a83e
000001e0: 3b74 0e3b d7f9 dfbf 52ba b8bf c1eb 66be
000001f0: ae81 c73c 2e00 74be eea5 03c0 1caa c7be
00000200: d1f6 1dbe 9d9d 1ebf ea3f 0fc1 d188 93be
00000210: 4054 2b3e f079 593e 8872 693e c8b8 343f
00000220: 432d 2d3e 439a f8bf 447d c93e 399d 9dbe
00000230: e341 a33e 7762 c63f 2f2d 75c0 3bc6 c3be
00000240: 8807 65bb e49c 20bd 19e2 a6be a57f 273e
00000250: b6b2 583d 65bf 4bbe cfe7 0bbf 879a 1d3d
00000260: e1d5 313e 6ac9 403e b944 65bd b160 4fbc
00000270: b634 e83e 714e 213f 2faf 013f 8d32 2abf
00000280: 2145 10bc 2bdf 9d3d 4926 b5be 3cfb 9dc0
00000290: 083a 7c3d e9e8 213f 7a19 ce3e 0c00 2f3e
000002a0: 9e6d 3dbe 642b c23e b1de 0e3d 365c e33e
000002b0: 0d75 05bc db25 34bd 546d 0abc bf9a de3e
000002c0: aa37 b73e 47bd de3d f35f 57bd 0244 033e
000002d0: 6718 3e3f 6e8c 06be 277c b53e 297a 573d
000002e0: 395d 7c3d d2e3 1f3f efeb 813e 4bef ef3e
000002f0: 4fd7 423d f6e2 ae3e d04f 953e 1511 2940
00000300: 63c6 b03e 7352 ae3d 1a10 90be 86d5 4e3e
00000310: e490 3ebd 6bf0 eb3d 6609 383e 9f58 e43d
00000320: c40b ac3e 6625 81c0 247c c83d c057 4a3d
00000330: 17bb 8f3e 669d ec3e b6b5 fcbc 5ee2 843e
00000340: c076 d33b 30c4 a5be 1541 0cbe 2ede ab3e
00000350: 2072 233e 5a7b fb3e c2f1 f63f 2cb2 ddbc
00000360: 2420 51bd eff6 3d3e ea3f fd3e 7d6a 253f
00000370: d794 2c3d ba44 983e 11c8 c63e 7e68 423f
00000380: 57a6 cf3e 6fd5 9e3d c588 193f 8bcd f63d
00000390: 7153 12be cbfc a93e babd a23e 3cfc 20c0
000003a0: ceef fcbe 202d 2fbd 190b cdbc 046e c3bc
000003b0: 1785 bbbe ec4d d83e 981b 733e 69d6 783e
000003c0: 61a2 0ebd 478c 543e 51bb f0bc 1e0f 123e
000003d0: bf97 c4be 3496 a73e 7914 dd3e d7ef c3bc
000003e0: 78f6 1c3f 8051 83bd eb73 ce3e 22ef dabd
000003f0: d3e6 8abc 73a2 fcbc 5da3 f5be 01da 3c3e

hiddenLayer2.bias f4 [150]
0.507494 1.2152947 -0.056838058 0.750186 0.106065 -0.19537817 -0.0851047 -0.10440785
0.8107043 -0.14013156 0.27450472 0.23293975 0.052435454 0.030121865 -0.022442408 -0.086844444
0.57066643 0.13092305 0.46465397 0.92347246 -0.37404084 0.01897344 0.018713605 0.086201206
-0.06576588 -0.11073943 1.1464274 0.8310768 0.11232342 -0.07224805 0.6381404 0.5248897
-0.037070125 0.063413024 -0.025198277 0.030683804 -0.10660634 0.49278608 0.059935004 0.04264101
0.031158634 0.029457958 0.6950386 -0.07571251 -0.005062653 -0.1736724 -0.04217036 -0.05808761
0.845841 0.24290574 -0.11599982 0.63889635 0.07358257 -0.07097496 -0.05854389 0.89744484
-0.24256192 -0.23319203 -0.046062928 -0.082815565 -0.03755778 0.08159517 0.1442211 1.198873
-0.023126416 1.2313137 -0.43632308 0.26141313 0.058747187 0.5926287 1.0513588 0.12971836
0.5892991 1.3634784 0.04883843 -0.11609205 0.34978536 0.056057125 0.059746634 0.17372645
-1.2860838 0.755055 0.16094989 -0.104879625 0.7271179 -0.037449915 0.33608288 -0.07162381
0.62175745 0.013848981 0.56328547 0.7505778 0.32145503 0.48186594 0.02901602 0.20795761
0.40990153 0.3201562 0.20550655 1.3737001 0.03216342 -0.17361121 0.344515 0.4131282
0.0478702 1.4268421 0.95829946 0.013634052 0.9880078 -0.28432208 0.10552784 0.7771176
0.46040356 1.2800918 1.0453823 0.02779506 -0.28031263 0.03960764 -0.26569626 0.046141613
-0.0082130665 -0.4557185 0.589756 -0.042999204 -0.31979465 1.0908631 -0.19191816 0.019990833
1.0577422 0.02035796 0.73923314 1.0175419 1.3687495 0.26377997 -0.006373531 -0.034853805
0.04219325 -0.05001835 0.095744476 0.033450354 1.2109345 0.31465247 -0.06907875 0.18646313
0.1431162 -0.1319206 0.5699269 -0.10813138 0.034496367 0.10609082
00000000: 20eb 013f c78e 9b3f 06cf 68bd 310c 403f
00000010: 9b38 d93d 3711 48be 5f4b aebd c8d3 d5bd
00000020: 518a 4f3f a67e 0fbe e28b 8c3e c287 6e3e
00000030: 8fc6 563d 21c2 f63c 24d9 b7bc 80db b1bd
00000040: 3217 123f b110 063e 20e7 ed3e b168 6c3f
00000050: 4882 bfbe 306e 9b3c 464d 993c 428a b03d
00000060: 43b0 86bd 5bcb e2bd 22be 923f 73c1 543f
00000070: d209 e63d c9f6 93bd 2b5d 233f 2c5f 063f
00000080: d8d6 17bd b0de 813d 9e6c cebc 9a5c fb3c
00000090: 6d54 dabd 754e fc3e 687e 753d 57a8 2e3d
000000a0: 6440 ff3c d151 f13c 0dee 313f 290f 9bbd
000000b0: 9de4 a5bb 2dd7 31be d4ba 2cbd 46ed 6dbd
000000c0: 0989 583f 48bc 783e 5091 edbd b68e 233f
000000d0: 75b2 963d 525b 91bd b8cb 6fbd f2be 653f
000000e0: 2762 78be e4c9 6ebe 7bac 3cbd 359b a9bd
000000f0: 30d6 19bd 5e1b a73d b2ae 133e ac74 993f
00000100: 9c73 bdbc b09b 9d3f bd65 dfbe f1d7 853e
00000110: e4a0 703d 84b6 173f ed92 863f e4d4 043e
00000120: 4edc 163f 7686 ae3f ce0a 483d abc1 edbd
00000130: 1117 b33e 289c 653d e3b8 743d 59e5 313e
00000140: 659e a4bf 494b 413f 0cd0 243e 21cb d6bd
00000150: 6624 3a3f 1565 19bd 0e13 ac3e 81af 92bd
00000160: 7f2b 1f3f d6e6 623c 7a33 103f de25 403f
00000170: c195 a43e 22b7 f63e 01b3 ed3c d7f2 543e
00000180: 9dde d13e 83eb a33e 4f70 523e 68d5 af3f
00000190: cabd 033d 23c7 31be 4564 b03e 8a85 d33e
000001a0: 8b13 443d c3a2 b63f 1d53 753f 5c61 5f3c
000001b0: 14ee 7c3f aa92 91be fb1e d83d 2ef1 463f
000001c0: 04ba eb3e 0cda a33f 16cf 853f 77b2 e33c
000001d0: 2385 8fbe 9f3b 223d 5709 88be fdfe 3c3d
000001e0: 1990 06bc ef53 e9be 40fa 163f ef1f 30bd
000001f0: 20bc a3be 67a1 8b3f 3286 44be d1c3 a33c
00000200: 1964 873f bdc5 a63c 623e 3d3f d03e 823f
00000210: 2f33 af3f 2b0e 873e 0ed9 d0bb ddc2 0ebd
00000220: d4d2 2c3d 0be0 4cbd ae15 c43d 3d03 093d
00000230: e7ff 9a3f 211a a13e 2979 8dbd 31f0 3e3e
00000240: 0e8d 123e 3216 07be bbe6 113f fc73 ddbd
00000250: 104c 0d3d 2546 d93d

hiddenLayer3.weight f4 [150, 150]
-0.1329942 0.13222346 0.24225262 0.33921334 0.12895206 -0.0711434 0.2018607 -0.345191
0.40943968 -0.24344927 0.19780661 -0.11783235 0.23838416 -0.20693019 -0.039699506 -0.275115
0.2888994 0.4990367 -0.28246686 0.26616237 -0.115739204 -0.05628691 0.13556004 -0.008967792
0.08447106 -0.091326736 0.254349 0.4105344 -0.10066401 -0.16851239 0.19446623 0.13225162
-0.19100663 -0.51825917 -0.091949426 0.094169065 -0.7228606 -0.023963831 -0.08666256 -0.014722328
-0.090977564 0.025138294 0.39181513 0.022550238 0.12276323 0.14035988 -0.22644724 -0.0659731
0.29366264 0.026102405 -0.2108319 0.18145674 -0.46091443 -0.14404021 -0.44987613 0.092931345
-1.1412431 -0.1709604 0.10227619 0.027569266 -0.10763148 0.08967085 0.07441745 -0.30815554
0.37489143 0.37737185 0.4442476 -0.3006613 0.07976487 0.29287723 0.5122198 0.0656648
0.098339014 0.5616004 -0.105360255 0.06585796 -0.10955792 -0.018425902 0.05023842 -0.089346796
-0.9658941 -0.3330016 0.5343133 -0.05065449 0.26958233 0.068800114 -0.043335736 -0.025409803
0.10444831 0.052124996 0.31935716 0.25710464 0.048081804 0.22578795 -2.3542278 0.09950826
0.10330158 0.58900386 0.012017725 0.44165882 -0.016816176 -0.292527 -0.18677175 0.342893
-0.062397018 0.45643887 -0.026730979 0.42900473 0.33752155 0.03740792 0.35963467 0.38849577
-0.04782077 0.28659818 0.48921818 -0.19807027 -0.3277558 -0.013264892 0.36949587 -0.18381105
0.031047631 0.3058886 0.22166373 0.047940616 -0.016307691 0.24656011 -0.095336966 -0.04330745
-0.2251129 -0.2409412 0.2827428 0.39044964 0.3959374 0.04494762 -1.5946704 0.0725747
0.4072879 0.06373133 0.39655843 -0.08245409 0.29115403 -0.010661235 -0.03613396 -0.513771
-0.31821737 -0.025850456 0.27363667 0.073514216 -0.23961228 -0.16802701 0.27674255 -0.07969421
-0.28829247 -0.12686077 -0.09920789 -0.19473666 -0.58013344 0.835109 -0.17163362 -0.345674
0.11046497 0.035897933 -0.12406791 -0.23553163 -0.055914335 0.36467043 0.012006083 0.031977374
-0.11831297 -0.052467078 0.04073198 -0.015259862 -0.42539522 -0.4239546 0.06321414 0.10360373
0.014987714 0.024853904 0.040056344 -0.111218765 -0.2600711 -0.008895376 -0.40082726 -1.7327185
0.07361454 -0.47294858 0.49670756 -0.12464509 -0.5347146 -0.27582672 0.03168186 -0.07766942
0.16543804 0.045265675 -0.23334792 0.1649662 -0.46455726 0.16070145 -0.16929166 -0.087897025
-0.14250726 0.008930202 0.012454389 -0.15725479 0.11432673 -0.07950604 -0.25913948 -0.095890746
-0.0026448704 -0.040693667 -0.22042823 -0.062247057 -0.23842709 0.12440232 -0.07744136 -0.27432913
-0.31630567 -0.4875519 -0.15926896 0.06504608 0.08316318 -0.24449599 -0.10185453 -0.05617856
0.25856596 0.62857586 -0.54877007 -0.21516174 0.07987942 -0.23665495 -0.14671564 0.035876077
-0.0666833 0.10527354 -0.06461409 -0.0022526374 -0.040530063 0.040990777 -0.13321018 0.064390555
-0.15153962 -0.08666472 0.11813049 0.15519296 0.034778845 0.06925218 -0.12955393 0.29190055
0.25311 0.08899832 0.13985762 -0.4424641 0.25399664 0.03368155 0.015376172 -0.026438816
00000000: a22f 08be 9665 073e 1211 783e 5fad ad3e
00000010: 020c 043e a2b3 91bd 92b4 4e3e e0bc b0be
00000020: 14a2 d13e c44a 79be d18d 4a3e 1652 f1bd
00000030: fa1a 743e 82e5 53be f39b 22bd e0db 8cbe
00000040: 9fea 933e bd81 ff3e 7f9f 90be 6f46 883e
00000050: ad08 edbd 1a8d 66bd 40d0 0a3e a5ed 12bc
00000060: 2aff ac3d 8309 bbbd 083a 823e 9131 d23e
00000070: ef28 cebd 838e 2cbe 2822 473e f86c 073e
00000080: 3e97 43be a2ac 04bf fb4f bcbd b6db c03d
00000090: 640d 39bf cc4f c4bc 247c b1bd eb35 71bc
000000a0: 7252 babd d3ee cd3c fe9b c83e 47bb b83c
000000b0: 4a6b fb3d 80ba 0f3e c9e1 67be e81c 87bd
000000c0: f35a 963e b6d4 d53c 51e4 57be cccf 393e
000000d0: fafc ebbe 477f 13be 2a56 e6be ca52 be3d
000000e0: 4114 92bf 3e10 2fbe 2e76 d13d f1d8 e13c
000000f0: e56d dcbd 5aa5 b73d 2d68 983d 90c6 9dbe
00000100: c5f1 bf3e e236 c13e 6c74 e33e 47f0 99be
00000110: c45b a33d 01f4 953e d620 033f 447b 863d
00000120: f765 c93d 0bc5 0f3f 1ec7 d7bd 8ae0 863d
00000130: e75f e0bd ebf1 96bc cdc6 4d3d 74fb b6bd
00000140: d644 77bf 307f aabe c2c8 083f 157b 4fbd
00000150: b206 8a3e 13e7 8c3d d080 31bd 3828 d0bc
00000160: ffe8 d53d 0581 553d c882 a33e 38a3 833e
00000170: 6df1 443d f534 673e abab 16c0 fdca cb3d
00000180: c78f d33d f5c8 163f fee5 443c 1b21 e23e
00000190: 14c2 89bc 19c6 95be 1841 3fbe ac8f af3e
000001a0: 0494 7fbd 5bb2 e93e edfa dabc 82a6 db3e
000001b0: a0cf ac3e 0c39 193d 0922 b83e ebe8 c63e
000001c0: b6df 43bd ffbc 923e ce7a fa3e efd2 4abe
000001d0: 9ccf a7be fd54 59bc 902e bd3e f738 3cbe
000001e0: 9a57 fe3c 6e9d 9c3e d1fb 623e 615d 443d
000001f0: b597 85bc 417a 7c3e 0740 c3bd 2763 31bd
00000200: ff83 66be 4ab9 76be aac3 903e 04e9 c73e
00000210: 4fb8 ca3e ff1a 383d 291e ccbf 0ba2 943d
00000220: 0a88 d03e 9285 823d b509 cb3e b1dd a8bd
00000230: 2412 953e 76ac 2ebc 3401 14bd 7f86 03bf
00000240: 63ed a2be 56c4 d3bc 1b1a 8c3e 9f8e 963d
00000250: ec5c 75be 460f 2cbe 33b1 8d3e b836 a3bd
00000260: 129b 93be cae7 01be 822d cbbd 0c69 47be
00000270: a083 14bf b4c9 553f b9c0 2fbe 2ffc b0be
00000280: 753b e23d b609 133d 5117 febd 342f 71be
00000290: 6e06 65bd 15b6 ba3e 29b5 443c b5fa 023d
000002a0: 124e f2bd b8e7 56bd 94d6 263d 8004 7abc
000002b0: 67cd d9be 9410 d9be 6a76 813d 312e d43d
000002c0: 078f 753c 6a9a cb3c 1f12 243d aac6 e3bd
000002d0: 0a28 85be e9bd 11bc 3b39 cdbe b8c9 ddbf
000002e0: 38c3 963d 5126 f2be 7450 fe3e ed45 ffbd
000002f0: 0ee3 08bf 2939 8dbe d7c4 013d 2511 9fbd
00000300: 9768 293e 8068 393d c2f2 6ebe e6ec 283e
00000310: 73da edbe ec8e 243e cb5a 2dbe 5b03 b4bd
00000320: 6ced 11be fb4f 123c 7e0d 4c3c 6607 21be
00000330: 2224 ea3d 10d4 a2bd eead 84be 5e62 c4bd
00000340: 9055 2dbb 67ae 26bd f0b7 61be c5f6 7ebd
00000350: 3b26 74be a5c6 fe3d 9399 9ebd de74 8cbe
00000360: d1f2 a1be 67a0 f9be 6717 23be e136 853d
00000370: 7551 aa3d 285d 7abe 1c99 d0bd 7d1b 66bd
00000380: c262 843e 59ea 203f 327c 0cbf 5c53 5cbe
00000390: d297 a33d ad55 72be a03c 16be cbf2 123d
000003a0: 4191 88bd a799 d73d 6454 84bd fca0 13bb
000003b0: da02 26bd f2e5 273d 4068 08be 32df 833d
000003c0: 342d 1bbe 467d b1bd 66ee f13d e7ea 1e3e
000003d0: 4374 0e3d 16d4 8d3d c9a9 04be fd73 953e
000003e0: a297 813e c044 b63d d636 0f3e a88a e2be
000003f0: d90b 823e aaf5 093d 57ec 7b3c 3796 d8bc

hiddenLayer3.bias f4 [150]
1.1974357 0.38332444 0.9229626 0.04822151 0.5925876 1.3620533 -0.7697249 0.5775854
-0.07522272 -0.7260319 0.10536262 -0.16000336 -0.090901464 -0.25989342 0.38694525 -0.2589647
-0.24846265 1.3310237 0.06327129 -0.22449644 -0.112818845 0.96039534 1.6826411 -0.34848258
-0.43398318 1.0136439 1.0978955 -0.1726447 0.11754526 1.4538859 0.15959996 -0.20097569
-0.06747129 -0.074630834 2.491452 0.14706917 1.367486 -0.23580264 0.17548184 -0.19432396
-0.23655525 -0.24531575 1.5572236 -0.49862814 0.15937133 -0.11277467 -0.34647813 1.5131929
-0.46441483 0.0013449285 1.2983292 -0.12666994 0.5177626 -0.054472543 0.8923644 0.6906244
0.16382208 0.20896512 -0.15250717 -0.034523983 -0.2672894 0.19222927 -0.09177243 -0.15553506
-0.038718715 0.2900434 -0.22978142 0.015867308 0.30425733 1.251834 0.12996505 0.5597117
0.09469353 1.5188339 1.4258853 0.6999479 -0.87857175 0.12833405 -0.04066377 -0.06595904
-0.15531592 1.09271 0.2972581 0.27971938 -1.1668397 -0.10555394 -0.20444652 -0.2697237
-0.032022428 -0.08681614 -0.41497827 1.4375806 -0.06590677 1.3171955 -0.15465264 -0.14768574
-0.004466616 0.102079086 -0.05438027 1.1282468 -0.11125041 1.2554593 -0.117872305 -0.28141385
1.6194816 0.074996494 -0.025685214 -1.1434286 0.17143819 1.3920859 -0.5239886 -0.46957493
1.4554381 0.3179142 0.9609119 0.9194106 0.073555574 0.0510856 1.5525146 0.2654954
0.01935657 -0.04911206 0.07597192 0.022386715 -0.22358117 -2.2163332 0.0633361 -0.13565576
1.3011284 1.0328351 0.03173533 0.112073116 -0.105357975 -0.19541785 -0.08926378 1.2437967
-0.05651876 -0.014812697 0.7782115 -0.183383 1.2825791 0.015571573 -0.008262884 -0.2945207
1.0156641 0.2627924 0.6542219 -0.18307622 1.1643244 0.054784957
00000000: 9345 993f 1a43 c43e 4747 6c3f eb83 453d
00000010: d2b3 173f c357 ae3f b10c 45bf a3dc 133f
00000020: 5f0e 9abd 3add 39bf 5bc8 d73d ecd7 23be
00000030: 8c2a babd c010 85be b01d c63e 0597 84be
00000040: fe6c 7ebe fc5e aa3f 6194 813d 65e2 65be
00000050: 910d e7bd 78dc 753f c960 d73f 4f6c b2be
00000060: 0b33 debe 15bf 813f d787 8c3f c6c9 30be
00000070: 92bb f03d ef18 ba3f 2c6e 233e 92cc 4dbe
00000080: 632e 8abd 0dd8 98bd f373 1f40 4d99 163e
00000090: c809 af3f 3f76 71be 83b1 333e dcfc 46be
000000a0: 8a3b 72be 0d34 7bbe 1a53 c73f 304c ffbe
000000b0: 3d32 233e 68f6 e6bd 9565 b1be 4eb0 c13f
000000c0: c8c7 edbe 5048 b03a a72f a63f c4b5 01be
000000d0: 178c 043f 9a1e 5fbd fe71 643f c3cc 303f
000000e0: fac0 273e f4fa 553e d72a 1cbe 0569 0dbd
000000f0: 28da 88be c0d7 443e 2ff3 bbbd 9544 1fbe
00000100: 8497 1ebd 9280 943e d24b 6bbe 28fc 813c
00000110: 9ec7 9b3e 193c a03f 8f15 053e 4449 0f3f
00000120: aeee c13d 2669 c23f 6983 b63f c92f 333f
00000130: 14ea 60bf 006a 033e 0e8f 26bd 8815 87bd
00000140: 230b 1fbe ecdd 8b3f 3732 983e 6137 8f3e
00000150: 015b 95bf aa2c d8bd 6e5a 51be 3a19 8abe
00000160: f329 03bd a9cc b1bd 0878 d4be a402 b83f
00000170: 21fa 86bd dd99 a83f 435d 1ebe ee3a 17be
00000180: b15c 92bb d70e d13d d9bd 5ebd 646a 903f
00000190: 41d7 e3bd e4b2 a03f 0967 f1bd 7a15 90be
000001a0: 2c4b cf3f c397 993d cc69 d2bc de5b 92bf
000001b0: 7e8d 2f3e df2f b23f 1e24 06bf 206c f0be
000001c0: cc4b ba3f a6c5 a23e 53fe 753f 7e5e 6b3f
000001d0: 4ea4 963d 223f 513d ccb8 c63f 03ef 873e
000001e0: ab91 9e3c ba29 49bd 2a97 9b3d 5864 b73c
000001f0: 76f2 64be 67d8 0dc0 5bb6 813d 58e9 0abe
00000200: 608b a63f f133 843f e8fc 013d 9786 e53d
00000210: ecc5 d7bd 9e1b 48be eecf b6bd bb34 9f3f
00000220: 3780 67bd f4b0 72bc de38 473f c1c8 3bbe
00000230: 8d2b a43f e91f 7f3c 0c61 07bc 6bcb 96be
00000240: 4801 823f ba8c 863e 167b 273f 5578 3bbe
00000250: 9508 953f 3166 603d

outputLayer.weight f4 [2, 150]
0.080602 -0.012735611 0.24026822 -0.060711376 0.30031437 0.3136255 -0.012649148 0.71207386
-2.3933923 3.0934167 0.006475132 -0.51823014 0.170257 1.529286 0.038651865 -0.4416509
0.004098217 0.38604072 -0.01856484 1.804628 -0.32919228 -0.08189027 0.45294487 0.0043111853
-3.9282224 -0.024971617 0.11161833 0.285649 1.2508725 0.31858096 -1.022438 0.6596934
3.458079 0.24391872 0.12782922 0.31890166 0.33458704 0.039472245 -1.6384711 -0.25060043
-0.75197226 0.9925843 0.44527113 1.1021793 0.32985952 0.032639492 1.4104793 0.5198456
-0.46702918 1.0932299 0.42024663 -0.022930358 -0.2597452 0.0243667 0.0751116 0.023703812
0.73438346 -0.039981067 1.1443843 0.008016636 1.142371 -2.1098564 -0.33558455 0.7025268
-1.6013293 0.40325698 0.93609583 -1.8585039 0.5343944 0.3972259 -2.7388378e-06 0.22723842
0.007867474 0.57295734 0.30160826 0.38190162 -0.3539981 -0.62282634 -0.41082355 -0.053607382
0.61119634 0.06336056 0.013295835 -0.0977033 -0.4524117 -0.050129056 -1.2128226 -0.98905057
0.017296212 -0.9892433 1.3916421 0.42180327 -1.3432202 0.1632573 -0.035050504 -1.1580765
-0.22646506 0.07021844 0.47605208 0.53576034 -0.55241036 0.07217081 0.45342585 -1.7882422
0.45081723 -1.7871912 -0.019246949 -0.010266233 -0.54985934 0.53041136 -0.5320092 -0.24450955
0.47761342 0.80751616 0.34780833 0.15916084 -0.030250637 0.02620484 0.42517775 -0.123863384
0.058043417 -0.8719101 0.0038347524 -0.5485833 0.67185926 -0.488689 -0.029686984 -0.030279865
0.52909994 0.5405105 -0.031412642 -0.081710085 0.34813142 -0.6875655 0.08869131 0.17397588
-0.026890565 0.0017766418 0.8087858 2.030472 0.30040944 -0.44656613 0.7718962 -0.37257966
0.07669232 0.3377722 -0.043514423 0.041756287 0.43567413 -0.008051168 0.7779137 0.015752723
0.23850833 0.31779328 -0.38107458 0.30368033 0.0037036585 -0.24235433 3.262679 -2.9694529
0.020880597 0.5506384 -0.14236657 -0.56926614 0.0012333486 0.5158105 -0.016584048 0.3031567
-0.007657122 -2.3169646 0.4437606 0.718866 0.5279305 0.0147984205 3.9870822 0.5737444
0.07932672 -0.29780993 -1.1968783 0.5532181 1.0638716 -0.37603912 -3.868108 -0.60990804
0.113533586 -0.003937199 0.58768207 -0.017846664 1.7222929 0.27816862 0.75398034 -1.0404828
0.5076552 -1.1003567 -0.29713655 0.32841402 -0.9302091 0.27361184 0.5502343 0.29683563
0.38579917 -0.021296851 0.13095129 -0.027864994 -0.06003038 -0.02869969 -0.78639054 0.06135629
-0.16800743 -0.25466165 -1.5499837 2.506289 0.66932046 -0.8010263 1.8140757 -0.28989354
-1.0351943 2.6873868 -0.46744758 0.38582847 -0.0127925165 0.012546188 0.038715716 0.2773546
0.6153446 -0.11586615 -0.34528604 -0.4594581 0.403581 0.048580423 -0.75406593 0.14714429
-0.0037882018 0.48558423 0.6171719 0.07482316 1.3859627 1.0581433 0.01931614 0.98587334
-0.55307335 0.39674821 0.5780087 0.15477173 -0.043414563 1.2718581 0.27521542 -0.08436343
-0.31088528 0.16954245 0.43698597 0.484002 -0.31961298 1.6240244 0.5360317 2.8958857
00000000: a912 a53d 06a9 50bc df08 763e 7eac 78bd
00000010: cec2 993e 8693 a03e 5f3e 4fbc 794a 363f
00000020: 572d 19c0 8afa 4540 582d d43b bbaa 04bf
00000030: da57 2e3e a5bf c33f 6b51 1e3d 1120 e2be
00000040: 564a 863b 21a7 c53e 4b15 98bc 0dfe e63f
00000050: e48b a8be 16b6 a7bd 64e8 e73e d844 8d3b
00000060: ff67 7bc0 4791 ccbc 2798 e43d 9640 923e
00000070: 971c a03f 0b1d a33e 40df 82bf abe1 283f
00000080: 2b51 5d40 d4c5 793e aae5 023e 1447 a33e
00000090: fe4e ab3e a6ad 213d 6cb9 d1bf b34e 80be
000000a0: 4181 40bf 011a 7e3f 94fa e33e 3614 8d3f
000000b0: 59e3 a83e fdb0 053d 968a b43f 9a14 053f
000000c0: 731e efbe f5ee 8b3f 912a d73e 72d8 bbbc
000000d0: 53fd 84be ac9c c73c 1cd4 993d 7f2e c23c
000000e0: 8e00 3c3f 30c3 23bd 2f7b 923f 3558 033c
000000f0: 3739 923f e307 07c0 bdd1 abbe ccd8 333f
00000100: 5cf8 ccbf b377 ce3e faa3 6f3f 75e3 edbf
00000110: 12ce 083f 3161 cb3e e0cc 37b6 30b1 683e
00000120: 94e6 003c 55ad 123f 666c 9a3e 9c88 c33e
00000130: 3d3f b5be 8c71 1fbf 7757 d2be 6a93 5bbd
00000140: 5d77 1c3f 2ec3 813d c6d6 593c ab18 c8bd
00000150: 82a2 e7be 2054 4dbd c53d 9bbf 6b32 7dbf
00000160: c9b0 8d3c 0d3f 7dbf 5421 b23f 99f6 d73e
00000170: a4ee abbf ec2c 273e 1e91 0fbd da3b 94bf
00000180: 75e6 67be afce 8f3d 19bd f33e 9727 093f
00000190: c46a 0dbf 4ace 933d 6f27 e83e 1fe5 e4bf
000001a0: 84d1 e63e aec2 e4bf c7ab 9dbc b433 28bc
000001b0: 95c3 0cbf 0ac9 073f c131 08bf b660 7abe
000001c0: bf89 f43e 61b9 4e3f ef13 b23e 0ffb 223e
000001d0: 2fd0 f7bc 88ab d63c e6b0 d93e 16ac fdbd
000001e0: efbe 6d3d 8035 5fbf 7850 7b3b f56f 0cbf
000001f0: f8fe 2b3f 7235 fabe 1e32 f3bc 7b0d f8bc
00000200: 1873 073f e55e 0a3f 8baa 00bd 9e57 a7bd
00000210: 483e b23e 4b04 30bf caa3 b53d bc26 323e
00000220: 9a49 dcbc 35de e83a 960c 4f3f 41f3 0140
00000230: 44cf 993e 51a4 e4be fd9a 453f c3c2 bebe
00000240: dd10 9d3d 7af0 ac3e 2e3c 32bd a408 2b3d
00000250: ae10 df3e 0ce9 03bc 5a25 473f db0b 813c
00000260: 873b 743e cdb5 a23e 351c c3be fd7b 9b3e
00000270: 14b9 723b bc2b 78be bccf 5040 840b 3ec0
00000280: c90d ab3c a3f6 0c3f 8bc8 11be 6dbb 11bf
00000290: 50a8 a13a 280c 043f 45db 87bc 5b37 9b3e
000002a0: 98e8 fabb 2649 14c0 9734 e33e 9a07 383f
000002b0: 7426 073f 1375 723c 5b2c 7f40 eae0 123f
000002c0: 0c76 a23d 8b7a 98be 4f33 99bf b49f 0d3f
000002d0: f22c 883f 3388 c0be 158f 77c0 ef22 1cbf
000002e0: 4c84 e83d 9e03 81bb 5572 163f 2b33 92bc
000002f0: 1874 dc3f 1e6c 8e3e db04 413f 8a2e 85bf
00000300: b1f5 013f 7dd8 8cbf 4822 98be e225 a83e
00000310: 2f22 6ebf da16 8c3e 28dc 0c3f d7fa 973e
00000320: 7887 c53e bc76 aebc 1818 063e 2145 e4bc
00000330: 6ae2 75bd 9d1b ebbc e450 49bf bc50 7b3d
00000340: 240a 2cbe 0363 82be de65 c6bf 0a67 2040
00000350: 9658 2b3f 0f10 4dbf a233 e83f ed6c 94be
00000360: 3f81 84bf 25fe 2b40 4a55 efbe 4f8b c53e
00000370: b497 51bc 878e 4d3c 5f94 1e3d 6c01 8e3e
00000380: 3987 1d3f 3b4b edbd 55c9 b0be 183e ebbe
00000390: 2ba2 ce3e 44fc 463d 770a 41bf feac 163e
000003a0: 7b43 78bb 7f9e f83e fafe 1d3f e33c 993d
000003b0: 3a67 b13f 3d71 873f e23c 9e3c 3262 7c3f
000003c0: 3796 0dbf 9522 cb3e 61f8 133f 7b7c 1e3e
000003d0: 78d3 31bd 3fcc a23f 09e9 8c3e bcc6 acbd
000003e0: 5b2c 9fbe 899c 2d3e a0bc df3e 1ccf f73e
000003f0: 50a4 a3be 08e0 cf3f 6039 093f 3156 3940

outputLayer.bias f4 [2]
1.2312871 1.5746057
00000000: d19a 9d3f ae8c c93f
