ftl/pretrain/weight/finetune_prn_1/finetune_prn_1_14.pth (torch, 187635 bytes, 8 tensors)

hiddenLayer1.weight f4 [150, 3]
00000000: a967 8abe cc04 89bf 86db febe 73a7 b1bc
00000010: 6849 0039 1c1a 5bbd 886c 54bc 5244 f1be
00000020: f27c 27bf c71a 16bc 3b39 953b 2f26 d83f
00000030: 7a34 d2b7 c8fa 46bb d7cf 29bb 7d56 ebbd
00000040: 39c5 e439 19e1 e5bd d8d4 2cc1 80aa 27bc
00000050: db7d c8bf c2fa 54bd 28e6 c23b 688e 883e
00000060: 9ef0 0cbf b8e8 b9bd fd3e 3cbf ec8d 04bf
00000070: e671 a3bd 97dc 91bd 4f5e 79bd 163c c4b9
00000080: ee50 adc0 3e73 abbe 1f33 623c 4c27 c2be
00000090: a0e3 87c1 4723 98bd 9480 56be df6d 05bd
000000a0: 691f 8f3b 0cdf 013d fae0 b1bc fe8c 043a
000000b0: 32d8 e4bb 15c8 89bb fb7c c4bb d28c 753f
000000c0: ba6b c1bd 06ee 633c 248e d6bc 1126 08c2
000000d0: 734f 2d3b 693f b9be d0e1 5dc0 6d75 5dbc
000000e0: 3151 50bc b6d3 69bd 3774 39ba e254 04bd
000000f0: d357 4739 08d9 0d3c c625 92bb 268e ac3b
00000100: b164 bb3e 66f4 593f ac6e 22bc e13a 9cbd
00000110: 0e1a 563b 7bb5 2fc1 c520 ed3c 631b 173c
00000120: eed0 8d3d 9164 d2bb 1ebb 153f 5548 2bc0
00000130: d32a 8f3b 00cc 80c0 2bc8 c5bf 86a5 0f3e
00000140: da24 9ebf 25f3 28bf f1f4 8abe 4db0 8e3f
00000150: a929 4abf 879b f73e e70f eb3d 69bd 9cbe
00000160: cd71 2bbd a746 f2bc 78a5 3abd 1176 d73a
00000170: 39f9 0340 d6ac 89c0 6ffc c4be b114 473f
00000180: ad72 7cbf 91a0 3b3e 42fb 58c0 654c f0be
00000190: 00b2 093b 7602 5ebd b39b 9abd 0dba 7cb8
000001a0: 781c cfbd 5a95 27bf 41dd 69bf c678 18be
000001b0: 4fac 4abc 793e 2b3d 9bf5 82c0 e4bf 8bbe
000001c0: ceb2 a93b 69f1 52be 5bab 87bc 3be9 37ba
000001d0: 899e e3bc 1387 1bc1 2cb0 33bc b9bd 89bf
000001e0: e2a3 00bd c055 9bbb 74de d3bc b200 70bf
000001f0: 0364 bdbe 491d 09bf 86fc 7dbd 6bab 1339
00000200: d522 3cbc 81c9 18be 1989 52b8 7e8d 3fbd
00000210: 25e0 b2bf 608c 12bf 8622 a9bd 69bd d3bb
00000220: 3173 e9bc 3c1b 80c0 6e08 e9bb 39f3 68bd
00000230: b1bf 953f 262f 82bf ccf4 9fbe 2a2a bcbf
00000240: fc90 f2c0 5054 90bb 7cef d13e f741 a8bf
00000250: 54f0 8a3d 26a9 bebe 4ab3 e5be fac1 bdbe
00000260: f3e9 7bbe a448 1dbf f950 49bf 83f3 9e3e
00000270: 1509 533c 1874 d33c e40c 0c40 29cc f6bf
00000280: 0fa6 88bc fc9b e03c 0a46 90bd e272 feb7
00000290: 1be7 10bd 797f a53b de9b d43b 892f ffc0
000002a0: 0562 67be 66f4 8cbe 2b57 97be d0bb 8cbb
000002b0: 9399 3cb9 e0af d4bd 04ab 20c2 69f4 81bb
000002c0: 74a2 99bd 4407 6dc0 3815 743f 34fb 0d3e
000002d0: 8e82 e7bc 4a9b 0b3a 1d07 55bd 24d3 e03e
000002e0: ddc0 d4bb 483f 9fc0 3734 0fbb 17ce 563b
000002f0: 2170 17c1 48eb b1bf 0855 da3e 1db2 10c0
00000300: b42f c9c1 6be5 6dbb 02fa cd3e 3834 24c0
00000310: bd2d 84bd 2791 29c0 90c6 bebf b60e 793f
00000320: 63c5 3e3e eb03 f2ba a556 aaba a876 b040
00000330: c435 67bd 014a 3e3d 1133 92bc 956a b7bd
00000340: f62a 433b dc26 33bc f3ab 17c0 1fad 043e
00000350: 25e9 af3c a856 7ec1 f017 593e d17f 4fbf
00000360: a1f5 d3c0 36e0 933e c9a8 a53c 8a25 ebbd
00000370: 43ec e13b b536 b2bc de49 8fbd 3f4c 673b
00000380: b686 e2bb 88bb 96bd cf8a f239 34cf b2bd
00000390: 19f1 e8be 63da 23bf 457d 89be b2c5 56bd
000003a0: 96b9 b6bb fef5 28bd 391d a6c0 88d2 253e
000003b0: cab2 e03c bc73 a1bc b662 bfb9 05a7 3f40
000003c0: 598a c8bc d9e2 6c3b f4b5 7ebc 1ea3 f6c1
000003d0: 7129 acbd 7239 cebe a398 afc0 4d64 a2be
000003e0: 238b 68bf 0d29 1938 ac6d 873a 786a 1abb
000003f0: 5a1c dcbf 537a ee3a f06f 43bf 1df7 1ac0
-0.2703221 -1.0704589 -0.49776858 -0.021686291 0.00012234377 -0.053491697 -0.012965329 -0.47122437
-0.65425026 -0.009161658 0.0045539415 1.6886653 -2.5058387e-05 -0.003036188 -0.0025911236 -0.11491106
0.0004363449 -0.112245746 -10.801964 -0.010233521 -1.5663408 -0.051996954 0.005947847 0.26671147
-0.5505465 -0.09077591 -0.7353361 -0.51779056 -0.07980709 -0.07122152 -0.060880955 -0.000374288
-5.416129 -0.3348636 0.0138061335 -0.37920606 -16.986145 -0.074286036 -0.20947486 -0.032575484
0.004367758 0.031706855 -0.021713722 0.000505641 -0.0069837803 -0.00420476 -0.005996344 0.95918
-0.09444375 0.01391173 -0.026190825 -34.037174 0.002644506 -0.3618119 -3.4669075 -0.013516766
-0.01271467 -0.05708667 -0.00070745073 -0.032307513 0.00019010836 0.008657701 -0.0044600694 0.005265969
0.3660026 0.8513855 -0.009914082 -0.07628418 0.0032669338 -10.981807 0.02894629 0.009222838
0.06924616 -0.00642068 0.58488643 -2.6762898 0.0043691187 -4.0249023 -1.5451711 0.14027986
-1.2354996 -0.6599601 -0.2714 1.1147553 -0.7896982 0.48360845 0.114776425 -0.30613258
-0.041856576 -0.029574705 -0.04556796 0.0016438385 2.0620863 -4.302348 -0.38473842 0.7776595
-0.9861248 0.1832297 -3.3903356 -0.46933284 0.0021010637 -0.054201566 -0.075492285 -6.0254755e-05
-0.10112852 -0.6546227 -0.9135323 -0.14889821 -0.012370183 0.041807625 -4.092481 -0.27294838
0.005178786 -0.20599903 -0.0165612 -0.000701565 -0.027785556 -9.720477 -0.010967296 -1.0761024
-0.03140629 -0.004740447 -0.02586291 -0.9375106 -0.36990365 -0.5356031 -0.062008403 0.0001408287
-0.011482914 -0.14920618 -5.0195584e-05 -0.046765797 -1.3974653 -0.57245445 -0.08258538 -0.0064617884
-0.02849731 -4.0033245 -0.0071116006 -0.05687258 1.1699125 -1.0170639 -0.31241453 -1.4700367
-7.5801983 -0.004404582 0.41003025 -1.3145131 0.0678412 -0.37238425 -0.4486335 -0.37062055
-0.24600963 -0.61438966 -0.7863918 0.3104516 0.012880583 0.025812194 2.1882868 -1.9281055
-0.016680745 0.02741813 -0.07044609 -3.0332656e-05 -0.03537665 0.0050505963 0.0064883074 -7.9745526
-0.22595985 -0.2753021 -0.2955869 -0.00429485 -0.00017986288 -0.10385108 -40.167007 -0.0039659035
-0.075016886 -3.7035685 0.9534488 0.13865358 -0.028260496 0.0005325569 -0.052008737 0.43911088
-0.0064927177 -4.976475 -0.002185119 0.0032776648 -9.464875 -1.3899927 0.42643 -2.2608712
-25.148293 -0.0036300074 0.40229803 -2.5656872 -0.064540364 -2.6494844 -1.4904346 0.9728807
0.18629985 -0.0018464302 -0.0012995793 5.5144844 -0.05644776 0.046457294 -0.017846616 -0.08955876
0.0029780245 -0.010934558 -2.36987 0.12956665 0.021473477 -15.896156 0.21200538 -0.8105441
-6.623734 0.28881997 0.020222085 -0.114817694 0.0068946197 -0.021754602 -0.06996511 0.003529325
-0.0069130315 -0.073599875 0.00046261257 -0.08730927 -0.45496443 -0.64005107 -0.26853386 -0.05243463
-0.005576323 -0.04125022 -5.191067 0.16193593 0.027429003 -0.019708507 -0.00036503904 2.994569
-0.024480032 0.0036145954 -0.015546311 -30.829647 -0.08406342 -0.40278202 -5.4873824 -0.31717148
-0.90837306 3.6516274e-05 0.0010332367 -0.0023561995 -1.7196152 0.0018194414 -0.7634268 -2.4213326

hiddenLayer1.bias f4 [150]
00000000: baaf b3c0 a46d b3bd 140e 24c0 daf2 e5bf
00000010: b53b 74bd b98a babd 13f7 58be c494 0d3f
00000020: c03c 3abf b855 99bf 7f00 e7bd 81e7 c2be
00000030: bbdf d0bf 5076 82c0 64e3 2fbc 344a 87bd
00000040: 2440 88be dac3 d1bf 389a acbe 431c 1dbd
00000050: 3d18 41be 3ec9 91c0 1edd 97bf 68d5 8fbf
00000060: 0e58 02c0 35f4 303e 0183 93bf 13a2 04c1
00000070: 35f2 05c0 e0b2 24bf b943 6d40 4443 bfc0
00000080: c876 e5bf 66ab b5bd 3ce7 2fbe e190 98c0
00000090: 4f40 b9bf 2eea 50be 4579 08bd f942 b7bf
000000a0: d2ca 15be f2fa 07c0 d73d 75bc ad04 32bd
000000b0: d652 45c0 032a bcbf e57b 46c0 b196 01c0
000000c0: 38bf 49be 9c63 8cbf 4c07 00c0 97c4 9ec0
000000d0: 325f c1c0 d808 e4bf 69e0 f7bc b2b1 0ebe
000000e0: ed0a 7fc0 3f29 aabd 8c5e 34bf d01c c7c0
000000f0: 06f0 babd a338 3640 ba31 d53e 2f77 32c0
00000100: be31 9dbf 04a0 9ebf 704d 9ac0 090f f23e
00000110: b938 29bf 83e1 89bd ae64 eebf ea55 55c0
00000120: 2b32 e7bf 9b79 1fbe 5289 a2bd 7b7d 95bd
00000130: 3798 f2c0 daab f2bd 2c22 17c0 4e45 9ec0
00000140: 7634 7ebd 6f4b 2dc0 f675 10c0 624d e9bc
00000150: e517 e33e eb1f adc0 79cc e2bf 202c 3040
00000160: 073e 5bbc 9e17 48bf 5d25 b1be 2450 fbbe
00000170: 2c10 08c0 c0d4 f7bf 1328 57c0 de02 bfbd
00000180: a7cf 103f eeb1 6ac0 b2d9 d0bd 451a 0ec0
00000190: 3b7f 0cbe fd56 21bf 137c 1bc0 caf3 82bf
000001a0: 7048 8bc0 160a 03be 4673 12bd 9421 3bc0
000001b0: 1e38 98bf 2f44 f6c0 d8fb efbe 77e8 debd
000001c0: c675 6ec0 060d 60c0 dcb3 cdbf 6133 8fbc
000001d0: 5db7 8cc0 0f6d 0abf dc5d 53c0 4ed3 f6bd
000001e0: 6c2f 5ebd 4355 94c0 3aae 84c1 44ad d9bc
000001f0: e7c3 37bd 5750 eabc c659 b7bf e6dc 92be
00000200: 6b57 53bf f5fd 0dc0 d0da 40bf 42cd 98bf
00000210: 5da9 08be cfcb c3bf fda0 0fbf 0b80 49c0
00000220: 38e3 43be 3975 c4be ea04 3dc0 fd5b cebd
00000230: 4b44 6440 8051 8bc0 a77d 01c1 3f34 dcbf
00000240: d116 8fbe fb3b 61bc 3a00 3ec0 1fa9 ffbe
00000250: 2455 00be 9f47 a13e
-5.615201 -0.08761147 -2.5633593 -1.7964737 -0.059627254 -0.091084905 -0.21188001 0.55305123
-0.7274895 -1.1979284 -0.112793915 -0.38067248 -1.6318277 -4.0769424 -0.0107353665 -0.0660595
-0.26611435 -1.6387894 -0.3371141 -0.03835703 -0.18856902 -4.5558157 -1.1864355 -1.1237001
-2.0366244 0.17280658 -1.1524354 -8.289569 -2.0929081 -0.6433544 3.7072585 -5.976961
-1.7926874 -0.08870582 -0.17178053 -4.7676854 -1.447275 -0.20401832 -0.033318777 -1.4317313
-0.14628151 -2.1246915 -0.014968357 -0.04346149 -3.083181 -1.4700321 -3.101312 -2.0248225
-0.1970185 -1.0967898 -2.0004454 -4.961498 -6.0428705 -1.7815199 -0.030258374 -0.13934973
-3.9850419 -0.08308648 -0.7045677 -6.222267 -0.09127812 2.8472068 0.416395 -2.7885244
-1.2280805 -1.2392583 -4.821953 0.47277096 -0.66102177 -0.06732466 -1.8624475 -3.3333688
-1.8062185 -0.15573733 -0.07936348 -0.07299324 -7.581081 -0.11849184 -2.3614607 -4.94596
-0.06206175 -2.707729 -2.2571998 -0.028479282 0.44354168 -5.410146 -1.771865 2.7526932
-0.013381488 -0.78161037 -0.34598818 -0.4908458 -2.125987 -1.9361801 -3.361821 -0.09326719
0.5656685 -3.66711 -0.10197772 -2.2203534 -0.1372041 -0.6302336 -2.429448 -1.0230649
-4.3525925 -0.12796816 -0.035754465 -2.9239244 -1.1892126 -7.695823 -0.4687183 -0.10884183
-3.7259383 -3.500795 -1.6070514 -0.017480554 -4.397383 -0.5407266 -3.3026037 -0.12052022
-0.054244444 -4.635408 -16.585072 -0.026571877 -0.04486456 -0.028602762 -1.4324272 -0.28684157
-0.82555264 -2.2186253 -0.7533388 -1.193764 -0.13345857 -1.5296572 -0.56105024 -3.1484401
-0.19129646 -0.38370684 -2.953425 -0.10076139 3.5666683 -4.3536987 -8.093177 -1.7203444
-0.27947095 -0.013747211 -2.9687638 -0.49933717 -0.12532479 0.31499955

hiddenLayer2.weight f4 [150, 150]
00000000: d028 acbe a3e3 9b3d 03ec e3bf d9ce e4bf
00000010: ac49 18bf e100 7f3e 44ec bcc0 caa7 87be
00000020: 37e3 8240 9df8 b3bf fdc4 b0c0 4c8a 1fc0
00000030: fa63 2dc1 5f0b f3bd cce6 cd3d 9d4a d03e
00000040: 95df c5bd 12a5 6e3f ae34 20bd c561 0bbe
00000050: e7f2 49c0 1d63 c2be 98c7 d3be ae22 5abe
00000060: 8089 86c0 da75 b5bf a586 583f edbc 07c0
00000070: 1d9a 0b40 4253 43bf fde6 2cbf b0d1 55bf
00000080: ea58 8fc0 09db 87be 8ee1 acbd b16e d6be
00000090: 416f b4bf 724e ccbe 8d36 8b3d 6577 adc0
000000a0: 3234 59be d7c9 b7c1 6e00 c1bd cc5b 3ebe
000000b0: b200 a0bc 99c4 9d3e 7867 b8bf 7ae0 63c1
000000c0: 79d9 f7c0 bf4d 0f40 ecab 91c0 9d58 d33f
000000d0: b9dd 93bf ed78 93c0 8e95 a13c 0e3d 81c1
000000e0: 14a8 a9c0 ec3d d53d 3fd9 3c40 5002 c4bf
000000f0: 33c5 f2be 899d fabe ebaa a0be cbc3 98c1
00000100: bb63 27c1 30e0 043f 5e8d 0bc1 a1c7 44c1
00000110: 87f9 1f3f 6c2e d9bd cce0 0240 14f4 c8c0
00000120: 9e84 17c2 eea1 28bd 6e14 39bd b3f4 32be
00000130: 8775 83c0 86b7 88be 7bff c4c0 7245 80be
00000140: 4e16 fcbd b0de 2c40 bd52 c3bd 7fab abbd
00000150: 6aa6 b83f a35a 43c0 2609 c2c0 e9aa 7ebe
00000160: a9bd 8b3e 35e2 7f40 13f3 c5c0 e2d5 e0be
00000170: 4ccb 2ec0 5a29 9a40 43ad 91be 7868 d63f
00000180: 1d46 c9be ca19 95be 10fc 6e3f 285c a3c0
00000190: ee5c ce3e 45fb ec3f ad6c fb3f 5fd9 bdbb
000001a0: 435e 41bf 19b3 fc3e fba7 a93e a4f0 1e3e
000001b0: de35 65c0 5a29 51bf b0a6 b740 b08e f3bd
000001c0: aa62 4fc0 8cd2 673f 15ca bdc0 d8e3 2d3c
000001d0: 94d6 80c0 3576 de40 60ff 38c1 157a 44be
000001e0: 3ae7 98bc 6bcb edbf 8af7 a0be 853b a5bd
000001f0: 43f1 afbd 2e00 74be 9cba 20c0 dcf5 9840
00000200: 9473 0ac0 08c6 2140 50b4 b7be a47d 1fbe
00000210: 25bb e6bd 69c0 9ebf 3ddc 98c0 d9fd 28c1
00000220: cc63 e43f b46d 15c0 a3a8 c13f d702 ad3d
00000230: 8cbc cdbe 6b11 5fbf 4f91 1abf a021 20bf
00000240: 31c6 72bf 7f3d e7bc 3a26 bec0 0f93 8ac0
00000250: b6b2 583d a627 f93f f31d 8cc1 e2d3 373d
00000260: 4179 15bf 5b1e 2d40 631c 89bd 203e 7dbe
00000270: e0e6 b0c0 aaf5 26bf 079d c5bd 944f a0c0
00000280: ab2d 2abf f056 a8bf c429 b93f f9ab aec0
00000290: 2cbc c93c 8429 423e 5297 3e3e f5d3 59c0
000002a0: 886f 60bf 4ff4 64bd 2886 bf40 a465 713f
000002b0: 5254 0b3f d323 b5bf 3666 c1c0 7eec 6cbf
000002c0: 7c77 45bf 1064 67bf 5eee 1cc0 453d 0dbf
000002d0: 6119 94bf 4dfa f83e 4312 f6bf de62 ca3e
000002e0: 5217 b13e 6238 03bf d35a aabf 951b c33e
000002f0: 4fd7 423d 8f7c 2640 016a 0abf 34be 0240
00000300: 6b6e 3ebc 2a17 c5bc 62d4 f4c0 58dc 22bf
00000310: 88ce aa3f acd4 20bf 29fd ddc0 c933 e9be
00000320: 13a2 2240 5f62 063f aeea 86c0 b7ae 2d40
00000330: ac39 0ebe 76ca 9bbf 0af8 3540 07f4 a3be
00000340: 2df6 d5bd 7ced 4abf 2fd0 4cbf 39e9 43c0
00000350: 4e25 8e3e cb79 9bbf 8b68 8f40 bed9 edbe
00000360: f2a9 23c0 a0e5 483e e46b c7be e3e2 1bbe
00000370: fe4a 72c0 00d7 933f 4412 2ac0 0a86 b63d
00000380: 7343 afbd 4ace e73d d42c 2b40 f8cc a9be
00000390: 47d6 003f c8e6 c640 4c7f 723e 17a3 0bc0
000003a0: 38e9 2dc1 202d 2fbd fca0 fbbf 3c8e f8bf
000003b0: 48d6 93c0 7d44 72c0 976e 93bc 3e85 eabf
000003c0: a69a 1fbe c61c 89bf bf84 c8bf bec0 ed3f
000003d0: 80e2 b7bf 90da e5bf 79e4 0d3d e841 1ec0
000003e0: 769d 953e f1ea 773f bd8a 053f bd2b 523f
000003f0: 9667 3fbf 2bc4 55bf 2033 05c1 0a16 8fbf
-0.33624887 0.07611778 -1.78064 -1.7875625 -0.59487414 0.24902679 -5.903841 -0.264952
4.090236 -1.4060246 -5.5240464 -2.492816 -10.836908 -0.11867403 0.10053787 0.40681925
-0.096617855 0.9322063 -0.03911274 -0.13611515 -3.1554506 -0.37966242 -0.41363215 -0.21302292
-4.2042847 -1.417659 0.8458045 -2.120906 2.1812813 -0.76298916 -0.6753996 -0.8352308
-4.479604 -0.26534298 -0.08441459 -0.41881326 -1.4096452 -0.399036 0.06797514 -5.4208245
-0.21211317 -22.973555 -0.0942391 -0.18589705 -0.019531582 0.30814055 -1.4406576 -14.242304
-7.745297 2.2391202 -4.5522366 1.6511418 -1.1552039 -4.6085114 0.019724634 -16.154812
-5.3017673 0.10412201 2.9507596 -1.5313206 -0.47416076 -0.48948315 -0.313804 -19.095602
-10.461848 0.5190458 -8.722013 -12.298738 0.62490124 -0.106045574 2.0449705 -6.2797947
-37.87951 -0.041170053 -0.0451855 -0.17476158 -4.1080966 -0.26702517 -6.1561866 -0.25052983
-0.12308942 2.7010918 -0.095372654 -0.0838232 1.4425786 -3.052407 -6.0636168 -0.24869885
0.27293137 3.9981816 -6.185922 -0.4391318 -2.7311583 4.817548 -0.284525 1.6750631
-0.39311305 -0.29121238 0.93353367 -5.1049995 0.40305275 1.8514181 1.964254 -0.005793735
-0.75534457 0.4935539 0.3313597 0.15521485 -3.5814128 -0.8170372 5.7390976 -0.1189245
-3.240397 0.90555644 -5.930918 0.010613404 -4.0261936 6.9519296 -11.562347 -0.19187196
-0.018664945 -1.8577703 -0.31438857 -0.08067993 -0.08590939 -0.23828194 -2.5113897 4.780012
-2.1633043 2.5277119 -0.35879755 -0.15575272 -0.11266164 -1.2402469 -4.7768846 -10.561975
1.7842956 -2.3348207 1.5129589 0.08447807 -0.40182912 -0.8713595 -0.60377973 -0.6255131
-0.94833666 -0.028227566 -5.9421663 -4.3304515 0.052904807 1.9465225 -17.514624 0.0448798
-0.58388144 2.7049778 -0.066948675 -0.2473073 -5.528183 -0.65218604 -0.09649091 -5.009714
-0.66475934 -1.3151531 1.4465871 -5.4584928 0.02462586 0.1896115 0.18612412 -3.4035618
-0.87670183 -0.055897053 5.9851265 0.94295716 0.5442554 -1.4151558 -6.043727 -0.9254836
-0.77135444 -0.9038706 -2.4520488 -0.55171615 -1.1570245 0.48628464 -1.9224323 0.39528555
0.34588104 -0.5125791 -1.3308967 0.3810698 0.047568616 2.6013525 -0.54068 2.042859
-0.011623005 -0.024058897 -7.6509256 -0.6361747 1.3344278 -0.6282451 -6.9371533 -0.4554732
2.5411422 0.5249385 -4.2161474 2.7137887 -0.13889188 -1.2171161 2.843264 -0.32022116
-0.10447345 -0.7926862 -0.8000516 -3.0611098 0.27762836 -1.2146543 4.4815116 -0.46455187
-2.5572476 0.19618845 -0.38949502 -0.15223269 -3.7858272 1.1549988 -2.6573648 0.08912285
-0.08557787 0.113186434 2.674611 -0.3316419 0.5032696 6.2156715 0.23681372 -2.1818292
-10.869438 -0.042767644 -1.9658504 -1.9418406 -4.6199074 -3.7854302 -0.01799707 -1.8321912
-0.15586337 -1.0711906 -1.5665511 1.8574445 -1.4365997 -1.7957325 0.034641717 -2.4727726
0.29221696 0.9684287 0.5216482 0.8209799 -0.74767435 -0.83502454 -8.324982 -1.1178601

hiddenLayer2.bias f4 [150]
00000000: b893 00bf 1915 d5bf 19d2 d53f 0757 093e
00000010: 7b33 85bf 164c 79bd 357f d93f c8e5 833e
00000020: 7888 f440 05ad 84bc 2bed 04be d796 af3e
00000030: b531 1f3f 815a f4be f60c 91bd 371d 8dc0
00000040: a368 8f40 a47c 0d3e b0b8 cb3f 861e d83f
00000050: 8d7c fcbe 1f5b 5abd fdc1 53bf 9dab d3bf
00000060: 1a06 d9bd 8cb4 6bbf 9520 e5bf b9e2 913e
00000070: 03a8 c23e 1cd8 723f 9e9c a33f f381 45be
00000080: 5475 5abe 830e 50be 2c9f 2a40 4f3e 22c0
00000090: 7824 31be d8a4 21bc ff84 d6bf 20ef 5c3d
000000a0: 978f 4dbf 0542 48bc 728e 5dbe 5502 9abd
000000b0: 5738 17c0 91d7 09bf 0070 92c0 b341 27c0
000000c0: c0bc 4539 f09b 36bf 8442 75be 9c56 9fbf
000000d0: 5ddb ecbe 8d3b e5be 80aa cbbe 15cb 923d
000000e0: f417 ccbd f350 42bf 19b7 893e be6a 06bf
000000f0: 9439 82be 6a38 fcbe 4737 c33b afff 5bbe
00000100: 5b5e 91bf ecd9 9d40 63d4 42c0 7bda ec3c
00000110: 670c c2be b0af 653f d38c 2d40 d25f 52bf
00000120: 7e97 2e3f ad84 0a3f c001 08bf cf80 18bf
00000130: 7fc0 7fbd 15f9 f0be f4aa 71bf 179a 29bf
00000140: 7763 cdbf 2ee1 a8bd db5d 57bf 94eb 15c0
00000150: f28c 573e 2205 0dc0 7290 9f3f 18da 03be
00000160: 4bf4 763f 0f92 03be 7e07 86bf 99e9 90be
00000170: c70a 9ebf 3456 be3f 2d0f 21bf 10ba 74be
00000180: 11a8 573d 2eaf 883e 71b3 f9be 8bda f340
00000190: af5e f6bf e034 83be 3881 dfbe e277 8e3e
000001a0: 989c d73c cd4d e63f aa76 9f3d 91b3 16be
000001b0: 4a71 a0bd ec07 fac0 825e 5dbd f1d9 debe
000001c0: 3376 58be 6e75 833e b1ec 463f 2ccd afbd
000001d0: 80ae 04c0 d1f8 debf 03ef d3be 4b5f 54bf
000001e0: c1ec 9ebd 6e5a 7ebf a2e0 b1bf 9e11 bcbd
000001f0: a97d 08bf 1db3 523f 79eb c13e a2da 21be
00000200: eb2d 763f c45c 0bbe 5b3e 09bf e35e 59be
00000210: 4858 ca40 bc81 dabf d9ad dabe dedc a93e
00000220: a95e 2fc0 167f 94bf 9a45 d53e 5123 b23f
00000230: eaa4 253e 294a acbf 1123 8cbd 9d8e 25bf
00000240: f405 49bf 4a85 91bf 8c62 653f 44bd 78be
00000250: 8a68 dcbe c1e2 8a3c
-0.502254 -1.6647063 1.6704742 0.13412105 -1.0406336 -0.060863577 1.6991946 0.25761247
7.641659 -0.016195783 -0.12981097 0.3429477 0.6218522 -0.477253 -0.0708255 -4.4098163
4.481523 0.13817078 1.5915737 1.6884315 -0.49313775 -0.053309556 -0.8271788 -1.6536747
-0.10596867 -0.9207237 -1.7900568 0.28493288 0.38018808 0.94861007 1.2782171 -0.19287853
-0.2133382 -0.20318036 2.665965 -2.535053 -0.17299068 -0.009865962 -1.6759337 0.053938985
-0.80297226 -0.0122227715 -0.2163637 -0.07519976 -2.3628137 -0.53844553 -4.576172 -2.613385
0.00018857699 -0.7133169 -0.23951155 -1.2448306 -0.4626111 -0.44771996 -0.3977852 0.07167641
-0.09965506 -0.7590477 0.26897505 -0.52506626 -0.25434554 -0.4926179 0.0059575173 -0.21484254
-1.135692 4.932852 -3.044213 0.028912773 -0.37900087 0.897212 2.7117202 -0.8217746
0.6819991 0.541087 -0.5312767 -0.59571546 -0.062439438 -0.47065035 -0.9440148 -0.6625075
-1.6045979 -0.082460746 -0.8412759 -2.3425035 0.2104986 -2.2034383 1.2465956 -0.12876165
0.9646651 -0.12848686 -1.0471036 -0.2830322 -1.2347039 1.4870057 -0.6291378 -0.23899102
0.052650515 0.26696151 -0.48769715 7.6204276 -1.9247645 -0.25626278 -0.43653274 0.27825838
0.026319787 1.7992493 0.07786305 -0.14716937 -0.07834108 -7.813467 -0.054045208 -0.4352565
-0.2113884 0.2567553 0.7770491 -0.08584055 -2.0731506 -1.7419683 -0.4139329 -0.82957906
-0.07760001 -0.99356735 -1.3896677 -0.09183048 -0.5331674 0.82304555 0.37874964 -0.15806058
0.96163815 -0.13609606 -0.5361077 -0.21227603 6.3232765 -1.7070842 -0.4271076 0.3317632
-2.7401526 -1.1601284 0.41654664 1.3917028 0.16176191 -1.3460132 -0.06842626 -0.64670736
-0.7852471 -1.1368802 0.89603496 -0.24290949 -0.43048507 0.016953828

hiddenLayer3.weight f4 [150, 150]
00000000: 2397 2640 a094 5a3f 3078 9abe 8b79 5ebe
00000010: c0f1 35bf ab17 94bf 914a 283e 9ce0 bebf
00000020: 9988 453c c536 86bf f987 f23c c2c7 6c3f
00000030: 6987 5b3e 2e3e 873e e4b3 21bd b9df e03e
00000040: aa18 42c0 82e2 6ebf 6daa 59c1 94ff 34c1
00000050: 6fac 09bf 084e 61bd e5f5 873d 1075 163f
00000060: cbb3 2b3d 960e 0e3d 1ff0 71c0 44e9 72be
00000070: 5e8e 6940 5c73 18c0 d4a7 47bf 3c7f 503e
00000080: ef26 1ac0 70a0 fbbf 9fcc 43bf e69b 46bf
00000090: 5396 25bf e163 f2bd 57ab 94c0 b46d 1540
000000a0: b6b8 7e40 324b 01c0 9e10 e33e 37aa 973c
000000b0: 0035 2241 cf43 5f3e 6ddf 3d40 6dd6 5bbe
000000c0: a7c9 0ac0 2dc2 7a3f 7370 3cba af58 14c0
000000d0: 5203 0f3b 63b6 8d3f c638 edc0 4119 92be
000000e0: 0045 e4be 2114 5dbf 5d0a 873d f3f7 883f
000000f0: 6f7e afbe 9ad5 073f ea85 ce3f 3ec3 bb40
00000100: 0164 b4c0 3f11 e7be d4e6 7bc0 e450 103e
00000110: f46c 273e 22ce 57c0 841b 9cbf 8da7 ba3f
00000120: 1461 7cbd bc0c 83be 03d4 013f dcc6 51bd
00000130: 3cc1 4cc0 6874 48c0 e3fd 93c0 2dd1 27bf
00000140: ef1c cdbf 8316 b4bc e97f e4bf 3692 70be
00000150: 5b01 d8be 41a2 13c1 0ac1 41c0 86b7 0e3e
00000160: a1a3 343f 1adb f13a 93c2 c2bf 2f98 0440
00000170: e627 313f 1d96 1140 cd72 09c0 d2ad 7dbf
00000180: 1833 c2c0 2afd 9b3d ff64 ff3f 7525 733e
00000190: 29ca c7c0 de1d a3be 4d15 643e 660b bf40
000001a0: 471f 23bd 0296 46c0 f044 c1c0 c759 033f
000001b0: 9635 1240 7ec4 68be 5503 21be ef1a 0abf
000001c0: 928e 1e3d 6942 a2bd 302c 483e e843 05c0
000001d0: 5ed0 623d ba06 9dbf fe87 a73e 93e1 8b40
000001e0: 78c7 093d 12ce a73e ad03 5ac0 1e16 bc3d
000001f0: 4c2f 63bd 02c6 4440 a402 3a3f 4dd4 e9bf
00000200: bcef 9f3f a48a 99bd 9fc5 13c0 55bb b9bf
00000210: e132 afbf 0f35 153f e590 b8bf 5a8c f23e
00000220: b963 f9c0 49aa aebe 9858 2ac0 4095 9840
00000230: ba54 873d 378c dabf df7d a6bc 2e53 183e
00000240: bd28 56c0 37ff ae3f c631 aa3f c5a6 d03d
00000250: 1f31 913f 452d 913d 0741 3cbf 9a73 44c0
00000260: fe0e 38c1 e8b8 96c0 35af 46bf 06b7 bec0
00000270: 2087 26c0 c889 103f 6225 07bf 6c27 bac0
00000280: 9bd3 91c0 7b05 dfbf 8300 b0c0 f565 abc0
00000290: 0aa9 9bbc 2465 93be 82ea 01c0 128d dc3e
000002a0: 98a1 3ec0 6185 9cbf 9c00 dd3f 1365 0ebd
000002b0: 01b1 d2be 69be 2fc0 7fa8 2f3d e129 5a40
000002c0: 1979 2240 d5a7 733f 9e07 a9be 3813 a5c1
000002d0: d1e6 c9bf effe 163f 403c a6c0 cb42 fcbc
000002e0: f947 f9bf d49c 49c0 147a 183f fd96 cdc0
000002f0: 0146 7040 1e76 10c0 d68e 63c0 f247 12c0
00000300: 2c2d 6040 f5bb 9a3d 2816 01c1 8035 ce3c
00000310: 7c68 04bc 8758 d83f 00b5 81bf 0be7 c53e
00000320: 04ba a3bd 2638 8040 08ca dbc0 7b8c dc3e
00000330: 9bde e8be 1e14 8ebe 6408 1cbe b1ee f63f
00000340: 3bf9 89be 76cf 5fbd 1a69 0cbe a01b 21c1
00000350: 838d b9c0 6842 0f3f 9b67 62c1 1f94 f8be
00000360: 1603 48c0 b4ed 19bf e521 13be ffc5 babe
00000370: 75ed c33f 6df2 4d3f 3b09 e63d 2881 fcbf
00000380: e813 4c3b 9bb1 8b3f 4331 a8bf e50f c0c0
00000390: 1c96 74c0 3843 37bb 9b34 67c0 e77e 3040
000003a0: f74a b5bf ae98 17c0 59ff 51bf 7881 96c1
000003b0: 18dc 493f 6761 ccbd 1986 463f 3651 713d
000003c0: bf65 3b40 5885 b6c0 2a2b 1440 301c 103f
000003d0: 019e aa3e ce19 72c0 60c7 b8c0 d3aa 253f
000003e0: d2df b740 1712 c3be f957 a7c0 4fec 2ebd
000003f0: 2082 673e e23b a1c0 1d1a bb3c 3e54 a140
2.6029747 0.85383034 -0.3016982 -0.21726052 -0.71072006 -1.1569723 0.16434695 -1.4912295
0.012056493 -1.0485464 0.029605852 0.92492306 0.21438374 0.26414627 -0.039478198 0.43920687
-3.0327554 -0.93314373 -13.604108 -11.312397 -0.5377874 -0.055006057 0.066386975 0.58772373
0.04191951 0.03468188 -3.7802808 -0.23721796 3.6493144 -2.382041 -0.7799046 0.20361036
-2.4086263 -1.9658337 -0.764841 -0.7758163 -0.646825 -0.11835457 -4.6459155 2.3348207
3.9800239 -2.0202146 0.44348615 0.018513782 10.137939 0.2180321 2.9667618 -0.21468516
-2.168558 0.9795254 -0.0007188387 -2.3179128 0.0021822047 1.1071285 -7.4131804 -0.28534892
-0.44583893 -0.8635884 0.065937735 1.0700668 -0.3427615 0.53060305 1.6134617 5.8675833
-5.6372075 -0.45130345 -3.9359636 0.14093357 0.16350156 -3.3719563 -1.2195897 1.4582382
-0.06161602 -0.25595653 0.5071413 -0.051215038 -3.199294 -3.1321049 -4.624742 -0.6555355
-1.6024455 -0.02198339 -1.7851535 -0.23493275 -0.42188534 -9.227113 -3.0274072 0.13937196
0.7056218 0.0018452138 -1.5215629 2.0717885 0.69201505 2.2747872 -2.147632 -0.99093354
-6.068737 0.076166466 1.9952697 0.23744757 -6.2434278 -0.31858724 0.2227375 5.9701414
-0.03982475 -3.1029058 -6.039665 0.51308864 2.2845206 -0.22731206 -0.15723927 -0.5394735
0.038710184 -0.07922823 0.19548106 -2.0822697 0.055374496 -1.2267678 0.3272094 4.371286
0.033637494 0.32774407 -3.4064744 0.09183906 -0.055465028 3.0745854 0.7266028 -1.8267914
1.2495036 -0.07497147 -2.3089368 -1.4510294 -1.3687402 0.58284086 -1.4419218 0.47372705
-7.793423 -0.34114292 -2.6616573 4.768219 0.06607957 -1.707404 -0.020323692 0.1487548
-3.3462365 1.3671635 1.329644 0.10188059 1.1343116 0.070887126 -0.73536724 -3.0695558
-11.50366 -4.7100716 -0.77611095 -5.9598417 -2.6019974 0.5646024 -0.52791417 -5.8173122
-4.5570807 -1.7423548 -5.5000625 -5.356196 -0.019001503 -0.28788102 -2.0299382 0.43076378
-2.978613 -1.2228204 1.7265811 -0.03476436 -0.41150668 -2.7459967 0.0428853 3.408806
2.5386412 0.95177966 -0.33013624 -20.634384 -1.5773565 0.5898275 -5.1948547 -0.030793568
-1.9475089 -3.150197 0.59561276 -6.424681 3.7542727 -2.2572093 -3.555593 -2.2856412
3.502757 0.07555381 -8.067909 0.025171995 -0.008081552 1.6902016 -1.0133362 0.38652834
-0.07994464 4.006854 -6.868412 0.43075928 -0.45482334 -0.27749723 -0.15237576 1.9291593
-0.2694796 -0.05464121 -0.13711968 -10.069244 -5.7985244 0.559607 -14.150294 -0.48550507
-3.1251884 -0.6012833 -0.14368398 -0.36479184 1.5306841 0.8044804 0.11232229 -1.9726915
0.0031139795 1.0913576 -1.3140033 -6.0019403 -3.821662 -0.002796365 -3.6125858 2.7577455
-1.4163502 -2.3686938 -0.82030255 -18.813217 0.7885146 -0.099795155 0.77548367 0.05891534
2.928085 -5.7037773 2.3151345 0.5629301 0.33323672 -3.782825 -5.774338 0.6471378
5.746072 -0.3809974 -5.229489 -0.04270583 0.22608232 -5.03856 0.0228396 5.0415335

hiddenLayer3.bias f4 [150]
00000000: a1e0 0b41 c22b f640 1e9d a6be caa6 24bf
00000010: a01c 6c3e 370e c840 ff68 8dc0 ba31 403f
00000020: 1fd1 4dbf 00b1 87bf c4f3 91be 8b0f 3b40
00000030: 9aaf f8be 9c2e 50c0 cbf2 d540 37ff 86bf
00000040: 16aa a8be 6e11 c640 5551 22be 7a70 37bf
00000050: 57a5 9d40 d6c5 e0be b711 5341 7bf8 c83f
00000060: a4ef 35bf a10e 6040 659d b640 c6c9 30be
00000070: 9387 7840 4921 af3f 913b 443e 40c1 0441
00000080: e27a 0fbf 89f0 c440 12f7 78bf 7ac7 e5be
00000090: c549 0541 681e 1c40 82c7 e2bf d477 3bbf
000000a0: 95e1 b53e d416 b6be 0737 3a40 e6c0 48bf
000000b0: 7cf4 a0bd f24c cc40 ff74 33bf 6e0d 7241
000000c0: 539c 38bf 5a5b 8840 1a7f 3441 a64b 62be
000000d0: 0615 1cc1 c577 9ebd 397a 7cbe 26dc 7240
000000e0: 0aee 2abf ad41 d240 7ba5 6c40 fa06 52c1
000000f0: 5e3b 38bf e17c 1bbe 1a82 febe e56a 0541
00000100: 9b1c 4abe 40e9 b1be d058 62bf 5eec 0bc1
00000110: 8280 21bf 0eae 3bbe 97df f240 deaa e33f
00000120: 7164 b13e 2229 3841 f38f 0441 b65f 5240
00000130: 4d15 06c1 40ff b4bf f53e 0b41 8f1c 50bf
00000140: b09d 91bf 481b 1341 f462 5b40 b6d6 7a3e
00000150: f554 0dc0 8e62 acbd 5506 eabe 04b1 cbbe
00000160: 267d e4bd 9872 b0be 6cdd f13f 8d84 3241
00000170: 3ebd a2be 66e4 f9bf 692c 63be 6b3f 86c0
00000180: 8f5c 0d41 50ef 25bf 9a6d 23c1 8c66 2541
00000190: 9426 18be beaf c140 df66 00bf b16c e9be
000001a0: e039 5940 71a9 0bbe 83f4 ab40 2793 9cbf
000001b0: c817 04be 3a2a 6841 f930 59bf fd10 fc3f
000001c0: 33a9 2641 a07e 52be 52fc ec3f 5570 7741
000001d0: 25a0 073c cdce 30bd 5ece 6e41 55be debf
000001e0: c744 f4be 9f45 0fbf 0840 d6bd 80da 00be
000001f0: ea9b 9bbe 1bba 18c1 a41a 763c 1014 3dbe
00000200: 9b1c ab40 6218 e740 4312 45bf 81db d340
00000210: a028 d4bf a266 8540 e3db 913f ccef 4a41
00000220: 02ab 6ebf 529d 8ec0 b476 393f b918 5fbe
00000230: 7b04 59be a139 2941 a68d 1bbe 5770 d8c0
00000240: 569c 6840 77c8 533e 6f4f aa3f 6dd4 b540
00000250: 511e 5fc0 513e c2bc
8.742341 7.6928415 -0.32541746 -0.64317 0.23057795 6.251735 -4.419067 0.75075877
-0.8039722 -1.0600891 -0.2850629 2.9228237 -0.48571473 -3.2528448 6.685888 -1.0546635
-0.32942265 6.1896276 -0.15851338 -0.71656 4.926433 -0.43900937 13.191825 1.570083
-0.7106879 3.5008929 5.706713 -0.1726447 3.8832748 1.3682033 0.19163348 8.29718
-0.5604688 6.154362 -0.97252 -0.4487875 8.33051 2.4393559 -1.7717135 -0.7322972
0.35523668 -0.3556429 2.9096086 -0.7841934 -0.07859132 6.3843927 -0.70100397 15.128279
-0.7211353 4.2611513 11.281031 -0.2209917 -9.755133 -0.07737688 -0.24655999 3.7946868
-0.6676947 6.570517 3.6976001 -13.126703 -0.7196559 -0.15184356 -0.49708635 8.338597
-0.19737475 -0.34748268 -0.8841677 -8.745207 -0.6308671 -0.18328115 7.5897937 1.778652
0.34646943 11.510042 8.285144 3.2870917 -8.3802 -1.4140396 8.70287 -0.81293577
-1.1376247 9.19416 3.4279146 0.24495968 -2.2083104 -0.08417235 -0.45707956 -0.3978349
-0.11156683 -0.34462428 1.8895698 11.157361 -0.31785005 -1.9522827 -0.2218491 -4.1952415
8.835097 -0.64818287 -10.214258 10.337536 -0.14858466 6.052703 -0.5015697 -0.45590737
3.3941574 -0.13638856 5.3735976 -1.2232407 -0.12899697 14.510309 -0.8484035 1.9692684
10.416308 -0.20556116 1.8514502 15.464925 0.0082779275 -0.04316597 14.925383 -1.7401835
-0.47708723 -0.5596561 -0.10461432 -0.12583351 -0.3039239 -9.545436 0.015021 -0.18464684
5.347242 7.2217264 -0.7698099 6.620545 -1.6574898 4.1687784 1.1395229 12.683544
-0.9322969 -4.456704 0.7244675 -0.21786775 -0.21193115 10.57657 -0.15190753 -6.7637134
3.634542 0.2068194 1.3305491 5.682181 -3.4862254 -0.023711355

outputLayer.weight f4 [2, 150]
00000000: 578b 913f 2252 3940 012d 80bc 506d f1be
00000010: f322 783f 71a3 273f 4ec5 cbc0 9b56 ed3d
00000020: 071b b0bf 7d0c 2c40 c03b f33e 0362 e33e
00000030: 2de6 23bf 23c6 78c0 e19b a83e e336 953f
00000040: cf2c 973c 7ade dd3e c95f abbc 2e21 fa3f
00000050: 21d5 813f 4b5d 2d3e 128e e53f a82b 9b3f
00000060: a1b8 76c0 0cdf 1141 37a1 533f 9640 923e
00000070: 1036 cbbd df88 fa3f d514 0941 0d6e 2a3f
00000080: 0a63 ab40 9a49 583f a1bc e2c0 ce4f 0a3f
00000090: 599c c73e 5c4b 2fbe c114 0cbf 6049 873f
000000a0: a66f bd3e 7975 843f 3fe9 5241 5427 863f
000000b0: 3a59 823d aa51 be3e 14d5 21bd 02ac 2940
000000c0: babd aebe c4db 3f40 344b 8f3f 3e2f f1bc
000000d0: a261 1cc0 34a1 e43c eac1 3c40 ec4f 0140
000000e0: 5328 bd3f 2612 1b3e a368 9b3f 4ad8 5bc0
000000f0: 7996 983f 22cd 06c0 a49f a5be 4111 e340
00000100: 395d b7bf 941c e3bf 6154 963f cdce 81bf
00000110: b382 5bc0 6496 1abd fac0 4640 e01b a540
00000120: 4cd2 60bf a7c1 b33f 76fb 343f cbcf 873f
00000130: 25c9 01be f759 3dbf 7dab 6840 5b26 cbbf
00000140: 6fb3 cd3f 070a 973f e751 b9bf 28db d23f
00000150: 4588 05be ed54 b3bd 4628 97bf 2a59 6640
00000160: a9db d5bc 942e 6ebf 10ce 37c0 ed94 663f
00000170: 7249 b0be 4b0e a5bf c815 d23c ae5c 58c1
00000180: 468f 0740 eee9 b640 75f3 26bf 6568 153f
00000190: 472a f1c0 3937 ce3f 5aba 0340 70ff c9bf
000001a0: 4941 363f 65e2 20c0 584f 0b3f 2348 c0bc
000001b0: f9a8 92bf 6138 863f 4394 c5be 77dc 7abe
000001c0: 95f0 6e40 db66 5c3e 1c18 dcbf dd76 dc3f
000001d0: f4a6 43bc ad22 b2bb c243 943f ac4b ddbf
000001e0: 6044 bfbf b8ab 65be b4d5 39bd cef8 debe
000001f0: 8e42 0b3f 8993 15bf 1d14 04bb 3836 963c
00000200: 38f5 4cbf 5645 d1be 8116 10c1 5713 59be
00000210: 4799 83c0 3580 6fc0 f17b 5c40 64fe 783f
00000220: 2462 15be 548b e6bd 31ff bf40 9dd6 0540
00000230: 760f 2e3f 6063 1d40 326d a83f 133b 4d3d
00000240: efa2 31bf 7d9b 7d3e 3cc1 4840 8258 303f
00000250: 57e9 9940 99d9 76bc cb49 983f 9e4d 3840
00000260: 43b6 683c 23a0 a63e 9d78 853e 249c 283f
00000270: 21ff d0c0 aeb1 113d 9ebf 5a40 b6b6 36c0
00000280: 6c99 2fbd 0fbe 103e d2dc 03bf eb47 79c0
00000290: ebcc 113f bb83 98bf baa3 b43c c37e 1b3f
000002a0: 904c 5ebb f54f 02c0 7b96 6d3f 1438 8abe
000002b0: b87d 2140 87c3 a93f d6b1 4740 e098 1041
000002c0: 18ca 8dbe 8b7a 98be 08da 523e f3a3 a840
000002d0: 1130 0141 fcf3 ab3f 9a84 ccbf 3280 543f
000002e0: 561b 01c1 e338 c63e 66b4 c43e 5cac abbd
000002f0: 55dd 233f 7e46 693d 11e0 ebbd 3a2f 6bbf
00000300: 7bff 6541 bc0b a1bf 63a4 42be fb3b bc3e
00000310: cb1d 14be b9a5 2940 debc 3e3e 06ad 4040
00000320: 6248 8f3f 3329 b7bc 2a25 0bc0 634c d5bb
00000330: 0e90 11c0 08a4 d93f aee8 0540 6053 07bf
00000340: a460 9b3f b4fa 5bc0 a77c 8fbf 0001 0c40
00000350: e736 473e 60bc e340 7132 ce3f 15ad 6dbf
00000360: 6719 0f40 f576 0ec0 9e94 40c0 481a 363c
00000370: 62a7 4640 db21 a540 93b3 5dbf c1b1 b33f
00000380: 0e07 2f3f f449 733e d2b6 04be 01be 3dbf
00000390: 5d37 2d40 b3c9 03c0 1d38 d73f 9fe5 963f
000003a0: 475e 1840 55b6 e63f cc68 05be 3219 973c
000003b0: c33e 993f e7d2 3640 9d8d efbc 9fef 1f3f
000003c0: 1096 17c0 bcdf 663f d424 563f 5c96 a7bf
000003d0: c287 aebb cf55 85c1 1072 0740 4182 6740
000003e0: 8043 21bf 772d 143f aa82 03c0 a0e6 273f
000003f0: 44cb 0340 3ed7 d03f 85d6 9f40 f6cf 1d40
1.1370648 2.895638 -0.01564646 -0.4715371 0.9692833 0.65483767 -6.367835 0.11588784
-1.3758248 2.6882622 0.47506523 0.44410715 -0.64023095 -3.8870933 0.32931426 1.1657375
0.018453984 0.433338 -0.020919697 1.9541376 1.0143167 0.1693012 1.7933981 1.2122698
-3.8550189 9.116955 0.8266787 0.285649 -0.09922421 1.957302 8.567586 0.66574174
5.3558397 0.8448731 -7.085526 0.5402802 0.3898647 -0.17118591 -0.5471917 1.0569267
0.36999243 1.034835 13.181945 1.0480752 0.06364675 0.3717168 -0.039509848 2.6511235
-0.34129125 2.9977884 1.1194825 -0.029441472 -2.443459 0.027908899 2.9493356 2.020503
1.4777931 0.15143642 1.2141308 -3.4350762 1.1920921 -2.1062703 -0.3234836 7.095856
-1.4325324 -1.7743096 1.17445 -1.0141236 -3.4298522 -0.03774108 3.1055284 5.1596527
-0.8782089 1.4043473 0.706962 1.0610288 -0.12674387 -0.739654 3.6354668 -1.587108
1.6070384 1.1799935 -1.447812 1.6473131 -0.13040264 -0.08756433 -1.1809165 3.5991921
-0.026105719 -0.9303982 -2.871952 0.9007099 -0.34431034 -1.2894987 0.025645152 -13.522627
2.1181197 5.716056 -0.65215236 0.5836242 -7.536411 1.6110603 2.058249 -1.5781078
0.7119337 -2.513818 0.54417944 -0.023471897 -1.1457816 1.0485955 -0.38589677 -0.24498163
3.733434 0.21523611 -1.7194858 1.7223774 -0.01194166 -0.0054362626 1.1583178 -1.7288718
-1.4942741 -0.22428787 -0.04536982 -0.43549198 0.5439843 -0.58428246 -0.002015359 0.0183364
-0.80061674 -0.40873212 -9.005494 -0.21198784 -4.1124606 -3.7422001 3.4450648 0.9726317
-0.14588219 -0.112570435 5.9999013 2.091224 0.6799234 2.4591904 1.3158324 0.050105166
-0.6938924 0.24766345 3.136794 0.6888505 4.809734 -0.015066528 1.189752 2.8797374
0.014203611 0.3254405 0.26068583 0.6586325 -6.5311437 0.03556984 3.4179454 -2.8549018
-0.042870924 0.14135002 -0.5150882 -3.8950145 0.56953305 -1.1915201 0.022050727 0.607403
-0.0033920147 -2.0361302 0.9280774 -0.2699591 2.5232983 1.3262795 3.1202292 9.037323
-0.27693248 -0.29780993 0.20590985 5.2700133 8.074235 1.3433833 -1.5977967 0.8300811
-8.069174 0.38715276 0.38418883 -0.08382484 0.640096 0.056951992 -0.11517347 -0.91868937
14.374873 -1.2581706 -0.19008021 0.3676451 -0.1446449 2.65074 0.18626735 3.0105605
1.1193964 -0.022358513 -2.1741433 -0.00650935 -2.2744174 1.7003183 2.0923266 -0.52861595
1.2138867 -3.4371767 -1.1209916 2.187561 0.19454537 7.116745 1.6109143 -0.9284223
2.2359254 -2.2260106 -3.0090709 0.011114664 3.1039662 5.1603827 -0.86602134 1.4038621
0.6837014 0.2375868 -0.12960365 -0.7411805 2.706504 -2.0591857 1.6814 1.1788825
2.3807542 1.8024393 -0.13028258 0.018444631 1.1972278 2.8566225 -0.029242331 0.6247501
-2.368534 0.9018514 0.83649945 -1.3092761 -0.005326242 -16.666899 2.1163368 3.617325
-0.6299362 0.57881874 -2.05485 0.6558628 2.0592813 1.6315687 4.9949365 2.465818

outputLayer.bias f4 [2]
00000000: 8002 6c41 6c7a 6e41
14.75061 14.904888
