ftl/pretrain/weight/finetune_src2_0/finetune_src2_0_12.pth (torch, 187645 bytes, 8 tensors)

hiddenLayer1.weight f4 [150, 3]
000000 cd 21 02 bf 55 bf 96 bf bd 4f fa be 73 a7 b1 bc
       -0.50832826 -1.177714 -0.4888896 -0.021686291
000010 68 49 00 39 1c 1a 5b bd 4f 50 70 bf 32 12 9c be
       0.00012234377 -0.053491697 -0.9387254 -0.30482632
000020 26 b4 9b bf ca 88 0c be 6e 66 8a bc 09 3d 96 3f
       -1.2164352 -0.13724056 -0.016894545 1.1737376
000030 7a 34 d2 b7 c8 fa 46 bb d7 cf 29 bb 7d 56 eb bd
       -2.5058387e-05 -0.003036188 -0.0025911236 -0.11491106
000040 39 c5 e4 39 19 e1 e5 bd 11 2b 3c c1 e6 7a e1 ba
       0.0004363449 -0.112245746 -11.760514 -0.0017202764
000050 db f1 52 be 40 0d 9b bb 3e b9 3f 3b e0 0d bb bc
       -0.20600073 -0.004731804 0.00292547 -0.022833765
000060 7b f9 0d be 06 68 11 3d 19 da 82 be ec 8d 04 bf
       -0.138647 0.035499595 -0.2555702 -0.51779056
000070 e6 71 a3 bd 97 dc 91 bd fc fa 4c be 26 a7 ad bd
       -0.07980709 -0.07122152 -0.20017618 -0.08479147
000080 94 e1 34 c0 3e 73 ab be 1f 33 62 3c 4c 27 c2 be
       -2.8262682 -0.3348636 0.0138061335 -0.37920606
000090 a0 e3 87 c1 47 23 98 bd 94 80 56 be df 6d 05 bd
       -16.986145 -0.074286036 -0.20947486 -0.032575484
0000a0 69 1f 8f 3b 0c df 01 3d fa e0 b1 bc fe 8c 04 3a
       0.004367758 0.031706855 -0.021713722 0.000505641
0000b0 32 d8 e4 bb eb 11 39 bf ee e6 92 3b b2 87 a1 3f
       -0.0069837803 -0.72292966 0.0044830954 1.2619536
0000c0 ba 6b c1 bd 06 ee 63 3c 24 8e d6 bc b0 a2 07 c2
       -0.09444375 0.01391173 -0.026190825 -33.908875
0000d0 79 92 51 3d 76 18 6b be d0 e1 5d c0 6d 75 5d bc
       0.051165078 -0.2295855 -3.4669075 -0.013516766
0000e0 31 51 50 bc b6 d3 69 bd 37 74 39 ba e2 54 04 bd
       -0.01271467 -0.05708667 -0.00070745073 -0.032307513
0000f0 d3 57 47 39 08 d9 0d 3c c6 25 92 bb 4a d1 c1 bf
       0.00019010836 0.008657701 -0.0044600694 -1.5141995
000100 27 b2 4c 3e f7 ae c5 3f ac 6e 22 bc e1 3a 9c bd
       0.19989835 1.544402 -0.009914082 -0.07628418
000110 0e 1a 56 3b e8 37 32 c1 59 5f 81 3c ed 65 d4 ba
       0.0032669338 -11.138649 0.015792536 -0.0016204693
000120 52 ef 44 be 0a 7a 65 3d 9e 62 37 3f 1e f1 d2 c0
       -0.19231918 0.05602459 0.7163485 -6.5919333
000130 b1 47 95 bd e8 8e eb bf a6 d7 a3 bf f4 52 dc 3d
       -0.07289065 -1.8402987 -1.2800186 0.107580096
000140 ce 15 43 bf 1b 44 1b 3d 71 9e 38 be b8 e7 45 3f
       -0.76205146 0.037906747 -0.1802919 0.773067
000150 8d 4a e5 be d5 eb 97 3e 38 4d 28 3d 69 bd 9c be
       -0.4478344 0.29672113 0.041089267 -0.30613258
000160 cd 71 2b bd a7 46 f2 bc c4 80 41 bd 5b 05 78 ba
       -0.041856576 -0.029574705 -0.04724194 -0.0009461247
000170 a1 db e8 3f 12 2b 87 c0 d7 cf f4 bd f9 b7 49 3f
       1.8192025 -4.2240076 -0.11953705 0.78796345
000180 79 7a b8 be 26 8c 0c 3f 77 f6 dd bf 65 4c f0 be
       -0.3603094 0.5490135 -1.734084 -0.46933284
000190 00 b2 09 3b 76 02 5e bd b3 9b 9a bd 0d ba 7c b8
       0.0021010637 -0.054201566 -0.075492285 -6.0254755e-05
0001a0 78 1c cf bd 9d e9 43 c0 be 3f 27 bf 45 86 a4 bf
       -0.10112852 -3.0611336 -0.6533164 -1.2853476
0001b0 e0 c3 b1 bd e6 20 c2 bd 96 45 93 c0 e4 bf 8b be
       -0.08679938 -0.09478931 -4.6022444 -0.27294838
0001c0 ce b2 a9 3b 69 f1 52 be 5b ab 87 bc 3b e9 37 ba
       0.005178786 -0.20599903 -0.0165612 -0.000701565
0001d0 89 9e e3 bc 13 87 1b c1 2c b0 33 bc b9 bd 89 bf
       -0.027785556 -9.720477 -0.010967296 -1.0761024
0001e0 e2 a3 00 bd c0 55 9b bb 74 de d3 bc 1a b0 4c bf
       -0.03140629 -0.004740447 -0.02586291 -0.7995621
0001f0 f5 21 27 bb 5e 75 1a c0 86 fc 7d bd 6b ab 13 39
       -0.0025502418 -2.4134135 -0.062008403 0.0001408287
000200 d5 22 3c bc 81 c9 18 be 19 89 52 b8 7e 8d 3f bd
       -0.011482914 -0.14920618 -5.0195584e-05 -0.046765797
000210 1d af 7b be aa 6c 3c bf 25 3b ba be 7f cd 94 bc
       -0.24578519 -0.7360331 -0.3637325 -0.018164394
000220 27 ce d3 bb b2 ec 81 c0 68 da 91 3c c2 98 9c bd
       -0.0064637843 -4.0601435 0.01780434 -0.07646324
000230 cc e5 f7 3e 07 de 93 bf 75 06 c0 bc 45 e0 29 c0
       0.4841751 -1.1552132 -0.023440579 -2.6543133
000240 9e e9 48 bf c7 09 40 3e 52 03 07 3f f7 41 a8 bf
       -0.7848147 0.1875373 0.5273944 -1.3145131
000250 54 f0 8a 3d 26 a9 be be c7 28 d6 be b3 e8 0d bf
       0.0678412 -0.37238425 -0.41827986 -0.55433196
000260 eb 4b a4 bf 04 84 a4 bf 62 85 a7 be 93 44 08 3f
       -1.2835668 -1.2852788 -0.3271895 0.53229636
000270 07 92 1b bd 23 b1 bb bb b7 dd 21 40 77 1f f3 bf
       -0.03798106 -0.0057279035 2.5291574 -1.8993977
000280 97 ec 74 bc f6 7d 90 ba 0a 46 90 bd e2 72 fe b7
       -0.014948986 -0.0011023867 -0.07044609 -3.0332656e-05
000290 1b e7 10 bd 85 6d 07 be fc 51 ed bd 7f 08 e3 c0
       -0.03537665 -0.13225372 -0.11587903 -7.094787
0002a0 05 62 67 be 66 f4 8c be 2b 57 97 be d0 bb 8c bb
       -0.22595985 -0.2753021 -0.2955869 -0.00429485
0002b0 93 99 3c b9 e0 af d4 bd 06 fc 20 c2 41 1f 25 3c
       -0.00017986288 -0.10385108 -40.246117 0.010078252
0002c0 a2 33 75 bd f7 63 13 c0 52 6f 12 3f d4 f8 0e 3e
       -0.059863694 -2.3029764 0.5720111 0.13962108
0002d0 8e 82 e7 bc 4a 9b 0b 3a 1d 07 55 bd 91 f5 a2 3e
       -0.028260496 0.0005325569 -0.052008737 0.31827977
0002e0 91 57 e1 39 74 a7 a4 c0 8d 68 a8 be d8 4b e6 bd
       0.00042980586 -5.145441 -0.32892266 -0.11244935
0002f0 46 c7 dd c0 39 70 06 be 56 cc a2 3d ea 58 3a c0
       -6.9305754 -0.13128747 0.0794913 -2.911677
000300 b4 f3 c5 c1 c8 4a 1f bd 88 b7 8c bb 61 a5 6b c0
       -24.743996 -0.038889676 -0.0042943396 -3.681969
000310 b3 e5 a7 bd 31 22 c9 bf b5 f3 f6 be de b7 3c 3f
       -0.081981085 -1.5713559 -0.4823281 0.7371806
000320 20 90 77 3e 4f 33 cd 3c 47 43 12 3b fa f2 ac 40
       0.24176073 0.02504888 0.0022317932 5.40466
000330 c4 35 67 bd 01 4a 3e 3d 11 33 92 bc 95 6a b7 bd
       -0.05644776 0.046457294 -0.017846616 -0.08955876
000340 f6 2a 43 3b dc 26 33 bc 1b a9 16 c0 a4 d4 e8 3d
       0.0029780245 -0.010934558 -2.3540714 0.11368683
000350 7b 46 b7 3b a8 56 7e c1 f0 17 59 3e d1 7f 4f bf
       0.0055931187 -15.896156 0.21200538 -0.8105441
000360 a1 a6 e4 c0 c1 47 93 3e 71 e4 f3 bd 8a 25 eb bd
       -7.1453404 0.2876568 -0.11908806 -0.114817694
000370 43 ec e1 3b b5 36 b2 bc de 49 8f bd 3f 4c 67 3b
       0.0068946197 -0.021754602 -0.06996511 0.003529325
000380 b6 86 e2 bb 88 bb 96 bd cf 8a f2 39 34 cf b2 bd
       -0.0069130315 -0.073599875 0.00046261257 -0.08730927
000390 19 f1 e8 be 63 da 23 bf 45 7d 89 be b2 c5 56 bd
       -0.45496443 -0.64005107 -0.26853386 -0.05243463
0003a0 96 b9 b6 bb fe f5 28 bd cc 0e a7 c0 0e b1 2e bd
       -0.005576323 -0.04125022 -5.2205563 -0.04264932
0003b0 7f b9 f5 3c 9a a2 e4 3c 3e 56 15 3b 2f cd 48 40
       0.029995678 0.027909566 0.0022787 3.1375234
0003c0 59 8a c8 bc d9 e2 6c 3b f4 b5 7e bc 45 dd f8 c1
       -0.024480032 0.0036145954 -0.015546311 -31.108042
0003d0 be 4f cc bd cf d3 eb bd 5f 41 ea c0 e8 e0 a4 be
       -0.09976147 -0.11515009 -7.32048 -0.3220284
0003e0 3f 48 98 be 0d 29 19 38 ac 6d 87 3a 78 6a 1a bb
       -0.2974262 3.6516274e-05 0.0010332367 -0.0023561995
0003f0 37 2e 5b bf 22 43 01 bd 51 f0 5d be 04 44 f1 be
       -0.85617393 -0.031558163 -0.21673705 -0.47122204

hiddenLayer1.bias f4 [150]
000000 cc bd 94 c0 a4 6d b3 bd 7a d6 2b c0 db 13 0c c0
       -4.6481686 -0.08761147 -2.6849656 -2.188712
000010 b5 3b 74 bd b9 8a ba bd 40 ee 0c bf 86 4e 5f bd
       -0.059627254 -0.091084905 -0.5505104 -0.054518245
000020 ed 5c fd be b8 55 99 bf 0f 27 84 be 81 e7 c2 be
       -0.4948496 -1.1979284 -0.2581105 -0.38067248
000030 bb df d0 bf 50 76 82 c0 64 e3 2f bc 3f 7f ad 3e
       -1.6318277 -4.0769424 -0.0107353665 0.33886144
000040 24 40 88 be 27 7e bf bf 38 9a ac be 43 1c 1d bd
       -0.26611435 -1.4960374 -0.3371141 -0.03835703
000050 3d 18 41 be c5 6e 60 c0 1e dd 97 bf db c8 20 bf
       -0.18856902 -3.5067608 -1.1864355 -0.6280648
000060 7b 3c 1f c0 35 88 02 c0 8c 1c a5 bf c0 da 08 c1
       -2.4880664 -2.0395634 -1.2899337 -8.553406
000070 0d 46 20 c0 e0 b2 24 bf c5 08 5e 40 0b d0 bd c0
       -2.5042756 -0.6433544 3.4692852 -5.931646
000080 20 98 b1 bf 66 ab b5 bd 3c e7 2f be 03 aa 9b c0
       -1.387455 -0.08870582 -0.17178053 -4.8645034
000090 ae 75 a2 bf 2e ea 50 be 45 79 08 bd f9 42 b7 bf
       -1.2692163 -0.20401832 -0.033318777 -1.4317313
0000a0 d2 ca 15 be 63 97 f3 bf d7 3d 75 bc ad 04 32 bd
       -0.14628151 -1.9030575 -0.014968357 -0.04346149
0000b0 00 46 08 c0 b6 0b 65 bf b9 8c 72 c0 6b 23 54 bf
       -2.1292725 -0.89470994 -3.789839 -0.82866544
0000c0 14 b7 26 bf 9c 63 8c bf 91 8d c7 bf 84 69 98 c0
       -0.65123105 -1.0967898 -1.5590078 -4.7628803
0000d0 be 44 9b c0 5b af e7 bf 69 e0 f7 bc 87 dc 40 bf
       -4.8521414 -1.8100389 -0.030258374 -0.753365
0000e0 ed 0a 7f c0 3f 29 aa bd cc 80 95 bf 9f 7d bf c0
       -3.9850419 -0.08308648 -1.1679931 -5.9840846
0000f0 06 f0 ba bd 1a 5b 27 40 96 a8 a3 bf 47 0d 29 c0
       -0.09127812 2.6149354 -1.2785823 -2.6414354
000100 f2 c6 d0 bf 7c cc e5 bf 08 14 8a c0 8b 14 95 3e
       -1.6310713 -1.7953029 -4.314945 0.29117236
000110 b9 38 29 bf 83 e1 89 bd 02 6d f0 bf ea 55 55 c0
       -0.66102177 -0.06732466 -1.8783267 -3.3333688
000120 45 2f f9 bf 9b 79 1f be 52 89 a2 bd 7b 7d 95 bd
       -1.946755 -0.15573733 -0.07936348 -0.07299324
000130 37 98 f2 c0 da ab f2 bd 21 f8 16 c0 09 90 96 c0
       -7.581081 -0.11849184 -2.3588946 -4.7050824
000140 76 34 7e bd f9 15 1c c0 c8 d1 16 c0 62 4d e9 bc
       -0.06206175 -2.438841 -2.356554 -0.028479282
000150 d7 da ac be ab 96 7b c0 79 cc e2 bf 6e dd bb 3f
       -0.33760712 -3.931071 -1.771865 1.467695
000160 07 3e 5b bc 35 e7 ca bf 5d 25 b1 be 24 50 fb be
       -0.013381488 -1.5851809 -0.34598818 -0.4908458
000170 2c 10 08 c0 be d1 f3 bf 29 af 72 c0 de 02 bf bd
       -2.125987 -1.9048383 -3.791941 -0.09326719
000180 71 f0 0c bf ee b1 6a c0 b2 d9 d0 bd a7 59 06 c0
       -0.55054384 -3.66711 -0.10197772 -2.099222
000190 3b 7f 0c be fd 56 21 bf 37 80 1c c0 ca f3 82 bf
       -0.1372041 -0.6302336 -2.4453256 -1.0230649
0001a0 ec a7 93 c0 af 4c b7 bd 46 73 12 bd 60 3a 3c c0
       -4.6142483 -0.08950173 -0.035754465 -2.941063
0001b0 08 55 87 bf 45 c6 f6 c0 46 3b 8d bf 77 e8 de bd
       -1.0572824 -7.711703 -1.1033714 -0.10884183
0001c0 c6 75 6e c0 00 07 52 c0 1c fb bb bf 61 33 8f bc
       -3.7259383 -3.2816772 -1.4686007 -0.017480554
0001d0 d9 a0 86 c0 a2 a5 c1 bf dc 5d 53 c0 4e d3 f6 bd
       -4.2071347 -1.5128672 -3.3026037 -0.12052022
0001e0 6c 2f 5e bd 6b 6d 9c c0 38 20 7a c1 44 ad d9 bc
       -0.054244444 -4.8883567 -15.632866 -0.026571877
0001f0 e7 c3 37 bd 57 50 ea bc c6 59 b7 bf 92 0f d7 be
       -0.04486456 -0.028602762 -1.4324272 -0.42004067
000200 6b 57 53 bf 28 0a 95 bf 71 c7 4b bf b3 b0 a5 bf
       -0.82555264 -1.1643724 -0.796012 -1.2944549
000210 5d a9 08 be cf cb c3 bf fd a0 0f bf f1 eb 22 c0
       -0.13345857 -1.5296572 -0.56105024 -2.5456507
000220 38 e3 43 be 39 75 c4 be 32 b2 5c c0 fd 5b ce bd
       -0.19129646 -0.38370684 -3.4483762 -0.10076139
000230 ad ee 50 40 51 67 61 c0 71 86 f2 c0 74 63 f1 bd
       3.2645676 -3.521931 -7.5789113 -0.11786547
000240 d1 16 8f be fb 3b 61 bc 86 ad 4b c0 f6 33 c7 be
       -0.27947095 -0.013747211 -3.182466 -0.3890683
000250 24 55 00 be e3 1c 76 3e
       -0.12532479 0.24034457

hiddenLayer2.weight f4 [150, 150]
000000 d0 28 ac be a3 e3 9b 3d 03 ec e3 bf d9 ce e4 bf
       -0.33624887 0.07611778 -1.78064 -1.7875625
000010 ac 49 18 bf e1 00 7f 3e 1c 5a a8 c0 17 2c 23 bf
       -0.59487414 0.24902679 -5.2609997 -0.6373915
000020 37 e3 82 40 9d f8 b3 bf 6b c1 ef c0 4c 8a 1f c0
       4.090236 -1.4060246 -7.4923606 -2.492816
000030 fa 63 2d c1 5f 0b f3 bd cc e6 cd 3d 82 ed 81 3f
       -10.836908 -0.11867403 0.10053787 1.0150607
000040 95 df c5 bd 65 d5 ea 3e ae 34 20 bd c5 61 0b be
       -0.096617855 0.45865932 -0.03911274 -0.13611515
000050 e7 f2 49 c0 1d 63 c2 be 98 c7 d3 be a9 0f 02 c0
       -3.1554506 -0.37966242 -0.41363215 -2.0322058
000060 80 89 86 c0 a3 22 ca bf a5 86 58 3f ed bc 07 c0
       -4.2042847 -1.579182 0.8458045 -2.120906
000070 b3 e1 13 40 42 53 43 bf f6 81 2d bf b0 d1 55 bf
       2.3106506 -0.76298916 -0.6777643 -0.8352308
000080 e7 3c 9b c0 09 db 87 be 8e e1 ac bd b1 6e d6 be
       -4.8511844 -0.26534298 -0.08441459 -0.41881326
000090 41 6f b4 bf 72 4e cc be 8d 36 8b 3d 65 77 ad c0
       -1.4096452 -0.399036 0.06797514 -5.4208245
0000a0 32 34 59 be e3 d4 b7 c1 6e 00 c1 bd cc 5b 3e be
       -0.21211317 -22.978949 -0.0942391 -0.18589705
0000b0 b2 00 a0 bc 99 c4 9d 3e 78 67 b8 bf 02 57 57 c1
       -0.019531582 0.30814055 -1.4406576 -13.458742
0000c0 d0 d2 0e c1 bf 4d 0f 40 ec ab 91 c0 9d 58 d3 3f
       -8.926468 2.2391202 -4.5522366 1.6511418
0000d0 b9 dd 93 bf ed 78 93 c0 8e 95 a1 3c 7e fc 6e c1
       -1.1552039 -4.6085114 0.019724634 -14.936644
0000e0 14 a8 a9 c0 ec 3d d5 3d 4f ee 2b 40 50 02 c4 bf
       -5.3017673 0.10412201 2.6864202 -1.5313206
0000f0 33 c5 f2 be 65 b4 03 bf 4c ad e9 be 34 b8 9b c1
       -0.47416076 -0.51447135 -0.45640028 -19.464943
000100 d5 e4 31 c1 30 e0 04 3f 5e 8d 0b c1 c2 ab 42 c1
       -11.118367 0.5190458 -8.722013 -12.166933
000110 87 f9 1f 3f 6c 2e d9 bd cc e0 02 40 14 f4 c8 c0
       0.62490124 -0.106045574 2.0449705 -6.2797947
000120 8b f1 17 c2 ee a1 28 bd 6e 14 39 bd b3 f4 32 be
       -37.98588 -0.041170053 -0.0451855 -0.17476158
000130 87 75 83 c0 86 b7 88 be 7b ff c4 c0 72 45 80 be
       -4.1080966 -0.26702517 -6.1561866 -0.25052983
000140 4e 16 fc bd b0 de 2c 40 bd 52 c3 bd 7f ab ab bd
       -0.12308942 2.7010918 -0.095372654 -0.0838232
000150 70 e2 b9 3f 9a f7 42 c0 26 09 c2 c0 a0 a9 88 be
       1.4522228 -3.0463624 -6.0636168 -0.26691914
000160 a9 bd 8b 3e 7e d4 5a 40 13 f3 c5 c0 e2 d5 e0 be
       0.27293137 3.4192195 -6.185922 -0.4391318
000170 4c cb 2e c0 5a 29 9a 40 43 ad 91 be 78 68 d6 3f
       -2.7311583 4.817548 -0.284525 1.6750631
000180 53 62 77 be ca 19 95 be 10 fc 6e 3f 28 5c a3 c0
       -0.24158601 -0.29121238 0.93353367 -5.1049995
000190 ee 5c ce 3e 45 fb ec 3f ad 6c fb 3f 5f d9 bd bb
       0.40305275 1.8514181 1.964254 -0.005793735
0001a0 43 5e 41 bf 19 b3 fc 3e fb a7 a9 3e a4 f0 1e 3e
       -0.75534457 0.4935539 0.3313597 0.15521485
0001b0 c2 51 8b c0 5a 29 51 bf 39 4f b2 40 b0 8e f3 bd
       -4.35373 -0.8170372 5.5721707 -0.1189245
0001c0 aa 62 4f c0 8c d2 67 3f 0d 50 81 c0 d8 e3 2d 3c
       -3.240397 0.90555644 -4.041022 0.010613404
0001d0 94 d6 80 c0 ad b1 d4 40 60 ff 38 c1 15 7a 44 be
       -4.0261936 6.646689 -11.562347 -0.19187196
0001e0 3a e7 98 bc 6b cb ed bf 8a f7 a0 be 85 3b a5 bd
       -0.018664945 -1.8577703 -0.31438857 -0.08067993
0001f0 43 f1 af bd 2e 00 74 be 9c ba 20 c0 34 32 12 40
       -0.08590939 -0.23828194 -2.5113897 2.2843142
000200 94 73 0a c0 37 82 92 3f 50 b4 b7 be a4 7d 1f be
       -2.1633043 1.1445988 -0.35879755 -0.15575272
000210 25 bb e6 bd 69 c0 9e bf 3d dc 98 c0 d9 fd 28 c1
       -0.11266164 -1.2402469 -4.7768846 -10.561975
000220 cc 63 e4 3f b4 6d 15 c0 a3 a8 c1 3f d7 02 ad 3d
       1.7842956 -2.3348207 1.5129589 0.08447807
000230 2b 11 d9 be 6b 11 5f bf 4f 91 1a bf d3 74 2a bf
       -0.4239591 -0.8713595 -0.60377973 -0.6658451
000240 31 c6 72 bf 7f 3d e7 bc 3a 26 be c0 1a 59 6f c0
       -0.94833666 -0.028227566 -5.9421663 -3.7398133
000250 b6 b2 58 3d 15 47 09 40 f3 1d 8c c1 e2 d3 37 3d
       0.052904807 2.1449635 -17.514624 0.0448798
000260 41 79 15 bf 7a 97 3c 40 63 1c 89 bd 20 3e 7d be
       -0.58388144 2.9467454 -0.066948675 -0.2473073
000270 e0 e6 b0 c0 e9 95 0e c0 07 9d c5 bd 94 4f a0 c0
       -5.528183 -2.2278998 -0.09649091 -5.009714
000280 ab 2d 2a bf f0 56 a8 bf c4 29 b9 3f f9 ab ae c0
       -0.66475934 -1.3151531 1.4465871 -5.4584928
000290 2c bc c9 3c 77 5e f1 3e 52 97 3e 3e f5 d3 59 c0
       0.02462586 0.47142383 0.18612412 -3.4035618
0002a0 88 6f 60 bf 4f f4 64 bd 28 86 bf 40 8b ae 84 3f
       -0.87670183 -0.055897053 5.9851265 1.0365766
0002b0 52 54 0b 3f d3 23 b5 bf d1 c7 b7 c0 7e ec 6c bf
       0.5442554 -1.4151558 -5.7431417 -0.9254836
0002c0 7c 77 45 bf 10 64 67 bf 5e ee 1c c0 45 3d 0d bf
       -0.77135444 -0.9038706 -2.4520488 -0.55171615
0002d0 d3 04 bc bf 4d fa f8 3e 43 12 f6 bf de 62 ca 3e
       -1.4688972 0.48628464 -1.9224323 0.39528555
0002e0 52 17 b1 3e 62 38 03 bf d3 5a aa bf 95 1b c3 3e
       0.34588104 -0.5125791 -1.3308967 0.3810698
0002f0 4f d7 42 3d 8f 7c 26 40 01 6a 0a bf 34 be 02 40
       0.047568616 2.6013525 -0.54068 2.042859
000300 6b 6e 3e bc 2a 17 c5 bc 07 f8 f4 c0 58 dc 22 bf
       -0.011623005 -0.024058897 -7.655277 -0.6361747
000310 78 1a c6 3f ac d4 20 bf 25 05 20 c1 c9 33 e9 be
       1.5476828 -0.6282451 -10.001256 -0.4554732
000320 d9 19 64 40 5f 62 06 3f e6 ae 78 c0 b7 ae 2d 40
       3.5640776 0.5249385 -3.885675 2.7137887
000330 ac 39 0e be 76 ca 9b bf 0a f8 35 40 07 f4 a3 be
       -0.13889188 -1.2171161 2.843264 -0.32022116
000340 2d f6 d5 bd 7c ed 4a bf 2f d0 4c bf 39 e9 43 c0
       -0.10447345 -0.7926862 -0.8000516 -3.0611098
000350 4e 25 8e 3e cb 79 9b bf 8b 68 8f 40 be d9 ed be
       0.27762836 -1.2146543 4.4815116 -0.46455187
000360 38 0d 3b c0 f5 1a 2d be e4 6b c7 be e3 e2 1b be
       -2.9226818 -0.16904815 -0.38949502 -0.15223269
000370 fe 4a 72 c0 00 d7 93 3f 44 12 2a c0 0a 86 b6 3d
       -3.7858272 1.1549988 -2.6573648 0.08912285
000380 73 43 af bd 4a ce e7 3d d4 2c 2b 40 f8 cc a9 be
       -0.08557787 0.113186434 2.674611 -0.3316419
000390 47 d6 00 3f 4d ec b5 40 4c 7f 72 3e 17 a3 0b c0
       0.5032696 5.6850953 0.23681372 -2.1818292
0003a0 38 e9 2d c1 20 2d 2f bd ab 85 f7 bf cc 8a bd bf
       -10.869438 -0.042767644 -1.9337667 -1.4807982
0003b0 48 d6 93 c0 7d 44 72 c0 97 6e 93 bc 3e 85 ea bf
       -4.6199074 -3.7854302 -0.01799707 -1.8321912
0003c0 a6 9a 1f be c6 1c 89 bf bf 84 c8 bf be c0 ed 3f
       -0.15586337 -1.0711906 -1.5665511 1.8574445
0003d0 80 e2 b7 bf 90 da e5 bf 79 e4 0d 3d e8 41 1e c0
       -1.4365997 -1.7957325 0.034641717 -2.4727726
0003e0 76 9d 95 3e b4 37 19 3f bd 8a 05 3f bd 2b 52 3f
       0.29221696 0.5985062 0.5216482 0.8209799
0003f0 96 67 3f bf 2b c4 55 bf 14 d8 04 c1 0a 16 8f bf
       -0.74767435 -0.83502454 -8.302753 -1.1178601

hiddenLayer2.bias f4 [150]
000000 41 a2 03 bf d4 03 fd bf 9e 75 c5 3f 07 57 09 3e
       -0.51419455 -1.9766793 1.5426519 0.13412105
000010 fb 01 3a bf 5c 6f 89 be 1d c3 3b 40 97 2c c2 bd
       -0.7265927 -0.26842773 2.9337838 -0.09481161
000020 55 6e e4 40 6b 58 8e 3c 3a 6d 25 be 21 7a cb 3d
       7.1384683 0.017376145 -0.16154948 0.099354036
000030 f5 76 11 3f 81 5a f4 be f6 0c 91 bd 37 1d 8d c0
       0.5682214 -0.477253 -0.0708255 -4.4098163
000040 22 c6 88 40 15 27 95 3e ab 68 c5 3f 6e 2a c7 3f
       4.274186 0.2913138 1.5422567 1.5559824
000050 8d 7c fc be d4 6e 92 bd fd c1 53 bf cc ed b1 bf
       -0.49313775 -0.07150045 -0.8271788 -1.3900695
000060 1a 06 d9 bd 60 62 da bf f7 57 ec bf b1 62 d8 3d
       -0.10596867 -1.7061272 -1.8464345 0.10565699
000070 d0 95 be 3e 0c 44 87 3e de ef ac 3f f3 81 45 be
       0.37223673 0.26419103 1.3510702 -0.19287853
000080 30 4a 71 3d 07 09 40 be 8e 9a 21 40 04 30 17 c0
       0.05890864 -0.18753444 2.5250583 -2.3623056
000090 0e e2 20 be 17 52 22 bf 1d 03 f4 bf e2 c0 13 3f
       -0.15711233 -0.6340651 -1.906345 0.5771619
0000a0 7c 62 86 bf 23 6a 0d bd 76 7e d1 be 55 02 9a bd
       -1.0498805 -0.034525048 -0.40916795 -0.07519976
0000b0 c8 b6 04 c0 91 d7 09 bf 32 af 86 c0 4c a6 54 c0
       -2.073656 -0.53844553 -4.208886 -3.32265
0000c0 2f 7c 89 bd 33 da 5c bf 84 42 75 be e1 a1 ab bf
       -0.06713139 -0.86270446 -0.23951155 -1.3408777
0000d0 e1 02 f7 be 8d 3b e5 be d1 41 04 bf 35 da 5a be
       -0.48244384 -0.44771996 -0.5166293 -0.21372302
0000e0 f4 17 cc bd 12 1b 4c bf 36 7a 7a bc a3 b5 1f bf
       -0.09965506 -0.79728806 -0.015287926 -0.6238653
0000f0 94 39 82 be e5 fc c1 be eb 8c 21 be 69 39 0a be
       -0.25434554 -0.37888256 -0.15776412 -0.13498463
000100 62 d2 5e bf 03 0f 86 40 63 d4 42 c0 7b da ec 3c
       -0.8703977 4.1893325 -3.044213 0.028912773
000110 67 0c c2 be 40 a0 61 3f a1 f2 e2 3f 6b 99 82 bf
       -0.37900087 0.8813515 1.7730294 -1.020307
000120 f6 96 33 3f ad 84 0a 3f c0 01 08 bf cf 80 18 bf
       0.70152223 0.541087 -0.5312767 -0.59571546
000130 8c d5 36 be bc 66 f2 be 40 4f 5c 3e 62 9c 21 bf
       -0.17854899 -0.47344005 0.21514606 -0.63129246
000140 f5 19 cb bf 44 f3 ba be 87 fd a9 bf c5 a6 02 c0
       -1.5867296 -0.36513722 -1.3280495 -2.0414288
000150 27 09 ea 3d c6 50 b1 bf 76 4a 17 3f 49 c5 1a be
       0.11427527 -1.3852775 0.59097993 -0.15114321
000160 6e bd 95 3f 0f 92 03 be f4 fb 81 bf 3e 48 32 be
       1.1698434 -0.12848686 -1.0155015 -0.1741037
000170 93 87 47 bf a2 b8 87 3f 2d 0f 21 bf 87 78 85 be
       -0.77941245 1.060322 -0.6291378 -0.26068518
000180 9a 49 c9 be 19 9a 97 be b6 aa 0b bf b5 46 e6 40
       -0.39313966 -0.29609755 -0.5455736 7.196131
000190 18 6c d4 bf e0 34 83 be 89 e2 0b be a9 6c ba 3e
       -1.6595488 -0.25626278 -0.13660635 0.36411026
0001a0 98 7a 93 3a 02 fc c9 3f 52 01 ae be ed 80 1e be
       0.0011251746 1.5780032 -0.33985382 -0.15478869
0001b0 8c 88 69 be bb 60 05 c1 be 9c c9 3d 8f 7f f8 be
       -0.22805995 -8.336116 0.09844349 -0.4853482
0001c0 7a b1 68 be dc 74 8d 3e 2e 7f 43 3f 2c cd af bd
       -0.22723952 0.2762822 0.76365936 -0.08584055
0001d0 46 84 19 c0 d6 70 f4 bf 03 ef d3 be 39 6a 5c bf
       -2.3986983 -1.9096935 -0.4139329 -0.8609958
0001e0 c1 ec 9e bd 6e 5a 7e bf c1 90 b0 bf 9e 11 bc bd
       -0.07760001 -0.99356735 -1.3794175 -0.09183048
0001f0 a9 7d 08 bf c2 fa 09 3f 5f b7 22 3f 5b 13 69 be
       -0.5331674 0.5389825 0.6356105 -0.2276129
000200 25 f1 04 3f c4 5c 0b be 07 50 39 bf e3 5e 59 be
       0.5193046 -0.13609606 -0.7238774 -0.21227603
000210 2a 4b c8 40 bc 81 da bf d9 ad da be cd 29 15 3c
       6.2591753 -1.7070842 -0.4271076 0.009104204
000220 d6 57 23 c0 7d 06 95 bf 81 51 52 3e 8d 4b 4f 3f
       -2.552236 -1.1642605 0.20538904 0.80974656
000230 ea a4 25 3e e6 2a 5a bf 11 23 8c bd 9d 8e 25 bf
       0.16176191 -0.8522171 -0.06842626 -0.64670736
000240 04 02 46 bf 7c 9f 08 c0 ee 51 45 3f 44 bd 78 be
       -0.77346826 -2.1347342 0.7707814 -0.24290949
000250 fa d2 15 bf b1 24 47 bd
       -0.5852505 -0.048618976

hiddenLayer3.weight f4 [150, 150]
000000 23 97 26 40 fd e2 10 3f da 49 d3 be 8b 79 5e be
       2.6029747 0.56596357 -0.41267282 -0.21726052
000010 c0 f1 35 bf cf 3b cb bf 88 98 c3 3d 5c 0d b1 be
       -0.71072006 -1.5877627 0.095505774 -0.34580505
000020 41 0c aa 3c c5 36 86 bf f9 87 f2 3c b3 69 f4 bf
       0.020757796 -1.0485464 0.029605852 -1.9094757
000030 f2 93 a3 3e 2e 3e 87 3e e4 b3 21 bd b9 df e0 3e
       0.3194881 0.26414627 -0.039478198 0.43920687
000040 b2 da 81 bf fd 63 9e bf 52 a3 82 c1 56 60 53 c1
       -1.0144866 -1.2374264 -16.329746 -13.2110195
000050 6f ac 09 bf 08 4e 61 bd e5 f5 87 3d 45 fb 21 3f
       -0.5377874 -0.055006057 0.066386975 0.6327403
000060 cb b3 2b 3d 96 0e 0e 3d 1f f0 71 c0 4b 75 96 bd
       0.04191951 0.03468188 -3.7802808 -0.073465906
000070 8c ee 72 40 26 05 1d c0 56 04 f3 bf 3c 7f 50 3e
       3.7958097 -2.4534392 -1.8985698 0.20361036
000080 aa 16 01 c0 c7 d4 14 c0 9f cc 43 bf e6 9b 46 bf
       -2.0170083 -2.325487 -0.764841 -0.7758163
000090 53 96 25 bf a9 68 c4 3d d1 a3 93 c0 2d db cb 3f
       -0.646825 0.09590275 -4.613747 1.5926262
0000a0 f3 6b 99 40 32 4b 01 c0 0c e8 d6 3e 37 aa 97 3c
       4.7944274 -2.0202146 0.41973913 0.018513782
0000b0 2c b7 22 41 cf 43 5f 3e a2 14 d3 3f 5f a4 38 be
       10.16972 0.2180321 1.6490672 -0.18031453
0000c0 13 fb 0c c0 2d c2 7a 3f 73 70 3c ba af 58 14 c0
       -2.2028244 0.9795254 -0.0007188387 -2.3179128
0000d0 88 48 3a bd 63 b6 8d 3f c6 38 ed c0 f9 95 8a be
       -0.045479327 1.1071285 -7.4131804 -0.27067545
0000e0 00 45 e4 be 21 14 5d bf 5d 0a 87 3d 5d 89 78 3f
       -0.44583893 -0.8635884 0.065937735 0.970846
0000f0 6f 7e af be 9a d5 07 3f 3a 9f 0e 3e 0f e0 a4 40
       -0.3427615 0.53060305 0.13927928 5.152351
000100 01 64 b4 c0 9e aa df bf d4 e6 7b c0 e4 50 10 3e
       -5.6372075 -1.7473943 -3.9359636 0.14093357
000110 f4 6c 27 3e 22 ce 57 c0 6f aa e8 bf d9 64 d1 3f
       0.16350156 -3.3719563 -1.8177012 1.6358901
000120 14 61 7c bd bc 0c 83 be 03 d4 01 3f dc c6 51 bd
       -0.06161602 -0.25595653 0.5071413 -0.051215038
000130 09 fa 49 c0 d4 64 56 c0 40 2b 60 c0 2d d1 27 bf
       -3.155886 -3.349904 -3.5026398 -0.6555355
000140 89 f9 84 bf 07 f4 49 bf 89 7e 09 c0 6a a0 84 be
       -1.0388652 -0.7888798 -2.148348 -0.25903636
000150 14 51 02 bf 36 76 d7 c0 46 c9 01 c0 86 b7 0e 3e
       -0.50904965 -6.73318 -2.0279098 0.13937196
000160 cc 68 26 3f 1a db f1 3a 93 c2 c2 bf 2f 98 04 40
       0.6500366 0.0018452138 -1.5215629 2.0717885
000170 e6 27 31 3f c8 de 1a 40 cd 72 09 c0 f1 b5 8c 3e
       0.69201505 2.4198475 -2.147632 0.2748256
000180 e6 f6 bf c0 ed 7c 4f bf 1e 23 ce 3f 88 ea 48 3e
       -5.998889 -0.81049997 1.6104467 0.19620717
000190 29 ca c7 c0 de 1d a3 be f8 3d 8b 3e 1b 73 ae 40
       -6.2434278 -0.31858724 0.27195716 5.451551
0001a0 47 1f 23 bd 02 96 46 c0 db 9c c1 c0 c7 59 03 3f
       -0.03982475 -3.1029058 -6.0503974 0.51308864
0001b0 66 8b 13 40 95 4e 86 bf 55 03 21 be ef 1a 0a bf
       2.3053832 -1.0492731 -0.15723927 -0.5394735
0001c0 92 8e 1e 3d 8e f4 75 3c 30 2c 48 3e e8 43 05 c0
       0.038710184 0.01501192 0.19548106 -2.0822697
0001d0 9b 50 83 3d ba 06 9d bf fe 87 a7 3e 93 e1 8b 40
       0.06411859 -1.2267678 0.3272094 4.371286
0001e0 78 c7 09 3d 12 ce a7 3e 05 7d 5f c0 1e 16 bc 3d
       0.033637494 0.32774407 -3.4920056 0.09183906
0001f0 4c 2f 63 bd 02 c6 44 40 79 2b 03 40 4d d4 e9 bf
       -0.055465028 3.0745854 2.0495284 -1.8267914
000200 21 36 a3 3f a4 8a 99 bd 9f c5 13 c0 55 bb b9 bf
       1.2750894 -0.07497147 -2.3089368 -1.4510294
000210 20 2d b6 bf 0f 35 15 3f e5 90 b8 bf 60 a0 0c 3f
       -1.4232521 0.58284086 -1.4419218 0.5493221
000220 0e d5 e8 c0 49 aa ae be 57 d2 4d c0 d7 fb 74 40
       -7.2760077 -0.34114292 -3.2159631 3.827871
000230 ba 54 87 3d c1 d1 db bf df 7d a6 bc 2e 53 18 3e
       0.06607957 -1.7173387 -0.020323692 0.1487548
000240 bd 28 56 c0 37 ff ae 3f dd 9b c2 3f c5 a6 d0 3d
       -3.3462365 1.3671635 1.5203816 0.10188059
000250 c2 0e 8c 3f 36 64 82 3d 07 41 3c bf 9a 73 44 c0
       1.0942004 0.0636677 -0.73536724 -3.0695558
000260 1b f5 3d c1 e8 b8 96 c0 35 af 46 bf ed 9c bc c0
       -11.87234 -4.7100716 -0.77611095 -5.894156
000270 20 87 26 c0 3e 3c 1b 3f 73 35 32 bf 6c 27 ba c0
       -2.6019974 0.606388 -0.6961281 -5.8173122
000280 9b d3 91 c0 7b 05 df bf 83 00 b0 c0 f5 65 ab c0
       -4.5570807 -1.7423548 -5.5000625 -5.356196
000290 0a a9 9b bc 24 65 93 be 03 bb 06 c0 12 8d dc 3e
       -0.019001503 -0.28788102 -2.1051643 0.43076378
0002a0 aa 7c 30 c0 c1 c2 a6 bf 9c 00 dd 3f 13 65 0e bd
       -2.757609 -1.3028184 1.7265811 -0.03476436
0002b0 01 b1 d2 be 69 be 2f c0 7f a8 2f 3d e1 29 5a 40
       -0.41150668 -2.7459967 0.0428853 3.408806
0002c0 19 79 22 40 d5 a7 73 3f 9e 07 a9 be 38 13 a5 c1
       2.5386412 0.95177966 -0.33013624 -20.634384
0002d0 10 fb cb bf ef fe 16 3f 40 3c a6 c0 cb 42 fc bc
       -1.5935993 0.5898275 -5.1948547 -0.030793568
0002e0 f9 47 f9 bf d4 9c 49 c0 14 7a 18 3f fd 96 cd c0
       -1.9475089 -3.150197 0.59561276 -6.424681
0002f0 68 16 6d 40 1e 76 10 c0 d6 8e 63 c0 f2 47 12 c0
       3.7044926 -2.2572093 -3.555593 -2.2856412
000300 2c 2d 60 40 f5 bb 9a 3d 28 16 01 c1 80 35 ce 3c
       3.502757 0.07555381 -8.067909 0.025171995
000310 7c 68 04 bc 30 61 c7 3f 00 b5 81 bf 0b e7 c5 3e
       -0.008081552 1.5576534 -1.0133362 0.38652834
000320 04 ba a3 bd 74 1c 7d 40 08 ca db c0 7b 8c dc 3e
       -0.07994464 3.9548616 -6.868412 0.43075928
000330 9b de e8 be 67 76 8c be 64 08 1c be b1 ee f6 3f
       -0.45482334 -0.27434084 -0.15237576 1.9291593
000340 3b f9 89 be 11 4a b4 3d 1a 69 0c be a0 1b 21 c1
       -0.2694796 0.088031895 -0.13711968 -10.069244
000350 16 8a bb c0 68 42 0f 3f 9b 67 62 c1 2f 1a fc be
       -5.860606 0.559607 -14.150294 -0.49238726
000360 16 03 48 c0 b4 ed 19 bf e5 21 13 be ff c5 ba be
       -3.1251884 -0.6012833 -0.14368398 -0.36479184
000370 c5 eb c6 3f 6d f2 4d 3f 3b 09 e6 3d 28 81 fc bf
       1.5540701 0.8044804 0.11232229 -1.9726915
000380 e8 13 4c 3b 9b b1 8b 3f 43 31 a8 bf c9 ff ba c0
       0.0031139795 1.0913576 -1.3140033 -5.843724
000390 eb 6d 7b c0 38 43 37 bb 14 eb 4a c0 fd 55 2e 40
       -3.9285839 -0.002796365 -3.170598 2.7239983
0003a0 16 86 c8 bf ae 98 17 c0 91 1b 72 bf d8 bc 96 c1
       -1.566592 -2.3686938 -0.94573313 -18.842209
0003b0 eb ac 54 3f 67 61 cc bd 19 86 46 3f 36 51 71 3d
       0.8307635 -0.099795155 0.77548367 0.05891534
0003c0 bf 65 3b 40 58 85 b6 c0 2a 2b 14 40 30 1c 10 3f
       2.928085 -5.7037773 2.3151345 0.5629301
0003d0 01 9e aa 3e ce 19 72 c0 60 c7 b8 c0 d3 aa 25 3f
       0.33323672 -3.782825 -5.774338 0.6471378
0003e0 d2 df b7 40 3e 9f 04 bf f9 57 a7 c0 4f ec 2e bd
       5.746072 -0.51805484 -5.229489 -0.04270583
0003f0 20 82 67 3e e2 3b a1 c0 1d 1a bb 3c 3e 54 a1 40
       0.22608232 -5.03856 0.0228396 5.0415335

hiddenLayer3.bias f4 [150]
000000 45 4c 09 41 70 87 f6 40 35 87 94 be e0 9a 3b bf
       8.5811205 7.704033 -0.29009405 -0.73283195
000010 a8 1a 8f 3e 17 a7 af 40 3e b4 92 c0 d2 bd 05 3f
       0.27950025 5.4891467 -4.584502 0.5224277
000020 db e1 1b bf 72 b8 89 bf c4 f3 91 be 40 7f 2f 40
       -0.60891503 -1.0759413 -0.2850629 2.7421417
000030 86 21 09 bf fd 25 49 c0 87 07 d9 40 41 02 8a bf
       -0.5356678 -3.1429436 6.782169 -1.0781938
000040 fc 5e b4 be a1 8e c1 40 55 51 22 be 26 0d 3c bf
       -0.35228717 6.0486608 -0.15851338 -0.7345756
000050 4b df 94 40 de 52 05 bf 84 5a 4a 41 00 dc b6 3f
       4.6522574 -0.5207957 12.647099 1.4285889
000060 2a 22 24 bf e4 b4 57 40 31 80 ab 40 83 f4 4c be
       -0.6411463 3.3704157 5.3593984 -0.20015149
000070 49 1d 7b 40 49 21 af 3f ed d3 0c 3d 60 8e fd 40
       3.9236624 1.3682033 0.034381796 7.9236298
000080 b3 89 13 bf c7 70 b5 40 47 12 90 bf 7a c7 e5 be
       -0.5763199 5.670017 -1.1255578 -0.4487875
000090 67 1c ee 40 c8 18 1f 40 5b da bb bf 9a 35 3e bf
       7.440967 2.4858875 -1.4676012 -0.7430054
0000a0 7a 27 9c 3d f0 ef ba be 43 42 28 40 2e ba 4e bf
       0.07624717 -0.36511183 2.6290443 -0.8075284
0000b0 32 d2 b1 bd 6d b0 c5 40 42 a9 3c bf 14 f4 6a 41
       -0.0868267 6.1777864 -0.73695767 14.684589
0000c0 53 9c 38 bf 1f a2 62 40 87 30 2e 41 a6 4b 62 be
       -0.7211353 3.541145 10.8868475 -0.2209917
0000d0 41 6c 22 c1 9c b8 d8 bd 80 b6 8e be 47 e9 65 40
       -10.151429 -0.105820864 -0.2787361 3.592363
0000e0 0a ee 2a bf be 12 bb 40 73 32 40 40 d0 a0 52 c1
       -0.6676947 5.846038 3.0030792 -13.164261
0000f0 5e 3b 38 bf 30 ed 01 be 74 0a fc be 73 fa 04 41
       -0.7196559 -0.12688136 -0.49226725 8.311145
000100 9b 1c 4a be 55 5b 0c bf 24 ea 3c bf 7a d1 09 c1
       -0.19737475 -0.5482686 -0.7379477 -8.613642
000110 3d d2 84 bf a5 ce 48 be 39 83 f2 40 76 b2 aa 3f
       -1.037666 -0.19610079 7.5785184 1.3335712
000120 48 3f 84 3f 1d ba 32 41 20 58 0a 41 7b 38 69 40
       1.0331812 11.170438 8.646515 3.6440723
000130 37 ae 0d c1 a8 05 bf bf f7 39 0a 41 8f b4 6f bf
       -8.855033 -1.4923601 8.639152 -0.93634886
000140 b0 9d 91 bf 34 a6 0f 41 c5 db 53 40 39 f1 62 3e
       -1.1376247 8.978077 3.3102887 0.22162332
000150 dc a9 1b c0 8e 62 ac bd af e4 e1 be c8 55 fc be
       -2.4322424 -0.08417235 -0.44119784 -0.49284196
000160 26 7d e4 bd 48 1c a6 be 66 c5 e7 3f 2b 49 2b 41
       -0.11156683 -0.32443452 1.8107116 10.705363
000170 3e bd a2 be 66 e4 f9 bf 69 2c 63 be ff 74 89 c0
       -0.31785005 -1.9522827 -0.2218491 -4.2955317
000180 13 ed 08 41 98 f7 3f bf 5a be 21 c1 44 f7 1d 41
       8.557879 -0.74987173 -10.108973 9.872868
000190 94 26 18 be 4c bc b5 40 2c df 43 bf b1 6c e9 be
       -0.14858466 5.6792355 -0.7651241 -0.45590737
0001a0 e0 39 59 40 55 9a c4 bd 68 d5 94 40 27 93 9c bf
       3.3941574 -0.09599749 4.6510506 -1.2232407
0001b0 c8 17 04 be 11 ed 60 41 85 c7 57 bf 70 04 9d 3f
       -0.12899697 14.057878 -0.8428882 1.2266979
0001c0 06 d7 1d 41 cc 64 0b 3e b4 40 e4 3f 2f 33 66 41
       9.864996 0.1361267 1.7832246 14.387496
0001d0 25 a0 07 3c cd ce 30 bd c4 a8 67 41 0b eb fb bf
       0.0082779275 -0.04316597 14.478703 -1.9681104
0001e0 f2 37 27 bf bd 18 db be 08 40 d6 bd 80 da 00 be
       -0.6531974 -0.4279231 -0.10461432 -0.12583351
0001f0 7f 9a ac be ef 8b 13 c1 a4 1a 76 3c 10 14 3d be
       -0.3371162 -9.221663 0.015021 -0.18464684
000200 c9 36 a4 40 5f dc e4 40 61 ff 3e bf df 84 df 40
       5.1316876 7.151901 -0.7460843 6.9849696
000210 a0 28 d4 bf fe dc 63 40 95 0e 93 3f 68 8c 44 41
       -1.6574898 3.5603633 1.1488825 12.284279
000220 02 ab 6e bf 48 c0 92 c0 b4 76 39 3f b9 18 5f be
       -0.9322969 -4.585972 0.7244675 -0.21786775
000230 fd 38 85 bd 42 40 19 41 c2 d8 01 bf df 56 e6 c0
       -0.0650501 9.578188 -0.5072137 -7.1981044
000240 e4 06 69 40 77 c8 53 3e 37 53 8e 3f 35 fd a2 40
       3.6410456 0.2068194 1.1119145 5.093409
000250 b4 25 62 c0 51 3e c2 bc
       -3.5335512 -0.023711355

outputLayer.weight f4 [2, 150]
000000 2e ec 54 3f 83 83 13 40 e5 95 29 39 12 29 21 bf
       0.8317288 2.3049018 0.00016172936 -0.62953293
000010 79 1c 07 3e f9 74 52 3f b8 92 d0 c0 39 8a aa be
       0.13194455 0.82209736 -6.51791 -0.3330858
000020 1a ea c3 bf 7d 0c 2c 40 c0 3b f3 3e 34 92 36 3d
       -1.5305817 2.6882622 0.47506523 0.044573024
000030 2c c2 b9 3e 93 de e4 bf 3c 8c 94 3f 5f d4 7c 3f
       0.36280954 -1.7880424 1.1605296 0.9876155
000040 b0 d3 36 bc c5 2a ad 3f c9 5f ab bc d5 9f f7 3f
       -0.011158869 1.3528677 -0.020919697 1.9345652
000050 bf e1 90 3f a3 75 4d bd 0c 58 b1 3f ea 80 d6 3f
       1.1318892 -0.050161015 1.3854995 1.6758091
000060 a0 9e 56 c0 b5 b2 11 41 90 f7 91 3f 40 63 62 3e
       -3.3534317 9.10613 1.1403675 0.22108173
000070 50 47 ec bc df 88 fa 3f b8 cd 12 bf 48 1b 10 40
       -0.028842598 1.957302 -0.5734515 2.251665
000080 0a 63 ab 40 cc 68 3d 3f 2d 36 e1 c0 ce 4f 0a 3f
       5.3558397 0.7398803 -7.0378633 0.5402802
000090 89 22 ba 3e 86 a1 2b 3f 05 78 ae bd 3d b1 72 3f
       0.36354473 0.6704334 -0.08518986 0.94801694
0000a0 94 25 39 3d 4d d2 7c 3f 92 5d 53 41 22 50 83 3f
       0.045201853 0.98758394 13.210344 1.025883
0000b0 20 f4 60 3d f9 7f 68 3f c5 05 63 3f 92 c7 0a 40
       0.054920316 0.9082027 0.8868068 2.1684308
0000c0 ba bd ae be 5c ef 29 40 67 9a 63 3f 3e 2f f1 bc
       -0.34129125 2.6552343 0.88907474 -0.029441472
0000d0 63 b8 f4 bf 97 b8 4d bb 6d fd 37 40 ad 91 ec 3f
       -1.911877 -0.0031390542 2.874843 1.8481957
0000e0 53 28 bd 3f 90 25 b6 3f b0 20 7f 3f 23 50 5f c0
       1.4777931 1.4230213 0.9965925 -3.4892662
0000f0 79 96 98 3f 22 cd 06 c0 91 f6 d5 be ee 90 ec 40
       1.1920921 -2.1062703 -0.41789678 7.3926916
000100 39 5d b7 bf 7e ee db bf 46 72 98 3f 91 f0 8b bf
       -1.4325324 -1.7182157 1.1909873 -1.093279
000110 6e a0 56 c0 df 8b f1 bd 70 b5 4c 40 0c f7 a7 40
       -3.3535419 -0.117942564 3.198574 5.248907
000120 15 60 00 bf 09 c3 8a 3f fc 28 fc 3e 55 b8 60 3f
       -0.5014661 1.084077 0.4925002 0.8778127
000130 d4 5c a9 be d8 32 65 3e 03 d1 05 40 31 16 ca bf
       -0.33078635 0.22382677 2.090882 -1.5788022
000140 6f b3 cd 3f 5c 63 96 3f 6f f9 a8 bf 36 90 d0 3f
       1.6070384 1.1749072 -1.3201121 1.629401
000150 44 bc 07 bf ed 54 b3 bd 46 28 97 bf f2 33 4d 40
       -0.53021646 -0.08756433 -1.1809165 3.2062955
000160 a9 db d5 bc dc f5 8e bf ef 42 60 c0 7b 5a 0f 3f
       -0.026105719 -1.116878 -3.5040853 0.5599744
000170 72 49 b0 be 4b 0e a5 bf c8 15 d2 3c c4 60 57 c1
       -0.34431034 -1.2894987 0.025645152 -13.461124
000180 7a 9e 38 40 b9 e1 ae 40 e0 b7 1d bf e4 b5 86 3f
       2.8846726 5.465054 -0.61608696 1.0524259
000190 47 2a f1 c0 17 58 96 3e 01 4d b4 3f 70 ff c9 bf
       -7.536411 0.29364082 1.4086 -1.5781078
0001a0 49 41 36 3f 65 e2 20 c0 58 d9 6d 3f 23 48 c0 bc
       0.7119337 -2.513818 0.92909765 -0.023471897
0001b0 f9 a8 92 bf dd 81 2d 3f 02 44 f7 be a5 a9 e5 be
       -1.1457816 0.6777628 -0.48294073 -0.4485599
0001c0 13 09 d4 40 79 1a 35 3f 22 77 fa bf 8b 87 06 40
       6.6261077 0.7074352 -1.9567606 2.102023
0001d0 f4 a6 43 bc ad 22 b2 bb 88 98 48 3f 19 9a 02 c0
       -0.01194166 -0.0054362626 0.78357744 -2.0406554
0001e0 c9 2b 83 3e d5 a1 5b be b4 d5 39 bd ce f8 de be
       0.25619343 -0.21448453 -0.04536982 -0.43549198
0001f0 ec 7f 02 3f 97 38 4b bf 1d 14 04 bb 38 36 96 3c
       0.50976443 -0.79383224 -0.002015359 0.0183364
000200 c2 c2 8d bf 02 73 9e 3f 8e 39 11 c1 c2 2f 34 be
       -1.107506 1.2378848 -9.076551 -0.17596343
000210 47 99 83 c0 71 3e 82 c0 f1 7b 5c 40 cd 8f 50 3f
       -4.1124606 -4.0701222 3.4450648 0.8146942
000220 24 62 15 be 41 89 6d bf 31 ff bf 40 9d d6 05 40
       -0.14588219 -0.9278756 5.9999013 2.091224
000230 9a ff 70 bc 8b 1d 27 40 d1 45 12 40 38 d7 87 bd
       -0.014709378 2.6111782 2.2855113 -0.066328466
000240 73 87 a1 bf 7d 9b 7d 3e c1 4d 27 40 2b 63 6e 3f
       -1.2619461 0.24766345 2.6141207 0.9312007
000250 32 e5 98 40 99 d9 76 bc 08 7b 5d 3e e0 11 45 40
       4.777978 -0.015066528 0.21628964 3.079216
000260 31 48 68 3c 10 a0 8a 3e e4 e8 71 be a1 4e 4c 3f
       0.014177368 0.27075243 -0.23623997 0.7980748
000270 77 1e cd c0 a0 af 8d bd 53 14 69 40 00 b3 35 c0
       -6.409969 -0.069182634 3.6418655 -2.8390503
000280 6c 99 2f bd f2 e2 20 3f a2 84 24 bf 85 be dd bf
       -0.042870924 0.6284629 -0.6426488 -1.7323767
000290 36 12 84 3f bb 83 98 bf ba a3 b4 3c f5 aa 3a 3f
       1.0318058 -1.1915201 0.022050727 0.7291711
0002a0 90 4c 5e bb f5 4f 02 c0 e6 4c c1 3f 14 38 8a be
       -0.0033920147 -2.0361302 1.5101593 -0.2699591
0002b0 4d 82 71 3f ac 5d da 3f ed 1c 81 40 0f cf 10 41
       0.9433945 1.7059836 4.034781 9.050551
0002c0 d1 af 82 3f 8b 7a 98 be 5d 51 8b 3e f3 a3 a8 40
       1.0209905 -0.29780993 0.27210513 5.2700133
0002d0 2e dc 92 3f 15 5f 17 40 25 7d ca bf 2d 09 83 3f
       1.1473444 2.3651783 -1.5819441 1.0237175
0002e0 d6 7b 00 c1 e3 38 c6 3e db fe fb be 1e 92 52 bf
       -8.030233 0.38715276 -0.49217877 -0.8225421
0002f0 a4 a3 93 3f 7e 46 69 3d 85 42 13 3e 99 3f 6f bf
       1.1534314 0.056951992 0.14380844 -0.9345642
000300 9a 56 66 41 bc 0b a1 bf 3b 6c 66 be 75 4e 63 3f
       14.396143 -1.2581706 -0.22502224 0.8879159
000310 34 fe 87 bf b0 b5 0a 40 de bc 3e 3e 36 97 32 40
       -1.0624452 2.1673393 0.18626735 2.7904792
000320 ce dc 61 3f 33 29 b7 bc d4 93 eb bf 63 4c d5 bb
       0.88227546 -0.022358513 -1.8404489 -0.00650935
000330 1d 94 12 c0 e5 f4 df 3f ae e8 05 40 ec 97 11 3f
       -2.29029 1.7496611 2.0923266 0.5687244
000340 60 c4 4e 3f af 42 5f c0 a7 7c 8f bf ae 91 0d 40
       0.80768394 -3.488445 -1.1209916 2.2120166
000350 e7 36 47 3e af ad ec 40 71 32 ce 3f f4 64 2a bf
       0.19454537 7.3962016 1.6109143 -0.6656029
000360 e3 43 15 40 6c d6 0f c0 1c c0 18 c0 48 1a 36 3c
       2.3322685 -2.2474623 -2.3867254 0.011114664
000370 e0 4c 4d 40 2b 36 ac 40 e1 f9 93 bd 03 8b 8b 3f
       3.207817 5.3816123 -0.07225395 1.0901798
000380 bc 11 fd 3e de f3 87 3f af b2 80 be 80 88 31 3e
       0.49427593 1.0621297 -0.25136325 0.17337227
000390 ec 41 01 40 61 34 04 c0 1d 38 d7 3f 99 07 96 3f
       2.0196486 -2.065697 1.6814 1.1721069
0003a0 c1 a4 16 40 55 b6 e6 3f c2 01 85 be 32 19 97 3c
       2.3538058 1.8024393 -0.25977904 0.018444631
0003b0 30 47 9b 3f fb 60 43 40 9d 8d ef bc 65 f4 1a 3f
       1.21311 3.0527942 -0.029242331 0.60529166
0003c0 aa 79 2f c0 7c bd 0f 3f d4 24 56 3f 5c 96 a7 bf
       -2.7418008 0.56148505 0.83649945 -1.3092761
0003d0 c2 87 ae bb 2d dc 84 c1 a1 6c 37 40 93 c8 71 40
       -0.005326242 -16.607508 2.8660052 3.777867
0003e0 01 f7 32 be f1 ef 87 3f aa 82 03 c0 c6 4a eb 3e
       -0.17477037 1.0620099 -2.05485 0.45955485
0003f0 e2 0d bc 3f 3e d7 d0 3f 85 d6 9f 40 88 16 20 40
       1.4691737 1.6315687 4.9949365 2.5013752

outputLayer.bias f4 [2]
000000 58 f5 65 41 82 9d 67 41
       14.372398 14.475954
