ftl/pretrain/weight/finetune_web_0/finetune_web_0_12.pth (torch, 187635 bytes, 8 tensors)

hiddenLayer1.weight f4 [150, 3]
0	0xbbee8064	-0.007278489
1	0xbf8483a3	-1.0352672
2	0xbee20c56	-0.44150037
3	0xbcb1a773	-0.021686291
4	0x39004968	0.00012234377
5	0xbd5b1a1c	-0.053491697
6	0xc0025dfc	-2.0369864
7	0xbf3bae1f	-0.7331256
8	0xbfc30980	-1.5237274
9	0xbda41dbf	-0.08013486
10	0xbba0311c	-0.004888667
11	0x3fbb845b	1.4649767
12	0xb7d2347a	-2.5058387e-05
13	0xbb46fac8	-0.003036188
14	0xbb29cfd7	-0.0025911236
15	0xbdeb567d	-0.11491106
16	0x39e4c539	0.0004363449
17	0xbde5e119	-0.112245746
18	0xc10c5b15	-8.772237
19	0xbbe2f125	-0.0069257193
20	0xbe00d047	-0.12579452
21	0xbf9597c6	-1.1686943
22	0x3bbee366	0.005825448
23	0xbe5130e4	-0.20428807
24	0xbfe5e5c0	-1.7960739
25	0xbd5d9ed0	-0.054106534
26	0x3d891ac7	0.066945605
27	0xbf048dec	-0.51779056
28	0xbda371e6	-0.07980709
29	0xbd91dc97	-0.07122152
30	0xbf7898e7	-0.9710831
31	0x3daa96d3	0.08329549
32	0xc04ef188	-3.233492
33	0xbeab733e	-0.3348636
34	0x3c62331f	0.0138061335
35	0xbec2274c	-0.37920606
36	0xc187e3a0	-16.986145
37	0xbd982347	-0.074286036
38	0xbe568094	-0.20947486
39	0xbd056ddf	-0.032575484
40	0x3b8f1f69	0.004367758
41	0x3d01df0c	0.031706855
42	0xbcb1e0fa	-0.021713722
43	0x3a048cfe	0.000505641
44	0xbbe4d832	-0.0069837803
45	0xbe93a011	-0.28833058
46	0xbc0a5b34	-0.008444596
47	0x3f664739	0.8995243
48	0xbdc16bba	-0.09444375
49	0x3c63ee06	0.01391173
50	0xbcd68e24	-0.026190825
51	0xc207a2b0	-33.908875
52	0x3d519279	0.051165078
53	0xbe6b1876	-0.2295855
54	0xc05de1d0	-3.4669075
55	0xbc5d756d	-0.013516766
56	0xbc505131	-0.01271467
57	0xbd69d3b6	-0.05708667
58	0xba397437	-0.00070745073
59	0xbd0454e2	-0.032307513
60	0x394757d3	0.00019010836
61	0x3c0dd908	0.008657701
62	0xbb9225c6	-0.0044600694
63	0xc02024f5	-2.5022557
64	0x3e8ec37e	0.27883524
65	0x3f903389	1.1265727
66	0xbc226eac	-0.009914082
67	0xbd9c3ae1	-0.07628418
68	0x3b561a0e	0.0032669338
69	0xc13237e8	-11.138649
70	0x3c815f59	0.015792536
71	0xbad465ed	-0.0016204693
72	0x3dc9bf88	0.09850985
73	0xba8585b9	-0.0010186947
74	0x3f4a8e45	0.79123336
75	0xc063c403	-3.5588386
76	0xbe03d1de	-0.12873027
77	0xc0389195	-2.8838856
78	0xbcba423c	-0.022736661
79	0x3b7bbcef	0.0038412174
80	0xbfba0847	-1.4533776
81	0xbd7bbcf0	-0.06145948
82	0xbf361b98	-0.71135855
83	0x3f81dda1	1.0145761
84	0xbf7554a0	-0.9583225
85	0x3ecb520e	0.3971104
86	0xbea22984	-0.316723
87	0xbe9cbd69	-0.30613258
88	0xbd2b71cd	-0.041856576
89	0xbcf246a7	-0.029574705
90	0xbd425fa6	-0.0474545
91	0x3a3a4c9e	0.0007106754
92	0x3ffc84ae	1.9727991
93	0xc0535ca4	-3.3025293
94	0xbe46f49c	-0.19429249
95	0x3f8090eb	1.0044225
96	0xc000d400	-2.0129395
97	0x3f0bbe70	0.5458746
98	0xc011afe9	-2.2763617
99	0xbef04c65	-0.46933284
100	0x3b09b200	0.0021010637
101	0xbd5e0276	-0.054201566
102	0xbd9a9bb3	-0.075492285
103	0xb87cba0d	-6.0254755e-05
104	0xbdcf1c78	-0.10112852
105	0xc020479b	-2.5043705
106	0xbf593c08	-0.84857225
107	0xbf64a1e1	-0.8930951
108	0xbe1f55e3	-0.15560107
109	0x3dc380bc	0.095460385
110	0xc0922b07	-4.5677524
111	0xbe8bbfe4	-0.27294838
112	0x3ba9b2ce	0.005178786
113	0xbe52f169	-0.20599903
114	0xbc87ab5b	-0.0165612
115	0xba37e93b	-0.000701565
116	0xbce39e89	-0.027785556
117	0xc11b8713	-9.720477
118	0xbc33b02c	-0.010967296
119	0xbf89bdb9	-1.0761024
120	0xbd00a3e2	-0.03140629
121	0xbb9b55c0	-0.004740447
122	0xbcd3de74	-0.02586291
123	0xc00f1142	-2.2354283
124	0xbd228e10	-0.039686263
125	0xc0368cef	-2.852352
126	0xbd7dfc86	-0.062008403
127	0x3913ab6b	0.0001408287
128	0xbc3c22d5	-0.011482914
129	0xbe18c981	-0.14920618
130	0xb8528919	-5.0195584e-05
131	0xbd3f8d7e	-0.046765797
132	0xbe800703	-0.2500535
133	0xbf52e758	-0.8238425
134	0xbea70136	-0.3261811
135	0xbfcfe5b5	-1.6241976
136	0x3ea8bde6	0.3295738
137	0xc0639e96	-3.5565543
138	0xbf6549a6	-0.89565504
139	0xbe8e509d	-0.27795878
140	0x3f19467d	0.5987318
141	0xc01a1655	-2.407613
142	0xbeb4c103	-0.35303506
143	0xbfd560d6	-1.6670177
144	0xc0d36989	-6.6066327
145	0xbbdaf268	-0.006681729
146	0x3de346b3	0.11097469
147	0xbfa841f7	-1.3145131
148	0x3d8af054	0.0678412
149	0xbebea926	-0.37238425
150	0xbe0d3da9	-0.13793053
151	0xbf41e94b	-0.757466
152	0xbee0e0ab	-0.43921408
153	0xbe8fbaba	-0.2807215
154	0xbf4aa911	-0.79164225
155	0x3e0a450d	0.13502903
156	0xbdc00e53	-0.09377732
157	0xb98c3beb	-0.00026747523
158	0x4016ffbb	2.3593585
159	0xbff6cc29	-1.9281055
160	0xbc88a60f	-0.016680745
161	0x3ce09bfc	0.02741813
162	0xbd90460a	-0.07044609
163	0xb7fe72e2	-3.0332656e-05
164	0xbd10e71b	-0.03537665
165	0x3cb8e517	0.022570176
166	0xbba9db59	-0.005183619
167	0xc0f350c7	-7.6036105
168	0xbe676205	-0.22595985
169	0xbe8cf466	-0.2753021
170	0xbe97572b	-0.2955869
171	0xbb8cbbd0	-0.00429485
172	0xb93c9993	-0.00017986288
173	0xbdd4afe0	-0.10385108
174	0xc2209ec3	-40.15504
175	0xbcde9b4a	-0.027173657
176	0xbe82703d	-0.25476256
177	0xc01dac60	-2.463646
178	0x3f400551	0.7500811
179	0x3e6708c2	0.22561935
180	0xbce7828e	-0.028260496
181	0x3a0b9b4a	0.0005325569
182	0xbd55071d	-0.052008737
183	0x3ebad361	0.36489394
184	0x3a0bab33	0.000532794
185	0xc0a9eb0f	-5.3099437
186	0xbdcd2a67	-0.10017853
187	0x3d1d8a9a	0.03846226
188	0xc1058926	-8.3459835
189	0xbe73e7f5	-0.23818953
190	0x3f509c27	0.8148827
191	0xbf26d5e4	-0.6517012
192	0xc1c6120b	-24.75881
193	0xbcbc8d85	-0.0230167
194	0x3c3dd2b1	0.011585877
195	0xbe0205a1	-0.1269746
196	0xbe1252e6	-0.14289436
197	0xc03ae617	-2.9202936
198	0xbfa2a281	-1.2705842
199	0x3fc75a0e	1.5574358
200	0x3d5d9a63	0.054102313
201	0x3cfd5ffd	0.03092956
202	0xbb2505ad	-0.0025180385
203	0x40afecc2	5.497651
204	0xbd6735c4	-0.05644776
205	0x3d3e4a01	0.046457294
206	0xbc923311	-0.017846616
207	0xbdb76a95	-0.08955876
208	0x3b432af6	0.0029780245
209	0xbc3326dc	-0.010934558
210	0xc017abf3	-2.36987
211	0x3e04ad1f	0.12956665
212	0x3cafe925	0.021473477
213	0xc17e56a8	-15.896156
214	0x3e5917f0	0.21200538
215	0xbf4f7fd1	-0.8105441
216	0xc0d806d9	-6.750836
217	0x3e9f2a11	0.31086782
218	0x3d0a5250	0.033769906
219	0xbdeb258a	-0.114817694
220	0x3be1ec43	0.0068946197
221	0xbcb236b5	-0.021754602
222	0xbd8f49de	-0.06996511
223	0x3b674c3f	0.003529325
224	0xbbe286b6	-0.0069130315
225	0xbd96bb88	-0.073599875
226	0x39f28acf	0.00046261257
227	0xbdb2cf34	-0.08730927
228	0xbee8f119	-0.45496443
229	0xbf23da63	-0.64005107
230	0xbe897d45	-0.26853386
231	0xbd56c5b2	-0.05243463
232	0xbbb6b996	-0.005576323
233	0xbd28f5fe	-0.04125022
234	0xc0a61d39	-5.191067
235	0x3e25d288	0.16193593
236	0x3ce0b2ca	0.027429003
237	0x3cb57c94	0.02215413
238	0x3b9666c7	0.0045898887
239	0x4049d1fb	3.1534412
240	0xbcc88a59	-0.024480032
241	0x3b6ce2d9	0.0036145954
242	0xbc7eb5f4	-0.015546311
243	0xc1f8dd45	-31.108042
244	0xbdcc4fbe	-0.09976147
245	0xbdebd3cf	-0.11515009
246	0xc0dd13b1	-6.9086537
247	0xbeb1f867	-0.34759828
248	0xbec5e792	-0.38653237
249	0x3819290d	3.6516274e-05
250	0x3a876dac	0.0010332367
251	0xbb1a6a78	-0.0023561995
252	0xbf9b711a	-1.2143891
253	0x3f26ec92	0.6520473
254	0xbe978ed4	-0.29601157
255	0xbfd45941	-1.6589738

hiddenLayer1.bias f4 [150]
0	0xc0b79150	-5.7364883
1	0xbdb36da4	-0.08761147
2	0xbff1d38d	-1.8892685
3	0xbfea8ddf	-1.8324546
4	0xbd743bb5	-0.059627254
5	0xbdba8ab9	-0.091084905
6	0xbea187d8	-0.31548953
7	0x3ebe4e31	0.3716903
8	0xbf3dfe06	-0.74215734
9	0xbf9955b8	-1.1979284
10	0x3e381bc5	0.17979343
11	0xbec2e781	-0.38067248
12	0xbfd0dfbb	-1.6318277
13	0xc0827650	-4.0769424
14	0xbc2fe364	-0.0107353665
15	0x3f0f2670	0.55918026
16	0xbe884024	-0.26611435
17	0xbfbf7e27	-1.4960374
18	0xbeac9a38	-0.3371141
19	0xbd1d1c43	-0.03835703
20	0xbe41183d	-0.18856902
21	0xc080898d	-4.016791
22	0xbf97dd1e	-1.1864355
23	0xbf20c8db	-0.6280648
24	0xc000dcba	-2.013472
25	0x3e4c2a4c	0.1993801
26	0xbf80e5df	-1.0070151
27	0xc10528c0	-8.322449
28	0xc0097159	-2.1475432
29	0xbf24b2e0	-0.6433544
30	0x4062d9bb	3.5445392
31	0xc0b71388	-5.721134
32	0xbfca44bc	-1.5802226
33	0xbdb5ab66	-0.08870582
34	0xbe2fe73c	-0.17178053
35	0xc09b9312	-4.861703
36	0xbf7888b1	-0.97083575
37	0xbe50ea2e	-0.20401832
38	0xbd087945	-0.033318777
39	0xbfb742f9	-1.4317313
40	0xbe15cad2	-0.14628151
41	0xbf884461	-1.0645868
42	0xbc753dd7	-0.014968357
43	0xbd3204ad	-0.04346149
44	0xbf80b1cc	-1.0054259
45	0xbfe94858	-1.8225203
46	0xc07a3aa1	-3.9098284
47	0xbf405afa	-0.7513882
48	0xbf419ff1	-0.75634676
49	0xbf8c639c	-1.0967898
50	0xbf45ef71	-0.77318484
51	0xc091a5a5	-4.5514703
52	0xc0ae05d0	-5.4382095
53	0xbfe408d8	-1.7815199
54	0xbcf7e069	-0.030258374
55	0xbcfe5249	-0.031045096
56	0xc07f0aed	-3.9850419
57	0xbdaa293f	-0.08308648
58	0xbf5d9150	-0.86549854
59	0xc0bd6254	-5.918253
60	0xbdbaf006	-0.09127812
61	0x40273fb0	2.6132622
62	0xbf03e88b	-0.5152671
63	0xbfbb63e7	-1.4639863
64	0xbfcebf27	-1.6152085
65	0xbfa0644a	-1.2530606
66	0xc049c2ab	-3.1525066
67	0x3e03957c	0.12849993
68	0xbf2938b9	-0.66102177
69	0xbd89e183	-0.06732466
70	0xbfee64ae	-1.8624475
71	0xc05555ea	-3.3333688
72	0xbfde98df	-1.7390403
73	0xbe1f799b	-0.15573733
74	0xbda28952	-0.07936348
75	0xbd957d7b	-0.07299324
76	0xc0f29837	-7.581081
77	0xbdf2abda	-0.11849184
78	0xc017222c	-2.3614607
79	0xc0999187	-4.7990146
80	0xbd7e3476	-0.06206175
81	0xc01c15f9	-2.438841
82	0xc00c8d49	-2.1961234
83	0xbce94d62	-0.028479282
84	0xbec49a28	-0.38398862
85	0xc05eb260	-3.4796371
86	0xbfe2cc79	-1.771865
87	0x40168e87	2.3524492
88	0xbc5b3e07	-0.013381488
89	0xbfa30c52	-1.2738135
90	0xbeb1255d	-0.34598818
91	0xbefb5024	-0.4908458
92	0xc008102c	-2.125987
93	0xbff3d1be	-1.9048383
94	0xc05a9eb4	-3.4159365
95	0xbdbf02de	-0.09326719
96	0xbf2327d4	-0.6373265
97	0xc06ab1ee	-3.66711
98	0xbdd0d9b2	-0.10197772
99	0xbff5d674	-1.9206071
100	0xbe0c7f3b	-0.1372041
101	0xbf2156fd	-0.6302336
102	0xc01b7c13	-2.429448
103	0xbf82f3ca	-1.0230649
104	0xc097238a	-4.7230883
105	0xbdb74caf	-0.08950173
106	0xbd127346	-0.035754465
107	0xc03b2194	-2.9239244
108	0xbf875508	-1.0572824
109	0xc0f6442f	-7.695823
110	0xbe085ed1	-0.1331742
111	0xbddee877	-0.10884183
112	0xc06e75c6	-3.7259383
113	0xc068a7d1	-3.6352427
114	0xbee74f41	-0.45177653
115	0xbc8f3361	-0.017480554
116	0xc08f54c9	-4.4790998
117	0xbf8934e0	-1.0719261
118	0xc0535ddc	-3.3026037
119	0xbdf6d34e	-0.12052022
120	0xbd5e2f6c	-0.054244444
121	0xc09a2650	-4.817177
122	0xc177d5f6	-15.489737
123	0xbcd9ad44	-0.026571877
124	0xbd37c3e7	-0.04486456
125	0xbcea5057	-0.028602762
126	0xbfb759c6	-1.4324272
127	0xbe76d501	-0.24104692
128	0xbf53576b	-0.82555264
129	0xbf5e03f8	-0.86724806
130	0xbfbba8a8	-1.4660845
131	0xbf8f865f	-1.1212882
132	0xbe08a95d	-0.13345857
133	0xbfc3cbcf	-1.5296572
134	0xbf0fa0fd	-0.56105024
135	0xc0312f11	-2.7684977
136	0xbe43e338	-0.19129646
137	0xbec47539	-0.38370684
138	0xc07b8f0e	-3.9306064
139	0xbdce5bfd	-0.10076139
140	0x40588a71	3.3834498
141	0xc07bec09	-3.9362814
142	0xc10192ce	-8.098341
143	0xbf5c864d	-0.86142427
144	0xbe8f16d1	-0.27947095
145	0xbc613bfb	-0.013747211
146	0xc043123d	-3.0479882
147	0xbeda0b2c	-0.42586648
148	0xbe005524	-0.12532479
149	0x3f8b0a1c	1.086246

hiddenLayer2.weight f4 [150, 150]
0	0xbeac28d0	-0.33624887
1	0x3d9be3a3	0.07611778
2	0xbfe3ec03	-1.78064
3	0xbfe4ced9	-1.7875625
4	0xbf1849ac	-0.59487414
5	0x3e7f00e1	0.24902679
6	0xc0a85a1c	-5.2609997
7	0xbf232c17	-0.6373915
8	0x4082e337	4.090236
9	0xbfb3f89d	-1.4060246
10	0xc0efc16b	-7.4923606
11	0xc01f8a4c	-2.492816
12	0xc12d63fa	-10.836908
13	0xbdf30b5f	-0.11867403
14	0x3dcde6cc	0.10053787
15	0x3f81ed82	1.0150607
16	0xbdc5df95	-0.096617855
17	0x3eead565	0.45865932
18	0xbd2034ae	-0.03911274
19	0xbe0b61c5	-0.13611515
20	0xc049f2e7	-3.1554506
21	0xbec2631d	-0.37966242
22	0xbed3c798	-0.41363215
23	0xc0020fa9	-2.0322058
24	0xc0868980	-4.2042847
25	0xbfca22a3	-1.579182
26	0x3f5886a5	0.8458045
27	0xc007bced	-2.120906
28	0x4013e1b3	2.3106506
29	0xbf435342	-0.76298916
30	0xbf2d81f6	-0.6777643
31	0xbf55d1b0	-0.8352308
32	0xc09b3ce7	-4.8511844
33	0xbe87db09	-0.26534298
34	0xbdace18e	-0.08441459
35	0xbed66eb1	-0.41881326
36	0xbfb46f41	-1.4096452
37	0xbecc4e72	-0.399036
38	0x3d8b368d	0.06797514
39	0xc0ad7765	-5.4208245
40	0xbe593432	-0.21211317
41	0xc1b7d4e3	-22.978949
42	0xbdc1006e	-0.0942391
43	0xbe3e5bcc	-0.18589705
44	0xbca000b2	-0.019531582
45	0x3e9dc499	0.30814055
46	0xbfb86778	-1.4406576
47	0xc1575702	-13.458742
48	0xc10ed2d0	-8.926468
49	0x400f4dbf	2.2391202
50	0xc091abec	-4.5522366
51	0x3fd3589d	1.6511418
52	0xbf93ddb9	-1.1552039
53	0xc09378ed	-4.6085114
54	0x3ca1958e	0.019724634
55	0xc16efc7e	-14.936644
56	0xc0a9a814	-5.3017673
57	0x3dd53dec	0.10412201
58	0x402bee4f	2.6864202
59	0xbfc40250	-1.5313206
60	0xbef2c533	-0.47416076
61	0xbf03b465	-0.51447135
62	0xbee9ad4c	-0.45640028
63	0xc19bb834	-19.464943
64	0xc131e4d5	-11.118367
65	0x3f04e030	0.5190458
66	0xc10b8d5e	-8.722013
67	0xc142abc2	-12.166933
68	0x3f1ff987	0.62490124
69	0xbdd92e6c	-0.106045574
70	0x4002e0cc	2.0449705
71	0xc0c8f414	-6.2797947
72	0xc217f18b	-37.98588
73	0xbd28a1ee	-0.041170053
74	0xbd39146e	-0.0451855
75	0xbe32f4b3	-0.17476158
76	0xc0837587	-4.1080966
77	0xbe88b786	-0.26702517
78	0xc0c4ff7b	-6.1561866
79	0xbe804572	-0.25052983
80	0xbdfc164e	-0.12308942
81	0x402cdeb0	2.7010918
82	0xbdc352bd	-0.095372654
83	0xbdabab7f	-0.0838232
84	0x3fb9e270	1.4522228
85	0xc042f79a	-3.0463624
86	0xc0c20926	-6.0636168
87	0xbe88a9a0	-0.26691914
88	0x3e8bbda9	0.27293137
89	0x405ad47e	3.4192195
90	0xc0c5f313	-6.185922
91	0xbee0d5e2	-0.4391318
92	0xc02ecb4c	-2.7311583
93	0x409a295a	4.817548
94	0xbe91ad43	-0.284525
95	0x3fd66878	1.6750631
96	0xbe776253	-0.24158601
97	0xbe9519ca	-0.29121238
98	0x3f6efc10	0.93353367
99	0xc0a35c28	-5.1049995
100	0x3ece5cee	0.40305275
101	0x3fecfb45	1.8514181
102	0x3ffb6cad	1.964254
103	0xbbbdd95f	-0.005793735
104	0xbf415e43	-0.75534457
105	0x3efcb319	0.4935539
106	0x3ea9a7fb	0.3313597
107	0x3e1ef0a4	0.15521485
108	0xc08b51c2	-4.35373
109	0xbf51295a	-0.8170372
110	0x40b24f39	5.5721707
111	0xbdf38eb0	-0.1189245
112	0xc04f62aa	-3.240397
113	0x3f67d28c	0.90555644
114	0xc081500d	-4.041022
115	0x3c2de3d8	0.010613404
116	0xc080d694	-4.0261936
117	0x40d4b1ad	6.646689
118	0xc138ff60	-11.562347
119	0xbe447a15	-0.19187196
120	0xbc98e73a	-0.018664945
121	0xbfedcb6b	-1.8577703
122	0xbea0f78a	-0.31438857
123	0xbda53b85	-0.08067993
124	0xbdaff143	-0.08590939
125	0xbe74002e	-0.23828194
126	0xc020ba9c	-2.5113897
127	0x40123234	2.2843142
128	0xc00a7394	-2.1633043
129	0x3f928237	1.1445988
130	0xbeb7b450	-0.35879755
131	0xbe1f7da4	-0.15575272
132	0xbde6bb25	-0.11266164
133	0xbf9ec069	-1.2402469
134	0xc098dc3d	-4.7768846
135	0xc128fdd9	-10.561975
136	0x3fe463cc	1.7842956
137	0xc0156db4	-2.3348207
138	0x3fc1a8a3	1.5129589
139	0x3dad02d7	0.08447807
140	0xbed9112b	-0.4239591
141	0xbf5f116b	-0.8713595
142	0xbf1a914f	-0.60377973
143	0xbf2a74d3	-0.6658451
144	0xbf72c631	-0.94833666
145	0xbce73d7f	-0.028227566
146	0xc0be263a	-5.9421663
147	0xc06f591a	-3.7398133
148	0x3d58b2b6	0.052904807
149	0x40094715	2.1449635
150	0xc18c1df3	-17.514624
151	0x3d37d3e2	0.0448798
152	0xbf157941	-0.58388144
153	0x3ffc3163	1.9702572
154	0xbd891c63	-0.066948675
155	0xbe7d3e20	-0.2473073
156	0xc0b0e6e0	-5.528183
157	0xc0069683	-2.1029365
158	0xbdc59d07	-0.09649091
159	0xc0a04f94	-5.009714
160	0xbf2a2dab	-0.66475934
161	0xbfa856f0	-1.3151531
162	0x3fb929c4	1.4465871
163	0xc0aeabf9	-5.4584928
164	0x3cc9bc2c	0.02462586
165	0xbf37fd27	-0.71870655
166	0x3e3e9752	0.18612412
167	0xc059d3f5	-3.4035618
168	0xbf606f88	-0.87670183
169	0xbd64f44f	-0.055897053
170	0x40bf8628	5.9851265
171	0x3f84ae8b	1.0365766
172	0x3f0b5452	0.5442554
173	0xbfb523d3	-1.4151558
174	0xc0bb8906	-5.8604765
175	0xbf6cec7e	-0.9254836
176	0xbf45777c	-0.77135444
177	0xbf676410	-0.9038706
178	0xc01cee5e	-2.4520488
179	0xbf0d3d45	-0.55171615
180	0xbfca5bd1	-1.580927
181	0x3ef8fa4d	0.48628464
182	0xbff61243	-1.9224323
183	0x3eca62de	0.39528555
184	0x3eb11752	0.34588104
185	0xbf033862	-0.5125791
186	0xbfaa5ad3	-1.3308967
187	0x3ec31b95	0.3810698
188	0x3d42d74f	0.047568616
189	0x40267c8f	2.6013525
190	0xbf0a6a01	-0.54068
191	0x4002be34	2.042859
192	0xbc3e6e6b	-0.011623005
193	0xbcc5172a	-0.024058897
194	0xc0f61640	-7.690216
195	0xbf22dc58	-0.6361747
196	0x3fbf0d35	1.4925905
197	0xbf20d4ac	-0.6282451
198	0xc1132b46	-9.198065
199	0xbee933c9	-0.4554732
200	0x40223070	2.5342064
201	0x3f06625f	0.5249385
202	0xc084ec7e	-4.1538687
203	0x402daeb7	2.7137887
204	0xbe0e39ac	-0.13889188
205	0xbf9bca76	-1.2171161
206	0x4035f80a	2.843264
207	0xbea3f407	-0.32022116
208	0xbdd5f62d	-0.10447345
209	0xbf4aed7c	-0.7926862
210	0xbf4cd02f	-0.8000516
211	0xc043e939	-3.0611098
212	0x3e8e254e	0.27762836
213	0xbf9b79cb	-1.2146543
214	0x408f688b	4.4815116
215	0xbeedd9be	-0.46455187
216	0xc024d5ac	-2.5755415
217	0xbe7cc171	-0.24683167
218	0xbec76be4	-0.38949502
219	0xbe1be2e3	-0.15223269
220	0xc0724afe	-3.7858272
221	0x3f93d700	1.1549988
222	0xc02a1244	-2.6573648
223	0x3db6860a	0.08912285
224	0xbdaf4373	-0.08557787
225	0x3de7ce4a	0.113186434
226	0x402b2cd4	2.674611
227	0xbea9ccf8	-0.3316419
228	0x3f00d647	0.5032696
229	0x40a52ec3	5.161958
230	0x3e727f4c	0.23681372
231	0xc00ba317	-2.1818292
232	0xc12de938	-10.869438
233	0xbd2f2d20	-0.042767644
234	0xbffba0fc	-1.9658504
235	0xbff88e3c	-1.9418406
236	0xc093d648	-4.6199074
237	0xc072447d	-3.7854302
238	0xbc936e97	-0.01799707
239	0xbfea853e	-1.8321912
240	0xbe1f9aa6	-0.15586337
241	0xbf891cc6	-1.0711906
242	0xbfc884bf	-1.5665511
243	0x3fedc0be	1.8574445
244	0xbfb7e280	-1.4365997
245	0xbfe5da90	-1.7957325
246	0x3d0de479	0.034641717
247	0xc01e41e8	-2.4727726
248	0x3e959d76	0.29221696
249	0x3f0a9e40	0.5414772
250	0x3f058abd	0.5216482
251	0x3f522bbd	0.8209799
252	0xbf3f6796	-0.74767435
253	0xbf55c42b	-0.83502454
254	0xc104b3a2	-8.293856
255	0xbf8f160a	-1.1178601

hiddenLayer2.bias f4 [150]
0	0xbf03a241	-0.51419455
1	0xc002e048	-2.044939
2	0x3ffd11de	1.9771078
3	0x3e095707	0.13412105
4	0xbf85887a	-1.0432274
5	0x3a265259	0.0006344668
6	0x3fff4ff2	1.9946272
7	0x3c5de9b5	0.01354449
8	0x40e7111f	7.22084
9	0x3e9095be	0.28239244
10	0xbe22a09a	-0.15881577
11	0x3d898dd2	0.06716503
12	0x3f490d40	0.7853584
13	0xbef45a81	-0.477253
14	0xbd910cf6	-0.0708255
15	0xc08d1d37	-4.4098163
16	0x4080072a	4.0008745
17	0x3eaf9447	0.34292814
18	0x3fccd206	1.6001594
19	0x3fc2dd89	1.5223857
20	0xbefc7c8d	-0.49313775
21	0xbd8dad3a	-0.06917806
22	0xbf53c1fd	-0.8271788
23	0xbfdab173	-1.7085403
24	0xbdd9061a	-0.10596867
25	0xbfb1c9cd	-1.388971
26	0xbfe52095	-1.7900568
27	0x3e91e2b9	0.28493288
28	0x3e0d2cc8	0.13786614
29	0xbead627d	-0.33864203
30	0x3f327a0b	0.6971747
31	0xbe4581f3	-0.19287853
32	0xbf04456a	-0.5166842
33	0xbf58a933	-0.8463318
34	0x401a99dc	2.4156408
35	0xc0228d7a	-2.539885
36	0xbe20e20e	-0.15711233
37	0xbefa46ae	-0.4888205
38	0xbfd684ff	-1.6759337
39	0x3e580081	0.21093942
40	0xbf66913a	-0.9006535
41	0xbc484205	-0.0122227715
42	0xbe408178	-0.18799388
43	0xbd9a0255	-0.07519976
44	0xbffa4234	-1.9551454
45	0xbf09d791	-0.53844553
46	0xc08470ba	-4.1387606
47	0xc0454787	-3.0824907
48	0x3945bcc0	0.00018857699
49	0xbf3526c4	-0.70762277
50	0xbe754284	-0.23951155
51	0xbf98238c	-1.1885848
52	0xbf764df3	-0.9621269
53	0xbee53b8d	-0.44771996
54	0x3e13244b	0.14369313
55	0xbe42f7e8	-0.19039881
56	0xbdcc17f4	-0.09965506
57	0xbf4250f3	-0.7590477
58	0x3d5a9f79	0.05337474
59	0xbe91c3b1	-0.28469613
60	0xbe823994	-0.25434554
61	0xbec1fce5	-0.37888256
62	0xbf52ce2c	-0.82345843
63	0xbda446bf	-0.08021306
64	0xbf592a3d	-0.84830076
65	0x40956b95	4.6693826
66	0xc042d463	-3.044213
67	0x3cecda7b	0.028912773
68	0xbec20c67	-0.37900087
69	0x3f5abca0	0.8544407
70	0x4003bdd2	2.0584607
71	0xbfa24322	-1.2676737
72	0x3f3daebe	0.7409476
73	0x3f0a84ad	0.541087
74	0xbf0801c0	-0.5312767
75	0xbf1880cf	-0.59571546
76	0xbe049641	-0.12947942
77	0xbee6a0fd	-0.450447
78	0xbe864780	-0.26226425
79	0xbf269c98	-0.65082693
80	0xbfd47ec5	-1.6601187
81	0xbe94ac93	-0.29037914
82	0xbfa9b436	-1.3258121
83	0xbf8112b1	-1.0083829
84	0x3dacf950	0.0844599
85	0xbfd0377c	-1.6266932
86	0x3f3f09fe	0.7462462
87	0xbe03da18	-0.12876165
88	0x3f9984e6	1.1993682
89	0xbe03920f	-0.12848686
90	0xbf81fbf4	-1.0155015
91	0xbe962252	-0.2932306
92	0xbf478793	-0.77941245
93	0x3f7729d6	0.9654821
94	0xbf210f2d	-0.6291378
95	0xbd8403e3	-0.06446054
96	0xbd3ef67a	-0.046621777
97	0xbe0fd12e	-0.1404464
98	0xbf58e7ae	-0.84728515
99	0x40ea1fc2	7.3163767
100	0xbff16ff7	-1.8862294
101	0xbea33216	-0.3187415
102	0xbe0be289	-0.13660635
103	0x3ef998a0	0.48749256
104	0x3cce373f	0.025172828
105	0x3fe3f99b	1.7810549
106	0x3b2f9cda	0.0026796372
107	0xbe495206	-0.19660196
108	0xbd9920c8	-0.07476956
109	0xc10655e4	-8.395969
110	0xbd5d5e82	-0.054045208
111	0xbeded9f1	-0.4352565
112	0xbe587633	-0.2113884
113	0x3e92c4fb	0.2866591
114	0x3f3e92c2	0.74442685
115	0xbdafcd2c	-0.08584055
116	0xc0061628	-2.0951023
117	0xbff470d6	-1.9096935
118	0xbed3ef03	-0.4139329
119	0xbf545f4b	-0.82957906
120	0xbd9eecc1	-0.07760001
121	0xbf7e5a6e	-0.99356735
122	0xbfb1e0a2	-1.3896677
123	0xbdbc119e	-0.09183048
124	0xbf087da9	-0.5331674
125	0x3f4c8ff1	0.7990714
126	0xbf51f3cc	-0.8201263
127	0xbe21daa2	-0.15806058
128	0x3f0f1955	0.5589803
129	0xbe0b5cc4	-0.13609606
130	0xbf2565f1	-0.64608675
131	0xbe595ee3	-0.21227603
132	0x40c8befc	6.2733135
133	0xbfda81bc	-1.7070842
134	0xbedaadd9	-0.4271076
135	0xbd80b578	-0.062846124
136	0xc0390671	-2.8910182
137	0xbf947f16	-1.1601284
138	0x3f022fc1	0.50854117
139	0x3f478ade	0.7794627
140	0x3e25a4ea	0.16176191
141	0xbfc57cc6	-1.5428703
142	0xbd8c2311	-0.06842626
143	0xbf2814e3	-0.6565687
144	0xbf57c7e8	-0.8428941
145	0xc0139ad8	-2.306326
146	0x3f2ddf95	0.67919284
147	0xbe78bd44	-0.24290949
148	0xbf5ff1fb	-0.8747861
149	0x3e983df0	0.29734755

hiddenLayer3.weight f4 [150, 150]
0	0x40269723	2.6029747
1	0x3f48b2e1	0.7839795
2	0xc0051810	-2.0795937
3	0xbe5e798b	-0.21726052
4	0xbf35f1c0	-0.71072006
5	0xbfa377db	-1.2770952
6	0x3e173389	0.14765753
7	0xbeb10d5c	-0.34580505
8	0x3e89ad62	0.26890093
9	0xbf8636c5	-1.0485464
10	0xbd1df6f8	-0.038565606
11	0x3f659388	0.8967824
12	0xbea42402	-0.32058722
13	0x3e873e2e	0.26414627
14	0xbd21b3e4	-0.039478198
15	0x3ee0dfb9	0.43920687
16	0xbfb443ff	-1.4083251
17	0xbfa714f1	-1.3053266
18	0xc1590cc9	-13.565621
19	0xc137b05a	-11.480555
20	0xbf09ac6f	-0.5377874
21	0xbd614e08	-0.055006057
22	0x3d87f5e5	0.066386975
23	0x3f16909a	0.58814394
24	0x3d2bb3cb	0.04191951
25	0x3d0e0e96	0.03468188
26	0xc071f01f	-3.7802808
27	0xbe72e944	-0.23721796
28	0x405c1805	3.438966
29	0xc018735c	-2.382041
30	0xbe21cc43	-0.15800576
31	0x3e507f3c	0.20361036
32	0xc01aa3ef	-2.4162557
33	0xbffba070	-1.9658337
34	0xbf9d3ec7	-1.2284783
35	0xbf469be6	-0.7758163
36	0xbf259653	-0.646825
37	0xbd93208b	-0.071839415
38	0xc094ab57	-4.6459155
39	0x4007df5d	2.123008
40	0x407eb8b6	3.9800239
41	0xc0014b32	-2.0202146
42	0x3edaf1c7	0.42762586
43	0x3c97aa37	0.018513782
44	0x41223500	10.137939
45	0x3e5f43cf	0.2180321
46	0x402f23d3	2.7365615
47	0xbe5bd66d	-0.21468516
48	0xc00ac9a7	-2.168558
49	0x3f7a6e4b	0.97824544
50	0xba3c7073	-0.0007188387
51	0xc01458af	-2.3179128
52	0xbf1e0476	-0.61725557
53	0x3f8db663	1.1071285
54	0xc0ea95bf	-7.3307796
55	0xbfd51daa	-1.6649678
56	0xbee44500	-0.44583893
57	0xbf5d1421	-0.8635884
58	0x3d870a5d	0.065937735
59	0x3fd6bbdc	1.677608
60	0xbeaf7e6f	-0.3427615
61	0x3f07d59a	0.53060305
62	0x3fac14dc	1.3443866
63	0x40d1316a	6.537282
64	0xc0b46401	-5.6372075
65	0x3ffcc0df	1.974636
66	0xc07be6d4	-3.9359636
67	0x3e1050e4	0.14093357
68	0x3e276cf4	0.16350156
69	0xc056a874	-3.3540316
70	0xc0489bc8	-3.1345081
71	0x3fcc93ae	1.5982568
72	0xbd7c6114	-0.06161602
73	0xbe830cbc	-0.25595653
74	0x3f01d403	0.5071413
75	0xbd51c6dc	-0.051215038
76	0xc04cc13c	-3.199294
77	0xc0487468	-3.1321049
78	0xc1119a42	-9.100161
79	0xbf27d12d	-0.6555355
80	0xbfe31c38	-1.7742987
81	0xbe1cbe42	-0.15306953
82	0xbee91bc6	-0.45529002
83	0x3e66ee1e	0.22551772
84	0xbf1f1a07	-0.6214909
85	0xc1107a2a	-9.029825
86	0xbec7a737	-0.38994762
87	0x3e0eb786	0.13937196
88	0x407c1c8b	3.9392421
89	0x3af1db1a	0.0018452138
90	0xbfc2c293	-1.5215629
91	0x4004982f	2.0717885
92	0x3f3127e6	0.69201505
93	0x403b485f	2.9262922
94	0xc00972cd	-2.147632
95	0xc010ca7e	-2.2623591
96	0xc0c23318	-6.068737
97	0x3e05b89a	0.13058701
98	0x3fed4af3	1.8538498
99	0x3ebc2be2	0.3675223
100	0xc0c7ca29	-6.2434278
101	0xbea31dde	-0.31858724
102	0x3e8b3df8	0.27195716
103	0x40c160ca	6.043065
104	0xbd231f47	-0.03982475
105	0xc0469602	-3.1029058
106	0xc0cb1139	-6.3458524
107	0x3eedcac4	0.4644376
108	0x4012bb40	2.2926788
109	0xbcd11ecb	-0.025527379
110	0xbe210355	-0.15723927
111	0xbf0a1aef	-0.5394735
112	0x3d1e8e92	0.038710184
113	0x3c942dc7	0.018088235
114	0x3e482c30	0.19548106
115	0xc00543e8	-2.0822697
116	0x3dc5a79d	0.0965111
117	0xbf9d06ba	-1.2267678
118	0x3ea787fe	0.3272094
119	0x408be193	4.371286
120	0x3d09c778	0.033637494
121	0x3ea7ce12	0.32774407
122	0xc05a03ad	-3.4064744
123	0x3dbc161e	0.09183906
124	0xbd632f4c	-0.055465028
125	0x4044c602	3.0745854
126	0x3f2f1495	0.6839078
127	0xbfe9d44d	-1.8267914
128	0x3f095cc0	0.5365715
129	0xbd998aa4	-0.07497147
130	0xc013c59f	-2.3089368
131	0xbfb9bb55	-1.4510294
132	0xbf35f607	-0.7107853
133	0x3f15350f	0.58284086
134	0xbfb890e5	-1.4419218
135	0x3f0ca060	0.5493221
136	0xc0fad139	-7.83804
137	0xbeaeaa49	-0.34114292
138	0xc0752898	-3.8306026
139	0x40a19d35	5.0504403
140	0x3d8754ba	0.06607957
141	0xbfda8c37	-1.707404
142	0xbca67ddf	-0.020323692
143	0x3e18532e	0.1487548
144	0xc05628bd	-3.3462365
145	0x3faeff37	1.3671635
146	0x3fcdc850	1.6076756
147	0x3dd0a6c5	0.10188059
148	0x3f91311f	1.1343116
149	0xbeac9189	-0.33704785
150	0xbf3c4107	-0.73536724
151	0xc044739a	-3.0695558
152	0xc1380efe	-11.50366
153	0xc096b8e8	-4.7100716
154	0xbf46af35	-0.77611095
155	0xc0beb706	-5.9598417
156	0xc0268720	-2.6019974
157	0x3f1b3c3e	0.606388
158	0xbf0f3bd2	-0.55950654
159	0xc0ba276c	-5.8173122
160	0xc091d39b	-4.5570807
161	0xbfdf057b	-1.7423548
162	0xc0b00083	-5.5000625
163	0xc0ab65f5	-5.356196
164	0xbc9ba90a	-0.019001503
165	0xbe936524	-0.28788102
166	0xc001a0b6	-2.025434
167	0x3edc8d12	0.43076378
168	0xc03ea198	-2.978613
169	0xbf9c8561	-1.2228204
170	0x3fdd009c	1.7265811
171	0xbd0e6513	-0.03476436
172	0xbed2b101	-0.41150668
173	0xc02fbe69	-2.7459967
174	0x3d2fa87f	0.0428853
175	0x405a29e1	3.408806
176	0x40227919	2.5386412
177	0x3f73a7d5	0.95177966
178	0xbea9079e	-0.33013624
179	0xc1a51338	-20.634384
180	0xbfc0578d	-1.5026718
181	0x3f16feef	0.5898275
182	0xc0a63c40	-5.1948547
183	0xbcfc42cb	-0.030793568
184	0xbff947f9	-1.9475089
185	0xc0499cd4	-3.150197
186	0x3f187a14	0.59561276
187	0xc0cd96fd	-6.424681
188	0x40704601	3.7542727
189	0xc010761e	-2.2572093
190	0xc0638ed6	-3.555593
191	0xc01247f2	-2.2856412
192	0x40602d2c	3.502757
193	0x3d9abbf5	0.07555381
194	0xc1011628	-8.067909
195	0x3cce3580	0.025171995
196	0xbecd1242	-0.40052992
197	0x3fcbb1a5	1.5913588
198	0xbf81b500	-1.0133362
199	0x3ec5e70b	0.38652834
200	0xbda3ba04	-0.07994464
201	0x40803826	4.006854
202	0xc0d97086	-6.794986
203	0x3edc8c7b	0.43075928
204	0xbee8de9b	-0.45482334
205	0xbe7818c3	-0.24228196
206	0xbe1c0864	-0.15237576
207	0x3ff6eeb1	1.9291593
208	0xbe89f93b	-0.2694796
209	0xbe4500a1	-0.19238521
210	0xbe0c691a	-0.13711968
211	0xc1211ba0	-10.069244
212	0xc0b98d83	-5.7985244
213	0x3f0f4268	0.559607
214	0xc162679b	-14.150294
215	0xbf17f4fa	-0.5935818
216	0xc0480316	-3.1251884
217	0xbf19edb4	-0.6012833
218	0xbe1321e5	-0.14368398
219	0xbebac5ff	-0.36479184
220	0x3fb1c307	1.3887643
221	0x3f4df26d	0.8044804
222	0x3de6093b	0.11232229
223	0xbffc8128	-1.9726915
224	0x3b4c13e8	0.0031139795
225	0x3f8bb19b	1.0913576
226	0xbfa83143	-1.3140033
227	0xc0bec5d8	-5.961651
228	0xc06e2bf0	-3.7214317
229	0xbb374338	-0.002796365
230	0xc06e1c50	-3.720478
231	0x403353bf	2.8019865
232	0xbfa57a8e	-1.2928026
233	0xc01798ae	-2.3686938
234	0xbf51ff59	-0.82030255
235	0xc1966565	-18.79951
236	0x3f41217c	0.7544172
237	0xbdcc6167	-0.099795155
238	0x3f468619	0.77548367
239	0x3d715136	0.05891534
240	0x403b65bf	2.928085
241	0xc0b68558	-5.7037773
242	0x40142b2a	2.3151345
243	0x3f101c30	0.5629301
244	0x3eaa9e01	0.33323672
245	0xc07219ce	-3.782825
246	0xc0b8c760	-5.774338
247	0x3f25aad3	0.6471378
248	0x40b7dfd2	5.746072
249	0xbed3fada	-0.41402322
250	0xc0a757f9	-5.229489
251	0xbd2eec4f	-0.04270583
252	0x3e678220	0.22608232
253	0xc0a13be2	-5.03856
254	0x3cbb1a1d	0.0228396
255	0x40a1543e	5.0415335

hiddenLayer3.bias f4 [150]
0	0x410ff946	8.998358
1	0x40f9d5e7	7.807361
2	0xbe948735	-0.29009405
3	0xbf17d406	-0.593079
4	0x3e582b4f	0.21110271
5	0x40be95ac	5.9557705
6	0xc0889a0d	-4.268805
7	0x3f36e11a	0.7143723
8	0xbf17d116	-0.59303415
9	0xbf89b872	-1.0759413
10	0xbe91f3c4	-0.2850629
11	0x4032501e	2.78614
12	0xbee72468	-0.45144963
13	0xc04b12cf	-3.173023
14	0x40d2598a	6.57343
15	0xbf86ff37	-1.0546635
16	0xbea8aa16	-0.32942265
17	0x40c2bffe	6.0859365
18	0xbe225155	-0.15851338
19	0xbf3c0d26	-0.7345756
20	0x409702ed	4.719107
21	0xbf0b4e94	-0.54416776
22	0x41507055	13.027425
23	0x3fcb8400	1.5899658
24	0xbf24222a	-0.6411463
25	0x405e4c54	3.4734087
26	0x40b51ee8	5.6600227
27	0xbe30c9c6	-0.1726447
28	0x407fcde6	3.996942
29	0x3faf2149	1.3682033
30	0x3d0cd3ed	0.034381796
31	0x4102a06a	8.164164
32	0xbf1389b3	-0.5763199
33	0x40bd6b86	5.9193754
34	0xbf901247	-1.1255578
35	0xbee5c77a	-0.4487875
36	0x40f7a939	7.739407
37	0x401b1cf1	2.4236414
38	0xbfbbda5b	-1.4676012
39	0xbf3b77d4	-0.7322972
40	0x3d9c277a	0.07624717
41	0xbebaeff0	-0.36511183
42	0x403a78f0	2.9136314
43	0xbf48c0e6	-0.7841934
44	0xbd785385	-0.060626525
45	0x40ca4fdf	6.32225
46	0xbf2db463	-0.67853373
47	0x416c09a6	14.752356
48	0xbf389c53	-0.7211353
49	0x4081b6f9	4.0535855
50	0x412f836d	10.969586
51	0xbe624ba6	-0.2209917
52	0xc11ee405	-9.930669
53	0xbd9e77c5	-0.07737688
54	0xbe8eb680	-0.2787361
55	0x40778bd2	3.867909
56	0xbf2aee0a	-0.6676947
57	0x40d42573	6.6295714
58	0x40423f67	3.0351198
59	0xc15258ce	-13.146681
60	0xbf383b5e	-0.7196559
61	0xbe01ed30	-0.12688136
62	0xbefe821a	-0.49708635
63	0x41077feb	8.46873
64	0xbe4a1c9b	-0.19737475
65	0xbf0c5b55	-0.5482686
66	0xbf3db79c	-0.7410829
67	0xc109d17a	-8.613642
68	0xbf6fa5b6	-0.9361223
69	0xbe3bae0e	-0.18328115
70	0x40e7b105	7.240359
71	0x3fc96280	1.5733185
72	0x3f84d480	1.037735
73	0x4133e983	11.24451
74	0x4106a8ba	8.416193
75	0x40606de0	3.5067062
76	0xc10b50f7	-8.707267
77	0xbfa2741d	-1.2691685
78	0x41102053	9.007892
79	0xbf6fb48f	-0.93634886
80	0xbf919db0	-1.1376247
81	0x411038d4	9.013874
82	0x40566346	3.3498092
83	0x3e7ad6b6	0.24495968
84	0xc01ba9dc	-2.4322424
85	0xbdac628e	-0.08417235
86	0xbee1e4af	-0.44119784
87	0xbeda8e2e	-0.426866
88	0xbde47d26	-0.11156683
89	0xbea85354	-0.32876074
90	0x4000f439	2.0149062
91	0x412c7228	10.77787
92	0xbea2bd3e	-0.31785005
93	0xbff9e466	-1.9522827
94	0xbe632c69	-0.2218491
95	0xc0863f6b	-4.1952415
96	0x4109eb5f	8.619964
97	0xbf2b013e	-0.6679877
98	0xc11ddd14	-9.866474
99	0x411baab0	9.729172
100	0xbe91ab3a	-0.28450948
101	0x40c2b041	6.0840154
102	0xbf1d3985	-0.6141589
103	0xbee96cb1	-0.45590737
104	0x405939e0	3.3941574
105	0xbdc49a55	-0.09599749
106	0x40927540	4.5768127
107	0xbf9c9327	-1.2232407
108	0xbe0417c8	-0.12899697
109	0x4162210f	14.133071
110	0xbf5930f9	-0.8484035
111	0x3fc19543	1.5123676
112	0x412158e5	10.084203
113	0x3e0b64cc	0.1361267
114	0x3fde9a42	1.7390826
115	0x41693b19	14.576928
116	0x3c07a025	0.0082779275
117	0xbd30cecd	-0.04316597
118	0x4168db70	14.553574
119	0xbfeedec0	-1.8661728
120	0xbf02a5d7	-0.510343
121	0xbed30477	-0.41214344
122	0xbdd64008	-0.10461432
123	0xbe00da80	-0.12583351
124	0xbe9b9bea	-0.3039239
125	0xc1130cd0	-9.190628
126	0x3c761aa4	0.015021
127	0xbe3d1410	-0.18464684
128	0x40a3f79d	5.123976
129	0x40e8a1df	7.2697597
130	0xbf2c15f3	-0.6722099
131	0x40d5f9ad	6.686728
132	0xbfd428a0	-1.6574898
133	0x4079dde3	3.904168
134	0x3f74fe81	0.9570084
135	0x41455298	12.3326645
136	0xbf6eab02	-0.9322969
137	0xc086e339	-4.215237
138	0x3f3976b4	0.7244675
139	0xbe5f18b9	-0.21786775
140	0xbd8538fd	-0.0650501
141	0x4123c691	10.235978
142	0xbf01d8c2	-0.5072137
143	0xc0dfbcd9	-6.9918027
144	0x406aa4b3	3.6663024
145	0x3e53c877	0.2068194
146	0x3f96cc4e	1.1781099
147	0x40ab9583	5.362001
148	0xc05f1e51	-3.4862254
149	0xbcc23e51	-0.023711355

outputLayer.weight f4 [2, 150]
0	0x3f8bf7d8	1.0935011
1	0x402c3a29	2.6910498
2	0x392995e5	0.00016172936
3	0xbeed6001	-0.46362308
4	0x3de60ffe	0.11233519
5	0x3f0bb436	0.54571855
6	0xc0aa57db	-5.3232245
7	0x3c642f12	0.013927238
8	0xbfc5f22a	-1.5464528
9	0x402c0c7d	2.6882622
10	0x3ef33bc0	0.47506523
11	0x3fd546ea	1.6662266
12	0x3efac936	0.48981637
13	0xc02f866a	-2.742579
14	0x3f685d1c	0.90767074
15	0x3f9536e3	1.1657375
16	0x3c972ccf	0.018453984
17	0x3f44f5f7	0.7693781
18	0xbcab5fc9	-0.020919697
19	0x3ff79fd5	1.9345652
20	0x3f912cf0	1.1341839
21	0xbce43bde	-0.027860578
22	0x3fc1467e	1.5099638
23	0x40037f6b	2.054652
24	0xc0569ea0	-3.3534317
25	0x4111567e	9.083616
26	0x3e74ccc8	0.23906243
27	0x3e924096	0.285649
28	0xbd880841	-0.06642199
29	0x3ffa88df	1.957302
30	0xbf12cdb8	-0.5734515
31	0x401f6a4b	2.4908626
32	0x40ab630a	5.3558397
33	0x3f7e83f9	0.99420124
34	0xc0e1362d	-7.0378633
35	0x3f0a4fce	0.5402802
36	0x3f85cfe7	1.0454072
37	0x3f3334bd	0.7000235
38	0xbdae7805	-0.08518986
39	0x3f874960	1.0569267
40	0x3d392594	0.045201853
41	0x3f7cd24d	0.98758394
42	0x41530948	13.189766
43	0x3f862754	1.0480752
44	0x3de95c35	0.1139454
45	0x3f900cb0	1.1253872
46	0x3f7555a1	0.95833784
47	0x401452fb	2.3175647
48	0xbeaebdba	-0.34129125
49	0x4014ed8c	2.3269987
50	0x3f810bc9	1.0081722
51	0xbcf12f3e	-0.029441472
52	0xbea4aaa7	-0.32161447
53	0x3ce4a134	0.027908899
54	0x4037fd6d	2.874843
55	0x400a650d	2.1624177
56	0x3fbd2853	1.4777931
57	0x3fb0613d	1.3779675
58	0x3f51d47e	0.8196486
59	0xc05df1ac	-3.4678755
60	0x3f989679	1.1920921
61	0xc006cd22	-2.1062703
62	0xbea59fa4	-0.3234836
63	0x40ec949c	7.393141
64	0xbfb75d39	-1.4325324
65	0xbfdbee7e	-1.7182157
66	0x3f985c5b	1.1903185
67	0xbf8bf091	-1.093279
68	0xc03d0a13	-2.95374
69	0xbd1a9664	-0.03774108
70	0x4046297d	3.0962822
71	0x40c9e1a1	6.3087926
72	0xbe707e54	-0.2348569
73	0x3f9e4012	1.2363303
74	0x3efae33f	0.490015
75	0x3f9529a1	1.1653329
76	0xbe1c637e	-0.15272328
77	0xbdc3939a	-0.09549637
78	0x3fd2ac98	1.6458921
79	0xbfca1631	-1.5788022
80	0x3fcdb36f	1.6070384
81	0x3f834bd6	1.0257518
82	0xbf9a5eb2	-1.2060149
83	0x3fd2db28	1.6473131
84	0xbf07bc44	-0.53021646
85	0xbdb354ed	-0.08756433
86	0xbf972846	-1.1809165
87	0x4068af43	3.6356971
88	0xbcd5dba9	-0.026105719
89	0xbf723d8d	-0.9462517
90	0xc0149789	-2.321749
91	0x3f26167e	0.6487807
92	0xbeb04972	-0.34431034
93	0xbfa50e4b	-1.2894987
94	0x3cd215c8	0.025645152
95	0xc1585cae	-13.522627
96	0x400080e2	2.0078664
97	0x40b1a112	5.550912
98	0xbee7ea8d	-0.45296136
99	0x3f562f7b	0.836662
100	0xc0f0a84f	-7.5205455
101	0x3f4ce259	0.8003288
102	0x3fc9000b	1.5703138
103	0xbfc9ff70	-1.5781078
104	0x3f364149	0.7119337
105	0xc020e265	-2.513818
106	0x3f843022	1.0327189
107	0xbcc04823	-0.023471897
108	0xbf92a8f9	-1.1457816
109	0x3f41017c	0.7539289
110	0xbec59443	-0.38589677
111	0xbf2369b6	-0.6383318
112	0x40c7eff3	6.2480407
113	0x3f351a79	0.7074352
114	0xbfe83c04	-1.8143315
115	0x400c4f79	2.1923506
116	0xbc43a6f4	-0.01194166
117	0xbbb222ad	-0.0054362626
118	0x3f5ddcaa	0.8666483
119	0xc00af6c4	-2.1713114
120	0x3c554bc4	0.013018552
121	0xbe5ba1d5	-0.21448453
122	0xbd39d5b4	-0.04536982
123	0xbedef8ce	-0.43549198
124	0x3f0b428e	0.5439843
125	0xbf11d04f	-0.5695848
126	0xbb04141d	-0.002015359
127	0x3c963638	0.0183364
128	0xbf82f122	-1.0229838
129	0x3e6b9393	0.23005514
130	0xc111614a	-9.086252
131	0x3d94266f	0.07233893
132	0xc0839947	-4.1124606
133	0xc03f204a	-2.9863458
134	0x4053df51	3.3105052
135	0x3f50d0e5	0.8156875
136	0xbe156224	-0.14588219
137	0xbeb5047d	-0.35354987
138	0x40bfff31	5.9999013
139	0x4005d69d	2.091224
140	0xbc70ff9a	-0.014709378
141	0x4052d7e8	3.2944279
142	0x401245d1	2.2855113
143	0xbdba4b32	-0.090963736
144	0xbf31a2ef	-0.6938924
145	0x3e7d9b7d	0.24766345
146	0x4091e1ab	4.5587974
147	0x3ef94e83	0.48692712
148	0x4099e957	4.809734
149	0xbc76d999	-0.015066528
150	0x3f8d790e	1.1052568
151	0x403b0c37	2.9226205
152	0x3c684831	0.014177368
153	0x3ec0c182	0.37647635
154	0xbe400dbe	-0.18755242
155	0x3f0c4e66	0.54807127
156	0xc0b01c81	-5.5034795
157	0x3cb3e52c	0.021959864
158	0x40691453	3.6418655
159	0xc035b300	-2.8390503
160	0xbd2f996c	-0.042870924
161	0x3fd08ae6	1.6292388
162	0xbf1cb65e	-0.6121577
163	0xc02ea687	-2.728914
164	0x3f08e0fc	0.534683
165	0xbf9883bb	-1.1915201
166	0x3cb4a3ba	0.022050727
167	0x3f052aca	0.52018416
168	0xbb5e4c90	-0.0033920147
169	0xc0024ff5	-2.0361302
170	0x3fa45a0c	1.283998
171	0xbe8a3814	-0.2699591
172	0x3fc96728	1.5734606
173	0x3ff593f1	1.9185773
174	0x40811ced	4.034781
175	0x4112618b	9.148814
176	0x3e1dd152	0.1541188
177	0xbe987a8b	-0.29780993
178	0x3e8b515d	0.27210513
179	0x40a8a3f3	5.2700133
180	0x3f92dc2e	1.1473444
181	0x3fe646bf	1.799034
182	0xbfca7d25	-1.5819441
183	0x3f6f6854	0.9351857
184	0xc1007bd6	-8.030233
185	0x3ec638e3	0.38715276
186	0x3f7b9b41	0.98283774
187	0xbf52921e	-0.8225421
188	0x3f93a3a4	1.1534314
189	0x3d69467e	0.056951992
190	0x3e134285	0.14380844
191	0xbf6f3f99	-0.9345642
192	0x4167071d	14.439237
193	0xbfa10bbc	-1.2581706
194	0xbe666c3b	-0.22502224
195	0x3f90516d	1.1274849
196	0xbf87fe34	-1.0624452
197	0x40143463	2.3156974
198	0x3e3ebcde	0.18626735
199	0x40146260	2.3185043
200	0x3f80261a	1.0011628
201	0xbcb72933	-0.022358513
202	0xbf26e33a	-0.6519047
203	0xbbd54c63	-0.00650935
204	0xc012941d	-2.29029
205	0x40003ecb	2.0038326
206	0x4005e8ae	2.0923266
207	0x3f6f49ee	0.9347218
208	0x3face7a2	1.3508189
209	0xc05ea0be	-3.478561
210	0xbf8f7ca7	-1.1209916
211	0x400d91ae	2.2120166
212	0x3e4736e7	0.19454537
213	0x40f73e8b	7.7263846
214	0x3fce3271	1.6109143
215	0xbf2a64f4	-0.6656029
216	0x401543e3	2.3322685
217	0xc00fd66c	-2.2474623
218	0xc0361537	-2.8450449
219	0x3c361a48	0.011114664
220	0x403d59f9	2.9586165
221	0x40bb74e9	5.8580213
222	0xbcd4db8d	-0.025983596
223	0x3f9fa8ce	1.247339
224	0x3ef4f5db	0.47843823
225	0x3ec7cb83	0.39022455
226	0x3df2cbfd	0.11855314
227	0x3d0965e8	0.03354445
228	0x3fd9fb82	1.7029879
229	0xc0043461	-2.065697
230	0x3fd7381d	1.6814
231	0x3f82bf02	1.0214541
232	0x40147099	2.3193724
233	0x3fe6b655	1.8024393
234	0xbe8501c2	-0.25977904
235	0x3c971932	0.018444631
236	0x3f9b4730	1.21311
237	0x4039cbc6	2.9030623
238	0xbcef8d9d	-0.029242331
239	0x3f1fef9f	0.6247501
240	0xc01268d0	-2.2876472
241	0x3f26f959	0.65224224
242	0x3f5624d4	0.83649945
243	0xbfa7965c	-1.3092761
244	0xbbae87c2	-0.005326242
245	0xc18555cf	-16.666899
246	0x3fed8b0f	1.8558062
247	0x40735f24	3.802682
248	0xbebf1575	-0.37321058
249	0x3f56ad36	0.8385805
250	0xbffa2aa6	-1.9544265
251	0x3f32773b	0.6971318
252	0x3fc3d843	1.5300373
253	0x3fd0d73e	1.6315687
254	0x409fd685	4.9949365
255	0x40201688	2.5013752

outputLayer.bias f4 [2]
0	0x4166f5c0	14.434998
1	0x4168b35f	14.543792
