ftl/pretrain/weight/finetune_web_0/finetune_web_0_11.pth (torch, 187635 bytes, 8 tensors)

hiddenLayer1.weight f4 [150, 3]
00000000: 6480 eebb a383 84bf 560c e2be 73a7 b1bc
00000010: 6849 0039 1c1a 5bbd 6ae9 82bf 1367 6abf
00000020: 12e5 b8bf cf45 a6bd da62 853b d574 bc3f
00000030: 7a34 d2b7 c8fa 46bb d7cf 29bb 7d56 ebbd
00000040: 39c5 e439 19e1 e5bd 89f9 0fc1 de41 fcbb
00000050: 7f67 e9bd 1d13 a7bf cd6a 4abd 1cab 80be
00000060: c0e5 e5bf d09e 5dbd c71a 893d ec8d 04bf
00000070: e671 a3bd 97dc 91bd 2ec6 d0be 0c8b 63bd
00000080: f004 69c0 3e73 abbe 1f33 623c 4c27 c2be
00000090: a0e3 87c1 4723 98bd 9480 56be df6d 05bd
000000a0: 691f 8f3b 0cdf 013d fae0 b1bc fe8c 043a
000000b0: 32d8 e4bb 8d8d 8ebe 8c3c 4339 1f90 723f
000000c0: ba6b c1bd 06ee 633c 248e d6bc b0a2 07c2
000000d0: 7992 513d 7618 6bbe d0e1 5dc0 6d75 5dbc
000000e0: 3151 50bc b6d3 69bd 3774 39ba e254 04bd
000000f0: d357 4739 08d9 0d3c c625 92bb 5f83 80bf
00000100: fa06 853d 3c29 a03f ac6e 22bc e13a 9cbd
00000110: 0e1a 563b e837 32c1 595f 813c ed65 d4ba
00000120: f3cf d33d 8426 28bc 182a 4e3f f674 43c0
00000130: 14c6 fdbd d6de 2fc0 3c42 babc efbc 7b3b
00000140: 4708 babf f0bc 7bbd 981b 36bf a1dd 813f
00000150: a054 75bf 0e52 cb3e 8429 a2be 69bd 9cbe
00000160: cd71 2bbd a746 f2bc 935f 40bd 5c2d 8d3b
00000170: ff0f fc3f a45c 53c0 9cf4 46be eb90 803f
00000180: ea53 93bf 83a9 2a3f bad5 f3bf 654c f0be
00000190: 00b2 093b 7602 5ebd b39b 9abd 0dba 7cb8
000001a0: 781c cfbd 5ddd 22c0 afa4 5bbf 704b 5ebf
000001b0: 614c d6bd a363 02bd 9459 96c0 e4bf 8bbe
000001c0: ceb2 a93b 69f1 52be 5bab 87bc 3be9 37ba
000001d0: 899e e3bc 1387 1bc1 2cb0 33bc b9bd 89bf
000001e0: e2a3 00bd c055 9bbb 74de d3bc ab1b 88bf
000001f0: 6c6c b7be 03a3 39c0 86fc 7dbd 6bab 1339
00000200: d522 3cbc 81c9 18be 1989 52b8 7e8d 3fbd
00000210: 72ab a5be 90d1 59bf 11d9 d8be 457c 8cbf
00000220: 521f a53e 165b 72c0 a649 65bf 9d50 8ebe
00000230: 7d46 193f 80ec 0bc0 ea69 38be 635b dabf
00000240: 8969 d3c0 68f2 dabb b346 e33d f741 a8bf
00000250: 54f0 8a3d 26a9 bebe 7530 debe 1a83 58bf
00000260: 31ba 07bf baba 8fbe 11a9 4abf 0d45 0a3e
00000270: bef5 4fbc 91ed a13b 84ca 1740 29cc f6bf
00000280: 0fa6 88bc fc9b e03c 0a46 90bd e272 feb7
00000290: 1be7 10bd c9ec e63c 7fe5 743c 0af5 f5c0
000002a0: 0562 67be 66f4 8cbe 2b57 97be d0bb 8cbb
000002b0: 9399 3cb9 e0af d4bd 30be 21c2 f800 afbb
000002c0: 1246 bebe 60ac 1dc0 5105 403f c208 673e
000002d0: 8e82 e7bc 4a9b 0b3a 1d07 55bd 74be bb3e
000002e0: a663 4fbb 7156 aac0 42bb 3bbe 5475 bdbc
000002f0: 791f 06c1 84bb a5be e2a9 5b3f 7f8a 4fbf
00000300: 0b12 c6c1 858d bcbc b1d2 3d3c 7aa0 11bf
00000310: 8fd5 abbe d276 2cc0 47ed a4bf f798 ca3f
00000320: eeb0 a7be dad9 ff3c 5dae 763b fee0 af40
00000330: c435 67bd 014a 3e3d 1133 92bc 956a b7bd
00000340: f62a 433b dc26 33bc f3ab 17c0 1fad 043e
00000350: 25e9 af3c a856 7ec1 f017 593e d17f 4fbf
00000360: d906 d8c0 112a 9f3e 5052 0a3d 8a25 ebbd
00000370: 43ec e13b b536 b2bc de49 8fbd 3f4c 673b
00000380: b686 e2bb 88bb 96bd cf8a f239 34cf b2bd
00000390: 19f1 e8be 63da 23bf 457d 89be b2c5 56bd
000003a0: 96b9 b6bb fef5 28bd 391d a6c0 88d2 253e
000003b0: cab2 e03c 0256 db3c a1e1 d639 74c6 4a40
000003c0: 598a c8bc d9e2 6c3b f4b5 7ebc 45dd f8c1
000003d0: be4f ccbd cfd3 ebbd b113 ddc0 67f8 b1be
000003e0: 92e7 c5be 0d29 1938 ac6d 873a 786a 1abb
000003f0: f321 cbbf 4de6 ef3e 3c17 d2be c5ed cfbf
-0.007278489 -1.0352672 -0.44150037 -0.021686291 0.00012234377 -0.053491697 -1.0227482 -0.9156353
-1.4444907 -0.08118784 0.004070622 1.4723154 -2.5058387e-05 -0.003036188 -0.0025911236 -0.11491106
0.0004363449 -0.112245746 -8.998422 -0.0076982817 -0.113966934 -1.3052708 -0.04941826 -0.25130546
-1.7960739 -0.054106534 0.066945605 -0.51779056 -0.07980709 -0.07122152 -0.407762 -0.055552527
-3.6409264 -0.3348636 0.0138061335 -0.37920606 -16.986145 -0.074286036 -0.20947486 -0.032575484
0.004367758 0.031706855 -0.021713722 0.000505641 -0.0069837803 -0.2784237 0.00018619205 0.9475116
-0.09444375 0.01391173 -0.026190825 -33.908875 0.051165078 -0.2295855 -3.4669075 -0.013516766
-0.01271467 -0.05708667 -0.00070745073 -0.032307513 0.00019010836 0.008657701 -0.0044600694 -1.0040091
0.06495471 1.2512584 -0.009914082 -0.07628418 0.0032669338 -11.138649 0.015792536 -0.0016204693
0.103423975 -0.010263089 0.8053298 -3.0540137 -0.12391296 -2.7479758 -0.022736661 0.0038412174
-1.4533776 -0.06145948 -0.71135855 1.0145761 -0.9583225 0.3971104 -0.316723 -0.30613258
-0.041856576 -0.029574705 -0.046966147 0.004308386 1.9692382 -3.3025293 -0.19429249 1.0044225
-1.1509984 0.66664904 -1.9049599 -0.46933284 0.0021010637 -0.054201566 -0.075492285 -6.0254755e-05
-0.10112852 -2.544761 -0.8579816 -0.8683386 -0.10463787 -0.031833302 -4.698435 -0.27294838
0.005178786 -0.20599903 -0.0165612 -0.000701565 -0.027785556 -9.720477 -0.010967296 -1.0761024
-0.03140629 -0.004740447 -0.02586291 -1.0633444 -0.35824907 -2.9005744 -0.062008403 0.0001408287
-0.011482914 -0.14920618 -5.0195584e-05 -0.046765797 -0.32357365 -0.8508539 -0.4235311 -1.0975424
0.32250458 -3.7868094 -0.89565504 -0.27795878 0.5987318 -2.1863098 -0.18009153 -1.7059139
-6.6066327 -0.006681729 0.11097469 -1.3145131 0.0678412 -0.37238425 -0.43396345 -0.84575045
-0.5301848 -0.2807215 -0.79164225 0.13502903 -0.012692867 0.00494165 2.3717356 -1.9281055
-0.016680745 0.02741813 -0.07044609 -3.0332656e-05 -0.03537665 0.02818908 0.014947294 -7.686162
-0.22595985 -0.2753021 -0.2955869 -0.00429485 -0.00017986288 -0.10385108 -40.43573 -0.0053406917
-0.37162834 -2.463646 0.7500811 0.22561935 -0.028260496 0.0005325569 -0.052008737 0.36668742
-0.0031645088 -5.323052 -0.18333152 -0.023127235 -8.382684 -0.32369626 0.85806096 -0.81070703
-24.75881 -0.0230167 0.011585877 -0.5688549 -0.3356137 -2.6947522 -1.2884911 1.5827931
-0.32752174 0.03123181 0.003764055 5.496215 -0.05644776 0.046457294 -0.017846616 -0.08955876
0.0029780245 -0.010934558 -2.36987 0.12956665 0.021473477 -15.896156 0.21200538 -0.8105441
-6.750836 0.31086782 0.033769906 -0.114817694 0.0068946197 -0.021754602 -0.06996511 0.003529325
-0.0069130315 -0.073599875 0.00046261257 -0.08730927 -0.45496443 -0.64005107 -0.26853386 -0.05243463
-0.005576323 -0.04125022 -5.191067 0.16193593 0.027429003 0.02677441 0.00040985367 3.1683626
-0.024480032 0.0036145954 -0.015546311 -31.108042 -0.09976147 -0.11515009 -6.9086537 -0.34759828
-0.38653237 3.6516274e-05 0.0010332367 -0.0023561995 -1.5869735 0.46855393 -0.4103335 -1.6244437

hiddenLayer1.bias f4 [150]
00000000: 5091 b7c0 a46d b3bd 18b9 edbf 6c2b ecbf
00000010: b53b 74bd b98a babd 24db 1cbe 9d33 af3e
00000020: 06fe 3dbf b855 99bf 941d 9abc 81e7 c2be
00000030: bbdf d0bf 5076 82c0 64e3 2fbc 85ba de3e
00000040: 2440 88be 277e bfbf 389a acbe 431c 1dbd
00000050: 3d18 41be d2b2 79c0 1edd 97bf dbc8 20bf
00000060: 94b9 00c0 3247 0bbe dfe5 80bf c028 05c1
00000070: 5971 09c0 e0b2 24bf 01ea 6140 8813 b7c0
00000080: d515 dbbf 66ab b5bd 3ce7 2fbe 8933 9bc0
00000090: c87d 64bf 2eea 50be 4579 08bd f942 b7bf
000000a0: d2ca 15be 7d9a 6fbf d73d 75bc ad04 32bd
000000b0: 02e1 8fbf a394 cbbf a13a 7ac0 dbab 46bf
000000c0: f19f 41bf 9c63 8cbf c4c8 68bf a5a5 91c0
000000d0: 8b3a adc0 d808 e4bf 69e0 f7bc 297d 0ebd
000000e0: ed0a 7fc0 3f29 aabd a9df 27bf 5462 bdc0
000000f0: 06f0 babd ce63 2740 4d5d ddbe 98d6 cebf
00000100: 27bf cebf 3ff2 b5bf 622c 48c0 f5f0 e03d
00000110: b938 29bf 83e1 89bd ae64 eebf ea55 55c0
00000120: df98 debf 9b79 1fbe 5289 a2bd 7b7d 95bd
00000130: 3798 f2c0 daab f2bd 2c22 17c0 dc0d 98c0
00000140: 7634 7ebd f915 1cc0 498d 0cc0 624d e9bc
00000150: 879b 7bbe a1f0 53c0 79cc e2bf c57d 1840
00000160: 073e 5bbc 51b3 a7bf 5d25 b1be 2450 fbbe
00000170: 2c10 08c0 bed1 f3bf b49e 5ac0 de02 bfbd
00000180: eed3 1fbf eeb1 6ac0 b2d9 d0bd 44d2 fabf
00000190: 3b7f 0cbe fd56 21bf 137c 1bc0 caf3 82bf
000001a0: 8a23 97c0 af4c b7bd 4673 12bd 9421 3bc0
000001b0: 0855 87bf 2f44 f6c0 d66f 16bf 77e8 debd
000001c0: c675 6ec0 9783 56c0 b0cb 04bf 6133 8fbc
000001d0: 3897 8dc0 e034 89bf dc5d 53c0 4ed3 f6bd
000001e0: 6c2f 5ebd 819e 99c0 a1d0 77c1 44ad d9bc
000001f0: e7c3 37bd 5750 eabc c659 b7bf 3cf3 05bf
00000200: 6b57 53bf 75af 40bf 99dc b3bf 174e 84bf
00000210: 5da9 08be cfcb c3bf fda0 0fbf 112f 31c0
00000220: 38e3 43be 3975 c4be 0e8f 7bc0 fd5b cebd
00000230: 620a 5840 09ec 7bc0 ce92 01c1 4577 58bf
00000240: d116 8fbe fb3b 61bc 3d12 43c0 f2a3 e2be
00000250: 2455 00be 408f 8a3f
-5.7364883 -0.08761147 -1.8572111 -1.8450751 -0.059627254 -0.091084905 -0.1531797 0.34219065
-0.74215734 -1.1979284 -0.018812932 -0.38067248 -1.6318277 -4.0769424 -0.0107353665 0.43501678
-0.26611435 -1.4960374 -0.3371141 -0.03835703 -0.18856902 -3.9015393 -1.1864355 -0.6280648
-2.0113268 -0.13601378 -1.0070151 -8.322449 -2.1475432 -0.6433544 3.5299075 -5.721134
-1.7116038 -0.08870582 -0.17178053 -4.850041 -0.89254427 -0.20401832 -0.033318777 -1.4317313
-0.14628151 -0.93595105 -0.014968357 -0.04346149 -1.1240542 -1.5904735 -3.9098284 -0.7760598
-0.75634676 -1.0967898 -0.90931344 -4.5514703 -5.4133964 -1.7815199 -0.030258374 -0.03478733
-3.9850419 -0.08308648 -0.65575653 -5.918253 -0.09127812 2.6154666 -0.43235245 -1.6159239
-1.6152085 -1.4214553 -3.127709 0.10983459 -0.66102177 -0.06732466 -1.8624475 -3.3333688
-1.7390403 -0.15573733 -0.07936348 -0.07299324 -7.581081 -0.11849184 -2.3614607 -4.751692
-0.06206175 -2.438841 -2.1961234 -0.028479282 -0.24571048 -3.3115618 -1.771865 2.3826764
-0.013381488 -1.3101598 -0.34598818 -0.4908458 -2.125987 -1.9048383 -3.4159365 -0.09326719
-0.62432754 -3.66711 -0.10197772 -1.9595418 -0.1372041 -0.6302336 -2.429448 -1.0230649
-4.7230883 -0.08950173 -0.035754465 -2.9239244 -1.0572824 -7.695823 -0.587644 -0.10884183
-3.7259383 -3.3517816 -0.518733 -0.017480554 -4.4247093 -1.0719261 -3.3026037 -0.12052022
-0.054244444 -4.8005986 -15.488435 -0.026571877 -0.04486456 -0.028602762 -1.4324272 -0.5232427
-0.82555264 -0.75267726 -1.4051696 -1.0336331 -0.13345857 -1.5296572 -0.56105024 -2.7684977
-0.19129646 -0.38370684 -3.9306064 -0.10076139 3.3756337 -3.9362814 -8.098341 -0.8455699
-0.27947095 -0.013747211 -3.0479882 -0.44265705 -0.12532479 1.0824966

hiddenLayer2.weight f4 [150, 150]
00000000: d028 acbe a3e3 9b3d 03ec e3bf d9ce e4bf
00000010: ac49 18bf e100 7f3e 1c5a a8c0 172c 23bf
00000020: 37e3 8240 9df8 b3bf 6bc1 efc0 4c8a 1fc0
00000030: fa63 2dc1 5f0b f3bd cce6 cd3d 82ed 813f
00000040: 95df c5bd 65d5 ea3e ae34 20bd c561 0bbe
00000050: e7f2 49c0 1d63 c2be 98c7 d3be a90f 02c0
00000060: 8089 86c0 a322 cabf a586 583f edbc 07c0
00000070: b3e1 1340 4253 43bf f681 2dbf b0d1 55bf
00000080: e73c 9bc0 09db 87be 8ee1 acbd b16e d6be
00000090: 416f b4bf 724e ccbe 8d36 8b3d 6577 adc0
000000a0: 3234 59be e3d4 b7c1 6e00 c1bd cc5b 3ebe
000000b0: b200 a0bc 99c4 9d3e 7867 b8bf 0257 57c1
000000c0: d0d2 0ec1 bf4d 0f40 ecab 91c0 9d58 d33f
000000d0: b9dd 93bf ed78 93c0 8e95 a13c 7efc 6ec1
000000e0: 14a8 a9c0 ec3d d53d 4fee 2b40 5002 c4bf
000000f0: 33c5 f2be 65b4 03bf 4cad e9be 34b8 9bc1
00000100: d5e4 31c1 30e0 043f 5e8d 0bc1 c2ab 42c1
00000110: 87f9 1f3f 6c2e d9bd cce0 0240 14f4 c8c0
00000120: 8bf1 17c2 eea1 28bd 6e14 39bd b3f4 32be
00000130: 8775 83c0 86b7 88be 7bff c4c0 7245 80be
00000140: 4e16 fcbd b0de 2c40 bd52 c3bd 7fab abbd
00000150: 70e2 b93f 9af7 42c0 2609 c2c0 a0a9 88be
00000160: a9bd 8b3e 7ed4 5a40 13f3 c5c0 e2d5 e0be
00000170: 4ccb 2ec0 5a29 9a40 43ad 91be 7868 d63f
00000180: 5362 77be ca19 95be 10fc 6e3f 285c a3c0
00000190: ee5c ce3e 45fb ec3f ad6c fb3f 5fd9 bdbb
000001a0: 435e 41bf 19b3 fc3e fba7 a93e a4f0 1e3e
000001b0: c251 8bc0 5a29 51bf 394f b240 b08e f3bd
000001c0: aa62 4fc0 8cd2 673f 0d50 81c0 d8e3 2d3c
000001d0: 94d6 80c0 adb1 d440 60ff 38c1 157a 44be
000001e0: 3ae7 98bc 6bcb edbf 8af7 a0be 853b a5bd
000001f0: 43f1 afbd 2e00 74be 9cba 20c0 3432 1240
00000200: 9473 0ac0 3782 923f 50b4 b7be a47d 1fbe
00000210: 25bb e6bd 69c0 9ebf 3ddc 98c0 d9fd 28c1
00000220: cc63 e43f b46d 15c0 a3a8 c13f d702 ad3d
00000230: 2b11 d9be 6b11 5fbf 4f91 1abf d374 2abf
00000240: 31c6 72bf 7f3d e7bc 3a26 bec0 1a59 6fc0
00000250: b6b2 583d 1547 0940 f31d 8cc1 e2d3 373d
00000260: 4179 15bf 6331 fc3f 631c 89bd 203e 7dbe
00000270: e0e6 b0c0 8396 06c0 079d c5bd 944f a0c0
00000280: ab2d 2abf f056 a8bf c429 b93f f9ab aec0
00000290: 2cbc c93c 27fd 37bf 5297 3e3e f5d3 59c0
000002a0: 886f 60bf 4ff4 64bd 2886 bf40 8bae 843f
000002b0: 5254 0b3f d323 b5bf 0689 bbc0 7eec 6cbf
000002c0: 7c77 45bf 1064 67bf 5eee 1cc0 453d 0dbf
000002d0: d15b cabf 4dfa f83e 4312 f6bf de62 ca3e
000002e0: 5217 b13e 6238 03bf d35a aabf 951b c33e
000002f0: 4fd7 423d 8f7c 2640 016a 0abf 34be 0240
00000300: 6b6e 3ebc 2a17 c5bc 4016 f6c0 58dc 22bf
00000310: 350d bf3f acd4 20bf 462b 13c1 c933 e9be
00000320: 7030 2240 5f62 063f 7eec 84c0 b7ae 2d40
00000330: ac39 0ebe 76ca 9bbf 0af8 3540 07f4 a3be
00000340: 2df6 d5bd 7ced 4abf 2fd0 4cbf 39e9 43c0
00000350: 4e25 8e3e cb79 9bbf 8b68 8f40 bed9 edbe
00000360: acd5 24c0 71c1 7cbe e46b c7be e3e2 1bbe
00000370: fe4a 72c0 00d7 933f 4412 2ac0 0a86 b63d
00000380: 7343 afbd 4ace e73d d42c 2b40 f8cc a9be
00000390: 47d6 003f c32e a540 4c7f 723e 17a3 0bc0
000003a0: 38e9 2dc1 202d 2fbd fca0 fbbf 3c8e f8bf
000003b0: 48d6 93c0 7d44 72c0 976e 93bc 3e85 eabf
000003c0: a69a 1fbe c61c 89bf bf84 c8bf bec0 ed3f
000003d0: 80e2 b7bf 90da e5bf 79e4 0d3d e841 1ec0
000003e0: 769d 953e 409e 0a3f bd8a 053f bd2b 523f
000003f0: 9667 3fbf 2bc4 55bf a2b3 04c1 0a16 8fbf
-0.33624887 0.07611778 -1.78064 -1.7875625 -0.59487414 0.24902679 -5.2609997 -0.6373915
4.090236 -1.4060246 -7.4923606 -2.492816 -10.836908 -0.11867403 0.10053787 1.0150607
-0.096617855 0.45865932 -0.03911274 -0.13611515 -3.1554506 -0.37966242 -0.41363215 -2.0322058
-4.2042847 -1.579182 0.8458045 -2.120906 2.3106506 -0.76298916 -0.6777643 -0.8352308
-4.8511844 -0.26534298 -0.08441459 -0.41881326 -1.4096452 -0.399036 0.06797514 -5.4208245
-0.21211317 -22.978949 -0.0942391 -0.18589705 -0.019531582 0.30814055 -1.4406576 -13.458742
-8.926468 2.2391202 -4.5522366 1.6511418 -1.1552039 -4.6085114 0.019724634 -14.936644
-5.3017673 0.10412201 2.6864202 -1.5313206 -0.47416076 -0.51447135 -0.45640028 -19.464943
-11.118367 0.5190458 -8.722013 -12.166933 0.62490124 -0.106045574 2.0449705 -6.2797947
-37.98588 -0.041170053 -0.0451855 -0.17476158 -4.1080966 -0.26702517 -6.1561866 -0.25052983
-0.12308942 2.7010918 -0.095372654 -0.0838232 1.4522228 -3.0463624 -6.0636168 -0.26691914
0.27293137 3.4192195 -6.185922 -0.4391318 -2.7311583 4.817548 -0.284525 1.6750631
-0.24158601 -0.29121238 0.93353367 -5.1049995 0.40305275 1.8514181 1.964254 -0.005793735
-0.75534457 0.4935539 0.3313597 0.15521485 -4.35373 -0.8170372 5.5721707 -0.1189245
-3.240397 0.90555644 -4.041022 0.010613404 -4.0261936 6.646689 -11.562347 -0.19187196
-0.018664945 -1.8577703 -0.31438857 -0.08067993 -0.08590939 -0.23828194 -2.5113897 2.2843142
-2.1633043 1.1445988 -0.35879755 -0.15575272 -0.11266164 -1.2402469 -4.7768846 -10.561975
1.7842956 -2.3348207 1.5129589 0.08447807 -0.4239591 -0.8713595 -0.60377973 -0.6658451
-0.94833666 -0.028227566 -5.9421663 -3.7398133 0.052904807 2.1449635 -17.514624 0.0448798
-0.58388144 1.9702572 -0.066948675 -0.2473073 -5.528183 -2.1029365 -0.09649091 -5.009714
-0.66475934 -1.3151531 1.4465871 -5.4584928 0.02462586 -0.71870655 0.18612412 -3.4035618
-0.87670183 -0.055897053 5.9851265 1.0365766 0.5442554 -1.4151558 -5.8604765 -0.9254836
-0.77135444 -0.9038706 -2.4520488 -0.55171615 -1.580927 0.48628464 -1.9224323 0.39528555
0.34588104 -0.5125791 -1.3308967 0.3810698 0.047568616 2.6013525 -0.54068 2.042859
-0.011623005 -0.024058897 -7.690216 -0.6361747 1.4925905 -0.6282451 -9.198065 -0.4554732
2.5342064 0.5249385 -4.1538687 2.7137887 -0.13889188 -1.2171161 2.843264 -0.32022116
-0.10447345 -0.7926862 -0.8000516 -3.0611098 0.27762836 -1.2146543 4.4815116 -0.46455187
-2.5755415 -0.24683167 -0.38949502 -0.15223269 -3.7858272 1.1549988 -2.6573648 0.08912285
-0.08557787 0.113186434 2.674611 -0.3316419 0.5032696 5.161958 0.23681372 -2.1818292
-10.869438 -0.042767644 -1.9658504 -1.9418406 -4.6199074 -3.7854302 -0.01799707 -1.8321912
-0.15586337 -1.0711906 -1.5665511 1.8574445 -1.4365997 -1.7957325 0.034641717 -2.4727726
0.29221696 0.5414772 0.5216482 0.8209799 -0.74767435 -0.83502454 -8.293856 -1.1178601

hiddenLayer2.bias f4 [150]
00000000: 41a2 03bf 48e0 02c0 cc13 fd3f 0757 093e
00000010: 7a88 85bf 5952 263a 6b05 f93f ba0d b6bd
00000020: f3a8 e640 c477 573e b1a1 06be d28d 893d
00000030: 27b8 5c3f 815a f4be f60c 91bd 371d 8dc0
00000040: 7341 8040 35b3 8c3e 06d2 cc3f 89dd c23f
00000050: 8d7c fcbe 3aad 8dbd fdc1 53bf 73b1 dabf
00000060: 1a06 d9bd cdc9 b1bf 9520 e5bf b9e2 913e
00000070: 534f 403e 7d62 adbe 3aec 343f f381 45be
00000080: 6a45 04bf 33a9 58bf dc99 1a40 7a8d 22c0
00000090: 0ee2 20be db50 dfbe ff84 d6bf 8100 583e
000000a0: 3a91 66bf 0542 48bc 9c9e 0bbe 5502 9abd
000000b0: 3442 fabf 91d7 09bf ba70 84c0 8747 45c0
000000c0: c0bc 4539 c426 35bf 8442 75be 8c23 98bf
000000d0: f33e 72bf 8d3b e5be a366 f23d bae9 89be
000000e0: f417 ccbd f350 42bf 799f 5a3d cbac 89be
000000f0: 9439 82be e5fc c1be 2cce 52bf 109a f83c
00000100: 3d2a 59bf ec5f 9440 63d4 42c0 7bda ec3c
00000110: 670c c2be a0bc 5a3f 533d 0440 449c a0bf
00000120: cbbd 413f ad84 0a3f c001 08bf cf80 18bf
00000130: 4196 04be fda0 e6be 0284 34be 989c 26bf
00000140: 8a30 d4bf fd74 89be 36b4 a9bf 1a0d 7abf
00000150: 50f9 ac3d c019 debf 3dfc 513f 18da 03be
00000160: 4b83 9c3f 0f92 03be f4fb 81bf 5222 96be
00000170: 9387 47bf d629 773f 2d0f 21bf 77ea 403c
00000180: 7721 c9bd 1611 2abd aee7 58bf 11f9 e940
00000190: f76f f1bf 1632 a3be 89e2 0bbe a098 f93e
000001a0: 3f37 ce3c 9bf9 e33f d5b6 f03b 0652 49be
000001b0: c820 99bd e455 06c1 825e 5dbd f1d9 debe
000001c0: 3376 58be fbc4 923e c292 3e3f 2ccd afbd
000001d0: 2816 06c0 d670 f4bf 03ef d3be 4b5f 54bf
000001e0: c1ec 9ebd 6e5a 7ebf a2e0 b1bf 9e11 bcbd
000001f0: a97d 08bf f18f 4c3f 863b 45bf a2da 21be
00000200: 6c6b 183f c45c 0bbe f165 25bf e35e 59be
00000210: e445 c840 bc81 dabf d9ad dabe 78b5 80bd
00000220: 218d 38c0 167f 94bf ea21 0c3f 704e 4e3f
00000230: eaa4 253e c67c c5bf 1123 8cbd e314 28bf
00000240: e8c7 57bf 00ed 0dc0 95df 2d3f 44bd 78be
00000250: 713f 54bf ef79 9d3e
-0.51419455 -2.044939 1.9771667 0.13412105 -1.0432274 0.0006344668 1.9454778 -0.08889337
7.2081237 0.2104178 -0.13147618 0.06716503 0.86218494 -0.477253 -0.0708255 -4.4098163
4.0079894 0.27480474 1.6001594 1.5223857 -0.49313775 -0.06917806 -0.8271788 -1.7085403
-0.10596867 -1.388971 -1.7900568 0.28493288 0.1878026 -0.33864203 0.70672953 -0.19287853
-0.5166842 -0.8463318 2.4156408 -2.539885 -0.15711233 -0.43616375 -1.6759337 0.21093942
-0.9006535 -0.0122227715 -0.13634723 -0.07519976 -1.9551454 -0.53844553 -4.1387606 -3.0824907
0.00018857699 -0.70762277 -0.23951155 -1.1885848 -0.946273 -0.44771996 0.11835983 -0.26936132
-0.09965506 -0.7590477 0.05337474 -0.26889643 -0.25434554 -0.37888256 -0.82345843 0.0303469
-0.84830076 4.636709 -3.044213 0.028912773 -0.37900087 0.8544407 2.066243 -1.2547688
0.75680226 0.541087 -0.5312767 -0.59571546 -0.12947942 -0.450447 -0.17628482 -0.65082693
-1.6577313 -0.26847067 -1.3258121 -0.9767624 0.0844599 -1.7351608 0.8202551 -0.12876165
1.2227567 -0.12848686 -1.0155015 -0.2932306 -0.77941245 0.9654821 -0.6291378 0.011774651
-0.09820836 -0.0415202 -0.84728515 7.3116536 -1.8862294 -0.3187415 -0.13660635 0.48749256
0.025172828 1.7810549 0.007346014 -0.19660196 -0.07476956 -8.395969 -0.054045208 -0.4352565
-0.2113884 0.2866591 0.74442685 -0.08584055 -2.0951023 -1.9096935 -0.4139329 -0.82957906
-0.07760001 -0.99356735 -1.3896677 -0.09183048 -0.5331674 0.7990714 -0.7704395 -0.15806058
0.5953891 -0.13609606 -0.64608675 -0.21227603 6.2585316 -1.7070842 -0.4271076 -0.062846124
-2.8836138 -1.1601284 0.5473925 0.80588436 0.16176191 -1.5428703 -0.06842626 -0.6565687
-0.8428941 -2.2175903 0.67919284 -0.24290949 -0.82909304 0.3075709

hiddenLayer3.weight f4 [150, 150]
00000000: 2397 2640 e1b2 483f 6f03 c8bf 8b79 5ebe
00000010: c0f1 35bf db77 a3bf 17f8 143e 5c0d b1be
00000020: 24ab 8b3e c536 86bf f8f6 1dbd 8893 653f
00000030: 1ddd a1be 2e3e 873e e4b3 21bd b9df e03e
00000040: bf4c 98bf f114 a7bf c90c 59c1 5ab0 37c1
00000050: 6fac 09bf 084e 61bd e5f5 873d 9a90 163f
00000060: cbb3 2b3d 960e 0e3d 1ff0 71c0 44e9 72be
00000070: 0518 5c40 5c73 18c0 43cc 21be 3c7f 503e
00000080: efa3 1ac0 70a0 fbbf c73e 9dbf e69b 46bf
00000090: 5396 25bf 8b20 93bd 57ab 94c0 5ddf 0740
000000a0: b6b8 7e40 324b 01c0 c7f1 da3e 37aa 973c
000000b0: 0035 2241 cf43 5f3e d323 2f40 6dd6 5bbe
000000c0: a7c9 0ac0 4b6e 7a3f 7370 3cba af58 14c0
000000d0: 7604 1ebf 63b6 8d3f bf95 eac0 ff88 d9bf
000000e0: 0045 e4be 2114 5dbf 5d0a 873d dcbb d63f
000000f0: 6f7e afbe 9ad5 073f dc14 ac3f 6a31 d140
00000100: 0164 b4c0 3125 1440 d4e6 7bc0 e450 103e
00000110: f46c 273e 74a8 56c0 7347 2dc0 ae93 cc3f
00000120: 1461 7cbd bc0c 83be 03d4 013f dcc6 51bd
00000130: 3cc1 4cc0 6874 48c0 f675 05c1 2dd1 27bf
00000140: d313 e6bf 42be 1cbe c61b e9be d9d2 673e
00000150: 071a 1fbf 2a7a 10c1 d81b abbe 86b7 0e3e
00000160: 8823 9e40 1adb f13a 93c2 c2bf 2f98 0440
00000170: e627 313f 5f48 3b40 cd72 09c0 7eca 10c0
00000180: 1833 c2c0 9ab8 053e f34a ed3f 413e ba3e
00000190: 29ca c7c0 de1d a3be f83d 8b3e ca60 c140
000001a0: 471f 23bd 0296 46c0 c072 cbc0 c4ca ed3e
000001b0: 40bb 1240 cb1e d1bc 5503 21be ef1a 0abf
000001c0: 928e 1e3d c72d 943c 302c 483e e843 05c0
000001d0: 9da7 c53d ba06 9dbf fe87 a73e 93e1 8b40
000001e0: 78c7 093d 12ce a73e ad03 5ac0 1e16 bc3d
000001f0: 4c2f 63bd 02c6 4440 9514 2f3f 4dd4 e9bf
00000200: c05c 093f a48a 99bd 9fc5 13c0 55bb b9bf
00000210: fe32 39bf 0f35 153f e590 b8bf 60a0 0c3f
00000220: 39d1 fac0 49aa aebe 84ac 68c0 359d a140
00000230: ba54 873d 378c dabf df7d a6bc 2e53 183e
00000240: bd28 56c0 37ff ae3f 50c8 cd3f c5a6 d03d
00000250: 1f31 913f 8991 acbe 0741 3cbf 9a73 44c0
00000260: fe0e 38c1 e8b8 96c0 35af 46bf 06b7 bec0
00000270: 2087 26c0 3e3c 1b3f d23b 0fbf 6c27 bac0
00000280: 9bd3 91c0 7b05 dfbf 8300 b0c0 f565 abc0
00000290: 0aa9 9bbc 2465 93be b6a0 01c0 128d dc3e
000002a0: 98a1 3ec0 6185 9cbf 9c00 dd3f 1365 0ebd
000002b0: 01b1 d2be 69be 2fc0 7fa8 2f3d e129 5a40
000002c0: 1979 2240 d5a7 733f 9e07 a9be 3813 a5c1
000002d0: 8d57 c0bf effe 163f 403c a6c0 cb42 fcbc
000002e0: f947 f9bf d49c 49c0 147a 183f fd96 cdc0
000002f0: 0146 7040 1e76 10c0 d68e 63c0 f247 12c0
00000300: 2c2d 6040 f5bb 9a3d 2816 01c1 8035 ce3c
00000310: 4212 cdbe a5b1 cb3f 00b5 81bf 0be7 c53e
00000320: 04ba a3bd 2638 8040 8670 d9c0 7b8c dc3e
00000330: 9bde e8be c318 78be 6408 1cbe b1ee f63f
00000340: 3bf9 89be a100 45be 1a69 0cbe a01b 21c1
00000350: 838d b9c0 6842 0f3f 9b67 62c1 faf4 17bf
00000360: 1603 48c0 b4ed 19bf e521 13be ffc5 babe
00000370: 07c3 b13f 6df2 4d3f 3b09 e63d 2881 fcbf
00000380: e813 4c3b 9bb1 8b3f 4331 a8bf d8c5 bec0
00000390: f02b 6ec0 3843 37bb 501c 6ec0 bf53 3340
000003a0: 8e7a a5bf ae98 17c0 59ff 51bf 6565 96c1
000003b0: 7c21 413f 6761 ccbd 1986 463f 3651 713d
000003c0: bf65 3b40 5885 b6c0 2a2b 1440 301c 103f
000003d0: 019e aa3e ce19 72c0 60c7 b8c0 d3aa 253f
000003e0: d2df b740 dafa d3be f957 a7c0 4fec 2ebd
000003f0: 2082 673e e23b a1c0 1d1a bb3c 3e54 a140
2.6029747 0.7839795 -1.5626048 -0.21726052 -0.71072006 -1.2770952 0.14547764 -0.34580505
0.27279007 -1.0485464 -0.038565606 0.8967824 -0.3161401 0.26414627 -0.039478198 0.43920687
-1.1898421 -1.3053266 -13.565621 -11.480555 -0.5377874 -0.055006057 0.066386975 0.58814394
0.04191951 0.03468188 -3.7802808 -0.23721796 3.438966 -2.382041 -0.15800576 0.20361036
-2.4162557 -1.9658337 -1.2284783 -0.7758163 -0.646825 -0.071839415 -4.6459155 2.123008
3.9800239 -2.0202146 0.42762586 0.018513782 10.137939 0.2180321 2.7365615 -0.21468516
-2.168558 0.97824544 -0.0007188387 -2.3179128 -0.61725557 1.1071285 -7.3307796 -1.6994933
-0.44583893 -0.8635884 0.065937735 1.677608 -0.3427615 0.53060305 1.3443866 6.537282
-5.6372075 2.31477 -3.9359636 0.14093357 0.16350156 -3.3540316 -2.707486 1.5982568
-0.06161602 -0.25595653 0.5071413 -0.051215038 -3.199294 -3.1321049 -8.341299 -0.6555355
-1.79748 -0.15306953 -0.45529002 0.22639026 -0.6214909 -9.029825 -0.3341968 0.13937196
4.9418373 0.0018452138 -1.5215629 2.0717885 0.69201505 2.9262922 -2.147632 -2.2623591
-6.068737 0.13058701 1.8538498 0.3637562 -6.2434278 -0.31858724 0.27195716 6.043065
-0.03982475 -3.1029058 -6.3577576 0.4644376 2.2926788 -0.025527379 -0.15723927 -0.5394735
0.038710184 0.018088235 0.19548106 -2.0822697 0.0965111 -1.2267678 0.3272094 4.371286
0.033637494 0.32774407 -3.4064744 0.09183906 -0.055465028 3.0745854 0.6839078 -1.8267914
0.5365715 -0.07497147 -2.3089368 -1.4510294 -0.7234343 0.58284086 -1.4419218 0.5493221
-7.83804 -0.34114292 -3.6355295 5.0504403 0.06607957 -1.707404 -0.020323692 0.1487548
-3.3462365 1.3671635 1.6076756 0.10188059 1.1343116 -0.33704785 -0.73536724 -3.0695558
-11.50366 -4.7100716 -0.77611095 -5.9598417 -2.6019974 0.606388 -0.55950654 -5.8173122
-4.5570807 -1.7423548 -5.5000625 -5.356196 -0.019001503 -0.28788102 -2.025434 0.43076378
-2.978613 -1.2228204 1.7265811 -0.03476436 -0.41150668 -2.7459967 0.0428853 3.408806
2.5386412 0.95177966 -0.33013624 -20.634384 -1.5026718 0.5898275 -5.1948547 -0.030793568
-1.9475089 -3.150197 0.59561276 -6.424681 3.7542727 -2.2572093 -3.555593 -2.2856412
3.502757 0.07555381 -8.067909 0.025171995 -0.40052992 1.5913588 -1.0133362 0.38652834
-0.07994464 4.006854 -6.794986 0.43075928 -0.45482334 -0.24228196 -0.15237576 1.9291593
-0.2694796 -0.19238521 -0.13711968 -10.069244 -5.7985244 0.559607 -14.150294 -0.5935818
-3.1251884 -0.6012833 -0.14368398 -0.36479184 1.3887643 0.8044804 0.11232229 -1.9726915
0.0031139795 1.0913576 -1.3140033 -5.961651 -3.7214317 -0.002796365 -3.720478 2.8019865
-1.2928026 -2.3686938 -0.82030255 -18.79951 0.7544172 -0.099795155 0.77548367 0.05891534
2.928085 -5.7037773 2.3151345 0.5629301 0.33323672 -3.782825 -5.774338 0.6471378
5.746072 -0.41402322 -5.229489 -0.04270583 0.22608232 -5.03856 0.0228396 5.0415335

hiddenLayer3.bias f4 [150]
00000000: f3a8 0f41 e7d5 f940 3587 94be 06d4 17bf
00000010: 4f2b 583e 8631 bd40 0d9a 88c0 1ae1 363f
00000020: 16d1 17bf 72b8 89bf c4f3 91be 1e50 3240
00000030: 6824 e7be 249f 4ac0 8a59 d240 37ff 86bf
00000040: 16aa a8be cb44 c240 5551 22be 260d 3cbf
00000050: ed02 9740 944e 0bbf ed84 5041 0084 cb3f
00000060: 2a22 24bf 544c 5e40 e81e b540 c6c9 30be
00000070: e6cd 7f40 4921 af3f edd3 0c3d 6aa0 0241
00000080: b389 13bf 866b bd40 4712 90bf 7ac7 e5be
00000090: 3d61 f940 f11c 1b40 5bda bbbf d477 3bbf
000000a0: 7a27 9c3d f0ef babe f078 3a40 e6c0 48bf
000000b0: 8553 78bd 3699 c940 63b4 2dbf a3aa 6b41
000000c0: 539c 38bf 453b 8140 4a42 2f41 a64b 62be
000000d0: 05e4 1ec1 c577 9ebd 80b6 8ebe d28b 7740
000000e0: 0aee 2abf 7325 d440 673f 4240 ae19 52c1
000000f0: 5e3b 38bf 30ed 01be 1a82 febe eb7f 0741
00000100: 9b1c 4abe 555b 0cbf 9cb7 3dbf 7ad1 09c1
00000110: b6a5 6fbf 0eae 3bbe 05b1 e740 8062 c93f
00000120: 80d4 843f 11a5 3341 743b 0641 e06d 6040
00000130: fc8c 08c1 1d74 a2bf f798 0f41 8fb4 6fbf
00000140: b09d 91bf 593b 1041 4663 5640 b6d6 7a3e
00000150: dca9 1bc0 8e62 acbd afe4 e1be 2e8e dabe
00000160: 267d e4bd 5453 a8be 39f4 0040 eb25 2c41
00000170: 3ebd a2be 66e4 f9bf 692c 63be 6b3f 86c0
00000180: b99d 0941 3e01 2bbf 5dda 1cc1 4a72 1c41
00000190: 3aab 91be 41b0 c240 8539 1dbf b16c e9be
000001a0: e039 5940 559a c4bd 4075 9240 2793 9cbf
000001b0: c817 04be 8fd0 6141 f930 59bf 4395 c13f
000001c0: e558 2141 cc64 0b3e 429a de3f 96ed 6841
000001d0: 25a0 073c cdce 30bd e487 6841 c0de eebf
000001e0: d7a5 02bf 7704 d3be 0840 d6bd 80da 00be
000001f0: ea9b 9bbe 73e9 12c1 a41a 763c 1014 3dbe
00000200: 9df7 a340 dfa1 e840 f315 2cbf adf9 d540
00000210: a028 d4bf e3dd 7940 81fe 743f 252c 4541
00000220: 02ab 6ebf 39e3 86c0 b476 393f b918 5fbe
00000230: fd38 85bd 23b8 2341 c2d8 01bf d9bc dfc0
00000240: b3a4 6a40 77c8 533e 4ecc 963f 8395 ab40
00000250: 511e 5fc0 513e c2bc
8.978747 7.807361 -0.29009405 -0.593079 0.21110271 5.9122953 -4.268805 0.7143723
-0.59303415 -1.0759413 -0.2850629 2.78614 -0.45144963 -3.1659632 6.57343 -1.0546635
-0.32942265 6.0708976 -0.15851338 -0.7345756 4.719107 -0.54416776 13.032453 1.5899658
-0.6411463 3.4734087 5.6600227 -0.1726447 3.996942 1.3682033 0.034381796 8.164164
-0.5763199 5.9193754 -1.1255578 -0.4487875 7.79312 2.4236414 -1.4676012 -0.7322972
0.07624717 -0.36511183 2.9136314 -0.7841934 -0.060626525 6.2999525 -0.67853373 14.729159
-0.7211353 4.038485 10.953684 -0.2209917 -9.930669 -0.07737688 -0.2787361 3.867909
-0.6676947 6.6295714 3.0351198 -13.131269 -0.7196559 -0.12688136 -0.49708635 8.46873
-0.19737475 -0.5482686 -0.7410829 -8.613642 -0.9361223 -0.18328115 7.240359 1.5733185
1.037735 11.227799 8.389515 3.5067062 -8.53442 -1.2691685 8.974845 -0.93634886
-1.1376247 9.014489 3.3498092 0.24495968 -2.4322424 -0.08417235 -0.44119784 -0.426866
-0.11156683 -0.32876074 2.0149062 10.759257 -0.31785005 -1.9522827 -0.2218491 -4.1952415
8.6010065 -0.6679877 -9.803311 9.777903 -0.28450948 6.0840154 -0.6141589 -0.45590737
3.3941574 -0.09599749 4.5768127 -1.2232407 -0.12899697 14.113418 -0.8484035 1.5123676
10.084203 0.1361267 1.7390826 14.558004 0.0082779275 -0.04316597 14.533176 -1.8661728
-0.510343 -0.41214344 -0.10461432 -0.12583351 -0.3039239 -9.181994 0.015021 -0.18464684
5.123976 7.2697597 -0.6722099 6.686728 -1.6574898 3.904168 0.9570084 12.323277
-0.9322969 -4.215237 0.7244675 -0.21786775 -0.0650501 10.232455 -0.5072137 -6.9918027
3.6663024 0.2068194 1.1781099 5.362001 -3.4862254 -0.023711355

outputLayer.weight f4 [2, 150]
00000000: 20a0 533f 293a 2c40 e595 2939 0160 edbe
00000010: fe0f e63d b787 013f db57 aac0 122f 643c
00000020: 2af2 c5bf 7d0c 2c40 c03b f33e ea46 d53f
00000030: 36c9 fa3e 472c 33c0 1c5d 683f e336 953f
00000040: cf2c 973c dc74 5e3f c95f abbc d59f f73f
00000050: f02c 913f de3b e4bc 3e56 e43f 6b7f 0340
00000060: a09e 56c0 7e56 1141 c8cc 743e 9640 923e
00000070: 4108 88bd df88 fa3f b8cd 12bf 4b6a 1f40
00000080: 0a63 ab40 f983 7e3f 2d36 e1c0 ce4f 0a3f
00000090: d495 5a3f bd34 333f 0578 aebd 6049 873f
000000a0: 9425 393d 4dd2 7c3f 4809 5341 5427 863f
000000b0: 355c e93d b414 763f a155 753f 37c9 1340
000000c0: babd aebe 80ab 1e40 3a36 803f 3e2f f1bc
000000d0: a7aa a4be 34a1 e43c 6dfd 3740 0d65 0a40
000000e0: 5328 bd3f 3d61 b03f 7ed4 513f fcad 60c0
000000f0: 7996 983f 22cd 06c0 a49f a5be 9c94 ec40
00000100: 395d b7bf 7eee dbbf 5b5c 983f 91f0 8bbf
00000110: 130a 3dc0 6496 1abd 7d29 4640 a1e1 c940
00000120: 547e 70be 5ae0 9c3f 0224 0f3f a129 953f
00000130: b279 22be 9a93 c3bd e6d5 f73f 3116 cabf
00000140: 6fb3 cd3f 06a0 803f b25e 9abf 28db d23f
00000150: 44bc 07bf ed54 b3bd 4628 97bf 43af 6840
00000160: a9db d5bc 8d3d 72bf 8997 14c0 e17b 233f
00000170: 7249 b0be 4b0e a5bf c815 d23c ae5c 58c1
00000180: b8ee 0b40 12a1 b140 519b 1bbf 6234 2d3f
00000190: 4fa8 f0c0 59e2 4c3f 0b00 c93f 70ff c9bf
000001a0: 4941 363f 65e2 20c0 2230 843f 2348 c0bc
000001b0: f9a8 92bf 1687 3f3f 4394 c5be b669 23bf
000001c0: f3ef c740 791a 353f 043c e8bf fdfd 0e40
000001d0: f4a6 43bc ad22 b2bb 9500 5d3f c4f6 0ac0
000001e0: c44b 553c d5a1 5bbe b4d5 39bd cef8 debe
000001f0: 8e42 0b3f 7bb6 33bf 1d14 04bb 3836 963c
00000200: 22f1 82bf 9393 6b3e 4a61 11c1 6f26 943d
00000210: 4799 83c0 4a20 3fc0 51df 5340 8d10 503f
00000220: 2462 15be 7d04 b5be 31ff bf40 9dd6 0540
00000230: 9aff 70bc fd8d 5940 d145 1240 324b babd
00000240: efa2 31bf 7d9b 7d3e abe1 9140 834e f93e
00000250: 57e9 9940 99d9 76bc 8dc1 513f 370c 3b40
00000260: 3148 683c 82c1 c03e be0d 40be f97b 083f
00000270: 811c b0c0 2ce5 b33c 5314 6940 00b3 35c0
00000280: 6c99 2fbd e68a d03f 5eb6 1cbf fed3 33c0
00000290: fce0 083f bb83 98bf baa3 b43c 4927 193f
000002a0: 904c 5ebb f54f 02c0 0c5a a43f 1438 8abe
000002b0: ec38 e63f f193 f53f ed1c 8140 8b61 1241
000002c0: 52d1 1d3e 8b7a 98be 5d51 8b3e f3a3 a840
000002d0: 2edc 923f bf46 e63f 257d cabf 5468 6f3f
000002e0: d67b 00c1 e338 c63e 63c3 7e3f 1e92 52bf
000002f0: a4a3 933f 7e46 693d 8542 133e 993f 6fbf
00000300: 1d07 6741 bc0b a1bf 3b6c 66be 3ba5 733f
00000310: 34fe 87bf 92c8 1340 debc 3e3e 4f8e 1f40
00000320: a964 7e3f 3329 b7bc 3ae3 26bf 634c d5bb
00000330: 1d94 12c0 cb3e 0040 aee8 0540 ee49 6f3f
00000340: a2e7 ac3f 8df1 60c0 a77c 8fbf ae91 0d40
00000350: e736 473e 8b3e f740 7132 ce3f f464 2abf
00000360: e343 1540 6cd6 0fc0 3715 36c0 481a 363c
00000370: f959 3d40 e974 bb40 8ddb d4bc caf4 9d3f
00000380: 59cf 0e3f 83cb c73e 7d34 38be e865 093d
00000390: e945 d83f 6134 04c0 1d38 d73f 7c90 803f
000003a0: 9970 1440 55b6 e63f c201 85be 3219 973c
000003b0: 3047 9b3f c6cb 3940 9d8d efbc 9fef 1f3f
000003c0: d068 12c0 f2a3 223f d424 563f 5c96 a7bf
000003d0: c287 aebb cf55 85c1 ba73 0040 245f 7340
000003e0: 32e9 1abf d303 313f a62a fabf 3b77 323f
000003f0: 43d8 c33f 3ed7 d03f 85d6 9f40 8816 2040
0.82666206 2.6910498 0.00016172936 -0.46362308 0.11233519 0.5059771 -5.3232245 0.013927238
-1.5464528 2.6882622 0.47506523 1.6662266 0.48981637 -2.7995775 0.90767074 1.1657375
0.018453984 0.86897063 -0.020919697 1.9345652 1.1341839 -0.027860578 1.7838819 2.054652
-3.3534317 9.083616 0.23906243 0.285649 -0.06642199 1.957302 -0.5734515 2.4908626
5.3558397 0.99420124 -7.0378633 0.5402802 0.8538487 0.7000235 -0.08518986 1.0569267
0.045201853 0.98758394 13.189766 1.0480752 0.1139454 0.9612534 0.95833784 2.3091562
-0.34129125 2.4792175 1.0016549 -0.029441472 -0.32161447 0.027908899 2.874843 2.1624177
1.4777931 1.3779675 0.8196486 -3.5106192 1.1920921 -2.1062703 -0.3234836 7.393141
-1.4325324 -1.7182157 1.1903185 -1.093279 -2.95374 -0.03774108 3.0962822 6.3087926
-0.2348569 1.2255967 0.5591432 1.1653329 -0.15866736 -0.09549637 1.9362152 -1.5788022
1.6070384 1.0048835 -1.2060149 1.6473131 -0.53021646 -0.08756433 -1.1809165 3.6356971
-0.026105719 -0.9462517 -2.321749 0.638609 -0.34431034 -1.2894987 0.025645152 -13.522627
2.1864452 5.550912 -0.6078387 0.67658055 -7.5205455 0.8003288 1.5703138 -1.5781078
0.7119337 -2.513818 1.0327189 -0.023471897 -1.1457816 0.748155 -0.38589677 -0.6383318
6.2480407 0.7074352 -1.8143315 2.2342522 -0.01194166 -0.0054362626 0.86329013 -2.1713114
0.013018552 -0.21448453 -0.04536982 -0.43549198 0.5439843 -0.7020032 -0.002015359 0.0183364
-1.0229838 0.23005514 -9.086252 0.07233893 -4.1124606 -2.9863458 3.3105052 0.81275254
-0.14588219 -0.35354987 5.9999013 2.091224 -0.014709378 3.3992913 2.2855113 -0.090963736
-0.6938924 0.24766345 4.5587974 0.48692712 4.809734 -0.015066528 0.8193596 2.9226205
0.014177368 0.37647635 -0.18755242 0.5331417 -5.5034795 0.021959864 3.6418655 -2.8390503
-0.042870924 1.6292388 -0.6121577 -2.809814 0.534683 -1.1915201 0.022050727 0.5982557
-0.0033920147 -2.0361302 1.283998 -0.2699591 1.7986121 1.9185773 4.034781 9.148814
0.1541188 -0.29780993 0.27210513 5.2700133 1.1473444 1.799034 -1.5819441 0.9351857
-8.030233 0.38715276 0.99516886 -0.8225421 1.1534314 0.056951992 0.14380844 -0.9345642
14.439237 -1.2581706 -0.22502224 0.95173997 -1.0624452 2.3091168 0.18626735 2.4930608
0.99372345 -0.022358513 -0.6519047 -0.00650935 -2.29029 2.0038326 2.0923266 0.9347218
1.3508189 -3.514743 -1.1209916 2.2120166 0.19454537 7.7263846 1.6109143 -0.6656029
2.3322685 -2.2474623 -2.8450449 0.011114664 2.9586165 5.8580213 -0.025983596 1.2340329
0.5578514 0.39022455 -0.17988773 0.03354445 1.6896335 -2.065697 1.6814 1.0044093
2.3193724 1.8024393 -0.25977904 0.018444631 1.21311 2.9030623 -0.029242331 0.6247501
-2.2876472 0.6353141 0.83649945 -1.3092761 -0.005326242 -16.666899 2.0070634 3.802682
-0.6051208 0.6914646 -1.9544265 0.6971318 1.5300373 1.6315687 4.9949365 2.5013752

outputLayer.bias f4 [2]
00000000: cd92 6641 2a52 6841
14.41084 14.52006
