ftl/pretrain/weight/multi-workload_half_v1/multi-workload_half_v1_64.pth (torch, 187843 bytes, 8 tensors)

hiddenLayer1.weight f4 [150, 3]
-0.28452384 -1.9580896 0.2887183 -0.18583935 -0.056093186 -0.17990142 -18.08249 -0.65237474
-0.80247504 -0.98619306 -0.10351085 -4.077844 -0.097467944 -0.0647781 -0.0043153716 -0.05199418
0.0019968404 -0.015494185 -0.90747845 0.0014470748 -0.0933718 0.005925943 0.6377938 3.0030265
-0.071243666 0.0027390188 -0.059612937 -0.12901682 -0.054397345 -0.032405287 -0.10226292 -0.7056145
-2.9181395 -2.5513804 -0.0022757843 -2.5512033 -9.566489 0.008184512 -0.5081385 -15.919134
-0.46603063 0.73181206 -0.07072528 -0.00082059036 -0.00051308284 -5.9615192 0.05172195 0.017510252
-0.8818891 -0.06065063 0.8489247 -28.33843 0.27858016 -0.25459218 -6.458233 0.16712508
1.5303465 -0.13342802 -0.00054509204 -0.042880233 0.1183346 0.035123155 1.3880247 -0.2688324
0.1917134 1.9901111 -2.8284774 0.010433582 1.5093397 -1.4213469 0.074304424 1.4698457
0.059938367 -0.008642123 1.8180001 -17.065947 0.03163 -2.5775967 -0.3851953 -0.20719707
-0.98655224 -0.3029221 0.010131539 -1.1058197 -1.1817956 0.6906388 -2.2948363 -0.07749652
0.021814177 0.0011992735 -0.009464194 -0.12516664 1.3836088 -0.18710284 -0.021051602 -0.063532956
-0.32032153 -0.53477824 -4.1385207 -0.2366936 1.2166153e-05 -0.107495986 -0.05474721 0.00025279346
-0.07896355 0.25723907 -0.19664937 0.8826601 -13.590117 -0.04889159 -1.8482108 -0.8308473
0.001821509 -0.2428355 -0.0165612 -0.000701565 -0.027785556 -15.944565 -0.083825916 -0.75511444
-3.9530752 0.24201716 -2.001434 -0.5861838 -1.5275968 0.39317873 -0.046215713 5.3387153e-05
-0.039708618 -0.025257256 0.00039499707 -0.09813017 -0.4726936 -2.1770008 -0.51306266 -6.8324385
0.00066425296 -0.94788814 -0.36909673 -0.21192336 0.35265052 -9.714707 0.08578235 -2.5585878
-0.3978987 -0.0026509615 -0.011454908 -4.723158 0.13893378 -2.2598693 -20.096813 -0.35338345
0.2537696 -0.024544133 -0.1393107 -0.008206935 -3.2306848 0.026090084 0.03296062 -0.36808792
-0.0069542513 -0.15949765 -18.320438 0.2610744 -0.39047348 -0.02265459 -0.46863553 -4.6429152
0.055390872 0.33803484 2.4206657 -0.34621555 -0.0007205304 -0.10739783 -41.9298 0.015118096
0.008295905 -8.62444 0.0314412 0.020296017 -0.031215843 0.004612392 -0.021948012 0.30683282
0.086060286 -4.7142205 0.0030606615 0.0044589574 -11.152245 -1.9303035 0.54362077 -3.4103823
-0.42285034 -0.70399576 0.43329582 -12.897994 -0.09507902 -0.42236355 -0.05731215 0.007818804
-0.08203064 -0.08125982 -0.016798375 -0.0037505568 -0.78388405 1.0343803 -1.1964457 -0.07823514
0.00242528 -0.049263302 -1.9361247 0.06805836 -0.14586577 -5.0941133 0.05387284 -3.202297
-2.0877776 1.7968537 0.97076267 -0.053767115 8.364401e-05 -0.032691337 -0.04226548 0.006994063
-0.022938421 -0.07628302 -0.00018191204 -0.048902832 -24.552488 0.015557751 0.014340756 -0.20414777
-0.0082032615 -0.019666541 -2.5218055 1.5360913 0.121811196 0.15515853 -0.039094876 4.8312545
-0.7682337 0.0025523982 -0.036917727 -0.8266144 -0.1648879 0.82729983 -4.4023786 -0.10704421
-0.81662905 3.6516274e-05 0.0010332367 -0.0023561995 -3.7074366 -0.00031458476 -1.6564187 -3.392213
00000000: 1cad 91be aea2 fabf e3d2 933e ac4c 3ebe
00000010: f8c1 65bd 1438 38be f1a8 90c1 0802 27bf
00000020: 016f 4dbf 2677 7cbf 7ffd d3bd b37d 82c0
00000030: 469d c7bd 61aa 84bd f667 8dbb d9f7 54bd
00000040: 6cdd 023b 52db 7dbc 8250 68bf c6ab bd3a
00000050: b739 bfbd 6a2e c23b 7446 233f 9631 4040
00000060: 33e8 91bd 1c81 333b b22c 74bd fc1c 04be
00000070: c0cf 5ebd 68bb 04bd 396f d1bd 27a3 34bf
00000080: ccc2 3ac0 d149 23c0 5325 15bb ea46 23c0
00000090: 5710 19c1 5518 063c 5d15 02bf c6b4 7ec1
000000a0: 919b eebe 0958 3b3f 6ad8 90bd e31c 57ba
000000b0: 6880 06ba c4c4 bec0 65da 533d a971 8f3c
000000c0: 7cc3 61bf cc6c 78bd 2153 593f 1bb5 e2c1
000000d0: 0fa2 8e3e e859 82be d8a9 cec0 d622 2b3e
000000e0: 65e2 c33f 5ba1 08be 82e4 0eba 2fa3 2fbd
000000f0: 6959 f23d 4cdd 0f3d cbaa b13f 66a4 89be
00000100: 8450 443e f6bb fe3f c605 35c0 9df1 2a3c
00000110: 0b32 c13f b2ee b5bf eb2c 983d e723 bc3f
00000120: ef81 753d b197 0dbc 3ab4 e83f 0f87 88c1
00000130: 758e 013d 58f7 24c0 5238 c5be 782b 54be
00000140: b08e 7cbf 9b18 9bbe c1fe 253c 808b 8dbf
00000150: 1445 97bf b4cd 303f 99de 12c0 7fb6 9ebd
00000160: a5b3 b23c f130 9d3a b50f 1bbc af2b 00be
00000170: 181a b13f e397 3fbe 6974 acbc 911d 82bd
00000180: 2f01 a4be 3ae7 08bf c36e 84c0 cf5f 72be
00000190: 3b1d 4c37 db26 dcbd 9c3e 60bd 5d89 8439
000001a0: a4b7 a1bd d7b4 833e 745e 49be 03f6 613f
000001b0: 1f71 59c1 8c42 48bd 2c92 ecbf 69b2 54bf
000001c0: b3bf ee3a dfa9 78be 5bab 87bc 3be9 37ba
000001d0: 899e e3bc f01c 7fc1 ecac abbd 2e4f 41bf
000001e0: 2fff 7cc0 59d3 773e 7f17 00c0 2410 16bf
000001f0: 4b88 c3bf b94e c93e b04c 3dbd 05ec 5f38
00000200: 81a5 22bd 4ee8 cebc 9c17 cf39 78f8 c8bd
00000210: e504 f2be fb53 0bc0 1358 03bf 56a3 dac0
00000220: 4321 2e3a cca8 72bf 3ffa bcbe 7002 59be
00000230: 9c8e b43e 716f 1bc1 a8ae af3d e7bf 23c0
00000240: 61b9 cbbe c1bb 2dbb 5ead 3bbc 1c24 97c0
00000250: a844 0e3e b3a1 10c0 46c6 a0c1 adee b4be
00000260: 17ee 813e c710 c9bc 77a7 0ebe 6176 06bc
00000270: 8ac3 4ec0 dfba d53c b701 073d 0576 bcbe
00000280: 7de0 e3bb 5a53 23be 4290 92c1 8bab 853e
00000290: 24ec c7be 1e96 b9bc fff0 efbe c392 94c0
000002a0: 8ae1 623d e712 ad3e 30ec 1a40 2a43 b1be
000002b0: fae1 3cba 65f3 dbbd 1db8 27c2 e4b1 773c
000002c0: 8ceb 073c b5fd 09c1 7dc8 003d d543 a63c
000002d0: 5eb8 ffbc 8c23 973b 51cc b3bc 3119 9d3e
000002e0: 6040 b03d e5da 96c0 6195 483b 721c 923b
000002f0: 986f 32c1 2f14 f7bf bb2a 0b3f b443 5ac0
00000300: d77f d8be 1139 34bf f3d8 dd3e 2f5e 4ec1
00000310: cab8 c2bd 0940 d8be 25c0 6abd 711a 003c
00000320: aeff a7bd 8c6b a6bd bf9c 89bc e7cb 75bb
00000330: a0ac 48bf 9366 843f 2225 99bf bf39 a0bd
00000340: 72f1 1e3b 51c8 49bd efd2 f7bf 2e62 8b3d
00000350: d65d 15be fa02 a3c0 c4a9 5c3d 6ff2 4cc0
00000360: 269e 05c0 4dff e53f e783 783f e83a 5cbd
00000370: 096a af38 5ae7 05bd 911e 2dbd 742e e53b
00000380: 5be9 bbbc 463a 9cbd a4bf 3eb9 564e 48bd
00000390: 7f6b c4c1 f0e5 7e3c 7ef5 6a3c 1d0c 51be
000003a0: f966 06bc ba1b a1bc 4365 21c0 a49e c43f
000003b0: 2678 f93d e1e1 1e3e f321 20bd a399 9a40
000003c0: f7aa 44bf 2346 273b 0b37 17bd 009d 53bf
000003d0: 60d8 28be ecc9 533f 49e0 8cc0 ff39 dbbd
000003e0: 9a0e 51bf 0d29 1938 ac6d 873a 786a 1abb
000003f0: a446 6dc0 daee a4b9 8705 d4bf 051a 59c0

hiddenLayer1.bias f4 [150]
-3.753617 -0.9232515 -0.6818398 -1.5232959 -0.9561461 -0.041588627 -0.10837883 0.7673699
-0.07674833 -0.8002972 -0.26683003 -2.0913901 -0.7529462 -2.6949656 -0.016515516 -1.1108294
-0.40572214 -0.40093642 -0.72861266 -0.046784475 -0.5465129 -2.2387574 -3.1916041 -3.979289
-4.9855494 -2.6968508 0.49290454 -1.0263909 -0.658935 -0.33058062 3.0393498 -0.3555931
-0.94888806 -0.0907359 -0.065087564 -6.756246 -0.2755262 -0.22125448 -0.033318777 -2.1618307
-0.18462151 -2.912512 -0.032008428 -0.07852505 -1.6870251 -0.99298847 -1.3168192 -0.18850152
-0.0745246 -3.151125 -1.0390288 -1.922159 -1.6291875 -0.4424253 -0.2619456 -1.1737149
-1.9485164 -0.09809812 -0.7542754 -1.4339035 -0.08785966 0.5699033 1.0799847 -2.6274672
-8.760374 -1.9530941 -0.14133309 -0.44835857 -1.8983587 -0.055581138 -1.463919 -3.1141267
-4.131539 -0.027266016 -0.10699137 -0.07474742 -0.9441598 -0.16168797 -7.5600305 -6.764658
-0.07114499 -5.0796256 -2.2692392 -0.028479282 -1.3684565 -1.7984506 -1.0191989 -0.35558185
-0.34494352 -1.497314 -0.059849788 0.1320718 -0.1975173 -1.5332546 -3.236636 -0.14283918
-0.57269925 -0.46999905 -0.2330031 -0.5718694 -0.08087224 -0.54403 -1.8033001 -1.5394042
-4.2606564 -0.16322066 -2.0173962 -1.8212109 -1.2685678 -0.923461 0.13934796 -0.93160623
-4.1476407 -0.96977806 -0.642148 -0.017480554 -1.9643209 -0.20093651 -6.9968967 -0.5858086
-0.23846537 -3.0255246 -2.7976003 -0.09678876 -0.022495866 -0.028602762 -5.1590376 -0.88193023
-0.16413045 -6.016127 -2.7886143 -0.6115648 -0.12707411 -0.17126569 -0.30879426 -1.1967422
-0.046460647 -6.1347084 -3.3380454 -0.123169184 2.7749572 -4.117568 -0.59693885 -2.1529791
-5.9204364 -0.015179508 -0.44484004 -0.565629 -0.10485131 -0.04554516
00000000: 433b 70c0 365a 6cbf 0e8d 2ebf 5cfb c2bf
00000010: fec5 74bf d658 2abd b8f5 ddbd 5b72 443f
00000020: 3a2e 9dbd 47e0 4cbf f29d 88be 56d9 05c0
00000030: 15c1 40bf 517a 2cc0 8c4b 87bc a82f 8ebf
00000040: d0ba cfbe 8a47 cdbe 5c86 3abf 14a1 3fbd
00000050: 45e8 0bbf cd47 0fc0 3e43 4cc0 acac 7ec0
00000060: 9f89 9fc0 3499 2cc0 fc5d fc3e c760 83bf
00000070: f7af 28bf dd41 a9be b584 4240 4c10 b6be
00000080: 54ea 72bf bed3 b9bd a14c 85bd 2b33 d8c0
00000090: c511 8dbe 8990 62be 4579 08bd 6f5b 0ac0
000000a0: 6c0d 3dbe 9966 3ac0 451b 03bd bed1 a0bd
000000b0: 70f0 d7bf 7e34 7ebf 888d a8bf 8b06 41be
000000c0: 5aa0 98bd 08ac 49c0 e5fe 84bf 4e09 f6bf
000000d0: 3789 d0bf 9285 e2be bc1d 86be 4a3c 96bf
000000e0: fc68 f9bf abe7 c8bd 3118 41bf 268a b7bf
000000f0: c4ef b3bd 2fe5 113f f03c 8a3f 6c28 28c0
00000100: 7e2a 0cc1 fdfe f9bf 9fb9 10be 418f e5be
00000110: 6bfd f2bf 0ca9 63bd b361 bbbf da4d 47c0
00000120: 9135 84c0 fb5c dfbc 4b1e dbbd 2d15 99bd
00000130: 75b4 71bf 8891 25be c5eb f1c0 1478 d8c0
00000140: 77b4 91bd 4b8c a2c0 373b 11c0 624d e9bc
00000150: 9529 afbf a133 e6bf 1c75 82bf d30e b6be
00000160: 709c b0be fca7 bfbf 0d25 75bd d43d 073e
00000170: fa41 4abe b041 c4bf 0b25 4fc0 6f44 12be
00000180: 6b9c 12bf b7a3 f0be 5d98 6ebe 0866 12bf
00000190: 58a0 a5bd 8d45 0bbf 8ad2 e6bf 320b c5bf
000001a0: 4c57 88c0 5123 27be 051d 01c0 701d e9bf
000001b0: 6e60 a2bf f167 6cbf 3bb1 0e3e bf7d 6ebf
000001c0: 79b9 84c0 6043 78bf d063 24bf 6133 8fbc
000001d0: de6e fbbf 4dc2 4dbe 94e6 dfc0 8df7 15bf
000001e0: 4430 74be 32a2 41c0 e20b 33c0 2f39 c6bd
000001f0: 4049 b8bc 5750 eabc d616 a5c0 2ec6 61bf
00000200: d011 28be 1d84 c0c0 a878 32c0 838f 1cbf
00000210: b71f 02be 4660 2fbe 481a 9ebe d92e 99bf
00000220: 854d 3ebd 884f c4c0 89a2 55c0 2040 fcbd
00000230: e698 3140 1ec3 83c0 fcd0 18bf 69ca 09c0
00000240: 3774 bdc0 79b3 78bc 13c2 e3be 10cd 10bf
00000250: 49bc d6bd 908d 3abd

hiddenLayer2.weight f4 [150, 150]
0.32397377 1.046154 0.6636838 3.0489972 -0.053687867 0.016922435 -0.29071414 -0.4159679
-1.581317 -1.2569541 -1.9389821 -5.1399508 -0.43404546 13.3806505 0.0483462 -0.533648
-0.5087116 -7.3704896 1.2010356 -0.12464149 -0.8774855 -1.7530204 -0.1282257 0.21724848
-0.31840953 1.0141256 -0.06302004 -2.1937296 0.16276552 -5.017654 -0.43190873 -1.7734188
-22.2703 0.7078205 -0.28977403 -0.44406152 -5.103061 -0.4727364 0.06797514 7.211721
-0.33618182 -2.6839797 0.011012251 -1.5403297 -13.643324 -0.97862697 -2.2210884 0.3468939
0.7118769 -5.208254 -26.777866 0.07589421 1.9884413 1.2129399 4.7197633 -11.868038
-0.4538901 0.339443 2.4303653 -4.5123897 0.1999336 -0.2897687 0.57563114 1.2756972
1.275051 5.1685677 0.0057809805 1.4358861 1.3207772 0.01193561 2.6929324 -3.8435576
-0.8206892 -0.0087141 0.024764745 0.769238 -3.2467086 0.22562338 0.48189571 -0.43940598
0.23834689 0.23016176 -7.332135 -0.0838232 -16.67221 -0.04308758 -0.5277213 0.021756487
2.60684 -5.1825166 -8.702681 1.0730464 -2.1678321 -3.0012023 0.33363694 -1.2029678
3.5927792 -0.5663399 0.5404852 0.2401729 0.98688924 0.8159567 1.4735005 0.12877162
-1.1042659 0.38065955 1.0460497 0.24754864 -3.4082212 -0.9441236 -1.128623 -2.0169294
-16.19507 -0.16359591 -22.950869 0.010613404 3.7160618 -0.6624731 0.64206743 -2.542173
-0.20754597 -7.5787272 -1.2706463 0.14053582 -0.034982055 -0.23828194 -2.2331448 -0.22670422
0.14499788 -7.630407 -4.6250343 -4.811001 -0.067728534 -6.462088 -7.68738 -2.1529102
-0.22452037 -2.1912065 2.879683 0.3837497 -0.31487903 0.20642479 -4.2966332 -1.5151625
-0.5755828 0.033121925 0.69197536 -0.973288 0.052904807 0.2316266 -12.365625 1.3461443
-20.848421 -1.4667264 0.3327951 -0.042995736 -0.13554883 -0.82452446 0.43237877 2.8848
-5.1348786 -4.5687675 -1.3741072 -6.771738 0.07348455 0.3624362 3.7353683 2.4359517
3.713037 -0.14577869 -3.2325437 -0.16340582 -1.8933856 0.12020582 -4.4259615 -4.6678014
3.269092 -4.7147646 2.010816 0.03951998 -0.61185473 -0.743251 4.9588666 1.0598816
1.2723442 -2.8495202 -10.747597 0.23066692 0.047568616 -21.432951 -22.568195 3.0502312
-0.18862258 -0.8873706 -9.592789 0.013857589 -1.2872622 0.7429431 0.12476147 -2.0252948
-1.7581843 -9.213915 0.25874326 0.36034963 2.7698965 -2.0925305 0.0010169379 0.17209211
21.51524 -2.2165725 -0.6993852 -1.0645438 -0.029257204 -0.41892746 2.1661706 -1.6940933
-0.4914701 0.75470895 -5.452329 0.5013413 -6.647144 3.3644848 -1.1862297 0.0648778
-0.23896697 0.23199917 4.5601726 -0.48957664 1.0546758 -0.70131874 0.14337291 -8.257508
-1.9655108 -0.042767644 0.75042635 -0.44877338 -2.6291819 -5.3205953 -1.7050442 -9.7371855
-1.7283545 4.8836894 0.07912051 -5.878966 -0.26042423 0.5357475 -0.72393435 -0.11490835
-12.202293 -0.217275 0.18813477 0.11396263 -3.888458 2.9335384 0.32119352 0.10404504
00000000: e4df a53e 60e8 853f 2ee7 293f c522 4340
00000010: cfe7 5bbd eba0 8a3c 7cd8 94be bff9 d4be
00000020: 9868 cabf dfe3 a0bf 9130 f8bf 7a7a a4c0
00000030: 353b debe 2517 5641 aa06 463d 289d 08bf
00000040: ec3a 02bf 0ddb ebc0 89bb 993f 0a44 ffbd
00000050: e4a2 60bf f962 e0bf 994d 03be 6376 5e3e
00000060: 9306 a3be dece 813f a710 81bd 1166 0cc0
00000070: 01ac 263e 9f90 a0c0 2423 ddbe 63ff e2bf
00000080: 9329 b2c1 b933 353f 435d 94be 085c e3be
00000090: 474c a3c0 810a f2be 8d36 8b3d 6bc6 e640
000000a0: 0620 acbe 53c6 2bc0 ba6c 343c 8629 c5bf
000000b0: 0e4b 5ac1 4c87 7abf 5026 0ec0 149c b13e
000000c0: 913d 363f 04aa a6c0 1239 d6c1 6c6e 9b3d
000000d0: 3f85 fe3f 9d41 9b3f 4d08 9740 7ce3 3dc1
000000e0: 4864 e8be 79cb ad3e 1b8b 1b40 7f65 90c0
000000f0: 65bb 4c3e 905c 94be 905c 133f 0c4a a33f
00000100: df34 a33f e864 a540 616e bd3b 1ecb b73f
00000110: 3a0f a93f 948d 433c 0159 2c40 d9fc 75c0
00000120: b018 52bf 96c5 0ebc 6fdf ca3c c8ec 443f
00000130: 13ca 4fc0 d109 673e 09bb f63e d2f9 e0be
00000140: 3511 743e 86af 6b3e daa0 eac0 7fab abbd
00000150: b060 85c1 9a7c 30bd be18 07bf a93a b23c
00000160: 77d6 2640 2dd7 a5c0 2e3e 0bc1 9659 893f
00000170: c3bd 0ac0 b313 40c0 76d2 aa3e d9fa 99bf
00000180: 18f0 6540 a7fb 10bf 3d5d 0a3f e2ef 753e
00000190: c6a4 7c3f 8ae2 503f aa9b bc3f b5dc 033e
000001a0: 9658 8dbf cfe5 c23e f5e4 853f 647d 7d3e
000001b0: 4c20 5ac0 16b2 71bf b876 90bf 5f15 01c0
000001c0: 818f 81c1 b085 27be 619b b7c1 d8e3 2d3c
000001d0: f5d3 6d40 d697 29bf 885e 243f f6b2 22c0
000001e0: ee86 54be ef84 f2c0 8aa4 a2bf 9fe8 0f3e
000001f0: 5849 0fbd 2e00 74be d8eb 0ec0 2725 68be
00000200: 537a 143e 4b2c f4c0 4800 94c0 b8f3 99c0
00000210: 42b5 8abd 6dc9 cec0 04ff f5c0 48c9 09c0
00000220: abe8 65be ba3c 0cc0 ba4c 3840 d77a c43e
00000230: d337 a1be 0561 533e 057e 89c0 d8f0 c1bf
00000240: 6559 13bf dbaa 073d 4c25 313f 6729 79bf
00000250: b6b2 583d 862f 6d3e 9ad9 45c1 754e ac3f
00000260: 91c9 a6c1 b1bd bbbf 1f64 aa3e 4c1c 30bd
00000270: 50cd 0abe 0914 53bf c060 dd3e 90a0 3840
00000280: ed50 a4c0 5833 92c0 bfe2 afbf 14b2 d8c0
00000290: 117f 963d 3d91 b93e 4610 6f40 a2e6 1b40
000002a0: 66a2 6d40 0247 15be ffe1 4ec0 db53 27be
000002b0: 765a f2bf 782e f63d 7aa1 8dc0 a15e 95c0
000002c0: ce38 5140 5adf 96c0 36b1 0040 b4df 213d
000002d0: 83a2 1cbf b345 3ebf 09af 9e40 33aa 873f
000002e0: 2ddc a23f 8a5e 36c0 28f6 2bc1 f333 6c3e
000002f0: 4fd7 423d af76 abc1 aa8b b4c1 fd36 4340
00000300: 4726 41be b82a 63bf 107c 19c1 f10a 633c
00000310: 02c5 a4bf 8531 3e3f f182 ff3d 6e9e 01c0
00000320: 2f0c e1bf 326c 13c1 ff79 843e bf7f b83e
00000330: fc45 3140 05ec 05c0 c64a 853a ea38 303e
00000340: 361f ac41 53dc 0dc0 e90a 33bf f942 88bf
00000350: ceac efbc a97d d6be 8aa2 0a40 0dd8 d8bf
00000360: f8a1 fbbe 9b34 413f 7b79 aec0 e757 003f
00000370: 67b5 d4c0 b853 5740 60d6 97bf a7de 843d
00000380: c2b3 74be 3191 6d3e efec 9140 caa9 fabe
00000390: 9eff 863f a089 33bf 59d0 123e c11e 04c1
000003a0: dc95 fbbf 202d 2fbd f11b 403f a0c5 e5be
000003b0: 8444 28c0 5142 aac0 e33e dabf 83cb 1bc1
000003c0: b83a ddbf 2f47 9c40 ef09 a23d 7d20 bcc0
000003d0: 5356 85be c026 093f c353 39bf 1255 ebbd
000003e0: 983c 43c1 567d 5ebe 67a6 403e 3d65 e93d
000003f0: 7fdc 78c0 18bf 3b40 7a73 a43e 9115 d53d

hiddenLayer2.bias f4 [150]
-0.34028643 -1.1370045 0.28113815 0.9405242 0.65155655 -0.5945672 -0.80792147 -0.23264046
4.258089 0.34754533 0.89554983 -1.0248214 0.5377717 -1.0448915 -0.07145769 -0.5437312
1.5160745 0.042541478 0.95136595 -0.7635054 0.21850958 -0.07602105 -0.28516707 -0.44406056
-0.09749303 -0.20995045 0.006256525 3.7376745 -0.29818135 -0.60280305 0.3787702 -2.0190885
-0.17872488 0.6220364 2.4804857 -0.7597099 -0.7956098 -0.39978543 0.31685534 -1.6011797
-0.55601835 -1.8775417 -0.5419543 -0.0753766 2.2767851 -0.27368692 -2.9230297 -2.895525
-0.62936264 -0.00040323072 -0.22134191 0.14892481 0.119485795 0.56530064 -0.5849662 -0.79226935
0.22667804 -0.23502554 0.3746066 -1.8128763 -0.2885181 0.0027709082 -0.34556177 -1.1811714
-2.6413026 0.32651216 -2.4731736 0.029743358 -0.94981104 1.4106455 4.8371544 -1.1084007
0.1972074 1.9521011 -0.49932694 -0.36655992 0.383291 0.4088295 0.5620459 -0.6825902
-2.5261989 -0.38611957 -0.35387114 -3.3687375 -0.64207065 -0.36584872 0.79936737 -1.3392361
-0.36147967 -0.017906224 0.3222593 6.144948 -1.217131 -0.7276646 -0.43488914 -1.8203691
0.1937596 0.22510105 -0.33174962 8.105368 -0.1868193 -0.35752693 -0.13988061 -0.8666244
-0.051233426 1.3140116 -0.41697624 -0.13777512 4.84924 -1.2299032 0.63392115 -1.544092
-0.79378283 5.011826 3.3499894 0.38179076 -0.57021415 -0.7640569 -0.3393864 0.3279821
-0.07282558 -1.0518458 0.30580255 -0.07587177 -0.5100769 3.2324092 -0.92512405 -0.2594022
0.6236081 -0.72205734 -0.2952993 -1.0409005 4.018494 0.5683596 -0.22487284 0.035268284
-1.0324153 -0.16043961 -1.0713663 -0.26445988 -0.77684486 -0.8518137 -0.07001721 -0.62420815
-0.24644123 -0.88291824 0.85418946 -0.09377559 -0.35025606 -0.33841044
00000000: 063a aebe 5d89 91bf 57f1 8f3e 32c6 703f
00000010: 69cc 263f 8e35 18bf f1d3 4ebf 4d39 6ebe
00000020: 4442 8840 76f1 b13e c142 653f 592d 83bf
00000030: 68ab 093f 01bf 85bf 6958 92bd f831 0bbf
00000040: bb0e c23f f93f 2e3d b88c 733f 1775 43bf
00000050: fac0 5f3e edb0 9bbd 6b01 92be e85b e3be
00000060: 6daa c7bd 40fd 56be 8903 cd3b 0f36 6f40
00000070: 3aab 98be 4d51 1abf 2bee c13e bf38 01c0
00000080: a803 37be c73d 1f3f 47c0 1e40 597c 42bf
00000090: 15ad 4bbf adb0 ccbe dd3a a23e 75f3 ccbf
000000a0: 3857 0ebf 4953 f0bf 84bd 0abf 0c5f 9abd
000000b0: d9b6 1140 b120 8cbe eb12 3bc0 4850 39c0
000000c0: e91d 21bf b668 d3b9 74a7 62be bf7f 183e
000000d0: f8b4 f43d 8bb7 103f 58c0 15bf 2ad2 4abf
000000e0: 4a1e 683e 89aa 70be 70cc bf3e 550c e8bf
000000f0: a5b8 93be 2098 353b 79ed b0be a030 97bf
00000100: 1a0b 29c0 9a2c a73e 7a48 1ec0 58a8 f33c
00000110: d126 73bf 0890 b43f f8c9 9a40 13e0 8dbf
00000120: bdf0 493e 73de f93f c8a7 ffbe bead bbbe
00000130: b83e c43e 1a52 d13e 3de2 0f3f 3bbe 2ebf
00000140: 3ead 21c0 77b1 c5be 992e b5be 6599 57c0
00000150: be5e 24bf 8650 bbbe 57a3 4c3f 176c abbf
00000160: dd13 b9be 13b0 92bc 2cff a43e 6aa3 c440
00000170: f3ca 9bbf 3a48 3abf caa9 debe db01 e9bf
00000180: eb68 463e e480 663e 16db a9be 96af 0141
00000190: 8f4d 3fbe c50d b7be dd3c 0fbe 19db 5dbf
000001a0: 24da 51bd 8831 a83f e97d d5be ec14 0dbe
000001b0: f92c 9b40 786d 9dbf a848 223f cfa4 c5bf
000001c0: 5a35 4bbf e160 a040 3a66 5640 147a c33e
000001d0: 8ef9 11bf 3c99 43bf 0ec4 adbe 45ed a73e
000001e0: 9425 95bd e2a2 86bf 2792 9c3e a962 9bbd
000001f0: 6694 02bf cbdf 4e40 eed4 6cbf 5dd0 84be
00000200: c8a4 1f3f c0d8 38bf 7831 97be 3a3c 85bf
00000210: 8197 8040 0480 113f 1145 66be 7a75 103d
00000220: 2f26 84bf 484a 24be 8822 89bf 4967 87be
00000230: 4edf 46bf 7610 5abf 2f65 8fbd 1bcc 1fbf
00000240: 175b 7cbe ee06 62bf 29ac 5a3f 6b0d c0bd
00000250: c354 b3be 2244 adbe

hiddenLayer3.weight f4 [150, 150]
-0.47122985 1.3107487 3.7639813 -0.62838453 -0.9864929 -0.21118109 -0.09684998 -0.41467538
0.024797311 0.40423402 0.76101875 -1.6929339 -0.5046343 -1.1038271 -0.011725652 0.06843966
0.1483144 0.76710236 1.2237067 -1.0103924 -1.3848217 -0.029987153 0.60186756 -4.7283235
0.07010995 -2.1325185 -2.0082345 -0.07037019 -0.7658163 0.93084514 0.051263165 2.0978277
-13.1091385 3.406555 0.008202943 -4.073972 -2.38393 2.363959 -0.46823967 0.8097198
3.7716238 3.074728 -0.69678193 0.0416002 0.35827065 0.1329799 -11.197464 -28.58288
-3.4045928 1.9675962 1.538507 -0.47486764 -0.20819715 -3.1834245 -0.31882167 -0.72871995
0.42002702 0.044348575 -4.6290293 0.84083885 -0.6677904 -5.0340567 0.15044406 2.6731362
2.3712482 1.3697402 1.1191993 -0.34133896 -2.0532029 1.694758 0.29171115 0.49776566
0.4053589 -0.15336984 -1.64058 0.09814215 -0.7359706 0.4676973 -0.7167938 -3.5127642
-1.8785719 -1.3173549 0.08304318 0.03273556 0.2998312 0.14107037 0.8487806 0.7445494
2.0483153 0.07827524 0.18526585 0.6799324 1.8278763 0.23068258 -2.1760051 0.70508105
-0.01903066 1.2071147 0.47396198 -0.0011073542 -0.9849924 -0.4418168 0.3476201 0.93630874
-0.045274377 0.14757207 -5.5439434 0.46622854 0.29748484 -2.5802789 2.5402172 -1.9322999
-4.4727426 -0.081870705 -0.19853662 -1.1342742 2.195034 -0.47150987 0.3790583 -3.3721452
0.009551125 0.6022748 -4.416058 0.043384776 0.035075206 -0.69841826 -11.25668 0.006945307
-0.005475869 -2.3708608 -1.8190145 -1.2538481 -0.3210325 -2.027766 -1.5006225 2.2527978
0.7674108 1.2895075 2.7631128 1.5861659 -1.8233999 -13.532598 -0.032102585 -4.03349
-3.1682239 3.8652334 0.11939991 -0.0082928995 1.3727043 -0.045653332 -0.771229 -0.2818194
3.317754 0.17882548 0.71449053 0.042969175 -15.558819 0.6219877 -1.5407299 1.7554235
-1.1091571 -0.8835256 1.3148878 -0.9757135 -0.020669932 0.048507236 -0.1911262 -1.0072016
-0.43294927 -1.389923 -1.0675668 -0.05679911 -0.71270174 1.0207689 0.11449667 -2.4078372
-0.71370524 -0.8517761 -1.5807177 -0.019666007 -0.22932704 0.54041994 -2.4830828 3.3048291
0.53397906 2.456633 1.8272147 3.2698014 3.9207008 -0.29813924 -0.45185527 -5.6615295
-3.6214507 0.07472132 -0.42466196 0.16049628 -10.071669 10.836326 -1.0453191 -1.4170903
0.8049873 -1.5211493 -1.4764724 -0.095192865 2.3579755 1.7341547 0.86040604 0.12344711
-0.6895568 -0.09117883 -0.47340086 -0.32167423 -1.0265374 -2.7072418 -11.427967 -0.88925207
-3.625318 -0.56333804 2.5445542 0.14068195 -1.6577151 -0.088857815 -1.3806399 -2.6934793
-3.974114 0.83370167 1.6700324 -1.5531338 -1.6025434 -0.41459432 0.85423017 1.1721783
-0.10221933 -1.2568455 2.5414314 -0.060319614 -1.6819463 0.90692204 -1.5799026 0.08864379
3.1875863 -0.7056554 -0.29081425 0.7117859 0.09787366 0.79201365 0.9125616 3.325635
1.4441481 -2.1245341 -5.643179 -0.035230897 0.25034818 0.9527698 -0.056736995 -0.2405198
00000000: 0a45 f1be 9dc6 a73f 12e5 7040 cfdd 20bf
00000010: cc8a 7cbf db3f 58be 4859 c6bd 5550 d4be
00000020: bb23 cb3c c3f7 ce3e 20d2 423f 0fb2 d8bf
00000030: b72f 01bf 354a 8dbf f31c 40bc 182a 8c3d
00000040: bbdf 173e d260 443f 6ca2 9c3f 8a54 81bf
00000050: d641 b1bf 9ea7 f5bc fe13 1a3f 6d4e 97c0
00000060: ce95 8f3d 2f7b 08c0 ea86 00c0 3f1e 90bd
00000070: 890c 44bf de4b 6e3f 53f9 513d cf42 0640
00000080: 08bf 51c1 ff04 5a40 a365 063c fb5d 82c0
00000090: 4f92 18c0 1b4b 1740 1cbd efbe cc49 4f3f
000000a0: 4962 7140 58c8 4440 4d60 32bf f964 2a3d
000000b0: 406f b73e e22b 083e d028 33c1 bda9 e4c1
000000c0: d9e4 59c0 31da fb3f cced c43f da21 f3be
000000d0: a231 55be 3abd 4bc0 983c a3be 648d 3abf
000000e0: c80d d73e daa6 353d 0221 94c0 3741 573f
000000f0: 50f4 2abf fe16 a1c0 020e 1a3e aa14 2b40
00000100: 88c2 1740 a653 af3f ec41 8f3f fbc3 aebe
00000110: ad67 03c0 d5ed d83f 2a5b 953e 24db fe3e
00000120: 348b cf3e fc0c 1dbe 87fe d1bf c0fe c83d
00000130: 9268 3cbf 0576 ef3e cc7f 37bf 21d1 60c0
00000140: 0b75 f0bf 169f a8bf 8b12 aa3d b915 063d
00000150: 7a83 993e c074 103e af49 593f ca9a 3e3f
00000160: 9917 0340 c54e a03d 55b6 3d3e 0d10 2e3f
00000170: daf7 e93f 0e38 6c3e ab43 0bc0 3180 343f
00000180: 30e6 9bbc bc82 9a3f 25ab f23e a424 91ba
00000190: 7628 7cbf d035 e2be 43fb b13e eeb1 6f3f
000001a0: a071 39bd 221d 173e fc67 b1c0 82b5 ee3e
000001b0: ef4f 983e 4a23 25c0 eb92 2240 9a55 f7bf
000001c0: b520 8fc0 d4ab a7bd 2f4d 4bbe e62f 91bf
000001d0: 707b 0c40 be69 f1be ee13 c23e 3ad1 57c0
000001e0: 527c 1c3c ae2e 1a3f 5950 8dc0 3cb4 313d
000001f0: 05ab 0f3d 8acb 32bf 5c1b 34c1 7595 e33b
00000200: eb6e b3bb 2fbc 17c0 78d5 e8bf 187e a0bf
00000210: 5f5e a4be ebc6 01c0 6614 c0bf d72d 1040
00000220: 0975 443f 950e a53f d7d6 3040 7c07 cb3f
00000230: 2b65 e9bf 8585 58c1 007e 03bd 5a12 81c0
00000240: 2ec4 4ac0 fc5f 7740 f187 f43d f1de 07bc
00000250: c6b4 af3f fdfe 3abd 446f 45bf a24a 90be
00000260: 1556 5440 071e 373e dae8 363f 7200 303d
00000270: ecf0 78c1 963a 1f3f a336 c5bf b8b1 e03f
00000280: dcf8 8dbf bc2e 62bf 3e4e a83f 5cc8 79bf
00000290: fd53 a9bc 86af 463d 96b6 43be fbeb 80bf
000002a0: 87ab ddbe ffe8 b1bf 07a6 88bf 2fa6 68bd
000002b0: 9f73 36bf 8ea8 823f 3b7d ea3d 011a 1ac0
000002c0: 63b5 36bf 000e 5abf f554 cabf 9b1a a1bc
000002d0: b5d4 6abe f658 0a3f d4ea 1ec0 5282 5340
000002e0: dab2 083f 7a39 1d40 2ce2 e93f 6d44 5140
000002f0: c3ec 7a40 b5a5 98be 9359 e7be 402b b5c0
00000300: d9c5 67c0 7e07 993d 4b6d d9be 2359 243e
00000310: 8e25 21c1 9761 2d41 04cd 85bf 3763 b5bf
00000320: a613 4e3f 05b5 c2bf 0cfd bcbf 7af4 c2bd
00000330: 12e9 1640 c8f8 dd3f 9243 5c3f d7d1 fc3d
00000340: cb86 30bf f7bb babd 9961 f2be 7cb2 a4be
00000350: 9465 83bf 7343 2dc0 f4d8 36c1 06a6 63bf
00000360: 3605 68c0 ec36 10bf fad9 2240 ee0e 103e
00000370: 0230 d4bf 16fb b5bd cfb8 b0bf f761 2cc0
00000380: e257 7ec0 796d 553f 9fc3 d53f 17cd c6bf
00000390: 2420 cdbf b545 d4be d4ae 5a3f f009 963f
000003a0: 5e58 d1bd 50e0 a0bf d0a6 2240 b311 77bd
000003b0: 044a d7bf 0b2c 683f 403a cabf e08a b53d
000003c0: 6a01 4c40 d5a5 34bf 9be5 94be 9a37 363f
000003d0: fc71 c83d 68c1 4a3f a39d 693f 34d7 5440
000003e0: d8d9 b83f 5ef8 07c0 ec94 b4c0 464e 10bd
000003f0: a32d 803e b9e8 733f 0d65 68bd d34a 76be

hiddenLayer3.bias f4 [150]
8.453203 1.6687143 -0.24101965 5.4295893 0.38419434 6.376443 -2.9569225 3.405463
-0.2451887 -0.9391526 -0.084570535 4.660982 -0.27960142 -0.2780657 6.3540945 -5.3697357
-8.272431 5.873875 -0.41330627 -0.7899576 0.7510356 4.939404 1.3095881 3.0481045
-0.6901184 10.018774 5.588791 -0.8017779 -4.5403647 5.6918983 -0.1761415 -6.124912
-0.35502917 -0.11774125 15.122102 -1.0645834 1.5695598 9.886659 -1.3029187 -1.3848696
1.1492734 -0.39622036 1.40913 -3.49849 -0.29517308 0.2296637 -0.4222301 12.127125
-0.63961285 -2.0253549 1.4178948 -3.734863 2.5579553 -0.16189103 0.8480869 8.147575
-0.16156338 -5.7081547 4.141812 -6.3622465 -0.9029206 -0.1878894 -4.1832237 -0.64100504
-0.33763376 0.33241603 -0.5865706 -0.34409592 -0.36851236 -0.22379178 6.350312 1.9180489
0.73630494 11.994584 12.321982 -0.69414717 -2.3194404 -0.08184391 6.5869117 -0.27123177
-1.1021767 11.32591 7.781914 -0.21370777 -1.432494 -0.13106431 -0.5468648 -0.63890964
-0.10571532 -0.31137192 4.015824 12.18741 -0.47784543 -5.035854 -1.4121236 -0.26269865
-0.38176253 4.49956 8.576912 5.772122 -8.944205 8.265667 -0.21023892 -0.50715804
13.530737 -0.19660828 -0.7133324 0.54961133 14.3185 12.827275 -2.2375414 0.9794267
12.140227 0.033812124 1.6670369 6.791791 -0.041313425 -0.15197293 1.5148152 -0.54698414
-0.16574107 -0.2719469 -4.9336896 -0.2591678 0.37657624 -5.2490892 -0.7072298 -5.2683887
0.330525 9.420552 2.5756183 1.9714817 -0.20721902 -0.45451114 8.565632 11.662599
-0.13495645 -3.2426283 1.8054061 -0.17463416 -0.106638595 -2.6884537 -0.54490316 -1.3513591
10.922116 0.15839322 14.65125 -0.23072381 0.9629705 -0.62431574
00000000: 5240 0741 6e98 d53f dbcd 76be 32bf ad40
00000010: 1fb5 c43e d20b cc40 383e 3dc0 1bf3 5940
00000020: bf12 7bbe 4e6c 70bf 5133 adbd c426 9540
00000030: eb27 8fbe a15e 8ebe be54 cb40 e0d4 abc0
00000040: e15b 04c1 c9f6 bb40 e19c d3be a93a 4abf
00000050: de43 403f 990f 9e40 95a0 a73f 2514 4340
00000060: 99ab 30bf e64c 2041 60d7 b240 5141 4dbf
00000070: ab4a 91c0 0824 b640 705e 34be 47ff c3c0
00000080: 62c6 b5be 5322 f1bd 21f4 7141 4544 88bf
00000090: 56e7 c83f c12f 1e41 0ac6 a6bf 6843 b1bf
000000a0: 641b 933f 65dd cabe 5f5e b43f 43e7 5fc0
000000b0: ed20 97be f62c 6b3e 8b2e d8be b408 4241
000000c0: abbd 23bf 6a9f 01c0 947d b53f ff07 6fc0
000000d0: 8ab5 2340 c3c6 25be 391c 593f 785c 0241
000000e0: df70 25be 34a9 b6c0 b989 8440 8697 cbc0
000000f0: ce25 67bf 1466 40be f8dc 85c0 e818 24bf
00000100: 55de acbe 6f32 aa3e 7e29 16bf 572d b0be
00000110: a7ad bcbe ac29 65be c235 cb40 a082 f53f
00000120: 7b7e 3c3f d1e9 3f41 d726 4541 a1b3 31bf
00000130: b671 14c0 c89d a7bd fbc7 d240 e4de 8abe
00000140: 2014 8dbf ed36 3541 7105 f940 36d6 5abe
00000150: f75b b7bf b935 06be 55ff 0bbf 958f 23bf
00000160: 4681 d8bd 246c 9fbe a181 8040 a2ff 4241
00000170: 28a8 f4be b725 a1c0 77c0 b4bf 7080 86be
00000180: 6176 c3be 65fc 8f40 083b 0941 39b5 b840
00000190: 771b 0fc1 2c40 0441 df48 57be 1cd5 01bf
000001a0: e67d 5841 ae53 49be f49c 36bf 54b3 0c3f
000001b0: 9318 6541 853c 4d41 e133 0fc0 b5bb 7a3f
000001c0: 5f3e 4241 957e 0a3d 7761 d53f 5a56 d940
000001d0: 4438 29bd cb9e 1bbe 77e5 c13f 2707 0cbf
000001e0: 07b8 29be a03c 8bbe c9e0 9dc0 a4b1 84be
000001f0: 9ace c03e 8af8 a7c0 030d 35bf a496 a8c0
00000200: 933a a93e 95ba 1641 eed6 2440 8359 fc3f
00000210: 3931 54be afb5 e8be d40c 0941 019a 3a41
00000220: 0632 0abe 3987 4fc0 8c17 e73f 4cd3 32be
00000230: 5665 dabd a00f 2cc0 c67e 0bbf 56f9 acbf
00000240: fdc0 2e41 d531 223e 856b 6a41 dd42 6cbe
00000250: 3c85 763f 28d3 1fbf

outputLayer.weight f4 [2, 150]
0.68755555 -0.43766052 0.041758783 0.82794005 0.21588011 0.88476396 -3.155098 6.217964
-2.4080195 2.5226812 -0.0034115931 4.769021 0.6989373 1.0176272 0.49805772 -1.6163043
-1.121201 0.8352175 -1.5799402 1.76448 0.41514465 0.9567757 -1.6795173 2.1409776
-3.7725575 1.2656063 1.300803 -0.028065536 -4.9299345 1.0128177 -0.7385716 -2.7636242
3.4026945 0.0557409 1.7335693 -6.2087955 -0.1883147 0.82429945 -0.6713595 -0.066026144
0.092118695 0.80779845 -6.2309356 -8.1479225 5.03194 15.642214 0.86536974 1.1060692
-0.40899506 -3.38549 -0.1409478 -1.5423716 0.47060782 -0.022678576 1.5453562 7.7134476
0.36631578 -1.4542907 2.2153444 -0.42140952 1.8719352 -2.0005565 -0.3424996 0.55609936
-1.9923248 -11.345231 0.7319577 -1.9872837 0.37513697 -0.030248538 1.1930414 4.185031
0.0043583196 1.5706275 0.82447714 0.24536443 -1.8494692 -0.1846792 -7.7171926 -0.38482964
-1.7964267 1.1318966 0.9459075 -1.3820034 16.49704 -0.05608905 -1.1340299 -0.7431479
0.024194442 -0.7721298 3.0387602 0.71782774 -1.2760099 -2.9474247 0.40698516 -1.0121489
-0.20311669 2.554974 1.1455865 0.5800619 -1.8065779 5.3610106 2.5053577 -1.7373333
1.2056162 -2.3463178 1.9970229 0.006312995 1.2148134 0.7822681 -2.271127 -0.42254928
0.78654206 0.6453717 4.081316 1.4574056 -0.027527291 -0.0052568913 -6.2793922 0.8835392
0.6155541 -1.0208626 -0.12483069 -0.30810174 -12.300909 -2.6951725 0.6944271 -3.9017508
5.065529 1.0892694 1.0600147 -0.033502627 3.4341514 0.747695 0.4889408 1.4341446
0.01666183 -5.7386384 22.333593 2.081781 0.002336783 -1.153005 0.50849247 0.096609704
1.145195 0.21956743 0.9181594 -0.053930875 -4.948575 -9.402292 0.2837425 0.035689715
0.013804519 0.8545634 -0.07614469 0.81152046 -3.2347672 5.449593 2.2762043 -2.5612843
-0.022204243 4.787997 -0.8400086 -1.0508205 0.563952 -1.5786748 -1.0977187 0.78174
-1.9409684 -2.1743095 -0.6641533 1.0096481 -1.7840521 2.1181853 3.5961463 1.2480356
1.353505 -0.035799723 -4.9078364 0.98257816 0.6367937 -2.7444644 -3.4152124 -0.30685493
1.7530223 -5.6540384 -0.30653733 0.94801146 0.679288 0.017931284 0.09473522 -0.93645644
-3.7771125 -8.20646 5.0783257 15.249463 -1.1280624 1.0792909 0.4219185 -3.1702871
0.49149984 -1.5723441 -0.3365677 0.007553767 1.6542511 7.8896637 -0.9149701 -1.5900578
2.3107767 -0.99109375 -1.1154829 1.9373583 0.5255639 -1.1692151 3.327752 -12.743301
-0.6531664 1.8721033 1.7184613 0.033660233 1.1726907 4.1705537 -0.025233759 1.6340793
0.832532 -1.3348004 -1.7603003 0.12767701 -7.706888 0.3256463 -1.7494825 1.1675043
0.94056576 1.380946 16.295292 0.0031051273 1.0218813 0.80090326 -0.018887449 0.7485097
3.0759013 0.7398442 0.59764993 -2.7747638 -0.42180282 1.2817415 0.22970188 2.4521492
0.9579076 0.67459935 -1.6373467 5.3483047 2.6132362 1.4172686 1.1898732 2.2005968
00000000: a403 303f 0a15 e0be 420b 2b3d e1f3 533f
00000010: ad0f 5d3e e47f 623f 20ed 49c0 90f9 c640
00000020: fe1c 1ac0 9c73 2140 0995 5fbb d29b 9840
00000030: 8eed 323f 9c41 823f 6c01 ff3e 0fe3 cebf
00000040: 8483 8fbf d0d0 553f 7b3b cabf 7bda e13f
00000050: d78d d43e 41ef 743f 6cfa d6bf c705 0940
00000060: 9571 71c0 63ff a13f b680 a63f b2e9 e5bc
00000070: 06c2 9dc0 03a4 813f 0713 3dbf 38df 30c0
00000080: bfc5 5940 9250 643d 99e5 dd3f 74ae c6c0
00000090: 92d5 40be 4a05 533f 37de 2bbf b738 87bd
000000a0: baa8 bc3d e1cb 4e3f d363 c7c0 e45d 02c1
000000b0: a705 a140 8246 7a41 df88 5d3f ad93 8d3f
000000c0: cd67 d1be deab 58c0 9f54 10be 6f6c c5bf
000000d0: 82f3 f03e 6cc8 b9bc 3bce c53f 90d4 f640
000000e0: be8d bb3e 3326 babf 34c8 0d40 fdc2 d7be
000000f0: 939b ef3f 1e09 00c0 1c5c afbe 875c 0e3f
00000100: 8004 ffbf 1186 35c1 9461 3b3f 505f febf
00000110: f411 c03e c8cb f7bc 95b5 983f c6eb 8540
00000120: 3cd0 8e3b 520a c93f ef10 533f d040 7b3e
00000130: 68bb ecbf 8b1c 3dbe 3ef3 f6c0 6408 c5be
00000140: 4ff1 e5bf fde1 903f fe26 723f 7de5 b0bf
00000150: f0f9 8341 a2bd 65bd e427 91bf f13e 3ebf
00000160: 6c33 c63c 4caa 45bf 0c7b 4240 8fc3 373f
00000170: 4b54 a3bf 9ba2 3cc0 5c60 d03e 188e 81bf
00000180: d2fd 4fbe b284 2340 94a2 923f f07e 143f
00000190: f23d e7bf 668d ab40 c857 2040 f060 debf
000001a0: a251 9a3f 122a 16c0 729e ff3f 3edd ce3b
000001b0: 017f 9b3f b942 483f 255a 11c0 6158 d8be
000001c0: d25a 493f 1437 253f 249a 8240 448c ba3f
000001d0: ea80 e1bc 0042 acbb c8f0 c8c0 a02f 623f
000001e0: f494 1d3f a0ab 82bf 3ca7 ffbd 83bf 9dbe
000001f0: 86d0 44c1 b57d 2cc0 f9c5 313f 49b6 79c0
00000200: d018 a240 2e6d 8b3f 90ae 873f 0d3a 09bd
00000210: 23c9 5b40 f168 3f3f 7356 fa3e 0d92 b73f
00000220: 647e 883c eda2 b7c0 33ab b241 e63b 0540
00000230: b724 193b ab95 93bf 902c 023f 4fdb c53d
00000240: c095 923f 49d6 603e 7f0c 6b3f 9fe6 5cbd
00000250: ba5a 9ec0 ca6f 16c1 b246 913e 612f 123d
00000260: 592c 623c abc4 5a3f bff1 9bbd cebf 4f3f
00000270: 6d06 4fc0 1163 ae40 55ad 1140 15ec 23c0
00000280: ace5 b5bc 4537 9940 ce0a 57bf 4981 86bf
00000290: 295f 103f 0412 cabf 0c82 8cbf 1d20 483f
000002a0: a771 f8bf e327 0bc0 f305 2abf 263c 813f
000002b0: d25b e4bf 5990 0740 4327 6640 a1bf 9f3f
000002c0: a73f ad3f bba2 12bd ff0c 9dc0 3e8a 7b3f
000002d0: e904 233f 4ea5 2fc0 d792 5ac0 171c 9dbe
000002e0: 0963 e03f e2ed b4c0 76f2 9cbe e1b0 723f
000002f0: d2e5 2d3f a1e4 923c 8a04 c23d 9cbb 6fbf
00000300: 36bc 71c0 a94d 03c1 a581 a240 cdfd 7341
00000310: 5964 90bf 3426 8a3f b405 d83e fce5 4ac0
00000320: dea5 fb3e 9242 c9bf 9a52 acbe 9785 f73b
00000330: 80be d33f 2078 fc40 7b3b 6abf 0487 cbbf
00000340: c4e3 1340 52b8 7dbf 25c8 8ebf 5bfb f73f
00000350: 5b8b 063f d7a8 95bf e4f9 5440 90e4 4bc1
00000360: ea35 27bf 15a1 ef3f 8af6 db3f 50df 093d
00000370: bb1a 963f 2d75 8540 07b7 cebc 8329 d13f
00000380: d120 553f bdda aabf 8551 e1bf c3bd 023e
00000390: d49e f6c0 1dbb a63e 0bef dfbf c870 953f
000003a0: ebc8 703f d7c2 b03f c25c 8241 647f 4b3b
000003b0: 02cd 823f ff07 4d3f dab9 9abc 559e 3f3f
000003c0: 91db 4440 6e66 3d3f 96ff 183f bb95 31c0
000003d0: 8af6 d7be 1b10 a43f f836 6b3e 03f0 1c40
000003e0: 6f39 753f 8bb2 2c3f 9494 d1bf 5025 ab40
000003f0: 433f 2740 0f69 b53f c44d 983f 94d6 0c40

outputLayer.bias f4 [2]
12.745246 12.818191
00000000: 87ec 4b41 4f17 4d41
