ftl/pretrain/weight/multi-workload_half_v1/multi-workload_half_v1_163.pth (torch, 187853 bytes, 8 tensors)

hiddenLayer1.weight f4 [150, 3]
-0.7124074 -2.6260064 -0.6481969 -0.18583935 -0.056093186 -0.17990142 -17.434732 0.0064344066
-0.33143872 -10.221889 0.28148186 -4.2157183 -0.097467944 -0.0647781 -0.0043153716 -0.05199418
0.0019968404 -0.015494185 -0.90747845 0.0014470748 -0.0933718 -6.715716 2.7109766 -4.5097585
-0.071243666 0.0027390188 -0.059612937 -0.12901682 -0.054397345 -0.032405287 -0.00027347193 -0.1306738
-12.430668 -2.5513804 -0.0022757843 -2.5512033 -9.566489 0.008184512 -0.5081385 -0.024880694
0.0902276 1.3360505 -0.07072528 -0.00082059036 -0.00051308284 -5.9615192 0.05172195 0.017510252
-13.309181 0.022383953 0.024274908 -28.428364 -0.004532972 -0.15851137 -7.8142986 -0.2524355
1.1369504 -0.13342802 -0.00054509204 -0.042880233 0.10872684 0.044997502 3.0108216 -0.14898421
-0.17816298 -0.020828925 -0.39515355 0.30183735 1.1312544 -0.06906901 -0.28312477 0.14037134
0.10951502 -0.0110801635 3.0564408 -17.065947 0.03163 -2.5775967 -0.46556756 -0.27195343
-1.9638046 -0.3029221 0.010131539 -1.1058197 -0.58716017 0.0066640438 -1.7936234 -0.07749652
0.021814177 0.0011992735 0.0026954592 0.51076525 0.719382 -0.18710284 -0.021051602 -0.063532956
-7.000491 0.019370146 -3.3767679 -0.2366936 1.2166153e-05 -0.107495986 -0.05474721 0.00025279346
-0.07896355 -4.1672115 3.2720227 0.15559755 -22.141296 0.9541405 -3.4058423 -0.8308473
0.001821509 -0.2428355 -0.0165612 -0.000701565 -0.027785556 -15.944565 -0.083825916 -0.75511444
-0.14759643 0.020217786 -5.190553 -0.4406189 -0.9146842 -0.44271672 -0.046215713 5.3387153e-05
-0.039708618 -0.025257256 0.00039499707 -0.09813017 -0.83731306 -0.23976567 -3.0530756 -6.8324385
0.00066425296 -0.94788814 -0.35211474 -0.036475662 0.023624994 -28.693068 -0.14335257 -3.3279548
-0.3978987 -0.0026509615 -0.011454908 -4.723158 0.13893378 -2.2598693 -2.9651315 0.042737372
1.4654037 -0.024544133 -0.1393107 -0.008206935 -3.1994145 -0.0052826395 0.0015866638 -0.36808792
-0.0069542513 -0.15949765 -21.462168 0.0208555 -0.05265803 -1.9990804 0.020253226 -4.166084
-0.017608335 0.014561992 2.2667382 -0.34621555 -0.0007205304 -0.10739783 -53.816357 0.019744415
0.04213508 -8.62444 0.0314412 0.020296017 -0.031215843 0.004612392 -0.021948012 0.18518606
-0.24053252 -0.35174102 0.0034964646 0.0012503817 -20.093653 -6.038367 -0.00092785567 -3.050218
-0.2646563 -1.5291598 0.54656637 -12.866687 -0.063744515 -0.39103013 -0.05731215 0.007818804
-0.08203064 -0.08125982 -0.016798375 -0.0037505568 -31.694504 0.1006023 1.054093 -0.07823514
0.00242528 -0.049263302 -1.9361247 0.06805836 -0.14586577 -5.0941133 0.05387284 -3.202297
-1.0978717 2.8219757 0.8249568 -0.053767115 8.364401e-05 -0.032691337 -0.04226548 0.006994063
-0.022938421 -0.07628302 -0.00018191204 -0.048902832 -24.521181 -0.015815495 -0.017033208 -0.20414777
-0.0082032615 -0.019666541 -3.3917568 2.4564438 -0.36163056 -0.0045945626 -0.030933911 5.905322
-0.7682337 0.0025523982 -0.036917727 -0.0219244 0.1963755 0.22572725 -4.4023786 -0.10704421
-0.81662905 3.6516274e-05 0.0010332367 -0.0023561995 -3.7074366 -0.00031458476 -1.6564187 -1.6492249
00000000: 5560 36bf 7d10 28c0 3bf0 25bf ac4c 3ebe
00000010: f8c1 65bd 1438 38be 557a 8bc1 b7d7 d23b
00000020: 56b2 a9be db8c 23c1 641e 903e 2ae7 86c0
00000030: 469d c7bd 61aa 84bd f667 8dbb d9f7 54bd
00000040: 6cdd 023b 52db 7dbc 8250 68bf c6ab bd3a
00000050: b739 bfbd 25e7 d6c0 a480 2d40 f14f 90c0
00000060: 33e8 91bd 1c81 333b b22c 74bd fc1c 04be
00000070: c0cf 5ebd 68bb 04bd c860 8fb9 5acf 05be
00000080: 04e4 46c1 d149 23c0 5325 15bb ea46 23c0
00000090: 5710 19c1 5518 063c 5d15 02bf 99d2 cbbc
000000a0: 3fc9 b83d b403 ab3f 6ad8 90bd e31c 57ba
000000b0: 6880 06ba c4c4 bec0 65da 533d a971 8f3c
000000c0: 68f2 54c1 8d5e b73c 2cdc c63c 4a6d e3c1
000000d0: 5389 94bb ce50 22be bc0e fac0 3a3f 81be
000000e0: 9787 913f 5ba1 08be 82e4 0eba 2fa3 2fbd
000000f0: 2dac de3d 4d4f 383d 4db1 4040 518f 18be
00000100: 5b70 36be 6ca1 aabc 9151 cabe 6d8a 9a3e
00000110: f2cc 903f 0e74 8dbd bbf5 90be 81bd 0f3e
00000120: 6949 e03d 9389 35bc ba9c 4340 0f87 88c1
00000130: 758e 013d 58f7 24c0 df5e eebe 7b3d 8bbe
00000140: f35d fbbf 9b18 9bbe c1fe 253c 808b 8dbf
00000150: 2150 16bf 0d5e da3b 7495 e5bf 7fb6 9ebd
00000160: a5b3 b23c f130 9d3a 4da6 303b 83c1 023f
00000170: 6b29 383f e397 3fbe 6974 acbc 911d 82bd
00000180: 0604 e0c0 24ae 9e3c f71c 58c0 cf5f 72be
00000190: 3b1d 4c37 db26 dcbd 9c3e 60bd 5d89 8439
000001a0: a4b7 a1bd cc59 85c0 d268 5140 f754 1f3e
000001b0: 6021 b1c1 8d42 743f 52f9 59c0 69b2 54bf
000001c0: b3bf ee3a dfa9 78be 5bab 87bc 3be9 37ba
000001d0: 899e e3bc f01c 7fc1 ecac abbd 2e4f 41bf
000001e0: 8523 17be c59f a53c 0319 a6c0 cd98 e1be
000001f0: be28 6abf c4ab e2be b04c 3dbd 05ec 5f38
00000200: 81a5 22bd 4ee8 cebc 9c17 cf39 78f8 c8bd
00000210: 265a 56bf 2285 75be 9765 43c0 56a3 dac0
00000220: 4321 2e3a cca8 72bf 6248 b4be 8167 15bd
00000230: 3489 c13c 678b e5c1 04cb 12be 36fd 54c0
00000240: 61b9 cbbe c1bb 2dbb 5ead 3bbc 1c24 97c0
00000250: a844 0e3e b3a1 10c0 b7c4 3dc0 620d 2f3d
00000260: 5992 bb3f c710 c9bc 77a7 0ebe 6176 06bc
00000270: 35c3 4cc0 fe19 adbb 9af7 cf3a 0576 bcbe
00000280: 7de0 e3bb 5a53 23be 85b2 abc1 27d9 aa3c
00000290: f2af 57bd dee1 ffbf 18ea a53c 8f50 85c0
000002a0: 5b3f 90bc 6c95 6e3c 3d12 1140 2a43 b1be
000002b0: fae1 3cba 65f3 dbbd f343 57c2 0abf a13c
000002c0: d595 2c3d b5fd 09c1 7dc8 003d d543 a63c
000002d0: 5eb8 ffbc 8c23 973b 51cc b3bc 6aa1 3d3e
000002e0: 284e 76be 6617 b4be f124 653b d9e3 a33a
000002f0: cdbf a0c1 4d3a c1c0 573b 73ba c636 43c0
00000300: 0881 87be 82bb c3bf c6eb 0b3f f3dd 4dc1
00000310: 7c8c 82bd 1a35 c8be 25c0 6abd 711a 003c
00000320: aeff a7bd 8c6b a6bd bf9c 89bc e7cb 75bb
00000330: 588e fdc1 9408 ce3d 85ec 863f bf39 a0bd
00000340: 72f1 1e3b 51c8 49bd efd2 f7bf 2e62 8b3d
00000350: d65d 15be fa02 a3c0 c4a9 5c3d 6ff2 4cc0
00000360: 0f87 8cbf 409b 3440 5e30 533f e83a 5cbd
00000370: 096a af38 5ae7 05bd 911e 2dbd 742e e53b
00000380: 5be9 bbbc 463a 9cbd a4bf 3eb9 564e 48bd
00000390: 612b c4c1 7f8f 81bc 3a89 8bbc 1d0c 51be
000003a0: f966 06bc ba1b a1bc 8b12 59c0 6036 1d40
000003b0: a427 b9be fc8d 96bb 1d69 fdbc 66f8 bc40
000003c0: f7aa 44bf 2346 273b 0b37 17bd cd9a b3bc
000003d0: a916 493e 0b25 673e 49e0 8cc0 ff39 dbbd
000003e0: 9a0e 51bf 0d29 1938 ac6d 873a 786a 1abb
000003f0: a446 6dc0 daee a4b9 8705 d4bf cd19 d3bf

hiddenLayer1.bias f4 [150]
-4.2906327 -0.9232515 -0.98456 -3.2307334 -0.9561461 -0.041588627 -0.10837883 -0.30600157
-0.07674833 -0.8002972 -0.14031094 -2.0913901 -0.7529462 -9.839886 -0.016515516 -1.1108294
-1.8662184 -1.00051 -1.288619 -0.046784475 -2.1236994 -2.9192631 -3.1405377 -5.5819507
-8.2536545 -2.6968508 1.072306 -1.0263909 -1.4155736 -0.33058062 1.9377958 -0.3555931
-3.1012392 -0.0907359 -0.065087564 -9.695596 -1.0318167 -0.22125448 -0.033318777 -2.1618307
-1.1535228 -3.2813547 -0.032008428 -0.07852505 -5.763718 -0.99298847 -2.350027 -5.1485777
-0.0745246 -3.151125 -9.490453 -1.922159 -1.6605593 -0.4424253 -1.2816564 -3.3437896
-2.2674253 -0.09809812 -1.0468419 -1.4339035 -0.08785966 -0.32636568 1.8657553 -2.5193555
-14.854565 -1.9844276 -0.14133309 -0.44835857 -3.5053625 -0.055581138 -1.463919 -3.1141267
-4.855837 -0.027266016 -0.10699137 -0.07474742 -0.97553265 -0.16168797 -5.714594 -7.905564
-0.07114499 -9.190747 -2.2692392 -0.028479282 -1.3684565 -3.0593555 -1.0191989 -1.6273004
-0.44057116 -1.497314 0.030847825 -0.96074975 -0.1975173 -1.210743 -3.3784368 -0.14283918
-0.57269925 -0.46999905 -1.5994347 -0.5718694 -0.08087224 -0.54403 -1.8033001 -1.8340598
-5.79669 -0.16322066 -2.1088808 -2.6892579 -1.3203956 -0.923461 -0.4256282 -0.93160623
-5.947873 -0.96977806 -0.81338423 -0.017480554 -3.2359948 -0.20093651 -10.432934 -0.5858086
-0.23846537 -3.0568964 -4.501298 -0.09678876 -0.022495866 -0.028602762 -6.5958867 -2.870314
-0.16413045 -10.407109 -4.1122117 -0.9645207 -0.12707411 -1.052446 -0.30879426 -2.1330566
-0.027637865 -10.174567 -4.1247306 -0.123169184 1.5454657 -6.067221 -1.6326447 -2.1529791
-12.357433 -0.015179508 -2.1628215 -1.998018 -0.10485131 -0.04554516
00000000: dd4c 89c0 365a 6cbf 200c 7cbf 56c4 4ec0
00000010: fec5 74bf d658 2abd b8f5 ddbd 3dac 9cbe
00000020: 3a2e 9dbd 47e0 4cbf acad 0fbe 56d9 05c0
00000030: 15c1 40bf 2c70 1dc1 8c4b 87bc a82f 8ebf
00000040: 3fe0 eebf b610 80bf 78f1 a4bf 14a1 3fbd
00000050: b1ea 07c0 35d5 3ac0 92fe 48c0 579f b2c0
00000060: f80e 04c1 3499 2cc0 5341 893f c760 83bf
00000070: 8431 b5bf dd41 a9be b109 f83f 4c10 b6be
00000080: b47a 46c0 bed3 b9bd a14c 85bd 2921 1bc1
00000090: 9212 84bf 8990 62be 4579 08bd 6f5b 0ac0
000000a0: a3a6 93bf b701 52c0 451b 03bd bed1 a0bd
000000b0: 6170 b8c0 7e34 7ebf d866 16c0 26c1 a4c0
000000c0: 5aa0 98bd 08ac 49c0 e5d8 17c1 4e09 f6bf
000000d0: 358d d4bf 9285 e2be 510d a4bf a600 56c0
000000e0: 7f1d 11c0 abe7 c8bd eafe 85bf 268a b7bf
000000f0: c4ef b3bd 6719 a7be 12d1 ee3f 1f3d 21c0
00000100: 4cac 6dc1 b901 febf 9fb9 10be 418f e5be
00000110: dc57 60c0 0ca9 63bd b361 bbbf da4d 47c0
00000120: 0463 9bc0 fb5c dfbc 4b1e dbbd 2d15 99bd
00000130: 82bc 79bf 8891 25be f4dd b6c0 61fa fcc0
00000140: 77b4 91bd 4d0d 13c1 373b 11c0 624d e9bc
00000150: 9529 afbf 7bcc 43c0 1c75 82bf 614b d0bf
00000160: 8b92 e1be fca7 bfbf 94b4 fc3c b2f3 75bf
00000170: fa41 4abe a0f9 9abf 4f38 58c0 6f44 12be
00000180: 6b9c 12bf b7a3 f0be 47ba ccbf 0866 12bf
00000190: 58a0 a5bd 8d45 0bbf 8ad2 e6bf 79c2 eabf
000001a0: 7c7e b9c0 5123 27be e7f7 06c0 cd1c 2cc0
000001b0: b902 a9bf f167 6cbf f0eb d9be bf7d 6ebf
000001c0: fa54 bec0 6043 78bf f339 50bf 6133 8fbc
000001d0: 8a1a 4fc0 4dc2 4dbe 4ced 26c1 8df7 15bf
000001e0: 4430 74be 31a4 43c0 a20a 90c0 2f39 c6bd
000001f0: 4049 b8bc 5750 eabc 8111 d3c0 39b3 37c0
00000200: d011 28be 8583 26c1 3d97 83c0 d4ea 76bf
00000210: b71f 02be 8db6 86bf 481a 9ebe 0084 08c0
00000220: ce68 e2bc 07cb 22c1 cbfd 83c0 2040 fcbd
00000230: d2d1 c53f ad26 c2c0 80fa d0bf 69ca 09c0
00000240: 0cb8 45c1 79b3 78bc ab6b 0ac0 0ebf ffbf
00000250: 49bc d6bd 908d 3abd

hiddenLayer2.weight f4 [150, 150]
0.32397377 1.046154 0.6636838 2.5665948 -0.053687867 0.016922435 -0.29071414 -0.24008499
-1.581317 -1.2569541 -2.065864 -5.1399508 -0.43404546 13.137918 0.0483462 -0.533648
-0.5087116 -7.097075 1.2010356 -0.12464149 -1.025861 -1.7530204 -0.1282257 0.21724848
-0.31840953 1.0141256 -0.12513034 -2.1937296 -0.060576055 -5.017654 -0.73184335 -1.7734188
-22.310873 0.7078205 -0.28977403 -0.570712 -5.8968616 -0.4727364 0.06797514 7.211721
-0.3576914 -2.6839797 0.011012251 -1.5403297 -13.643324 -0.97862697 -2.2210884 0.41349396
0.7118769 -5.208254 -26.777866 0.07589421 1.9884413 1.2129399 4.7214584 -13.445345
-0.4538901 0.339443 2.4195411 -4.5123897 0.1999336 -2.2369788 0.29073134 1.2756972
1.275051 5.1685677 0.0057809805 1.4358861 0.7961406 0.01193561 2.6929324 -3.8435576
-0.94762874 -0.0087141 0.024764745 0.769238 -3.2467086 0.22562338 0.35492927 -0.5556877
0.23834689 0.23016176 -7.332135 -0.0838232 -16.67221 -0.08838632 -0.5277213 -0.6462908
2.60684 -5.1825166 -8.7724 1.0168656 -2.1678321 -3.0012023 0.33363694 -1.2029678
3.5927792 -0.5663399 0.42732358 0.2401729 0.98688924 0.8159567 1.4735005 0.13725857
-0.7369442 0.38065955 1.0460497 0.24754864 -3.4082212 -0.9441236 -1.128623 -2.0169294
-16.19507 -0.16359591 -22.542517 0.010613404 3.7160618 -0.6624731 0.64206743 -2.542173
-0.20754597 -7.5787272 -1.2706463 0.14053582 -0.034982055 -0.23828194 -2.2331448 -0.14980988
0.14499788 -7.630407 -4.654585 -4.811001 -0.067728534 -7.0704923 -7.68738 -2.1529102
-0.20981109 -2.1912065 2.879683 0.3837497 -0.515867 0.20642479 -3.4746132 -1.5151625
-0.5755828 0.033121925 0.34616715 -0.8576714 0.052904807 0.2316266 -12.365625 1.3461443
-21.197859 -1.4667264 0.3327951 -0.042995736 -0.13554883 -0.36688614 0.43237877 2.8848
-4.628776 -4.5687675 -1.3741072 -6.771738 0.07348455 0.3624362 3.7834024 2.1613622
4.5395923 -0.14577869 -2.7995195 -4.2547603 -1.9711304 0.12020582 -4.4259615 -4.6678014
2.166378 -4.7147646 2.010816 0.03951998 -2.5912802 -0.743251 4.9588666 1.0598816
1.2723442 -2.8495202 -8.941694 0.23066692 0.047568616 -21.432951 -22.629768 3.0502312
-0.18862258 -0.8873706 -9.592789 0.013857589 -1.2872622 3.8699424 0.12476147 -2.0252948
-2.794583 -9.213915 0.25874326 0.36034963 0.53609735 -2.0925305 -4.94166 0.17209211
19.179874 -2.2165725 -0.6993852 -5.773248 -1.5773493 -0.41892746 2.1661706 -1.6940933
-0.4914701 0.75470895 -5.452329 0.5013413 -6.647144 3.3644848 -1.1862297 0.0648778
-0.23896697 0.23199917 4.5601726 -0.48957664 1.0546758 -3.0172787 0.14337291 -8.257508
-1.9655108 -0.042767644 0.75042635 0.43896034 -2.6291819 -2.6443918 -1.7149433 -9.7371855
-1.8772631 4.269681 0.07912051 -9.061803 -0.26042423 0.5357475 -0.72393435 -0.11490835
-4.2670817 -0.217275 0.18813477 0.11396263 -3.888458 1.6225294 0.32119352 0.10404504
00000000: e4df a53e 60e8 853f 2ee7 293f 1743 2440
00000010: cfe7 5bbd eba0 8a3c 7cd8 94be d7d8 75be
00000020: 9868 cabf dfe3 a0bf 1e37 04c0 7a7a a4c0
00000030: 353b debe ea34 5241 aa06 463d 289d 08bf
00000040: ec3a 02bf 3d1b e3c0 89bb 993f 0a44 ffbd
00000050: 6a4f 83bf f962 e0bf 994d 03be 6376 5e3e
00000060: 9306 a3be dece 813f 2b22 00be 1166 0cc0
00000070: 991e 78bd 9f90 a0c0 165a 3bbf 63ff e2bf
00000080: ab7c b2c1 b933 353f 435d 94be 2e1a 12bf
00000090: 17b3 bcc0 810a f2be 8d36 8b3d 6bc6 e640
000000a0: 5423 b7be 53c6 2bc0 ba6c 343c 8629 c5bf
000000b0: 0e4b 5ac1 4c87 7abf 5026 0ec0 7bb5 d33e
000000c0: 913d 363f 04aa a6c0 1239 d6c1 6c6e 9b3d
000000d0: 3f85 fe3f 9d41 9b3f 3016 9740 2220 57c1
000000e0: 4864 e8be 79cb ad3e c3d9 1a40 7f65 90c0
000000f0: 65bb 4c3e a92a 0fc0 bdda 943e 0c4a a33f
00000100: df34 a33f e864 a540 616e bd3b 1ecb b73f
00000110: dfcf 4b3f 948d 433c 0159 2c40 d9fc 75c0
00000120: cc97 72bf 96c5 0ebc 6fdf ca3c c8ec 443f
00000130: 13ca 4fc0 d109 673e 4ab9 b53e 8d41 0ebf
00000140: 3511 743e 86af 6b3e daa0 eac0 7fab abbd
00000150: b060 85c1 e303 b5bd be18 07bf 5073 25bf
00000160: 77d6 2640 2dd7 a5c0 c05b 0cc1 a728 823f
00000170: c3bd 0ac0 b313 40c0 76d2 aa3e d9fa 99bf
00000180: 18f0 6540 a7fb 10bf 28ca da3e e2ef 753e
00000190: c6a4 7c3f 8ae2 503f aa9b bc3f 838d 0c3e
000001a0: 60a8 3cbf cfe5 c23e f5e4 853f 647d 7d3e
000001b0: 4c20 5ac0 16b2 71bf b876 90bf 5f15 01c0
000001c0: 818f 81c1 b085 27be 1357 b4c1 d8e3 2d3c
000001d0: f5d3 6d40 d697 29bf 885e 243f f6b2 22c0
000001e0: ee86 54be ef84 f2c0 8aa4 a2bf 9fe8 0f3e
000001f0: 5849 0fbd 2e00 74be d8eb 0ec0 c367 19be
00000200: 537a 143e 4b2c f4c0 5cf2 94c0 b8f3 99c0
00000210: 42b5 8abd 7941 e2c0 04ff f5c0 48c9 09c0
00000220: b8d8 56be ba3c 0cc0 ba4c 3840 d77a c43e
00000230: dc0f 04bf 0561 533e 1060 5ec0 d8f0 c1bf
00000240: 6559 13bf dbaa 073d d23c b13e 5a90 5bbf
00000250: b6b2 583d 862f 6d3e 9ad9 45c1 754e ac3f
00000260: 3795 a9c1 b1bd bbbf 1f64 aa3e 4c1c 30bd
00000270: 50cd 0abe 80d8 bbbe c060 dd3e 90a0 3840
00000280: ef1e 94c0 5833 92c0 bfe2 afbf 14b2 d8c0
00000290: 117f 963d 3d91 b93e 4423 7240 c253 0a40
000002a0: 5744 9140 0247 15be 542b 33c0 ff26 88c0
000002b0: 004e fcbf 782e f63d 7aa1 8dc0 a15e 95c0
000002c0: f0a5 0a40 5adf 96c0 36b1 0040 b4df 213d
000002d0: 89d7 25c0 b345 3ebf 09af 9e40 33aa 873f
000002e0: 2ddc a23f 8a5e 36c0 2e11 0fc1 f333 6c3e
000002f0: 4fd7 423d af76 abc1 c409 b5c1 fd36 4340
00000300: 4726 41be b82a 63bf 107c 19c1 f10a 633c
00000310: 02c5 a4bf 23ad 7740 f182 ff3d 6e9e 01c0
00000320: 73da 32c0 326c 13c1 ff79 843e bf7f b83e
00000330: ad3d 093f 05ec 05c0 1422 9ec0 ea38 303e
00000340: 6270 9941 53dc 0dc0 e90a 33bf 73be b8c0
00000350: 95e6 c9bf a97d d6be 8aa2 0a40 0dd8 d8bf
00000360: f8a1 fbbe 9b34 413f 7b79 aec0 e757 003f
00000370: 67b5 d4c0 b853 5740 60d6 97bf a7de 843d
00000380: c2b3 74be 3191 6d3e efec 9140 caa9 fabe
00000390: 9eff 863f 181b 41c0 59d0 123e c11e 04c1
000003a0: dc95 fbbf 202d 2fbd f11b 403f 69bf e03e
000003b0: 8444 28c0 b73d 29c0 4383 dbbf 83cb 1bc1
000003c0: 284a f0bf 3aa1 8840 ef09 a23d 25fd 10c1
000003d0: 5356 85be c026 093f c353 39bf 1255 ebbd
000003e0: ef8b 88c0 567d 5ebe 67a6 403e 3d65 e93d
000003f0: 7fdc 78c0 0baf cf3f 7a73 a43e 9115 d53d

hiddenLayer2.bias f4 [150]
-0.7961593 -3.221327 4.561046 0.061518364 -1.7158839 -1.2293502 -5.9854646 -0.37173012
2.0664883 -0.31373915 -0.38160783 -1.1667975 1.1258432 -1.0448915 -0.07145769 0.5662261
1.603607 -1.4943814 -1.5555345 -0.7533398 -1.7030332 -0.15860237 -0.34310865 -2.714666
-0.15293795 -1.1218837 -0.82764953 2.1599126 -0.5529049 -2.1983001 -1.1919656 -3.1411154
-2.1649017 -0.7772845 0.94007593 -3.1556752 -1.005095 -1.0827996 -4.0453696 -2.8148713
-0.69660795 -2.5550113 -0.56051415 -0.0753766 0.153838 -0.45841977 -4.306929 -4.6249347
-0.81116706 -0.8034815 -1.332557 -1.23049 -0.28205645 -0.5920073 -1.4935781 -0.92900085
-0.77973425 -1.8503624 -1.4414407 -1.9751172 -0.59223866 -2.6261122 -2.8880284 -0.3588983
-6.424715 -1.088768 -10.579904 -0.19938344 -4.3355937 0.99573094 4.927371 -0.94711065
-0.98670274 1.1614329 -1.0651686 -0.49020952 0.15194029 -1.6225991 -0.6538901 -1.1156627
-2.7259843 -0.6006669 -0.50482655 -6.652212 -0.7375295 -1.8665622 0.3799099 -1.9650916
-1.2365813 -0.10403177 0.014781272 6.395267 -0.96359897 -1.3604952 -0.8215869 -1.7195927
-2.462132 -0.3530694 -4.0161448 11.35277 -0.49887872 -0.39739364 0.031204635 -0.9914165
-0.051233426 1.4062871 -0.9156507 -0.21274807 3.3561144 -4.4422526 -0.89293045 -4.0120173
-1.6995083 3.8324296 3.0644042 -1.2971652 -1.8505796 -1.9389349 -0.40780088 -0.04057229
-0.12722532 -1.448331 -0.3797653 -0.10027069 -0.669424 3.1775417 -4.4012356 -1.1430438
2.6295836 -3.6717215 -1.1835468 -1.0631539 2.8410964 -1.0190817 -0.4963385 -1.0262629
-1.2190948 -0.83244824 -1.0896323 -1.4570358 -3.1955178 -2.9479482 -0.10122925 -0.62420815
-2.4883401 -2.0963295 -1.4249854 -0.12502302 -0.9101969 -0.40056813
00000000: 19d1 4bbf 392a 4ec0 17f4 9140 aefa 7b3d
00000010: 15a2 dbbf 595b 9dbf ed88 bfc0 6953 bebe
00000020: 5841 0440 6ba2 a0be 1a62 c3be 9f59 95bf
00000030: a11b 903f 01bf 85bf 6958 92bd 32f4 103f
00000040: ff42 cd3f e447 bfbf c11b c7bf e1da 40bf
00000050: fefc d9bf a968 22be f0ab afbe 16bd 2dc0
00000060: c49b 1cbe e399 8fbf d7e0 53bf 023c 0a40
00000070: 2d8b 0dbf f3b0 0cc0 5492 98bf 0908 49c0
00000080: c08d 0ac0 1efc 46bf d1a8 703f 95f6 49c0
00000090: f4a6 80bf 2d99 8abf ab73 81c0 da26 34c0
000000a0: e654 32bf 4e85 23c0 db7d 0fbf 0c5f 9abd
000000b0: b587 1d3e ffb5 eabe 5dd2 89c0 77ff 93c0
000000c0: a5a8 4fbf f7b0 4dbf 3a91 aabf b280 9dbf
000000d0: b469 90be ca8d 17bf 912d bfbf 00d3 6dbf
000000e0: aa9c 47bf add8 ecbf 2181 b8bf a4d0 fcbf
000000f0: f49c 17bf 3912 28c0 75d5 38c0 85c1 b7be
00000100: 4497 cdc0 c05c 8bbf 4947 29c1 2c2b 4cbe
00000110: 2fbd 8ac0 39e8 7e3f 06ad 9d40 d875 72bf
00000120: 8d98 7cbf d5a9 943f 7257 88bf befc fabe
00000130: 3c96 1b3e 54b1 cfbf 5765 27bf 09ce 8ebf
00000140: 8776 2ec0 4ec5 19bf 503c 01bf ecde d4c0
00000150: bcce 3cbf 83eb eebf 8d83 c23e 1f88 fbbf
00000160: 4c48 9ebf 9c0e d5bd 262d 723c 07a6 cc40
00000170: 6cae 76bf b524 aebf 8553 52bf 9d1b dcbf
00000180: 9293 1dc0 83c5 b4be 4284 80c0 f2a4 3541
00000190: 086d ffbe 2e77 cbbe dda0 ff3c 79cd 7dbf
000001a0: 24da 51bd 3701 b43f 1668 6abf a1da 59be
000001b0: 94ca 5640 ef26 8ec0 1797 64bf 7262 80c0
000001c0: 7d89 d9bf 8746 7540 331f 4440 8209 a6bf
000001d0: cbdf ecbf 052f f8bf 47cb d0be 212f 26bd
000001e0: 5b47 02be e962 b9bf 9970 c2be b85a cdbd
000001f0: 5f5f 2bbf d85c 4b40 ecd6 8cc0 424f 92bf
00000200: 194b 2840 7cfd 6ac0 767e 97bf 6d15 88bf
00000210: 86d4 3540 4571 82bf 1420 febe 955c 83bf
00000220: 4c0b 9cbf 541b 55bf 1279 8bbf 2680 babf
00000230: 5d83 4cc0 2fab 3cc0 4851 cfbd 1bcc 1fbf
00000240: f740 1fc0 432a 06c0 ec65 b6bf 0906 00be
00000250: aa02 69bf 4417 cdbe

hiddenLayer3.weight f4 [150, 150]
0.14116822 1.0643231 4.0479035 -0.5145912 -0.39738467 -0.21118109 -16.279789 -0.41467538
0.9125727 -3.3349261 0.47540855 -1.6305014 -1.7804818 -1.1038271 -0.011725652 -4.5929246
1.0195639 0.83942276 1.0427611 -0.97902495 -5.4255695 -0.060757525 0.6358485 -21.192396
0.07010995 -2.1325185 -2.259605 -2.5401251 -0.123166405 -2.5160115 3.7877762 1.7184801
-38.53405 3.09973 1.0702882 -1.3347477 -2.1748698 2.3241992 6.2896895 0.8097198
3.9005382 2.8467128 -1.3870419 0.0416002 -0.44612664 0.16424468 -12.459621 -28.439526
1.376983 1.4334753 3.9810517 -0.41520813 0.057933435 0.062084068 -0.02021146 -0.5936972
2.1196568 0.021313673 -7.437392 0.91988623 -1.1012086 -3.7018945 0.35090122 -5.0107493
-4.289079 0.9490571 1.6038026 -0.34133896 -1.2516645 3.0311673 -0.482017 0.22595094
0.7532851 -2.6825852 -2.5915167 0.09814215 -2.401506 -5.258879 -1.9724286 -3.1725225
-2.5864246 -1.3173549 0.08304318 0.881543 0.18160196 0.5702362 2.270609 0.7445494
0.928525 0.119997926 -0.84843916 1.6220255 -1.6299435 0.3709943 -2.1760051 0.58603925
-7.1383924 3.3081453 2.1547866 0.4486564 -0.6236367 -0.4819268 -0.54064214 0.81351125
-0.045274377 2.2841904 -7.0201497 0.5410645 -0.00513842 -1.6803277 2.0282443 -0.6098158
-4.4727426 -1.8053365 0.90820515 -2.1502986 -5.4205627 -0.4400237 0.58447826 1.8959258
-0.011580042 0.6022748 -12.607495 0.09810681 0.035075206 -1.1898135 9.097811 0.06502497
0.1519098 -2.61862 -1.938468 -1.0637125 2.1195443 -4.600368 -1.5069239 2.3954127
0.7674108 0.874998 2.80047 4.074606 -7.8824124 -19.992304 -0.0019818472 -4.03349
-0.6868554 1.8832356 0.64795554 -0.0082928995 0.8610886 -0.045653332 -0.771229 -0.2818194
2.0037584 0.061665583 0.07046643 0.042969175 -17.228333 0.6213362 -1.5407299 1.7554235
-4.2151566 -0.8835256 1.8529071 -0.9757135 -0.020669932 -2.2871275 0.06391457 -0.9763569
-0.43294927 -1.389923 -1.0675668 -0.05679911 -0.7587329 -1.2942754 0.11449667 -2.4078372
-0.71370524 -0.8517761 -1.5807177 -0.0701918 -0.22932704 0.54041994 -1.4970763 3.874006
0.47435394 2.7628045 1.8272147 3.2698014 3.9207008 -0.29813924 -0.45185527 -5.6615295
-3.6214507 0.07472132 -0.89376986 0.16049628 -10.071669 10.836326 -1.4100583 -1.4170903
0.8049873 -1.5211493 -1.4764724 -0.095192865 2.3579755 1.7341547 0.9072464 0.12344711
-0.6895568 -0.09117883 -0.40194222 -0.32167423 -2.3369958 2.602759 -11.427967 -0.88925207
-3.9020946 -0.56333804 2.5422986 0.24545111 -3.3166227 -0.088857815 -1.3806399 -2.6934793
-3.974114 0.89024824 2.457011 -1.5531338 -1.6025434 -0.41459432 1.5653192 1.1721783
-0.10221933 -1.3583565 2.5414314 -0.95918536 -1.6510192 0.90692204 -1.5799026 0.08864379
2.882051 -0.6069565 -0.29081425 0.7117859 0.09787366 0.79201365 0.9125616 3.325635
5.8473687 -1.6969 -5.643179 -0.035230897 2.1773465 0.9527698 -0.056736995 -0.2405198
00000000: 678e 103e bd3b 883f 6d88 8140 40bc 03bf
00000010: 0176 cbbe db3f 58be 023d 82c1 5550 d4be
00000020: 5d9e 693f 6e6f 55c0 c068 f33e 45b4 d0bf
00000030: d4e6 e3bf 354a 8dbf f31c 40bc 3df9 92c0
00000040: 1281 823f 69e4 563f 3279 853f 61a1 7abf
00000050: 449e adc0 e2dc 78bd f8c6 223f 078a a9c1
00000060: ce95 8f3d 2f7b 08c0 5e9d 10c0 6991 22c0
00000070: ab3e fcbd 5506 21c0 ed6a 7240 28f7 db3f
00000080: de22 1ac2 fa61 4640 34ff 883f 03d9 aabf
00000090: 1131 0bc0 aebf 1440 2345 c940 cc49 4f3f
000000a0: 6ba2 7940 8b30 3640 978a b1bf f964 2a3d
000000b0: b66a e4be c22f 283e 9c5a 47c1 2684 e3c1
000000c0: fb40 b03f 1e7c b73f 8dc9 7e40 2996 d4be
000000d0: 9c4b 6d3d dd4b 7e3d 8192 a5bc 8afc 17bf
000000e0: 75a8 0740 039a ae3c 1eff edc0 aa7d 6b3f
000000f0: 67f4 8cbf d7eb 6cc0 53a9 b33e 0f58 a0c0
00000100: 2340 89c0 68f5 723f 6749 cd3f fbc3 aebe
00000110: 8b36 a0bf a5fe 4140 efca f6be af5f 673e
00000120: 4bd7 403f 7aaf 2bc0 69db 25c0 c0fe c83d
00000130: 46b2 19c0 bd48 a8c0 8a78 fcbf 9c0a 4bc0
00000140: fb87 25c0 169f a8bf 8b12 aa3d cdac 613f
00000150: ddf5 393e 00fb 113f a851 1140 ca9a 3e3f
00000160: d0b3 6d3f 79c1 f53d 4f33 59bf 889e cf3f
00000170: fda1 d0bf f7f2 bd3e ab43 0bc0 ab06 163f
00000180: b66d e4c0 a7b8 5340 06e8 0940 4bb6 e53e
00000190: a8a6 1fbf 1cbf f6be 8667 0abf 4642 503f
000001a0: a071 39bd 2d30 1240 11a5 e0c0 3483 0a3f
000001b0: 3160 a8bb fa14 d7bf c1ce 0140 e31c 1cbf
000001c0: b520 8fc0 4415 e7bf 2280 683f 7e9e 09c0
000001d0: 4075 adc0 c94a e1be 5ea0 153f b2ad f23f
000001e0: 37ba 3dbc ae2e 1a3f 4db8 49c1 39ec c83d
000001f0: 05ab 0f3d cf4b 98bf a290 1141 d02b 853d
00000200: 3e8e 1b3e 7897 27c0 b81f f8bf bb27 88bf
00000210: 9da6 0740 3736 93c0 e2e2 c0bf 714e 1940
00000220: 0975 443f deff 5f3f e73a 3340 2c63 8240
00000230: b93c fcc0 3df0 9fc1 e1e1 01bb 5a12 81c0
00000240: c1d5 2fbf dd0d f13f 6ae0 253f f1de 07bc
00000250: 4d70 5c3f fdfe 3abd 446f 45bf a24a 90be
00000260: 943d 0040 0d95 7c3d b450 903d 7200 303d
00000270: a0d3 89c1 e40f 1f3f a336 c5bf b8b1 e03f
00000280: 90e2 86c0 bc2e 62bf 0f2c ed3f 5cc8 79bf
00000290: fd53 a9bc 4c60 12c0 a4e5 823d 87f2 79bf
000002a0: 87ab ddbe ffe8 b1bf 07a6 88bf 2fa6 68bd
000002b0: 523c 42bf d1aa a5bf 3b7d ea3d 011a 1ac0
000002c0: 63b5 36bf 000e 5abf f554 cabf b8c0 8fbd
000002d0: b5d4 6abe f658 0a3f 32a0 bfbf b7ef 7740
000002e0: 85de f23e cad1 3040 2ce2 e93f 6d44 5140
000002f0: c3ec 7a40 b5a5 98be 9359 e7be 402b b5c0
00000300: d9c5 67c0 7e07 993d 1ace 64bf 2359 243e
00000310: 8e25 21c1 9761 2d41 ca7c b4bf 3763 b5bf
00000320: a613 4e3f 05b5 c2bf 0cfd bcbf 7af4 c2bd
00000330: 12e9 1640 c8f8 dd3f 4d41 683f d7d1 fc3d
00000340: cb86 30bf f7bb babd 5fcb cdbe 7cb2 a4be
00000350: 5791 15c0 9a93 2640 f4d8 36c1 06a6 63bf
00000360: ebbb 79c0 ec36 10bf 05b5 2240 8957 7b3e
00000370: 8c43 54c0 16fb b5bd cfb8 b0bf f761 2cc0
00000380: e257 7ec0 4fe7 633f ab3f 1d40 17cd c6bf
00000390: 2420 cdbf b545 d4be 615c c83f f009 963f
000003a0: 5e58 d1bd a0de adbf d0a6 2240 2c8d 75bf
000003b0: 9954 d3bf 0b2c 683f 403a cabf e08a b53d
000003c0: 8673 3840 8061 1bbf 9be5 94be 9a37 363f
000003d0: fc71 c83d 68c1 4a3f a39d 693f 34d7 5440
000003e0: a51d bb40 0534 d9bf ec94 b4c0 464e 10bd
000003f0: a559 0b40 b9e8 733f 0d65 68bd d34a 76be

hiddenLayer3.bias f4 [150]
13.133746 -0.3851175 -0.3249815 13.628087 1.9161382 9.916754 -7.6755104 -0.7514083
-1.5119146 -1.3458238 -0.89081 -0.2814412 4.3809958 -1.0626283 4.918328 -9.935143
-12.274048 4.5929217 -2.5521376 -1.7344927 1.8708729 6.3040495 -0.42390501 0.6734444
-1.1826706 17.595776 7.671096 -3.013988 -9.278665 8.224974 -0.3273731 -11.875998
-2.165405 -1.6997585 25.62934 -3.9938493 3.260251 17.835793 -1.7417643 -1.577017
2.9663517 -0.29403824 -5.2103043 -2.720677 2.2857914 0.04616068 -1.0056213 20.640886
-6.7109785 -5.815609 3.215179 -8.362831 -7.184921 -0.92499584 -0.11059329 5.6405754
-0.4196842 -11.039136 6.398456 -10.547596 -1.516839 -0.5881745 0.6975308 -0.7004688
-0.33763418 -0.51790273 1.0606884 -0.8467979 1.32664 -1.062992 10.79839 2.618024
10.2697115 20.48469 21.959385 2.3068726 -4.847885 -0.17204772 8.852271 -0.25488937
-3.1903222 17.84969 13.700386 -1.1199894 -2.4108896 -0.83834296 -0.94239414 -1.4208472
-0.19923523 -0.24147606 5.7541275 21.794424 -1.3866965 -9.988211 -1.4030704 1.6361386
-0.48505825 6.46434 9.772622 8.688419 -24.79389 12.9679365 0.2181782 -1.6013044
23.511166 -0.4577792 -2.65179 2.8921573 20.796835 22.624588 1.3057594 -0.123552546
21.666586 -0.65302527 4.3347816 9.174845 -0.28650475 -0.3744018 4.4760947 -0.75051653
-2.1513593 -11.265465 -7.186538 -0.57502794 3.373619 -11.088158 -5.091035 -5.986136
-0.16654214 20.025541 4.985453 6.1277037 0.78025 0.094899304 15.09089 18.887396
5.0022626 -4.8418875 -0.2422466 -0.4066578 2.1439488 -3.1376061 -0.7997407 -1.547243
19.52296 5.492905 25.60052 -4.960446 -1.2839913 -1.8917074
00000000: d323 5241 1f2e c5be fa63 a6be a50c 5a41
00000010: 0444 f53f 06ab 1e41 c89d f5c0 4b5c 40bf
00000020: 6b86 c1bf f443 acbf 200c 64bf 1019 90be
00000030: 1e31 8c40 3404 88bf f162 9d40 59f6 1ec1
00000040: 8062 44c1 37f9 9240 3956 23c0 db03 debf
00000050: c378 ef3f c6ba c940 140a d9be da66 2c3f
00000060: c061 97bf 26c4 8c41 9e79 f540 2ee5 40c0
00000070: 6975 14c1 7e99 0341 729d a7be 1604 3ec1
00000080: ff95 0ac0 b091 d9bf e308 cd41 3a9b 7fc0
00000090: f4a7 5040 b4af 8e41 22f2 debf b1db c9bf
000000a0: b5d8 3d40 2e8c 96be d0ba a6c0 921f 2ec0
000000b0: 684a 1240 fb12 3d3d 33b8 80bf 8920 a541
000000c0: 56c0 d6c0 7819 bac0 7ec5 4d40 28ce 05c1
000000d0: dfea e5c0 87cc 6cbf bc7e e2bd 987f b440
000000e0: d9e0 d6be 4da0 30c1 27c0 cc40 f4c2 28c1
000000f0: c827 c2bf 9b92 16bf 6191 323f ec51 33bf
00000100: 63de acbe 4695 04bf a3c4 873f bfc7 58bf
00000110: 57cf a93f 1f10 88bf 35c6 2c41 b58d 2740
00000120: bd50 2441 a5e0 a341 d2ac af41 cda3 1340
00000130: e021 9bc0 472d 30be e7a2 0d41 dc80 82be
00000140: 3d2e 4cc0 2acc 8e41 c834 5b41 d05b 8fbf
00000150: 044c 1ac0 a59d 56bf be40 71bf 52de b5bf
00000160: 5204 4cbe 8045 77be d021 b840 fb5a ae41
00000170: 457f b1bf b6cf 1fc1 d097 b3bf fd6c d13f
00000180: 8e59 f8be e0db ce40 a95c 1c41 c403 0b41
00000190: e359 c6c1 ab7c 4f41 1b6a 5f3e 8bf7 ccbf
000001a0: de16 bc41 0962 eabe edb6 29c0 1b19 3940
000001b0: eb5f a641 28ff b441 2023 a73f 1e09 fdbd
000001c0: 2b55 ad41 aa2c 27bf 88b6 8a40 2acc 1241
000001d0: c0b0 92be 98b1 bfbe 2b3c 8f40 da21 40bf
000001e0: dfaf 09c0 583f 34c1 1ff8 e5c0 0835 13bf
000001f0: 60e9 5740 1869 31c1 c2e9 a2c0 6d8e bfc0
00000200: 068a 2abe 4f34 a041 d588 9f40 2616 c440
00000210: 77be 473f 915a c23d 4974 7141 6319 9741
00000220: 8912 a040 bef0 9ac0 7e0f 78be 7335 d0be
00000230: 7536 0940 8ace 48c0 cebb 4cbf 0f0c c6bf
00000240: 062f 9c41 e1c5 af40 ddcd cc41 f9bb 9ec0
00000250: d459 a4bf 7823 f2bf

outputLayer.weight f4 [2, 150]
2.273684 0.019549714 0.010255546 0.90979797 -2.3022108 1.9731959 -6.4095507 19.120182
-9.247225 1.3667835 -0.7030816 4.05205 -13.067724 -4.1335216 -11.609409 -4.0841002
-3.788002 0.8232842 -11.563449 0.6741997 -3.2257879 1.8827457 -3.339605 16.587072
-3.0452497 1.9826263 1.9426593 0.57434946 -8.558517 1.3393971 -0.8183421 -0.58781683
-0.97117436 -6.567892 7.730997 -16.96979 -10.867777 2.1309814 9.882871 -3.7470279
9.77257 0.21982962 -5.600899 -4.499267 4.2567906 18.308344 1.448938 2.2497818
-3.560479 -6.8365183 -8.296752 -8.745812 -0.22073838 -1.5345943 1.0474931 10.260841
-0.24943839 2.9983292 2.6704276 -4.656764 1.2285242 -0.9206399 0.8544793 0.49451697
-2.0228534 -7.782269 -6.226572 -1.8657862 0.20733847 1.7645789 1.9342071 6.513321
-8.673949 4.583394 2.2021759 -9.34385 -2.4879732 -0.097035475 -9.5579 9.111303
-12.363345 2.0490186 2.7027986 -1.6228539 28.066963 -7.157788 -0.41032767 -1.4772217
-0.008319238 -0.8974728 5.0035157 1.9590842 -1.6774487 -2.2032259 0.3761159 2.243665
-0.15214579 3.6456802 4.959824 1.7548908 -4.2311735 -4.5107665 24.727333 -3.0110376
2.5930185 -2.2116392 -3.3811033 1.2785345 3.0432749 2.1762109 -3.2154236 1.6037896
2.4088128 0.08789339 6.964332 3.7520876 -0.01573121 1.3082049 -8.30987 0.09511714
-2.609243 -3.5767722 -4.274255 -0.7628211 -11.216402 -19.070967 -2.0578117 -10.791213
2.9291039 6.257438 -5.898867 -7.2814665 14.35079 2.4084675 2.3101096 3.3297486
-17.703482 -8.664014 25.412552 1.7743036 -16.172638 -2.564312 0.34595996 -0.4097255
2.040611 -6.52894 6.3546023 -4.3336987 -6.9359617 -6.321629 2.14159 0.33339822
0.20804575 1.0662817 -4.3383203 1.9721801 -5.9278507 20.815163 -8.969739 -2.2717872
-1.1224611 3.5233982 -13.099412 -4.2070975 -11.389796 -4.0147877 -3.69239 1.3540726
-10.827058 -0.16391712 -3.518499 1.871463 -3.486275 16.681736 2.3351188 2.106873
2.20344 1.100508 -11.881919 1.0130669 0.30603787 -0.86337453 -6.87452 -6.7914963
7.2582955 -16.29244 -12.255549 2.0492814 9.091294 -2.9575639 9.721885 -0.9687354
-5.0628777 -4.86288 4.118964 17.98489 -1.3065797 2.2511995 -3.461308 -7.1106534
-7.194919 -9.554155 -0.22627497 -1.4571491 1.0898799 11.700328 -0.91084784 4.9772363
3.0062048 -4.544199 -1.0440313 1.231821 1.0657674 -1.1570677 3.2969527 -4.857948
-6.8443713 1.4714185 0.27286035 2.7588692 1.8896855 6.9817386 -8.842229 5.0021663
2.471976 -13.868534 -2.508665 -0.24223854 -9.546031 9.370234 -12.624688 2.03828
2.5601645 0.3811995 28.123371 -9.853964 1.0911394 1.1589041 -0.046190113 0.87183726
4.8469167 2.0440226 -0.110553145 -2.2922177 -0.45267126 2.1741056 0.076369375 3.8758245
5.633902 1.811042 -3.4682393 -3.1120617 24.951412 -1.0614941 2.434454 1.9597193
00000000: 0a84 1140 b926 a03c e106 283c 85e8 683f
00000010: 6c57 13c0 af91 fc3f 0a1b cdc0 22f6 9841
00000020: a2f4 13c1 c3f2 ae3f 28fd 33bf 65aa 8140
00000030: 6615 51c1 cf45 84c0 24c0 39c1 f3b0 82c0
00000040: a06e 72c0 c1c2 523f e303 39c1 5a98 2c3f
00000050: 4f73 4ec0 d0fd f03f 17bc 55c0 53b2 8441
00000060: 5fe5 42c0 b3c6 fd3f 0fa9 f83f 9108 133f
00000070: b0ef 08c1 5d71 ab3f de7e 51bf 2a7b 16bf
00000080: e29e 78bf 2c2c d2c0 5464 f740 21c2 87c1
00000090: 6ae2 2dc1 0062 0840 3d20 1e41 4ecf 6fc0
000000a0: 725c 1c41 041b 613e 913a b3c0 fff9 8fc0
000000b0: a137 8840 7d77 9241 cd76 b93f 6dfc 0f40
000000c0: e3de 63c0 c2c4 dac0 7fbf 04c1 d9ee 0bc1
000000d0: 3e09 62be 966d c4bf 4114 863f 682c 2441
000000e0: c76c 7fbe a0e4 3f40 49e8 2a40 3604 95c0
000000f0: 4840 9d3f 0eaf 6bbf 28bf 5a3f 5431 fd3e
00000100: 6e76 01c0 5908 f9c0 1440 c7c0 15d2 eebf
00000110: 8950 543e b9dd e13f 1994 f73f 206d d040
00000120: 7fc8 0ac1 2aab 9240 73f0 0c40 6980 15c1
00000130: f43a 1fc0 89ba c6bd 29ed 18c1 e6c7 1141
00000140: 43d0 45c1 1f23 0340 a7fa 2c40 adb9 cfbf
00000150: 2489 e041 990c e5c0 7816 d2be 9a15 bdbf
00000160: 6a4d 08bc c7c0 65bf cd1c a040 45c3 fa3f
00000170: a4b6 d6bf a701 0dc0 4392 c03e 3598 0f40
00000180: 1bcc 1bbe d352 6940 e1b6 9e40 43a0 e03f
00000190: c665 87c0 3358 90c0 94d1 c541 d7b4 40c0
000001a0: 04f4 2540 7f8b 0dc0 ff63 58c0 05a7 a33f
000001b0: 04c5 4240 0a47 0b40 80c9 4dc0 fa48 cd3f
000001c0: fd29 1a40 7301 b43d cfdb de40 3422 7040
000001d0: bdde 80bc 4273 a73f 3af5 04c1 c6cc c23d
000001e0: d6fd 26c0 d6e9 64c0 b2c6 88c0 3e48 43bf
000001f0: 6276 33c1 5791 98c1 30b3 03c0 cfa8 2cc1
00000200: 7076 3b40 ef3c c840 85c3 bcc0 c601 e9c0
00000210: d69c 6541 5524 1a40 d6d8 1340 9a1a 5540
00000220: bba0 8dc1 cd9f 0ac1 e84c cb41 611c e33f
00000230: 9061 81c1 b01d 24c0 aa21 b13e 8ac7 d1be
00000240: 5f99 0240 14ed d0c0 e758 cb40 a9ad 8ac0
00000250: 66f3 ddc0 c94a cac0 d00f 0940 2cb3 aa3e
00000260: f209 553e eb7b 883f 85d3 8ac0 6670 fc3f
00000270: f4b0 bdc0 7485 a641 0d84 0fc1 f664 11c0
00000280: ceac 8fbf 5b7f 6140 3197 51c1 8ba0 86c0
00000290: 9b3c 36c1 2479 80c0 1e50 6cc0 4052 ad3f
000002a0: a13b 2dc1 e4d9 27be 162f 61c0 198c ef3f
000002b0: 211f 5fc0 3274 8541 9672 1540 02d7 0640
000002c0: 2905 0d40 72dd 8c3f 571c 3ec1 2dac 813f
000002d0: ffb0 9c3e 1d06 5dbf 11fc dbc0 f053 d9c0
000002e0: f543 e840 eb56 82c1 bb16 44c1 6d27 0340
000002f0: f175 1141 ba48 3dc0 d78c 1b41 0bff 77bf
00000300: 1803 a2c0 b79c 9bc0 8ece 8340 0ee1 8f41
00000310: 013e a7bf a713 1040 1286 5dc0 798a e3c0
00000320: c73c e6c0 d2dd 18c1 a0b4 67be dd83 babf
00000330: 2f81 8b3f 8b34 3b41 532d 69bf 8545 9f40
00000340: a965 4040 146a 91c0 d1a2 85bf 4fac 9d3f
00000350: 116b 883f cb1a 94bf 4601 5340 4f74 9bc0
00000360: 1705 dbc0 7157 bc3f 5ab4 8b3e 5091 3040
00000370: 37e1 f13f 676a df40 c579 0dc1 bf11 a040
00000380: db34 1e40 84e5 5dc1 f88d 20c0 610d 78be
00000390: 8bbc 18c1 7aec 1541 b9fe 49c1 2e73 0240
000003a0: bcd9 2340 952c c33e aafc e041 d6a9 1dc1
000003b0: 75aa 8b3f f856 943f d831 3dbd ba30 5f3f
000003c0: f119 9b40 44d1 0240 b069 e2bd b2b3 12c0
000003d0: 87c4 e7be 8c24 0b40 8c67 9c3d 820d 7840
000003e0: ed48 b440 39d0 e73f a2f7 5dc0 052c 47c0
000003f0: 7e9c c741 0adf 87bf 18ce 1b40 15d8 fa3f

outputLayer.bias f4 [2]
22.227213 22.357159
00000000: 55d1 b141 76db b241
