ftl/pretrain/weight/multi-workload_half_v1/multi-workload_half_v1_106.pth (torch, 187853 bytes, 8 tensors)

hiddenLayer1.weight f4 [150, 3]
-0.19188298 -1.9327954 0.10161194 -0.18583935 -0.056093186 -0.17990142 -17.434732 0.0064344066
-0.33143872 -7.6857467 0.017176146 -6.261574 -0.097467944 -0.0647781 -0.0043153716 -0.05199418
0.0019968404 -0.015494185 -0.90747845 0.0014470748 -0.0933718 -1.3893977 1.2797754 0.5199199
-0.071243666 0.0027390188 -0.059612937 -0.12901682 -0.054397345 -0.032405287 -0.43182406 -0.18351379
-4.4909 -2.5513804 -0.0022757843 -2.5512033 -9.566489 0.008184512 -0.5081385 -0.98277766
-0.090841874 0.9628045 -0.07072528 -0.00082059036 -0.00051308284 -5.9615192 0.05172195 0.017510252
-0.23797128 -0.16290475 1.2724335 -28.428364 -0.004532972 -0.15851137 -9.1291685 0.3298962
1.602509 -0.13342802 -0.00054509204 -0.042880233 -0.007973795 0.041952234 2.476926 -0.020179994
-0.15493675 0.189622 -0.7972402 0.08748863 1.7163892 -0.8229871 -0.039153613 1.029286
-0.13336518 -0.01913552 2.4429383 -17.065947 0.03163 -2.5775967 -0.34677467 0.15497604
-0.78874457 -0.3029221 0.010131539 -1.1058197 -0.58716017 0.0066640438 -1.7936234 -0.07749652
0.021814177 0.0011992735 0.0018202709 0.5115419 0.70270115 -0.18710284 -0.021051602 -0.063532956
-7.000491 0.019370146 -3.3767679 -0.2366936 1.2166153e-05 -0.107495986 -0.05474721 0.00025279346
-0.07896355 0.091509104 2.6158447 0.4501567 -12.564598 -0.39129773 -3.305585 -0.8308473
0.001821509 -0.2428355 -0.0165612 -0.000701565 -0.027785556 -15.944565 -0.083825916 -0.75511444
-4.2556915 0.051672425 -3.6290958 -0.19304754 -1.8900443 -4.113964 -0.046215713 5.3387153e-05
-0.039708618 -0.025257256 0.00039499707 -0.09813017 -0.22621349 -1.5932657 0.34624717 -6.8324385
0.00066425296 -0.94788814 -0.35211474 -0.036475662 0.023624994 -25.828255 -0.1810863 0.046541553
-0.3978987 -0.0026509615 -0.011454908 -4.723158 0.13893378 -2.2598693 -18.625051 -0.8983196
0.30937046 -0.024544133 -0.1393107 -0.008206935 -3.1994145 -0.0052826395 0.0015866638 -0.36808792
-0.0069542513 -0.15949765 -21.51098 0.057115022 -0.12957893 -8.787893 -0.41838485 -4.4526386
-0.23895745 -0.017013082 2.348011 -0.34621555 -0.0007205304 -0.10739783 -48.184765 -0.010895917
0.024927527 -8.62444 0.0314412 0.020296017 -0.031215843 0.004612392 -0.021948012 0.17462307
-1.2627783 -3.5376284 0.008629358 -0.006664988 -15.467555 -6.4305577 1.3101648 -3.7239592
-0.057577364 -1.0473931 0.775482 -12.866687 -0.063744515 -0.39103013 -0.05731215 0.007818804
-0.08203064 -0.08125982 -0.016798375 -0.0037505568 -0.66626674 1.5631562 0.13798799 -0.07823514
0.00242528 -0.049263302 -1.9361247 0.06805836 -0.14586577 -5.0941133 0.05387284 -3.202297
-3.7452202 1.5618634 0.7335923 -0.053767115 8.364401e-05 -0.032691337 -0.04226548 0.006994063
-0.022938421 -0.07628302 -0.00018191204 -0.048902832 -24.521181 -0.015815495 -0.017033208 -0.20414777
-0.0082032615 -0.019666541 -0.0135747595 1.7916898 0.10342452 0.14278439 0.13189737 4.9262586
-0.7682337 0.0025523982 -0.036917727 -0.40976885 -0.38014 0.73360544 -4.4023786 -0.10704421
-0.81662905 3.6516274e-05 0.0010332367 -0.0023561995 -3.7074366 -0.00031458476 -1.6564187 -0.013256954
00000000: f97c 44be d765 f7bf ec19 d03d ac4c 3ebe
00000010: f8c1 65bd 1438 38be 557a 8bc1 b7d7 d23b
00000020: 56b2 a9be a3f1 f5c0 fdb4 8c3c d05e c8c0
00000030: 469d c7bd 61aa 84bd f667 8dbb d9f7 54bd
00000040: 6cdd 023b 52db 7dbc 8250 68bf c6ab bd3a
00000050: b739 bfbd c9d7 b1bf aecf a33f 7819 053f
00000060: 33e8 91bd 1c81 333b b22c 74bd fc1c 04be
00000070: c0cf 5ebd 68bb 04bd 0b18 ddbe 0aeb 3bbe
00000080: 74b5 8fc0 d149 23c0 5325 15bb ea46 23c0
00000090: 5710 19c1 5518 063c 5d15 02bf 5197 7bbf
000000a0: 4e0b babd 5b7a 763f 6ad8 90bd e31c 57ba
000000b0: 6880 06ba c4c4 bec0 65da 533d a971 8f3c
000000c0: beae 73be 81d0 26be 1adf a23f 4a6d e3c1
000000d0: 5389 94bb ce50 22be 1311 12c1 28e8 a83e
000000e0: 041f cd3f 5ba1 08be 82e4 0eba 2fa3 2fbd
000000f0: 85a4 02bc 1bd6 2b3d f585 1e40 8450 a5bc
00000100: bda7 1ebe 452c 423e ef17 4cbf 3d2d b33d
00000110: a4b2 db3f 48af 52bf 8a5f 20bd a5bf 833f
00000120: e290 08be 18c2 9cbc 1a59 1c40 0f87 88c1
00000130: 758e 013d 58f7 24c0 738c b1be 0ab2 1e3e
00000140: 2aeb 49bf 9b18 9bbe c1fe 253c 808b 8dbf
00000150: 2150 16bf 0d5e da3b 7495 e5bf 7fb6 9ebd
00000160: a5b3 b23c f130 9d3a 2896 ee3a 69f4 023f
00000170: 39e4 333f e397 3fbe 6974 acbc 911d 82bd
00000180: 0604 e0c0 24ae 9e3c f71c 58c0 cf5f 72be
00000190: 3b1d 4c37 db26 dcbd 9c3e 60bd 5d89 8439
000001a0: a4b7 a1bd 2069 bb3d 006a 2740 f07a e63e
000001b0: 9808 49c1 2d58 c8be b48e 53c0 69b2 54bf
000001c0: b3bf ee3a dfa9 78be 5bab 87bc 3be9 37ba
000001d0: 899e e3bc f01c 7fc1 ecac abbd 2e4f 41bf
000001e0: a02e 88c0 77a6 533d 1b43 68c0 41ae 45be
000001f0: f9ec f1bf 98a5 83c0 b04c 3dbd 05ec 5f38
00000200: 81a5 22bd 4ee8 cebc 9c17 cf39 78f8 c8bd
00000210: 82a4 67be 21f0 cbbf 4f47 b13e 56a3 dac0
00000220: 4321 2e3a cca8 72bf 6248 b4be 8167 15bd
00000230: 3489 c13c 44a0 cec1 b06e 39be 5ba2 3e3d
00000240: 61b9 cbbe c1bb 2dbb 5ead 3bbc 1c24 97c0
00000250: a844 0e3e b3a1 10c0 1b00 95c1 46f8 65bf
00000260: ce65 9e3e c710 c9bc 77a7 0ebe 6176 06bc
00000270: 35c3 4cc0 fe19 adbb 9af7 cf3a 0576 bcbe
00000280: 7de0 e3bb 5a53 23be 7d16 acc1 71f1 693d
00000290: 57b0 04be 369b 0cc1 8a36 d6be 047c 8ec0
000002a0: 43b1 74be 055f 8bbc d045 1640 2a43 b1be
000002b0: fae1 3cba 65f3 dbbd 33bd 40c2 ca84 32bc
000002c0: d034 cc3c b5fd 09c1 7dc8 003d d543 a63c
000002d0: 5eb8 ffbc 8c23 973b 51cc b3bc 64d0 323e
000002e0: b8a2 a1bf 8168 62c0 2762 0d3c f965 dabb
000002f0: 1b7b 77c1 21c7 cdc0 7bb3 a73f 5955 6ec0
00000300: 3ed6 6bbd fa10 86bf fd85 463f f3dd 4dc1
00000310: 7c8c 82bd 1a35 c8be 25c0 6abd 711a 003c
00000320: aeff a7bd 8c6b a6bd bf9c 89bc e7cb 75bb
00000330: 7590 2abf 8115 c83f b94c 0d3e bf39 a0bd
00000340: 72f1 1e3b 51c8 49bd efd2 f7bf 2e62 8b3d
00000350: d65d 15be fa02 a3c0 c4a9 5c3d 6ff2 4cc0
00000360: b0b1 6fc0 24eb c73f b4cc 3b3f e83a 5cbd
00000370: 096a af38 5ae7 05bd 911e 2dbd 742e e53b
00000380: 5be9 bbbc 463a 9cbd a4bf 3eb9 564e 48bd
00000390: 612b c4c1 7f8f 81bc 3a89 8bbc 1d0c 51be
000003a0: f966 06bc ba1b a1bc ab68 5ebc 1756 e53f
000003b0: 3cd0 d33d 1236 123e 1b10 073e e9a3 9d40
000003c0: f7aa 44bf 2346 273b 0b37 17bd 39cd d1be
000003d0: b6a1 c2be 91cd 3b3f 49e0 8cc0 ff39 dbbd
000003e0: 9a0e 51bf 0d29 1938 ac6d 873a 786a 1abb
000003f0: a446 6dc0 daee a4b9 8705 d4bf b233 59bc

hiddenLayer1.bias f4 [150]
-4.1282024 -0.9232515 -0.98456 -2.4195848 -0.9561461 -0.041588627 -0.10837883 -0.24133676
-0.07674833 -0.8002972 -0.44611332 -2.0913901 -0.7529462 -6.471133 -0.016515516 -1.1108294
-0.6839538 -1.00051 -0.99611104 -0.046784475 -1.229063 -2.4689198 -2.4993439 -3.6353512
-6.632753 -2.6968508 0.4220163 -1.0263909 -1.4155736 -0.33058062 2.402109 -0.3555931
-3.1012392 -0.0907359 -0.065087564 -10.288946 -0.93797404 -0.22125448 -0.033318777 -2.1618307
-0.87899905 -3.628681 -0.032008428 -0.07852505 -3.0675747 -0.99298847 -2.350027 -0.4113347
-0.0745246 -3.151125 -4.400743 -1.922159 -1.6605593 -0.4424253 -1.2345489 -1.4901437
-2.3417246 -0.09809812 -0.84947497 -1.4339035 -0.08785966 -0.00939901 1.452634 -2.885846
-12.185272 -1.9844276 -0.14133309 -0.44835857 -2.1947365 -0.055581138 -1.463919 -3.1141267
-4.098231 -0.027266016 -0.10699137 -0.07474742 -0.97553265 -0.16168797 -8.241344 -6.6556425
-0.07114499 -7.5153112 -2.2692392 -0.028479282 -1.3684565 -2.3222215 -1.0191989 -0.13887738
-0.44057116 -1.497314 0.06890402 -0.96074975 -0.1975173 -0.9569175 -3.3784368 -0.14283918
-0.57269925 -0.46999905 -1.5994347 -0.5718694 -0.08087224 -0.54403 -1.8033001 -1.9026924
-4.3086815 -0.16322066 -2.1088808 -2.6892579 -1.3203956 -0.923461 -0.4256282 -0.93160623
-4.9541974 -0.96977806 -0.9085105 -0.017480554 -3.2359948 -0.20093651 -8.788175 -0.5858086
-0.23846537 -3.0568964 -2.9024405 -0.09678876 -0.022495866 -0.028602762 -6.509223 -2.0332897
-0.16413045 -8.414655 -4.0810494 -0.6653944 -0.12707411 -0.27134982 -0.30879426 -2.1330566
-1.1579518 -7.266258 -4.062476 -0.123169184 2.0957363 -5.5658045 -1.6326447 -2.1529791
-9.423044 -0.015179508 -1.4186159 -0.27864796 -0.10485131 -0.04554516
00000000: 3c1a 84c0 365a 6cbf 200c 7cbf 7ada 1ac0
00000010: fec5 74bf d658 2abd b8f5 ddbd fc20 77be
00000020: 3a2e 9dbd 47e0 4cbf f768 e4be 56d9 05c0
00000030: 15c1 40bf 8613 cfc0 8c4b 87bc a82f 8ebf
00000040: 9917 2fbf b610 80bf 2201 7fbf 14a1 3fbd
00000050: f051 9dbf c802 1ec0 40f5 1fc0 98a9 68c0
00000060: 833f d4c0 3499 2cc0 8512 d83e c760 83bf
00000070: 8431 b5bf dd41 a9be 27bc 1940 4c10 b6be
00000080: b47a 46c0 bed3 b9bd a14c 85bd 869f 24c1
00000090: 111f 70bf 8990 62be 4579 08bd 6f5b 0ac0
000000a0: 1506 61bf 4f3c 68c0 451b 03bd bed1 a0bd
000000b0: 2553 44c0 7e34 7ebf d866 16c0 769a d2be
000000c0: 5aa0 98bd 08ac 49c0 e3d2 8cc0 4e09 f6bf
000000d0: 358d d4bf 9285 e2be b305 9ebf 07bd bebf
000000e0: d1de 15c0 abe7 c8bd 3177 59bf 268a b7bf
000000f0: c4ef b3bd 4efe 19bc e9ef b93f b3b1 38c0
00000100: e0f6 42c1 b901 febf 9fb9 10be 418f e5be
00000110: 9076 0cc0 0ca9 63bd b361 bbbf da4d 47c0
00000120: b524 83c0 fb5c dfbc 4b1e dbbd 2d15 99bd
00000130: 82bc 79bf 8891 25be 8cdc 03c1 06fb d4c0
00000140: 77b4 91bd 6e7d f0c0 373b 11c0 624d e9bc
00000150: 9529 afbf 479f 14c0 1c75 82bf df35 0ebe
00000160: 8b92 e1be fca7 bfbf 8d1d 8d3d b2f3 75bf
00000170: fa41 4abe 8cf8 74bf 4f38 58c0 6f44 12be
00000180: 6b9c 12bf b7a3 f0be 47ba ccbf 0866 12bf
00000190: 58a0 a5bd 8d45 0bbf 8ad2 e6bf 6d8b f3bf
000001a0: b8e0 89c0 5123 27be e7f7 06c0 cd1c 2cc0
000001b0: b902 a9bf f167 6cbf f0eb d9be bf7d 6ebf
000001c0: c988 9ec0 6043 78bf 2594 68bf 6133 8fbc
000001d0: 8a1a 4fc0 4dc2 4dbe 5d9c 0cc1 8df7 15bf
000001e0: 4430 74be 31a4 43c0 96c1 39c0 2f39 c6bd
000001f0: 4049 b8bc 5750 eabc 8e4b d0c0 6b21 02c0
00000200: d011 28be 6da2 06c1 f597 82c0 4a57 2abf
00000210: b71f 02be 5dee 8abe 481a 9ebe 0084 08c0
00000220: c437 94bf 2f85 e8c0 ceff 81c0 2040 fcbd
00000230: 8b20 0640 121b b2c0 80fa d0bf 69ca 09c0
00000240: cac4 16c1 79b3 78bc 3595 b5bf f2aa 8ebe
00000250: 49bc d6bd 908d 3abd

hiddenLayer2.weight f4 [150, 150]
0.32397377 1.046154 0.6636838 2.5665948 -0.053687867 0.016922435 -0.29071414 -0.111567125
-1.581317 -1.2569541 -2.065864 -5.1399508 -0.43404546 13.3806505 0.0483462 -0.533648
-0.5087116 -7.097075 1.2010356 -0.12464149 -0.9947846 -1.7530204 -0.1282257 0.21724848
-0.31840953 1.0141256 -0.12513034 -2.1937296 -0.060576055 -5.017654 -0.60475934 -1.7734188
-22.310873 0.7078205 -0.28977403 -0.44406152 -5.8968616 -0.4727364 0.06797514 7.211721
-0.3576914 -2.6839797 0.011012251 -1.5403297 -13.643324 -0.97862697 -2.2210884 0.41349396
0.7118769 -5.208254 -26.777866 0.07589421 1.9884413 1.2129399 4.7214584 -13.445345
-0.4538901 0.339443 2.4195411 -4.5123897 0.1999336 -2.120643 0.40718913 1.2756972
1.275051 5.1685677 0.0057809805 1.4358861 0.7961406 0.01193561 2.6929324 -3.8435576
-0.8206892 -0.0087141 0.024764745 0.769238 -3.2467086 0.22562338 0.48189571 -0.43940598
0.23834689 0.23016176 -7.332135 -0.0838232 -16.67221 0.038564645 -0.5277213 -0.6462908
2.60684 -5.1825166 -8.688522 1.0168656 -2.1678321 -3.0012023 0.33363694 -1.2029678
3.5927792 -0.5663399 0.42732358 0.2401729 0.98688924 0.8159567 1.4735005 0.12877162
-0.609807 0.38065955 1.0460497 0.24754864 -3.4082212 -0.9441236 -1.128623 -2.0169294
-16.19507 -0.16359591 -22.542517 0.010613404 3.7160618 -0.6624731 0.64206743 -2.542173
-0.20754597 -7.5787272 -1.2706463 0.14053582 -0.034982055 -0.23828194 -2.2331448 -0.022917984
0.14499788 -7.630407 -4.654585 -4.811001 -0.067728534 -7.0704923 -7.68738 -2.1529102
-0.08246401 -2.1912065 2.879683 0.3837497 -0.515867 0.20642479 -3.4746132 -1.5151625
-0.5755828 0.033121925 0.34616715 -0.8576714 0.052904807 0.2316266 -12.365625 1.3461443
-21.197859 -1.4667264 0.3327951 -0.042995736 -0.13554883 -2.340422 0.43237877 2.8848
-4.628776 -4.5687675 -1.3741072 -6.771738 0.07348455 0.3624362 3.7335036 2.1613622
4.677038 -0.14577869 -2.8611991 -4.2547603 -1.8933856 0.12020582 -4.4259615 -4.6678014
2.1885386 -4.7147646 2.010816 0.03951998 -2.3355641 -0.743251 4.9588666 1.0598816
1.2723442 -2.8495202 -8.941694 0.23066692 0.047568616 -21.432951 -22.629768 3.0502312
-0.18862258 -0.8873706 -9.592789 0.013857589 -1.2872622 3.5208228 0.12476147 -2.0252948
-2.794583 -9.213915 0.25874326 0.36034963 0.53609735 -2.0925305 -4.315737 0.17209211
19.121729 -2.2165725 -0.6993852 -2.0382943 -0.80377024 -0.41892746 2.1661706 -1.6940933
-0.4914701 0.75470895 -5.452329 0.5013413 -6.647144 3.3644848 -1.1862297 0.0648778
-0.23896697 0.23199917 4.5601726 -0.48957664 1.0546758 -2.830102 0.14337291 -8.257508
-1.9655108 -0.042767644 0.75042635 0.39120352 -2.6291819 -1.8352998 -1.7149433 -9.7371855
-1.7614226 4.269681 0.07912051 -10.09722 -0.26042423 0.5357475 -0.72393435 -0.11490835
-4.2670817 -0.217275 0.18813477 0.11396263 -3.888458 1.5660094 0.32119352 0.10404504
00000000: e4df a53e 60e8 853f 2ee7 293f 1743 2440
00000010: cfe7 5bbd eba0 8a3c 7cd8 94be 4e7d e4bd
00000020: 9868 cabf dfe3 a0bf 1e37 04c0 7a7a a4c0
00000030: 353b debe 2517 5641 aa06 463d 289d 08bf
00000040: ec3a 02bf 3d1b e3c0 89bb 993f 0a44 ffbd
00000050: 34aa 7ebf f962 e0bf 994d 03be 6376 5e3e
00000060: 9306 a3be dece 813f 2b22 00be 1166 0cc0
00000070: 991e 78bd 9f90 a0c0 82d1 1abf 63ff e2bf
00000080: ab7c b2c1 b933 353f 435d 94be 085c e3be
00000090: 17b3 bcc0 810a f2be 8d36 8b3d 6bc6 e640
000000a0: 5423 b7be 53c6 2bc0 ba6c 343c 8629 c5bf
000000b0: 0e4b 5ac1 4c87 7abf 5026 0ec0 7bb5 d33e
000000c0: 913d 363f 04aa a6c0 1239 d6c1 6c6e 9b3d
000000d0: 3f85 fe3f 9d41 9b3f 3016 9740 2220 57c1
000000e0: 4864 e8be 79cb ad3e c3d9 1a40 7f65 90c0
000000f0: 65bb 4c3e 9db8 07c0 187b d03e 0c4a a33f
00000100: df34 a33f e864 a540 616e bd3b 1ecb b73f
00000110: dfcf 4b3f 948d 433c 0159 2c40 d9fc 75c0
00000120: b018 52bf 96c5 0ebc 6fdf ca3c c8ec 443f
00000130: 13ca 4fc0 d109 673e 09bb f63e d2f9 e0be
00000140: 3511 743e 86af 6b3e daa0 eac0 7fab abbd
00000150: b060 85c1 f6f5 1d3d be18 07bf 5073 25bf
00000160: 77d6 2640 2dd7 a5c0 3004 0bc1 a728 823f
00000170: c3bd 0ac0 b313 40c0 76d2 aa3e d9fa 99bf
00000180: 18f0 6540 a7fb 10bf 28ca da3e e2ef 753e
00000190: c6a4 7c3f 8ae2 503f aa9b bc3f b5dc 033e
000001a0: 501c 1cbf cfe5 c23e f5e4 853f 647d 7d3e
000001b0: 4c20 5ac0 16b2 71bf b876 90bf 5f15 01c0
000001c0: 818f 81c1 b085 27be 1357 b4c1 d8e3 2d3c
000001d0: f5d3 6d40 d697 29bf 885e 243f f6b2 22c0
000001e0: ee86 54be ef84 f2c0 8aa4 a2bf 9fe8 0f3e
000001f0: 5849 0fbd 2e00 74be d8eb 0ec0 7fbe bbbc
00000200: 537a 143e 4b2c f4c0 5cf2 94c0 b8f3 99c0
00000210: 42b5 8abd 7941 e2c0 04ff f5c0 48c9 09c0
00000220: e4e2 a8bd ba3c 0cc0 ba4c 3840 d77a c43e
00000230: dc0f 04bf 0561 533e 1060 5ec0 d8f0 c1bf
00000240: 6559 13bf dbaa 073d d23c b13e 5a90 5bbf
00000250: b6b2 583d 862f 6d3e 9ad9 45c1 754e ac3f
00000260: 3795 a9c1 b1bd bbbf 1f64 aa3e 4c1c 30bd
00000270: 50cd 0abe 79c9 15c0 c060 dd3e 90a0 3840
00000280: ef1e 94c0 5833 92c0 bfe2 afbf 14b2 d8c0
00000290: 117f 963d 3d91 b93e b9f1 6e40 c253 0a40
000002a0: 4caa 9540 0247 15be e31d 37c0 ff26 88c0
000002b0: 765a f2bf 782e f63d 7aa1 8dc0 a15e 95c0
000002c0: 0411 0c40 5adf 96c0 36b1 0040 b4df 213d
000002d0: e279 15c0 b345 3ebf 09af 9e40 33aa 873f
000002e0: 2ddc a23f 8a5e 36c0 2e11 0fc1 f333 6c3e
000002f0: 4fd7 423d af76 abc1 c409 b5c1 fd36 4340
00000300: 4726 41be b82a 63bf 107c 19c1 f10a 633c
00000310: 02c5 a4bf 2955 6140 f182 ff3d 6e9e 01c0
00000320: 73da 32c0 326c 13c1 ff79 843e bf7f b83e
00000330: ad3d 093f 05ec 05c0 841a 8ac0 ea38 303e
00000340: 4df9 9841 53dc 0dc0 e90a 33bf 6a73 02c0
00000350: e3c3 4dbf a97d d6be 8aa2 0a40 0dd8 d8bf
00000360: f8a1 fbbe 9b34 413f 7b79 aec0 e757 003f
00000370: 67b5 d4c0 b853 5740 60d6 97bf a7de 843d
00000380: c2b3 74be 3191 6d3e efec 9140 caa9 fabe
00000390: 9eff 863f 6420 35c0 59d0 123e c11e 04c1
000003a0: dc95 fbbf 202d 2fbd f11b 403f d44b c83e
000003b0: 8444 28c0 1beb eabf 4383 dbbf 83cb 1bc1
000003c0: 4c76 e1bf 3aa1 8840 ef09 a23d 378e 21c1
000003d0: 5356 85be c026 093f c353 39bf 1255 ebbd
000003e0: ef8b 88c0 567d 5ebe 67a6 403e 3d65 e93d
000003f0: 7fdc 78c0 ff72 c83f 7a73 a43e 9115 d53d

hiddenLayer2.bias f4 [150]
-0.5527025 -2.779172 1.1407853 1.4010372 0.40364796 -0.5631778 -2.285125 -0.23264046
4.067358 0.37760305 0.8667218 -1.1044778 0.47649667 -1.0448915 -0.07145769 -0.58131117
1.6693115 -0.16650178 0.7696532 -1.1501226 -0.64336306 -0.07602105 -0.28516707 -0.57176644
-0.09749303 -0.20995045 -0.82764953 4.1377783 -0.4093582 0.1267574 -0.50276536 -2.0950172
-0.3128542 1.0893923 2.279675 -0.49021474 -0.9741043 -0.7425661 -0.7281228 -1.6928505
-0.69660795 -2.3381376 -0.64479345 -0.0753766 1.9039398 -0.37416336 -3.70242 -3.8670921
-1.0248659 -0.315551 -0.57175016 0.29639277 -0.37558252 -0.43149942 -1.2796769 -0.88621545
-0.5224985 -0.70500755 -0.7086826 -1.9129703 -0.33365512 -0.608075 -1.4193895 0.42669186
-3.8615942 0.5552352 -4.9888477 -0.07188841 -1.3769743 0.64927506 5.6064157 -0.8612878
-0.8975439 1.5846765 -1.0651686 -0.40944827 0.6606552 -0.97436523 -0.19595872 -0.71378404
-2.0923295 -0.49863842 -0.41173396 -3.220295 -0.64207065 -0.49070317 0.5837951 -1.3704154
-0.701092 -0.07316393 0.24109218 7.2999086 -0.036868937 -1.1670796 -0.5328422 -1.7195927
-0.5672096 0.20450914 -1.8838726 10.258264 -0.43523806 -0.39739364 -0.13988061 -0.9914165
-0.051233426 1.197707 -0.55558175 -0.13777512 5.0065937 -2.6922812 0.48323816 -2.494808
-0.8413682 5.7072763 2.3276317 -0.48731562 -0.30242336 -1.2112278 -0.40780088 0.22373173
-0.07282558 -1.3425246 -0.40245613 -0.07587177 -0.5451996 3.7806475 -1.7057973 -0.57965225
0.99880683 -3.1514585 0.19569646 -1.0409005 4.65933 -0.731093 -0.25623372 -0.29413292
-1.0952126 -0.63415015 -1.0713663 -0.43895817 -1.3866485 -1.7437258 -0.10122925 -0.62420815
-0.15276444 -0.45104533 0.568196 -0.12502302 -0.42772102 -0.33841044
00000000: e97d 0dbf f4dd 31c0 4105 923f 3055 b33f
00000010: f2aa ce3e 6c2c 10bf 7d3f 12c0 4d39 6ebe
00000020: cc27 8240 3055 c13e 7be1 5d3f 875f 8dbf
00000030: 5ff7 f33e 01bf 85bf 6958 92bd cfd0 14bf
00000040: 00ac d53f 717f 2abe fe07 453f 3837 93bf
00000050: 71b3 24bf edb0 9bbd 6b01 92be 495f 12bf
00000060: 6daa c7bd 40fd 56be d7e0 53bf ae68 8440
00000070: 6697 d1be b1cc 013e 3bb5 00bf c314 06c0
00000080: 6d2e a0be 3571 8b3f 32e6 1140 6dfd fabe
00000090: e65e 79bf d018 3ebf 4166 3abf 53af d8bf
000000a0: e654 32bf 0ca4 15c0 2f11 25bf 0c5f 9abd
000000b0: 4db4 f33f 5792 bfbe 73f4 6cc0 707e 77c0
000000c0: ce2e 83bf e78f a1be 385e 12bf cbc0 973e
000000d0: 5a4c c0be 7eed dcbe 74cc a3bf 04df 62bf
000000e0: 76c2 05bf 607b 34bf 396c 35bf 36dc f4bf
000000f0: d8d4 aabe ceaa 1bbf 8eae b5bf 5b77 da3e
00000100: 5c24 77c0 e523 0e3f a4a4 9fc0 3b3a 93bd
00000110: b240 b0bf e436 263f c267 b340 5b7d 5cbf
00000120: 70c5 65bf aed6 ca3f 7257 88bf 34a3 d1be
00000130: b320 293f 0070 79bf 67a9 48be 8dba 36bf
00000140: bae8 05c0 894d ffbe cbce d2be 5019 4ec0
00000150: be5e 24bf 723d fbbe 9873 153f c669 afbf
00000160: c47a 33bf f8d6 95bd dee0 763e da98 e940
00000170: e203 17bd dd62 95bf 5968 08bf 9d1b dcbf
00000180: a634 11bf d86a 513e bd22 f1bf d921 2441
00000190: 86d7 debe 2e77 cbbe dd3c 0fbe 79cd 7dbf
000001a0: 24da 51bd 774e 993f 9b3a 0ebf ec14 0dbe
000001b0: 0436 a040 564e 2cc0 fe6a f73e efaa 1fc0
000001c0: e863 57bf 02a2 b640 ebf7 1440 6f81 f9be
000001d0: 3cd7 9abe 8309 9bbf 47cb d0be ee19 653e
000001e0: 9425 95bd d9d7 abbf bb0e cebe a962 9bbd
000001f0: 3392 0bbf 21f6 7140 9157 dabf 1764 14bf
00000200: ceb1 7f3f 7fb1 49c0 a764 483e 3a3c 85bf
00000210: 3b19 9540 e928 3bbf 1131 83be 9798 96be
00000220: ed2f 8cbf aa57 22bf 8822 89bf 20bf e0be
00000230: b37d b1bf 6832 dfbf 4851 cfbd 1bcc 1fbf
00000240: 486e 1cbe 6aef e6be 4b75 113f 0906 00be
00000250: 40fe dabe 2244 adbe

hiddenLayer3.weight f4 [150, 150]
0.17162225 1.0643231 3.9040987 1.273124 0.04371999 -0.21118109 -1.0111763 -0.41467538
2.600597 -0.7695906 1.2914253 -1.6305014 -0.4753324 -1.1038271 -0.011725652 0.06843966
0.49610084 0.6539319 2.2453408 -0.97902495 -5.3674064 -0.029987153 0.60186756 1.0746515
0.07010995 -2.1325185 -2.259605 1.177605 -0.6184596 0.04424643 1.6306309 1.9673256
-33.261703 4.1439366 -0.6401806 -0.13983019 -2.1748698 2.3241992 1.3878922 0.8097198
3.9005382 2.8390222 -0.5880367 0.0416002 0.04704881 0.16424468 -10.885919 -28.439526
-2.8409903 1.337667 4.11627 -0.7615748 -0.12953474 0.062084068 -0.02021146 -0.64109945
1.2355714 0.3571229 -7.437392 0.91988623 -1.0373737 -2.9054399 1.0561087 -8.628396
-0.7631888 -0.3176266 0.8806935 -0.34133896 -5.5103354 3.6930008 0.39657536 0.22595094
0.92801917 -0.6044153 -2.5915167 0.09814215 -3.3525589 3.2433214 -0.57671773 -3.4815798
-5.629075 -1.3173549 0.08304318 -4.155637 0.2998312 0.12523302 2.1467466 0.7445494
0.928525 0.119997926 0.2528257 0.26783645 -0.19245279 0.11269764 -2.1760051 0.58603925
0.20334071 2.2234135 0.89812994 0.22733338 -0.6236367 -0.4819268 0.3476201 0.81351125
-0.045274377 3.0826235 -7.04692 0.46622854 0.3894896 -1.7706103 0.0711505 -0.8562678
-4.4727426 0.33827975 -0.72712797 -1.7741504 -2.2983768 -1.0428599 0.58447826 -3.1718938
0.009551125 0.6022748 -12.607495 0.043384776 0.035075206 -0.8172964 0.72386307 0.06502497
0.40273586 -2.61862 -4.0029693 -1.2538481 -0.6155299 -4.600368 -1.5006225 2.786695
0.7674108 0.874998 2.7631128 1.7080793 0.49344197 -4.8806725 -0.0019818472 -4.03349
-1.8290896 1.0373751 -0.32230854 -0.0082928995 1.0553097 -0.045653332 -0.771229 -0.2818194
3.317754 0.17882548 0.07046643 0.042969175 -15.558819 0.6219877 -1.5407299 1.7554235
-1.1091571 -0.8835256 1.3148878 -0.9757135 -0.020669932 0.048507236 -0.1911262 -1.0072016
-0.43294927 -1.389923 -1.0675668 -0.05679911 -0.71270174 1.0207689 0.11449667 -2.4078372
-0.71370524 -0.8517761 -1.5807177 -0.019666007 -0.22932704 0.54041994 -2.4830828 3.3048291
0.53397906 2.456633 1.8272147 3.2698014 3.9207008 -0.29813924 -0.45185527 -5.6615295
-3.6214507 0.07472132 -0.42466196 0.16049628 -10.071669 10.836326 -1.0453191 -1.4170903
0.8049873 -1.5211493 -1.4764724 -0.095192865 2.3579755 1.7341547 0.86040604 0.12344711
-0.6895568 -0.09117883 -0.47340086 -0.32167423 -1.0265374 -2.7072418 -11.427967 -0.88925207
-3.6670861 -0.56333804 2.5445542 0.14068195 -2.1404538 -0.088857815 -1.3806399 -2.6934793
-3.974114 0.83370167 1.6386594 -1.5531338 -1.6025434 -0.41459432 0.29023337 1.1721783
-0.10221933 -1.2258035 2.5414314 -0.060319614 -1.6819463 0.90692204 -1.5799026 0.08864379
3.1875863 -1.4183086 -0.29081425 0.7117859 0.09787366 0.79201365 0.9125616 3.325635
1.4441481 -3.5263188 -5.643179 -0.035230897 0.25034818 0.9527698 -0.056736995 -0.2405198
00000000: bebd 2f3e bd3b 883f c1dc 7940 baf5 a23f
00000010: bb13 333d db3f 58be 3a6e 81bf 5550 d4be
00000020: 2e70 2640 e403 45bf 6d4d a53f 45b4 d0bf
00000030: c55e f3be 354a 8dbf f31c 40bc 182a 8c3d
00000040: ee00 fe3e 1568 273f aab3 0f40 61a1 7abf
00000050: cbc1 abc0 9ea7 f5bc fe13 1a3f 2e8e 893f
00000060: ce95 8f3d 2f7b 08c0 5e9d 10c0 c3bb 963f
00000070: 5e53 1ebf bf3b 353d 83b8 d03f 53d1 fb3f
00000080: fc0b 05c2 219b 8440 e0e2 23bf a52f 0fbe
00000090: 1131 0bc0 aebf 1440 74a6 b13f cc49 4f3f
000000a0: 6ba2 7940 8ab2 3540 9389 16bf f964 2a3d
000000b0: 41b6 403d c22f 283e b92c 2ec1 2684 e3c1
000000c0: c9d2 35c0 ac38 ab3f 7cb8 8340 91f6 42bf
000000d0: c1a4 04be dd4b 7e3d 8192 a5bc 181f 24bf
000000e0: 3427 9e3f d0d8 b63e 1eff edc0 aa7d 6b3f
000000f0: a9c8 84bf baf2 39c0 922e 873f e90d 0ac1
00000100: 5760 43bf f49f a2be 2175 613f fbc3 aebe
00000110: ab54 b0c0 205a 6c40 ed0b cb3e af5f 673e
00000120: aa92 6d3f f6ba 1abf 69db 25c0 c0fe c83d
00000130: 5390 56c0 9492 4f40 c6a3 13bf 34d2 5ec0
00000140: 6221 b4c0 169f a8bf 8b12 aa3d fafa 84c0
00000150: 7a83 993e 163d 003e 4c64 0940 ca9a 3e3f
00000160: d0b3 6d3f 79c1 f53d 5f72 813e dc21 893e
00000170: 5812 45be 05ce e63d ab43 0bc0 ab06 163f
00000180: 8c38 503e 684c 0e40 d8eb 653f 15ca 683e
00000190: a8a6 1fbf 1cbf f6be 43fb b13e 4642 503f
000001a0: a071 39bd b449 4540 5e80 e1c0 82b5 ee3e
000001b0: 2e6b c73e 5ca3 e2bf 5ab7 913d 5e34 5bbf
000001c0: b520 8fc0 0133 ad3e 0f25 3abf 5c17 e3bf
000001d0: 9b18 13c0 6f7c 85bf 5ea0 153f 4f00 4bc0
000001e0: 527c 1c3c ae2e 1a3f 4db8 49c1 3cb4 313d
000001f0: 05ab 0f3d 563a 51bf 174f 393f d02b 853d
00000200: 6533 ce3e 7897 27c0 5318 80c0 187e a0bf
00000210: 5e93 1dbf 3736 93c0 6614 c0bf 3659 3240
00000220: 0975 443f deff 5f3f d7d6 3040 58a2 da3f
00000230: 6da4 fc3e 782e 9cc0 e1e1 01bb 5a12 81c0
00000240: 9c1f eabf b5c8 843f a005 a5be f1de 07bc
00000250: 6314 873f fdfe 3abd 446f 45bf a24a 90be
00000260: 1556 5440 071e 373e b450 903d 7200 303d
00000270: ecf0 78c1 963a 1f3f a336 c5bf b8b1 e03f
00000280: dcf8 8dbf bc2e 62bf 3e4e a83f 5cc8 79bf
00000290: fd53 a9bc 86af 463d 96b6 43be fbeb 80bf
000002a0: 87ab ddbe ffe8 b1bf 07a6 88bf 2fa6 68bd
000002b0: 9f73 36bf 8ea8 823f 3b7d ea3d 011a 1ac0
000002c0: 63b5 36bf 000e 5abf f554 cabf 9b1a a1bc
000002d0: b5d4 6abe f658 0a3f d4ea 1ec0 5282 5340
000002e0: dab2 083f 7a39 1d40 2ce2 e93f 6d44 5140
000002f0: c3ec 7a40 b5a5 98be 9359 e7be 402b b5c0
00000300: d9c5 67c0 7e07 993d 4b6d d9be 2359 243e
00000310: 8e25 21c1 9761 2d41 04cd 85bf 3763 b5bf
00000320: a613 4e3f 05b5 c2bf 0cfd bcbf 7af4 c2bd
00000330: 12e9 1640 c8f8 dd3f 9243 5c3f d7d1 fc3d
00000340: cb86 30bf f7bb babd 9961 f2be 7cb2 a4be
00000350: 9465 83bf 7343 2dc0 f4d8 36c1 06a6 63bf
00000360: 8ab1 6ac0 ec36 10bf fad9 2240 ee0e 103e
00000370: 32fd 08c0 16fb b5bd cfb8 b0bf f761 2cc0
00000380: e257 7ec0 796d 553f 97bf d13f 17cd c6bf
00000390: 2420 cdbf b545 d4be 7899 943e f009 963f
000003a0: 5e58 d1bd 21e7 9cbf d0a6 2240 b311 77bd
000003b0: 044a d7bf 0b2c 683f 403a cabf e08a b53d
000003c0: 6a01 4c40 238b b5bf 9be5 94be 9a37 363f
000003d0: fc71 c83d 68c1 4a3f a39d 693f 34d7 5440
000003e0: d8d9 b83f 35af 61c0 ec94 b4c0 464e 10bd
000003f0: a32d 803e b9e8 733f 0d65 68bd d34a 76be

hiddenLayer3.bias f4 [150]
11.358967 0.82500434 -0.28042993 8.971425 0.34953797 8.154042 -3.0463843 2.6152093
-0.5151457 -1.2710956 -0.1152307 4.3944626 -0.18020806 -0.4475117 5.2872047 -8.360579
-10.047989 7.0795 -1.2093838 -1.6155012 0.45484555 5.8141503 -0.17096263 3.822134
-0.94818854 13.930024 6.7181764 -0.93578875 -7.024879 7.0686464 -0.20454098 -9.608281
-0.5828006 -0.22661656 21.09942 -2.9072812 0.700617 13.581182 -2.446936 -1.6940997
2.3454468 -0.37284443 1.2394623 -5.2053623 -1.0059799 0.92312723 -0.8673854 16.041006
-0.7901329 -2.9670517 0.6658159 -5.855994 1.9843535 -0.16189103 0.8168889 12.706073
-0.20617008 -9.633655 5.061071 -10.109238 -1.4360293 -0.66819733 -4.2146044 -0.64100504
-0.33763376 -0.42603624 -0.77329606 -0.41517568 -0.58321166 0.2979063 8.195027 3.1412299
0.57007146 16.524206 17.199665 -1.3515415 -3.123474 -0.19486776 5.8937297 -0.09746268
-2.6831465 15.402677 11.241368 -0.40859422 -1.2437121 -0.14848632 -0.72873926 -0.9647691
-0.1368005 -0.10130398 5.1388655 16.956509 -0.56370485 -7.864455 -1.4121236 -0.29395238
-0.41302395 5.463942 10.603297 6.968006 -13.422843 11.872159 -0.31737086 -0.9004178
18.630121 -0.36866835 -1.1029189 0.31165996 17.988058 17.759998 -2.2375414 0.60275817
16.96481 -0.059966013 2.5588348 7.8608866 -0.072593495 -0.19310392 0.67297965 -0.72432554
-1.0368935 -2.181081 -5.4359393 -0.32402134 0.41543874 -6.466519 -0.8009277 -5.927881
-0.07738846 16.121126 2.3389397 1.5932148 -0.28351825 -0.28128374 12.228892 15.810172
0.28210723 -4.0121603 1.0257311 -0.36402604 -0.66153365 -2.9983175 -0.61438316 -1.4368088
15.433981 0.16305543 19.611954 -0.43971533 -1.824998 -2.043952
00000000: 54be 3541 7c33 533f 8394 8fbe f58a 0f41
00000010: a4f6 b23e f576 0241 f6f7 42c0 975f 2740
00000020: 97e0 03bf 43b3 a2bf 13fe ebbd 709f 8c40
00000030: 7688 38be 4120 e5be c830 a940 eec4 05c1
00000040: 90c4 20c1 448b e240 17cd 9abf bec8 cebf
00000050: 84e1 e83e 850d ba40 d410 2fbe d89d 7440
00000060: 7cbc 72bf 61e1 5e41 4dfb d640 da8f 6fbf
00000070: cfcb e0c0 5a32 e240 3173 51be 85bb 19c1
00000080: 6c32 15bf 2c0e 68be 9dcb a841 e510 3ac0
00000090: a35b 333f 854c 5941 999a 1cc0 42d8 d8bf
000000a0: cd1b 1640 77e5 bebe b3a6 9e3f 5492 a6c0
000000b0: f3c3 80bf 1152 6c3f f80c 5ebf fb53 8041
000000c0: 2646 4abf 2de4 3dc0 e972 2a3f 4e64 bbc0
000000d0: 4cff fd3f c3c6 25be a21f 513f 134c 4b41
000000e0: 401e 53be 7323 1ac1 4bf4 a140 70bf 21c1
000000f0: cfcf b7bf fb0e 2bbf 0ade 86c0 e818 24bf
00000100: 55de acbe 6c21 dabe bbf6 45bf e891 d4be
00000110: 5c4d 15bf 2d87 983e d51e 0341 e909 4940
00000120: 34f0 113f 9331 8441 ea98 8941 50ff acbf
00000130: ffe6 47c0 6a8b 47be 6f99 bc40 839a c7bd
00000140: acb8 2bc0 5d71 7641 a5dc 3341 4333 d1be
00000150: f531 9fbf cc0c 18be a88e 3abf 1cfb 76bf
00000160: 6e15 0cbe 7678 cfbd 9671 a440 eea6 8741
00000170: f64e 10bf 9ea9 fbc0 77c0 b4bf ed80 96be
00000180: e077 d3be 9dd8 ae40 1ba7 2941 e8f9 de40
00000190: f7c3 56c1 5df4 3d41 6f7e a2be c881 66bf
000001a0: 7d0a 9541 19c2 bcbe 722c 8dbf e591 9f3e
000001b0: 8be7 8f41 7a14 8e41 e133 0fc0 5c4e 1a3f
000001c0: eeb7 8741 ec9e 75bd f3c3 2340 628c fb40
000001d0: e6ab 94bd 09bd 45be 6548 2c3f 666d 39bf
000001e0: edb8 84bf d596 0bc0 37f3 adc0 20e6 a5be
000001f0: 63b4 d43e b9ed cec0 9909 4dbf 33b1 bdc0
00000200: d77d 9ebd 11f8 8041 30b1 1540 76ee cb3f
00000210: 4e29 91be 6c04 90be 8ba9 4341 77f6 7c41
00000220: 5c70 903e 9e63 80c0 284b 833f 9f61 babe
00000230: 455a 29bf 6fe4 3fc0 3748 1dbf 5ae9 b7bf
00000240: 96f1 7641 01f8 263e 48e5 9c41 5e22 e1be
00000250: 8999 e9bf 1cd0 02c0

outputLayer.weight f4 [2, 150]
1.7368467 -0.04289502 -0.070820816 1.1273386 0.090194575 0.88663244 -2.0959227 12.044076
-0.38100597 1.9751176 0.027977107 10.289736 -8.758223 0.9551355 -11.224762 -4.9637156
-1.9219282 0.67629284 -9.799778 0.7090727 0.34633574 1.2363415 -2.9014852 12.497561
-3.7316926 1.7133876 1.6481726 0.05406224 -5.861753 1.4738855 -0.94519866 -1.6644392
3.2202854 0.02855797 2.5226724 -12.585305 -3.2359786 1.4264618 1.3462256 -0.048734874
10.55122 0.16806202 -5.918038 -5.346865 4.3035707 13.162828 0.34491697 1.5307008
-0.54515857 -4.2495685 -1.1475265 -2.7331903 -0.90093416 -0.022678576 1.5141811 11.683758
-0.29042053 -1.4032344 2.7969527 -0.16033778 1.2617216 -0.82786775 -0.31110963 0.55609936
-1.9923248 -7.3435783 0.5247439 -1.9591943 0.2994245 -3.8484564 1.5718331 5.2308364
-0.0048561073 3.2714598 1.3775891 -8.264804 -2.7494419 -0.18195747 -9.397137 -0.712867
-10.791085 1.7571546 1.757553 -1.2524239 25.60819 -0.050846275 -0.9640434 -1.9549006
-0.0069843675 -1.0192077 5.0311365 1.3218408 -1.2619106 -1.6153967 0.40698516 -1.0121489
-0.20311669 3.1400182 4.852408 2.1516774 -2.1911864 7.520524 2.1026518 -1.471349
1.7394992 -2.2439885 1.4040627 -0.05371463 2.1016588 1.3756727 -2.271127 -0.92478955
1.3074297 0.6132922 5.5757227 3.2386003 0.003449913 0.016915562 -2.0284638 0.95798856
-1.3236119 -2.551521 -0.48778105 -0.45308235 -10.26952 -8.5562935 0.6631769 -7.2491612
4.7216673 2.678912 0.80746907 -2.544642 3.2080967 0.9564924 1.8581516 2.596302
-10.159819 -8.239915 21.208637 1.7929386 -3.5766733 -2.7576716 0.48510262 -0.9149594
1.4256463 0.2575689 3.6064107 -1.4090173 -2.9039152 -6.1804643 1.113676 -0.07250932
0.15315607 0.65194285 -0.045613017 0.9851134 -2.322276 13.779525 0.14036348 -1.9598095
-0.022204243 9.498044 -8.843822 -0.94197047 -11.18329 -4.9926224 -1.8727068 0.66060674
-9.574061 -0.26533142 -0.4511529 1.480784 -2.8393066 11.943685 3.378874 1.864638
1.6749624 -0.01314094 -6.047929 1.527837 0.35079896 -1.6351207 -3.23101 -0.10584339
2.505432 -14.532089 -3.3393464 1.3777686 1.0627106 -0.024844723 10.717717 -1.1424171
-6.792321 -5.31837 4.618433 13.008187 -1.3689662 1.5160178 -0.0885156 -4.2096257
0.3413324 -2.7437325 -0.42564017 0.007553767 1.6542511 11.66099 -1.1458048 -1.351673
2.8626902 0.0038643775 -1.0873696 1.2315242 0.5255639 -1.1692151 3.327752 -7.8748727
0.50513005 1.7842461 1.5175617 -3.578055 1.4882237 5.199677 0.028648049 3.2126133
1.3714663 -6.3645825 -2.7646625 0.004802849 -9.808048 0.47121423 -10.897286 1.783067
1.8986738 1.417831 28.045294 -0.02814863 0.9275981 1.0618864 -0.016423982 0.8971001
5.002663 1.1287595 0.52773213 -1.6234336 -0.42180282 1.2505085 0.1984663 3.1909049
4.82559 2.2280152 -1.6626309 7.8254113 2.9131272 0.9194445 1.7632524 2.042934
00000000: fe50 de3f b0b2 2fbd 810a 91bd a24c 903f
00000010: efb7 b83d 58fa 623f 9923 06c0 89b4 4041
00000020: 3713 c3be a7d0 fc3f 3f30 e53c c2a2 2441
00000030: ae21 0cc1 c383 743f a098 33c1 c2d6 9ec0
00000040: be01 f6bf 8721 2d3f e4cb 1cc1 ca85 353f
00000050: eb52 b13e 7040 9e3f efb1 39c0 03f6 4741
00000060: 0dd4 6ec0 4950 db3f 52f7 d23f 5e70 5d3d
00000070: 7b93 bbc0 48a8 bc3f 8af8 71bf 580c d5bf
00000080: 2819 4e40 67f2 e93c 7773 2140 695d 49c1
00000090: 461a 4fc0 4d96 b63f 1f51 ac3f 389e 47bd
000000a0: ccd1 2841 7318 2c3e 9160 bdc0 8519 abc0
000000b0: dab6 8940 f29a 5241 f598 b03e 01ee c33f
000000c0: 838f 0bbf 77fc 87c0 26e2 92bf 97ec 2ec0
000000d0: 9fa3 66bf 6cc8 b9bc b0d0 c13f acf0 3a41
000000e0: 00b2 94be 2f9d b3bf 4601 3340 962f 24be
000000f0: 1880 a13f 24ef 53bf c349 9fbe 875c 0e3f
00000100: 8004 ffbf 98fe eac0 9e55 063f e1c6 fabf
00000110: 2b4e 993e 1c4d 76c0 d431 c93f 0363 a740
00000120: fb1f 9fbb 995f 5140 d754 b03f a33c 04c1
00000130: dbf6 2fc0 0f53 3abe ac5a 16c1 747e 36bf
00000140: 49a8 2cc1 71ea e03f 7ff7 e03f 6d4f a0bf
00000150: 93dd cc41 2f44 50bd 8ccb 76bf 2f3a fabf
00000160: 1fdd e4bb 6675 82bf 12ff a040 1432 a93f
00000170: 4986 a1bf 52c5 cebf 5c60 d03e 188e 81bf
00000180: d2fd 4fbe 0ff6 4840 ed46 9b40 15b5 0940
00000190: 663c 0cc0 22a8 f040 d991 0640 2a55 bcbf
000001a0: e9a7 de3f 829d 0fc0 54b8 b33f df03 5cbd
000001b0: 9481 0640 0b16 b03f 255a 11c0 02bf 6cbf
000001c0: db59 a73f b800 1d3f 526c b240 3a45 4f40
000001d0: f017 623b 8192 8a3c 5ad2 01c0 bd3e 753f
000001e0: 1d6c a9bf 1f4c 23c0 70be f9be 69fa e7be
000001f0: f44f 24c1 94e6 08c1 f6c5 293f 21f9 e7c0
00000200: e617 9740 4b73 2b40 4bb6 4e3f 6adb 22c0
00000210: 7551 4d40 b0dc 743f e9d7 ed3f d029 2640
00000220: 9e8e 22c1 b1d6 03c1 4aab a941 037f e53f
00000230: 37e8 64c0 b17d 30c0 5f5f f83e c73a 6abf
00000240: 947b b63f 12e0 833e 6fcf 6640 ae5a b4bf
00000250: bfd9 39c0 5dc6 c5c0 ef8c 8e3f c47f 94bd
00000260: f2d4 1c3e bae5 263f b7d4 3abd 6430 7c3f
00000270: 2ca0 14c0 ef78 5c41 72bb 0f3e 0adb fabf
00000280: ace5 b5bc fdf7 1741 4b80 0dc1 fa24 71bf
00000290: c1ee 32c1 90c3 9fc0 dbb4 efbf 861d 293f
000002a0: 5b2f 19c1 85d9 87be 83fd e6be 558a bd3f
000002b0: 33b7 35c0 5519 3f41 793f 5840 75ac ee3f
000002c0: 2b65 d63f 194d 57bc a288 c1c0 2a90 c33f
000002d0: ec9b b33e a34b d1bf dec8 4ec0 6bc4 d8bd
000002e0: ff58 2040 7083 68c1 dab7 55c0 b95a b03f
000002f0: e706 883f 2987 cbbc c57b 2b41 b93a 92bf
00000300: b25a d9c0 1630 aac0 34ca 9340 8921 5041
00000310: 493a afbf df0c c23f ab47 b5bd 41b5 86c0
00000320: 1fc3 ae3e 5099 2fc0 82ed d9be 9785 f73b
00000330: 80be d33f 6a93 3a41 bba9 92bf 9f03 adbf
00000340: 5136 3740 7f41 7d3b ed2e 8bbf 96a2 9d3f
00000350: 5b8b 063f d7a8 95bf e4f9 5440 f5fe fbc0
00000360: 3450 013f 2d62 e43f 763f c23f dafe 64c0
00000370: 1d7e be3f c163 a640 50af ea3c 759b 4d40
00000380: 358c af3f a9aa cbc0 3bf0 30c0 3861 9d3b
00000390: c4ed 1cc1 fe42 f13e 495b 2ec1 8a3b e43f
000003a0: be07 f33f 7c7b b53f c35c e041 f597 e6bc
000003b0: 1277 6d3f e5eb 873f 968b 86bc 5aa8 653f
000003c0: d115 a040 317b 903f 7419 073f accc cfbf
000003d0: 8af6 d7be aa10 a03f c03a 4b3e c937 4c40
000003e0: 3c6b 9a40 cd97 0e40 17d1 d4bf c569 fa40
000003f0: ad70 3a40 b760 6b3f 41b2 e13f 6ebf 0240

outputLayer.bias f4 [2]
17.494255 17.787579
00000000: 3cf4 8b41 f64c 8e41
