ftl/pretrain/weight/multi-workload_half_v1/multi-workload_half_v1_282.pth (torch, 187853 bytes, 8 tensors)

hiddenLayer1.weight f4 [150, 3]
0	0xbfa69d4c	-1.3016753
1	0xc0892652	-4.285928
2	0xbf9c6617	-1.2218655
3	0xbe3e4cac	-0.18583935
4	0xbd65c1f8	-0.056093186
5	0xbe383814	-0.17990142
6	0xc18b7a55	-17.434732
7	0x3bd2d7b7	0.0064344066
8	0xbea9b256	-0.33143872
9	0xc16e2aaa	-14.885416
10	0x3c65e071	0.014030562
11	0xc088d1b8	-4.2756004
12	0xbdc79d46	-0.097467944
13	0xbd84aa61	-0.0647781
14	0xbb8d67f6	-0.0043153716
15	0xbd54f7d9	-0.05199418
16	0x3b02dd6c	0.0019968404
17	0xbc7ddb52	-0.015494185
18	0xbf685082	-0.90747845
19	0x3abdabc6	0.0014470748
20	0xbdbf39b7	-0.0933718
21	0xbf28176e	-0.6566075
22	0x3fe91540	1.820961
23	0xbf8b7679	-1.089553
24	0xbd91e833	-0.071243666
25	0x3b33811c	0.0027390188
26	0xbd742cb2	-0.059612937
27	0xbe041cfc	-0.12901682
28	0xbd5ecfc0	-0.054397345
29	0xbd04bb68	-0.032405287
30	0xbdb93417	-0.090431385
31	0xbf6f3ec1	-0.9345513
32	0xc1b1673d	-22.17541
33	0xc02349d1	-2.5513804
34	0xbb152553	-0.0022757843
35	0xc02346ea	-2.5512033
36	0xc1191057	-9.566489
37	0x3c061855	0.008184512
38	0xbf02155d	-0.5081385
39	0xc107b885	-8.482549
40	0x3fa64cc5	1.2992178
41	0x3fad57c9	1.3542415
42	0xbd90d86a	-0.07072528
43	0xba571ce3	-0.00082059036
44	0xba068068	-0.00051308284
45	0xc0bec4c4	-5.9615192
46	0x3d53da65	0.05172195
47	0x3c8f71a9	0.017510252
48	0xc154f268	-13.309181
49	0x3cb75e8d	0.022383953
50	0x3cc6dc2c	0.024274908
51	0xc1e36d4a	-28.428364
52	0xbb948953	-0.004532972
53	0xbe2250ce	-0.15851137
54	0xc1af5500	-21.916504
55	0x3fafe06d	1.3740364
56	0xc0737c67	-3.804468
57	0xbe08a15b	-0.13342802
58	0xba0ee482	-0.00054509204
59	0xbd2fa32f	-0.042880233
60	0x3ba51c01	0.0050387387
61	0xbe0710bd	-0.13189979
62	0x40835382	4.103944
63	0xbe188f51	-0.14898421
64	0xbe36705b	-0.17816298
65	0xbcaaa16c	-0.020828925
66	0xc12a4c90	-10.643692
67	0x3de0f47d	0.109841324
68	0x3d11f61f	0.03563511
69	0xbeea9eb7	-0.45824215
70	0xbe0aa877	-0.13540827
71	0x3d50bc5b	0.05096088
72	0xbdf23649	-0.1182676
73	0xbf05ab66	-0.5221466
74	0x3ffd796b	1.9802679
75	0xc188870f	-17.065947
76	0x3d018e75	0.03163
77	0xc024f758	-2.5775967
78	0xc189a7fc	-17.207024
79	0x3d1c9c29	0.038234863
80	0xbf81708c	-1.0112472
81	0xbe9b189b	-0.3029221
82	0x3c25fec1	0.010131539
83	0xbf8d8b80	-1.1058197
84	0xbf165021	-0.58716017
85	0x3bda5e0d	0.0066640438
86	0xbfe59574	-1.7936234
87	0xbd9eb67f	-0.07749652
88	0x3cb2b3a5	0.021814177
89	0x3a9d30f1	0.0011992735
90	0xc131fa6a	-11.123636
91	0x3ea88ea7	0.32921335
92	0xc01f5169	-2.489344
93	0xbe3f97e3	-0.18710284
94	0xbcac7469	-0.021051602
95	0xbd821d91	-0.063532956
96	0xc0e00406	-7.000491
97	0x3c9eae24	0.019370146
98	0xc0581cf7	-3.3767679
99	0xbe725fcf	-0.2366936
100	0x374c1d3b	1.2166153e-05
101	0xbddc26db	-0.107495986
102	0xbd603e9c	-0.05474721
103	0x3984895d	0.00025279346
104	0xbda1b7a4	-0.07896355
105	0xbb19115e	-0.00233563
106	0x4067fe99	3.6249144
107	0x3f3af124	0.730242
108	0xc1b86783	-23.050543
109	0x3ead4b01	0.33846286
110	0xbdb07b29	-0.08617241
111	0xbf54b269	-0.8308473
112	0x3aeebfb3	0.001821509
113	0xbe78a9df	-0.2428355
114	0xbc87ab5b	-0.0165612
115	0xba37e93b	-0.000701565
116	0xbce39e89	-0.027785556
117	0xc17f1cf0	-15.944565
118	0xbdabacec	-0.083825916
119	0xbf414f2e	-0.75511444
120	0xbf04bcda	-0.51850665
121	0xbd91bb2b	-0.071157776
122	0xc13a9f65	-11.663915
123	0xc0150954	-2.3286943
124	0xbf260aab	-0.6486003
125	0x3e18c47d	0.14918704
126	0xbd3d4cb0	-0.046215713
127	0x385fec05	5.3387153e-05
128	0xbd22a581	-0.039708618
129	0xbccee84e	-0.025257256
130	0x39cf179c	0.00039499707
131	0xbdc8f878	-0.09813017
132	0xbf565a26	-0.83731306
133	0xbe758522	-0.23976567
134	0xc0436597	-3.0530756
135	0xc0daa356	-6.8324385
136	0x3a2e2143	0.00066425296
137	0xbf72a8cc	-0.94788814
138	0xbeb44862	-0.35211474
139	0xbd156781	-0.036475662
140	0x3cc18934	0.023624994
141	0xc1e58b67	-28.693068
142	0xbe12cb04	-0.14335257
143	0xc054fd36	-3.3279548
144	0xbecbb961	-0.3978987
145	0xbb2dbbc1	-0.0026509615
146	0xbc3bad5e	-0.011454908
147	0xc097241c	-4.723158
148	0x3e0e44a8	0.13893378
149	0xc010a1b3	-2.2598693
150	0xbf577562	-0.84163487
151	0xbe8ee0da	-0.27905923
152	0x40085c53	2.130635
153	0xbcc910c7	-0.024544133
154	0xbe0ea777	-0.1393107
155	0xbc067661	-0.008206935
156	0xc04cc335	-3.1994145
157	0xbbad19fe	-0.0052826395
158	0x3acff79a	0.0015866638
159	0xbebc7605	-0.36808792
160	0xbbe3e07d	-0.0069542513
161	0xbe23535a	-0.15949765
162	0xc1abb285	-21.462168
163	0x3caad927	0.0208555
164	0xbd57aff2	-0.05265803
165	0xbfffe1de	-1.9990804
166	0x3ca5ea18	0.020253226
167	0xc085508f	-4.166084
168	0x3c347f08	0.011016615
169	0x3d4b1c0d	0.0495873
170	0x3f7fc0ac	0.9990337
171	0xbeb1432a	-0.34621555
172	0xba3ce1fa	-0.0007205304
173	0xbddbf365	-0.10739783
174	0xc28189d1	-64.76917
175	0xbcc50321	-0.024049344
176	0x3d3f93bf	0.04677176
177	0xc109fdb5	-8.62444
178	0x3d00c87d	0.0314412
179	0x3ca643d5	0.020296017
180	0xbcffb85e	-0.031215843
181	0x3b97238c	0.004612392
182	0xbcb3cc51	-0.021948012
183	0xbc414c92	-0.011798041
184	0x3d49166b	0.049093645
185	0x40290fdf	2.6415937
186	0x3aed6fea	0.0018115018
187	0xbe23959c	-0.1597504
188	0xc1bb13ed	-23.38473
189	0xc0c13a4d	-6.038367
190	0xba733b57	-0.00092785567
191	0xc04336c6	-3.050218
192	0xbdd6b74c	-0.1048418
193	0x3eb0ef4f	0.34557578
194	0x3e0cf3bd	0.13764854
195	0xc14dddf3	-12.866687
196	0xbd828c7c	-0.063744515
197	0xbec8351a	-0.39103013
198	0xbd6ac025	-0.05731215
199	0x3c001a71	0.007818804
200	0xbda7ffae	-0.08203064
201	0xbda66b8c	-0.08125982
202	0xbc899cbf	-0.016798375
203	0xbb75cbe7	-0.0037505568
204	0xc134bfd6	-11.296835
205	0x3eb529b2	0.35383373
206	0x4033420a	2.8009057
207	0xbda039bf	-0.07823514
208	0x3b1ef172	0.00242528
209	0xbd49c851	-0.049263302
210	0xbff7d2ef	-1.9361247
211	0x3d8b622e	0.06805836
212	0xbe155dd6	-0.14586577
213	0xc0a302fa	-5.0941133
214	0x3d5ca9c4	0.05387284
215	0xc04cf26f	-3.202297
216	0xbd255cef	-0.04037183
217	0x4061462e	3.5199084
218	0x3db8ed84	0.090296775
219	0xbd5c3ae8	-0.053767115
220	0x38af6a09	8.364401e-05
221	0xbd05e75a	-0.032691337
222	0xbd2d1e91	-0.04226548
223	0x3be52e74	0.006994063
224	0xbcbbe95b	-0.022938421
225	0xbd9c3a46	-0.07628302
226	0xb93ebfa4	-0.00018191204
227	0xbd484e56	-0.048902832
228	0xc1c42b61	-24.521181
229	0xbc818f7f	-0.015815495
230	0xbc8b893a	-0.017033208
231	0xbe510c1d	-0.20414777
232	0xbc0666f9	-0.0082032615
233	0xbca11bba	-0.019666541
234	0xbde2275c	-0.110426635
235	0x3ef5f6d4	0.48039877
236	0xbf392048	-0.7231488
237	0x3d815020	0.06314111
238	0x3b9e3aa3	0.0048287674
239	0x40f3a983	7.6144423
240	0xbf44aaf7	-0.7682337
241	0x3b274623	0.0025523982
242	0xbd17370b	-0.036917727
243	0xbe9f1793	-0.31072673
244	0xbf63b0fc	-0.8894193
245	0x3e71d0db	0.23614828
246	0xc08ce049	-4.4023786
247	0xbddb39ff	-0.10704421
248	0xbf510e9a	-0.81662905
249	0x3819290d	3.6516274e-05
250	0x3a876dac	0.0010332367
251	0xbb1a6a78	-0.0023561995
252	0xc06d46a4	-3.7074366
253	0xb9a4eeda	-0.00031458476
254	0xbfd40587	-1.6564187
255	0xbf930ca4	-1.1488233

hiddenLayer1.bias f4 [150]
0	0xc0b6152f	-5.690086
1	0xbf6c5a36	-0.9232515
2	0xbf7c0c20	-0.98456
3	0xc074eae1	-3.8268359
4	0xbf74c5fe	-0.9561461
5	0xbd2a58d6	-0.041588627
6	0xbdddf5b8	-0.10837883
7	0xc0c19151	-6.048989
8	0xbd9d2e3a	-0.07674833
9	0xbf4ce047	-0.8002972
10	0xbf1eed8c	-0.6208122
11	0xc005d956	-2.0913901
12	0xbf40c115	-0.7529462
13	0xc11885ea	-9.532694
14	0xbc874b8c	-0.016515516
15	0xbf8e2fa8	-1.1108294
16	0xbfeee03f	-1.8662184
17	0xbf8010b6	-1.00051
18	0xbfbfbe08	-1.4979868
19	0xbd3fa114	-0.046784475
20	0xc0790c78	-3.891386
21	0xc03ad535	-2.9192631
22	0xc0419f7a	-3.0253587
23	0xc0b508de	-5.6573324
24	0xc11bbf4c	-9.734203
25	0xc02c9934	-2.6968508
26	0xbfc4502d	-1.5336968
27	0xbf8360c7	-1.0263909
28	0xbfb53184	-1.4155736
29	0xbea941dd	-0.33058062
30	0xbf4adc9f	-0.7924289
31	0xbeb6104c	-0.3555931
32	0xc0467ab4	-3.1012392
33	0xbdb9d3be	-0.0907359
34	0xbd854ca1	-0.065087564
35	0xc150405c	-13.015713
36	0xc0a4d188	-5.1505775
37	0xbe629089	-0.22125448
38	0xbd087945	-0.033318777
39	0xc00a5b6f	-2.1618307
40	0xc0318ffd	-2.7744133
41	0xc09cc468	-4.8989754
42	0xbd031b45	-0.032008428
43	0xbda0d1be	-0.07852505
44	0xc0b87061	-5.763718
45	0xbf7e347e	-0.99298847
46	0xc01666d8	-2.350027
47	0xc0a4c126	-5.1485777
48	0xbd98a05a	-0.0745246
49	0xc049ac08	-3.151125
50	0xc156641e	-13.399443
51	0xbff6094e	-1.922159
52	0xbfd48d35	-1.6605593
53	0xbee28592	-0.4424253
54	0xbfa40d51	-1.2816564
55	0xc05600a6	-3.3437896
56	0xc0e192a4	-7.0491505
57	0xbdc8e7ab	-0.09809812
58	0xbfa55f35	-1.291968
59	0xbfb78a26	-1.4339035
60	0xbdb3efc4	-0.08785966
61	0xc0bf4d4c	-5.9781857
62	0x40257683	2.5853584
63	0xc0213d1f	-2.5193555
64	0xc1858105	-16.687998
65	0xbffe01b9	-1.9844276
66	0xbe10b99f	-0.14133309
67	0xbee58f41	-0.44835857
68	0xc097765d	-4.7331986
69	0xbd63a90c	-0.055581138
70	0xbfbb61b3	-1.463919
71	0xc0474dda	-3.1141267
72	0xc11402c8	-9.250679
73	0xbcdf5cfb	-0.027266016
74	0xbddb1e4b	-0.10699137
75	0xbd99152d	-0.07474742
76	0xbf79bc82	-0.97553265
77	0xbe259188	-0.16168797
78	0xc0e94afa	-7.2904024
79	0xc12d816b	-10.844096
80	0xbd91b477	-0.07114499
81	0xc125f0f8	-10.37133
82	0xc0113b37	-2.2692392
83	0xbce94d62	-0.028479282
84	0xbfaf2995	-1.3684565
85	0xc0aa8711	-5.3289876
86	0xbf82751c	-1.0191989
87	0xc0dcea18	-6.903576
88	0xbee1928b	-0.44057116
89	0xbfbfa7fc	-1.497314
90	0x3ed0403f	0.40674016
91	0xbf75f3b2	-0.96074975
92	0xbe4a41fa	-0.1975173
93	0xbfb86305	-1.4405218
94	0xc058384f	-3.3784368
95	0xbe12446f	-0.14283918
96	0xbf129c6b	-0.57269925
97	0xbef0a3b7	-0.46999905
98	0xbfccba47	-1.5994347
99	0xbf126608	-0.5718694
100	0xbda5a058	-0.08087224
101	0xbf0b458d	-0.54403
102	0xbfe6d28a	-1.8033001
103	0xc0625897	-3.536657
104	0xc0fed077	-7.9629474
105	0xbe272351	-0.16322066
106	0xc006f7e7	-2.1088808
107	0xc02c1ccd	-2.6892579
108	0xbfa902b9	-1.3203956
109	0xbf6c67f1	-0.923461
110	0xbed9ebf0	-0.4256282
111	0xbf6e7dbf	-0.93160623
112	0xc0ce7f87	-6.4530673
113	0xbf784360	-0.96977806
114	0xbf5039f3	-0.81338423
115	0xbc8f3361	-0.017480554
116	0xc04f1a8a	-3.2359948
117	0xbe4dc24d	-0.20093651
118	0xc129d5d0	-10.6147
119	0xbf15f78d	-0.5858086
120	0xbe743044	-0.23846537
121	0xc043a431	-3.0568964
122	0xc0da25ae	-6.8170996
123	0xbdc6392f	-0.09678876
124	0xbcb84940	-0.022495866
125	0xbcea5057	-0.028602762
126	0xc0d31181	-6.5958867
127	0xc08a4b91	-4.3217244
128	0xbe2811d0	-0.16413045
129	0xc11aa1ce	-9.664503
130	0xc083973d	-4.1122117
131	0xc0eecff2	-7.462884
132	0xbe021fb7	-0.12707411
133	0xc082b4dc	-4.0845776
134	0xbe9e1a48	-0.30879426
135	0xc0088400	-2.1330566
136	0xc02fc2dd	-2.7462685
137	0xc1371afd	-11.444089
138	0xc083fdcb	-4.1247306
139	0xbdfc4020	-0.123169184
140	0xbee76a1c	-0.45198143
141	0xc1070c34	-8.440479
142	0xbfd0fa80	-1.6326447
143	0xc009ca69	-2.1529791
144	0xc14cfd43	-12.811831
145	0xbc78b379	-0.015179508
146	0xc00a6bab	-2.1628215
147	0xc03515b3	-2.8294494
148	0xbdd6bc49	-0.10485131
149	0xbd3a8d90	-0.04554516

hiddenLayer2.weight f4 [150, 150]
0	0xbe557028	-0.20843565
1	0x3f85e860	1.046154
2	0x3f29e72e	0.6636838
3	0x40244317	2.5665948
4	0xbd5be7cf	-0.053687867
5	0x3c8aa0eb	0.016922435
6	0xbe94d87c	-0.29071414
7	0xbf8fd3f6	-1.123656
8	0xbfca6898	-1.581317
9	0xbfa0e3df	-1.2569541
10	0xc0231e79	-2.548735
11	0xc0a47a7a	-5.1399508
12	0xbede3b35	-0.43404546
13	0x413e7f99	11.906152
14	0x3d4606aa	0.0483462
15	0xbf089d28	-0.533648
16	0xbf023aec	-0.5087116
17	0xc0e31b3d	-7.097075
18	0x3ef197fa	0.4718626
19	0xbdff440a	-0.12464149
20	0xbf929e29	-1.1454517
21	0xbfe062f9	-1.7530204
22	0xbe034d99	-0.1282257
23	0x3e5e7663	0.21724848
24	0xbeeb935f	-0.46010873
25	0x3f81cede	1.0141256
26	0xbe3eebeb	-0.18644683
27	0xc00c6611	-2.1937296
28	0xbd781e99	-0.060576055
29	0xc0a0909f	-5.017654
30	0xbf9c5927	-1.2214707
31	0xbfe2ff63	-1.7734188
32	0xc1b27cab	-22.310873
33	0x3f3533b9	0.7078205
34	0xbe945d43	-0.28977403
35	0xbfe88b22	-1.816746
36	0xc0c5e3a1	-6.1840367
37	0xbef20a81	-0.4727364
38	0x3d8b368d	0.06797514
39	0x40e6c66b	7.211721
40	0xbec69d00	-0.38791656
41	0xc029b6e2	-2.6517873
42	0x3c346cba	0.011012251
43	0xbfc52986	-1.5403297
44	0xc15a4b0e	-13.643324
45	0xbf7a874c	-0.97862697
46	0xc00e2650	-2.2210884
47	0x3ed3b57b	0.41349396
48	0x3f363d91	0.7118769
49	0xc0a6aa04	-5.208254
50	0xc1d63912	-26.777866
51	0x3d9b6e6c	0.07589421
52	0x3ffe853f	1.9884413
53	0x3f9b419d	1.2129399
54	0x40971630	4.7214584
55	0xc1572022	-13.445345
56	0xbee86448	-0.4538901
57	0x3eadcb79	0.339443
58	0x400ccf94	2.2001696
59	0xc090657f	-4.5123897
60	0x3e4cbb65	0.1999336
61	0xc026ac6f	-2.6042745
62	0xbf296a4c	-0.6617782
63	0x3fa34a0c	1.2756972
64	0x3f3af895	0.73035556
65	0x40a564e8	5.1685677
66	0x3bbd6e61	0.0057809805
67	0x3fb7cb1e	1.4358861
68	0x3f35ccda	0.71015704
69	0x3c438d94	0.01193561
70	0x402c5901	2.6929324
71	0xc075fcd9	-3.8435576
72	0xc00beeb4	-2.1864443
73	0xbc0ec596	-0.0087141
74	0x3ccadf6f	0.024764745
75	0x3f44ecc8	0.769238
76	0xc04fca13	-3.2467086
77	0x3e6709d1	0.22562338
78	0xbc94bb26	-0.018155646
79	0xbf23b6e9	-0.63950974
80	0x3e741135	0.23834689
81	0x3db2a83c	0.087234944
82	0xc0eaa0da	-7.332135
83	0xbdabab7f	-0.0838232
84	0xc18560b0	-16.67221
85	0xbfa967b2	-1.323477
86	0xbf0718be	-0.5277213
87	0xbf76ee3b	-0.9645726
88	0x4026d677	2.60684
89	0xc0a5d72d	-5.1825166
90	0xc116de96	-9.429342
91	0x3f8228a7	1.0168656
92	0xc00abdc3	-2.1678321
93	0xc0514dbd	-3.2703698
94	0x3eaad276	0.33363694
95	0xbf99fad9	-1.2029678
96	0x4065f018	3.5927792
97	0xbf10fba7	-0.5663399
98	0x3edaca28	0.42732358
99	0x3e75efe2	0.2401729
100	0x3f7ca4c6	0.98688924
101	0x3f50e28a	0.8159567
102	0x3fbc9baa	1.4735005
103	0xbebdf296	-0.3709914
104	0xbf857372	-1.0425856
105	0x3ec2e5cf	0.38065955
106	0x3f85e4f5	1.0460497
107	0x3e7d7d64	0.24754864
108	0xc05a204c	-3.4082212
109	0xbf71b216	-0.9441236
110	0xbf9076b8	-1.128623
111	0xc001155f	-2.0169294
112	0xc181598f	-16.16873
113	0xbe2785b0	-0.16359591
114	0xc1b45713	-22.542517
115	0x3c2de3d8	0.010613404
116	0x406dd3f5	3.7160618
117	0xbf2997d6	-0.6624731
118	0x3dfa703b	0.122284375
119	0xc022b2f6	-2.542173
120	0xbe5486ee	-0.20754597
121	0xc0f284ef	-7.5787272
122	0xbfa2a48a	-1.2706463
123	0x3e0fe89f	0.14053582
124	0xbd0f4958	-0.034982055
125	0xbe74002e	-0.23828194
126	0xc00eebd8	-2.2331448
127	0xbed42ab4	-0.4143883
128	0x3e147a53	0.14499788
129	0xc0f42c4b	-7.630407
130	0xc094f25c	-4.654585
131	0xc0afc912	-5.4932947
132	0xbd8ab542	-0.067728534
133	0xc0e0cde5	-7.0251336
134	0xc0f5ff04	-7.68738
135	0xc009c948	-2.1529102
136	0xbe56d8b8	-0.20981109
137	0xc00c3cba	-2.1912065
138	0x40384cba	2.879683
139	0x3ec47ad7	0.3837497
140	0xbf16e3bc	-0.58941245
141	0x3e260bb9	0.1621541
142	0xc05e6010	-3.4746132
143	0xbfc1f0d8	-1.5151625
144	0xbf135965	-0.5755828
145	0x3d07aadb	0.033121925
146	0x3eb13cd2	0.34616715
147	0xbf5b905a	-0.8576714
148	0x3d58b2b6	0.052904807
149	0x3e6d2f86	0.2316266
150	0xc14dda83	-12.865848
151	0x3fac4e75	1.3461443
152	0xc1a99537	-21.197859
153	0xbfbbbdb1	-1.4667264
154	0x3eaa641f	0.3327951
155	0xbd301c4c	-0.042995736
156	0xbe0acd50	-0.13554883
157	0xbeccf854	-0.4003321
158	0x3edd60c0	0.43237877
159	0x4038a090	2.8848
160	0xc0a21ec6	-5.0662565
161	0xc0923358	-4.5687675
162	0xbfafe2bf	-1.3741072
163	0xc0d8b214	-6.771738
164	0x3d967f11	0.07348455
165	0x3eb9913d	0.3624362
166	0x40722344	3.7834024
167	0x400a53c2	2.1613622
168	0x3ff378ab	1.90212
169	0xbe154702	-0.14577869
170	0xc09f705a	-4.982465
171	0xc08826ff	-4.2547603
172	0xbffc4e00	-1.9711304
173	0x3df62e78	0.12020582
174	0xc0932686	-4.5984526
175	0xc0955ea1	-4.6678014
176	0x3f99b9e4	1.2009854
177	0xc096df5a	-4.7147646
178	0x4000b136	2.010816
179	0x3d21dfb4	0.03951998
180	0xc090f3cc	-4.5297604
181	0xbf3e45b3	-0.743251
182	0x409eaf09	4.9588666
183	0x3f87aa33	1.0598816
184	0x3fa2dc2d	1.2723442
185	0xc0365e8a	-2.8495202
186	0xc10f112e	-8.941694
187	0x3e6c33f3	0.23066692
188	0x3d42d74f	0.047568616
189	0xc1ab76af	-21.432951
190	0xc1b509c4	-22.629768
191	0x4034caf9	2.8248885
192	0xbe412647	-0.18862258
193	0xbf632ab8	-0.8873706
194	0xc1197c10	-9.592789
195	0x3c630af1	0.013857589
196	0xbfa4c502	-1.2872622
197	0x4077ad23	3.8699424
198	0x3dff82f1	0.12476147
199	0xc0019e6e	-2.0252948
200	0xc032da73	-2.794583
201	0xc1136c32	-9.213915
202	0x3e8479ff	0.25874326
203	0x3eb87fbf	0.36034963
204	0x3f093dad	0.53609735
205	0xc005ec05	-2.0925305
206	0xc0b4f323	-5.65468
207	0x3e3038ea	0.17209211
208	0x418efbc1	17.872927
209	0xc00ddc53	-2.2165725
210	0xbf330ae9	-0.6993852
211	0xc0b8be73	-5.773248
212	0xc077cfb5	-3.8720524
213	0xbed67da9	-0.41892746
214	0x400aa28a	2.1661706
215	0xbfd8d80d	-1.6940933
216	0xbefba1f8	-0.4914701
217	0x3f41349b	0.75470895
218	0xc0ae797b	-5.452329
219	0x3f0057e7	0.5013413
220	0xc0d4b567	-6.647144
221	0x405753b8	3.3644848
222	0xbf97d660	-1.1862297
223	0x3d84dea7	0.0648778
224	0xbe74b3c2	-0.23896697
225	0x3e6d9131	0.23199917
226	0x4091ecef	4.5601726
227	0xbefaa9ca	-0.48957664
228	0x3f86ff9e	1.0546758
229	0xc0618c64	-3.5241938
230	0x3e12d059	0.14337291
231	0xc1041ec1	-8.257508
232	0xbffb95dc	-1.9655108
233	0xbd2f2d20	-0.042767644
234	0x3f401bf1	0.75042635
235	0x3ee0bf69	0.43896034
236	0xc0284484	-2.6291819
237	0xc0293db7	-2.6443918
238	0xbfdb8343	-1.7149433
239	0xc11bcb83	-9.7371855
240	0xc08a764b	-4.32694
241	0x4088a13a	4.269681
242	0x3da209ef	0.07912051
243	0xc1292058	-10.570396
244	0xbe855653	-0.26042423
245	0x3f0926c0	0.5357475
246	0xbf3953c3	-0.72393435
247	0xbdeb5512	-0.11490835
248	0xc0888bef	-4.2670817
249	0xbe5e7d56	-0.217275
250	0x3e40a667	0.18813477
251	0x3de9653d	0.11396263
252	0xc078dc7f	-3.888458
253	0xbfaa145d	-1.3287464
254	0x3ea4737a	0.32119352
255	0x3dd51591	0.10404504

hiddenLayer2.bias f4 [150]
0	0xc02522d7	-2.5802515
1	0xc09662a0	-4.699539
2	0x4076d3c4	3.8566751
3	0xc025d64b	-2.5912044
4	0xc0ec4f67	-7.3846927
5	0xbfbbab80	-1.4661713
6	0xc1257810	-10.341812
7	0xbf220668	-0.63291025
8	0xbe14833d	-0.14503188
9	0xbf17c574	-0.59285665
10	0xc044c860	-3.07473
11	0xbff28999	-1.8948241
12	0x3fd079a7	1.6287125
13	0xc0099537	-2.1497324
14	0xbdd0746a	-0.10178454
15	0x3f6db30c	0.9285133
16	0x3edb3803	0.4281617
17	0xc02099bd	-2.5093834
18	0xc020ff50	-2.515583
19	0xbf10a96e	-0.5650853
20	0xc06c3cb7	-3.6912057
21	0xbe84f53d	-0.25968352
22	0xbeb8821b	-0.36036763
23	0xc056c453	-3.3557327
24	0xbe5ae2e9	-0.21375622
25	0xc06adf16	-3.669866
26	0xbfabcc8a	-1.3421795
27	0x3eecb433	0.4623123
28	0xbfbe6cee	-1.4876993
29	0xc0796037	-3.8964975
30	0xc061dc74	-3.5290804
31	0xc08a2401	-4.316895
32	0xc09f5356	-4.978923
33	0xc02605a7	-2.594095
34	0xbebbec09	-0.36703518
35	0xc09d0ed3	-4.9080596
36	0xc001286a	-2.0180917
37	0xc06e36dd	-3.7220986
38	0xc08ec7c2	-4.4618845
39	0xc06681fe	-3.601684
40	0xc014f171	-2.3272364
41	0xc076e878	-3.8579388
42	0xbb550c5d	-0.003250859
43	0xbe442ebb	-0.19158451
44	0xc0573dde	-3.363151
45	0xbf06f0a3	-0.5271093
46	0xc07330b3	-3.7998474
47	0xc09dbfcb	-4.929662
48	0xbfb10687	-1.3830117
49	0xc006da75	-2.1070836
50	0xc07237f6	-3.7846656
51	0xbfd94b62	-1.697613
52	0xbef03ba4	-0.46920502
53	0xc0328f4c	-2.7899961
54	0xc014b114	-2.323308
55	0xbf04aa7e	-0.5182265
56	0xbfff46ad	-1.9943444
57	0xc0f8ce48	-7.775181
58	0xc0396cfb	-2.8972766
59	0xc08bcaa2	-4.3684855
60	0xbf6cb480	-0.9246292
61	0xc0a2bed5	-5.085795
62	0xc06948c4	-3.6450663
63	0x3f779c89	0.9672323
64	0xc11b7f5d	-9.718595
65	0xc00ba577	-2.1819742
66	0xc153df56	-13.242025
67	0xbed3a82a	-0.41339236
68	0xbfc0f03a	-1.5073311
69	0xbef95612	-0.4869848
70	0xbf6ab4c3	-0.9168207
71	0xbfbb02ed	-1.4610268
72	0xc0276847	-2.6157396
73	0xbf079e87	-0.5297627
74	0xbfdc6345	-1.7217795
75	0xbf748a8b	-0.955239
76	0xc096fe78	-4.718563
77	0xc0b614a6	-5.6900206
78	0xbf4c9905	-0.7992099
79	0xc0744859	-3.8169158
80	0xc121ce9f	-10.112945
81	0xbfd81cc2	-1.6883776
82	0xbf2a2c08	-0.66473436
83	0xc1403c8d	-12.014783
84	0xc0020880	-2.0317688
85	0xc05634a9	-3.3469641
86	0xbff66f68	-1.9252748
87	0xc0322e2d	-2.7840683
88	0xc04c247d	-3.189727
89	0xbe40b228	-0.18817961
90	0x3f82c3bb	1.0215982
91	0xc0156b06	-2.3346572
92	0xc034dc82	-2.8259587
93	0xbfede4d5	-1.8585459
94	0xbf9a0469	-1.2032596
95	0xc022b741	-2.542435
96	0xc06a3705	-3.6596081
97	0xc058242b	-3.3772075
98	0xc0ddf931	-6.936669
99	0x40c44158	6.1329765
100	0xc004be52	-2.0741162
101	0xbf7500ca	-0.9570433
102	0xbfa85cbe	-1.3153303
103	0xbfad690f	-1.3547686
104	0xbd7c06f1	-0.061530057
105	0xbfc63efd	-1.5487972
106	0xc01537ca	-2.33153
107	0x4008a730	2.1352043
108	0xc015ad01	-2.3386843
109	0xc0b38543	-5.6100173
110	0xc0434171	-3.0508692
111	0xc096af0c	-4.708868
112	0xc01c1198	-2.4385738
113	0xbf730069	-0.949225
114	0x3fbce86c	1.475843
115	0xc088e7cf	-4.278297
116	0xc0a2470c	-5.0711727
117	0xc05a0228	-3.4063816
118	0xbee05ead	-0.43822232
119	0xc008106e	-2.1260028
120	0xbe35e1e6	-0.17761955
121	0xc00cc54f	-2.1995428
122	0xc00c7658	-2.1947231
123	0xbe2cf141	-0.16888906
124	0xbfc6a1d2	-1.5518134
125	0x3f853346	1.0406272
126	0xc1140b45	-9.252751
127	0xc0005974	-2.0054598
128	0x40453495	3.0813344
129	0xc0c6895e	-6.2042685
130	0xc00187c4	-2.0239115
131	0xc0704e28	-3.7547703
132	0x4092da29	4.589131
133	0xbfb5ca07	-1.4202279
134	0xbeb9e966	-0.3631088
135	0xc01eece5	-2.483209
136	0xbfc7a2fa	-1.5596611
137	0xbfbd5afa	-1.4793389
138	0xbffa7240	-1.9566116
139	0xbc4e9a9f	-0.012610107
140	0xc0779698	-3.8685665
141	0xc01b650f	-2.4280431
142	0xbe2607f6	-0.16213974
143	0xc001c644	-2.0277262
144	0xc07ae7cd	-3.920398
145	0xc082b47c	-4.084532
146	0xc030dce6	-2.7634826
147	0xbe41ea33	-0.18936996
148	0xbece367d	-0.40275946
149	0xbed7c512	-0.4214254

hiddenLayer3.weight f4 [150, 150]
0	0x3db11a9c	0.086476535
1	0xbd26c21a	-0.040712453
2	0x40475c8c	3.1150236
3	0x3d51ee81	0.051252846
4	0xbf6f1552	-0.9339191
5	0xbe583fdb	-0.21118109
6	0xc1a29f8d	-20.327906
7	0xbf25eaf1	-0.6481162
8	0xc06ae201	-3.6700442
9	0xc0496af7	-3.1471536
10	0x402bcb9d	2.6843026
11	0xbfc00546	-1.5001609
12	0xc12ed187	-10.926154
13	0xbf9f95a4	-1.2467542
14	0xbd2bdda4	-0.04195942
15	0xc17360e0	-15.211151
16	0xbfb8ba54	-1.4431863
17	0x3fa4ee84	1.2885289
18	0x3fa0ebd2	1.2571967
19	0x3e9ce779	0.3064535
20	0xc0948fc3	-4.642549
21	0xbd78dce2	-0.060757525
22	0x3f1e686a	0.61878073
23	0xc18ee7eb	-17.863241
24	0x3d9023be	0.07038067
25	0xbf8cdacd	-1.1004273
26	0xc02296c1	-2.5404513
27	0xbe3e35ca	-0.18575206
28	0xbf013bab	-0.5048167
29	0xc03356d1	-2.8021739
30	0x4044a7b1	3.072735
31	0x3ffa33e7	1.9547089
32	0xc1c6681d	-24.800837
33	0x4075ec6d	3.8425553
34	0xbf2fa3e0	-0.6860943
35	0xc00f5cb3	-2.240033
36	0xc01ed299	-2.4816039
37	0x3fabc31d	1.3418919
38	0x40870074	4.2188053
39	0x3f4f49cc	0.8097198
40	0x40756848	3.8344898
41	0x401baf19	2.432562
42	0xc206b223	-33.67396
43	0x3d600239	0.05468962
44	0x3fec6db6	1.8470981
45	0x3e241584	0.16023833
46	0xc1222d34	-10.136036
47	0xc1e2c946	-28.348278
48	0x3ef28d88	0.47373605
49	0x3ff1218f	1.8838366
50	0x406e48d3	3.7231948
51	0x3f5403e7	0.82818455
52	0x3bf44e01	0.007455588
53	0xbd72a581	-0.059239868
54	0xbfa95e4f	-1.3231906
55	0x3f954d2b	1.1664175
56	0x3fe014c8	1.7506342
57	0xbe9fbcea	-0.31198817
58	0xc0fc260e	-7.8796453
59	0x3f3072fc	0.6892545
60	0xbf4a443d	-0.79010373
61	0xc04ff354	-3.2492266
62	0x3ed745a5	0.42045322
63	0xc00d7e5f	-2.210838
64	0x3ddb7bf4	0.107170016
65	0x3fafe211	1.3740865
66	0x3f981111	1.1880208
67	0xbebde0fc	-0.37085712
68	0x4045abdd	3.0886147
69	0x4065e410	3.5920448
70	0xc11fe3cf	-9.993117
71	0x3e5a2411	0.2130282
72	0x3f1c0b4d	0.60954744
73	0xc0b2282b	-5.5674033
74	0xc0082b29	-2.1276343
75	0x4081981a	4.049817
76	0xbf938c1d	-1.1527134
77	0xbfdffd74	-1.7499223
78	0xbfe3e29a	-1.7803528
79	0xbfe69bd3	-1.8016304
80	0xc08b17f2	-4.346673
81	0xbf309d24	-0.6898978
82	0xbd130821	-0.035896424
83	0x3e1d7c58	0.15379465
84	0x40648278	3.5704632
85	0x3ed8c911	0.42340901
86	0x3fe409e2	1.7815516
87	0x3f6495dc	0.8929117
88	0x3fa8773f	1.3161391
89	0x3e5f24d5	0.21791394
90	0xc0d1bc4e	-6.5542364
91	0x3e7ca7a3	0.24673323
92	0xbe165005	-0.14678963
93	0x3e8414bf	0.25797078
94	0xc012fdfb	-2.2967517
95	0x3ebad638	0.3649156
96	0xc0def7bd	-6.9677415
97	0x4050ad01	3.2605593
98	0x3f596ff4	0.8493645
99	0xbf87d172	-1.0610793
100	0xbf9b0bb0	-1.2112942
101	0xbf0fe991	-0.5621577
102	0xc1173231	-9.449754
103	0x3f449015	0.7678235
104	0xbd3971a0	-0.045274377
105	0x4082c477	4.0864825
106	0xc0d01a2d	-6.5031953
107	0xc00280a6	-2.039102
108	0x3e8f2475	0.27957502
109	0xc034dc07	-2.8259294
110	0xbfa80b99	-1.3128539
111	0xbf1c1e13	-0.6098339
112	0xbfff42b3	-1.994223
113	0x3fad6b22	1.3548319
114	0xc0527195	-3.2881825
115	0xbfaea882	-1.3645175
116	0xc0666446	-3.5998702
117	0x40186e5e	2.3817363
118	0x3f15a05e	0.58447826
119	0x4060fa13	3.5152633
120	0x3b963b99	0.0045847413
121	0x3f2b57f4	0.6693108
122	0xc14c969e	-12.786772
123	0x3d9946fc	0.07484242
124	0x3e2488a1	0.16067745
125	0xc02680e2	-2.6016164
126	0x411190a2	9.097811
127	0x3dc7430d	0.09729586
128	0x3f5e9e9c	0.8696077
129	0xc0136e72	-2.303616
130	0xbfeb0bac	-1.8362937
131	0xbff6662b	-1.9249929
132	0x3fb07df7	1.3788441
133	0xc088dbe8	-4.276844
134	0x3fbcafe0	1.4741173
135	0x3ffab492	1.9586356
136	0x3f5a32f2	0.85233986
137	0x3f946630	1.1593685
138	0x401be8fe	2.4360957
139	0x40245b1b	2.5680606
140	0xc1004174	-8.01598
141	0xc197f8fe	-18.996578
142	0x3ce7ee97	0.02831201
143	0xc0371b21	-2.8610308
144	0xbea23c56	-0.31686658
145	0x3fcafe79	1.5858909
146	0x3f632277	0.88724464
147	0x3ce6a3b9	0.02815424
148	0x3fc14f95	1.5102412
149	0x3c6f9719	0.014623427
150	0xbfb5dd29	-1.4208118
151	0xbe904aa2	-0.2818194
152	0x404e4adb	3.2233188
153	0xbffc57c2	-1.9714282
154	0xbe6e684f	-0.23281978
155	0xbd3bf273	-0.045885514
156	0xc04dc8d8	-3.2153835
157	0x3ed08d31	0.4073272
158	0xbfe5c56d	-1.7950875
159	0x3fe0b1b8	1.7554235
160	0xbf081cdd	-0.5316904
161	0xbf622ebc	-0.8835256
162	0xbfa79049	-1.3090907
163	0xbf31ebee	-0.69500625
164	0xbca953fd	-0.020669932
165	0xc007852f	-2.117504
166	0xc0207488	-2.5071125
167	0xbf79f287	-0.9763569
168	0xbeddab87	-0.43294927
169	0xbfb1e8ff	-1.389923
170	0xbf88a607	-1.0675668
171	0xbd68a62f	-0.05679911
172	0xbf423c52	-0.7587329
173	0xc0205817	-2.5053766
174	0x3dea7d3b	0.11449667
175	0xc01a1a01	-2.4078372
176	0xbf36b563	-0.71370524
177	0xbf8e46a3	-1.1115307
178	0xbfca54f5	-1.5807177
179	0x3ee9f489	0.45694378
180	0xbe6ad4b5	-0.22932704
181	0xbd848820	-0.06471276
182	0xbe1baf50	-0.15203595
183	0x4014b026	2.3232512
184	0x3ef2de85	0.47435394
185	0x401cab4d	2.4479554
186	0x3fd56476	1.6671283
187	0x400f0d7c	2.235198
188	0x40879340	4.236725
189	0xbeaf3f2a	-0.34227878
190	0xbee75993	-0.45185527
191	0xc0b52b40	-5.6615295
192	0xc067c5d9	-3.6214507
193	0x3d8a9208	0.067661345
194	0xbe54e452	-0.20790222
195	0x3e245923	0.16049628
196	0xc122214e	-10.133131
197	0x412dddba	10.866632
198	0xbfa6eee5	-1.3041655
199	0xbfb56337	-1.4170903
200	0x3f574735	0.8409303
201	0xbfc2b505	-1.5211493
202	0xbfbcfd0c	-1.4764724
203	0xbe057bfd	-0.13035579
204	0x401bbe69	2.4334967
205	0x3fd23e0c	1.6425185
206	0x3f70ee46	0.94113576
207	0x3c8d2f1d	0.01723438
208	0xbe182b9b	-0.14860384
209	0xbee1f66e	-0.44133323
210	0xbecf4f4b	-0.40490183
211	0xbea4b27c	-0.32167423
212	0xc0159157	-2.3369958
213	0x3fc0e4fe	1.5069883
214	0xc131b5b9	-11.106866
215	0xbf86dfa9	-1.0537006
216	0xc03f1b81	-2.9860537
217	0xbf1036ec	-0.56333804
218	0x3e8672bc	0.2625941
219	0xbe852bfa	-0.26010114
220	0xc09659ae	-4.698447
221	0xbce5eddb	-0.02806752
222	0xbf91cb98	-1.1390257
223	0xc02cd912	-2.700749
224	0xc07a769b	-3.913489
225	0x3f4e1dee	0.8051442
226	0x4032a1e8	2.791132
227	0xbfc6cd17	-1.5531338
228	0xbfcd2024	-1.6025434
229	0xbe408570	-0.18800902
230	0x4001f83a	2.0307755
231	0x3f99e8e3	1.2024196
232	0xbe07a499	-0.13246383
233	0xc0229f2e	-2.5409656
234	0x4057ae2b	3.3700054
235	0xbffa352f	-1.954748
236	0xbfab1eee	-1.3368814
237	0x3f7f9c89	0.9984823
238	0xbfb2e5da	-1.3976395
239	0x3db58ae0	0.08864379
240	0xbf2e6afc	-0.68131995
241	0xc08091c0	-4.0177917
242	0x3eb45020	0.3521738
243	0x3f36379a	0.7117859
244	0x3e492f44	0.19646937
245	0x3f4ac168	0.79201365
246	0x3f715d80	0.94283295
247	0x402d4736	2.7074714
248	0x4113ce20	9.2378235
249	0xc00d5d8a	-2.2088342
250	0xc0ac3fd0	-5.3827896
251	0x3d822780	0.0635519
252	0x400472ae	2.0694995
253	0x3f73e8b9	0.9527698
254	0xbd68650d	-0.056736995
255	0xbbd19193	-0.0063955276

hiddenLayer3.bias f4 [150]
0	0x416c55f3	14.770984
1	0xc116dcb6	-9.4288845
2	0x3fe1ce78	1.7641134
3	0x4116a06f	9.414168
4	0x40c32ef5	6.099482
5	0x41483497	12.512839
6	0xc028ebf7	-2.6394022
7	0xc02bb59b	-2.6829593
8	0xc12bdafa	-10.740961
9	0xbf00987c	-0.5023267
10	0xc009a00a	-2.150393
11	0x3fc7c6ba	1.5607522
12	0x40e8d1cd	7.2756104
13	0xc1144ff8	-9.269524
14	0xbac9ecee	-0.0015405694
15	0xc1b175d4	-22.182533
16	0xc0c0e030	-6.0273666
17	0xc110f38c	-9.05946
18	0xc0e26862	-7.075242
19	0xc0c1a7b9	-6.051724
20	0x3f4b3479	0.7937694
21	0x4112fabb	9.1862135
22	0xc0397d48	-2.8982716
23	0xc007935e	-2.1183696
24	0xc08ac728	-4.336811
25	0x41a16db8	20.178574
26	0x4120eea9	10.058267
27	0xc06a042f	-3.6565053
28	0xc13ef6fd	-11.9353
29	0x41224c00	10.143555
30	0xbe5e84aa	-0.21730295
31	0xc14f53df	-12.957976
32	0x3f9ff711	1.2497274
33	0x3f1e340d	0.61798173
34	0x41a49c90	20.576447
35	0xc04eaede	-3.229423
36	0x408f71c4	4.4826374
37	0x41a178a0	20.183899
38	0xc10c2201	-8.758302
39	0xc0615446	-3.5207686
40	0x3faf4639	1.3693305
41	0x3e8e4d37	0.27793285
42	0xc15d97c0	-13.849548
43	0xbe68d514	-0.22737533
44	0x40dcf888	6.9053383
45	0x3f9e7462	1.2379267
46	0xc1008174	-8.031605
47	0x41c4d40c	24.603539
48	0xc140b968	-12.045265
49	0xc107f4cc	-8.497265
50	0x40bb6d73	5.8571105
51	0xc12dd6ae	-10.864912
52	0xc10ec65e	-8.9234295
53	0x40618b82	3.52414
54	0x400d688e	2.2095065
55	0x401c4c8c	2.442172
56	0xc0497282	-3.147614
57	0xc10b7e72	-8.71837
58	0x410d718c	8.840221
59	0xc1758122	-15.344027
60	0x400a6487	2.1623857
61	0xbfce0a5c	-1.6096911
62	0xc09f1adb	-4.9720283
63	0xbedfbbcf	-0.43697974
64	0xc0139800	-2.3061523
65	0xc0dae1fb	-6.8400855
66	0x40a953e7	5.291492
67	0xbf9ec41e	-1.24036
68	0xc07bad40	-3.9324493
69	0xc0b0363e	-5.5066214
70	0x415d92a8	13.848305
71	0xbfd55298	-1.6665831
72	0x41446d02	12.276613
73	0x41bc2bab	23.521322
74	0x41cc803d	25.562616
75	0x405886ba	3.383223
76	0xbfe90160	-1.8203545
77	0x408f5349	4.4789166
78	0x40f50a44	7.657503
79	0xbfbd5d1c	-1.479404
80	0xc05dc6ac	-3.465251
81	0x41a44f89	20.538836
82	0x418658fe	16.793453
83	0xc0900909	-4.501103
84	0x401608ef	2.3442953
85	0xbf1b232a	-0.6060053
86	0x3fda9e05	1.7079474
87	0xbfb696e9	-1.4264804
88	0xbf2f5d44	-0.6850169
89	0x4089bb24	4.3040943
90	0x41104856	9.01766
91	0x41cd96e3	25.698675
92	0xbfecd00e	-1.8500993
93	0xc13f45aa	-11.954508
94	0x40b59d6a	5.6754656
95	0x3f458d93	0.7716915
96	0xbfa46638	-1.2843695
97	0x41065571	8.39586
98	0xbea6bde8	-0.32566762
99	0x413a8a71	11.658799
100	0xc1aee0c9	-21.859758
101	0x415734e6	13.450415
102	0x40033a83	2.0504463
103	0x3ecfbaf4	0.4057232
104	0x41dc9a24	27.575264
105	0x3fcfabd8	1.6224318
106	0xc11daf7f	-9.855346
107	0x40b59077	5.673885
108	0x41ad6f8c	21.679466
109	0x41d46517	26.54936
110	0x410bb263	8.731051
111	0x410e2aed	8.88548
112	0x41cc6729	25.550371
113	0xc050fafa	-3.2653184
114	0x40c67076	6.201228
115	0x4142216f	12.1331625
116	0x40a942a9	5.289387
117	0x3f8bdcda	1.0926774
118	0x4122f268	10.184181
119	0x4094e06b	4.652395
120	0x3e2206ad	0.15822859
121	0xc19c1be2	-19.513615
122	0xc14ab7cf	-12.669875
123	0x3fccb6d4	1.5993295
124	0x40b70434	5.719263
125	0xc14179e4	-12.092258
126	0xc0c3d0aa	-6.1192217
127	0xc10a1aba	-8.631525
128	0x3fe6f052	1.804209
129	0x4178a3f4	15.540028
130	0x4092220b	4.5666556
131	0x41147b78	9.280144
132	0x3f29cd85	0.6632922
133	0x40348033	2.8203247
134	0x41844388	16.532974
135	0x41a81fdd	21.015558
136	0x408635b3	4.194055
137	0xc0ec6e63	-7.388475
138	0xbffbf3b1	-1.9683744
139	0xc068ed53	-3.6394851
140	0x40b276b7	5.5769916
141	0xc02b1645	-2.6732342
142	0x409cbc75	4.898005
143	0xc029c2c8	-2.6525135
144	0x41b512d2	22.63419
145	0x41086dd6	8.526815
146	0x41935ed8	18.42131
147	0xbfdef63f	-1.7418898
148	0xbf8df5f7	-1.1090688
149	0xbf19610b	-0.599137

outputLayer.weight f4 [2, 150]
0	0x4053ecf8	3.3113384
1	0x3fb4b5f2	1.4118025
2	0x411a1c98	9.631981
3	0x40305166	2.7549682
4	0xc11f8ea1	-9.9723215
5	0x4052c268	3.2931156
6	0xc085ee38	-4.1853294
7	0x4207092d	33.75896
8	0xc180de3c	-16.108513
9	0x418ab541	17.338503
10	0x3e018d73	0.12651615
11	0x409ca649	4.8952985
12	0xc18579eb	-16.68453
13	0xc1051631	-8.317918
14	0xc10835c5	-8.513127
15	0xc0f599a1	-7.6750035
16	0xc012ae6d	-2.291896
17	0x4095910e	4.673957
18	0xc0c254aa	-6.072835
19	0x4059bc1d	3.4021065
20	0xc0974fd0	-4.7284927
21	0x4083e43d	4.121611
22	0xc0299ae1	-2.650078
23	0x417f7e79	15.968377
24	0x403c7993	2.9449203
25	0x3ffe7113	1.9878258
26	0x40900aee	4.501334
27	0x400da7c6	2.213365
28	0xc165a18c	-14.35194
29	0x407cef37	3.9521005
30	0x407946ea	3.8949533
31	0xbf9321a4	-1.1494641
32	0xc0ba934c	-5.8304806
33	0xc1244251	-10.266191
34	0x41472e51	12.448808
35	0xc15e4498	-13.8917465
36	0xc159547d	-13.583127
37	0x40004f41	2.0048373
38	0x41e5df5e	28.734066
39	0xc12fac50	-10.9795685
40	0x4139c230	11.609909
41	0xc03b7e35	-2.929578
42	0xc1972fbc	-18.898308
43	0x3e8cd630	0.27507162
44	0x40d524b1	6.660729
45	0x415862b8	13.524101
46	0x40d067b0	6.512657
47	0x40557e71	3.3358424
48	0xc0664957	-3.5982263
49	0xc0e8567b	-7.2605567
50	0xc1092f3f	-8.574035
51	0xc19b97d1	-19.44913
52	0xbff9c093	-1.9511894
53	0xc07302ec	-3.7970533
54	0x40282bca	2.6276727
55	0x40b463cf	5.6371837
56	0x3ff43d57	1.908122
57	0x413b2e50	11.698807
58	0x40a48eee	5.1424475
59	0xc128fa7c	-10.561153
60	0x40843f9c	4.132765
61	0xc02d6a3f	-2.7096097
62	0xc0eb9201	-7.3615727
63	0x3faffcc1	1.3749009
64	0xc032378a	-2.7846398
65	0xc145459c	-12.329494
66	0xc12d3e8d	-10.827771
67	0xc05f803d	-3.492202
68	0x40ff3417	7.9751086
69	0x41207fea	10.031229
70	0x3ff4559a	1.9088624
71	0x40ce9274	6.4553776
72	0xc133db3c	-11.241024
73	0x40c891a3	6.267778
74	0x40515c10	3.271244
75	0xc15385fd	-13.220212
76	0xc09674db	-4.7017646
77	0xc0d4594d	-6.635901
78	0xc149dcc1	-12.616395
79	0x41d08531	26.065035
80	0xc15c514e	-13.76985
81	0x3fe8686d	1.8156868
82	0x41120225	9.125524
83	0xc09f73f4	-4.9829044
84	0x420e4dae	35.57586
85	0xc187b4f0	-16.963348
86	0x4003d92a	2.0601296
87	0xbfb72bdc	-1.431026
88	0xc0775cc3	-3.8650367
89	0x404d6ce0	3.2097702
90	0x40f08a62	7.5168924
91	0x40440771	3.0629542
92	0xbfdc5c2a	-1.7215626
93	0xc01ff878	-2.4995403
94	0xc0af5f0c	-5.4803524
95	0x400571bd	2.085067
96	0xc0909f7d	-4.519469
97	0x40ac75e4	5.389391
98	0x40f2f318	7.5921745
99	0x4030c1af	2.7618215
100	0x41a102d2	20.126377
101	0xc11407a2	-9.2518635
102	0x419c75b6	19.557476
103	0xc0b74199	-5.7267575
104	0x40587032	3.3818479
105	0x40b9fbbe	5.8119802
106	0xc093e68d	-4.6218934
107	0x40984c7a	4.7593355
108	0x408c768f	4.3894725
109	0x4052155d	3.282554
110	0xc0da6086	-6.8242826
111	0x4032d4e5	2.794244
112	0x405b3643	3.4251869
113	0x40739219	3.805792
114	0x4105db32	8.3660145
115	0x40b4ea37	5.6535907
116	0x410dd271	8.863877
117	0x4121a6e3	10.103244
118	0xc173095d	-15.189786
119	0x41167656	9.403891
120	0xbf04af7b	-0.5183026
121	0xc157c483	-13.4854765
122	0xc081f339	-4.0609403
123	0xc0b5c289	-5.679997
124	0xc12285a3	-10.157626
125	0xc1d02b54	-26.021156
126	0xc02cbe8c	-2.69913
127	0xc117dd98	-9.4916
128	0xc13ab8a1	-11.670075
129	0x40465942	3.0991979
130	0xc0abe2c3	-5.371431
131	0xc11491bf	-9.285583
132	0x415eb931	13.920213
133	0x40ddb94f	6.9288707
134	0x40474656	3.113668
135	0x4077e659	3.8734343
136	0xc1acb5ee	-21.588833
137	0xc1e40f7e	-28.507565
138	0x421b8b9a	38.88633
139	0x40e64bbd	7.1967454
140	0xc1794cfa	-15.581293
141	0xc09e10d2	-4.9395533
142	0xc0b7b668	-5.7410164
143	0xc00c3e43	-2.1913002
144	0x40299827	2.6499116
145	0xc1192224	-9.570835
146	0x4018acac	2.385539
147	0xc0f6c0a4	-7.7110157
148	0xc0f8b958	-7.772625
149	0xc19b8c36	-19.443462
150	0x403ae19c	2.92002
151	0x3f9d3621	1.2282144
152	0x412462a9	10.274087
153	0x40264c36	2.5984015
154	0xc11ae053	-9.679767
155	0x404c5dda	3.1932282
156	0xc05425bc	-3.3148031
157	0x42047d51	33.12238
158	0xc17c4dcf	-15.768996
159	0x4185bfe1	16.71869
160	0xbebc1d9a	-0.36741334
161	0x40638477	3.55496
162	0xc18d7c99	-17.685839
163	0xc0f6eafc	-7.7161846
164	0xc106d09d	-8.425931
165	0xc106dcde	-8.428923
166	0xbfd9373a	-1.6969979
167	0x408ca597	4.3952136
168	0xc095aefd	-4.677611
169	0x40967e16	4.7028913
170	0xc098de62	-4.7771463
171	0x407c592c	3.9429426
172	0xc03465f1	-2.818722
173	0x417fbf89	15.9842615
174	0x401118a0	2.267128
175	0x3feee208	1.8662729
176	0x40987494	4.7642307
177	0x3fcd1b44	1.6023946
178	0xc152ccca	-13.174997
179	0x40783752	3.8783765
180	0x403d08aa	2.9536538
181	0xbf8ac2cd	-1.0840698
182	0xc0f4c344	-7.648836
183	0xc1367e71	-11.4058695
184	0x414a6c43	12.651431
185	0xc196c1b3	-18.84458
186	0xc1660ce1	-14.378144
187	0x4001d98f	2.0289037
188	0x41f3dae4	30.48188
189	0xc125d0b1	-10.36345
190	0x41442b02	12.2605
191	0xc08ca14d	-4.39469
192	0xc18e7d84	-17.811287
193	0xbf10f4a8	-0.56623316
194	0x40da8512	6.828744
195	0x417672df	15.403045
196	0x40c2551e	6.0728903
197	0x4057b4f5	3.3704197
198	0xc0480eff	-3.1259153
199	0xc116eacc	-9.432323
200	0xc0c82910	-6.2550125
201	0xc194c4db	-18.59612
202	0xc00c6627	-2.193735
203	0xc06d69d8	-3.7095852
204	0x404e99dd	3.228141
205	0x40d0c674	6.524225
206	0xc0aa8265	-5.3284173
207	0x4137cea9	11.487954
208	0x40b12b7a	5.536557
209	0xc1531061	-13.191499
210	0x4034e2aa	2.8263345
211	0xbf7862ab	-0.97025555
212	0xc0dff03f	-6.998077
213	0xbfcb0ac6	-1.5862663
214	0x3f301db3	0.6879532
215	0xc137a119	-11.4768305
216	0xc133dad4	-11.240925
217	0xc034f8e0	-2.8276901
218	0x4144d461	12.30185
219	0x411ce560	9.806
220	0x3fd96d7c	1.6986537
221	0x40cac80d	6.3369203
222	0xc133a497	-11.227683
223	0x40c5c6a1	6.1804967
224	0x4052bd30	3.292797
225	0xc13da544	-11.852848
226	0xc094aae3	-4.64586
227	0xc0bbf359	-5.8734555
228	0xc158c57c	-13.548214
229	0x41cf579e	25.917782
230	0xc15e593b	-13.896785
231	0x400416fd	2.063903
232	0x4110e94f	9.05696
233	0xc0421b44	-3.0329142
234	0x420ff785	35.99172
235	0xc18c066d	-17.503138
236	0x402aabed	2.6667435
237	0x3f94d5f9	1.1627799
238	0xc04d1fd0	-3.2050667
239	0x40549c91	3.322056
240	0x40ebffab	7.3749595
241	0x404a3731	3.1596186
242	0xbf0f20e2	-0.5590955
243	0xc01193b9	-2.2746413
244	0xc10d6ac3	-8.838565
245	0xbf611a50	-0.87930775
246	0xc09eafe2	-4.95897
247	0x40b2caf1	5.587273
248	0x40f3d44f	7.6196666
249	0x402dcd2a	2.7156472
250	0x419e245b	19.767752
251	0xc10a6dbf	-8.6517935
252	0x419a3ea6	19.28059
253	0xc0a774e2	-5.233018
254	0x405fd487	3.4973466
255	0x40af87dc	5.4853344

outputLayer.bias f4 [2]
0	0x41d274d3	26.307043
1	0x41d7ad0b	26.959494
