ftl/pretrain/weight/multi-workload_half_v1/multi-workload_half_v1_215.pth (torch, 187853 bytes, 8 tensors)

hiddenLayer1.weight f4 [150, 3]
000000 7f 97 a2 be 30 69 28 c0 51 92 b9 3d ac 4c 3e be
       -0.31756207 -2.6314201 0.09061111 -0.18583935
000010 f8 c1 65 bd 14 38 38 be 55 7a 8b c1 b7 d7 d2 3b
       -0.056093186 -0.17990142 -17.434732 0.0064344066
000020 56 b2 a9 be b1 a7 6e c1 93 34 87 bc db cb 89 c0
       -0.33143872 -14.91594 -0.016504562 -4.3061347
000030 46 9d c7 bd 61 aa 84 bd f6 67 8d bb d9 f7 54 bd
       -0.097467944 -0.0647781 -0.0043153716 -0.05199418
000040 6c dd 02 3b 52 db 7d bc 82 50 68 bf c6 ab bd 3a
       0.0019968404 -0.015494185 -0.90747845 0.0014470748
000050 b7 39 bf bd 61 20 99 bf d8 38 02 3f d4 d5 73 3e
       -0.0933718 -1.1963006 0.50867987 0.23812038
000060 33 e8 91 bd 1c 81 33 3b b2 2c 74 bd fc 1c 04 be
       -0.071243666 0.0027390188 -0.059612937 -0.12901682
000070 c0 cf 5e bd 68 bb 04 bd d6 86 b5 3c 7f ab 80 be
       -0.054397345 -0.032405287 0.022159021 -0.2513084
000080 f1 78 a7 c1 d1 49 23 c0 53 25 15 bb ea 46 23 c0
       -20.934053 -2.5513804 -0.0022757843 -2.5512033
000090 57 10 19 c1 55 18 06 3c 5d 15 02 bf 4d 14 0a c1
       -9.566489 0.008184512 -0.5081385 -8.629956
0000a0 c3 7d c7 3f 26 f1 a3 3f 6a d8 90 bd e3 1c 57 ba
       1.5585254 1.2807968 -0.07072528 -0.00082059036
0000b0 68 80 06 ba c4 c4 be c0 65 da 53 3d a9 71 8f 3c
       -0.00051308284 -5.9615192 0.05172195 0.017510252
0000c0 68 f2 54 c1 8d 5e b7 3c 2c dc c6 3c 4a 6d e3 c1
       -13.309181 0.022383953 0.024274908 -28.428364
0000d0 53 89 94 bb ce 50 22 be 0f d7 4d c0 d7 f1 3e 3f
       -0.004532972 -0.15851137 -3.2162511 0.7458777
0000e0 ce 56 5f 3f 5b a1 08 be 82 e4 0e ba 2f a3 2f bd
       0.8724183 -0.13342802 -0.00054509204 -0.042880233
0000f0 2d ef 55 3d 71 44 4f 3b 3f 0a 69 40 51 8f 18 be
       0.05223005 0.0031626488 3.6412504 -0.14898421
000100 5b 70 36 be 6c a1 aa bc c8 57 2c c1 fa 89 44 3e
       -0.17816298 -0.020828925 -10.771431 0.19193259
000110 79 77 c5 3d b7 9e ea be 77 a8 0a be 5b bc 50 3d
       0.09641928 -0.45824215 -0.13540827 0.05096088
000120 d7 e7 d0 3d f0 14 64 bc 82 d6 43 40 0f 87 88 c1
       0.1020047 -0.0139210075 3.0599675 -17.065947
000130 75 8e 01 3d 58 f7 24 c0 5d 47 a3 bf b8 8b 1f bb
       0.03163 -2.5775967 -1.2756153 -0.0024344753
000140 ec b1 62 c0 9b 18 9b be c1 fe 25 3c 80 8b 8d bf
       -3.5421095 -0.3029221 0.010131539 -1.1058197
000150 21 50 16 bf 0d 5e da 3b 74 95 e5 bf 7f b6 9e bd
       -0.58716017 0.0066640438 -1.7936234 -0.07749652
000160 a5 b3 b2 3c f1 30 9d 3a 19 20 9c bd 7d 1d 71 3a
       0.021814177 0.0011992735 -0.0762331 0.00091978145
000170 1f 56 aa bd e3 97 3f be 69 74 ac bc 91 1d 82 bd
       -0.083172075 -0.18710284 -0.021051602 -0.063532956
000180 06 04 e0 c0 24 ae 9e 3c f7 1c 58 c0 cf 5f 72 be
       -7.000491 0.019370146 -3.3767679 -0.2366936
000190 3b 1d 4c 37 db 26 dc bd 9c 3e 60 bd 5d 89 84 39
       1.2166153e-05 -0.107495986 -0.05474721 0.00025279346
0001a0 a4 b7 a1 bd 5a 5a 72 3a 1f 15 79 40 ed 43 eb 3e
       -0.07896355 0.0009245031 3.8919141 0.4595026
0001b0 64 29 9f c1 81 3d b5 3f 82 5e 20 c0 69 b2 54 bf
       -19.89521 1.4159395 -2.5057683 -0.8308473
0001c0 b3 bf ee 3a df a9 78 be 5b ab 87 bc 3b e9 37 ba
       0.001821509 -0.2428355 -0.0165612 -0.000701565
0001d0 89 9e e3 bc f0 1c 7f c1 ec ac ab bd 2e 4f 41 bf
       -0.027785556 -15.944565 -0.083825916 -0.75511444
0001e0 a6 5e c9 bd b9 a1 90 bb 74 db d3 c0 0f b4 4a be
       -0.09832506 -0.00441381 -6.6205387 -0.1979525
0001f0 be 47 38 bf 2d 15 5e 3d b0 4c 3d bd 05 ec 5f 38
       -0.7198447 0.054219414 -0.046215713 5.3387153e-05
000200 81 a5 22 bd 4e e8 ce bc 9c 17 cf 39 78 f8 c8 bd
       -0.039708618 -0.025257256 0.00039499707 -0.09813017
000210 26 5a 56 bf 22 85 75 be 97 65 43 c0 56 a3 da c0
       -0.83731306 -0.23976567 -3.0530756 -6.8324385
000220 43 21 2e 3a cc a8 72 bf 62 48 b4 be 81 67 15 bd
       0.00066425296 -0.94788814 -0.35211474 -0.036475662
000230 34 89 c1 3c 67 8b e5 c1 04 cb 12 be 36 fd 54 c0
       0.023624994 -28.693068 -0.14335257 -3.3279548
000240 61 b9 cb be c1 bb 2d bb 5e ad 3b bc 1c 24 97 c0
       -0.3978987 -0.0026509615 -0.011454908 -4.723158
000250 a8 44 0e 3e b3 a1 10 c0 03 95 b5 bd 24 5a 89 3e
       0.13893378 -2.2598693 -0.08866312 0.26826584
000260 51 e8 dd 3f c7 10 c9 bc 77 a7 0e be 61 76 06 bc
       1.7336522 -0.024544133 -0.1393107 -0.008206935
000270 35 c3 4c c0 fe 19 ad bb 9a f7 cf 3a 05 76 bc be
       -3.1994145 -0.0052826395 0.0015866638 -0.36808792
000280 7d e0 e3 bb 5a 53 23 be 85 b2 ab c1 27 d9 aa 3c
       -0.0069542513 -0.15949765 -21.462168 0.0208555
000290 f2 af 57 bd de e1 ff bf 18 ea a5 3c 8f 50 85 c0
       -0.05265803 -1.9990804 0.020253226 -4.166084
0002a0 c0 54 81 c0 96 a7 f6 be 22 ed b0 3f 2a 43 b1 be
       -4.0415955 -0.48174733 1.3822367 -0.34621555
0002b0 fa e1 3c ba 65 f3 db bd 19 01 6c c2 ec 71 57 3b
       -0.0007205304 -0.10739783 -59.001072 0.00328743
0002c0 13 6f 66 bd b5 fd 09 c1 7d c8 00 3d d5 43 a6 3c
       -0.056258272 -8.62444 0.0314412 0.020296017
0002d0 5e b8 ff bc 8c 23 97 3b 51 cc b3 bc a5 f8 19 3e
       -0.031215843 0.004612392 -0.021948012 0.15036257
0002e0 a4 0a 7b 3c b3 96 c2 3f a0 e1 52 3c 96 2c cd 38
       0.015322361 1.520224 0.012871176 9.7834665e-05
0002f0 25 f0 ab c1 4d 3a c1 c0 57 3b 73 ba c6 36 43 c0
       -21.492258 -6.038367 -0.00092785567 -3.050218
000300 1d 02 9e bc 1e 86 03 c0 93 ca 26 3f f3 dd 4d c1
       -0.019288117 -2.0550609 0.65152854 -12.866687
000310 7c 8c 82 bd 1a 35 c8 be 25 c0 6a bd 71 1a 00 3c
       -0.063744515 -0.39103013 -0.05731215 0.007818804
000320 ae ff a7 bd 8c 6b a6 bd bf 9c 89 bc e7 cb 75 bb
       -0.08203064 -0.08125982 -0.016798375 -0.0037505568
000330 23 3a 02 c1 87 1c 3b 3e 15 a2 1d 40 bf 39 a0 bd
       -8.139194 0.18272601 2.4630177 -0.07823514
000340 72 f1 1e 3b 51 c8 49 bd ef d2 f7 bf 2e 62 8b 3d
       0.00242528 -0.049263302 -1.9361247 0.06805836
000350 d6 5d 15 be fa 02 a3 c0 c4 a9 5c 3d 6f f2 4c c0
       -0.14586577 -5.0941133 0.05387284 -3.202297
000360 81 11 42 bc bf 29 39 40 1a d6 80 3f e8 3a 5c bd
       -0.011844994 2.893173 1.0065339 -0.053767115
000370 09 6a af 38 5a e7 05 bd 91 1e 2d bd 74 2e e5 3b
       8.364401e-05 -0.032691337 -0.04226548 0.006994063
000380 5b e9 bb bc 46 3a 9c bd a4 bf 3e b9 56 4e 48 bd
       -0.022938421 -0.07628302 -0.00018191204 -0.048902832
000390 61 2b c4 c1 7f 8f 81 bc 3a 89 8b bc 1d 0c 51 be
       -24.521181 -0.015815495 -0.017033208 -0.20414777
0003a0 f9 66 06 bc ba 1b a1 bc 15 76 35 c0 d0 f5 b4 3f
       -0.0082032615 -0.019666541 -2.8353322 1.4137516
0003b0 bf d7 e8 bf 80 4e 10 3d 12 fd cd 3c 89 4b d6 40
       -1.819084 0.035231113 0.025145087 6.6967206
0003c0 f7 aa 44 bf 23 46 27 3b 0b 37 17 bd 10 49 2c bc
       -0.7682337 0.0025523982 -0.036917727 -0.010515466
0003d0 40 21 72 bc 23 4a 88 3e 49 e0 8c c0 ff 39 db bd
       -0.014778435 0.26619062 -4.4023786 -0.10704421
0003e0 9a 0e 51 bf 0d 29 19 38 ac 6d 87 3a 78 6a 1a bb
       -0.81662905 3.6516274e-05 0.0010332367 -0.0023561995
0003f0 a4 46 6d c0 da ee a4 b9 87 05 d4 bf ce 6a 8c c0
       -3.7074366 -0.00031458476 -1.6564187 -4.3880377

hiddenLayer1.bias f4 [150]
000000 3b 71 af c0 36 5a 6c bf 20 0c 7c bf 9d f6 72 c0
       -5.482572 -0.9232515 -0.98456 -3.796302
000010 fe c5 74 bf d6 58 2a bd b8 f5 dd bd ec 20 96 c0
       -0.9561461 -0.041588627 -0.10837883 -4.691519
000020 3a 2e 9d bd 47 e0 4c bf 13 5e cf be 56 d9 05 c0
       -0.07674833 -0.8002972 -0.4050146 -2.0913901
000030 15 c1 40 bf 71 e1 16 c1 8c 4b 87 bc a8 2f 8e bf
       -0.7529462 -9.430039 -0.016515516 -1.1108294
000040 3f e0 ee bf b6 10 80 bf 63 62 f2 bf 14 a1 3f bd
       -1.8662184 -1.00051 -1.8936275 -0.046784475
000050 27 f7 5f c0 35 d5 3a c0 2d da 38 c0 de 08 b5 c0
       -3.49946 -2.9192631 -2.8883164 -5.6573324
000060 79 2b 02 c1 34 99 2c c0 7c 35 9d 3f c7 60 83 bf
       -8.135613 -2.6968508 1.2281947 -1.0263909
000070 84 31 b5 bf dd 41 a9 be 25 f3 ef 3f 4c 10 b6 be
       -1.4155736 -0.33058062 1.8746077 -0.3555931
000080 b4 7a 46 c0 be d3 b9 bd a1 4c 85 bd 80 8d 22 c1
       -3.1012392 -0.0907359 -0.065087564 -10.159546
000090 2a 8c 79 c0 89 90 62 be 45 79 08 bd 6f 5b 0a c0
       -3.89918 -0.22125448 -0.033318777 -2.1618307
0000a0 a2 d1 f0 bf fb 7c 63 c0 45 1b 03 bd be d1 a0 bd
       -1.8813975 -3.5545032 -0.032008428 -0.07852505
0000b0 61 70 b8 c0 7e 34 7e bf d8 66 16 c0 26 c1 a4 c0
       -5.763718 -0.99298847 -2.350027 -5.1485777
0000c0 5a a0 98 bd 08 ac 49 c0 ac af 39 c1 4e 09 f6 bf
       -0.0745246 -3.151125 -11.605389 -1.922159
0000d0 35 8d d4 bf 92 85 e2 be 51 0d a4 bf a6 00 56 c0
       -1.6605593 -0.4424253 -1.2816564 -3.3437896
0000e0 60 4d 98 c0 ab e7 c8 bd c1 ad 8a bf 26 8a b7 bf
       -4.759445 -0.09809812 -1.0834275 -1.4339035
0000f0 c4 ef b3 bd 32 78 68 c0 24 5c fa 3f 1f 3d 21 c0
       -0.08785966 -3.6323361 1.9559369 -2.5193555
000100 36 48 79 c1 b9 01 fe bf 9f b9 10 be 41 8f e5 be
       -15.58013 -1.9844276 -0.14133309 -0.44835857
000110 cf 59 7c c0 0c a9 63 bd b3 61 bb bf da 4d 47 c0
       -3.9429815 -0.055581138 -1.463919 -3.1141267
000120 2a d6 ec c0 fb 5c df bc 4b 1e db bd 2d 15 99 bd
       -7.401143 -0.027266016 -0.10699137 -0.07474742
000130 82 bc 79 bf 88 91 25 be e7 31 d8 c0 e5 a9 14 c1
       -0.97553265 -0.16168797 -6.7560916 -9.291478
000140 77 b4 91 bd 69 f1 16 c1 37 3b 11 c0 62 4d e9 bc
       -0.07114499 -9.433938 -2.2692392 -0.028479282
000150 95 29 af bf 0d 90 97 c0 1c 75 82 bf dc c9 7a c0
       -1.3684565 -4.7363343 -1.0191989 -3.9185705
000160 8b 92 e1 be fc a7 bf bf fc 0b ba bd b2 f3 75 bf
       -0.44057116 -1.497314 -0.09084317 -0.96074975
000170 fa 41 4a be db 35 aa bf 4f 38 58 c0 6f 44 12 be
       -0.1975173 -1.3297685 -3.3784368 -0.14283918
000180 6b 9c 12 bf b7 a3 f0 be 47 ba cc bf 08 66 12 bf
       -0.57269925 -0.46999905 -1.5994347 -0.5718694
000190 58 a0 a5 bd 8d 45 0b bf 8a d2 e6 bf ac fb 13 c0
       -0.08087224 -0.54403 -1.8033001 -2.3122358
0001a0 a2 1f c0 c0 51 23 27 be e7 f7 06 c0 cd 1c 2c c0
       -6.0038614 -0.16322066 -2.1088808 -2.6892579
0001b0 b9 02 a9 bf f1 67 6c bf f0 eb d9 be bf 7d 6e bf
       -1.3203956 -0.923461 -0.4256282 -0.93160623
0001c0 43 9b c7 c0 60 43 78 bf f3 39 50 bf 61 33 8f bc
       -6.237703 -0.96977806 -0.81338423 -0.017480554
0001d0 8a 1a 4f c0 4d c2 4d be b8 5d 46 c1 8d f7 15 bf
       -3.2359948 -0.20093651 -12.397881 -0.5858086
0001e0 44 30 74 be 31 a4 43 c0 49 e7 b0 c0 2f 39 c6 bd
       -0.23846537 -3.0568964 -5.528233 -0.09678876
0001f0 40 49 b8 bc 57 50 ea bc 81 11 d3 c0 f5 56 74 c0
       -0.022495866 -0.028602762 -6.5958867 -3.8178074
000200 d0 11 28 be 6f 92 14 c1 3d 97 83 c0 41 82 82 c0
       -0.16413045 -9.28575 -4.1122117 -4.0784
000210 b7 1f 02 be e5 03 18 c0 48 1a 9e be 00 84 08 c0
       -0.12707411 -2.3752377 -0.30879426 -2.1330566
000220 0f 15 c6 bf ab f3 33 c1 cb fd 83 c0 20 40 fc bd
       -1.5475177 -11.246989 -4.1247306 -0.123169184
000230 15 41 67 3e 3c 28 d3 c0 80 fa d0 bf 69 ca 09 c0
       0.2258342 -6.5986614 -1.6326447 -2.1529791
000240 43 fd 4c c1 79 b3 78 bc ab 6b 0a c0 b3 15 35 c0
       -12.811831 -0.015179508 -2.1628215 -2.8294494
000250 49 bc d6 bd 90 8d 3a bd
       -0.10485131 -0.04554516

hiddenLayer2.weight f4 [150, 150]
000000 e4 df a5 3e 60 e8 85 3f 2e e7 29 3f 17 43 24 40
       0.32397377 1.046154 0.6636838 2.5665948
000010 cf e7 5b bd eb a0 8a 3c 7c d8 94 be d7 d8 75 be
       -0.053687867 0.016922435 -0.29071414 -0.24008499
000020 98 68 ca bf df e3 a0 bf b9 2c 06 c0 7a 7a a4 c0
       -1.581317 -1.2569541 -2.0964797 -5.1399508
000030 35 3b de be ea 34 52 41 aa 06 46 3d 28 9d 08 bf
       -0.43404546 13.137918 0.0483462 -0.533648
000040 ec 3a 02 bf 3d 1b e3 c0 89 bb 99 3f 0a 44 ff bd
       -0.5087116 -7.097075 1.2010356 -0.12464149
000050 6a 4f 83 bf f9 62 e0 bf 99 4d 03 be 63 76 5e 3e
       -1.025861 -1.7530204 -0.1282257 0.21724848
000060 93 06 a3 be de ce 81 3f 2b 22 00 be 11 66 0c c0
       -0.31840953 1.0141256 -0.12513034 -2.1937296
000070 99 1e 78 bd 9f 90 a0 c0 9a 30 43 bf 63 ff e2 bf
       -0.060576055 -5.017654 -0.76246035 -1.7734188
000080 ab 7c b2 c1 b9 33 35 3f 43 5d 94 be 2e 1a 12 bf
       -22.310873 0.7078205 -0.28977403 -0.570712
000090 17 b3 bc c0 81 0a f2 be 8d 36 8b 3d 6b c6 e6 40
       -5.8968616 -0.4727364 0.06797514 7.211721
0000a0 54 23 b7 be 53 c6 2b c0 ba 6c 34 3c 86 29 c5 bf
       -0.3576914 -2.6839797 0.011012251 -1.5403297
0000b0 0e 4b 5a c1 4c 87 7a bf 50 26 0e c0 7b b5 d3 3e
       -13.643324 -0.97862697 -2.2210884 0.41349396
0000c0 91 3d 36 3f 04 aa a6 c0 12 39 d6 c1 6c 6e 9b 3d
       0.7118769 -5.208254 -26.777866 0.07589421
0000d0 3f 85 fe 3f 9d 41 9b 3f 30 16 97 40 22 20 57 c1
       1.9884413 1.2129399 4.7214584 -13.445345
0000e0 48 64 e8 be 79 cb ad 3e c3 d9 1a 40 7f 65 90 c0
       -0.4538901 0.339443 2.4195411 -4.5123897
0000f0 65 bb 4c 3e 33 20 11 c0 ae 2d 85 3e 0c 4a a3 3f
       0.1999336 -2.2675903 0.26011413 1.2756972
000100 df 34 a3 3f e8 64 a5 40 61 6e bd 3b 1e cb b7 3f
       1.275051 5.1685677 0.0057809805 1.4358861
000110 df cf 4b 3f 94 8d 43 3c 01 59 2c 40 d9 fc 75 c0
       0.7961406 0.01193561 2.6929324 -3.8435576
000120 cc 97 72 bf 96 c5 0e bc 6f df ca 3c c8 ec 44 3f
       -0.94762874 -0.0087141 0.024764745 0.769238
000130 13 ca 4f c0 d1 09 67 3e 4a b9 b5 3e 8d 41 0e bf
       -3.2467086 0.22562338 0.35492927 -0.5556877
000140 35 11 74 3e 86 af 6b 3e da a0 ea c0 7f ab ab bd
       0.23834689 0.23016176 -7.332135 -0.0838232
000150 b0 60 85 c1 e3 03 b5 bd be 18 07 bf 50 73 25 bf
       -16.67221 -0.08838632 -0.5277213 -0.6462908
000160 77 d6 26 40 2d d7 a5 c0 c0 5b 0c c1 a7 28 82 3f
       2.60684 -5.1825166 -8.7724 1.0168656
000170 c3 bd 0a c0 b3 13 40 c0 76 d2 aa 3e d9 fa 99 bf
       -2.1678321 -3.0012023 0.33363694 -1.2029678
000180 18 f0 65 40 a7 fb 10 bf 28 ca da 3e e2 ef 75 3e
       3.5927792 -0.5663399 0.42732358 0.2401729
000190 c6 a4 7c 3f 8a e2 50 3f aa 9b bc 3f 83 8d 0c 3e
       0.98688924 0.8159567 1.4735005 0.13725857
0001a0 60 a8 3c bf cf e5 c2 3e f5 e4 85 3f 64 7d 7d 3e
       -0.7369442 0.38065955 1.0460497 0.24754864
0001b0 4c 20 5a c0 16 b2 71 bf b8 76 90 bf 5f 15 01 c0
       -3.4082212 -0.9441236 -1.128623 -2.0169294
0001c0 81 8f 81 c1 b0 85 27 be 13 57 b4 c1 d8 e3 2d 3c
       -16.19507 -0.16359591 -22.542517 0.010613404
0001d0 f5 d3 6d 40 d6 97 29 bf 88 5e 24 3f f6 b2 22 c0
       3.7160618 -0.6624731 0.64206743 -2.542173
0001e0 ee 86 54 be ef 84 f2 c0 8a a4 a2 bf 9f e8 0f 3e
       -0.20754597 -7.5787272 -1.2706463 0.14053582
0001f0 58 49 0f bd 2e 00 74 be d8 eb 0e c0 c3 67 19 be
       -0.034982055 -0.23828194 -2.2331448 -0.14980988
000200 53 7a 14 3e 4b 2c f4 c0 5c f2 94 c0 b8 f3 99 c0
       0.14499788 -7.630407 -4.654585 -4.811001
000210 42 b5 8a bd 79 41 e2 c0 04 ff f5 c0 48 c9 09 c0
       -0.067728534 -7.0704923 -7.68738 -2.1529102
000220 b8 d8 56 be ba 3c 0c c0 ba 4c 38 40 d7 7a c4 3e
       -0.20981109 -2.1912065 2.879683 0.3837497
000230 dc 0f 04 bf 05 61 53 3e 10 60 5e c0 d8 f0 c1 bf
       -0.515867 0.20642479 -3.4746132 -1.5151625
000240 65 59 13 bf db aa 07 3d d2 3c b1 3e 5a 90 5b bf
       -0.5755828 0.033121925 0.34616715 -0.8576714
000250 b6 b2 58 3d 86 2f 6d 3e 9a d9 45 c1 75 4e ac 3f
       0.052904807 0.2316266 -12.365625 1.3461443
000260 37 95 a9 c1 b1 bd bb bf 1f 64 aa 3e 4c 1c 30 bd
       -21.197859 -1.4667264 0.3327951 -0.042995736
000270 50 cd 0a be 54 f8 cc be c0 60 dd 3e 90 a0 38 40
       -0.13554883 -0.4003321 0.43237877 2.8848
000280 ef 1e 94 c0 58 33 92 c0 bf e2 af bf 14 b2 d8 c0
       -4.628776 -4.5687675 -1.3741072 -6.771738
000290 11 7f 96 3d 3d 91 b9 3e 44 23 72 40 c2 53 0a 40
       0.07348455 0.3624362 3.7834024 2.1613622
0002a0 68 55 42 40 02 47 15 be c5 84 9c c0 ff 26 88 c0
       3.0364628 -0.14577869 -4.891207 -4.2547603
0002b0 00 4e fc bf 78 2e f6 3d 7a a1 8d c0 a1 5e 95 c0
       -1.9711304 0.12020582 -4.4259615 -4.6678014
0002c0 a5 6b 02 40 5a df 96 c0 36 b1 00 40 b4 df 21 3d
       2.03782 -4.7147646 2.010816 0.03951998
0002d0 82 c2 35 c0 b3 45 3e bf 09 af 9e 40 33 aa 87 3f
       -2.8399968 -0.743251 4.9588666 1.0598816
0002e0 2d dc a2 3f 8a 5e 36 c0 2e 11 0f c1 f3 33 6c 3e
       1.2723442 -2.8495202 -8.941694 0.23066692
0002f0 4f d7 42 3d af 76 ab c1 c4 09 b5 c1 fd 36 43 40
       0.047568616 -21.432951 -22.629768 3.0502312
000300 47 26 41 be b8 2a 63 bf 10 7c 19 c1 f1 0a 63 3c
       -0.18862258 -0.8873706 -9.592789 0.013857589
000310 02 c5 a4 bf 23 ad 77 40 f1 82 ff 3d 6e 9e 01 c0
       -1.2872622 3.8699424 0.12476147 -2.0252948
000320 73 da 32 c0 32 6c 13 c1 ff 79 84 3e bf 7f b8 3e
       -2.794583 -9.213915 0.25874326 0.36034963
000330 ad 3d 09 3f 05 ec 05 c0 6c 9b a8 c0 ea 38 30 3e
       0.53609735 -2.0925305 -5.2689724 0.17209211
000340 8a 31 96 41 53 dc 0d c0 e9 0a 33 bf 73 be b8 c0
       18.774189 -2.2165725 -0.6993852 -5.773248
000350 1f 8b 28 c0 a9 7d d6 be 8a a2 0a 40 0d d8 d8 bf
       -2.6334913 -0.41892746 2.1661706 -1.6940933
000360 f8 a1 fb be 9b 34 41 3f 7b 79 ae c0 e7 57 00 3f
       -0.4914701 0.75470895 -5.452329 0.5013413
000370 67 b5 d4 c0 b8 53 57 40 60 d6 97 bf a7 de 84 3d
       -6.647144 3.3644848 -1.1862297 0.0648778
000380 c2 b3 74 be 31 91 6d 3e ef ec 91 40 ca a9 fa be
       -0.23896697 0.23199917 4.5601726 -0.48957664
000390 9e ff 86 3f 2e ca 5b c0 59 d0 12 3e c1 1e 04 c1
       1.0546758 -3.434215 0.14337291 -8.257508
0003a0 dc 95 fb bf 20 2d 2f bd f1 1b 40 3f 69 bf e0 3e
       -1.9655108 -0.042767644 0.75042635 0.43896034
0003b0 84 44 28 c0 b7 3d 29 c0 43 83 db bf 83 cb 1b c1
       -2.6291819 -2.6443918 -1.7149433 -9.7371855
0003c0 fa 75 42 c0 3a a1 88 40 ef 09 a2 3d 6f 74 17 c1
       -3.0384507 4.269681 0.07912051 -9.465926
0003d0 53 56 85 be c0 26 09 3f c3 53 39 bf 12 55 eb bd
       -0.26042423 0.5357475 -0.72393435 -0.11490835
0003e0 ef 8b 88 c0 56 7d 5e be 67 a6 40 3e 3d 65 e9 3d
       -4.2670817 -0.217275 0.18813477 0.11396263
0003f0 7f dc 78 c0 f1 b9 b0 3e 7a 73 a4 3e 91 15 d5 3d
       -3.888458 0.34516862 0.32119352 0.10404504

hiddenLayer2.bias f4 [150]
000000 9d a7 53 bf b3 9d 62 c0 f5 d8 68 40 f2 a0 13 c0
       -0.8267763 -3.5408752 3.638242 -2.3066983
000010 a0 96 97 c0 eb 04 ac bf b2 db dc c0 73 5b fd be
       -4.737137 -1.3439001 -6.9018183 -0.49483833
000020 8c 2d d5 3f 6b a2 a0 be 54 a5 e2 bf 9e 87 ca bf
       1.6654525 -0.31373915 -1.7706704 -1.5822637
000030 29 81 a9 3f 01 bf 85 bf 69 58 92 bd 4e f2 6b 3f
       1.3242542 -1.0448915 -0.07145769 0.921666
000040 f6 85 a5 3f e5 e2 d8 bf f8 62 de bf a3 c2 49 be
       1.2931507 -1.6944243 -1.7373953 -0.19703154
000050 2c 38 0a c0 a9 68 22 be 1b 82 b8 be cb d3 43 c0
       -2.1596785 -0.15860237 -0.36036763 -3.0598018
000060 c4 9b 1c be 3a 4d bd bf 8a cc ab bf 5b f4 a6 3f
       -0.15293795 -1.4789193 -1.3421795 1.3043321
000070 e2 fc 08 bf f9 3a 33 c0 a4 fb c6 bf 43 c3 4e c0
       -0.5351087 -2.8004744 -1.5545545 -3.2306678
000080 3d f2 c3 c0 b1 e3 ee bf c7 2e 6a 3e 87 7d 5f c0
       -6.12332 -1.8663236 0.22869407 -3.4920366
000090 fd 7d 8f bf 9b 4c 19 c0 a0 06 84 c0 80 76 4b c0
       -1.1210324 -2.3953006 -4.1258087 -3.1791077
0000a0 00 a9 72 bf c8 5c 2c c0 16 00 e0 3e c8 31 d9 bd
       -0.94789124 -2.693163 0.43750066 -0.10605198
0000b0 d8 4c 2f be 9f 75 fa be 72 1f 95 c0 77 ff 93 c0
       -0.17119157 -0.48917863 -4.6600885 -4.6249347
0000c0 da 99 3e bf 1d e8 e2 bf 40 87 18 c0 33 13 98 bf
       -0.7445351 -1.7727085 -2.383255 -1.1880859
0000d0 b4 69 90 be f4 0c c6 bf 43 a3 d8 bf 00 d3 6d bf
       -0.28205645 -1.5472703 -1.6924824 -0.92900085
0000e0 38 97 a7 bf 22 c2 39 c0 71 8d c7 bf b8 95 0d c0
       -1.3093023 -2.902474 -1.559004 -2.212263
0000f0 8a 79 43 bf fa 53 94 c0 2a 4a 4b c0 b2 d8 d3 3e
       -0.7635733 -4.635251 -3.1764016 0.41376263
000100 d9 24 13 c1 76 d8 ab bf 5e 19 30 c1 e3 ce a4 be
       -9.196496 -1.3425434 -11.006193 -0.32189092
000110 fc 8d e1 bf 77 a3 14 be 1c 4d 13 40 ba 50 77 bf
       -1.7621455 -0.14515482 2.3015814 -0.96607554
000120 ff 2b 9c bf d1 15 7a 3e da f4 a3 bf a3 15 1a bf
       -1.2200927 0.24422385 -1.2809098 -0.60189265
000130 83 8c 5c c0 15 10 51 c0 57 65 27 bf 75 c1 51 c0
       -3.4460762 -3.2666066 -0.6538901 -3.2774327
000140 39 81 02 c1 d8 f0 5c bf 50 3c 01 bf 69 a0 fd c0
       -8.1565485 -0.86305 -0.50482655 -7.9258313
000150 c3 f6 6d be 9b 85 45 c0 db 1f d5 be c9 dd 08 c0
       -0.23238663 -3.0862796 -0.41625866 -2.1385367
000160 e9 d1 d2 bf c2 e9 09 be 46 5c 6e be a7 50 e9 3f
       -1.647031 -0.13468078 -0.23277387 1.8227738
000170 c5 78 80 bf 6f cd c5 bf c8 7f 69 bf 9d 1b dc bf
       -1.0036856 -1.5453318 -0.91210604 -1.7195927
000180 8d 5f 27 c0 9c f2 c9 bf 44 f7 c6 c0 81 85 0f 41
       -2.615207 -1.5777164 -6.217684 8.970094
000190 08 6d ff be 2e 77 cb be b4 9c 0c bf bb 58 ab bf
       -0.49887872 -0.39739364 -0.5492661 -1.3386453
0001a0 f1 06 7c bd d8 a2 7a 3f 16 68 6a bf ba c1 9f be
       -0.061530057 0.9790473 -0.9156507 -0.3120249
0001b0 2c 86 b2 3f ef 26 8e c0 65 1b 33 c0 e4 12 92 c0
       1.3947196 -4.4422526 -2.798547 -4.564806
0001c0 7d 89 d9 bf d4 d7 0c 40 2c 30 51 40 29 7b 13 c0
       -1.6995083 2.200673 3.2685652 -2.304392
0001d0 e6 0a 8c c0 63 f3 0c c0 47 cb d0 be c3 75 3e bf
       -4.3763304 -2.2023551 -0.40780088 -0.7439844
0001e0 22 ad 21 be 2e 97 c7 bf 4a 65 e9 be a5 ac 1b be
       -0.15788701 -1.5593011 -0.4558509 -0.15202577
0001f0 95 c8 4a bf b6 f9 f9 3f 1e 01 96 c0 ad b8 9f bf
       -0.79212314 1.9529331 -4.6876364 -1.2478234
000200 65 b1 66 40 b3 b7 91 c0 32 b5 91 bf 39 e9 37 c0
       3.6045773 -4.553674 -1.1383421 -2.8736098
000210 e3 7f 1d 40 45 71 82 bf c6 78 f6 3f 58 c5 9f bf
       2.4609306 -1.0190817 1.9255607 -1.24821
000220 fc b1 af bf fc ee 5c bf 75 47 c0 bf 7d 12 c6 bf
       -1.3726192 -0.8630216 -1.5021807 -1.5474392
000230 f6 0a 47 c0 4d 7a 1b c0 71 02 07 be 4e cb 71 bf
       -3.110044 -2.4293396 -0.13184525 -0.94450843
000240 79 2a 22 c0 00 1f 1f c0 07 c7 0b c0 05 a0 22 be
       -2.5338423 -2.486267 -2.1840227 -0.15881355
000250 73 d4 a0 be 23 c7 dc be
       -0.31412086 -0.4312068

hiddenLayer3.weight f4 [150, 150]
000000 6d 9e 07 3e 51 e6 8d 3f 1e 14 b0 3e 4a 2e 89 3e
       0.13244028 1.1085912 0.34390348 0.26793128
000010 19 ff 7a bf db 3f 58 be b9 c2 b6 c1 b1 78 09 bf
       -0.980455 -0.21118109 -22.84508 -0.53699785
000020 25 f2 14 3f 6e 6f 55 c0 22 07 1b 40 06 54 cb bf
       0.58181983 -3.3349261 2.4223104 -1.5885017
000030 7d 74 0e c0 35 4a 8d bf f3 1c 40 bc d7 e1 2a c0
       -2.2258599 -1.1038271 -0.011725652 -2.6700342
000040 80 4a be 3f 69 e4 56 3f 1f 3b a4 3f 9a 07 2f bf
       1.4866486 0.83942276 1.2830542 -0.68370974
000050 55 96 a5 c0 e2 dc 78 bd 6a 68 1e 3f db a2 8f c1
       -5.174601 -0.060757525 0.61878073 -17.95452
000060 ce 95 8f 3d ed c4 f7 bf c1 96 22 c0 e4 0b 16 c0
       0.07010995 -1.9356972 -2.5404513 -2.3444757
000070 63 46 60 bf 88 5b 30 c0 98 10 82 40 2f e3 e1 3f
       -0.876074 -2.7555866 4.0645256 1.7647456
000080 93 8f d6 c1 7d 50 0a 40 4b 86 51 3f 81 44 eb bf
       -26.820105 2.1611626 0.8184554 -1.8380281
000090 93 00 24 c0 a2 bc d4 3f 69 1d 8d 40 cc 49 4f 3f
       -2.562535 1.6620066 4.40984 0.8097198
0000a0 73 a2 79 40 c9 f2 29 40 8e 14 16 c2 92 8c 8d 3d
       3.90054 2.6554434 -37.520073 0.06911577
0000b0 4a 10 06 3f c2 2f 28 3e 2e d8 47 c1 26 84 e3 c1
       0.52368605 0.16424468 -12.490278 -28.439526
0000c0 49 be 61 3f 87 05 df 3f 67 37 70 40 a7 92 a4 be
       0.8818098 1.7423562 3.7533815 -0.32143137
0000d0 9c 4b 6d 3d ab 52 45 3e 22 c1 28 be 8a fc 17 bf
       0.057933435 0.19269817 -0.16479924 -0.5936972
0000e0 1d eb ed 3f a0 c7 09 3d 1e ff ed c0 de 45 4a 3f
       1.8587376 0.033637643 -7.437392 0.7901286
0000f0 67 f4 8c bf de 61 71 c0 f0 5b a5 3e e9 37 9a c0
       -1.1012086 -3.7715983 0.32296705 -4.819325
000100 51 46 74 c0 9b 9d d6 3f 67 49 cd 3f ad 6d 8f be
       -3.8167918 1.6766847 1.6038026 -0.28013363
000110 60 bc 5b 3f a6 ee 59 40 81 5b 13 c0 3c be 48 3e
       0.8583431 3.405191 -2.30246 0.19603819
000120 32 4f 4f 3f bd f9 31 c0 3d 02 17 c0 bc 8a 94 3d
       0.8098022 -2.7808678 -2.3595116 0.07253024
000130 35 4a 79 bf 2a 23 71 c0 8a 78 fc bf f8 54 05 c0
       -0.97378856 -3.7677712 -1.9724286 -2.083311
000140 da b8 b6 c0 3c 88 ac bf 8b 12 aa 3d 92 55 1b 3f
       -5.710065 -1.3479075 0.08304318 0.60677445
000150 ab 31 97 3f 5d ab 1d 3f 76 89 1c 40 ca 9a 3e 3f
       1.1812032 0.61589605 2.44589 0.7445494
000160 d0 b3 6d 3f 79 c1 f5 3d 70 5c c1 bf 21 51 13 40
       0.928525 0.119997926 -1.5106335 2.3018267
000170 49 b5 09 3e f7 f2 bd 3e ab 43 0b c0 ab 06 16 3f
       0.13448061 0.3709943 -2.1760051 0.58603925
000180 b6 6d e4 c0 75 92 53 40 e8 b1 43 3f ef 05 4b be
       -7.1383924 3.305814 0.7644334 -0.19826482
000190 a8 a6 1f bf 1c bf f6 be ba cf 1f c1 46 42 50 3f
       -0.6236367 -0.4819268 -9.9882145 0.81351125
0001a0 a0 71 39 bd c3 2f 86 40 11 a5 e0 c0 28 08 05 3f
       -0.045274377 4.1933303 -7.0201497 0.5196557
0001b0 8e 8e c0 c0 fa 14 d7 bf 3b 07 bb bf 13 1e 1c bf
       -6.0174017 -1.6803277 -1.4611582 -0.6098339
0001c0 b5 20 8f c0 07 f6 36 c0 8f e1 87 c0 5e 9d c1 bf
       -4.4727426 -2.8587663 -4.246284 -1.512615
0001d0 80 a2 76 c0 df b1 ab be 5e a0 15 3f f9 e2 0e 40
       -3.8536682 -0.33534142 0.58447826 2.2326033
0001e0 73 9d 9b 3c 2a 82 b4 3e 4d b8 49 c1 3a 68 8a 3d
       0.018995976 0.35255557 -12.607495 0.06758161
0001f0 5e 5c d6 bc 0d 4b 0a c0 a2 90 11 41 d2 51 6a 3d
       -0.026167091 -2.1608307 9.097811 0.057206936
000200 e8 9b 16 bf 78 97 27 c0 b8 1f f8 bf 0d f0 c4 bf
       -0.58831644 -2.61862 -1.938468 -1.5385758
000210 46 79 f7 3f 37 36 93 c0 e0 07 ae 3e 71 4e 19 40
       1.9333885 -4.600368 0.33990383 2.3954127
000220 09 75 44 3f de ff 5f 3f 4f 64 56 40 2c 63 82 40
       0.7674108 0.874998 3.3498724 4.074606
000230 36 97 59 c0 d7 81 c7 c1 e1 e1 01 bb 4d 45 67 c0
       -3.3998542 -24.938398 -0.0019818472 -3.6136048
000240 5c bf fc be 79 fe ca 3f 18 23 35 3f b9 a3 e6 3c
       -0.49364746 1.5858909 0.70756674 0.02815424
000250 47 86 e2 3f fd fe 3a bd 44 6f 45 bf a2 4a 90 be
       1.7697228 -0.045653332 -0.771229 -0.2818194
000260 8e 0f 55 40 1b fb ca bf 05 cb 44 3c 72 00 30 3d
       3.3290744 -1.5857881 0.012011294 0.042969175
000270 23 e7 21 c1 bd 64 0f 3f a3 36 c5 bf b8 b1 e0 3f
       -10.11893 0.5601309 -1.5407299 1.7554235
000280 dd 1c 08 bf bc 2e 62 bf 30 3d 81 bf 5c c8 79 bf
       -0.5316904 -0.8835256 -1.0096798 -0.9757135
000290 fd 53 a9 bc 2f 85 07 c0 2f 19 0c c0 87 f2 79 bf
       -0.020669932 -2.117504 -2.189037 -0.9763569
0002a0 87 ab dd be ff e8 b1 bf 07 a6 88 bf 2f a6 68 bd
       -0.43294927 -1.389923 -1.0675668 -0.05679911
0002b0 52 3c 42 bf 17 58 20 c0 3b 7d ea 3d 01 1a 1a c0
       -0.7587329 -2.5053766 0.11449667 -2.4078372
0002c0 63 b5 36 bf a3 46 8e bf f5 54 ca bf 26 49 01 bd
       -0.71370524 -1.1115307 -1.5807177 -0.0315639
0002d0 b5 d4 6a be 9a 57 15 3f 3a 84 c9 bf 84 88 0e 40
       -0.22932704 0.58336794 -1.5743477 2.2270823
0002e0 85 de f2 3e c2 e0 2e 40 2c e2 e9 3f 42 26 29 40
       0.47435394 2.7324681 1.8272147 2.64296
0002f0 e0 97 7e 40 b5 a5 98 be 93 59 e7 be 40 2b b5 c0
       3.9780197 -0.29813924 -0.45185527 -5.6615295
000300 d9 c5 67 c0 7e 07 99 3d 70 81 c6 3e 23 59 24 3e
       -3.6214507 0.07472132 0.38770628 0.16049628
000310 4e 21 22 c1 97 61 2d 41 82 b6 7d bf 37 63 b5 bf
       -10.133131 10.836326 -0.9910661 -1.4170903
000320 a6 13 4e 3f 05 b5 c2 bf 0c fd bc bf 7a f4 c2 bd
       0.8049873 -1.5211493 -1.4764724 -0.095192865
000330 4e 7d 0d 40 c8 f8 dd 3f 46 ee 70 3f 1d 2f 8d 3c
       2.210773 1.7341547 0.94113576 0.01723438
000340 cb 86 30 bf f7 bb ba bd 5f cb cd be 7c b2 a4 be
       -0.6895568 -0.09117883 -0.40194222 -0.32167423
000350 57 91 15 c0 fe e4 c0 3f 10 68 35 c1 06 a6 63 bf
       -2.3369958 1.5069883 -11.337906 -0.88925207
000360 da b4 7b c0 ec 36 10 bf bc 72 86 3e fa 2b 85 be
       -3.9329133 -0.56333804 0.2625941 -0.26010114
000370 6a e1 8e c0 16 fb b5 bd cf b8 b0 bf 12 d9 2c c0
       -4.4650164 -0.088857815 -1.3806399 -2.700749
000380 9b 76 7a c0 ee 1d 4e 3f b3 1b 2f 40 17 cd c6 bf
       -3.913489 0.8051442 2.7360656 -1.5531338
000390 24 20 cd bf dc 08 8f be c6 86 17 40 f0 09 96 3f
       -1.6025434 -0.27936447 2.367601 1.1721783
0003a0 5e 58 d1 bd 1f 47 2f c0 00 b6 3e 40 3a 4c de bf
       -0.10221933 -2.738716 2.9798584 -1.7367013
0003b0 a1 c8 b7 bf 0b 2c 68 3f 40 3a ca bf e0 8a b5 3d
       -1.4358102 0.90692204 -1.5799026 0.08864379
0003c0 80 05 3b bf 38 8f 32 c0 20 50 b4 3e 9a 37 36 3f
       -0.7305527 -2.7899914 0.3521738 0.7117859
0003d0 14 c9 d6 3d 68 c1 4a 3f a3 9d 69 3f 36 47 2d 40
       0.10487571 0.79201365 0.9125616 2.7074714
0003e0 20 ce 13 41 29 cb 15 c0 ec 94 b4 c0 46 4e 10 bd
       9.2378235 -2.340525 -5.643179 -0.035230897
0003f0 ae 72 04 40 b9 e8 73 3f 0d 65 68 bd de e3 6c be
       2.0694995 0.9527698 -0.056736995 -0.231338

hiddenLayer3.bias f4 [150]
000000 6f fa 59 41 f8 c5 25 c0 ed 5b b5 3f da 1a 71 41
       13.623641 -2.590208 1.4168679 15.069056
000010 1c 1c 83 40 d0 a7 2e 41 d0 93 76 c0 b4 e3 d5 bf
       4.0971813 10.91597 -3.8527718 -1.6710114
000020 3a 30 b8 c0 39 ca 7b bf 15 5c fa bf 0b fe 5f bf
       -5.755887 -0.9835544 -1.9559351 -0.87497014
000030 ff 76 86 40 1a 57 1c c0 18 a4 2a 40 05 28 42 c1
       4.202026 -2.4428163 2.6662655 -12.13477
000040 02 60 1c c1 42 29 c3 c0 50 f2 b0 c0 c7 67 4a c0
       -9.773439 -6.0987864 -5.529579 -3.162584
000050 19 db 8b 3d b3 58 d1 40 1c d9 a8 bf 3c 11 1d bf
       0.06828899 6.5420775 -1.3191257 -0.6135442
000060 ea d7 de bf df cb 9d 41 11 d4 00 41 5a ee 44 c0
       -1.7409642 19.724546 8.051774 -3.0770478
000070 a8 89 3e c1 01 48 02 41 26 d1 83 c0 7d 26 71 c1
       -11.9086075 8.142579 -4.119281 -15.071897
000080 2f 83 0f c0 81 b5 ff 3d 18 09 b1 41 a3 e0 82 c0
       -2.2423818 0.12485791 22.12944 -4.0899215
000090 1a 72 8a 40 28 ae a0 41 61 d7 d5 3f 5c 70 d4 bd
       4.3264284 20.085037 1.6706353 -0.10372993
0000a0 bd 1b a0 40 24 57 96 be 8e d5 fc c0 0d b8 0e c0
       5.003386 -0.29363358 -7.9010687 -2.2299836
0000b0 dd 1e 18 40 31 c6 20 40 6a a7 f8 bf 37 56 bb 41
       2.3768837 2.5120966 -1.9426091 23.417097
0000c0 80 e6 4c c1 58 92 b2 c0 e8 96 c8 40 eb 79 3f c1
       -12.806274 -5.580364 6.268421 -11.967265
0000d0 a6 a2 08 c1 41 d4 b6 3f 64 41 c3 bd af 1b 4d bf
       -8.539709 1.4283525 -0.09533957 -0.80120367
0000e0 ff 97 0d bf 71 08 00 c1 26 35 df 40 4b cc 41 c1
       -0.5531005 -8.002061 6.975238 -12.112376
0000f0 af 43 3c c0 31 9d 40 bf 31 c8 77 c0 df cd c7 be
       -2.941631 -0.75239855 -3.8715937 -0.39024255
000100 78 3d 41 be a7 34 c3 c0 42 9b 15 3f 27 a0 86 bf
       -0.18871105 -6.1001773 0.5844003 -1.0517625
000110 50 4c 2d c0 61 05 11 c0 81 0b 41 41 be c1 ad 40
       -2.7077827 -2.2659533 12.065309 5.4299
000120 3b 5f 10 41 fb a6 b6 41 c4 90 c6 41 00 a0 b1 40
       9.02325 22.831533 24.820686 5.5507812
000130 f6 e8 16 c0 ae 55 6c be d3 4c 00 41 65 78 57 3f
       -2.3579688 -0.23079559 8.018756 0.8416808
000140 fa ee ae c0 a7 b6 a0 41 cd 90 60 41 6c 27 9e bf
       -5.466672 20.089186 14.035352 -1.2355781
000150 b1 1f d4 bf 31 da 83 c0 79 4a d6 bf 63 eb 89 bf
       -1.6572171 -4.1203847 -1.6741477 -1.0774959
000160 fd 89 96 bf 7c a5 b5 3f 0c 3e de 40 fe 3e c5 41
       -1.1760861 1.4191127 6.945074 24.655758
000170 9f 2a b9 bf 24 8c 17 c1 5e af 6b 40 e4 0f ff bf
       -1.4466132 -9.471714 3.6825786 -1.9926724
000180 bb e2 99 bf 52 10 da 40 ad 45 28 41 3e e3 15 41
       -1.2022318 6.814492 10.517011 9.367979
000190 08 87 b5 c1 96 3a 50 41 7f e0 57 c0 bb 9d e0 bf
       -22.690933 13.014303 -3.3730772 -1.7548136
0001a0 32 6d d3 41 ed be a1 bf 4f 13 64 c0 e1 7a 91 40
       26.428318 -1.2636391 -3.5636785 4.54625
0001b0 60 f6 b1 41 77 4d cc 41 00 40 a2 40 34 de af 40
       22.2453 25.537825 5.0703125 5.4958744
0001c0 52 db c3 41 46 cb 3c c0 9e f9 94 40 e4 d1 26 41
       24.48209 -2.9499068 4.655471 10.426243
0001d0 b5 2d bf 3f a1 c1 82 3f 28 c7 b6 40 37 97 c4 40
       1.4935824 1.0215341 5.711811 6.143459
0001e0 47 12 8c 3f 54 36 85 c1 a3 dd 03 c1 90 96 02 bf
       1.0943078 -16.651527 -8.241611 -0.5101099
0001f0 99 fc ae 40 cd 40 36 c1 48 86 16 c1 c3 a0 fc c0
       5.4683347 -11.3908205 -9.4077835 -7.894624
000200 a2 7c d6 be de 3f 9a 41 64 a8 81 40 d2 b4 c1 40
       -0.41891962 19.281185 4.0518055 6.053323
000210 22 3c 22 40 33 a9 a2 bf 13 18 83 41 e1 e5 a4 41
       2.5349202 -1.2707886 16.386755 20.612246
000220 e4 3a 94 40 1f a2 a7 c0 3e aa 41 bf ae 5c 15 c0
       4.632189 -5.23854 -0.75650394 -2.3337817
000230 c3 4c 24 40 1e 87 41 c0 45 d1 09 40 f1 ad 27 c0
       2.5671852 -3.023872 2.1533978 -2.6199915
000240 ef 44 b0 41 b1 c5 0a 41 42 04 c3 41 0c a1 c3 c0
       22.033659 8.6732645 24.377079 -6.113409
000250 15 5d 5f bd b9 15 a5 c0
       -0.05453213 -5.1589017

outputLayer.weight f4 [2, 150]
000000 c9 1a 26 40 b0 3d 78 3f 15 62 33 41 b6 62 aa 3f
       2.5953848 0.9696913 11.211446 1.3311374
000010 81 de b6 c0 b8 2a eb 3f f4 ba d1 c0 be 4b ba 41
       -5.714661 1.8372412 -6.5540714 23.286983
000020 a3 be 09 c1 e9 39 7e 41 61 e9 76 bd 71 f3 7c 40
       -8.609042 15.889138 -0.06028116 3.9523585
000030 68 8f 6f c1 7a 4e 6b c0 a4 5f 0d c1 49 fc 90 c0
       -14.972511 -3.6766648 -8.83585 -4.5307965
000040 3c a9 59 c0 90 14 9e 40 32 3c ac c0 80 4a 94 3f
       -3.4009542 4.94001 -5.382348 1.1585236
000050 42 b5 09 c0 bb b4 14 40 ee f8 81 c0 6d 31 6a 41
       -2.151688 2.323531 -4.061637 14.637067
000060 ea 55 80 bf 61 ff 15 40 84 41 2c 40 2f c2 03 3f
       -1.0026219 2.343712 2.6914988 0.51468176
000070 56 16 74 c1 c2 f7 98 3f 6e 2e f5 be d8 29 3f c0
       -15.255453 1.195061 -0.47886986 -2.986929
000080 52 14 85 bf 87 4a 23 c0 d5 b0 58 41 da eb 7e c1
       -1.0396826 -2.5514238 13.543172 -15.932581
000090 9c 02 7a c1 cb 7e 22 40 bd 03 96 41 e7 8f 7c c0
       -15.625637 2.5389888 18.751825 -3.946283
0000a0 1d ed 34 41 ef b2 ca 3d 83 f7 97 c0 94 d0 38 c0
       11.307889 0.0989741 -4.748964 -2.8877306
0000b0 f5 a6 5f 40 2b 13 88 41 d4 57 92 40 23 ca 45 40
       3.4945652 17.00936 4.573221 3.0904624
0000c0 9e f1 3c c0 5c 8d f7 c0 d0 79 2d c0 63 72 66 c1
       -2.9522471 -7.736006 -2.7105598 -14.402926
0000d0 dd 29 fd bf 65 6b d0 bf a2 c2 83 3f 80 8a 40 40
       -1.9778401 -1.6282774 1.0293772 3.0084534
0000e0 48 a1 0b c0 2b b5 50 41 e1 fc 6b 40 47 01 a7 c0
       -2.1817188 13.04423 3.6873095 -5.218906
0000f0 e6 38 8f 3f 1f 78 7d bf 61 44 3d 3f f4 48 01 3f
       1.1189239 -0.99011415 0.7393246 0.5050194
000100 b8 15 1d c0 85 6e 0d c1 b5 48 16 c1 87 84 3f bf
       -2.4544506 -8.839482 -9.392751 -0.74811596
000110 0d 6a 0f 41 ec 4c a2 40 82 48 d6 3f 47 9b f5 40
       8.963391 5.07189 1.6740878 7.6752048
000120 28 5f 0d c1 37 af be 40 20 d5 4d 40 e9 62 67 c1
       -8.8357315 5.9588885 3.216133 -14.461648
000130 39 82 52 c0 b6 5a 2c be d6 c1 1a c1 9e a4 f6 41
       -3.2891982 -0.16831478 -9.672323 30.83038
000140 94 04 58 c1 a8 3e 39 40 e9 ee b5 40 50 40 a7 bf
       -13.501118 2.8944492 5.685414 -1.3066502
000150 60 93 ec 41 ee f1 82 c1 1b 6a 34 3f 49 ad ba bf
       29.57196 -16.36813 0.70474404 -1.4584132
000160 1b c1 e4 3f 1d f1 81 3f be 03 c5 40 df ab 3b 40
       1.7871431 1.0151707 6.156707 2.9323652
000170 7d db bf bf e0 f2 1a c0 44 30 26 c0 59 74 d0 bb
       -1.4988858 -2.421074 -2.596696 -0.006361526
000180 18 4b 38 3f 29 94 7e 40 ee 8e c6 40 d2 05 07 40
       0.71989584 3.977793 6.2049475 2.1097302
000190 08 8b 40 41 70 f9 dc c0 96 51 a3 41 34 46 03 c0
       12.033943 -6.905449 20.414837 -2.0511599
0001a0 11 87 53 40 a5 de 7f 40 f3 ca 7a c0 2e 19 a2 40
       3.3051188 3.9979641 -3.918637 5.0655737
0001b0 62 47 9b 40 03 79 51 40 9f e3 99 c0 ca 0a 80 3f
       4.8524637 3.273011 -4.809036 1.0003293
0001c0 62 8f 4b 40 8c 0c f2 3f 5b 8b d4 40 08 6d 86 40
       3.1806264 1.8910079 6.642011 4.2008095
0001d0 d0 17 08 40 45 a1 ea 40 91 d8 04 c1 59 58 79 3f
       2.1264534 7.332186 -8.302873 0.9740043
0001e0 d9 40 82 c0 36 20 0c c1 16 34 82 c0 ff 2c 3f c0
       -4.070416 -8.757864 -4.068858 -2.9871213
0001f0 88 2f 2f c1 70 95 f0 c1 39 88 4c c0 78 09 1f c1
       -10.949104 -30.072968 -3.1958144 -9.939812
000200 6f a6 af c0 c4 20 b5 40 b9 b3 8b c0 cc 8b 09 c1
       -5.4890666 5.6602497 -4.365689 -8.59663
000210 39 67 8e 41 0a 7c 57 3f 19 c7 5f 40 8d 12 7d 40
       17.800402 0.84173644 3.496527 3.9542572
000220 90 8a aa c1 de 08 af c1 68 e5 1f 42 8a 82 c1 40
       -21.317657 -21.87933 39.97403 6.047185
000230 83 18 5b c1 30 6b 9f bf 90 e1 2a c0 09 14 3d c0
       -13.693484 -1.2454586 -2.6700172 -2.9543478
000240 71 3d 34 40 4c fc eb c0 c4 43 4b 40 b4 a4 c7 c0
       2.81625 -7.374548 3.176011 -6.2388554
000250 66 d7 a3 c0 02 03 bc c1 cd cf 12 40 53 e6 de 3f
       -5.1200438 -23.501469 2.2939332 1.7414039
000260 c3 36 2e 41 9d 73 d2 3f ab 40 b2 c0 c4 99 dc 3f
       10.88837 1.6441532 -5.570394 1.7234426
000270 7d 74 bf c0 1f e2 be 41 5d e2 e9 c0 c4 4b 7b 41
       -5.9829698 23.86041 -7.308882 15.705997
000280 7b b4 04 bf 0c 21 89 40 39 10 72 c1 0d 77 71 c0
       -0.5183789 4.285284 -15.128961 -3.7728913
000290 36 02 17 c1 4a 45 9b c0 83 07 3f c0 b6 c3 a6 40
       -9.43804 -4.852208 -2.9848335 5.2113905
0002a0 d0 8a cc c0 8f b7 92 3d 02 66 26 c0 a3 e2 0d 40
       -6.391945 0.07163917 -2.599976 2.2169578
0002b0 5d f3 66 c0 6c ce 67 41 4e db 95 3f dc ce 1b 40
       -3.6086037 14.487896 1.1707551 2.4345007
0002c0 d7 cb 1b 40 64 14 85 3f 7f 6c 57 c1 4d e5 e1 3f
       2.4343164 1.0396848 -13.463988 1.7648102
0002d0 4a 63 36 c0 e9 45 3f c0 dd 75 d6 c0 ed ca 37 c0
       -2.8498101 -2.988642 -6.7018876 -2.8717606
0002e0 29 b7 54 41 a4 6c 80 c1 21 2d 6e c1 f2 c7 2a 40
       13.294717 -16.053047 -14.886018 2.6684537
0002f0 bc 97 8b 41 4b e4 d9 bf ae 8a 2e 41 be 39 91 bf
       17.44909 -1.7022794 10.908857 -1.1345747
000300 13 34 76 c0 63 83 25 c0 44 ed 81 40 61 b4 88 41
       -3.8469284 -2.5861442 4.060213 17.088076
000310 46 e3 7f 40 50 a3 40 40 f5 32 53 c0 ff 83 fa c0
       3.9982467 3.0099678 -3.2999852 -7.828613
000320 56 6f 38 c0 6e c5 66 c1 65 0a 03 c0 5f 5f cd bf
       -2.8817954 -14.423201 -2.0475094 -1.604473
000330 5b af 92 3f 90 72 eb 40 f0 d9 12 c0 da 84 44 41
       1.1459764 7.3577347 -2.2945518 12.282434
000340 c8 74 77 40 c5 a1 9a c0 ce e8 02 40 f7 6c 90 3f
       3.8665028 -4.8322473 2.0454593 1.1283253
000350 ab ea d8 3f 44 4f c7 bf 7e 51 41 40 63 54 05 c1
       1.6946615 -1.5571065 3.020599 -8.333102
000360 fc 7f 18 c1 a3 48 9a 3f 67 86 08 41 ba 0d 8f 40
       -9.531246 1.2053417 8.532813 4.4704256
000370 47 7a ce 3f f0 1b f8 40 9f b3 26 c1 0a 4a c1 40
       1.6131066 7.7534103 -10.418853 6.040288
000380 ae ea 59 40 60 71 70 c1 8f 89 58 c0 78 c3 af be
       3.4049487 -15.027679 -3.383396 -0.34328818
000390 f7 02 15 c1 8c cc fa 41 e3 04 51 c1 5e d6 30 40
       -9.313224 31.349876 -13.063693 2.763084
0003a0 66 55 b7 40 fb 72 0d 3f ef 0a e7 41 8a ea 7b c1
       5.7291746 0.5525357 28.880339 -15.7447605
0003b0 22 96 12 3f 78 63 a1 3f bc 23 02 bf 33 7d cb 3f
       0.57260334 1.260848 -0.50835776 1.5897583
0003c0 2f ac bd 40 82 d4 3c 40 66 df 52 3d 9a f7 2b c0
       5.9272685 2.9504704 0.05148258 -2.6869874
0003d0 6d ca 40 c0 37 93 67 3e 3e d0 82 3d 19 31 76 40
       -3.012355 0.22614752 0.06387375 3.8467467
0003e0 76 7a c6 40 a4 68 0b 40 3e db 3b 41 24 5c c8 c0
       6.202449 2.1782618 11.741026 -6.2612476
0003f0 2f ec 93 41 ef 4c bb bf e0 e5 4f 40 df 12 48 40
       18.490324 -1.4632853 3.2484055 3.1261518

outputLayer.bias f4 [2]
000000 d6 07 c8 41 4b b0 ca 41
       25.003826 25.33608
