ftl/pretrain/weight/multi-workload_half_v1/multi-workload_half_v1_154.pth (torch, 187853 bytes, 8 tensors)

hiddenLayer1.weight f4 [150, 3]
000000 f8 2f ea be 02 52 14 c0 c8 10 0b 3e ac 4c 3e be
       -0.45739722 -2.3175054 0.1358062 -0.18583935
000010 f8 c1 65 bd 14 38 38 be 55 7a 8b c1 b7 d7 d2 3b
       -0.056093186 -0.17990142 -17.434732 0.0064344066
000020 56 b2 a9 be 51 77 be c0 e2 c5 eb 3e 06 ad 9e c0
       -0.33143872 -5.952065 0.4604941 -4.958621
000030 46 9d c7 bd 61 aa 84 bd f6 67 8d bb d9 f7 54 bd
       -0.097467944 -0.0647781 -0.0043153716 -0.05199418
000040 6c dd 02 3b 52 db 7d bc 82 50 68 bf c6 ab bd 3a
       0.0019968404 -0.015494185 -0.90747845 0.0014470748
000050 b7 39 bf bd b6 6d 99 be e5 45 35 3f c7 6a 00 c0
       -0.0933718 -0.29966515 0.70809776 -2.0065172
000060 33 e8 91 bd 1c 81 33 3b b2 2c 74 bd fc 1c 04 be
       -0.071243666 0.0027390188 -0.059612937 -0.12901682
000070 c0 cf 5e bd 68 bb 04 bd 90 5d 45 bc 73 ba 21 bc
       -0.054397345 -0.032405287 -0.012046233 -0.009871113
000080 d5 ca 09 c1 d1 49 23 c0 53 25 15 bb ea 46 23 c0
       -8.61202 -2.5513804 -0.0022757843 -2.5512033
000090 57 10 19 c1 55 18 06 3c 5d 15 02 bf 8c c8 36 bc
       -9.566489 0.008184512 -0.5081385 -0.011156213
0000a0 39 0f 04 3f a2 3f b0 3f 6a d8 90 bd e3 1c 57 ba
       0.5158573 1.3769419 -0.07072528 -0.00082059036
0000b0 68 80 06 ba c4 c4 be c0 65 da 53 3d a9 71 8f 3c
       -0.00051308284 -5.9615192 0.05172195 0.017510252
0000c0 9e 01 16 c1 22 87 17 bd e4 6b 99 3e 4a 6d e3 c1
       -9.375395 -0.036994107 0.29965127 -28.428364
0000d0 53 89 94 bb ce 50 22 be d4 13 f6 c0 fe fc 9b 3d
       -0.004532972 -0.15851137 -7.6899204 0.07616614
0000e0 59 ee a8 3f 5b a1 08 be 82 e4 0e ba 2f a3 2f bd
       1.3197738 -0.13342802 -0.00054509204 -0.042880233
0000f0 7f 6c a7 3d 7d 0e 08 bd c2 4a 33 40 51 8f 18 be
       0.08174991 -0.033216942 2.8014379 -0.14898421
000100 5b 70 36 be 6c a1 aa bc 41 2c 1c bd 64 55 1d be
       -0.17816298 -0.020828925 -0.03812814 -0.15364605
000110 f1 f0 7a 3f 4d 0c d9 bd 4c 9c 82 be 99 a3 f7 3d
       0.980239 -0.10598049 -0.2550987 0.12091751
000120 ec 9c c0 3c 5b 75 8c 3b 9a b3 34 40 0f 87 88 c1
       0.023512326 0.004286451 2.823462 -17.065947
000130 75 8e 01 3d 58 f7 24 c0 e9 73 8d be f5 f8 05 be
       0.03163 -2.5775967 -0.27627495 -0.13083251
000140 11 87 7e bf 9b 18 9b be c1 fe 25 3c 80 8b 8d bf
       -0.99424845 -0.3029221 0.010131539 -1.1058197
000150 21 50 16 bf 0d 5e da 3b 74 95 e5 bf 7f b6 9e bd
       -0.58716017 0.0066640438 -1.7936234 -0.07749652
000160 a5 b3 b2 3c f1 30 9d 3a 23 eb ac 3c ba 68 ee bb
       0.021814177 0.0011992735 0.021108216 -0.007275668
000170 54 9e 41 3e e3 97 3f be 69 74 ac bc 91 1d 82 bd
       0.18908054 -0.18710284 -0.021051602 -0.063532956
000180 06 04 e0 c0 24 ae 9e 3c f7 1c 58 c0 cf 5f 72 be
       -7.000491 0.019370146 -3.3767679 -0.2366936
000190 3b 1d 4c 37 db 26 dc bd 9c 3e 60 bd 5d 89 84 39
       1.2166153e-05 -0.107495986 -0.05474721 0.00025279346
0001a0 a4 b7 a1 bd 52 21 69 c0 e7 99 55 40 fd 44 37 3e
       -0.07896355 -3.6426587 3.3375185 0.1789741
0001b0 3e 2a 93 c1 3f b3 8c 3d 21 8e 5a c0 69 b2 54 bf
       -18.395626 0.06870126 -3.4149249 -0.8308473
0001c0 b3 bf ee 3a df a9 78 be 5b ab 87 bc 3b e9 37 ba
       0.001821509 -0.2428355 -0.0165612 -0.000701565
0001d0 89 9e e3 bc f0 1c 7f c1 ec ac ab bd 2e 4f 41 bf
       -0.027785556 -15.944565 -0.083825916 -0.75511444
0001e0 90 72 29 bf 18 4f 37 bc ba e3 a6 c0 51 0f b2 be
       -0.66190434 -0.011188291 -5.2152987 -0.3477731
0001f0 01 ce 6a bf 1c 00 18 be b0 4c 3d bd 05 ec 5f 38
       -0.91720587 -0.14843792 -0.046215713 5.3387153e-05
000200 81 a5 22 bd 4e e8 ce bc 9c 17 cf 39 78 f8 c8 bd
       -0.039708618 -0.025257256 0.00039499707 -0.09813017
000210 26 5a 56 bf 22 85 75 be 97 65 43 c0 56 a3 da c0
       -0.83731306 -0.23976567 -3.0530756 -6.8324385
000220 43 21 2e 3a cc a8 72 bf 62 48 b4 be 81 67 15 bd
       0.00066425296 -0.94788814 -0.35211474 -0.036475662
000230 34 89 c1 3c fe b5 e5 c1 e1 29 28 be af 52 56 c0
       0.023624994 -28.713863 -0.16422226 -3.3487966
000240 61 b9 cb be c1 bb 2d bb 5e ad 3b bc 1c 24 97 c0
       -0.3978987 -0.0026509615 -0.011454908 -4.723158
000250 a8 44 0e 3e b3 a1 10 c0 b2 aa b0 c0 8b fb e8 3d
       0.13893378 -2.2598693 -5.520837 0.11376103
000260 2a 29 d1 3f c7 10 c9 bc 77 a7 0e be 61 76 06 bc
       1.6340687 -0.024544133 -0.1393107 -0.008206935
000270 35 c3 4c c0 fe 19 ad bb 9a f7 cf 3a 05 76 bc be
       -3.1994145 -0.0052826395 0.0015866638 -0.36808792
000280 7d e0 e3 bb 5a 53 23 be 85 b2 ab c1 27 d9 aa 3c
       -0.0069542513 -0.15949765 -21.462168 0.0208555
000290 f2 af 57 bd de e1 ff bf 18 ea a5 3c 8f 50 85 c0
       -0.05265803 -1.9990804 0.020253226 -4.166084
0002a0 56 19 1a be 13 a1 a8 bb b4 3c 14 40 2a 43 b1 be
       -0.15048727 -0.0051461547 2.316205 -0.34621555
0002b0 fa e1 3c ba 65 f3 db bd 51 5c 54 c2 5a d9 cd 3a
       -0.0007205304 -0.10739783 -53.090153 0.0015705035
0002c0 e5 3d b7 bd b5 fd 09 c1 7d c8 00 3d d5 43 a6 3c
       -0.08947352 -8.62444 0.0314412 0.020296017
0002d0 5e b8 ff bc 8c 23 97 3b 51 cc b3 bc 95 d4 b3 3d
       -0.031215843 0.004612392 -0.021948012 0.08780781
0002e0 99 0b 95 bb fa 07 6a be bd ce 10 3d a9 4b ce 38
       -0.0045485017 -0.22854605 0.03535341 9.836938e-05
0002f0 6f ed 9c c1 5e e6 c8 c0 e8 fb fe 3d f0 7b 4b c0
       -19.615934 -6.278121 0.12450391 -3.1794395
000300 56 27 8a bd 56 45 a6 bf f6 61 bc 3e f3 dd 4d c1
       -0.06745784 -1.298991 0.36793488 -12.866687
000310 7c 8c 82 bd 1a 35 c8 be 25 c0 6a bd 71 1a 00 3c
       -0.063744515 -0.39103013 -0.05731215 0.007818804
000320 ae ff a7 bd 8c 6b a6 bd bf 9c 89 bc e7 cb 75 bb
       -0.08203064 -0.08125982 -0.016798375 -0.0037505568
000330 b5 6b 95 c1 e1 ba e9 bc 11 25 86 3f bf 39 a0 bd
       -18.677591 -0.028531494 1.0480062 -0.07823514
000340 72 f1 1e 3b 51 c8 49 bd ef d2 f7 bf 2e 62 8b 3d
       0.00242528 -0.049263302 -1.9361247 0.06805836
000350 d6 5d 15 be fa 02 a3 c0 c4 a9 5c 3d 6f f2 4c c0
       -0.14586577 -5.0941133 0.05387284 -3.202297
000360 aa 54 d5 bf cd b9 3e 40 b6 39 a5 3e e8 3a 5c bd
       -1.6666462 2.9800904 0.32270592 -0.053767115
000370 09 6a af 38 5a e7 05 bd 91 1e 2d bd 74 2e e5 3b
       8.364401e-05 -0.032691337 -0.04226548 0.006994063
000380 5b e9 bb bc 46 3a 9c bd a4 bf 3e b9 56 4e 48 bd
       -0.022938421 -0.07628302 -0.00018191204 -0.048902832
000390 61 2b c4 c1 7f 8f 81 bc 3a 89 8b bc 1d 0c 51 be
       -24.521181 -0.015815495 -0.017033208 -0.20414777
0003a0 f9 66 06 bc ba 1b a1 bc 48 06 56 c0 25 e3 0f 40
       -0.0082032615 -0.019666541 -3.3441334 2.2482388
0003b0 59 b0 80 bd f8 70 49 3d 97 de c5 bb 2f 0c b3 40
       -0.06283636 0.04918 -0.0060384977 5.5952373
0003c0 f7 aa 44 bf 23 46 27 3b 0b 37 17 bd 1e eb 3a bc
       -0.7682337 0.0025523982 -0.036917727 -0.011408595
0003d0 7b c3 93 3e 54 45 3a 3e 49 e0 8c c0 ff 39 db bd
       0.28860077 0.18190509 -4.4023786 -0.10704421
0003e0 9a 0e 51 bf 0d 29 19 38 ac 6d 87 3a 78 6a 1a bb
       -0.81662905 3.6516274e-05 0.0010332367 -0.0023561995
0003f0 a4 46 6d c0 da ee a4 b9 87 05 d4 bf be 85 06 bf
       -3.7074366 -0.00031458476 -1.6564187 -0.52547824

hiddenLayer1.bias f4 [150]
000000 c3 7c 9e c0 36 5a 6c bf 20 0c 7c bf f2 54 42 c0
       -4.9527297 -0.9232515 -0.98456 -3.0364347
000010 fe c5 74 bf d6 58 2a bd b8 f5 dd bd bf c4 cf be
       -0.9561461 -0.041588627 -0.10837883 -0.40579793
000020 3a 2e 9d bd 47 e0 4c bf ff 84 98 3c 56 d9 05 c0
       -0.07674833 -0.8002972 0.018618105 -2.0913901
000030 15 c1 40 bf b8 cb 0d c1 8c 4b 87 bc a8 2f 8e bf
       -0.7529462 -8.862236 -0.016515516 -1.1108294
000040 b4 21 8e bf b6 10 80 bf 9e df af bf 14 a1 3f bd
       -1.1104035 -1.00051 -1.3740118 -0.046784475
000050 a0 16 f2 bf 35 d5 3a c0 51 49 2f c0 c4 50 b3 c0
       -1.8913155 -2.9192631 -2.7388499 -5.603609
000060 d3 20 f6 c0 34 99 2c c0 7e 4c 0e 3f c7 60 83 bf
       -7.691507 -2.6968508 0.5558547 -1.0263909
000070 84 31 b5 bf dd 41 a9 be f2 fc 05 40 4c 10 b6 be
       -1.4155736 -0.33058062 2.0935636 -0.3555931
000080 b4 7a 46 c0 be d3 b9 bd a1 4c 85 bd 7f f5 19 c1
       -3.1012392 -0.0907359 -0.065087564 -9.622436
000090 dc af 84 bf 89 90 62 be 45 79 08 bd 6f 5b 0a c0
       -1.0366168 -0.22125448 -0.033318777 -2.1618307
0000a0 65 e0 96 bf 42 e9 3d c0 45 1b 03 bd be d1 a0 bd
       -1.178723 -2.967362 -0.032008428 -0.07852505
0000b0 61 70 b8 c0 7e 34 7e bf d8 66 16 c0 4d 16 a4 c0
       -5.763718 -0.99298847 -2.350027 -5.1277223
0000c0 5a a0 98 bd 08 ac 49 c0 a2 fe ee c0 4e 09 f6 bf
       -0.0745246 -3.151125 -7.468583 -1.922159
0000d0 35 8d d4 bf 92 85 e2 be 51 0d a4 bf a6 00 56 c0
       -1.6605593 -0.4424253 -1.2816564 -3.3437896
0000e0 a0 e0 13 c0 ab e7 c8 bd 0f a2 72 bf 26 8a b7 bf
       -2.310585 -0.09809812 -0.9477853 -1.4339035
0000f0 c4 ef b3 bd 99 b2 74 bc 7e 74 e3 3f c9 43 19 c0
       -0.08785966 -0.014935159 1.7769926 -2.3947623
000100 bd c1 6a c1 b9 01 fe bf 9f b9 10 be 41 8f e5 be
       -14.672299 -1.9844276 -0.14133309 -0.44835857
000110 07 40 60 c0 0c a9 63 bd b3 61 bb bf da 4d 47 c0
       -3.503908 -0.055581138 -1.463919 -3.1141267
000120 7f ba 91 c0 fb 5c df bc 4b 1e db bd 2d 15 99 bd
       -4.5540156 -0.027266016 -0.10699137 -0.07474742
000130 82 bc 79 bf 88 91 25 be 4b b3 97 c0 4a 07 f1 c0
       -0.97553265 -0.16168797 -4.7406363 -7.53214
000140 77 b4 91 bd 1b 8f 12 c1 37 3b 11 c0 62 4d e9 bc
       -0.07114499 -9.159938 -2.2692392 -0.028479282
000150 95 29 af bf 43 f5 65 c0 1c 75 82 bf 83 03 b2 bf
       -1.3684565 -3.5930946 -1.0191989 -1.3907322
000160 8b 92 e1 be fc a7 bf bf 33 28 52 bd b2 f3 75 bf
       -0.44057116 -1.497314 -0.05130787 -0.96074975
000170 fa 41 4a be 95 52 ac bf 4f 38 58 c0 6f 44 12 be
       -0.1975173 -1.3462702 -3.3784368 -0.14283918
000180 6b 9c 12 bf b7 a3 f0 be 47 ba cc bf 08 66 12 bf
       -0.57269925 -0.46999905 -1.5994347 -0.5718694
000190 58 a0 a5 bd 8d 45 0b bf 8a d2 e6 bf da 44 e3 bf
       -0.08087224 -0.54403 -1.8033001 -1.7755387
0001a0 59 78 b8 c0 51 23 27 be e7 f7 06 c0 cd 1c 2c c0
       -5.764691 -0.16322066 -2.1088808 -2.6892579
0001b0 b9 02 a9 bf f1 67 6c bf f0 eb d9 be bf 7d 6e bf
       -1.3203956 -0.923461 -0.4256282 -0.93160623
0001c0 ca e3 ba c0 60 43 78 bf f3 39 50 bf 61 33 8f bc
       -5.8403063 -0.96977806 -0.81338423 -0.017480554
0001d0 8a 1a 4f c0 4d c2 4d be a8 66 29 c1 8d f7 15 bf
       -3.2359948 -0.20093651 -10.587563 -0.5858086
0001e0 44 30 74 be 31 a4 43 c0 86 7f 88 c0 2f 39 c6 bd
       -0.23846537 -3.0568964 -4.265567 -0.09678876
0001f0 40 49 b8 bc 57 50 ea bc 81 11 d3 c0 5e 30 31 c0
       -0.022495866 -0.028602762 -6.5958867 -2.768577
000200 d0 11 28 be b7 0c 16 c1 3d 97 83 c0 da b6 32 bf
       -0.16413045 -9.378104 -4.1122117 -0.6981026
000210 b7 1f 02 be 3a f1 bd be 48 1a 9e be 00 84 08 c0
       -0.12707411 -0.37098104 -0.30879426 -2.1330566
000220 6c ee 29 bf 65 ff 23 c1 cb fd 83 c0 20 40 fc bd
       -0.6637943 -10.249852 -4.1247306 -0.123169184
000230 9a 45 ab 3f 70 73 be c0 80 fa d0 bf 69 ca 09 c0
       1.3380616 -5.9515915 -1.6326447 -2.1529791
000240 51 9b 40 c1 79 b3 78 bc ab 6b 0a c0 06 5b 8a bf
       -12.037919 -0.015179508 -2.1628215 -1.0809028
000250 49 bc d6 bd 90 8d 3a bd
       -0.10485131 -0.04554516

hiddenLayer2.weight f4 [150, 150]
000000 e4 df a5 3e 60 e8 85 3f 2e e7 29 3f 17 43 24 40
       0.32397377 1.046154 0.6636838 2.5665948
000010 cf e7 5b bd eb a0 8a 3c 7c d8 94 be 4e 7d e4 bd
       -0.053687867 0.016922435 -0.29071414 -0.111567125
000020 98 68 ca bf df e3 a0 bf 1e 37 04 c0 7a 7a a4 c0
       -1.581317 -1.2569541 -2.065864 -5.1399508
000030 35 3b de be 0e 3a 54 41 aa 06 46 3d 28 9d 08 bf
       -0.43404546 13.2641735 0.0483462 -0.533648
000040 ec 3a 02 bf 3d 1b e3 c0 89 bb 99 3f 0a 44 ff bd
       -0.5087116 -7.097075 1.2010356 -0.12464149
000050 6a 4f 83 bf f9 62 e0 bf 99 4d 03 be 63 76 5e 3e
       -1.025861 -1.7530204 -0.1282257 0.21724848
000060 93 06 a3 be de ce 81 3f 2b 22 00 be 11 66 0c c0
       -0.31840953 1.0141256 -0.12513034 -2.1937296
000070 99 1e 78 bd 9f 90 a0 c0 82 d1 1a bf 63 ff e2 bf
       -0.060576055 -5.017654 -0.60475934 -1.7734188
000080 ab 7c b2 c1 b9 33 35 3f 43 5d 94 be 08 5c e3 be
       -22.310873 0.7078205 -0.28977403 -0.44406152
000090 17 b3 bc c0 81 0a f2 be 8d 36 8b 3d 6b c6 e6 40
       -5.8968616 -0.4727364 0.06797514 7.211721
0000a0 54 23 b7 be 53 c6 2b c0 ba 6c 34 3c 86 29 c5 bf
       -0.3576914 -2.6839797 0.011012251 -1.5403297
0000b0 0e 4b 5a c1 4c 87 7a bf 50 26 0e c0 7b b5 d3 3e
       -13.643324 -0.97862697 -2.2210884 0.41349396
0000c0 91 3d 36 3f 04 aa a6 c0 12 39 d6 c1 6c 6e 9b 3d
       0.7118769 -5.208254 -26.777866 0.07589421
0000d0 3f 85 fe 3f 9d 41 9b 3f 30 16 97 40 22 20 57 c1
       1.9884413 1.2129399 4.7214584 -13.445345
0000e0 48 64 e8 be 79 cb ad 3e c3 d9 1a 40 7f 65 90 c0
       -0.4538901 0.339443 2.4195411 -4.5123897
0000f0 65 bb 4c 3e a9 2a 0f c0 bd da 94 3e 0c 4a a3 3f
       0.1999336 -2.2369788 0.29073134 1.2756972
000100 df 34 a3 3f e8 64 a5 40 61 6e bd 3b 1e cb b7 3f
       1.275051 5.1685677 0.0057809805 1.4358861
000110 df cf 4b 3f 94 8d 43 3c 01 59 2c 40 d9 fc 75 c0
       0.7961406 0.01193561 2.6929324 -3.8435576
000120 b0 18 52 bf 96 c5 0e bc 6f df ca 3c c8 ec 44 3f
       -0.8206892 -0.0087141 0.024764745 0.769238
000130 13 ca 4f c0 d1 09 67 3e 09 bb f6 3e 8d 41 0e bf
       -3.2467086 0.22562338 0.48189571 -0.5556877
000140 35 11 74 3e 86 af 6b 3e da a0 ea c0 7f ab ab bd
       0.23834689 0.23016176 -7.332135 -0.0838232
000150 b0 60 85 c1 f6 f5 1d 3d be 18 07 bf 50 73 25 bf
       -16.67221 0.038564645 -0.5277213 -0.6462908
000160 77 d6 26 40 2d d7 a5 c0 30 04 0b c1 a7 28 82 3f
       2.60684 -5.1825166 -8.688522 1.0168656
000170 c3 bd 0a c0 b3 13 40 c0 76 d2 aa 3e d9 fa 99 bf
       -2.1678321 -3.0012023 0.33363694 -1.2029678
000180 18 f0 65 40 a7 fb 10 bf 28 ca da 3e e2 ef 75 3e
       3.5927792 -0.5663399 0.42732358 0.2401729
000190 c6 a4 7c 3f 8a e2 50 3f aa 9b bc 3f b5 dc 03 3e
       0.98688924 0.8159567 1.4735005 0.12877162
0001a0 50 1c 1c bf cf e5 c2 3e f5 e4 85 3f 64 7d 7d 3e
       -0.609807 0.38065955 1.0460497 0.24754864
0001b0 4c 20 5a c0 16 b2 71 bf b8 76 90 bf 5f 15 01 c0
       -3.4082212 -0.9441236 -1.128623 -2.0169294
0001c0 81 8f 81 c1 b0 85 27 be 13 57 b4 c1 d8 e3 2d 3c
       -16.19507 -0.16359591 -22.542517 0.010613404
0001d0 f5 d3 6d 40 d6 97 29 bf 88 5e 24 3f f6 b2 22 c0
       3.7160618 -0.6624731 0.64206743 -2.542173
0001e0 ee 86 54 be ef 84 f2 c0 8a a4 a2 bf 9f e8 0f 3e
       -0.20754597 -7.5787272 -1.2706463 0.14053582
0001f0 58 49 0f bd 2e 00 74 be d8 eb 0e c0 7f be bb bc
       -0.034982055 -0.23828194 -2.2331448 -0.022917984
000200 53 7a 14 3e 4b 2c f4 c0 5c f2 94 c0 b8 f3 99 c0
       0.14499788 -7.630407 -4.654585 -4.811001
000210 42 b5 8a bd 79 41 e2 c0 04 ff f5 c0 48 c9 09 c0
       -0.067728534 -7.0704923 -7.68738 -2.1529102
000220 e4 e2 a8 bd ba 3c 0c c0 ba 4c 38 40 d7 7a c4 3e
       -0.08246401 -2.1912065 2.879683 0.3837497
000230 dc 0f 04 bf 05 61 53 3e 10 60 5e c0 d8 f0 c1 bf
       -0.515867 0.20642479 -3.4746132 -1.5151625
000240 65 59 13 bf db aa 07 3d d2 3c b1 3e 5a 90 5b bf
       -0.5755828 0.033121925 0.34616715 -0.8576714
000250 b6 b2 58 3d 86 2f 6d 3e 9a d9 45 c1 75 4e ac 3f
       0.052904807 0.2316266 -12.365625 1.3461443
000260 37 95 a9 c1 b1 bd bb bf 1f 64 aa 3e 4c 1c 30 bd
       -21.197859 -1.4667264 0.3327951 -0.042995736
000270 50 cd 0a be 67 37 96 bf c0 60 dd 3e 90 a0 38 40
       -0.13554883 -1.1735657 0.43237877 2.8848
000280 ef 1e 94 c0 58 33 92 c0 bf e2 af bf 14 b2 d8 c0
       -4.628776 -4.5687675 -1.3741072 -6.771738
000290 11 7f 96 3d 3d 91 b9 3e 44 23 72 40 c2 53 0a 40
       0.07348455 0.3624362 3.7834024 2.1613622
0002a0 57 44 91 40 02 47 15 be 54 2b 33 c0 ff 26 88 c0
       4.5395923 -0.14577869 -2.7995195 -4.2547603
0002b0 00 4e fc bf 78 2e f6 3d 7a a1 8d c0 a1 5e 95 c0
       -1.9711304 0.12020582 -4.4259615 -4.6678014
0002c0 87 45 12 40 5a df 96 c0 36 b1 00 40 b4 df 21 3d
       2.2854936 -4.7147646 2.010816 0.03951998
0002d0 8b c1 22 c0 b3 45 3e bf 09 af 9e 40 33 aa 87 3f
       -2.543063 -0.743251 4.9588666 1.0598816
0002e0 2d dc a2 3f 8a 5e 36 c0 2e 11 0f c1 f3 33 6c 3e
       1.2723442 -2.8495202 -8.941694 0.23066692
0002f0 4f d7 42 3d af 76 ab c1 c4 09 b5 c1 fd 36 43 40
       0.047568616 -21.432951 -22.629768 3.0502312
000300 47 26 41 be b8 2a 63 bf 10 7c 19 c1 f1 0a 63 3c
       -0.18862258 -0.8873706 -9.592789 0.013857589
000310 02 c5 a4 bf 23 ad 77 40 f1 82 ff 3d 6e 9e 01 c0
       -1.2872622 3.8699424 0.12476147 -2.0252948
000320 73 da 32 c0 32 6c 13 c1 ff 79 84 3e bf 7f b8 3e
       -2.794583 -9.213915 0.25874326 0.36034963
000330 ad 3d 09 3f 05 ec 05 c0 14 22 9e c0 ea 38 30 3e
       0.53609735 -2.0925305 -4.94166 0.17209211
000340 06 a8 98 41 53 dc 0d c0 e9 0a 33 bf 73 be b8 c0
       19.082043 -2.2165725 -0.6993852 -5.773248
000350 28 e8 b2 bf a9 7d d6 be 8a a2 0a 40 0d d8 d8 bf
       -1.3977098 -0.41892746 2.1661706 -1.6940933
000360 f8 a1 fb be 9b 34 41 3f 7b 79 ae c0 e7 57 00 3f
       -0.4914701 0.75470895 -5.452329 0.5013413
000370 67 b5 d4 c0 b8 53 57 40 60 d6 97 bf a7 de 84 3d
       -6.647144 3.3644848 -1.1862297 0.0648778
000380 c2 b3 74 be 31 91 6d 3e ef ec 91 40 ca a9 fa be
       -0.23896697 0.23199917 4.5601726 -0.48957664
000390 9e ff 86 3f 18 1b 41 c0 59 d0 12 3e c1 1e 04 c1
       1.0546758 -3.0172787 0.14337291 -8.257508
0003a0 dc 95 fb bf 20 2d 2f bd f1 1b 40 3f 69 bf e0 3e
       -1.9655108 -0.042767644 0.75042635 0.43896034
0003b0 84 44 28 c0 b7 3d 29 c0 43 83 db bf 83 cb 1b c1
       -2.6291819 -2.6443918 -1.7149433 -9.7371855
0003c0 cd 74 f2 bf 3a a1 88 40 ef 09 a2 3d 39 38 18 c1
       -1.8941895 4.269681 0.07912051 -9.513726
0003d0 53 56 85 be c0 26 09 3f c3 53 39 bf 12 55 eb bd
       -0.26042423 0.5357475 -0.72393435 -0.11490835
0003e0 ef 8b 88 c0 56 7d 5e be 67 a6 40 3e 3d 65 e9 3d
       -4.2670817 -0.217275 0.18813477 0.11396263
0003f0 7f dc 78 c0 0b af cf 3f 7a 73 a4 3e 91 15 d5 3d
       -3.888458 1.6225294 0.32119352 0.10404504

hiddenLayer2.bias f4 [150]
000000 5c 48 2b bf 83 53 49 c0 11 cf 59 40 52 74 1d 3f
       -0.66907287 -3.1457222 3.4032633 0.61505616
000010 f7 c0 fc bf 59 5b 9d bf 80 68 a8 c0 69 53 be be
       -1.9746388 -1.2293502 -5.2627563 -0.37173012
000020 35 f0 24 40 6b a2 a0 be 84 de 8f 3e 9f 59 95 bf
       2.577161 -0.31373915 0.28099453 -1.1667975
000030 3e 7e 95 3f 01 bf 85 bf 69 58 92 bd 60 82 ee bd
       1.1679151 -1.0448915 -0.07145769 -0.11645961
000040 ab bf d3 3f 90 cb b3 bf c1 1b c7 bf 8b 87 33 bf
       1.6542867 -1.4046497 -1.5555345 -0.701287
000050 0f a1 c5 bf a9 68 22 be f0 ab af be 71 2b 46 c0
       -1.5439776 -0.15860237 -0.34310865 -3.0964015
000060 c4 9b 1c be e3 99 8f bf d7 e0 53 bf 06 74 11 40
       -0.15293795 -1.1218837 -0.82764953 2.2727065
000070 2d 8b 0d bf f3 b0 0c c0 5a 07 8c bf 27 71 40 c0
       -0.5529049 -2.1983001 -1.0939744 -3.0069063
000080 e9 81 2d c0 3a 96 cd be 03 4f f7 3f 72 fd 34 c0
       -2.711054 -0.40153676 1.9320987 -2.827969
000090 f4 a6 80 bf 2d 99 8a bf ab 73 81 c0 da 26 34 c0
       -1.005095 -1.0827996 -4.0453696 -2.8148713
0000a0 e6 54 32 bf 4e 85 23 c0 ee b2 44 bf 0c 5f 9a bd
       -0.69660795 -2.5550113 -0.76835525 -0.0753766
0000b0 8f 03 a9 be ff b5 ea be 5d d2 89 c0 77 ff 93 c0
       -0.33010527 -0.45841977 -4.306929 -4.6249347
0000c0 ec 09 a0 be 8f 10 39 bf 86 45 7b bf d3 60 8c bf
       -0.3125757 -0.7229089 -0.9815296 -1.0967048
0000d0 b4 69 90 be 60 a8 44 bf 91 2d bf bf 00 d3 6d bf
       -0.28205645 -0.7681942 -1.4935781 -0.92900085
0000e0 9a 86 1b bf a1 f2 e4 bf 21 81 b8 bf a4 d0 fc bf
       -0.6075226 -1.7886544 -1.4414407 -1.9751172
0000f0 80 44 08 bf 24 17 28 c0 75 d5 38 c0 9f d8 6f be
       -0.5322952 -2.6264124 -2.8880284 -0.23422478
000100 41 7e b7 c0 a1 fc c4 be 35 80 16 c1 2c 2b 4c be
       -5.734162 -0.3847399 -9.406301 -0.19938344
000110 9f 48 7b c0 7c 14 81 3f 45 00 ae 40 d8 75 72 bf
       -3.9263074 1.0084376 5.437533 -0.94711065
000120 8d 98 7c bf 88 09 b5 3f 72 57 88 bf be fc fa be
       -0.98670274 1.4143534 -1.0651686 -0.49020952
000130 20 fe 63 3f 54 b1 cf bf 57 65 27 bf 03 db 8a bf
       0.8905964 -1.6225991 -0.6538901 -1.0848087
000140 82 de 3e c0 4e c5 19 bf 97 aa f2 be 2c 10 c1 c0
       -2.9823308 -0.6006669 -0.47395775 -6.033224
000150 bc ce 3c bf ff 34 b1 bf ed b7 d4 3e 1f 88 fb bf
       -0.7375295 -1.3844298 0.41546574 -1.9650916
000160 e3 53 9a bf f8 d6 95 bd 10 f1 81 3e 0a 43 c4 40
       -1.205685 -0.07316393 0.2537923 6.1331835
000170 80 5d 84 bf b5 24 ae bf 85 53 52 bf 9d 1b dc bf
       -1.0341034 -1.3604952 -0.8215869 -1.7195927
000180 92 93 1d c0 22 85 a8 3e 55 b1 08 c0 66 0a 32 41
       -2.462132 0.32914072 -2.1358235 11.127539
000190 08 6d ff be 2e 77 cb be 5d c9 ff bd 79 cd 7d bf
       -0.49887872 -0.39739364 -0.12489579 -0.9914165
0001a0 24 da 51 bd 8c 6a c2 3f 16 68 6a bf ec 14 0d be
       -0.051233426 1.5188766 -0.9156507 -0.13777512
0001b0 4f 8f 63 40 ef 26 8e c0 a4 6d 62 bf 49 4f 6b c0
       3.5556219 -4.4422526 -0.8844855 -3.6767142
0001c0 7d 89 d9 bf 1d 07 92 40 72 9c 1b 40 82 09 a6 bf
       -1.6995083 4.5633683 2.4314237 -1.2971652
0001d0 9f 5b d2 bf 05 2f f8 bf 47 cb d0 be f0 a4 a7 b9
       -1.643421 -1.9389349 -0.40780088 -0.0003197561
0001e0 5b 47 02 be e9 62 b9 bf bb 0e ce be a9 62 9b bd
       -0.12722532 -1.448331 -0.40245613 -0.07587177
0001f0 5f 5f 2b bf 42 7a 51 40 20 98 59 c0 42 4f 92 bf
       -0.669424 3.273087 -3.39991 -1.1430438
000200 4c d0 e1 3f 7c fd 6a c0 76 7e 97 bf ef f7 d4 bf
       1.7641692 -3.6717215 -1.1835468 -1.6638163
000210 1c ec 4d 40 45 71 82 bf 83 a3 c2 be cc 37 06 bf
       3.217536 -1.0190817 -0.38015375 -0.5242889
000220 4c 0b 9c bf 54 1b 55 bf 88 22 89 bf 26 80 ba bf
       -1.2190948 -0.83244824 -1.0713663 -1.4570358
000230 93 8e 30 c0 e1 b3 1a c0 48 51 cf bd 1b cc 1f bf
       -2.758702 -2.417229 -0.10122925 -0.62420815
000240 46 11 1c c0 59 6a 08 c0 33 3e 56 bf 09 06 00 be
       -2.4385543 -2.131491 -0.8368866 -0.12502302
000250 aa 02 69 bf 44 17 cd be
       -0.9101969 -0.40056813

hiddenLayer3.weight f4 [150, 150]
000000 be bd 2f 3e bd 3b 88 3f db 2d 70 40 49 b6 9e be
       0.17162225 1.0643231 3.7527988 -0.30998448
000010 c9 50 46 bf db 3f 58 be 53 2a 67 c0 55 50 d4 be
       -0.7746702 -0.21118109 -3.6119583 -0.41467538
000020 6b 03 8a 3f 6e 6f 55 c0 e9 59 45 be 45 b4 d0 bf
       1.0782293 -3.3349261 -0.19272579 -1.6305014
000030 d3 30 d2 bf 35 4a 8d bf f3 1c 40 bc a1 b7 6b c0
       -1.642115 -1.1038271 -0.011725652 -3.6830828
000040 b7 3e a8 3f 69 e4 56 3f 32 79 85 3f 61 a1 7a bf
       1.3144139 0.83942276 1.0427611 -0.97902495
000050 44 9e ad c0 e2 dc 78 bd f8 c6 22 3f c5 d4 b6 c1
       -5.4255695 -0.060757525 0.6358485 -22.853891
000060 ce 95 8f 3d 2f 7b 08 c0 5e 9d 10 c0 77 7b 04 c0
       0.07010995 -2.1325185 -2.259605 -2.0700357
000070 ab 3e fc bd 55 06 21 c0 86 6e 53 40 8c 32 cf 3f
       -0.123166405 -2.5160115 3.3036208 1.6187301
000080 e8 a7 0a c2 06 70 35 40 a6 f8 1e bf c4 c5 a3 bf
       -34.66397 2.8349624 -0.6209816 -1.2794728
000090 11 31 0b c0 ae bf 14 40 23 45 c9 40 cc 49 4f 3f
       -2.1748698 2.3241992 6.2896895 0.8097198
0000a0 6b a2 79 40 8b 30 36 40 6b 91 06 bf f9 64 2a 3d
       3.9005382 2.8467128 -0.5256564 0.0416002
0000b0 3a a0 10 be c2 2f 28 3e 9c 5a 47 c1 26 84 e3 c1
       -0.14123622 0.16424468 -12.459621 -28.439526
0000c0 3a 66 0a 3d fc 7a b3 3f 51 df 85 40 d6 9e 0a bf
       0.033788897 1.4021907 4.1835103 -0.54148614
0000d0 9c 4b 6d 3d dd 4b 7e 3d 81 92 a5 bc 8a fc 17 bf
       0.057933435 0.062084068 -0.02021146 -0.5936972
0000e0 ef 93 08 40 c3 06 aa 3d 1e ff ed c0 aa 7d 6b 3f
       2.1340292 0.08302071 -7.437392 0.91988623
0000f0 a9 c8 84 bf d7 eb 6c c0 53 a9 b3 3e bd d0 8a c0
       -1.0373737 -3.7018945 0.35090122 -4.3379807
000100 45 ad 94 c0 fb 35 9f 3f 67 49 cd 3f fb c3 ae be
       -4.646151 1.2438349 1.6038026 -0.34133896
000110 2d 88 06 c0 ad d7 f4 3f 85 cc 5f bf af 5f 67 3e
       -2.1020615 1.9128319 -0.8742145 0.22595094
000120 4b d7 40 3f e5 46 0f c0 69 db 25 c0 c0 fe c8 3d
       0.7532851 -2.238702 -2.5915167 0.09814215
000130 c3 15 7b c0 bd 48 a8 c0 8a 78 fc bf 9c 0a 4b c0
       -3.9232032 -5.258879 -1.9724286 -3.1725225
000140 5c 74 e9 bf 16 9f a8 bf 8b 12 aa 3d 2b 28 d5 bc
       -1.8238635 -1.3173549 0.08304318 -0.02602013
000150 dd f5 39 3e 94 2c c8 bd a8 51 11 40 ca 9a 3e 3f
       0.18160196 -0.097741276 2.270609 0.7445494
000160 d0 b3 6d 3f 79 c1 f5 3d 4b a5 80 bf 27 89 e3 bf
       0.928525 0.119997926 -1.0050443 -1.777623
000170 91 9c 9c bf f7 f2 bd 3e ab 43 0b c0 ab 06 16 3f
       -1.223528 0.3709943 -2.1760051 0.58603925
000180 b6 6d e4 c0 87 02 70 40 03 95 62 40 25 77 c0 be
       -7.1383924 3.7501543 3.540345 -0.375909
000190 a8 a6 1f bf 1c bf f6 be 0c 10 2f 3f 46 42 50 3f
       -0.6236367 -0.4819268 0.6838386 0.81351125
0001a0 a0 71 39 bd 66 4c 19 40 11 a5 e0 c0 82 b5 ee 3e
       -0.045274377 2.395288 -7.0201497 0.46622854
0001b0 87 4f 2d 3f fa 14 d7 bf 3d 35 f8 3f e3 1c 1c bf
       0.67699474 -1.6803277 1.9391247 -0.6098158
0001c0 b5 20 8f c0 09 a4 14 bf 25 cc a3 3e 7e 9e 09 c0
       -4.4727426 -0.580628 0.31991687 -2.1502986
0001d0 29 60 fe c0 c9 4a e1 be 5e a0 15 3f d3 30 e3 3f
       -7.9492383 -0.4400237 0.58447826 1.7749275
0001e0 37 ba 3d bc ae 2e 1a 3f 4d b8 49 c1 3c b4 31 3d
       -0.011580042 0.6022748 -12.607495 0.043384776
0001f0 05 ab 0f 3d 7d 3c 47 bf a2 90 11 41 d0 2b 85 3d
       0.035075206 -0.7782667 9.097811 0.06502497
000200 a0 c5 31 bf 78 97 27 c0 b8 1f f8 bf 18 7e a0 bf
       -0.69442177 -2.61862 -1.938468 -1.2538481
000210 7b b3 79 3f 37 36 93 c0 e2 e2 c0 bf 3e 67 2e 40
       0.9753949 -4.600368 -1.5069239 2.7250514
000220 09 75 44 3f de ff 5f 3f d7 d6 30 40 2c 63 82 40
       0.7674108 0.874998 2.7631128 4.074606
000230 48 c1 1c c0 54 e1 bf c1 e1 e1 01 bb 5a 12 81 c0
       -2.449297 -23.985023 -0.0019818472 -4.03349
000240 bb 4e 2e bf dd 0d f1 3f 29 d4 70 3f f1 de 07 bc
       -0.68088883 1.8832356 0.9407373 -0.0082928995
000250 4d 70 5c 3f fd fe 3a bd 44 6f 45 bf a2 4a 90 be
       0.8610886 -0.045653332 -0.771229 -0.2818194
000260 1a 7a 3e 40 e2 4c 38 bd b4 50 90 3d 72 00 30 3d
       2.9762025 -0.044995196 0.07046643 0.042969175
000270 60 89 71 c1 e4 0f 1f 3f a3 36 c5 bf b8 b1 e0 3f
       -15.096039 0.6213362 -1.5407299 1.7554235
000280 53 34 93 bd bc 2e 62 bf 3e 4e a8 3f 5c c8 79 bf
       -0.071877144 -0.8835256 1.3148878 -0.9757135
000290 fd 53 a9 bc 86 af 46 3d 19 10 a7 be fb eb 80 bf
       -0.020669932 0.048507236 -0.3262947 -1.0072016
0002a0 87 ab dd be ff e8 b1 bf 07 a6 88 bf 2f a6 68 bd
       -0.43294927 -1.389923 -1.0675668 -0.05679911
0002b0 52 3c 42 bf 8e a8 82 3f 3b 7d ea 3d 01 1a 1a c0
       -0.7587329 1.0207689 0.11449667 -2.4078372
0002c0 63 b5 36 bf 00 0e 5a bf f5 54 ca bf b8 c0 8f bd
       -0.71370524 -0.8517761 -1.5807177 -0.0701918
0002d0 b5 d4 6a be f6 58 0a 3f c6 67 64 c0 6e f8 56 40
       -0.22932704 0.54041994 -3.5688338 3.358913
0002e0 da b2 08 3f fa 4e 17 40 2c e2 e9 3f 6d 44 51 40
       0.53397906 2.3641953 1.8272147 3.2698014
0002f0 c3 ec 7a 40 b5 a5 98 be 93 59 e7 be 40 2b b5 c0
       3.9207008 -0.29813924 -0.45185527 -5.6615295
000300 d9 c5 67 c0 7e 07 99 3d 8f 36 25 bf 23 59 24 3e
       -3.6214507 0.07472132 -0.64536375 0.16049628
000310 8e 25 21 c1 97 61 2d 41 04 cd 85 bf 37 63 b5 bf
       -10.071669 10.836326 -1.0453191 -1.4170903
000320 a6 13 4e 3f 05 b5 c2 bf 0c fd bc bf 7a f4 c2 bd
       0.8049873 -1.5211493 -1.4764724 -0.095192865
000330 12 e9 16 40 c8 f8 dd 3f 92 43 5c 3f d7 d1 fc 3d
       2.3579755 1.7341547 0.86040604 0.12344711
000340 cb 86 30 bf f7 bb ba bd 5f cb cd be 7c b2 a4 be
       -0.6895568 -0.09117883 -0.40194222 -0.32167423
000350 57 91 15 c0 c0 bf 1b bf f4 d8 36 c1 06 a6 63 bf
       -2.3369958 -0.6083946 -11.427967 -0.88925207
000360 eb bb 79 c0 ec 36 10 bf 8f 50 2f 40 ee 0e 10 3e
       -3.9020946 -0.56333804 2.739292 0.14068195
000370 65 26 0f c0 16 fb b5 bd cf b8 b0 bf f7 61 2c c0
       -2.2367184 -0.088857815 -1.3806399 -2.6934793
000380 e2 57 7e c0 4f e7 63 3f be 6e c9 3f 17 cd c6 bf
       -3.974114 0.89024824 1.5736921 -1.5531338
000390 24 20 cd bf b5 45 d4 be 9e d3 23 40 f0 09 96 3f
       -1.6025434 -0.41459432 2.559791 1.1721783
0003a0 5e 58 d1 bd 96 0f b9 bf d0 a6 22 40 ad 37 dd be
       -0.10221933 -1.4457881 2.5414314 -0.4320654
0003b0 99 54 d3 bf 0b 2c 68 3f 40 3a ca bf e0 8a b5 3d
       -1.6510192 0.90692204 -1.5799026 0.08864379
0003c0 6a 01 4c 40 4f bf 32 bf 9b e5 94 be 9a 37 36 3f
       3.1875863 -0.69823164 -0.29081425 0.7117859
0003d0 fc 71 c8 3d 68 c1 4a 3f a3 9d 69 3f 34 d7 54 40
       0.09787366 0.79201365 0.9125616 3.325635
0003e0 35 a6 80 40 77 fd bc bf ec 94 b4 c0 46 4e 10 bd
       4.020289 -1.4764851 -5.643179 -0.035230897
0003f0 2f 74 a1 be b9 e8 73 3f 0d 65 68 bd d3 4a 76 be
       -0.31533954 0.9527698 -0.056736995 -0.2405198

hiddenLayer3.bias f4 [150]
000000 80 e6 45 41 b0 98 4c bc fa 35 92 be 76 9d 22 41
       12.368774 -0.012487575 -0.28556806 10.163443
000010 0e f6 ae 3f b4 45 10 41 76 c7 b6 c0 92 cf bb bc
       1.366884 9.017017 -5.7118483 -0.022926126
000020 52 d3 2d bf e7 42 a7 bf 74 10 6e be 29 19 f7 3d
       -0.67900574 -1.3067292 -0.23248464 0.12065346
000030 2e 8e 29 40 30 8d 87 be fe 2b a7 40 8f 96 10 c1
       2.649303 -0.26474905 5.22412 -9.036757
000040 fe 6e 38 c1 a3 10 c7 40 97 59 d7 bf e8 69 db bf
       -11.527098 6.220781 -1.6824216 -1.7141695
000050 0a 66 bc 3f cd 48 c3 40 bb 55 92 3d 3c 5f e0 3f
       1.471864 6.102637 0.07145258 1.7529063
000060 6e c6 6a bf 5f 2f 89 41 5c 5b ec 40 1d 62 7f bf
       -0.9170903 17.14813 7.3861523 -0.99759084
000070 6f 71 10 c1 4b 55 f6 40 fb d0 97 be 22 90 3d c1
       -9.027694 7.6979117 -0.29651627 -11.847689
000080 2a 3f a1 bf ad b8 a9 bf bb fd d0 41 72 39 4c c0
       -1.2597401 -1.3259484 26.123892 -3.1910062
000090 34 c4 d2 3f e4 31 89 41 d3 63 d6 bf 60 98 43 c0
       1.6466126 17.14936 -1.6749214 -3.0561752
0000a0 d8 cd 80 3d 33 c3 74 be 2a d1 be bd c5 11 4f c0
       0.062892616 -0.23902588 -0.09317239 -3.2354596
0000b0 30 ce 84 bf 18 d4 b9 3e 65 c0 7d bf 35 d5 9f 41
       -1.0375423 0.36294627 -0.99121696 19.979105
0000c0 f5 58 34 c0 d3 37 a0 c0 2a ef 49 40 b2 cb f6 c0
       -2.8179295 -5.0068145 3.1552224 -7.712365
0000d0 6d 72 39 bf 85 6b c5 be 3a 6d 7e bb df 44 e6 40
       -0.72440225 -0.38558593 -0.0038822428 7.195907
0000e0 0b 2f a8 be c6 70 37 c1 b4 f5 b9 40 7c e6 23 c1
       -0.3284839 -11.465033 5.811243 -10.243771
0000f0 89 c6 ba bf 17 1f 1b bf 0a de 86 c0 62 8c 37 bf
       -1.4591838 -0.60594314 -4.2146044 -0.7169858
000100 55 de ac be 87 03 8a bf f5 cd 61 40 35 8d 55 bf
       -0.33763376 -1.0782326 3.5281956 -0.8341859
000110 2c 90 7c bf 03 1d a3 be 48 4b 1f 41 cd 13 4d 40
       -0.9865749 -0.31858072 9.955879 3.2043335
000120 15 f8 e6 40 6c 5e a1 41 e7 2c aa 41 42 24 36 c0
       7.2177835 20.171104 21.271925 -2.845963
000130 71 9a 45 c0 ef e0 46 bd 49 1d 23 41 16 33 08 bc
       -3.0875514 -0.048554357 10.19465 -0.008312961
000140 fe 5d 4e c0 8a 86 8d 41 be f7 54 41 3a 32 14 bf
       -3.2244868 17.690693 13.310484 -0.5788914
000150 ed 25 51 c0 0a 47 1d bf fa a5 51 bf 41 55 a3 bf
       -3.2679398 -0.6143652 -0.81893885 -1.2760392
000160 4d 94 2b be d8 7a 2a be d8 44 a9 40 42 db a8 41
       -0.16755791 -0.16648424 5.289654 21.10706
000170 6a 01 55 bf 4b 80 1f c1 77 c0 b4 bf b6 9e 17 be
       -0.8320528 -9.968822 -1.4121236 -0.14806637
000180 69 54 e7 be b1 48 c1 40 fa f5 f3 40 9b 0a 05 41
       -0.45181587 6.0401235 7.6237764 8.315089
000190 72 77 b3 c1 15 c2 35 41 3b 05 13 bf 47 4a 69 bf
       -22.433323 11.359883 -0.57429856 -0.91128963
0001a0 13 88 b6 41 19 c2 bc be ee 8b 11 c0 a4 a8 f5 3f
       22.816442 -0.36866835 -2.2741656 1.919209
0001b0 9d 8c a3 41 70 62 af 41 61 36 0d c0 b8 0b 09 3e
       20.443659 21.923065 -2.206444 0.13383377
0001c0 be ff a7 41 5d 9e ba bd d4 11 7f 40 a3 03 07 41
       20.999874 -0.09112237 3.9854631 8.438388
0001d0 9d 2e 66 be fb 58 82 be d3 14 d8 40 a0 14 8a bf
       -0.22478719 -0.25458512 6.752542 -1.0787544
0001e0 3c 1f 13 c0 f6 d3 cb c0 03 78 cc c0 49 c7 a3 be
       -2.2987814 -6.369624 -6.38965 -0.3198798
0001f0 1c 39 35 40 5f 9a ab c0 37 8f f1 bf 71 16 c0 c0
       2.8316107 -5.362594 -1.8871831 -6.0027394
000200 34 a7 0a be 51 8c 94 41 9d 53 f8 40 37 09 8b 40
       -0.13540345 18.568514 7.7602067 4.344875
000210 6b dc 84 ba bc a1 d2 be 49 1c 6d 41 b1 31 96 41
       -0.001013649 -0.4113902 14.819406 18.774263
000220 c6 13 39 40 da 51 85 c0 e7 58 3b 3e c1 5a cd be
       2.8918319 -4.1662416 0.18295632 -0.40108302
000230 ca 22 13 3f 9b 6c 3b c0 29 2a 3a bf 1d 69 a7 bf
       0.5747496 -2.9285038 -0.7272058 -1.3078953
000240 12 22 9a 41 0d a9 7d 40 d1 a2 cf 41 0d 25 7e c0
       19.266636 3.963443 25.9545 -3.9710114
000250 0a cb b5 bf 96 db 10 c0
       -1.4202588 -2.2634025

outputLayer.weight f4 [2, 150]
000000 2e cc b1 3f ae b6 07 3e b2 72 40 3d 61 bc 5b 3f
       1.3890436 0.1325328 0.046984382 0.8583432
000010 ce 1a 90 bf c2 8c 89 3f bf b5 5d c0 36 0c 87 41
       -1.125818 1.0746081 -3.464218 16.880962
000020 a6 c3 03 c1 f9 de d7 3f c5 ad 77 be 2b 23 a3 40
       -8.235266 1.6864921 -0.24187382 5.098043
000030 9d 68 3c c1 a8 58 bc bf da cf 37 c1 e3 96 18 c0
       -11.77554 -1.4714556 -11.488245 -2.3842094
000040 69 91 49 c0 64 ac 8e 3f bb a8 5f c1 2b 86 35 3f
       -3.1495001 1.114636 -13.978694 0.7090785
000050 36 f5 46 c0 c5 67 bf 3f a9 d9 73 c0 ec ae 6d 41
       -3.1087165 1.4953543 -3.81016 14.855206
000060 8f d1 70 c0 62 bd 0c 40 ac a0 d0 3f 29 e2 bd 3c
       -3.7627904 2.199059 1.6299033 0.02317913
000070 52 38 0c c1 f4 d7 8f 3f d2 64 59 bf 7b 12 52 bf
       -8.76375 1.1237779 -0.84919465 -0.8205945
000080 6a 86 ff 3e 9d 57 2e c0 0e 0f d7 40 f9 3e 84 c1
       0.49907237 -2.7240975 6.7205877 -16.530748
000090 28 2e 19 c1 b6 cf 08 40 35 9c d3 40 ec 20 83 c0
       -9.573769 2.1376777 6.6128182 -4.097769
0000a0 8d 02 0f 41 7c f4 fa 3c a8 0b a9 c0 6e b0 93 c0
       8.938123 0.030634157 -5.282673 -4.615287
0000b0 ab 58 88 40 40 c9 8e 41 2b 78 62 3e 50 14 08 40
       4.2608237 17.848267 0.22116153 2.1262398
0000c0 27 97 55 c0 93 a6 bd c0 6b 45 0b c1 37 5f d3 c0
       -3.3373506 -5.926584 -8.704448 -6.605373
0000d0 a6 92 c4 be 32 93 c2 be 09 fa 8a 3f 22 fb 38 41
       -0.38393134 -0.38002926 1.0857555 11.561312
0000e0 99 8e 96 be 21 3b 37 40 82 6c 22 40 db 91 91 bf
       -0.29405668 2.862984 2.5378728 -1.1372637
0000f0 4f 7b a5 3f 37 e5 5b bf c3 49 9f be 74 65 0e 3f
       1.2928256 -0.8589663 -0.31110963 0.55623555
000100 80 04 ff bf 06 94 b2 c0 95 b5 d4 c0 0a a9 ee bf
       -1.9923248 -5.5805693 -6.647166 -1.8645337
000110 8d 4b e3 3e 46 ad 18 40 30 ad d2 3f a7 a6 c1 40
       0.44393578 2.3855758 1.6459103 6.0515933
000120 24 90 d4 c0 a6 b4 95 40 b0 95 08 40 4f de e8 c0
       -6.6425953 4.678302 2.1341362 -7.2771373
000130 22 7c 1f c0 2d 3f 3d be 54 51 26 c1 f2 f9 78 bf
       -2.4919515 -0.18481131 -10.3948555 -0.97256386
000140 1d e6 42 c1 c9 43 02 40 ca e6 24 40 6d 8e a7 bf
       -12.18118 2.0353873 2.5765862 -1.309034
000150 d8 db df 41 b8 d8 92 c0 6c bb 00 bf 2b 49 c6 bf
       27.982346 -4.588955 -0.50285983 -1.5491079
000160 1f dd e4 bb a6 ac 63 bf ba 38 99 40 68 39 f5 3f
       -0.0069843675 -0.88935316 4.7881746 1.9158144
000170 35 a8 c0 bf ed 06 c1 bf 5c 60 d0 3e b4 f3 58 40
       -1.5051333 -1.5080239 0.40698516 3.3898745
000180 64 69 21 be ae 0a 52 40 8e 75 b0 40 1f 3e d8 3f
       -0.1576286 3.2819018 5.51435 1.6893958
000190 7d 0f f8 bf dd f8 48 c0 68 b6 b0 41 3b 03 c4 bf
       -1.9379727 -3.1401894 22.089066 -1.5313486
0001a0 57 74 20 40 82 9d 0f c0 98 90 3d c0 ae 30 cd 3f
       2.5071008 -2.2439885 -2.9619503 1.6030481
0001b0 b5 06 33 40 22 3c 0a 40 a5 57 13 c0 22 07 04 3f
       2.7972844 2.1599202 -2.3022244 0.51573384
0001c0 d5 7b 15 40 15 0c 15 3f f5 c9 ce 40 16 cb 47 40
       2.335683 0.5822156 6.462153 3.1217704
0001d0 fd b5 77 3c 81 92 8a 3c 78 ee 14 c1 d0 86 50 3f
       0.015119073 0.016915562 -9.30822 0.8145571
0001e0 7f 1e 36 c0 c5 db 4e c0 01 bb e0 bf b4 4d b2 bf
       -2.8456113 -3.2321637 -1.7557069 -1.3929963
0001f0 c7 97 24 c1 48 68 8b c1 92 48 2a c0 f3 ab 2b c1
       -10.287055 -17.425919 -2.6606793 -10.72948
000200 b8 3c f0 3f 4f dc a4 40 73 8b c8 c0 ba c4 af c0
       1.876853 5.151893 -6.2670226 -5.4927645
000210 0e 65 64 41 b9 b5 1e 40 be 79 08 40 13 bf 53 40
       14.274672 2.4798415 2.1324306 3.3085372
000220 32 14 7f c1 72 78 05 c1 cb 86 a4 41 c7 8d e5 3f
       -15.9424305 -8.341906 20.565817 1.7933892
000230 3f cb 2c c0 12 24 18 c0 bf 0f c7 3e 1d a1 a2 bf
       -2.6999052 -2.3772016 0.388792 -1.2705418
000240 ac ee 07 40 7c 06 9c c0 61 e9 cc 40 09 37 7f c0
       2.1239424 -4.8757915 6.4034886 -3.987734
000250 16 00 dc c0 fa 03 c1 c0 c3 20 ac 3f 52 7b 84 bd
       -6.8750105 -6.0317354 1.3447498 -0.06468834
000260 51 a6 74 3e 5f 8c 38 3f 03 1c 97 c0 42 f5 79 3f
       0.2389157 0.7208919 -4.7221694 0.9763986
000270 71 f9 08 c0 b7 68 89 41 9c b8 08 c1 01 e1 00 c0
       -2.1402247 17.17613 -8.545071 -2.0137331
000280 0c b0 3a bf 02 bb 93 40 0e ee 40 c1 8f 83 08 c0
       -0.72924876 4.616578 -12.058119 -2.1330297
000290 93 91 38 c1 8b 65 8e bf 11 ee 31 c0 9d 75 a7 3e
       -11.535541 -1.1124738 -2.7801554 0.3270692
0002a0 23 16 56 c1 59 3d 08 be a1 fd 38 c0 b0 2a 99 3f
       -13.380404 -0.13304652 -2.8904803 1.1966152
0002b0 11 34 6a c0 a8 ee 66 41 79 3f 58 40 3f 65 08 40
       -3.659428 14.433266 3.378874 2.1311796
0002c0 59 01 08 40 c0 99 93 3c b2 75 50 c1 02 41 3b 3f
       2.1250823 0.01801765 -13.028734 0.7314607
0002d0 ff b0 9c 3e 4e c0 3b bf 0d e9 e8 c0 c0 99 6e c0
       0.30603787 -0.7334031 -7.2784486 -3.7281342
0002e0 04 59 c0 40 7b 6b 81 c1 f4 14 1a c1 9e 73 f4 3f
       6.010866 -16.17748 -9.6301155 1.9097784
0002f0 b9 ff d8 40 5e f5 42 c0 13 2f 09 41 3d 54 90 bf
       6.781216 -3.046226 8.573993 -1.1275707
000300 4a 59 84 c0 a7 ea 88 c0 6f 8e 92 40 c0 8f 88 41
       -4.1358995 -4.278644 4.579887 17.07019
000310 49 3a af bf 0f cb 0a 40 69 f6 78 c0 c6 04 c6 c0
       -1.3689662 2.1686437 -3.8900397 -6.1880827
000320 65 0c f9 c0 e9 4b c9 c0 fa ff 2b 3e 67 14 26 bf
       -7.782763 -6.2905164 0.16796866 -0.6487488
000330 2a fe 8f 3f 9a f9 44 41 7d 7d 81 bf 77 e0 37 40
       1.124944 12.310938 -1.0116421 2.8730752
000340 b6 f9 25 40 1e 51 5b bf 2a a1 85 bf 9b 9f a1 3f
       2.5933661 -0.8567065 -1.0439808 1.2626833
000350 5b 8b 06 3f 7f 34 8c bf e4 f9 54 40 77 fb db c0
       0.5255639 -1.095352 3.327752 -6.8744464
000360 ec 93 c0 c0 c3 c3 c7 3f 77 29 6f 3f 83 9c 50 40
       -6.018057 1.5606617 0.93422645 3.2595527
000370 56 98 f0 3f 73 05 c0 40 6a c8 99 c0 f0 5c 9f 40
       1.8796489 6.000665 -4.8057146 4.980095
000380 30 d3 1a 40 5f a3 47 c1 65 87 fc bf c3 d3 8b be
       2.4191399 -12.4773855 -1.9728819 -0.2731
000390 81 03 1c c1 ea 8e 36 40 5e d0 4c c1 8a 7e f7 3f
       -9.750855 2.8524728 -12.800871 1.9335492
0003a0 32 aa 14 40 b0 1e 93 3f 3f 46 e4 41 68 82 c5 c0
       2.322888 1.149374 28.5343 -6.1721687
0003b0 a7 9c 8f 3f f7 a2 98 3f f2 07 6a 3c a9 49 6f 3f
       1.1219682 1.1924733 0.014284121 0.9347177
0003c0 0d 71 99 40 15 1a fb 3f 11 57 00 3e 10 18 cd bf
       4.79505 1.9617335 0.12533213 -1.6022968
0003d0 8a f6 d7 be 8d 28 f0 3f ba 21 11 3e a8 0c 66 40
       -0.42180282 1.8762375 0.14173022 3.5945225
0003e0 7f c7 b6 40 30 5d ce 3f 92 55 01 c0 5a c3 d2 bf
       5.7118526 1.6122189 -2.0208478 -1.6465867
0003f0 ae 1a b6 41 8c c7 5c 3f 34 a6 1d 40 6e bf 02 40
       22.763027 0.86241984 2.4632692 2.042934

outputLayer.bias f4 [2]
000000 8d 85 ad 41 97 70 ac 41
       21.69021 21.554976
