ftl/pretrain/weight/multi-workload_half_v1/multi-workload_half_v1_189.pth (torch, 187853 bytes, 8 tensors)

hiddenLayer1.weight f4 [150, 3]
-0.13017151 -2.4219573 0.4803351 -0.18583935 -0.056093186 -0.17990142 -17.434732 0.0064344066
-0.33143872 -19.48615 -0.017226433 -4.1409254 -0.097467944 -0.0647781 -0.0043153716 -0.05199418
0.0019968404 -0.015494185 -0.90747845 0.0014470748 -0.0933718 -0.14436457 1.5051302 0.21237783
-0.071243666 0.0027390188 -0.059612937 -0.12901682 -0.054397345 -0.032405287 -0.1268863 0.012128795
-17.66116 -2.5513804 -0.0022757843 -2.5512033 -9.566489 0.008184512 -0.5081385 -9.287496
-0.2616179 1.5421957 -0.07072528 -0.00082059036 -0.00051308284 -5.9615192 0.05172195 0.017510252
-13.309181 0.022383953 0.024274908 -28.428364 -0.004532972 -0.15851137 -5.97524 -0.0917208
1.2184983 -0.13342802 -0.00054509204 -0.042880233 0.03404525 -0.0107533345 3.6013393 -0.14898421
-0.17816298 -0.020828925 -1.3601938 -0.1272592 0.42869723 -0.06906901 -0.28312477 0.14037134
0.16092056 0.023660017 3.2309034 -17.065947 0.03163 -2.5775967 -0.023680076 0.008617688
-2.2634487 -0.3029221 0.010131539 -1.1058197 -0.58716017 0.0066640438 -1.7936234 -0.07749652
0.021814177 0.0011992735 -0.08715231 0.012987099 -0.015347001 -0.18710284 -0.021051602 -0.063532956
-7.000491 0.019370146 -3.3767679 -0.2366936 1.2166153e-05 -0.107495986 -0.05474721 0.00025279346
-0.07896355 -2.3867505 3.7635317 0.16888076 -24.105816 2.014639 -1.1557165 -0.8308473
0.001821509 -0.2428355 -0.0165612 -0.000701565 -0.027785556 -15.944565 -0.083825916 -0.75511444
-0.07910349 -0.017302712 -4.42666 -0.100360535 -0.6946237 -0.16700758 -0.046215713 5.3387153e-05
-0.039708618 -0.025257256 0.00039499707 -0.09813017 -0.83731306 -0.23976567 -3.0530756 -6.8324385
0.00066425296 -0.94788814 -0.35211474 -0.036475662 0.023624994 -28.693068 -0.14335257 -3.3279548
-0.3978987 -0.0026509615 -0.011454908 -4.723158 0.13893378 -2.2598693 -1.849845 0.29855797
1.4810526 -0.024544133 -0.1393107 -0.008206935 -3.1994145 -0.0052826395 0.0015866638 -0.36808792
-0.0069542513 -0.15949765 -21.462168 0.0208555 -0.05265803 -1.9990804 0.020253226 -4.166084
-0.32524037 0.11016359 2.2701213 -0.34621555 -0.0007205304 -0.10739783 -56.067905 -0.014778719
0.037449364 -8.62444 0.0314412 0.020296017 -0.031215843 0.004612392 -0.021948012 0.18297789
0.015325021 0.26658994 0.009654406 0.0028496229 -21.444603 -6.038367 -0.00092785567 -3.050218
-0.1260357 -1.5798221 0.36737418 -12.866687 -0.063744515 -0.39103013 -0.05731215 0.007818804
-0.08203064 -0.08125982 -0.016798375 -0.0037505568 -12.623111 0.05467568 2.0091052 -0.07823514
0.00242528 -0.049263302 -1.9361247 0.06805836 -0.14586577 -5.0941133 0.05387284 -3.202297
-0.25750676 3.0886016 1.1608471 -0.053767115 8.364401e-05 -0.032691337 -0.04226548 0.006994063
-0.022938421 -0.07628302 -0.00018191204 -0.048902832 -24.521181 -0.015815495 -0.017033208 -0.20414777
-0.0082032615 -0.019666541 -3.281682 2.4212017 -0.83906966 -0.13738254 -0.078984275 6.5501885
-0.7682337 0.0025523982 -0.036917727 -0.0219244 0.1963755 0.22572725 -4.4023786 -0.10704421
-0.81662905 3.6516274e-05 0.0010332367 -0.0023561995 -3.7074366 -0.00031458476 -1.6564187 -4.7329774
00000000: ae4b 05be 5901 1bc0 7bee f53e ac4c 3ebe
00000010: f8c1 65bd 1438 38be 557a 8bc1 b7d7 d23b
00000020: 56b2 a9be a3e3 9bc1 731e 8dbc 7682 84c0
00000030: 469d c7bd 61aa 84bd f667 8dbb d9f7 54bd
00000040: 6cdd 023b 52db 7dbc 8250 68bf c6ab bd3a
00000050: b739 bfbd 4ed4 13be 1ba8 c03f 9379 593e
00000060: 33e8 91bd 1c81 333b b22c 74bd fc1c 04be
00000070: c0cf 5ebd 68bb 04bd 7bee 01be dab7 463c
00000080: 0e4a 8dc1 d149 23c0 5325 15bb ea46 23c0
00000090: 5710 19c1 5518 063c 5d15 02bf 9599 14c1
000000a0: c8f2 85be ab66 c53f 6ad8 90bd e31c 57ba
000000b0: 6880 06ba c4c4 bec0 65da 533d a971 8f3c
000000c0: 68f2 54c1 8d5e b73c 2cdc c63c 4a6d e3c1
000000d0: 5389 94bb ce50 22be 2b35 bfc0 1dd8 bbbd
000000e0: c1f7 9b3f 5ba1 08be 82e4 0eba 2fa3 2fbd
000000f0: 0873 0b3d c12e 30bc 587c 6640 518f 18be
00000100: 5b70 36be 6ca1 aabc d51a aebf 3c50 02be
00000110: 347e db3e 0e74 8dbd bbf5 90be 81bd 0f3e
00000120: 5cc8 243e a7d2 c13c 1fc7 4e40 0f87 88c1
00000130: 758e 013d 58f7 24c0 b8fc c1bc 3431 0d3c
00000140: 58dc 10c0 9b18 9bbe c1fe 253c 808b 8dbf
00000150: 2150 16bf 0d5e da3b 7495 e5bf 7fb6 9ebd
00000160: a5b3 b23c f130 9d3a e97c b2bd d7c7 543c
00000170: fd71 7bbc e397 3fbe 6974 acbc 911d 82bd
00000180: 0604 e0c0 24ae 9e3c f71c 58c0 cf5f 72be
00000190: 3b1d 4c37 db26 dcbd 9c3e 60bd 5d89 8439
000001a0: a4b7 a1bd 85c0 18c0 b4dd 7040 14ef 2c3e
000001b0: b6d8 c0c1 d8ef 0040 85ee 93bf 69b2 54bf
000001c0: b3bf ee3a dfa9 78be 5bab 87bc 3be9 37ba
000001d0: 899e e3bc f01c 7fc1 ecac abbd 2e4f 41bf
000001e0: 0301 a2bd 6bbe 8dbc 33a7 8dc0 d389 cdbd
000001f0: dcd2 31bf 0904 2bbe b04c 3dbd 05ec 5f38
00000200: 81a5 22bd 4ee8 cebc 9c17 cf39 78f8 c8bd
00000210: 265a 56bf 2285 75be 9765 43c0 56a3 dac0
00000220: 4321 2e3a cca8 72bf 6248 b4be 8167 15bd
00000230: 3489 c13c 678b e5c1 04cb 12be 36fd 54c0
00000240: 61b9 cbbe c1bb 2dbb 5ead 3bbc 1c24 97c0
00000250: a844 0e3e b3a1 10c0 b9c7 ecbf 97dc 983e
00000260: 2293 bd3f c710 c9bc 77a7 0ebe 6176 06bc
00000270: 35c3 4cc0 fe19 adbb 9af7 cf3a 0576 bcbe
00000280: 7de0 e3bb 5a53 23be 85b2 abc1 27d9 aa3c
00000290: f2af 57bd dee1 ffbf 18ea a53c 8f50 85c0
000002a0: e885 a6be 739d e13d ab49 1140 2a43 b1be
000002b0: fae1 3cba 65f3 dbbd 8945 60c2 7122 72bc
000002c0: 8164 193d b5fd 09c1 7dc8 003d d543 a63c
000002d0: 5eb8 ffbc 8c23 973b 51cc b3bc 8e5e 3b3e
000002e0: cc15 7b3c 7a7e 883e 842d 1e3c bdc0 3a3b
000002f0: 8c8e abc1 4d3a c1c0 573b 73ba c636 43c0
00000300: 810f 01be 9c37 cabf 7818 bc3e f3dd 4dc1
00000310: 7c8c 82bd 1a35 c8be 25c0 6abd 711a 003c
00000320: aeff a7bd 8c6b a6bd bf9c 89bc e7cb 75bb
00000330: 43f8 49c1 9bf3 5f3d 2e95 0040 bf39 a0bd
00000340: 72f1 1e3b 51c8 49bd efd2 f7bf 2e62 8b3d
00000350: d65d 15be fa02 a3c0 c4a9 5c3d 6ff2 4cc0
00000360: edd7 83be a6ab 4540 a396 943f e83a 5cbd
00000370: 096a af38 5ae7 05bd 911e 2dbd 742e e53b
00000380: 5be9 bbbc 463a 9cbd a4bf 3eb9 564e 48bd
00000390: 612b c4c1 7f8f 81bc 3a89 8bbc 1d0c 51be
000003a0: f966 06bc ba1b a1bc 1407 52c0 f8f4 1a40
000003b0: 45cd 56bf 02ae 0cbe 82c2 a1bd 259b d140
000003c0: f7aa 44bf 2346 273b 0b37 17bd cd9a b3bc
000003d0: a916 493e 0b25 673e 49e0 8cc0 ff39 dbbd
000003e0: 9a0e 51bf 0d29 1938 ac6d 873a 786a 1abb
000003f0: a446 6dc0 daee a4b9 8705 d4bf 8d74 97c0

hiddenLayer1.bias f4 [150]
-5.311007 -0.9232515 -0.98456 -3.4445345 -0.9561461 -0.041588627 -0.10837883 -2.9419394
-0.07674833 -0.8002972 -0.29832488 -2.0913901 -0.7529462 -9.534894 -0.016515516 -1.1108294
-1.8662184 -1.00051 -0.78954417 -0.046784475 -3.4337234 -2.9192631 -3.5692978 -5.5819507
-8.605382 -2.6968508 1.2102435 -1.0263909 -1.4155736 -0.33058062 2.517553 -0.3555931
-3.1012392 -0.0907359 -0.065087564 -9.770734 -2.3179157 -0.22125448 -0.033318777 -2.1618307
-1.0464735 -2.7893033 -0.032008428 -0.07852505 -5.763718 -0.99298847 -2.350027 -5.1485777
-0.0745246 -3.151125 -9.830074 -1.922159 -1.6605593 -0.4424253 -1.2816564 -3.3437896
-2.958529 -0.09809812 -1.0718439 -1.4339035 -0.08785966 -1.0151886 1.9460602 -2.5193555
-16.110676 -1.9844276 -0.14133309 -0.44835857 -4.1761775 -0.055581138 -1.463919 -3.1141267
-6.536281 -0.027266016 -0.10699137 -0.07474742 -0.97553265 -0.16168797 -5.8247685 -8.627073
-0.07114499 -9.190747 -2.2692392 -0.028479282 -1.3684565 -4.527372 -1.0191989 -2.8775651
-0.44057116 -1.497314 -0.05666251 -0.96074975 -0.1975173 -1.382272 -3.3784368 -0.14283918
-0.57269925 -0.46999905 -1.5994347 -0.5718694 -0.08087224 -0.54403 -1.8033001 -2.18909
-6.749214 -0.16322066 -2.1088808 -2.6892579 -1.3203956 -0.923461 -0.4256282 -0.93160623
-6.206038 -0.96977806 -0.81338423 -0.017480554 -3.2359948 -0.20093651 -10.952952 -0.5858086
-0.23846537 -3.0568964 -5.356153 -0.09678876 -0.022495866 -0.028602762 -6.5958867 -3.4163022
-0.16413045 -9.818619 -4.1122117 -2.628121 -0.12707411 -1.090767 -0.30879426 -2.1330566
-1.106696 -11.199826 -4.1247306 -0.123169184 0.8452384 -6.5567045 -1.6326447 -2.1529791
-12.811831 -0.015179508 -2.1628215 -2.7073865 -0.10485131 -0.04554516
00000000: c5f3 a9c0 365a 6cbf 200c 7cbf 4173 5cc0
00000010: fec5 74bf d658 2abd b8f5 ddbd bc48 3cc0
00000020: 3a2e 9dbd 47e0 4cbf 0abe 98be 56d9 05c0
00000030: 15c1 40bf ed8e 18c1 8c4b 87bc a82f 8ebf
00000040: 3fe0 eebf b610 80bf 911f 4abf 14a1 3fbd
00000050: 20c2 5bc0 35d5 3ac0 606f 64c0 579f b2c0
00000060: a5af 09c1 3499 2cc0 42e9 9a3f c760 83bf
00000070: 8431 b5bf dd41 a9be 971f 2140 4c10 b6be
00000080: b47a 46c0 bed3 b9bd a14c 85bd ed54 1cc1
00000090: bb58 14c0 8990 62be 4579 08bd 6f5b 0ac0
000000a0: d8f2 85bf f283 32c0 451b 03bd bed1 a0bd
000000b0: 6170 b8c0 7e34 7ebf d866 16c0 26c1 a4c0
000000c0: 5aa0 98bd 08ac 49c0 fc47 1dc1 4e09 f6bf
000000d0: 358d d4bf 9285 e2be 510d a4bf a600 56c0
000000e0: 8a58 3dc0 abe7 c8bd 2e32 89bf 268a b7bf
000000f0: c4ef b3bd b3f1 81bf 8018 f93f 1f3d 21c0
00000100: aae2 80c1 b901 febf 9fb9 10be 418f e5be
00000110: 3fa3 85c0 0ca9 63bd b361 bbbf da4d 47c0
00000120: 3729 d1c0 fb5c dfbc 4b1e dbbd 2d15 99bd
00000130: 82bc 79bf 8891 25be 8164 bac0 7e08 0ac1
00000140: 77b4 91bd 4d0d 13c1 373b 11c0 624d e9bc
00000150: 9529 afbf 3be0 90c0 1c75 82bf 072a 38c0
00000160: 8b92 e1be fca7 bfbf f316 68bd b2f3 75bf
00000170: fa41 4abe 4aee b0bf 4f38 58c0 6f44 12be
00000180: 6b9c 12bf b7a3 f0be 47ba ccbf 0866 12bf
00000190: 58a0 a5bd 8d45 0bbf 8ad2 e6bf 0d1a 0cc0
000001a0: 90f9 d7c0 5123 27be e7f7 06c0 cd1c 2cc0
000001b0: b902 a9bf f167 6cbf f0eb d9be bf7d 6ebf
000001c0: dd97 c6c0 6043 78bf f339 50bf 6133 8fbc
000001d0: 8a1a 4fc0 4dc2 4dbe 4b3f 2fc1 8df7 15bf
000001e0: 4430 74be 31a4 43c0 9b65 abc0 2f39 c6bd
000001f0: 4049 b8bc 5750 eabc 8111 d3c0 b2a4 5ac0
00000200: d011 28be 1019 1dc1 3d97 83c0 2233 28c0
00000210: b71f 02be 419e 8bbf 481a 9ebe 0084 08c0
00000220: 37a8 8dbf 7d32 33c1 cbfd 83c0 2040 fcbd
00000230: 8b61 583f 86d0 d1c0 80fa d0bf 69ca 09c0
00000240: 43fd 4cc1 79b3 78bc ab6b 0ac0 d245 2dc0
00000250: 49bc d6bd 908d 3abd

hiddenLayer2.weight f4 [150, 150]
0.32397377 1.046154 0.6636838 2.5665948 -0.053687867 0.016922435 -0.29071414 -0.24008499
-1.581317 -1.2569541 -2.065864 -5.1399508 -0.43404546 13.137918 0.0483462 -0.533648
-0.5087116 -7.097075 1.2010356 -0.12464149 -1.025861 -1.7530204 -0.1282257 0.21724848
-0.31840953 1.0141256 -0.12513034 -2.1937296 -0.060576055 -5.017654 -0.73184335 -1.7734188
-22.310873 0.7078205 -0.28977403 -0.570712 -5.8968616 -0.4727364 0.06797514 7.211721
-0.3576914 -2.6839797 0.011012251 -1.5403297 -13.643324 -0.97862697 -2.2210884 0.41349396
0.7118769 -5.208254 -26.777866 0.07589421 1.9884413 1.2129399 4.7214584 -13.445345
-0.4538901 0.339443 2.4195411 -4.5123897 0.1999336 -2.2369788 0.29073134 1.2756972
1.275051 5.1685677 0.0057809805 1.4358861 0.7961406 0.01193561 2.6929324 -3.8435576
-0.94762874 -0.0087141 0.024764745 0.769238 -3.2467086 0.22562338 0.35492927 -0.5556877
0.23834689 0.23016176 -7.332135 -0.0838232 -16.67221 -0.08838632 -0.5277213 -0.6462908
2.60684 -5.1825166 -8.7724 1.0168656 -2.1678321 -3.0012023 0.33363694 -1.2029678
3.5927792 -0.5663399 0.42732358 0.2401729 0.98688924 0.8159567 1.4735005 0.13725857
-0.7369442 0.38065955 1.0460497 0.24754864 -3.4082212 -0.9441236 -1.128623 -2.0169294
-16.19507 -0.16359591 -22.542517 0.010613404 3.7160618 -0.6624731 0.64206743 -2.542173
-0.20754597 -7.5787272 -1.2706463 0.14053582 -0.034982055 -0.23828194 -2.2331448 -0.14980988
0.14499788 -7.630407 -4.654585 -4.811001 -0.067728534 -7.0704923 -7.68738 -2.1529102
-0.20981109 -2.1912065 2.879683 0.3837497 -0.515867 0.20642479 -3.4746132 -1.5151625
-0.5755828 0.033121925 0.34616715 -0.8576714 0.052904807 0.2316266 -12.365625 1.3461443
-21.197859 -1.4667264 0.3327951 -0.042995736 -0.13554883 -0.4003321 0.43237877 2.8848
-4.628776 -4.5687675 -1.3741072 -6.771738 0.07348455 0.3624362 3.7834024 2.1613622
4.303845 -0.14577869 -3.0581565 -4.2547603 -1.9711304 0.12020582 -4.4259615 -4.6678014
2.0854204 -4.7147646 2.010816 0.03951998 -2.8718293 -0.743251 4.9588666 1.0598816
1.2723442 -2.8495202 -8.941694 0.23066692 0.047568616 -21.432951 -22.629768 3.0502312
-0.18862258 -0.8873706 -9.592789 0.013857589 -1.2872622 3.8699424 0.12476147 -2.0252948
-2.794583 -9.213915 0.25874326 0.36034963 0.53609735 -2.0925305 -5.094975 0.17209211
18.896635 -2.2165725 -0.6993852 -5.773248 -1.6340796 -0.41892746 2.1661706 -1.6940933
-0.4914701 0.75470895 -5.452329 0.5013413 -6.647144 3.3644848 -1.1862297 0.0648778
-0.23896697 0.23199917 4.5601726 -0.48957664 1.0546758 -3.0172787 0.14337291 -8.257508
-1.9655108 -0.042767644 0.75042635 0.43896034 -2.6291819 -2.6443918 -1.7149433 -9.7371855
-2.1607385 4.269681 0.07912051 -9.361825 -0.26042423 0.5357475 -0.72393435 -0.11490835
-4.2670817 -0.217275 0.18813477 0.11396263 -3.888458 1.3620051 0.32119352 0.10404504
00000000: e4df a53e 60e8 853f 2ee7 293f 1743 2440
00000010: cfe7 5bbd eba0 8a3c 7cd8 94be d7d8 75be
00000020: 9868 cabf dfe3 a0bf 1e37 04c0 7a7a a4c0
00000030: 353b debe ea34 5241 aa06 463d 289d 08bf
00000040: ec3a 02bf 3d1b e3c0 89bb 993f 0a44 ffbd
00000050: 6a4f 83bf f962 e0bf 994d 03be 6376 5e3e
00000060: 9306 a3be dece 813f 2b22 00be 1166 0cc0
00000070: 991e 78bd 9f90 a0c0 165a 3bbf 63ff e2bf
00000080: ab7c b2c1 b933 353f 435d 94be 2e1a 12bf
00000090: 17b3 bcc0 810a f2be 8d36 8b3d 6bc6 e640
000000a0: 5423 b7be 53c6 2bc0 ba6c 343c 8629 c5bf
000000b0: 0e4b 5ac1 4c87 7abf 5026 0ec0 7bb5 d33e
000000c0: 913d 363f 04aa a6c0 1239 d6c1 6c6e 9b3d
000000d0: 3f85 fe3f 9d41 9b3f 3016 9740 2220 57c1
000000e0: 4864 e8be 79cb ad3e c3d9 1a40 7f65 90c0
000000f0: 65bb 4c3e a92a 0fc0 bdda 943e 0c4a a33f
00000100: df34 a33f e864 a540 616e bd3b 1ecb b73f
00000110: dfcf 4b3f 948d 433c 0159 2c40 d9fc 75c0
00000120: cc97 72bf 96c5 0ebc 6fdf ca3c c8ec 443f
00000130: 13ca 4fc0 d109 673e 4ab9 b53e 8d41 0ebf
00000140: 3511 743e 86af 6b3e daa0 eac0 7fab abbd
00000150: b060 85c1 e303 b5bd be18 07bf 5073 25bf
00000160: 77d6 2640 2dd7 a5c0 c05b 0cc1 a728 823f
00000170: c3bd 0ac0 b313 40c0 76d2 aa3e d9fa 99bf
00000180: 18f0 6540 a7fb 10bf 28ca da3e e2ef 753e
00000190: c6a4 7c3f 8ae2 503f aa9b bc3f 838d 0c3e
000001a0: 60a8 3cbf cfe5 c23e f5e4 853f 647d 7d3e
000001b0: 4c20 5ac0 16b2 71bf b876 90bf 5f15 01c0
000001c0: 818f 81c1 b085 27be 1357 b4c1 d8e3 2d3c
000001d0: f5d3 6d40 d697 29bf 885e 243f f6b2 22c0
000001e0: ee86 54be ef84 f2c0 8aa4 a2bf 9fe8 0f3e
000001f0: 5849 0fbd 2e00 74be d8eb 0ec0 c367 19be
00000200: 537a 143e 4b2c f4c0 5cf2 94c0 b8f3 99c0
00000210: 42b5 8abd 7941 e2c0 04ff f5c0 48c9 09c0
00000220: b8d8 56be ba3c 0cc0 ba4c 3840 d77a c43e
00000230: dc0f 04bf 0561 533e 1060 5ec0 d8f0 c1bf
00000240: 6559 13bf dbaa 073d d23c b13e 5a90 5bbf
00000250: b6b2 583d 862f 6d3e 9ad9 45c1 754e ac3f
00000260: 3795 a9c1 b1bd bbbf 1f64 aa3e 4c1c 30bd
00000270: 50cd 0abe 54f8 ccbe c060 dd3e 90a0 3840
00000280: ef1e 94c0 5833 92c0 bfe2 afbf 14b2 d8c0
00000290: 117f 963d 3d91 b93e 4423 7240 c253 0a40
000002a0: 19b9 8940 0247 15be d6b8 43c0 ff26 88c0
000002b0: 004e fcbf 782e f63d 7aa1 8dc0 a15e 95c0
000002c0: 8777 0540 5adf 96c0 36b1 0040 b4df 213d
000002d0: 0dcc 37c0 b345 3ebf 09af 9e40 33aa 873f
000002e0: 2ddc a23f 8a5e 36c0 2e11 0fc1 f333 6c3e
000002f0: 4fd7 423d af76 abc1 c409 b5c1 fd36 4340
00000300: 4726 41be b82a 63bf 107c 19c1 f10a 633c
00000310: 02c5 a4bf 23ad 7740 f182 ff3d 6e9e 01c0
00000320: 73da 32c0 326c 13c1 ff79 843e bf7f b83e
00000330: ad3d 093f 05ec 05c0 090a a3c0 ea38 303e
00000340: 4f2c 9741 53dc 0dc0 e90a 33bf 73be b8c0
00000350: 8529 d1bf a97d d6be 8aa2 0a40 0dd8 d8bf
00000360: f8a1 fbbe 9b34 413f 7b79 aec0 e757 003f
00000370: 67b5 d4c0 b853 5740 60d6 97bf a7de 843d
00000380: c2b3 74be 3191 6d3e efec 9140 caa9 fabe
00000390: 9eff 863f 181b 41c0 59d0 123e c11e 04c1
000003a0: dc95 fbbf 202d 2fbd f11b 403f 69bf e03e
000003b0: 8444 28c0 b73d 29c0 4383 dbbf 83cb 1bc1
000003c0: 8a49 0ac0 3aa1 8840 ef09 a23d 09ca 15c1
000003d0: 5356 85be c026 093f c353 39bf 1255 ebbd
000003e0: ef8b 88c0 567d 5ebe 67a6 403e 3d65 e93d
000003f0: 7fdc 78c0 2f56 ae3f 7a73 a43e 9115 d53d

hiddenLayer2.bias f4 [150]
-0.7961593 -3.4945056 4.1793013 -1.7908039 -2.489845 -1.2293502 -6.2627435 -0.49483833
1.8686504 -0.31373915 -1.4145418 -1.276319 1.2986389 -1.0448915 -0.07145769 1.0826114
1.5008497 -1.6944243 -1.5555345 -1.0244619 -1.8569536 -0.15860237 -0.34310865 -2.1643782
-0.15293795 -1.2026272 -1.3421795 2.6234303 -0.4647416 -2.2799044 -1.4787054 -3.0848129
-3.440016 -1.4235196 0.46001777 -3.4308646 -1.0453529 -1.5327426 -4.1258087 -2.8148713
-0.69660795 -2.693163 0.9864437 -0.0753766 -0.28778416 -0.48917863 -4.56895 -4.6249347
-0.7378671 -1.5738236 -1.3141091 -1.2611876 -0.28205645 -1.4061718 -1.6924824 -0.92900085
-1.2578008 -2.6059573 -1.4414407 -2.0060127 -0.6538366 -4.635251 -2.9486856 0.8710804
-8.210836 -1.1371233 -10.699866 -0.19938344 -2.5773559 0.072143994 3.4552379 -0.94711065
-1.1003989 0.24422385 -1.2809098 -0.49020952 -0.9869732 -3.2666066 -0.6538901 -3.2774327
-6.6089296 -0.83238304 -0.50482655 -7.2014484 -0.38701656 -2.78889 -0.13320768 -1.9650916
-1.3759118 -0.10403177 0.058694836 3.2278335 -0.29229742 -1.3604952 -0.8215869 -1.7195927
-2.462132 -0.7925286 -6.217684 9.758534 -0.49887872 -0.39739364 -0.006254805 -0.9914165
-0.051233426 1.193645 -0.9156507 -0.27002788 2.171488 -4.4422526 -1.168781 -4.5648065
-1.6995083 3.4268484 3.4284391 -1.6467665 -3.3745005 -2.1410413 -0.40780088 -0.21804345
-0.12722532 -1.448331 -0.4558509 -0.10027069 -0.70020103 2.147254 -4.4012356 -1.2478234
4.255977 -3.6717215 -1.1835468 -1.9870919 2.900071 -1.0190817 -0.69668937 -1.24821
-1.3726192 -0.83244824 -1.5021807 -1.5155731 -2.8628788 -2.3071158 -0.10122925 -0.7771306
-2.4883401 -2.486267 -1.7279421 -0.12502302 -0.83303577 -0.40056813
00000000: 19d1 4bbf fba5 5fc0 d6bc 8540 1039 e5bf
00000010: 9f59 1fc0 595b 9dbf 6568 c8c0 735b fdbe
00000020: f02f ef3f 6ba2 a0be b50f b5bf 6c5e a3bf
00000030: cd39 a63f 01bf 85bf 6958 92bd 0393 8a3f
00000040: d81b c03f e5e2 d8bf c11b c7bf 9121 83bf
00000050: a8b0 edbf a968 22be f0ab afbe 2c85 0ac0
00000060: c49b 1cbe b0ef 99bf 8acc abbf 48e6 2740
00000070: 9cf2 edbe f4e9 11c0 3846 bdbf 936d 45c0
00000080: 3929 5cc0 e435 b6bf 7387 eb3e 4993 5bc0
00000090: 20ce 85bf e930 c4bf a006 84c0 da26 34c0
000000a0: e654 32bf c85c 2cc0 9387 7c3f 0c5f 9abd
000000b0: 7258 93be 9f75 fabe d734 92c0 77ff 93c0
000000c0: dce4 3cbf 0d73 c9bf ba34 a8bf 986e a1bf
000000d0: b469 90be 70fd b3bf 43a3 d8bf 00d3 6dbf
000000e0: 9eff a0bf 01c8 26c0 2181 b8bf 8362 00c0
000000f0: d661 27bf fa53 94c0 44b7 3cc0 20ff 5e3f
00000100: 965f 03c1 428d 91bf a732 2bc1 2c2b 4cbe
00000110: 66f3 24c0 3bc0 933d 9e22 5d40 d875 72bf
00000120: dfd9 8cbf d115 7a3e daf4 a3bf befc fabe
00000130: 47aa 7cbf 1510 51c0 5765 27bf 75c1 51c0
00000140: 5a7c d3c0 0e17 55bf 503c 01bf 4472 e6c0
00000150: 0927 c6be 2c7d 32c0 9867 08be 1f88 fbbf
00000160: e11d b0bf 9c0e d5bd ff69 703d d394 4e40
00000170: 02a8 95be b524 aebf 8553 52bf 9d1b dcbf
00000180: 9293 1dc0 28e3 4abf 44f7 c6c0 f522 1c41
00000190: 086d ffbe 2e77 cbbe 1bf5 ccbb 79cd 7dbf
000001a0: 24da 51bd 5cc9 983f 1668 6abf 1841 8abe
000001b0: a9f9 0a40 ef26 8ec0 9e9a 95bf e512 92c0
000001c0: 7d89 d9bf 7c51 5b40 8c6b 5b40 3fc9 d2bf
000001d0: d1f7 57c0 d206 09c0 47cb d0be c846 5fbe
000001e0: 5b47 02be e962 b9bf 4a65 e9be b85a cdbd
000001f0: 6040 33bf 9c6c 0940 ecd6 8cc0 adb8 9fbf
00000200: f730 8840 7cfd 6ac0 767e 97bf 0759 febf
00000210: c39a 3940 4571 82bf 3c5a 32bf 58c5 9fbf
00000220: fcb1 afbf 541b 55bf 7547 c0bf 4dfe c1bf
00000230: 6839 37c0 c9a7 13c0 4851 cfbd 08f2 46bf
00000240: f740 1fc0 001f 1fc0 352d ddbf 0906 00be
00000250: d541 55bf 4417 cdbe

hiddenLayer3.weight f4 [150, 150]
0.14116822 1.0643231 4.2016544 0.31955874 -0.23036285 -0.21118109 -16.775688 -0.53699785
0.6504272 -3.3349261 2.8762476 -1.5205747 -2.9961576 -1.1038271 -0.011725652 -4.7297845
0.029117828 0.83942276 1.0427611 -0.97902495 -5.4255695 -0.060757525 0.6358485 -17.069122
0.07010995 -2.1325185 -2.5404513 0.93897134 -0.53433174 -2.635508 4.0824428 1.7647456
-28.805199 2.1242652 0.53273046 -1.6168599 -2.1748698 2.3241992 4.40984 0.8097198
3.9005382 2.6554434 -3.1163561 0.0416002 0.19463159 0.16424468 -12.459621 -28.439526
-0.00076079846 1.7531304 3.9810517 -0.3867727 0.057933435 0.00086415384 -0.16479924 -0.5936972
1.9162561 -0.06076683 -7.437392 0.91988623 -1.1012086 -3.7715983 0.32296705 -5.623468
-3.5362403 1.604157 1.6038026 -0.34133896 0.55790263 3.0621896 -1.2070863 0.22595094
0.69191056 -2.7808678 -2.3595116 0.09814215 -2.8534336 -3.7677712 -1.9724286 -2.083311
-4.336094 -1.3173549 0.08304318 0.7177513 1.0069348 0.5853242 2.270609 0.7445494
0.928525 0.119997926 -1.553207 2.677717 -0.14528412 0.3709943 -2.1760051 0.58603925
-7.1383924 3.7059147 0.7644334 0.016952004 -0.6236367 -0.4819268 -11.624569 0.81351125
-0.045274377 4.2239003 -7.0201497 0.55069727 -7.0278196 -1.6803277 -2.524804 -0.6098158
-4.4727426 -1.1713623 -0.708153 -2.0252473 -4.2097173 -0.39659092 0.58447826 2.1947124
-0.011580042 0.6022748 -12.607495 0.09810681 0.004309792 -1.9049419 9.097811 0.057206936
-0.23356827 -2.61862 -1.938468 -1.5385758 1.9533931 -4.600368 -1.582331 2.3954127
0.7674108 0.874998 3.3498724 4.074606 -9.272826 -24.386154 -0.0019818472 -3.79192
-0.6868554 1.5858909 0.7381746 -0.0082928995 0.93438363 -0.045653332 -0.771229 -0.2818194
3.600114 -1.6948912 0.012011294 0.042969175 -13.650136 0.5601309 -1.5407299 1.7554235
0.4903708 -0.8835256 -0.975093 -0.9757135 -0.020669932 -1.9331859 -2.1207998 -0.9763569
-0.43294927 -1.389923 -1.0675668 -0.05679911 -0.7587329 -1.5733044 0.11449667 -2.4078372
-0.71370524 -0.8517761 -1.5807177 -0.0315639 -0.22932704 0.58336794 -1.883832 2.2270823
0.47435394 2.7324681 1.8272147 3.2698014 3.9780197 -0.29813924 -0.45185527 -5.6615295
-3.6214507 0.07472132 0.38770628 0.16049628 -10.133131 10.836326 -1.2067126 -1.4170903
0.8049873 -1.5211493 -1.4764724 -0.095192865 2.210773 1.7341547 0.968049 0.017277287
-0.6895568 -0.09117883 -0.40194222 -0.32167423 -2.3369958 1.0646422 -11.04203 -0.88925207
-3.9329133 -0.56333804 0.2625941 -0.26010114 -3.894151 -0.088857815 -1.3806399 -2.700749
-3.913489 0.89024824 3.9596972 -1.5531338 -1.6025434 -0.27936447 1.1600758 1.1721783
-0.10221933 -0.09638861 3.4921217 -1.8589512 -1.49718 0.90692204 -1.5799026 0.08864379
-0.79186326 -3.3973048 0.3521738 0.7117859 0.09787366 0.79201365 0.9125616 2.7074714
9.2378235 -2.7832553 -5.643179 -0.035230897 2.0694995 0.9527698 -0.056736995 -0.231338
00000000: 678e 103e bd3b 883f f473 8640 349d a33e
00000010: 3de4 6bbe db3f 58be 9c34 86c1 b178 09bf
00000020: 6682 263f 6e6f 55c0 7114 3840 31a2 c2bf
00000030: 0cc1 3fc0 354a 8dbf f31c 40bc 655a 97c0
00000040: 8388 ee3c 69e4 563f 3279 853f 61a1 7abf
00000050: 449e adc0 e2dc 78bd f8c6 223f 908d 88c1
00000060: ce95 8f3d 2f7b 08c0 c196 22c0 6d60 703f
00000070: f7c9 08bf 2aac 28c0 5fa3 8240 2fe3 e13f
00000080: 0c71 e6c1 f6f3 0740 0661 083f 44f5 cebf
00000090: 1131 0bc0 aebf 1440 691d 8d40 cc49 4f3f
000000a0: 6ba2 7940 c9f2 2940 6172 47c0 f964 2a3d
000000b0: 814d 473e c22f 283e 9c5a 47c1 2684 e3c1
000000c0: 5270 47ba 9466 e03f 8dc9 7e40 1207 c6be
000000d0: 9c4b 6d3d 6288 623a 22c1 28be 8afc 17bf
000000e0: e147 f53f a4e6 78bd 1eff edc0 aa7d 6b3f
000000f0: 67f4 8cbf de61 71c0 f05b a53e 73f3 b3c0
00000100: c351 62c0 0455 cd3f 6749 cd3f fbc3 aebe
00000110: b5d2 0e3f eafa 4340 ce81 9abf af5f 673e
00000120: 0d21 313f bdf9 31c0 3d02 17c0 c0fe c83d
00000130: a89e 36c0 2a23 71c0 8a78 fcbf f854 05c0
00000140: 48c1 8ac0 169f a8bf 8b12 aa3d 8dbe 373f
00000150: 3de3 803f cfd7 153f a851 1140 ca9a 3e3f
00000160: d0b3 6d3f 79c1 f53d 7dcf c6bf b75f 2b40
00000170: 5cc5 14be f7f2 bd3e ab43 0bc0 ab06 163f
00000180: b66d e4c0 b52d 6d40 e8b1 433f eede 8a3c
00000190: a8a6 1fbf 1cbf f6be 3cfe 39c1 4642 503f
000001a0: a071 39bd 312a 8740 11a5 e0c0 7ffa 0c3f
000001b0: e6e3 e0c0 fa14 d7bf 6496 21c0 e31c 1cbf
000001c0: b520 8fc0 33ef 95bf 8449 35bf a79d 01c0
000001d0: 01b6 86c0 f70d cbbe 5ea0 153f 2b76 0c40
000001e0: 37ba 3dbc ae2e 1a3f 4db8 49c1 39ec c83d
000001f0: 2839 8d3b 23d5 f3bf a290 1141 d251 6a3d
00000200: 852c 6fbe 7897 27c0 b81f f8bf 0df0 c4bf
00000210: c908 fa3f 3736 93c0 d289 cabf 714e 1940
00000220: 0975 443f deff 5f3f 4f64 5640 2c63 8240
00000230: 7f5d 14c1 d816 c3c1 e1e1 01bb d1ae 72c0
00000240: c1d5 2fbf 79fe ca3f 03f9 3c3f f1de 07bc
00000250: c433 6f3f fdfe 3abd 446f 45bf a24a 90be
00000260: 4568 6640 32f2 d8bf 05cb 443c 7200 303d
00000270: f566 5ac1 bd64 0f3f a336 c5bf b8b1 e03f
00000280: e211 fb3e bc2e 62bf b29f 79bf 5cc8 79bf
00000290: fd53 a9bc a372 f7bf 2fbb 07c0 87f2 79bf
000002a0: 87ab ddbe ffe8 b1bf 07a6 88bf 2fa6 68bd
000002b0: 523c 42bf 0a62 c9bf 3b7d ea3d 011a 1ac0
000002c0: 63b5 36bf 000e 5abf f554 cabf 2649 01bd
000002d0: b5d4 6abe 9a57 153f 6821 f1bf 8488 0e40
000002e0: 85de f23e c2e0 2e40 2ce2 e93f 6d44 5140
000002f0: e097 7e40 b5a5 98be 9359 e7be 402b b5c0
00000300: d9c5 67c0 7e07 993d 7081 c63e 2359 243e
00000310: 4e21 22c1 9761 2d41 8f75 9abf 3763 b5bf
00000320: a613 4e3f 05b5 c2bf 0cfd bcbf 7af4 c2bd
00000330: 4e7d 0d40 c8f8 dd3f 0fd2 773f 1989 8d3c
00000340: cb86 30bf f7bb babd 5fcb cdbe 7cb2 a4be
00000350: 5791 15c0 3246 883f 28ac 30c1 06a6 63bf
00000360: dab4 7bc0 ec36 10bf bc72 863e fa2b 85be
00000370: c539 79c0 16fb b5bd cfb8 b0bf 12d9 2cc0
00000380: 9b76 7ac0 4fe7 633f ae6b 7d40 17cd c6bf
00000390: 2420 cdbf dc08 8fbe 5d7d 943f f009 963f
000003a0: 5e58 d1bd 6467 c5bd ec7e 5f40 1df2 edbf
000003b0: 98a3 bfbf 0b2c 683f 403a cabf e08a b53d
000003c0: 8db7 4abf 716d 59c0 2050 b43e 9a37 363f
000003d0: fc71 c83d 68c1 4a3f a39d 693f 3647 2d40
000003e0: 20ce 1341 db20 32c0 ec94 b4c0 464e 10bd
000003f0: ae72 0440 b9e8 733f 0d65 68bd dee3 6cbe

hiddenLayer3.bias f4 [150]
12.63019 0.13212137 -0.2075704 13.092911 3.9081554 10.234849 -4.6919856 -1.8083664
-3.3473256 -0.15187153 -1.9559351 -0.33106354 4.391571 -3.6687632 5.9302616 -11.647653
-11.274703 2.261427 -3.0323763 -1.9220979 0.1069624 5.389051 -0.07660076 0.11978362
-1.3964224 19.012012 7.3027687 -3.0770478 -11.688652 7.9984636 -0.4602859 -13.662074
-2.1363442 -1.9580637 22.920273 -4.1034226 4.4152446 19.337692 -0.64612496 -1.9948295
3.7161088 -0.32482573 -7.2287264 -2.8532321 3.456904 0.7739937 -1.2703004 22.351679
-10.008279 -5.9342384 2.2127686 -10.837502 -8.61188 -3.6521966 -0.040878687 4.653808
-1.4752656 -9.472884 5.784196 -12.097375 -1.6782868 -0.61897314 0.34884468 -0.5937531
-0.34941182 -4.4995275 -0.7714266 -1.0549773 0.479126 -1.99789 11.524828 2.9793909
10.537519 21.168503 23.719807 3.5308766 -4.376522 -0.23354916 8.140779 0.054865178
-2.5082436 18.986034 13.925104 -1.1734746 -2.1136403 -2.1970115 -1.2083691 -1.4516387
-0.25893396 -0.29393223 5.2897215 23.587193 -1.524145 -10.618894 -0.27842963 2.334032
-0.51499426 6.111192 10.274284 8.39372 -23.104929 13.366572 -0.3746212 -1.6298778
25.336533 -0.23554751 -3.7746596 4.935774 21.612862 24.446152 1.9934058 2.7145526
23.405628 -1.2423114 3.857432 8.784119 -0.28768584 0.042868424 2.869532 2.3488436
-1.2584078 -17.537777 -9.863064 -1.2562877 4.85928 -13.164767 -9.058134 -6.94754
0.44948864 20.033905 3.026127 6.4354844 1.0396549 -0.92335224 15.511503 19.487505
5.488285 -5.017469 -0.53915304 -1.4420689 3.3305972 -2.956178 -1.0560832 0.2291919
20.758774 5.3703027 24.071787 -7.594039 -0.24640402 -1.6003622
00000000: 4215 4a41 d34a 073e 568d 54be 907c 5141
00000010: 381f 7a40 f1c1 2341 bf24 96c0 8d78 e7bf
00000020: 953a 56c0 3684 1bbe 155c fabf 2981 a9be
00000030: c087 8c40 04cd 6ac0 b4c4 bd40 c95c 3ac1
00000040: 2f65 34c1 38bb 1040 7412 42c0 4e07 f6bf
00000050: 1a0f db3d 1b73 ac40 dce0 9cbd 1d51 f53d
00000060: f8bd b2bf 9a18 9841 48b0 e940 5aee 44c0
00000070: b804 3bc1 6af3 ff40 98aa ebbe db97 5ac1
00000080: ddb9 08c0 d5a1 fabf b85c b741 3d4f 83c0
00000090: af49 8d40 98b3 9a41 7268 25bf 9356 ffbf
000000a0: bad4 6d40 8f4f a6be ba51 e7c0 5b9b 36c0
000000b0: ea3d 5d40 7324 463f 3499 a2bf 3dd0 b241
000000c0: e921 20c1 48e5 bdc0 009e 0d40 6866 2dc1
000000d0: 43ca 09c1 97bd 69c0 6970 27bd ffeb 9440
000000e0: 81d5 bcbf ef90 17c1 2218 b940 d98e 41c1
000000f0: 1ad2 d6bf 0675 1ebf c59b b23e 3400 18bf
00000100: 1be6 b2be 21fc 8fc0 377c 45bf 7f09 87bf
00000110: 0150 f53e dcba ffbf b265 3841 57ae 3e40
00000120: ae99 2841 1859 a941 2ac2 bd41 e2f9 6140
00000130: 780c 8cc0 8327 6fbe a140 0241 4fba 603d
00000140: 1087 20c0 66e3 9741 3acd 5e41 6a34 96bf
00000150: e245 07c0 d69b 0cc0 d7ab 9abf 4ccf b9bf
00000160: fe92 84be 497e 96be 6645 a940 92b2 bc41
00000170: 2f17 c3bf fde6 29c1 548e 8ebe c860 1540
00000180: aad6 03bf e38e c340 7863 2441 ad4c 0641
00000190: e5d6 b8c1 7bdd 5541 5ace bfbe d69f d0bf
000001a0: 38b1 ca41 5e33 71be 0694 71c0 dcf1 9d40
000001b0: 24e7 ac41 b891 c341 ec27 ff3f 3bbb 2d40
000001c0: ba3e bb41 0f04 9fbf 2ae0 7640 c08b 0c41
000001d0: 8f4b 93be cd96 2f3d 6aa6 3740 7453 1640
000001e0: 8213 a1bf 5e4d 8cc1 1ccf 1dc1 09ce a0bf
000001f0: 397f 9b40 e3a2 52c1 1eee 10c1 3f52 dec0
00000200: 6023 e63e 7045 a041 11ac 4140 7def cd40
00000210: 6913 853f d060 6cbf 1e2f 7841 69e6 9b41
00000220: 08a0 af40 1b8f a0c0 ef05 0abf b795 b8bf
00000230: 8128 5540 0532 3dc0 bc2d 87bf 48b1 6a3e
00000240: f811 a641 85d9 ab40 0593 c041 5e02 f3c0
00000250: 5651 7cbe abd8 ccbf

outputLayer.weight f4 [2, 150]
2.0883234 0.64152664 5.2413673 0.64312464 -4.6107235 1.5075811 -5.0330586 22.064852
-8.903577 1.3061185 -0.06028116 4.095812 -13.768786 -4.159696 -10.564922 -5.910946
-3.4137955 2.7205436 -5.202562 0.515794 -2.6985023 2.2779615 -4.5612345 16.151623
-2.3027396 2.2573388 2.1454017 0.51468176 -15.474735 1.1826302 -0.7746871 -2.7445304
-1.1457504 -5.3016033 14.141138 -16.127134 -17.59239 2.4408152 16.829742 -3.5678022
8.785464 0.18912898 -4.756208 -2.2487288 3.6464639 17.822634 0.519158 2.7474332
-3.5441797 -8.274027 -5.58235 -14.496997 -0.5517202 -0.78916466 1.220214 9.005629
-0.28245723 8.466966 3.2131786 -5.419527 0.9538559 -0.82819396 1.5610665 0.5679915
-2.0269196 -9.004999 -5.9988275 -1.7359229 -0.78350097 5.415866 1.7516848 7.3825665
-10.175243 5.074465 2.751896 -11.729314 -3.383929 -0.03547832 -10.40204 21.467747
-12.233696 2.4308488 4.487931 -1.5710719 27.203453 -14.207714 -0.38000634 -1.4464406
-0.027003445 -0.857206 5.4795394 2.6019554 -1.589082 -1.9193404 -2.0035665 2.104676
-0.1494571 4.3380527 5.1803327 1.7984962 -1.6113285 -7.629969 21.103313 -2.4157274
3.003947 1.1356474 -1.4350326 5.298426 3.591102 2.7676961 -5.1205683 0.9843708
2.912319 0.92082554 6.852336 3.6565669 0.011475303 10.788601 -7.7494164 0.75875217
-2.8728235 -5.3780003 -5.288026 -1.7614774 -11.643218 -34.766167 -2.391121 -10.126948
-0.061895765 6.001105 -4.688023 -10.9040985 18.93766 0.37933114 2.1264307 3.1998749
-18.850908 -9.425356 40.471214 3.1421626 -14.112677 -2.1301298 -2.9046218 -2.861976
2.3971598 -7.573171 4.2801967 -9.0617285 -5.834986 -7.9079547 1.9059248 0.63462496
3.444725 0.7553365 -4.5139737 1.362399 -4.8249784 22.519764 -8.9563265 -1.5757074
-0.5183789 3.417815 -13.529392 -3.707828 -10.417444 -5.9426994 -3.261117 3.3116775
-5.748844 0.02235054 -2.4442801 2.0693533 -4.507686 15.732907 2.3315363 2.187872
2.232567 1.0396848 -13.50109 1.145512 0.19209437 -2.71542 -6.8504963 -3.3587613
13.79516 -16.095243 -17.77604 2.5151966 17.12515 -0.6780462 8.831785 -0.9687354
-4.9687953 -2.359397 3.980882 17.844604 1.1392875 2.8058822 -3.6131458 -8.219308
-2.8466876 -13.826371 -0.8602931 -1.057594 1.1165172 9.185285 -3.0738764 8.508029
3.1163456 -5.9092584 0.8972163 1.2934774 1.8079268 -1.2953378 3.2354305 -8.813187
-6.062122 1.3753582 0.93121415 3.3670518 1.689185 6.9837155 -10.3914795 4.943805
3.043363 -13.600678 -3.298214 -0.24223854 -10.574749 21.497044 -11.997664 2.509792
4.7664185 0.3811995 28.074715 -14.132123 0.9841666 1.1589041 -0.02134507 0.87183726
5.3233438 2.4559662 -0.20315962 -1.9386 -1.6058581 1.911833 0.06093962 4.1568766
5.196341 1.6511487 -1.4486908 -6.914211 20.534616 -1.6903726 3.0340285 2.137623
00000000: 17a7 0540 173b 243f 48b9 a740 d1a3 243f
00000010: 0c8b 93c0 6bf8 c03f d10e a1c0 d184 b041
00000020: 0d75 0ec1 e42e a73f 61e9 76bd e410 8340
00000030: f34c 5cc1 3b1c 85c0 ec09 29c1 7826 bdc0
00000040: a07b 5ac0 631d 2e40 637b a6c0 130b 043f
00000050: 43b4 2cc0 1fca 1140 a2f5 91c0 8636 8141
00000060: 1660 13c0 3d78 1040 434e 0940 2fc2 033f
00000070: 8498 77c1 6d60 973f e551 46bf 63a6 2fc0
00000080: f3a7 92bf bca6 a9c0 1a42 6241 5f04 81c1
00000090: 37bd 8cc1 5136 1c40 50a3 8641 df56 64c0
000000a0: 4391 0c41 07ab 413e db32 98c0 2ceb 0fc0
000000b0: aa5f 6940 c194 8e41 8ae7 043f f2d5 2f40
000000c0: d7d3 62c0 6a62 04c1 9ca2 b2c0 b3f3 67c1
000000d0: 893d 0dbf b206 4abf f92f 9c3f 0e17 1041
000000e0: 3c9e 90be b178 0741 b8a4 4d40 c46c adc0
000000f0: e62f 743f 8504 54bf 07d1 c73f e467 113f
00000100: 0db9 01c0 7a14 10c1 65f6 bfc0 b932 debf
00000110: 8593 48bf c64e ad40 3537 e03f fc3d ec40
00000120: cccd 22c1 0462 a240 101f 3040 45ab 3bc1
00000130: 4b92 58c0 b751 11bd c16e 26c1 f2bd ab41
00000140: 38bd 43c1 0793 1b40 219d 8f40 e218 c9bf
00000150: aca0 d941 cc52 63c1 3190 c2be f724 b9bf
00000160: 5436 ddbc da71 5bbf 6358 af40 7086 2640
00000170: 0a67 cbbf f2ac f5bf 6f3a 00c0 03b3 0640
00000180: 480b 19be 54d1 8a40 49c5 a540 2035 e63f
00000190: 0340 cebf b528 f4c0 96d3 a841 479b 1ac0
000001a0: ab40 4040 e55c 913f 26af b7bf b58c a940
000001b0: 9dd4 6540 ef21 3140 b2db a3c0 baff 7b3f
000001c0: 6f63 3a40 39bb 6b3f 5646 db40 3105 6a40
000001d0: e902 3c3c 1c9e 2c41 38fb f7c0 953d 423f
000001e0: 57dc 37c0 9418 acc0 8237 a9c0 1778 e1bf
000001f0: 9f4a 3ac1 8e10 0bc2 2008 19c0 fb07 22c1
00000200: 6a86 7dbd 0d09 c040 4904 96c0 3077 2ec1
00000210: 5480 9741 b137 c23e 7117 0840 c0ca 4c40
00000220: a9ce 96c1 42ce 16c1 86e2 2142 3119 4940
00000230: 86cd 61c1 0c54 08c0 53e5 39c0 9d2a 37c0
00000240: 116b 1940 6b57 f2c0 5ff7 8840 d7fc 10c1
00000250: 35b8 bac0 f70d fdc0 58f5 f33f c876 223f
00000260: 6076 5c40 bc5d 413f 7972 90c0 1763 ae3f
00000270: 3966 9ac0 7a28 b441 1d4d 0fc1 c8b0 c9bf
00000280: 7bb4 04bf 7bbd 5a40 6478 58c1 0e4d 6dc0
00000290: daad 26c1 982a bec0 24b6 50c0 86f2 5340
000002a0: 88f6 b7c0 7b18 b73c 166f 1cc0 4970 0440
000002b0: f73e 90c0 fdb9 7b41 e437 1540 1806 0c40
000002c0: 61e2 0e40 6414 853f 7704 58c1 23a0 923f
000002d0: 63b4 443e 71c9 2dc0 4437 dbc0 f2f5 56c0
000002e0: fab8 5c41 0fc3 80c1 5435 8ec1 fbf8 2040
000002f0: 4f00 8941 7094 2dbf fe4e 0d41 0bff 77bf
00000300: 5f00 9fc0 5c00 17c0 c5c6 7e40 c0c1 8e41
00000310: 2cd4 913f 9393 3340 c83d 67c0 4982 03c1
00000320: 2130 36c0 d138 5dc1 2b3c 5cbf 3d5f 87bf
00000330: 09ea 8e3f edf6 1241 64ba 44c0 e320 0841
00000340: 3572 4740 a518 bdc0 f8af 653f ab90 a53f
00000350: 256a e73f a1cd a5bf 4b11 4f40 d002 0dc1
00000360: e7fc c1c0 bd0b b03f 0d64 6e3f c77d 5740
00000370: 3737 d83f 997a df40 8043 26c1 a733 9e40
00000380: 76c6 4240 619c 59c1 f015 53c0 610d 78be
00000390: 2c32 29c1 f2f9 ab41 6ff6 3fc1 6fa0 2040
000003a0: 8086 9840 952c c33e 0499 e041 2d1d 62c1
000003b0: 58f2 7b3f f856 943f dbdb aebc ba30 5f3f
000003c0: d558 aa40 8d2e 1d40 1309 50be 0b24 f8bf
000003d0: c28c cdbf f2b6 f43f d39b 793d 2205 8540
000003e0: 6d48 a640 d758 d33f b36e b9bf 3741 ddc0
000003f0: e546 a441 215e d8bf 862d 4240 d1ce 0840

outputLayer.bias f4 [2]
23.91387 24.220623
00000000: 9b4f bf41 d6c3 c141
