ftl/pretrain/weight/multi-workload_half_v1/multi-workload_half_v1_69.pth (torch, 187843 bytes, 8 tensors)

hiddenLayer1.weight f4 [150, 3]
000000 2e 13 a0 be ea e9 d6 bf 84 0e e4 3e ac 4c 3e be
       -0.31264633 -1.6790135 0.44542325 -0.18583935
000010 f8 c1 65 bd 14 38 38 be f8 5e 8d c1 10 92 ef be
       -0.056093186 -0.17990142 -17.671371 -0.46791124
000020 e8 29 85 be 39 07 0e bf 38 14 08 be 82 13 98 c0
       -0.26008534 -0.5547977 -0.13288963 -4.7523813
000030 46 9d c7 bd 61 aa 84 bd f6 67 8d bb d9 f7 54 bd
       -0.097467944 -0.0647781 -0.0043153716 -0.05199418
000040 6c dd 02 3b 52 db 7d bc 82 50 68 bf c6 ab bd 3a
       0.0019968404 -0.015494185 -0.90747845 0.0014470748
000050 b7 39 bf bd 58 8f 8e bd 07 46 9e 3e 74 0b 3f 40
       -0.0933718 -0.069609344 0.30912802 2.985074
000060 33 e8 91 bd 1c 81 33 3b b2 2c 74 bd fc 1c 04 be
       -0.071243666 0.0027390188 -0.059612937 -0.12901682
000070 c0 cf 5e bd 68 bb 04 bd c7 39 bf bd 26 4c 25 bf
       -0.054397345 -0.032405287 -0.09337192 -0.6456932
000080 45 db 10 c0 d1 49 23 c0 53 25 15 bb ea 46 23 c0
       -2.2633832 -2.5513804 -0.0022757843 -2.5512033
000090 57 10 19 c1 55 18 06 3c 5d 15 02 bf c9 c8 78 c1
       -9.566489 0.008184512 -0.5081385 -15.54902
0000a0 d5 88 50 bf 07 17 26 3f 6a d8 90 bd e3 1c 57 ba
       -0.8145879 0.64878887 -0.07072528 -0.00082059036
0000b0 68 80 06 ba c4 c4 be c0 65 da 53 3d a9 71 8f 3c
       -0.00051308284 -5.9615192 0.05172195 0.017510252
0000c0 76 b8 f2 be 24 c2 40 bd f8 21 79 3f 78 1a e4 c1
       -0.47406358 -0.047060147 0.9731746 -28.512924
0000d0 e6 10 06 3e 5c b0 62 be e6 5c d5 c0 05 ee 8a 3d
       0.13092384 -0.22137588 -6.66759 0.0678368
0000e0 ff 30 c8 3f 5b a1 08 be 82 e4 0e ba 2f a3 2f bd
       1.5639952 -0.13342802 -0.00054509204 -0.042880233
0000f0 22 c5 f3 3d 43 6b ba bb 59 df 98 3f 69 cf c5 be
       0.119028345 -0.005689056 1.194316 -0.38634804
000100 c3 ef 9a 3d 4b 69 03 40 09 8b 4a c0 6c e5 a7 3c
       0.07565262 2.0533016 -3.164736 0.020495139
000110 01 e7 ca 3f 86 97 28 c0 be 85 a0 3d e7 13 bd 3f
       1.5851747 -2.6342483 0.07838009 1.4771699
000120 48 f7 aa 3d d0 7f 87 bb 05 1e f1 3f 0f 87 88 c1
       0.083479464 -0.0041351095 1.8837286 -17.065947
000130 75 8e 01 3d 58 f7 24 c0 cf 31 c3 be 2a 93 0a bd
       0.03163 -2.5775967 -0.38123938 -0.033831753
000140 01 02 88 bf 9b 18 9b be c1 fe 25 3c 80 8b 8d bf
       -1.0625612 -0.3029221 0.010131539 -1.1058197
000150 ae d5 6d bf 46 99 e1 3e 93 81 46 c0 7f b6 9e bd
       -0.92904174 0.4406225 -3.1016586 -0.07749652
000160 a5 b3 b2 3c f1 30 9d 3a 29 8f 90 bc b8 5f bc bc
       0.021814177 0.0011992735 -0.01764639 -0.022994861
000170 ab c8 b2 3f e3 97 3f be 69 74 ac bc 91 1d 82 bd
       1.3967489 -0.18710284 -0.021051602 -0.063532956
000180 49 42 40 bf ee d7 14 bf c4 05 74 c0 cf 5f 72 be
       -0.75101143 -0.5814198 -3.812852 -0.2366936
000190 3b 1d 4c 37 db 26 dc bd 9c 3e 60 bd 5d 89 84 39
       1.2166153e-05 -0.107495986 -0.05474721 0.00025279346
0001a0 a4 b7 a1 bd c6 12 80 3e cb cc b4 bc bc 96 55 3f
       -0.07896355 0.25014323 -0.02207031 0.8343313
0001b0 77 49 48 c1 93 75 93 3c 42 1c fa bf 69 b2 54 bf
       -12.517936 0.0180004 -1.9539874 -0.8308473
0001c0 b3 bf ee 3a df a9 78 be 5b ab 87 bc 3b e9 37 ba
       0.001821509 -0.2428355 -0.0165612 -0.000701565
0001d0 89 9e e3 bc f0 1c 7f c1 ec ac ab bd 2e 4f 41 bf
       -0.027785556 -15.944565 -0.083825916 -0.75511444
0001e0 5c 9c bc bf 2a b8 a6 3e bf 26 47 c0 84 78 50 bf
       -1.4735217 0.3256238 -3.1117399 -0.8143389
0001f0 0c c2 be bf 9e 98 e8 3e b0 4c 3d bd 05 ec 5f 38
       -1.4902968 0.45428938 -0.046215713 5.3387153e-05
000200 81 a5 22 bd 4e e8 ce bc 9c 17 cf 39 78 f8 c8 bd
       -0.039708618 -0.025257256 0.00039499707 -0.09813017
000210 c0 db 8e be 21 df f6 bf e9 58 a2 be 56 a3 da c0
       -0.2790203 -1.9286844 -0.31708458 -6.8324385
000220 43 21 2e 3a cc a8 72 bf 24 28 72 bd cf 1d b5 be
       0.00066425296 -0.94788814 -0.059120312 -0.35374305
000230 7e 10 b7 3e f0 b5 09 c1 b6 a7 fc 3d 19 d8 2b c0
       0.3575477 -8.606918 0.12336676 -2.6850646
000240 61 b9 cb be c1 bb 2d bb 5e ad 3b bc 1c 24 97 c0
       -0.3978987 -0.0026509615 -0.011454908 -4.723158
000250 a8 44 0e 3e b3 a1 10 c0 fd 1d ab c1 ce e6 95 39
       0.13893378 -2.2598693 -21.389643 0.00028591458
000260 b7 42 02 3f c7 10 c9 bc 77 a7 0e be 61 76 06 bc
       0.5088305 -0.024544133 -0.1393107 -0.008206935
000270 8a c3 4e c0 df ba d5 3c b7 01 07 3d 05 76 bc be
       -3.2306848 0.026090084 0.03296062 -0.36808792
000280 7d e0 e3 bb 5a 53 23 be 59 ab 95 c1 76 fc 04 3e
       -0.0069542513 -0.15949765 -18.708666 0.12986931
000290 34 3f 67 be 04 da bb bd 4c 8c 9c be f8 fa 9e c0
       -0.22582704 -0.091724426 -0.30575788 -4.968136
0002a0 d8 75 36 3d 98 13 a1 3d 1d 2c 1b 40 2a 43 b1 be
       0.04454598 0.07865065 2.4245675 -0.34621555
0002b0 fa e1 3c ba 65 f3 db bd 19 0c 2a c2 a1 17 17 bb
       -0.0007205304 -0.10739783 -42.511814 -0.0023054855
0002c0 08 ba 4c 3c b5 fd 09 c1 7d c8 00 3d d5 43 a6 3c
       0.012495525 -8.62444 0.0314412 0.020296017
0002d0 5e b8 ff bc 8c 23 97 3b 51 cc b3 bc 6d a5 64 3e
       -0.031215843 0.004612392 -0.021948012 0.2232873
0002e0 cd e8 14 3c 30 bc 90 c0 b0 54 38 3c b5 6d fa bb
       0.009088707 -4.522972 0.01125066 -0.0076424726
0002f0 9b 42 42 c1 68 0f 62 c0 33 57 33 3f 7e 51 5a c0
       -12.141261 -3.5321903 0.7005493 -3.411224
000300 78 35 92 bd 47 dd 3a bf d5 f2 1c 3f 2f 5e 4e c1
       -0.071391046 -0.7299389 0.6130803 -12.897994
000310 ca b8 c2 bd 09 40 d8 be 25 c0 6a bd 71 1a 00 3c
       -0.09507902 -0.42236355 -0.05731215 0.007818804
000320 ae ff a7 bd 8c 6b a6 bd bf 9c 89 bc e7 cb 75 bb
       -0.08203064 -0.08125982 -0.016798375 -0.0037505568
000330 dd 87 c5 be 1e 88 8d 3f 8b 74 26 bf bf 39 a0 bd
       -0.38580218 1.1057165 -0.6502158 -0.07823514
000340 72 f1 1e 3b 51 c8 49 bd ef d2 f7 bf 2e 62 8b 3d
       0.00242528 -0.049263302 -1.9361247 0.06805836
000350 d6 5d 15 be fa 02 a3 c0 c4 a9 5c 3d 6f f2 4c c0
       -0.14586577 -5.0941133 0.05387284 -3.202297
000360 71 ff 64 bf 18 6e c1 3f cb 32 88 3f e8 3a 5c bd
       -0.8945227 1.5111723 1.0640501 -0.053767115
000370 09 6a af 38 5a e7 05 bd 91 1e 2d bd 74 2e e5 3b
       8.364401e-05 -0.032691337 -0.04226548 0.006994063
000380 5b e9 bb bc 46 3a 9c bd a4 bf 3e b9 56 4e 48 bd
       -0.022938421 -0.07628302 -0.00018191204 -0.048902832
000390 7f 6b c4 c1 f0 e5 7e 3c 7e f5 6a 3c 1d 0c 51 be
       -24.552488 0.015557751 0.014340756 -0.20414777
0003a0 f9 66 06 bc ba 1b a1 bc 83 31 07 c0 47 19 c5 3f
       -0.0082032615 -0.019666541 -2.112397 1.5398339
0003b0 0e 80 18 be 0a bc 0e 3e a3 83 10 bc 14 0f 9d 40
       -0.14892599 0.13938919 -0.008820447 4.9080906
0003c0 f7 aa 44 bf 23 46 27 3b 0b 37 17 bd 25 77 f5 be
       -0.7682337 0.0025523982 -0.036917727 -0.47942463
0003d0 19 e7 18 be be 1f a4 3f 49 e0 8c c0 ff 39 db bd
       -0.14931907 1.2822187 -4.4023786 -0.10704421
0003e0 9a 0e 51 bf 0d 29 19 38 ac 6d 87 3a 78 6a 1a bb
       -0.81662905 3.6516274e-05 0.0010332367 -0.0023561995
0003f0 a4 46 6d c0 da ee a4 b9 87 05 d4 bf bf 4d 30 c0
       -3.7074366 -0.00031458476 -1.6564187 -2.7547452

hiddenLayer1.bias f4 [150]
000000 27 f0 87 c0 36 5a 6c bf 77 bc 3c bf 56 98 b8 bf
       -4.2480655 -0.9232515 -0.73725075 -1.4421489
000010 fe c5 74 bf d6 58 2a bd b8 f5 dd bd bb a5 26 3f
       -0.9561461 -0.041588627 -0.10837883 0.65096635
000020 3a 2e 9d bd 47 e0 4c bf 76 7f 2b be 56 d9 05 c0
       -0.07674833 -0.8002972 -0.16747841 -2.0913901
000030 15 c1 40 bf 57 47 42 c0 8c 4b 87 bc a8 2f 8e bf
       -0.7529462 -3.0356042 -0.016515516 -1.1108294
000040 7d c8 1f bf 6d 58 2e bf 67 e7 1b bf 14 a1 3f bd
       -0.62415296 -0.6810368 -0.60899967 -0.046784475
000050 a8 0d e4 be 92 c6 06 c0 0d 0a 43 c0 73 41 73 c0
       -0.4454167 -2.1058698 -3.0474885 -3.8008697
000060 9a 4c a5 c0 34 99 2c c0 2d 4e f9 3e c7 60 83 bf
       -5.165601 -2.6968508 0.48692456 -1.0263909
000070 75 d4 de be dd 41 a9 be 4a eb 43 40 4c 10 b6 be
       -0.43521467 -0.33058062 3.061236 -0.3555931
000080 c9 a5 85 bf be d3 b9 bd a1 4c 85 bd 53 9c d7 c0
       -1.0441219 -0.0907359 -0.065087564 -6.7378325
000090 23 d1 f1 be 89 90 62 be 45 79 08 bd 6f 5b 0a c0
       -0.4722987 -0.22125448 -0.033318777 -2.1618307
0000a0 18 ba 04 bf f6 14 4d c0 45 1b 03 bd be d1 a0 bd
       -0.51846457 -3.2044044 -0.032008428 -0.07852505
0000b0 04 72 d0 bf 7e 34 7e bf 22 2b d7 bf 2a 14 70 be
       -1.6284795 -0.99298847 -1.6810038 -0.23445192
0000c0 5a a0 98 bd 08 ac 49 c0 44 91 9b bf 4e 09 f6 bf
       -0.0745246 -3.151125 -1.2153707 -1.922159
0000d0 37 89 d0 bf 92 85 e2 be 21 f8 aa be 42 9f 67 bf
       -1.6291875 -0.4424253 -0.33392432 -0.90477383
0000e0 9d 01 0d c0 ab e7 c8 bd 7d 25 46 bf 26 8a b7 bf
       -2.2032235 -0.09809812 -0.7740095 -1.4339035
0000f0 c4 ef b3 bd 1d 82 ed 3e fb 44 92 3f f0 fe 3f c0
       -0.08785966 0.4638833 1.1427301 -2.9999352
000100 37 16 11 c1 fd fe f9 bf 9f b9 10 be 41 8f e5 be
       -9.067924 -1.9530941 -0.14133309 -0.44835857
000110 33 3a dd bf 0c a9 63 bd b3 61 bb bf da 4d 47 c0
       -1.7283386 -0.055581138 -1.463919 -3.1141267
000120 61 fc 8e c0 fb 5c df bc 4b 1e db bd 2d 15 99 bd
       -4.468308 -0.027266016 -0.10699137 -0.07474742
000130 75 b4 71 bf 88 91 25 be 7f 43 f4 c0 48 39 d9 c0
       -0.9441598 -0.16168797 -7.6332393 -6.7882423
000140 77 b4 91 bd 4f 76 99 c0 37 3b 11 c0 62 4d e9 bc
       -0.07114499 -4.795692 -2.2692392 -0.028479282
000150 95 29 af bf b1 59 e3 bf 1c 75 82 bf 98 a3 a5 be
       -1.3684565 -1.7761747 -1.0191989 -0.32351375
000160 70 9c b0 be fc a7 bf bf 36 a4 12 be 9b ef 4b 3e
       -0.34494352 -1.497314 -0.14320454 0.19915621
000170 fa 41 4a be 00 53 e1 bf 0b 25 4f c0 6f 44 12 be
       -0.1975173 -1.7603455 -3.236636 -0.14283918
000180 6b 9c 12 bf b7 a3 f0 be e0 0e 4c be 08 66 12 bf
       -0.57269925 -0.46999905 -0.1992755 -0.5718694
000190 58 a0 a5 bd 8d 45 0b bf 8a d2 e6 bf a5 8e ca bf
       -0.08087224 -0.54403 -1.8033001 -1.5824782
0001a0 12 ef 9f c0 51 23 27 be 05 1d 01 c0 78 2e 11 c0
       -4.9979334 -0.16322066 -2.0173962 -2.2684612
0001b0 6e 60 a2 bf f1 67 6c bf 98 53 a9 be bf 7d 6e bf
       -1.2685678 -0.923461 -0.3307159 -0.93160623
0001c0 34 21 89 c0 60 43 78 bf b4 0d a0 be 61 33 8f bc
       -4.285303 -0.96977806 -0.31260455 -0.017480554
0001d0 dc 87 15 c0 4d c2 4d be ea 8f e3 c0 8d f7 15 bf
       -2.3364172 -0.20093651 -7.1113176 -0.5858086
0001e0 44 30 74 be 32 a2 41 c0 11 96 2d c0 2f 39 c6 bd
       -0.23846537 -3.0255246 -2.7122843 -0.09678876
0001f0 40 49 b8 bc 57 50 ea bc fb 53 a7 c0 78 96 ae bf
       -0.022495866 -0.028602762 -5.2290015 -1.363967
000200 d0 11 28 be fe c5 c1 c0 15 42 29 c0 d2 53 4c bf
       -0.16413045 -6.055419 -2.6446583 -0.798154
000210 b7 1f 02 be 35 2a 74 be 48 1a 9e be 9a 3e 97 bf
       -0.12707411 -0.23844226 -0.30879426 -1.181598
000220 03 50 43 be 15 2d cb c0 25 c3 4a c0 20 40 fc bd
       -0.19073491 -6.349253 -3.1681607 -0.123169184
000230 f1 05 33 40 1c a1 93 c0 25 06 66 bf 69 ca 09 c0
       2.7972376 -4.6134167 -0.89853126 -2.1529791
000240 ef e1 bf c0 79 b3 78 bc 7b 29 cd be 77 12 fa be
       -5.99633 -0.015179508 -0.4007071 -0.48842213
000250 49 bc d6 bd 90 8d 3a bd
       -0.10485131 -0.04554516

hiddenLayer2.weight f4 [150, 150]
000000 e4 df a5 3e 60 e8 85 3f 2e e7 29 3f c5 22 43 40
       0.32397377 1.046154 0.6636838 3.0489972
000010 cf e7 5b bd eb a0 8a 3c 7c d8 94 be bf f9 d4 be
       -0.053687867 0.016922435 -0.29071414 -0.4159679
000020 98 68 ca bf df e3 a0 bf 91 30 f8 bf 7a 7a a4 c0
       -1.581317 -1.2569541 -1.9389821 -5.1399508
000030 35 3b de be 25 17 56 41 aa 06 46 3d 28 9d 08 bf
       -0.43404546 13.3806505 0.0483462 -0.533648
000040 ec 3a 02 bf 0d db eb c0 89 bb 99 3f 0a 44 ff bd
       -0.5087116 -7.3704896 1.2010356 -0.12464149
000050 e4 a2 60 bf f9 62 e0 bf 99 4d 03 be 63 76 5e 3e
       -0.8774855 -1.7530204 -0.1282257 0.21724848
000060 93 06 a3 be de ce 81 3f a7 10 81 bd 11 66 0c c0
       -0.31840953 1.0141256 -0.06302004 -2.1937296
000070 01 ac 26 3e 9f 90 a0 c0 24 23 dd be 63 ff e2 bf
       0.16276552 -5.017654 -0.43190873 -1.7734188
000080 93 29 b2 c1 b9 33 35 3f 43 5d 94 be 08 5c e3 be
       -22.2703 0.7078205 -0.28977403 -0.44406152
000090 47 4c a3 c0 81 0a f2 be 8d 36 8b 3d 6b c6 e6 40
       -5.103061 -0.4727364 0.06797514 7.211721
0000a0 06 20 ac be 53 c6 2b c0 ba 6c 34 3c 86 29 c5 bf
       -0.33618182 -2.6839797 0.011012251 -1.5403297
0000b0 0e 4b 5a c1 4c 87 7a bf 50 26 0e c0 14 9c b1 3e
       -13.643324 -0.97862697 -2.2210884 0.3468939
0000c0 91 3d 36 3f 04 aa a6 c0 12 39 d6 c1 6c 6e 9b 3d
       0.7118769 -5.208254 -26.777866 0.07589421
0000d0 3f 85 fe 3f 9d 41 9b 3f 4d 08 97 40 7c e3 3d c1
       1.9884413 1.2129399 4.7197633 -11.868038
0000e0 48 64 e8 be 79 cb ad 3e 1b 8b 1b 40 7f 65 90 c0
       -0.4538901 0.339443 2.4303653 -4.5123897
0000f0 65 bb 4c 3e 90 5c 94 be 90 5c 13 3f 0c 4a a3 3f
       0.1999336 -0.2897687 0.57563114 1.2756972
000100 df 34 a3 3f e8 64 a5 40 61 6e bd 3b 1e cb b7 3f
       1.275051 5.1685677 0.0057809805 1.4358861
000110 3a 0f a9 3f 94 8d 43 3c 01 59 2c 40 d9 fc 75 c0
       1.3207772 0.01193561 2.6929324 -3.8435576
000120 b0 18 52 bf 96 c5 0e bc 6f df ca 3c c8 ec 44 3f
       -0.8206892 -0.0087141 0.024764745 0.769238
000130 13 ca 4f c0 d1 09 67 3e 09 bb f6 3e d2 f9 e0 be
       -3.2467086 0.22562338 0.48189571 -0.43940598
000140 35 11 74 3e 86 af 6b 3e da a0 ea c0 7f ab ab bd
       0.23834689 0.23016176 -7.332135 -0.0838232
000150 b0 60 85 c1 9a 7c 30 bd be 18 07 bf a9 3a b2 3c
       -16.67221 -0.04308758 -0.5277213 0.021756487
000160 77 d6 26 40 2d d7 a5 c0 2e 3e 0b c1 96 59 89 3f
       2.60684 -5.1825166 -8.702681 1.0730464
000170 c3 bd 0a c0 b3 13 40 c0 76 d2 aa 3e d9 fa 99 bf
       -2.1678321 -3.0012023 0.33363694 -1.2029678
000180 18 f0 65 40 a7 fb 10 bf 3d 5d 0a 3f e2 ef 75 3e
       3.5927792 -0.5663399 0.5404852 0.2401729
000190 c6 a4 7c 3f 8a e2 50 3f aa 9b bc 3f b5 dc 03 3e
       0.98688924 0.8159567 1.4735005 0.12877162
0001a0 96 58 8d bf cf e5 c2 3e f5 e4 85 3f 64 7d 7d 3e
       -1.1042659 0.38065955 1.0460497 0.24754864
0001b0 4c 20 5a c0 16 b2 71 bf b8 76 90 bf 5f 15 01 c0
       -3.4082212 -0.9441236 -1.128623 -2.0169294
0001c0 81 8f 81 c1 b0 85 27 be 61 9b b7 c1 d8 e3 2d 3c
       -16.19507 -0.16359591 -22.950869 0.010613404
0001d0 f5 d3 6d 40 d6 97 29 bf 88 5e 24 3f f6 b2 22 c0
       3.7160618 -0.6624731 0.64206743 -2.542173
0001e0 ee 86 54 be ef 84 f2 c0 8a a4 a2 bf 9f e8 0f 3e
       -0.20754597 -7.5787272 -1.2706463 0.14053582
0001f0 58 49 0f bd 2e 00 74 be d8 eb 0e c0 27 25 68 be
       -0.034982055 -0.23828194 -2.2331448 -0.22670422
000200 53 7a 14 3e 4b 2c f4 c0 48 00 94 c0 b8 f3 99 c0
       0.14499788 -7.630407 -4.6250343 -4.811001
000210 42 b5 8a bd 6d c9 ce c0 04 ff f5 c0 48 c9 09 c0
       -0.067728534 -6.462088 -7.68738 -2.1529102
000220 ab e8 65 be ba 3c 0c c0 ba 4c 38 40 d7 7a c4 3e
       -0.22452037 -2.1912065 2.879683 0.3837497
000230 d3 37 a1 be 05 61 53 3e 05 7e 89 c0 d8 f0 c1 bf
       -0.31487903 0.20642479 -4.2966332 -1.5151625
000240 65 59 13 bf db aa 07 3d 4c 25 31 3f 67 29 79 bf
       -0.5755828 0.033121925 0.69197536 -0.973288
000250 b6 b2 58 3d 86 2f 6d 3e 9a d9 45 c1 75 4e ac 3f
       0.052904807 0.2316266 -12.365625 1.3461443
000260 22 b8 b8 c1 b1 bd bb bf 1f 64 aa 3e 4c 1c 30 bd
       -23.089909 -1.4667264 0.3327951 -0.042995736
000270 50 cd 0a be dc d5 9e bf c0 60 dd 3e 90 a0 38 40
       -0.13554883 -1.2409015 0.43237877 2.8848
000280 ed 50 a4 c0 58 33 92 c0 bf e2 af bf 14 b2 d8 c0
       -5.1348786 -4.5687675 -1.3741072 -6.771738
000290 11 7f 96 3d 3d 91 b9 3e e8 bc 80 40 24 65 44 40
       0.07348455 0.3624362 4.02306 3.0686731
0002a0 0c 6b a1 40 02 47 15 be 8d b8 26 c0 fa 70 15 c0
       5.0443172 -0.14577869 -2.605014 -2.3350205
0002b0 76 5a f2 bf 78 2e f6 3d 7a a1 8d c0 a1 5e 95 c0
       -1.8933856 0.12020582 -4.4259615 -4.6678014
0002c0 ad bb 48 40 5a df 96 c0 36 b1 00 40 b4 df 21 3d
       3.1364548 -4.7147646 2.010816 0.03951998
0002d0 01 40 50 bf b3 45 3e bf 09 af 9e 40 33 aa 87 3f
       -0.8134766 -0.743251 4.9588666 1.0598816
0002e0 2d dc a2 3f 8a 5e 36 c0 8e 8d 0a c1 f3 33 6c 3e
       1.2723442 -2.8495202 -8.659559 0.23066692
0002f0 4f d7 42 3d af 76 ab c1 c4 09 b5 c1 fd 36 43 40
       0.047568616 -21.432951 -22.629768 3.0502312
000300 47 26 41 be b8 2a 63 bf 10 7c 19 c1 f1 0a 63 3c
       -0.18862258 -0.8873706 -9.592789 0.013857589
000310 02 c5 a4 bf 80 b1 73 40 f1 82 ff 3d 6e 9e 01 c0
       -1.2872622 3.8077087 0.12476147 -2.0252948
000320 71 49 02 c0 32 6c 13 c1 ff 79 84 3e bf 7f b8 3e
       -2.0357325 -9.213915 0.25874326 0.36034963
000330 49 84 33 40 05 ec 05 c0 5e b6 1d c0 ea 38 30 3e
       2.804949 -2.0925305 -2.4642558 0.17209211
000340 3d 82 a4 41 53 dc 0d c0 e9 0a 33 bf 7b 7c 35 bf
       20.563593 -2.2165725 -0.6993852 -0.7089307
000350 11 16 cf 3e a9 7d d6 be 8a a2 0a 40 0d d8 d8 bf
       0.40446523 -0.41892746 2.1661706 -1.6940933
000360 f8 a1 fb be 9b 34 41 3f 7b 79 ae c0 e7 57 00 3f
       -0.4914701 0.75470895 -5.452329 0.5013413
000370 67 b5 d4 c0 b8 53 57 40 60 d6 97 bf a7 de 84 3d
       -6.647144 3.3644848 -1.1862297 0.0648778
000380 c2 b3 74 be 31 91 6d 3e ef ec 91 40 ca a9 fa be
       -0.23896697 0.23199917 4.5601726 -0.48957664
000390 9e ff 86 3f 8d 7f c9 bf 59 d0 12 3e c1 1e 04 c1
       1.0546758 -1.574205 0.14337291 -8.257508
0003a0 dc 95 fb bf 20 2d 2f bd f1 1b 40 3f a0 c5 e5 be
       -1.9655108 -0.042767644 0.75042635 -0.44877338
0003b0 84 44 28 c0 75 46 17 c1 e3 3e da bf 83 cb 1b c1
       -2.6291819 -9.454701 -1.7050442 -9.7371855
0003c0 fc 0e ba be 34 aa a2 40 ef 09 a2 3d e6 09 eb c0
       -0.36339557 5.0832767 0.07912051 -7.3449583
0003d0 53 56 85 be c0 26 09 3f c3 53 39 bf 12 55 eb bd
       -0.26042423 0.5357475 -0.72393435 -0.11490835
0003e0 de 14 01 c1 56 7d 5e be 67 a6 40 3e 3d 65 e9 3d
       -8.067595 -0.217275 0.18813477 0.11396263
0003f0 7f dc 78 c0 d9 46 e9 3f 7a 73 a4 3e 91 15 d5 3d
       -3.888458 1.8224746 0.32119352 0.10404504

hiddenLayer2.bias f4 [150]
000000 06 3a ae be 96 16 a7 bf af 2c d7 3e 2a 75 74 3f
       -0.34028643 -1.3053768 0.42026278 0.9549128
000010 16 29 b5 3e 8e 35 18 bf b7 4c 36 bf 4d 39 6e be
       0.3538291 -0.5945672 -0.7121081 -0.23264046
000020 af 97 92 40 62 d6 7a 3e 06 fc a5 3f 59 2d 83 bf
       4.581016 0.24495843 1.2967536 -1.0248214
000030 1e 5e 6a 3e 01 bf 85 bf 69 58 92 bd f8 31 0b bf
       0.22887465 -1.0448915 -0.07145769 -0.5437312
000040 cf 33 c8 3f 9c 2b 66 bd b7 20 8a 3f 6e 85 5b bf
       1.5640811 -0.056193933 1.0791234 -0.8575047
000050 5c c0 1c 3d ed b0 9b bd 6b 01 92 be 96 af 50 bf
       0.038269386 -0.07602105 -0.28516707 -0.8151792
000060 6d aa c7 bd 40 fd 56 be 6d 95 71 be 84 ed 73 40
       -0.09749303 -0.20995045 -0.23592158 3.8113718
000070 3a ab 98 be e9 5f 0c bf 3d 5d 79 3e bf 38 01 c0
       -0.29818135 -0.5483385 0.24351974 -2.0190885
000080 98 7d 82 be d8 7d 52 3f b7 cf 1b 40 ee 86 06 bf
       -0.25486445 0.8222327 2.434553 -0.52549636
000090 15 ad 4b bf ad b0 cc be 2c 6d 4e 3e 75 f3 cc bf
       -0.7956098 -0.39978543 0.20158833 -1.6011797
0000a0 0a b9 19 bf 49 53 f0 bf 84 bd 0a bf 0c 5f 9a bd
       -0.6004797 -1.8775417 -0.5419543 -0.0753766
0000b0 73 f1 01 40 b1 20 8c be 9f c4 1c c0 67 52 3b c0
       2.030362 -0.27368692 -2.4495008 -2.9269044
0000c0 04 27 28 bf 06 e1 b3 be 4e d5 d4 3b dc d4 44 3e
       -0.65684533 -0.35132617 0.0064951545 0.19221824
0000d0 44 6e b4 3d 19 63 15 3f 80 86 3c bf 2a d2 4a bf
       0.08810094 0.58354336 -0.7364273 -0.79226935
0000e0 d1 ec 8c 3c ae 13 06 bf d0 1b 91 3e 5b d8 f0 bf
       0.017202767 -0.5237378 0.28341532 -1.8816026
0000f0 a5 b8 93 be 53 68 17 be 23 cc c2 be 80 16 a7 bf
       -0.2885181 -0.1478589 -0.3804637 -1.3053741
000100 21 e8 35 c0 15 56 c8 3e 4e b4 33 c0 58 a8 f3 3c
       -2.842293 0.39128175 -2.80788 0.029743358
000110 00 2d 92 bf 67 30 c5 3f fe 87 9d 40 13 e0 8d bf
       -1.1419983 1.5405396 4.9228506 -1.1084007
000120 ad 2c fc 3d 8d 7b f0 3f c8 a7 ff be be ad bb be
       0.12313209 1.8787705 -0.49932694 -0.36655992
000130 13 37 9b 3e 15 f6 99 bd 38 2c d9 3e 3b be 2e bf
       0.30315456 -0.075176395 0.4241655 -0.6825902
000140 58 21 20 c0 77 b1 c5 be 99 2e b5 be 1a 43 35 c0
       -2.5020351 -0.38611957 -0.35387114 -2.8322206
000150 be 5e 24 bf 86 50 bb be 14 7f 36 3f 17 6c ab bf
       -0.64207065 -0.36584872 0.71287656 -1.3392361
000160 e7 69 1c be 13 b0 92 bc b3 8c 83 3e 27 86 cb 40
       -0.15274774 -0.017906224 0.25693282 6.360126
000170 22 62 6b bf 08 e0 45 bf ca a9 de be 8d 0a d4 bf
       -0.91946614 -0.7729497 -0.43488914 -1.656572
000180 92 c0 1f 3e 34 00 8d 3e 23 9c 8a be d9 66 06 41
       0.15600803 0.27539217 -0.27072248 8.400109
000190 8f 4d 3f be c5 0d b7 be dd 3c 0f be 19 db 5d bf
       -0.1868193 -0.35752693 -0.13988061 -0.8666244
0001a0 24 da 51 bd 07 5b 99 3f c0 2a dc be ec 14 0d be
       -0.051233426 1.1980904 -0.43001366 -0.13777512
0001b0 27 dd 9d 40 8e 16 86 bf 5d 93 04 3f bb 32 e0 bf
       4.933246 -1.0475633 0.5178736 -1.7515482
0001c0 5a 35 4b bf a5 d5 a2 40 44 0e 42 40 56 e1 98 3e
       -0.79378283 5.0885797 3.0321207 0.29859418
0001d0 7a 09 42 bf 3c 99 43 bf 0e c4 ad be 41 0c 97 3e
       -0.7579571 -0.7640569 -0.3393864 0.29501536
0001e0 94 25 95 bd 27 94 95 bf bb 0e ce be a9 62 9b bd
       -0.07282558 -1.1685838 -0.40245613 -0.07587177
0001f0 66 94 02 bf 8c 75 50 40 f6 49 87 bf 5d d0 84 be
       -0.5100769 3.2571745 -1.0569446 -0.2594022
000200 35 b3 41 3f 97 22 06 bf 73 12 6d be 3a 3c 85 bf
       0.75664073 -0.5239653 -0.23151569 -1.0409005
000210 c7 88 81 40 e0 ed c1 3e 11 45 66 be f6 f3 5c be
       4.0479465 0.37876797 -0.22487284 -0.21577439
000220 ed 2f 8c bf 48 4a 24 be 88 22 89 bf 49 67 87 be
       -1.0952126 -0.16043961 -1.0713663 -0.26445988
000230 83 ea b6 bf b3 c8 52 bf 2f 65 8f bd 1b cc 1f bf
       -1.4290317 -0.8233749 -0.07001721 -0.62420815
000240 9d 7b e5 be 14 95 47 bf cf ec 42 3f 6b 0d c0 bd
       -0.44820872 -0.7796185 0.7614259 -0.09377559
000250 c3 54 b3 be 22 44 ad be
       -0.35025606 -0.33841044

hiddenLayer3.weight f4 [150, 150]
000000 0a 45 f1 be 93 41 31 3f ee 9e 72 40 49 f9 66 bf
       -0.47122985 0.69240683 3.7909503 -0.9022413
000010 41 9b 87 bf db 3f 58 be 32 e4 05 be 55 50 d4 be
       -1.0594255 -0.21118109 -0.13075331 -0.41467538
000020 c3 dd eb be 51 2a f7 be 11 d2 43 bd 0f b2 d8 bf
       -0.46067628 -0.48274472 -0.047807757 -1.6929339
000030 37 b3 65 bd 35 4a 8d bf f3 1c 40 bc 18 2a 8c 3d
       -0.056079116 -1.1038271 -0.011725652 0.06843966
000040 26 0a 37 3f 2f 2c 07 3f f4 d4 d3 3f 8a 54 81 bf
       0.7149986 0.52801794 1.6549363 -1.0103924
000050 57 e2 0f c0 9e a7 f5 bc fe 13 1a 3f 11 7c 9d c0
       -2.2481897 -0.029987153 0.60186756 -4.921395
000060 ce 95 8f 3d 2f 7b 08 c0 4e f1 02 c0 28 63 9f 3e
       0.07010995 -2.1325185 -2.045978 0.31130338
000070 89 0c 44 bf e7 91 a0 3f 5d 8b 8f 3e cf 42 06 40
       -0.7658163 1.2544526 0.28036013 2.0978277
000080 65 28 df c0 c5 77 93 40 1e 4e 62 3d c4 25 1d c0
       -6.973681 4.6083703 0.05525028 -2.45543
000090 4f 92 18 c0 1b 4b 17 40 de 63 27 3f cc 49 4f 3f
       -2.38393 2.363959 0.6538676 0.8097198
0000a0 ae d0 6d 40 58 c8 44 40 4d 60 32 bf f9 64 2a 3d
       3.7158618 3.074728 -0.69678193 0.0416002
0000b0 08 9d 88 3d e2 2b 08 3e e6 d6 3c c1 bd a9 e4 c1
       0.06670576 0.1329799 -11.802465 -28.58288
0000c0 80 7d 57 c0 16 07 f5 3f 50 3b be 3f 55 23 55 be
       -3.367035 1.9142787 1.4861851 -0.2081426
0000d0 a2 31 55 be be 0d cc bf 98 3c a3 be 64 8d 3a bf
       -0.20819715 -1.5941694 -0.31882167 -0.72871995
0000e0 13 f7 a1 3e b4 57 93 3e 2e f1 39 c0 aa 7d 6b 3f
       0.31633815 0.2877785 -2.9053454 0.91988623
0000f0 50 f4 2a bf ea 59 cf c0 e0 3d 5a 3f 51 40 06 40
       -0.6677904 -6.479726 0.85250664 2.0976756
000100 2e 6b cb 3f 4a b9 8f 3f 23 ee 08 40 fb c3 ae be
       1.5892084 1.1228421 2.1395347 -0.34133896
000110 b0 83 a2 c0 b5 c4 10 40 5f d2 ed 3d 24 db fe 3e
       -5.078575 2.262006 0.11612391 0.49776566
000120 dd 00 4c bf 3c 05 9d 3e 87 fe d1 bf c0 fe c8 3d
       -0.7968882 0.30668056 -1.64058 0.09814215
000130 ea da 16 c0 eb 46 0f 3f cc 25 1e 3e 21 d1 60 c0
       -2.3571115 0.5596759 0.15444106 -3.5127642
000140 ef 00 04 c0 16 9f a8 bf 8b 12 aa 3d c5 bf 4e bf
       -2.062557 -1.3173549 0.08304318 -0.8076137
000150 7a 83 99 3e c0 74 10 3e 2e a4 47 40 ca 9a 3e 3f
       0.2998312 0.14107037 3.1193957 0.7445494
000160 87 05 38 40 c5 4e a0 3d fa 79 bf be 62 64 1a 3f
       2.8753374 0.07827524 -0.37397748 0.6030942
000170 c1 07 fb be 0e 38 6c 3e ab 43 0b c0 ab 06 16 3f
       -0.49029353 0.23068258 -2.1760051 0.58603925
000180 c9 d0 e2 3e b4 ed 22 40 3c 06 39 bf 76 1a 76 3e
       0.44299915 2.5457582 -0.7227514 0.24033532
000190 76 28 7c bf d0 35 e2 be 43 fb b1 3e ee b1 6f 3f
       -0.9849924 -0.4418168 0.3476201 0.93630874
0001a0 a0 71 39 bd 8d 5d 06 3f 95 39 d0 c0 82 b5 ee 3e
       -0.045274377 0.524865 -6.507029 0.46622854
0001b0 86 f4 96 3e eb 71 11 c0 46 97 4a 40 b2 54 13 c0
       0.29483432 -2.272578 3.165483 -2.3020444
0001c0 b5 20 8f c0 96 a6 5f be 12 b5 6f be 0e c6 6e bf
       -4.4727426 -0.21840891 -0.23408917 -0.9327096
0001d0 d1 b3 0e 40 be 69 f1 be ee 13 c2 3e 94 00 4e c0
       2.2297251 -0.47150987 0.3790583 -3.2187853
0001e0 52 7c 1c 3c ae 2e 1a 3f 4d b8 49 c1 3c b4 31 3d
       0.009551125 0.6022748 -12.607495 0.043384776
0001f0 05 ab 0f 3d 07 6e 5f bf 96 65 28 c1 75 95 e3 3b
       0.035075206 -0.87277263 -10.524801 0.006945307
000200 d8 a6 6e be 95 2b 10 c0 90 4a 51 c0 18 7e a0 bf
       -0.23305833 -2.25266 -3.270176 -1.2538481
000210 e3 41 ff be b1 0b 6c c0 66 14 c0 bf c9 6b 1f 40
       -0.49854955 -3.6882136 -1.5006225 2.4909537
000220 09 75 44 3f 95 0e a5 3f d7 d6 30 40 7c 07 cb 3f
       0.7674108 1.2895075 2.7631128 1.5861659
000230 78 e4 b9 3f a0 1b 3d c1 00 7e 03 bd 5a 12 81 c0
       1.4522848 -11.819244 -0.032102585 -4.03349
000240 29 60 1d c0 ce dd 30 40 09 87 15 3f f1 de 07 bc
       -2.4589942 2.763538 0.5840917 -0.0082928995
000250 c6 b4 af 3f fd fe 3a bd 44 6f 45 bf a2 4a 90 be
       1.3727043 -0.045653332 -0.771229 -0.2818194
000260 15 56 54 40 07 1e 37 3e d6 60 e0 3e 72 00 30 3d
       3.317754 0.17882548 0.4382388 0.042969175
000270 ec f0 78 c1 96 3a 1f 3f a3 36 c5 bf b8 b1 e0 3f
       -15.558819 0.6219877 -1.5407299 1.7554235
000280 dc f8 8d bf bc 2e 62 bf 3e 4e a8 3f 5c c8 79 bf
       -1.1091571 -0.8835256 1.3148878 -0.9757135
000290 fd 53 a9 bc 86 af 46 3d 96 b6 43 be fb eb 80 bf
       -0.020669932 0.048507236 -0.1911262 -1.0072016
0002a0 87 ab dd be ff e8 b1 bf 07 a6 88 bf 2f a6 68 bd
       -0.43294927 -1.389923 -1.0675668 -0.05679911
0002b0 9f 73 36 bf 8e a8 82 3f 3b 7d ea 3d 01 1a 1a c0
       -0.71270174 1.0207689 0.11449667 -2.4078372
0002c0 63 b5 36 bf 00 0e 5a bf f5 54 ca bf 9b 1a a1 bc
       -0.71370524 -0.8517761 -1.5807177 -0.019666007
0002d0 b5 d4 6a be f6 58 0a 3f d4 ea 1e c0 52 82 53 40
       -0.22932704 0.54041994 -2.4830828 3.3048291
0002e0 da b2 08 3f 7a 39 1d 40 2c e2 e9 3f 6d 44 51 40
       0.53397906 2.456633 1.8272147 3.2698014
0002f0 c3 ec 7a 40 b5 a5 98 be 93 59 e7 be 40 2b b5 c0
       3.9207008 -0.29813924 -0.45185527 -5.6615295
000300 d9 c5 67 c0 7e 07 99 3d 4b 6d d9 be 23 59 24 3e
       -3.6214507 0.07472132 -0.42466196 0.16049628
000310 8e 25 21 c1 97 61 2d 41 04 cd 85 bf 37 63 b5 bf
       -10.071669 10.836326 -1.0453191 -1.4170903
000320 a6 13 4e 3f 05 b5 c2 bf 0c fd bc bf 7a f4 c2 bd
       0.8049873 -1.5211493 -1.4764724 -0.095192865
000330 12 e9 16 40 c8 f8 dd 3f 92 43 5c 3f d7 d1 fc 3d
       2.3579755 1.7341547 0.86040604 0.12344711
000340 cb 86 30 bf f7 bb ba bd 99 61 f2 be 7c b2 a4 be
       -0.6895568 -0.09117883 -0.47340086 -0.32167423
000350 94 65 83 bf 73 43 2d c0 f4 d8 36 c1 06 a6 63 bf
       -1.0265374 -2.7072418 -11.427967 -0.88925207
000360 36 05 68 c0 ec 36 10 bf fa d9 22 40 ee 0e 10 3e
       -3.625318 -0.56333804 2.5445542 0.14068195
000370 5b b4 fa bf 16 fb b5 bd cf b8 b0 bf f7 61 2c c0
       -1.958629 -0.088857815 -1.3806399 -2.6934793
000380 e2 57 7e c0 79 6d 55 3f 9f c3 d5 3f 17 cd c6 bf
       -3.974114 0.83370167 1.6700324 -1.5531338
000390 24 20 cd bf b5 45 d4 be dc 10 17 3f f0 09 96 3f
       -1.6025434 -0.41459432 0.590101 1.1721783
0003a0 5e 58 d1 bd 50 e0 a0 bf d0 a6 22 40 b3 11 77 bd
       -0.10221933 -1.2568455 2.5414314 -0.060319614
0003b0 04 4a d7 bf 0b 2c 68 3f 40 3a ca bf e0 8a b5 3d
       -1.6819463 0.90692204 -1.5799026 0.08864379
0003c0 6a 01 4c 40 a5 ac 78 bf 9b e5 94 be 9a 37 36 3f
       3.1875863 -0.97138435 -0.29081425 0.7117859
0003d0 fc 71 c8 3d 68 c1 4a 3f a3 9d 69 3f 34 d7 54 40
       0.09787366 0.79201365 0.9125616 3.325635
0003e0 d8 d9 b8 3f 64 97 18 c0 ec 94 b4 c0 46 4e 10 bd
       1.4441481 -2.3842402 -5.643179 -0.035230897
0003f0 a3 2d 80 3e b9 e8 73 3f 0d 65 68 bd d3 4a 76 be
       0.25034818 0.9527698 -0.056736995 -0.2405198

hiddenLayer3.bias f4 [150]
000000 d5 49 0e 41 74 63 b3 3f 91 5e 8b be 7f 75 bb 40
       8.893025 1.4014726 -0.27220586 5.858093
000010 1f b5 c4 3e 3b 8d d5 40 f6 f7 42 c0 f3 71 56 40
       0.38419434 6.67349 -3.0463843 3.350705
000020 bf 12 7b be 76 75 78 bf 13 fe eb bd 0a 7e 8d 40
       -0.2451887 -0.9705423 -0.1152307 4.4216356
000030 eb 27 8f be a1 5e 8e be bf 25 d4 40 ea 05 bb c0
       -0.27960142 -0.2780657 6.6296077 -5.844472
000040 e7 ce 05 c1 11 e0 c2 40 bc c0 19 bf a9 3a 4a bf
       -8.363013 6.089852 -0.60059714 -0.7899576
000050 f4 ec 19 3f da 7a a3 40 ec db 1f 3f a7 e5 4a 40
       0.60127187 5.1087465 0.6244495 3.1702669
000060 74 73 3e bf 28 cf 29 41 e6 a3 b8 40 51 41 4d bf
       -0.7439492 10.613075 5.770007 -0.8017779
000070 35 69 99 c0 dd fe bc 40 70 5e 34 be 80 d1 d8 c0
       -4.7940927 5.9061112 -0.1761415 -6.7755737
000080 62 c6 b5 be 02 b7 63 bd 35 d4 7d 41 fa d5 97 bf
       -0.35502917 -0.05559445 15.864308 -1.1862175
000090 56 e7 c8 3f 07 60 26 41 0a c6 a6 bf 90 43 b5 bf
       1.5695598 10.398444 -1.3029187 -1.4161243
0000a0 18 3f be 3f 91 85 9d be 4c 7c 9e 3f 88 d6 78 c0
       1.4863005 -0.30765966 1.2381682 -3.888094
0000b0 4f 60 b3 be 89 47 9b 3d 8b 2e d8 be ed 6b 4c 41
       -0.35034415 0.075820036 -0.4222301 12.776349
0000c0 ab bd 23 bf 39 31 04 c0 92 4e 9f 3f 66 7b 64 c0
       -0.63961285 -2.0655043 1.2445853 -3.5700316
0000d0 8a b5 23 40 c3 c6 25 be 39 1c 59 3f 2c ee 06 41
       2.5579553 -0.16189103 0.8480869 8.433147
0000e0 df 70 25 be 99 9c c1 c0 0a 03 86 40 b1 de d0 c0
       -0.16156338 -6.050366 4.187871 -6.527184
0000f0 ce 25 67 bf 2f 3e 80 be 0a de 86 c0 e8 18 24 bf
       -0.9029206 -0.25047442 -4.2146044 -0.64100504
000100 55 de ac be 31 5d d0 3d a4 f9 0e bf 57 2d b0 be
       -0.33763376 0.10174025 -0.5584967 -0.34409592
000110 a7 ad bc be ac 29 65 be bf 39 d3 40 02 da 02 40
       -0.36851236 -0.22379178 6.600799 2.0445561
000120 7b 7e 3c 3f ec 46 48 41 4f 30 50 41 a1 b3 31 bf
       0.73630494 12.517315 13.011794 -0.69414717
000130 7c 54 2a c0 19 89 39 be 68 38 cf 40 93 ef 9a be
       -2.6614065 -0.18118705 6.4756355 -0.30260906
000140 c7 a0 a4 bf 95 a3 3d 41 3d 49 04 41 53 9a a3 be
       -1.2861565 11.852437 8.26788 -0.31953678
000150 30 ff c3 bf b9 35 06 be 55 ff 0b bf 95 8f 23 bf
       -1.5312252 -0.13106431 -0.5468648 -0.63890964
000160 46 81 d8 bd 24 6c 9f be 94 1b 84 40 db c6 4d 41
       -0.10571532 -0.31137192 4.1283665 12.861049
000170 28 a8 f4 be ef 4e b0 c0 77 c0 b4 bf 70 80 86 be
       -0.47784543 -5.5096354 -1.4121236 -0.26269865
000180 61 76 c3 be c4 68 92 40 7d d9 0f 41 08 91 bd 40
       -0.38176253 4.575289 8.990598 5.923954
000190 bc 61 17 c1 8a 04 0a 41 d1 23 a7 be 1c d5 01 bf
       -9.461361 8.626108 -0.32644513 -0.50715804
0001a0 b0 fe 63 41 ac 7a 67 be aa 6d 63 bf 54 b3 0c 3f
       14.24968 -0.2260539 -0.8883921 0.54961133
0001b0 4c e2 6d 41 ce 39 58 41 e1 33 0f c0 62 fb 99 3f
       14.867748 13.514112 -2.2375414 1.2029841
0001c0 9d ee 4c 41 24 8a 1e 3b da 0c e1 3f a7 b4 dc 40
       12.808255 0.0024191225 1.7582047 6.8970523
0001d0 44 38 29 bd cb 9e 1b be db 55 b4 3f 27 07 0c bf
       -0.041313425 -0.15197293 1.4088701 -0.54698414
0001e0 c0 bb bf bd 35 00 c3 be c9 e0 9d c0 a4 b1 84 be
       -0.09361982 -0.38086095 -4.9336896 -0.2591678
0001f0 b7 75 26 3e b5 90 af c0 03 0d 35 bf e5 83 a7 c0
       0.16255842 -5.4864144 -0.7072298 -5.2348504
000200 7a e5 59 3e 55 77 23 41 be d4 22 40 83 59 fc 3f
       0.21278945 10.216634 2.5442348 1.9714817
000210 39 31 54 be af b5 e8 be ae 86 10 41 37 72 44 41
       -0.20721902 -0.45451114 9.032881 12.2778845
000220 06 32 0a be b2 7b 5c c0 7f a2 eb 3f 4c d3 32 be
       -0.13495645 -3.4450498 1.8408965 -0.17463416
000230 56 65 da bd 57 55 34 c0 c6 7e 0b bf 06 49 af bf
       -0.106638595 -2.8177087 -0.54490316 -1.369416
000240 b6 2a 39 41 01 f8 26 3e 06 ab 73 41 d6 e2 7d be
       11.572927 0.16305543 15.229254 -0.24793562
000250 b9 90 27 3f 4a ed 07 bf
       0.65455204 -0.5309645

outputLayer.weight f4 [2, 150]
000000 f3 bb b3 3f 01 2e 7a be 42 0b 2b 3d 0e 4b e7 3e
       1.4041733 -0.24431612 0.041758783 0.4517445
000010 ad 0f 5d 3e fc 75 61 3f 99 23 06 c0 39 99 bc 40
       0.21588011 0.88070655 -2.0959227 5.893704
000020 fe 1c 1a c0 5f 71 1f 40 3f 30 e5 3c 5d 48 1c 41
       -2.4080195 2.4912946 0.027977107 9.767667
000030 8e ed 32 3f 9c 41 82 3f c2 0e 71 3e 21 fe bb bf
       0.6989373 1.0176272 0.23540786 -1.4686929
000040 e3 81 41 bf 04 63 5a 3f 67 38 04 c0 7b da e1 3f
       -0.75588816 0.85307336 -2.0659425 1.76448
000050 8e ec c0 3e 77 94 7a 3f 22 0c 77 bf 93 61 f8 3f
       0.37680477 0.9788279 -0.9650289 1.9404777
000060 28 7b 6e c0 fd f1 b5 3f 18 e0 a4 3f b2 e9 e5 bc
       -3.7262669 1.4214474 1.2880888 -0.028065536
000070 51 8a ab c0 14 90 66 3f 07 13 3d bf ce 32 2e c0
       -5.3606343 0.90063596 -0.7385716 -2.7218509
000080 bf c5 59 40 ba 9e 34 3d 17 1e d3 3f 2b c4 b7 c0
       3.4026945 0.044096686 1.6493558 -5.7426963
000090 92 d5 40 be a2 26 82 3f 37 de 2b bf b7 38 87 bd
       -0.1883147 1.016804 -0.6713595 -0.066026144
0000a0 bd 10 da 3e 97 29 30 3f 19 f2 d5 c0 cc 30 08 c1
       0.42590895 0.6881346 -6.685803 -8.511913
0000b0 9e 7e 8e 40 26 99 82 41 df 88 5d 3f 3b 95 92 3f
       4.452956 16.32478 0.86536974 1.1451792
0000c0 cd 67 d1 be 36 1f 80 c0 ad 83 20 be d3 2a fd bf
       -0.40899506 -4.00381 -0.1567523 -1.9778694
0000d0 82 f3 f0 3e 6c c8 b9 bc 3b ce c5 3f 71 a7 fa 40
       0.47060782 -0.022678576 1.5453562 7.8329396
0000e0 be 8d bb 3e dc 75 b1 bf 74 37 0e 40 16 21 cd be
       0.36631578 -1.3864093 2.2221346 -0.40064305
0000f0 93 9b ef 3f 1e 09 00 c0 c3 49 9f be 87 5c 0e 3f
       1.8719352 -2.0005565 -0.31110963 0.55609936
000100 80 04 ff bf 08 6e 30 c1 62 90 44 3f 50 5f fe bf
       -1.9923248 -11.026863 0.7678281 -1.9872837
000110 f4 11 c0 3e c8 cb f7 bc ee f2 97 3f 7c 6b 5e 40
       0.37513697 -0.030248538 1.1871011 3.4753103
000120 3c d0 8e 3b c2 e9 ed 3f fb 03 60 3f d0 40 7b 3e
       0.0043583196 1.8586962 0.87506074 0.24536443
000130 3a 35 e1 bf 07 f9 db bd 42 be 1f c1 64 08 c5 be
       -1.7594368 -0.107408576 -9.98395 -0.38482964
000140 fa 91 8b bf 28 47 98 3f 5c 16 83 3f b3 4a a4 bf
       -1.0903924 1.1896715 1.0241199 -1.2835296
000150 e3 56 8a 41 a2 bd 65 bd e4 27 91 bf f1 3e 3e bf
       17.292425 -0.05608905 -1.1340299 -0.7431479
000160 6c 33 c6 3c 4c aa 45 bf 2a 17 31 40 6e 55 3a 3f
       0.024194442 -0.7721298 2.7670388 0.72786605
000170 4b 54 a3 bf 73 eb 31 c0 5c 60 d0 3e 18 8e 81 bf
       -1.2760099 -2.7799957 0.40698516 -1.0121489
000180 d2 fd 4f be 68 96 18 40 74 b0 33 3f 9a 87 0b 3f
       -0.20311669 2.38418 0.7019112 0.54503787
000190 82 8f ed bf a4 26 a5 40 99 ad 17 40 f0 60 de bf
       -1.855942 5.160967 2.3699706 -1.7373333
0001a0 08 ec 9d 3f c1 3e 11 c0 0b c2 c9 3f 3e dd ce 3b
       1.2337656 -2.2694552 1.5762342 0.006312995
0001b0 6a 89 65 3f a1 8c 66 3f 25 5a 11 c0 e8 46 ec be
       0.896628 0.9005833 -2.271127 -0.46147847
0001c0 cf 8f 5b 3f 14 37 25 3f 71 4a 62 40 8e b0 75 3f
       0.8576631 0.6453717 3.5357935 0.95972526
0001d0 ea 80 e1 bc 00 42 ac bb ba d0 c5 c0 a0 2f 62 3f
       -0.027527291 -0.0052568913 -6.1817293 0.8835392
0001e0 c3 a5 36 3f 4a 60 61 bf 3c a7 ff bd 83 bf 9d be
       0.7134668 -0.8803755 -0.12483069 -0.30810174
0001f0 1c fb 37 c1 6a 5f 26 c0 f9 c5 31 3f 81 2f 62 c0
       -11.498806 -2.5995736 0.6944271 -3.5341494
000200 c8 17 a1 40 41 80 f4 3f 3d aa 83 3f 0d 3a 09 bd
       5.034153 1.910164 1.0286328 -0.033502627
000210 23 c9 5b 40 f1 68 3f 3f c1 4f e6 3e 33 e0 ca 3f
       3.4341514 0.747695 0.44982722 1.584967
000220 64 7e 88 3c 49 79 d6 c0 0d 57 bb 41 e6 3b 05 40
       0.01666183 -6.7023053 23.417505 2.081781
000230 b7 24 19 3b 59 ea a9 bf 90 2c 02 3f fe 9b ee 3d
       0.002336783 -1.3274642 0.50849247 0.11650847
000240 cc e4 98 3f 12 e0 83 3e 3a ab 34 3f 9f e6 5c bd
       1.1944823 0.2575689 0.7057377 -0.053930875
000250 d1 e7 9b c0 fd 75 9e c0 28 cb a9 3f 65 72 87 bd
       -4.872048 -4.951903 1.3265123 -0.06613616
000260 9a ed 8f bc f0 d3 c0 3e bf f1 9b bd 05 0b 43 3f
       -0.017569352 0.37661695 -0.07614469 0.7618869
000270 2c a0 14 c0 d4 d2 e0 40 55 ad 11 40 15 ec 23 c0
       -2.322276 7.025736 2.2762043 -2.5612843
000280 ac e5 b5 bc 0d 76 21 41 ce 0a 57 bf 49 81 86 bf
       -0.022204243 10.091321 -0.8400086 -1.0508205
000290 a8 8f 13 3f a4 27 b3 bf 50 eb 4d bf 65 1f 46 3f
       0.5764108 -1.3996472 -0.80437183 0.77391654
0002a0 c5 5a f0 bf e3 27 0b c0 d9 fd 11 bf dd a4 6a 3f
       -1.8777701 -2.1743095 -0.57027966 0.9165781
0002b0 e5 96 7d bf 55 6c 05 40 43 27 66 40 3d 9d b9 3f
       -0.9905837 2.084737 3.5961463 1.450111
0002c0 d5 c0 a4 3f bb a2 12 bd a5 a9 a9 c0 6d 85 78 3f
       1.2871348 -0.035799723 -5.3019586 0.9707859
0002d0 e9 04 23 3f d5 3a 2e c0 d7 92 5a c0 22 f3 bd bd
       0.6367937 -2.7223408 -3.4152124 -0.092748895
0002e0 ff 20 d3 3f 1d 7f c3 c0 76 f2 9c be 0a 84 82 3f
       1.6494445 -6.1092668 -0.30653733 1.0196545
0002f0 d2 e5 2d 3f 62 9c 5c bc 91 c9 f2 3e 86 b5 81 bf
       0.679288 -0.013465019 0.47419408 -1.0133522
000300 bc 67 b1 c0 4c c1 07 c1 66 43 98 40 e0 c1 82 41
       -5.543913 -8.484692 4.7582273 16.344666
000310 59 64 90 bf 9e fd 8f 3f b4 05 d8 3e 46 c9 7d c0
       -1.1280624 1.1249273 0.4219185 -3.9654098
000320 e6 9c dc 3e 41 3e f7 bf 9a 52 ac be 97 85 f7 3b
       0.43088454 -1.9315873 -0.3365677 0.007553767
000330 80 be d3 3f 1e d6 f6 40 7b 3b 6a bf 82 86 ab bf
       1.6542511 7.7136374 -0.9149701 -1.3400424
000340 26 34 05 40 8f 39 01 bf 25 c8 8e bf 2f 0d f0 3f
       2.081308 -0.5047845 -1.1154829 1.8754023
000350 5b 8b 06 3f d7 a8 95 bf e4 f9 54 40 c6 f7 26 c1
       0.5255639 -1.1692151 3.327752 -10.435492
000360 11 2d 1f bf 15 a1 ef 3f 8a f6 db 3f 50 df 09 3d
       -0.6217814 1.8721033 1.7184613 0.033660233
000370 54 28 94 3f 29 45 5c 40 07 b7 ce bc b7 65 f0 3f
       1.1574807 3.4417212 -0.025233759 1.8781041
000380 00 b0 60 3f bd da aa bf d2 83 dc bf c3 bd 02 3e
       0.87768555 -1.3348004 -1.7227728 0.12767701
000390 66 7f 24 c1 4c aa 96 3e eb f2 9c bf 0b 4a 8e 3f
       -10.281103 0.294268 -1.2261633 1.1116346
0003a0 0b 2e 99 3f 63 98 c3 3f 02 f3 87 41 64 7f 4b 3b
       1.1967176 1.528088 16.993656 0.0031051273
0003b0 02 cd 82 3f ff 07 4d 3f da b9 9a bc 55 9e 3f 3f
       1.0218813 0.80090326 -0.018887449 0.7485097
0003c0 25 4a 36 40 e3 4a 4e 3f 96 ff 18 3f b5 ef 31 c0
       2.8482754 0.8058302 0.59764993 -2.7802556
0003d0 8a f6 d7 be 1b 10 a4 3f f8 36 6b 3e 84 d3 1d 40
       -0.42180282 1.2817415 0.22970188 2.466035
0003e0 df 4e 29 3f 6a 72 0b 3f 85 6d e3 bf a2 e9 ac 40
       0.6613597 0.54471457 -1.7767798 5.4035196
0003f0 b5 6e 24 40 0f 69 b5 3f 96 72 a6 3f 11 c1 0b 40
       2.569257 1.4172686 1.3003719 2.1836588

outputLayer.bias f4 [2]
000000 64 ce 56 41 7a 0d 58 41
       13.425388 13.50329
