ftl/pretrain/weight/scratch_wdev_0/scratch_wdev_0_29.pth (torch, 187635 bytes, 8 tensors)

hiddenLayer1.weight f4 [150, 3]
-1.7626393 -0.26284686 -0.0765456 -5.0905123 -0.00086984184 -0.051381417 -0.59785426 -0.006847949
-0.24882397 -5.7556787 0.013408332 -0.005037678 -0.022942893 0.002259653 -0.022753766 -3.9143126
-0.04596842 0.021499073 0.2187371 -0.038018852 0.893166 0.048201546 -0.01586335 1.7893753
-1.2521249 0.01459395 0.01622763 -2.3289661 0.008125088 0.014447629 -2.291254 0.007991579
-0.8276764 -0.26854298 0.0016070302 -0.79710376 -6.548158 -0.00719388 -0.1334517 -0.6085677
0.016260216 0.028565207 -0.20565578 -0.00695154 -0.008733492 -3.605115 0.0033615837 -0.010541422
-3.7290428 -0.027720159 0.018240819 -8.920552 -0.01397602 -0.11180755 -7.1699557 -0.0014839103
-0.00095365435 -0.039697208 -0.014695915 0.44445914 -0.07115851 -0.0665212 0.0058738217 0.13573822
-0.0030298717 2.836657 0.008574097 -0.089289576 0.09962003 -0.6215947 0.15183589 -0.047218394
-0.0012529755 0.0062598456 0.23261882 -1.8847872 0.019284321 -0.69867134 -0.11225941 0.017472852
-0.19945353 -2.3660274 -0.004187119 -0.41215557 -1.8034939 0.013554825 -0.5146714 0.03186122
-0.005588003 0.475625 0.016050834 0.02101107 0.9998163 0.15866075 -0.00022326152 0.21891311
-2.0197766 0.021059828 -0.42363274 -3.0484629 -0.0012904753 -0.20650534 -2.6485615 0.0029997977
-0.016869647 0.15314558 -0.0059677428 0.2819608 -6.141392 -0.0012780052 -1.2258017 -3.4691737
0.010215888 -0.49996847 -0.0165612 -0.000701565 -0.027785556 -3.8623118 -0.00034687054 -0.46791264
0.013970093 -0.018876642 1.7980413 -0.11728174 -0.13580763 -0.7739829 -2.913348 0.0050638625
-0.033965122 -0.0457693 0.0025654815 0.0075695715 -0.82751524 -0.017906925 -0.3144367 -0.05011718
0.03732364 -0.38715842 0.2451787 -0.0019026947 0.947621 -1.0717863 -0.0037719347 -0.4640008
-0.08430143 0.0039028146 -0.019982748 -0.14764085 -0.0017063646 -0.022761563 -2.025431 0.0034085494
-0.26898873 -0.023774033 -0.0692377 -0.19637494 -0.44904646 0.04185867 -0.38599986 -2.8223019
0.0058791246 -0.4931257 -0.0526232 0.019209795 -0.15821095 -0.02973853 -0.104903035 -2.173457
-0.5061666 0.050431844 0.09952296 -6.4330664 0.0010424152 -0.08103397 -9.114696 -0.032982543
0.031541225 0.09461734 -0.000178426 -3.703831 -0.09634468 -0.013224983 -0.013922343 -0.034869455
0.0018900372 -1.3757687 -0.027105475 -0.0015799885 -2.4782593 -4.3305564 -0.009757344 -1.8068771
-6.071097 0.006181118 -0.45614156 -0.03761816 -0.00048440206 -0.27181312 -0.02671955 7.714886e-05
-0.024983572 -3.6332788 -0.03401802 0.24789135 -2.544666 -0.006880496 -0.3760738 -2.527164
0.0037723484 -0.6354929 -0.058079623 0.0024163201 0.008813324 -5.1313944 -0.019475676 -0.6310877
0.016390415 0.19374344 -0.013654545 -0.18711561 0.007874841 -0.19137008 -4.111995 -0.014039069
0.006733274 -10.09905 0.00037993264 -0.13910963 -3.1986444 0.030724026 -0.5696954 0.056174416
-0.040155757 0.57893586 -0.054610945 0.13920793 -0.68238556 0.15701884 0.01259746 1.3131278
-4.9434075 0.014023539 -0.1679093 -0.64173865 -0.063675016 -0.11033668 -0.4852239 -0.012792411
-0.605479 3.6516274e-05 0.0010332367 -0.0023561995 -0.009127779 -0.0076413397 -0.03539089 -1.723695
00000000: 2a9e e1bf dd93 86be f1c3 9cbd 7ae5 a2c0
00000010: 1906 64ba 5275 52bd fa0c 19bf c264 e0bb
00000020: b6cb 7ebe 852e b8c0 9fae 5b3c 1b13 a5bb
00000030: bcf2 bbbc b016 143b 1b66 babc 1984 7ac0
00000040: 6249 3cbd d31e b03c 9efc 5f3e a8b9 1bbd
00000050: 87a6 643f fc6e 453d dbf3 81bc 400a e53f
00000060: a145 a0bf 761b 6f3c cfef 843c c80d 15c0
00000070: 171f 053c c0b5 6c3c e8a3 12c0 1def 023c
00000080: 9ae2 53bf 777e 89be fca2 d23a fe0e 4cbf
00000090: 838a d1c0 a4ba ebbb 90a7 08be 18cb 1bbf
000000a0: 2534 853c 9501 ea3c 6e97 52be bec9 e3bb
000000b0: ec16 0fbc 34ba 66c0 044e 5c3b eeb5 2cbc
000000c0: a3a8 6ec0 6315 e3bc c56d 953c 95ba 0ec1
000000d0: adfb 64bc 5bfb e4bd 4770 e5c0 c47f c2ba
000000e0: a9fe 79ba 8a99 22bd 23c7 70bc 2690 e33e
000000f0: 8ebb 91bd 443c 88bd 3079 c03b f6fe 0a3e
00000100: d090 46bb ca8b 3540 5f7a 0c3c 74dd b6bd
00000110: 9605 cc3d d520 1fbf de7a 1b3e 1368 41bd
00000120: e23a a4ba 641f cd3b a133 6e3e b540 f1bf
00000130: 27fa 9d3c 20dc 32bf 43e8 e5bd 3a23 8f3c
00000140: 8c3d 4cbe fe6c 17c0 1a34 89bb 0e06 d3be
00000150: e3d8 e6bf 0f15 5e3c 81c1 03bf e980 023d
00000160: 911b b7bb 1f85 f33e 0a7d 833c 681f ac3c
00000170: f6f3 7f3f f777 223e 4f1b 6ab9 c22a 603e
00000180: 0544 01c0 a985 ac3c 64e6 d8be 041a 43c0
00000190: 2a25 a9ba 2376 53be 0882 29c0 4198 443b
000001a0: 3732 8abc 32d2 1c3e 0e8d c3bb 2a5d 903e
000001b0: 4986 c4c0 bd82 a7ba 12e7 9cbf f106 5ec0
000001c0: 8a60 273c defb ffbe 5bab 87bc 3be9 37ba
000001d0: 899e e3bc 1e30 77c0 2ddc b5b9 3f92 efbe
000001e0: d1e2 643c 30a3 9abc 3826 e63f 6931 f0bd
000001f0: 2811 0bbe be23 46bf 4b74 3ac0 c2ee a53b
00000200: 031f 0bbd 9778 3bbd a321 283b 2b0a f83b
00000210: 0ad8 53bf 8bb1 92bc d9fd a0be ac47 4dbd
00000220: ace0 183d a139 c6be 2010 7b3e d763 f9ba
00000230: 4a97 723f 4b30 89bf 9032 77bb 8391 edbe
00000240: 3aa6 acbd 5dc6 7f3b dcb2 a3bc 2a2f 17be
00000250: 18a8 dfba 7576 babc a9a0 01c0 f861 5f3b
00000260: e4b8 89be c3c1 c2bc 7fcc 8dbd 8316 49be
00000270: 6be9 e5be ff73 2b3d c6a1 c5be 98a0 34c0
00000280: aca5 c03b f97a fcbe 6d8b 57bd dc5d 9d3c
00000290: 0d02 22be 389e f3bc 67d7 d6bd eb19 0bc0
000002a0: 2294 01bf 9f91 4e3d b2d2 cb3d aedb cdc0
000002b0: a6a1 883a 23f5 a5bd cbd5 11c1 b418 07bd
000002c0: 5f31 013d bcc6 c13d dd17 3bb9 910b 6dc0
000002d0: 5c50 c5bd 99ad 58bc 8a1a 64bc 46d3 0ebd
000002e0: 20bb f73a 3019 b0bf 4d0c debc 9e17 cfba
000002f0: cd9b 1ec0 eb93 8ac0 44dd 1fbc c047 e7bf
00000300: 6d46 c2c0 fa8a ca3b 638b e9be 8015 1abd
00000310: 58f7 fdb9 172b 8bbe f5e2 dabc fbca a138
00000320: 59aa ccbc a487 68c0 7b56 0bbd 3bd7 7d3e
00000330: cfdb 22c0 c975 e1bb bf8c c0be 0ebd 21c0
00000340: 8139 773b aaaf 22bf e6e4 6dbd 205b 1e3b
00000350: c365 103c 6234 a4c0 748b 9fbc f78e 21bf
00000360: 3145 863c ae64 463e 50b7 5fbc 3c9b 3fbe
00000370: 7a05 013c 85f6 43be 7795 83c0 2004 66bc
00000380: cca2 dc3b b595 21c1 b231 c739 c172 0ebe
00000390: 97b6 4cc0 f4b0 fb3c 8fd7 11bf 2517 663d
000003a0: 5d7a 24bd 2435 143f baaf 5fbd 868c 0e3e
000003b0: d2b0 2ebf 8cc9 203e 9465 4e3c 9214 a83f
000003c0: 6530 9ec0 fcc2 653c 6af0 2bbe fc48 24bf
000003d0: 0c68 82bd 33f8 e1bd 446f f8be 4397 51bc
000003e0: ac00 1bbf 0d29 1938 ac6d 873a 786a 1abb
000003f0: ae8c 15bc 3464 fabb 0af6 10bd 0aa2 dcbf

hiddenLayer1.bias f4 [150]
-2.8421762 -0.20225038 -0.2935396 -0.59689796 -0.10292968 -0.6515877 2.39725 2.463387
-0.39263555 -0.45127723 -0.8319245 -0.60797393 -0.3867411 -0.5897217 -0.09323493 -0.21887991
-0.5897099 -0.48970836 -0.24250297 2.0384429 -0.962957 -3.780355 -1.7552098 -1.4631763
-2.9268413 -0.6939215 1.2112795 -0.43301493 -0.6318091 -3.3378544 2.4900925 -1.6165051
-0.7338359 -0.38768706 -0.13534953 -3.0081675 -1.1007034 -0.5634175 -0.033318777 -0.5069667
1.7148157 -1.955446 -0.25871453 1.9928113 -0.49360812 -0.6083629 -3.3426688 -0.4100654
-0.07582544 -0.041450888 -0.321487 -0.91680115 -0.6817381 -0.48715076 1.8879958 -2.6047673
-1.532621 0.11469505 -0.8700195 -4.92938 -0.26549664 2.0772603 2.4424894 -1.492737
-0.6254342 -0.21399412 -0.019750046 -1.5235344 -0.42507738 -0.72515523 -0.14459841 -0.8543469
-2.0882254 1.3688118 -0.26492742 0.19071989 -0.7120396 1.995032 -1.5869918 -5.0306697
-0.40932855 -0.91116583 -0.8292553 -0.028479282 -0.107157014 -0.59804255 -1.3598809 0.08546749
-0.1673316 -0.6001069 -0.5690483 -0.3163008 -0.7995546 -0.770755 -1.1221046 1.73888
-0.21591815 -0.162321 2.2064471 -1.1044618 -0.34025797 -1.1460493 -0.20432748 -1.3832355
-0.6468117 -0.380016 -0.29365137 -0.3572468 -0.13817228 -0.20941329 -0.26075113 -0.5223857
-2.8274944 -0.49272022 -0.66296923 -0.017480554 -1.3850864 -0.6369086 -0.7376642 -0.5111239
-0.0994804 -0.93432397 -2.9074197 1.9053273 -0.3394325 -0.028602762 -1.6153452 1.4461749
-0.30541134 -0.086411804 -1.1816579 -0.99248695 -0.51396275 -0.3982348 -0.921817 -0.84558004
-0.3176741 -0.8771897 -1.7563391 -0.16039868 2.7782116 -3.6337705 -0.7247158 -1.6266441
-0.09176625 -0.24396622 -0.58317024 -1.0339082 -0.039019376 2.2705085
00000000: 37e6 35c0 b91a 4fbe d34a 96be 4ece 18bf
00000010: cccc d2bd 74ce 26bf 8b6c 1940 22a8 1d40
00000020: 8707 c9be cf0d e7be 01f9 54bf 2ea4 1bbf
00000030: ee02 c6be 00f8 16bf f4f1 bebd 0e22 60be
00000040: 3af7 16bf 0ebb fabe b352 78be d975 0240
00000050: 5a84 76bf 56f1 71c0 b7aa e0bf 5c49 bbbf
00000060: 5e51 3bc0 d7a4 31bf 350b 9b3f 22b4 ddbe
00000070: 3ebe 21bf 689f 55c0 ad5d 1f40 a4e9 cebf
00000080: abdc 3bbf eb7e c6be 1199 0abe d185 40c0
00000090: d9e3 8cbf 213c 10bf 4579 08bd 92c8 01bf
000000a0: 157f db3f 0e4c fabf 3b76 84be 7114 ff3f
000000b0: 34ba fcbe acbd 1bbf 49ee 55c0 18f4 d1be
000000c0: 5e4a 9bbd 68c8 29bd f299 a4be 7bb3 6abf
000000d0: 6386 2ebf d36b f9be d9a9 f13f 82b4 26c0
000000e0: ed2c c4bf 3de5 ea3d 99b9 5ebf 7bbd 9dc0
000000f0: 2def 87be d5f1 0440 bf51 1c40 0212 bfbf
00000100: 751c 20bf 4621 5bbe d9ca a1bc 2d03 c3bf
00000110: bea3 d9be c6a3 39bf 9b11 14be 7ab6 5abf
00000120: 7ca5 05c0 3a35 af3f 91a4 87be 134c 433e
00000130: 3a48 36bf 355d ff3f 8c22 cbbf 3ffb a0c0
00000140: 8393 d1be 2a42 69bf 134a 54bf 624d e9bc
00000150: 2375 dbbd 5119 19bf 9410 aebf 9409 af3d
00000160: fa58 2bbe 9ba0 19bf 26ad 11bf 2ef2 a1be
00000170: 9caf 4cbf 3350 45bf 20a1 8fbf 9f93 de3f
00000180: a619 5dbe 7a37 26be 6e36 0d40 015f 8dbf
00000190: 4b36 aebe beb1 92bf 393b 51be dc0d b1bf
000001a0: 7495 25bf 7591 c2be 7959 96be 0de9 b6be
000001b0: 097d 0dbe 7070 56be 2c81 85be 12bb 05bf
000001c0: abf5 34c0 d345 fcbe 5ab8 29bf 6133 8fbc
000001d0: 834a b1bf 710c 23bf 90d7 3cbf 04d9 02bf
000001e0: 61bc cbbd db2f 6fbf 2a13 3ac0 c4e1 f33f
000001f0: 19ca adbe 5750 eabc a2c3 cebf 421c b93f
00000200: e05e 9cbe acf8 b0bd 9140 97bf a013 7ebf
00000210: 1093 03bf 6fe5 cbbe 33fc 6bbf ef77 58bf
00000220: 2ea6 a2be 818f 60bf b8cf e0bf 8d3f 24be
00000230: 38ce 3140 b28f 68c0 fa86 39bf e035 d0bf
00000240: f2ef bbbd 48d2 79be a54a 15bf 1b57 84bf
00000250: c8d2 1fbd 0350 1140

hiddenLayer2.weight f4 [150, 150]
-0.47058982 -0.064278774 0.076199695 -0.24296407 -0.8800443 0.10477052 -0.297451 -0.2619393
-0.026634542 0.59863263 0.004168608 -0.0026276426 -0.011196507 0.35134795 0.09324582 -0.37148777
-0.4401589 -0.42741254 -0.52581346 -0.3510967 -0.99832714 -0.43469682 -1.3592296 -1.224096
-1.3944553 0.4321498 -0.08156429 0.026195278 0.37270284 -1.2692007 -0.2780827 -1.4173328
0.22791162 0.32063547 0.15605257 -0.9099002 -0.37458217 0.033979733 0.06797514 0.19981991
-0.31633228 -0.4863528 -0.2550144 -0.27527004 0.4952478 0.01078519 -1.1903542 -0.085429266
0.5654545 0.12967624 -0.026744468 0.376253 -0.28473306 -0.3459343 -0.104271725 0.7865274
-1.0268478 -0.08338035 0.6579405 -0.7087911 -1.1091766 -0.0029657804 0.060971703 1.5772685
0.09610767 0.104399025 -0.30292675 1.1385734 -0.36135525 -0.4929226 -0.35548636 -0.0838928
0.40027013 0.00268686 -0.34568375 -0.46526447 -0.7726344 -0.3945883 0.1070707 -0.30656606
-0.15498613 -0.7059248 -0.40982294 -0.0838232 0.080820404 -0.5683173 -0.36916286 0.07693468
-0.3174259 0.23212634 -0.95480055 0.72071165 -1.64358 -0.04802485 -0.20386465 -0.14789785
-0.1176776 -0.55736953 -0.048779134 -3.9198093 0.27827865 -0.29992267 -0.23834656 -0.8409227
-3.9357293 -0.54259366 -0.17767304 0.35302857 -1.8878863 -0.3406042 -0.25173023 -0.466031
-1.3186874 -0.37101594 0.7208706 0.010613404 -0.030728573 -0.26478505 -0.53004724 -0.34057146
-0.009898507 -3.110058 -1.4475151 -0.46890366 -0.16030042 -0.23828194 -2.57839 -0.2643892
-0.2596565 -0.425656 0.23205476 0.29008904 -0.27895066 -0.35478184 -1.0687507 1.1392065
-0.15257263 -3.1805007 0.8107048 -0.22173817 -0.0003956536 -0.033046898 -0.4607705 0.14668888
-0.45975938 -0.3069911 -0.30545393 0.57522357 0.052904807 -0.40862942 -0.6414889 -0.32409158
0.033265933 0.6486829 0.01420286 0.029969 -0.15722528 0.30866873 -2.2447298 -0.32726783
-0.74586946 -0.19238824 -0.019723274 -5.2554145 -0.12692453 0.96164477 0.6690244 0.50507206
0.045841277 -0.20806429 -1.4282297 -1.8890499 -0.55975544 -0.3328227 -1.4142253 0.31346002
-1.4043214 -0.29219675 -0.31852666 -0.78989 0.26889804 -1.0408742 0.6283679 0.5089985
-1.0004141 -0.07862666 -0.8095167 -0.24029517 0.047568616 -0.49232897 -0.21996742 1.4022206
-0.19154869 -0.33363613 0.10666137 -0.18276775 -1.3013992 -0.12572962 0.08880591 0.1415285
-0.560431 -4.666404 -0.30481666 -0.5209773 -0.19892009 -0.5035106 -0.4585061 -0.30422783
-0.3993484 -1.3862727 -0.13665631 -0.015488455 0.25098738 -0.7083552 0.5496502 -0.010502471
-0.04435547 -0.33888286 1.1036155 0.27948734 -0.09745837 -0.46170637 -0.22454551 -0.64507574
-0.046546645 -1.5880468 0.6721257 -0.3950047 0.32124886 -0.23502819 -1.3661882 -1.3667624
-0.8128131 -0.042767644 -0.016197098 -0.34826267 -0.74880576 -2.397122 -0.04327309 -0.7331951
-0.4885741 0.15224057 -0.038164143 1.9175301 -0.5687941 -0.20678887 -3.4146154 -0.10936128
-0.014887119 -0.33240628 -0.34252656 0.31809613 -0.20028996 -0.2571164 -0.21279654 0.22119445
00000000: 26f1 f0be 97a4 83bd 960e 9c3d 93cb 78be
00000010: 954a 61bf ed91 d63d 7f4b 98be e81c 86be
00000020: af30 dabc fd3f 193f d298 883b 8734 2cbb
00000030: 8e71 37bc e1e3 b33e aaf7 be3d a533 bebe
00000040: 825c e1be d1d5 dabe b69b 06bf f2c2 b3be
00000050: 5e92 7fbf 9590 debe 3cfb adbf 2daf 9cbf
00000060: 837d b2bf bd42 dd3e 2e0b a7bd 7b97 d63c
00000070: e8d2 be3e 2b75 a2bf db60 8ebe 296b b5bf
00000080: aa61 693e 552a a43e 3fcc 1f3e 38ef 68bf
00000090: 3cc9 bfbe 552e 0b3d 8d36 8b3d 979d 4c3e
000000a0: 4ef6 a1be 3c03 f9be 3f91 82be 32f0 8cbe
000000b0: 1f91 fd3e 5eb4 303c 875d 98bf 8af5 aebd
000000c0: a0c1 103f d9c9 043e 3717 dbbc 3ca4 c03e
000000d0: 88c8 91be 4d1e b1be 6a8c d5bd dc59 493f
000000e0: c06f 83bf 51c3 aabd ca6e 283f 5573 35bf
000000f0: 80f9 8dbf 8a5d 42bb 77bd 793d efe3 c93f
00000100: 19d4 c43d 28cf d53d 3719 9bbe c6bc 913f
00000110: 8e03 b9be 5a60 fcbe 4f02 b6be fdcf abbd
00000120: 35f0 cc3e 0816 303b 76fd b0be 2537 eebe
00000130: 5ecb 45bf 7a07 cabe e247 db3d 3af6 9cbe
00000140: afb4 1ebe 7db7 34bf 50d4 d1be 7fab abbd
00000150: 2b85 a53d 3e7d 11bf ea02 bdbe ee8f 9d3d
00000160: a685 a2be 87b2 6d3e cf6d 74bf 8f80 383f
00000170: d460 d2bf b5b5 44bd e5c1 50be 8972 17be
00000180: f400 f1bd c5af 0ebf a1cc 47bd 28de 7ac0
00000190: 8a7a 8e3e 778f 99be 1f11 74be b646 57bf
000001a0: fde2 7bc0 6be7 0abf ecef 35be 29c0 b43e
000001b0: 42a6 f1bf ac63 aebe c9e2 80be 9d9b eebe
000001c0: c0ca a8bf cdf5 bdbe fa8a 383f d8e3 2d3c
000001d0: 7dba fbbc e891 87be 2db1 07bf 625f aebe
000001e0: 592d 22bc 310b 47c0 2d48 b9bf 2414 f0be
000001f0: cb25 24be 2e00 74be 5704 25c0 055e 87be
00000200: b2f1 84be 95ef d9be c39f 6d3e 8d86 943e
00000210: 9fd2 8ebe f7a5 b5be d3cc 88bf 85d1 913f
00000220: 003c 1cbe 538d 4bc0 5a8a 4f3f 550f 63be
00000230: ba6f cfb9 2f5c 07bd 1cea ebbe 9c35 163e
00000240: 9565 ebbe f02d 9dbe 7564 9cbe da41 133f
00000250: b6b2 583d e037 d1be 9e38 24bf 55ef a5be
00000260: dc41 083d 1510 263f 1db3 683c 8c81 f53c
00000270: aaff 20be d409 9e3e a7a9 0fc0 a68f a7be
00000280: 4df1 3ebf 6c01 45be b492 a1bc 5b2c a8c0
00000290: 81f8 01be 5a2e 763f 2f45 2b3f 674c 013f
000002a0: 10c4 3b3d ce0e 55be 3bd0 b6bf 63cc f1bf
000002b0: 224c 0fbf bd67 aabe 5605 b5bf d57d a03e
000002c0: cec0 b3bf d09a 95be ed15 a3be 3b36 4abf
000002d0: 01ad 893e 5e3b 85bf b8dc 203f ba4d 023f
000002e0: 920d 80bf 0407 a1bd 7d3c 4fbf f00f 76be
000002f0: 4fd7 423d 8b12 fcbe 243f 61be f77b b33f
00000300: 5725 44be 5bd2 aabe 4771 da3d 7827 3bbe
00000310: 4094 a6bf 44bf 00be dfdf b53d d9ec 103e
00000320: 6878 0fbf 2e53 95c0 ee10 9cbe c55e 05bf
00000330: b5b1 4bbe 12e6 00bf 50c1 eabe c0c3 9bbe
00000340: 6577 ccbe 6271 b1bf a2ef 0bbe 4ac3 7dbc
00000350: 6b81 803e c456 35bf e0b5 0c3f 8e12 2cbc
00000360: 15ae 35bd 0e82 adbe 4643 8d3f f718 8f3e
00000370: 4198 c7bd c764 ecbe 42ef 65be af23 25bf
00000380: b2a7 3ebd 1e45 cbbf 6e10 2c3f 0e3e cabe
00000390: bb7a a43e 3bab 70be 41df aebf 12f2 aebf
000003a0: 8514 50bf 202d 2fbd c7af 84bc 7c4f b2be
000003b0: bcb1 3fbf 726a 19c0 203f 31bd adb2 3bbf
000003c0: 6226 fabe f4e4 1b3e 0152 1cbd a071 f53f
000003d0: 7d9c 11bf 76c0 53be 0f89 5ac0 cff8 dfbd
000003e0: 1ae9 73bc 2831 aabe a45f afbe 7fdd a23e
000003f0: d018 4dbe c3a4 83be 56e7 59be cc80 623e

hiddenLayer2.bias f4 [150]
0.054577425 1.3205572 -0.0003173402 2.1277988 0.19591081 -0.23128657 -0.12940717 -0.0028720158
2.0517335 -0.04165939 0.14193109 0.18247084 0.08421241 0.344404 -0.039705496 -0.026436325
1.1240944 0.21837242 2.5007648 0.2833249 -0.044027176 0.01897344 0.21332008 -0.06254403
-0.0667005 -0.043060858 0.1410128 2.694721 0.16928166 -0.005246334 0.12708385 -0.028221091
-0.08639521 -0.04543548 0.4137006 0.12901352 0.08844071 0.30309966 -0.035116848 0.122834295
0.04223882 0.16864285 0.08988862 -0.039623786 -0.0022007765 -0.14977443 -0.330324 -0.01298412
0.38068822 0.10273461 -0.16159965 0.016282162 0.58045334 -0.0209547 0.09481234 0.07766818
-0.044609413 -0.16339283 1.240307 0.13340443 -0.10889795 -0.085372195 -0.028292537 -0.16121334
0.026155287 1.241856 -0.5373971 0.25884795 -0.023785772 0.22894083 0.1997495 0.025782872
3.3060553 3.3425887 -0.33369282 -0.11267831 0.3293389 0.06256215 0.017801547 0.1509129
-1.2608612 0.025480326 0.078548305 -0.049267422 0.359362 0.052046493 0.0028302947 -0.0027139182
1.1808116 -0.017824503 0.34944165 1.5451158 -0.046225343 0.26917955 0.04176649 -0.15194044
0.046008922 0.039121844 0.12726277 3.4028962 -0.239587 -0.044618525 -0.043783907 0.16671117
0.049807746 2.5616448 0.41079468 -0.19761948 2.8221285 -0.31307927 0.27770746 1.6196576
-0.07565096 1.4674089 2.7722795 0.027964933 -0.21489936 0.2188891 -0.36841732 -0.0032855582
-0.03917285 -0.44661748 0.828668 -0.055151653 -0.34492394 1.3576424 0.020634655 0.055910073
0.40082955 -0.051496364 0.8629741 0.07052324 3.343792 0.14474869 -0.21626665 0.42076892
-0.032477397 -0.01355535 0.0485836 -0.0047066966 3.0413692 0.030446768 -0.048674203 0.13871206
-0.030368777 -0.40567818 0.2170642 -0.10030794 0.0062610256 -0.22158112
00000000: 948c 5f3d 0508 a93f ae60 a6b9 db2d 0840
00000010: d89c 483e 63d6 6cbe 5083 04be 6e38 3cbb
00000020: 9a4f 0340 09a3 2abd 6256 113e a3d9 3a3e
00000030: 8e77 ac3d b955 b03e 3ba2 22bd fe90 d8bc
00000040: 53e2 8f3f 059d 5f3e 880c 2040 f60f 913e
00000050: d755 34bd 306e 9b3c 9470 5a3e 1617 80bd
00000060: 469a 88bd 9560 30bd a965 103e 4f76 2c40
00000070: 2c58 2d3e 70e9 abbb 4522 023e eb2f e7bc
00000080: f9ef b0bd 8e1a 3abd 91d0 d33e 1f1c 043e
00000090: 6720 b53d e12f 9b3e afd6 0fbd 8c90 fb3d
000000a0: 9d02 2d3d b6b0 2c3e 8617 b83d 8d4c 22bd
000000b0: e73a 10bb 785e 19be 3a20 a9be 59bb 54bc
000000c0: 91e9 c23e 8666 d23d 617a 25be 2b62 853c
000000d0: 9798 143f 31a9 abbc f92c c23d 7f10 9f3d
000000e0: 5cb8 36bd 7350 27be 61c2 9e3f 2c9b 083e
000000f0: e305 dfbd 9ed7 aebd c0c5 e7bc 1c15 25be
00000100: 9d43 d63c 23f5 9e3f db92 09bf b887 843e
00000110: 61da c2bc 776f 6a3e 228b 4c3e 9a36 d33c
00000120: 6996 5340 f9ec 5540 c9d9 aabe e3c3 e6bd
00000130: 1c9f a83e 9620 803d 8dd4 913c e988 1a3e
00000140: e663 a1bf 1ebc d03c efdd a03d a3cc 49bd
00000150: 4cfe b73e b42e 553d 777c 393b fedb 31bb
00000160: d624 973f b104 92bc 04ea b23e 5bc6 c53f
00000170: c956 3dbd e7d1 893e 5713 2b3d 4696 1bbe
00000180: da73 3c3d 3a3e 203d 2c51 023e 0dc9 5940
00000190: 4b56 75be eac1 36bd c156 33bd 55b6 2a3e
000001a0: 3503 4c3d fdf1 2340 ae53 d23e c35c 4abe
000001b0: c19d 3440 ed4b a0be ac2f 8e3e f150 cf3f
000001c0: e4ee 9abd 0ed4 bb3f 076d 3140 b716 e53c
000001d0: 940e 5cbe 7724 603e 32a1 bcbe 8552 57bb
000001e0: b673 20bd 0cab e4be 9623 543f b3e6 61bd
000001f0: df99 b0be 3ac7 ad3f 020a a93c f601 653d
00000200: 8839 cd3e daed 52bd dfeb 5c3f 7d6e 903d
00000210: b000 5640 0039 143e 0175 5dbe 066f d73e
00000220: 0507 05bd 4217 5ebc 99ff 463d a23a 9abb
00000230: cba5 4240 806b f93c 9a5e 47bd 890a 0e3e
00000240: f1c7 f8bc 0db5 cfbe 1446 5e3e 406e cdbd
00000250: 4a29 cd3b 29e6 62be

hiddenLayer3.weight f4 [150, 150]
-0.17790313 -0.27614623 -0.4726609 0.42555135 0.46278626 -0.111812264 0.09511942 0.0126889525
0.47855273 0.22937784 0.13709207 0.17834389 -0.56691754 -0.02774432 0.01944905 0.31217018
0.10788147 0.4923148 0.1250974 0.066586144 -0.6467793 -0.05628691 0.055637185 0.23555847
0.032563657 -0.105085015 -0.17226082 0.34034917 -0.1896614 -0.2903886 0.058260337 0.044493936
-0.4404714 0.044624597 -0.062481873 0.3894305 -1.2054881 -0.07795636 -0.03689253 0.3362756
-0.099199004 -0.09442787 -0.09055755 0.04045971 -0.096109375 0.3455913 0.07249981 0.21218954
0.12583694 0.0077335597 -0.2729092 0.14235759 0.13744015 0.033845432 -0.045393504 -0.013461968
-0.571063 -0.04867473 0.14913858 0.2359034 -0.21017456 -0.025213068 -0.011322818 0.29951918
-0.64517665 0.028579906 0.41563815 -0.19443966 0.088755526 0.2711407 -0.07699605 -0.19342637
0.70420843 0.41327128 0.2448799 -0.060263436 -0.18843655 -0.40354335 0.14097215 0.24524702
-0.12343917 -0.3416728 0.09380288 -0.058741763 -0.26394197 0.072181545 0.18042503 0.5082525
0.18927896 0.082986005 -0.051454015 0.070462726 0.034658972 -0.048332658 -2.3609018 0.6657736
0.4064019 0.20608325 0.31771815 0.42013076 0.088827506 -0.33618665 0.06433338 1.3382066
-0.059475154 0.115652084 -0.35569304 -0.23305051 0.09320741 -0.07442833 -0.04870776 0.006953058
0.042952195 0.18145254 0.21550223 0.040328067 -0.44093078 -0.04247948 0.15707287 0.13605942
0.037806798 0.30205294 0.032597218 0.047075044 -0.03474238 0.04097594 0.058822975 0.4595505
-0.19816951 -0.120315105 0.14985007 0.14464273 0.40716714 -0.1433947 -1.1143641 -0.32486838
0.08930465 -0.16908851 0.033513673 0.13191232 0.1736317 -0.4047179 -0.030270731 -0.55754346
-0.095672406 -0.10159178 0.057337116 0.10183689 0.29528266 -0.013583236 0.23518512 -0.10240789
-0.1102882 -0.16272132 -0.106206946 -0.03201387 -0.6624784 0.581381 -0.20789735 0.18007039
0.08277257 0.18859036 -0.37210414 -0.22618411 -0.020669932 0.32830015 -0.06782359 -0.32623646
-0.03154746 -0.054070987 -0.24467619 -0.015259862 -0.4677676 -0.38732377 0.114648186 0.27051508
-0.0015032011 0.0685101 -0.056845747 -0.41778958 -0.2823624 0.0946626 -0.45301083 0.04439197
0.26698995 -0.5728521 1.0028821 -0.13397808 -0.3853006 0.22278863 0.12136068 -0.14236468
0.03160523 0.049896594 -0.1586512 -0.031528983 0.06702559 0.15666805 0.048907056 0.031932216
-0.097911134 -0.033861134 0.17083761 0.109995194 0.05326729 -0.24088213 0.09242961 0.2503998
0.10940202 -0.058452852 -0.080525525 0.07577684 -0.27995107 -0.056734554 -0.17889737 -0.412779
-0.48244187 -0.47453704 -0.03344202 0.07241027 0.0016336156 -0.0033214474 -0.113312356 -0.117480926
-0.24573295 0.7734294 -0.087984815 -0.09724199 0.18244557 -0.12208353 -0.1887682 -0.0072947233
-0.30575567 -0.06327751 0.022332925 -0.20305346 -0.03573538 0.054015514 -0.07052993 0.064390555
-0.10679242 -0.082735024 -0.027858805 0.050647583 -0.027347364 0.34939367 0.012967346 0.28274465
0.3422753 -0.014371573 0.46809575 -0.40337554 0.37412518 0.17250776 0.011586942 -0.11273838
00000000: 3d2c 36be 0a63 8dbe 9c00 f2be dee1 d93e
00000010: 52f2 ec3e d4fd e4bd f8cd c23d 53e5 4f3c
00000020: dd04 f53e 06e2 6a3e dd61 0c3e c89f 363e
00000030: 8221 11bf 0e48 e3bc 9d53 9f3c c5d4 9f3e
00000040: f6f0 dc3d af10 fc3e 8819 003e 515e 883d
00000050: 5493 25bf 1a8d 66bd d1e3 633d 3d36 713e
00000060: 7861 053d d036 d7bd 2465 30be 3f42 ae3e
00000070: 9936 42be d1ad 94be 64a2 6e3d 463f 363d
00000080: 7885 e1be 48c8 363d feec 7fbd 6f63 c73e
00000090: 6f4d 9abf 96a7 9fbd 9f1c 17bd 512c ac3e
000000a0: d928 cbbd 6663 c1bd 3d76 b9bd 15b9 253d
000000b0: fed4 c4bd 58f1 b03e c87a 943d 3748 593e
000000c0: 66db 003e cd69 fd3b c1ba 8bbe 30c6 113e
000000d0: 1cbd 0c3e 82a1 0a3d 8aee 39bd 968f 5cbc
000000e0: 2f31 12bf 275f 47bd c9b7 183e a990 713e
000000f0: 0038 57be a38b cebc 5783 39bc 945a 993e
00000100: 4c2a 25bf 6820 ea3c 86ce d43e 311b 47be
00000110: 75c5 b53d f4d2 8a3e 1bb0 9dbd 9011 46be
00000120: 0147 343f 4b98 d33e ccc1 7a3e cbd6 76bd
00000130: 83f5 40be 3c9d cebe 015b 103e 0922 7b3e
00000140: adcd fcbd bdef aebe b91b c03d 349b 70bd
00000150: 6723 87be ebd3 933d 57c1 383e d61c 023f
00000160: 58d2 413e 91f4 a93d 72c1 52bd c34e 903d
00000170: 91f6 0d3d 77f8 45bd 0419 17c0 2370 2a3f
00000180: e913 d03e 7d07 533e f4ab a23e 611b d73e
00000190: 32eb b53d a820 acbe 38c1 833d 5b4a ab3f
000001a0: 389c 73bd 00db ec3d 661d b6be cba4 6ebe
000001b0: 87e3 be3d e16d 98bd ca81 47bd 7ad6 e33b
000001c0: a4ee 2f3d b2ce 393e 9eac 5c3e 0b2f 253d
000001d0: aec1 e1be f7fe 2dbd b6d7 203e 2953 0b3e
000001e0: 4ddb 1a3d afa6 9a3e a984 053d c3d1 403d
000001f0: 074e 0ebd 63d6 273d 5cf0 703d 344a eb3e
00000200: f3ec 4abe c467 f6bd 4c72 193e 391d 143e
00000210: 3678 d03e 0fd6 12be 7ca3 8ebf 2655 a6be
00000220: 5be5 b63d 8a25 2dbe a245 093d 0614 073e
00000230: 82cc 313e 2f37 cfbe 53fa f7bc 2bbb 0ebf
00000240: e5ef c3bd 5a0f d0bd 53da 6a3d dc8f d03d
00000250: 4a2f 973e 398c 5ebc 5ed4 703e 3abb d1bd
00000260: c8de e1bd 6ba0 26be 0783 d9bd fa20 03bd
00000270: 2f98 29bf 63d5 143f 0be3 54be 5f64 383e
00000280: aa84 a93d d51d 413e 6f84 bebe cf9c 67be
00000290: fd53 a9bc f516 a83e 18e7 8abd 7708 a7be
000002a0: e937 01bd 8a79 5dbd 658c 7abe 8004 7abc
000002b0: 3c7f efbe 4d4f c6be abcc ea3d f480 8a3e
000002c0: 0f07 c5ba 064f 8c3d 16d7 68bd 84e8 d5be
000002d0: ce91 90be 77de c13d 09f1 e7be 5bd4 353d
000002e0: e8b2 883e 6fa6 12bf 715e 803f 8d31 09be
000002f0: 1f46 c5be b422 643e f38b f83d 0cc8 11be
00000300: 7c74 013d 5f60 4c3d 7675 22be 8924 01bd
00000310: b644 893d 976d 203e c452 483d 5bcb 023d
00000320: a285 c8bd f9b1 0abd 0ef0 2e3e 2945 e13d
00000330: cd2e 5a3d cea9 76be bc4b bd3d 6734 803e
00000340: 2b0e e03d 426c 6fbd 91ea a4bd e330 9b3d
00000350: bf55 8fbe 7e62 68bd df30 37be c557 d3be
00000360: 9f02 f7be 85f6 f2be 80fa 08bd d64b 943d
00000370: 0b1f d63a a4ac 59bb 4f10 e8bd d799 f0bd
00000380: 6ba1 7bbe 78ff 453f 6231 b4bd cf26 c7bd
00000390: 03d3 3a3e ee06 fabd 734c 41be 9308 efbb
000003a0: 028c 9cbe a497 81bd 8af3 b63c 3fed 4fbe
000003b0: 435f 12bd 5f3f 5d3d ff71 90bd 32df 833d
000003c0: fcb5 dabd fb70 a9bd 2638 e4bc d773 4f3d
000003d0: 9407 e0bc bae3 b23e fe74 543c e8c3 903e
000003e0: b53e af3e bf76 6bbc 3faa ef3e 3d87 cebe
000003f0: 568d bf3e e0a5 303e 28d7 3d3c 61e3 e6bd

hiddenLayer3.bias f4 [150]
3.296787 0.07125171 -0.22553724 -1.9006747 0.57463163 1.5929675 -0.48591074 0.02361984
-0.06382002 -0.65967536 0.08045185 -0.19645654 -0.1624244 -0.21686374 1.9087883 -0.42574215
-0.2400187 3.516811 -0.857969 -0.25609615 -0.11208571 0.06743889 3.855454 -0.43464702
-0.3632282 1.5269599 2.2795272 -0.16661656 0.08916269 2.3181221 0.15213129 -0.22012272
-0.047807798 0.044586875 2.7689822 1.4248526 3.6168177 3.3571916 -0.00187051 -0.25799435
-0.21784368 -0.2222318 3.6103332 -0.5126657 0.15781894 -0.14123651 -0.33673787 3.8434064
-0.44535294 -0.26635087 3.4192939 -0.095994025 1.0062861 -0.04568031 0.9077897 1.0667592
0.17353761 1.8899655 -0.19557175 -0.029879821 -0.3220275 0.119833976 -0.19246528 -0.1635522
-0.07684443 -0.06847988 -0.19591548 -0.024400834 -0.06198711 -0.15914062 3.952139 2.6226318
0.08592865 3.6415434 3.658139 0.19874881 0.004038524 0.17031758 -0.07392997 -0.15507017
-0.04982644 1.7356386 1.5398021 0.99709004 -1.2519454 -0.08736306 -0.21436973 -0.32119152
-0.03687779 -0.08681614 -0.3725441 3.5652654 -0.16835645 3.146067 -0.17051232 -0.13806143
0.14086708 -0.11152973 -0.041787215 2.5138378 -0.14790864 1.4187108 -2.190266 -0.30191264
3.762965 0.085333385 -0.2361453 -1.1434286 0.07914014 3.5568454 -0.595262 -0.5021784
3.5468655 0.33386606 -1.8692826 -0.51784784 0.019781424 -0.0047287974 3.700638 0.14663377
-0.051187765 0.90502995 3.75547 0.027510561 -0.1924832 -0.70738345 0.063118316 -0.13340405
3.4561946 1.9633136 -0.17535532 -1.534954 -0.099219605 -0.15999825 -0.30344877 3.5134385
-0.06691006 -0.03263596 0.09622456 -0.41798156 -0.016043205 -0.5785134 0.854353 -0.29569685
3.334937 0.25809565 0.67139566 -0.20877783 0.061236087 0.111299075
00000000: 8ffe 5240 6bec 913d 3cf3 66be 4f49 f3bf
00000010: 0f1b 133f 5ce6 cb3f 4bc9 f8be 657e c13c
00000020: 12b4 82bd 7ce0 28bf f1c3 a43d e72b 49be
00000030: 9552 26be 8711 5ebe 2d53 f43f e0fa d9be
00000040: 76c7 75be 6e13 6140 dba3 5bbf 091f 83be
00000050: 318d e5bd 671d 8a3d c2bf 7640 0e8a debe
00000060: 0cf9 b9be 6c73 c33f c6e3 1140 889d 2abe
00000070: ee9a b63d 1d5c 1440 4ec8 1b3e da67 61be
00000080: 1cd2 43bd baa0 363d 0137 3140 9261 b63f
00000090: f179 6740 3adc 5640 e72b f5ba d617 84be
000000a0: 6a12 5fbe bc90 63be b30f 6740 0f3e 03bf
000000b0: 4a9b 213e 4ea0 10be e868 acbe 5ffa 7540
000000c0: 4d05 e4be 245f 88be b6d5 5a40 8498 c4bd
000000d0: fccd 803f 471b 3bbd e864 683f 918b 883f
000000e0: d8b3 313e 64ea f13f f643 48be 87c6 f4bc
000000f0: cae0 a4be 846b f53d 9e15 45be 3a7a 27be
00000100: 9d60 9dbd 2e3f 8cbd 119e 48be 42e4 c7bc
00000110: 32e6 7dbd c2f5 22be d8ef 7c40 33d9 2740
00000120: 5cfb af3d 0c0f 6940 f31e 6a40 cf84 4b3e
00000130: 9855 843b bb67 2e3e 9968 97bd b7ca 1ebe
00000140: cf16 4cbd 6829 de3f 3c18 c53f 4b41 7f3f
00000150: bf3f a0bf 67eb b2bd bd83 5bbe 3773 a4be
00000160: 2a0d 17bd a9cc b1bd 1abe bebe 4f2d 6440
00000170: a265 2cbe 2959 4940 c89a 2ebe fa5f 0dbe
00000180: 763f 103e b369 e4bd 1229 2bbd b8e2 2040
00000190: 5d75 17be 5198 b53f 512d 0cc0 4b94 9abe
000001a0: 6bd4 7040 45c3 ae3d 13d0 71be de5b 92bf
000001b0: 3a14 a23d 5ba3 6340 1763 18bf c38e 00bf
000001c0: d8ff 6240 7ef0 aa3e a744 efbf ad91 04bf
000001d0: a70c a23c 07f4 9abb 41d7 6c40 2a27 163e
000001e0: 43aa 51bd 0bb0 673f 9f59 7040 d45d e13c
000001f0: 511a 45be 1517 35bf 2d44 813d 129b 08be
00000200: 4b32 5d40 dc4d fb3f 5890 33be 5f79 c4bf
00000210: a633 cbbd 95d6 23be a35d 9bbe 2ddc 6040
00000220: 2408 89bd 49ad 05bd 6211 c53d ae01 d6be
00000230: 0a6d 83bc 7419 14bf e1b6 5a3f 9465 97be
00000240: 9c6f 5540 1d25 843e 96e0 2b3f dbc9 55be
00000250: b1d2 7a3d c5f0 e33d

outputLayer.weight f4 [2, 150]
0.22728838 0.0136473365 0.016900636 -0.8956176 0.2734848 0.015114351 -0.37521046 0.104559615
-2.8057208 3.0179007 -0.026689015 -0.5044471 0.83578324 0.90430367 -0.0048511093 -0.36884862
0.029218087 0.31261078 -0.28478774 2.2199984 -0.9814712 -0.5938761 0.44021383 -0.5355539
-3.9348557 0.02139106 0.14334519 0.29724103 1.3522599 0.019694494 -1.0391638 0.87172645
3.6688838 -0.018959425 -0.043266382 -0.046087634 0.38309643 0.7969001 -1.6050329 -0.082543604
-0.66646296 0.9662201 0.35112557 1.6476799 0.31011307 -0.13126247 1.1499397 0.7337406
-0.39036107 0.6751209 0.29532796 0.0078654345 2.7300923 0.027908899 0.0863563 0.020339716
0.53880745 0.029677141 0.67423785 0.12715864 1.4241548 -2.2370107 -0.42299908 0.96102804
-1.7643392 0.15093625 0.89230525 -2.1018276 0.31262648 0.030978953 0.69964224 0.6526874
-0.045123808 0.5079889 0.43159467 0.54693687 -0.12913907 -0.12582889 -0.3427198 -0.7239937
0.9510104 0.061249945 -0.014208573 0.6868377 -0.4653542 -0.08214457 -1.2353394 -0.90276474
-0.026842821 -0.9892433 0.9529464 0.39931417 -0.68521005 0.03407623 0.003608155 -1.1070979
-0.068652466 0.8350551 0.11878738 0.03491962 -0.44605237 -0.044969164 -0.4704169 -1.7234951
0.43938994 -2.63428 0.63823736 -0.010266233 -0.70132136 0.5447066 -0.19563793 -0.2360832
0.43935847 0.8432203 0.25223747 0.02289024 0.030963518 -0.021268524 0.44723672 -0.82066697
0.8796994 -0.020742664 0.45451826 -0.55851656 0.70090574 1.022367 -0.001964156 -0.033370055
0.48870802 0.09324013 -0.13819489 0.021531396 -0.2156011 -0.27069396 0.23332009 0.39495376
0.049309775 0.046853133 0.5358626 1.5996159 -0.022654343 0.03551525 0.016821483 -0.3690178
0.36781305 0.3559061 -0.04949832 -0.029420732 0.25539514 -0.5605221 0.58584404 -0.048001185
0.010238523 -0.9113548 -0.39670286 0.0077635814 -0.39538366 -0.04665241 2.9167323 -3.0033233
0.028492095 0.68100625 -0.94673014 -1.0645125 -0.023504259 0.48367107 0.0047565787 0.2887062
-0.5811257 -2.2690036 1.3765526 0.70409894 0.47132632 -0.019060632 4.01757 0.02380396
0.18884784 -0.29054272 -1.4451416 0.014784676 1.099024 -0.57843965 -3.6175642 0.011222574
-0.00476572 0.025925623 0.4704345 0.5643941 1.6377931 0.17190011 0.69011843 -0.89679766
0.34937894 -0.9410747 -0.29898325 0.0891964 -1.2097864 0.5630165 0.5045514 -0.040477727
0.27503106 0.009465377 2.7341146 -0.037242204 -0.05812198 -0.078453004 -0.8368033 0.040658105
-0.5854031 -0.23222247 -1.41705 2.1598945 0.49983144 -1.0373446 1.7745601 -0.070669614
-1.0846795 2.1230927 -0.34164745 -0.02211133 0.6917494 0.6505037 0.023991382 0.344004
0.6062507 0.85040504 0.000879524 0.24100788 0.41259846 0.77614886 0.10118727 0.00885611
-0.022876732 0.8302074 0.5327426 0.025077704 1.2362372 1.0540825 -0.010354478 0.98587334
-0.9592149 0.4141702 0.8026785 0.055960685 -0.017303772 0.20503312 0.16891429 -0.35856134
0.18384093 0.053815976 0.5443146 0.05934372 -0.46307322 1.7244017 0.47313341 2.659695
00000000: 49be 683e 1499 5f3c 3473 8a3c 3247 65bf
00000010: 3306 8c3e 2fa2 773c 961b c0be 5a23 d63d
00000020: ee90 33c0 4925 4140 eca2 dabc 7223 01bf
00000030: e4f5 553f 7280 673f 0ef6 9ebb bad9 bcbe
00000040: c55a ef3c 850e a03e b3cf 91be 7414 0e40
00000050: b241 7bbf 4408 18bf b563 e13e 0f1a 09bf
00000060: add4 7bc0 4e3c af3c 15c9 123e fa2f 983e
00000070: da16 ad3f 5956 a13c 5203 85bf 7729 5f3f
00000080: fece 6a40 cc50 9bbc 1738 31bd 63c6 3cbd
00000090: 3725 c43e a501 4c3f b871 cdbf 9f0c a9bd
000000a0: 519d 2abf 335a 773f bbc6 b33e 2de7 d23f
000000b0: 24c7 9e3e ab69 06be 3931 933f 6dd6 3b3f
000000c0: 68dd c7be b9d4 2c3f 3a35 973e 06de 003c
000000d0: d5b9 2e40 34a1 e43c 92db b03d 7a9f a63c
000000e0: 49ef 093f 7a1d f33c da9a 2c3f e035 023e
000000f0: b44a b63f 2f2b 0fc0 5693 d8be ef05 763f
00000100: ded5 e1bf 088f 1a3e 1e6e 643f 5884 06c0
00000110: 9410 a03e 93c7 fd3c c11b 333f 8516 273f
00000120: bed3 38bd 900b 023f faf9 dc3e 0e04 0c3f
00000130: 083d 04be 4ad9 00be f878 afbe a757 39bf
00000140: 6b75 733f 39e1 7a3d 13cb 68bc 98d4 2f3f
00000150: e842 eebe 6a3b a8bd 9a1f 9ebf 971b 67bf
00000160: 7ae5 dbbc 0d3f 7dbf 4cf4 733f e872 cc3e
00000170: ed69 2fbf 8493 0b3d cc76 6c3b 62b5 8dbf
00000180: aa99 8cbd 2cc6 553f cc46 f33d e007 0f3d
00000190: fa60 e4be 9631 38bd 7cda f0be 7d9b dcbf
000001a0: b8f7 e03e 0b98 28c0 8663 233f b433 28bc
000001b0: cc89 33bf e471 0b3f 4f55 48be cbbf 71be
000001c0: 98f3 e03e 49dd 573f 4525 813e 5084 bb3c
000001d0: 34a7 fd3c 543b aebc 36fc e43e 3b17 52bf
000001e0: fb33 613f 85ec a9bc 9eb6 e83e f1fa 0ebf
000001f0: 8f6e 333f ecdc 823f 12b9 00bb 0aaf 08bd
00000200: f037 fa3e aef4 be3d f682 0dbe 9c62 b03c
00000210: 89c6 5cbe 6698 8abe 76eb 6e3e 6137 ca3e
00000220: 0cf9 493d 12e9 3f3d 4b2e 093f 37c0 cc3f
00000230: 9a95 b9bc 7078 113d 35cd 893c e7ef bcbe
00000240: fe51 bc3e 5339 b63e c0be 4abd bf03 f1bc
00000250: 27c3 823e 607e 0fbf e0f9 153f e49c 44bd
00000260: 7abf 273c 8c4e 69bf a31c cbbe a465 fe3b
00000270: ba6f cabe 9916 3fbd beab 3a40 7336 40c0
00000280: 4168 e93c 6d56 2e3f e85c 72bf f241 88bf
00000290: 018c c0bc bca3 f73e 13dd 9b3b 4dd1 933e
000002a0: a7c4 14bf 5b37 11c0 e032 b03f d43f 343f
000002b0: af51 f13e 0b25 9cbc ef8f 8040 8600 c33c
000002c0: 5461 413e 04c2 94be 66fa b8bf 6d3b 723c
000002d0: d2ac 8c3f 9f14 14bf 2c86 67c0 e3de 373c
000002e0: c229 9cbb f961 d43c cadc f03e 227c 103f
000002f0: 34a3 d13f 9506 303e 9aab 303f 8894 65bf
00000300: cce1 b23e 46ea 70bf 5514 99be 9aac b63d
00000310: 48da 9abf d921 103f 482a 013f f9cb 25bd
00000320: dfd0 8c3e ab14 1b3c bcfb 2e40 488b 18bd
00000330: 5011 6ebd f8ab a0bd be38 56bf 1d89 263d
00000340: fadc 15bf bacb 6dbe e561 b5bf b63b 0a40
00000350: e8e9 ff3e b5c7 84bf c924 e33f 3bbb 90bd
00000360: c7d6 8abf c0e0 0740 6aec aebe d222 b5bc
00000370: 7d16 313f 6987 263f 9389 c43c 4b21 b03e
00000380: 3f33 1b3f 25b4 593f db8f 663a c5ca 763e
00000390: 1b40 d33e b1b1 463f 453b cf3d 3819 113c
000003a0: fc67 bbbc 7988 543f d261 083f c26f cd3c
000003b0: 053d 9e3f 2dec 863f d4a5 29bc 3262 7c3f
000003c0: 1c8f 75bf 1e0e d43e 577c 4d3f 0837 653d
000003d0: a4c0 8dbc 34f4 513e def7 2c3e 5a95 b7be
000003e0: cc40 3c3e 246e 5c3d 3458 0b3f 6712 733d
000003f0: ef17 edbe 32b9 dc3f 8b3e f23e 7138 2a40

outputLayer.bias f4 [2]
3.6337173 3.9734044
00000000: d38e 6840 424c 7e40
