ftl/pretrain/weight/scratch_wdev_0/scratch_wdev_0_6.pth (torch, 187625 bytes, 8 tensors)

hiddenLayer1.weight f4 [150, 3]
000000 76 a6 09 bf d0 f3 a9 be 00 2f da bd 7a e5 a2 c0
       -0.53769624 -0.33193827 -0.10653496 -5.0905123
000010 19 06 64 ba 52 75 52 bd fa 0c 19 bf c2 64 e0 bb
       -0.00086984184 -0.051381417 -0.59785426 -0.006847949
000020 b6 cb 7e be 85 2e b8 c0 9f ae 5b 3c 1b 13 a5 bb
       -0.24882397 -5.7556787 0.013408332 -0.005037678
000030 bc f2 bb bc b0 16 14 3b 1b 66 ba bc b1 4a 4c c0
       -0.022942893 0.002259653 -0.022753766 -3.1920588
000040 c3 fe dc 3b 30 1e 84 be 2a 22 6f 3e ec d3 fc 3c
       0.006744237 -0.2580428 0.23352876 0.030862771
000050 56 5b 59 3f 24 ae 83 3d 4f 1c a4 bc b1 22 e9 3f
       0.8490499 0.06429699 -0.02003303 1.8213712
000060 9f e1 b3 bd 08 37 e4 3a 07 be ac be 99 48 15 c0
       -0.08783268 0.001741142 -0.3373873 -2.332556
000070 c1 2d e4 3c 62 0f b4 3c a8 30 16 c0 50 b7 0f 3c
       0.027853848 0.021979991 -2.3467197 0.008771732
000080 49 80 62 bf 77 7e 89 be fc a2 d2 3a fe 0e 4c bf
       -0.88477 -0.26854298 0.0016070302 -0.79710376
000090 0b d7 a6 c0 8b 1d d2 3d 9c 0e 99 be 3e 88 25 bf
       -5.2137504 0.10259541 -0.2989396 -0.64661014
0000a0 fa be ec bc 0e 6d 85 3d 6e 97 52 be be c9 e3 bb
       -0.028899658 0.06514941 -0.20565578 -0.00695154
0000b0 ec 16 0f bc 34 ba 66 c0 04 4e 5c 3b ee b5 2c bc
       -0.008733492 -3.605115 0.0033615837 -0.010541422
0000c0 0f 03 e1 3c 84 12 c3 3e ac 11 37 3f 95 ba 0e c1
       0.027467279 0.38100064 0.7151134 -8.920552
0000d0 ad fb 64 bc 5b fb e4 bd 47 70 e5 c0 c4 7f c2 ba
       -0.01397602 -0.11180755 -7.1699557 -0.0014839103
0000e0 a9 fe 79 ba fc 99 f9 3d 10 08 b3 bc c2 9a 14 3f
       -0.00095365435 0.12187573 -0.02185443 0.5804864
0000f0 8e bb 91 bd 44 3c 88 bd 30 79 c0 3b 06 b3 8c 3d
       -0.07115851 -0.0665212 0.0058738217 0.068700835
000100 14 cb 60 bb 83 60 c6 3f e0 0b 81 bf e9 bc ab bb
       -0.0034300731 1.5498203 -1.0081749 -0.0052410257
000110 0d ee 0d 3f 1a 9f 0f bf 78 8e c4 bd fd e1 a5 3e
       0.5544136 -0.56102145 -0.09597486 0.32398978
000120 d4 a0 08 3e 41 ea f8 bc 8d 6b b9 3e b5 40 f1 bf
       0.13342601 -0.030385138 0.36214867 -1.8847872
000130 27 fa 9d 3c 20 dc 32 bf 2b f7 a8 bd 70 07 39 3d
       0.019284321 -0.69867134 -0.082502685 0.04517311
000140 a5 41 52 be fe 6c 17 c0 1a 34 89 bb 0e 06 d3 be
       -0.20532854 -2.3660274 -0.004187119 -0.41215557
000150 e3 d8 e6 bf 0f 15 5e 3c 81 c1 03 bf 56 9d 66 3d
       -1.8034939 0.013554825 -0.5146714 0.05630239
000160 d1 eb a1 3d ac 8b a9 3f 5c ef 59 3d ae 2e 72 3d
       0.079063065 1.324575 0.053206787 0.05912655
000170 e5 4a 89 3f a5 81 33 3e 38 10 77 bb 91 3a a5 3e
       1.0725981 0.17529924 -0.0037698876 0.32271245
000180 05 44 01 c0 a9 85 ac 3c 64 e6 d8 be 04 1a 43 c0
       -2.0197766 0.021059828 -0.42363274 -3.0484629
000190 2a 25 a9 ba 23 76 53 be 08 82 29 c0 41 98 44 3b
       -0.0012904753 -0.20650534 -2.6485615 0.0029997977
0001a0 37 32 8a bc 32 69 a9 3d e4 a4 a5 bc 35 f9 72 3c
       -0.016869647 0.082720175 -0.020220228 0.014829923
0001b0 90 6a 31 bf de e3 15 bd 8c 2a e0 bf f1 06 5e c0
       -0.69303226 -0.036594264 -1.7512984 -3.4691737
0001c0 8a 60 27 3c de fb ff be 5b ab 87 bc 3b e9 37 ba
       0.010215888 -0.49996847 -0.0165612 -0.000701565
0001d0 89 9e e3 bc 1e 30 77 c0 2d dc b5 b9 3f 92 ef be
       -0.027785556 -3.8623118 -0.00034687054 -0.46791264
0001e0 be a2 80 3e 28 20 23 bc 62 d4 04 40 ec d4 dc bd
       0.25124162 -0.009956397 2.0754628 -0.10782799
0001f0 dc 8a fd be 2b 53 44 bf 8c ff 1b bc 12 58 38 3d
       -0.49520004 -0.76689404 -0.009521376 0.045005865
000200 59 e5 6f 3e 59 12 09 3c d9 58 fd bd 73 6b 40 3e
       0.23427333 0.008366191 -0.12370462 0.18790989
000210 0a d8 53 bf 8b b1 92 bc d9 fd a0 be 0e cb 61 bc
       -0.82751524 -0.017906925 -0.3144367 -0.013781322
000220 17 9a a5 3d 50 fb aa bf ca 40 28 3e 8c 03 30 bd
       0.08086031 -1.3357944 0.16430965 -0.042972133
000230 68 05 12 3f 4b 30 89 bf 90 32 77 bb 83 91 ed be
       0.570395 -1.0717863 -0.0037719347 -0.4640008
000240 aa a1 6f bd 66 e1 a9 3a 7e 6e af 3a 2a 2f 17 be
       -0.058503784 0.0012960851 0.001338437 -0.14764085
000250 18 a8 df ba 75 76 ba bc e5 86 33 bd 48 3b ed be
       -0.0017063646 -0.022761563 -0.043829817 -0.4633429
000260 bb 0a f8 3e c3 c1 c2 bc 7f cc 8d bd 83 16 49 be
       0.48445687 -0.023774033 -0.0692377 -0.19637494
000270 6b e9 e5 be ff 73 2b 3d c6 a1 c5 be 73 db bd 3d
       -0.44904646 0.04185867 -0.38599986 0.09270372
000280 4f fd b8 bd d1 f6 44 3e 01 07 de 39 2c fb df 3c
       -0.0903269 0.19234778 0.00042348358 0.027341448
000290 eb b5 f8 bc 08 19 47 3d f0 03 99 3b 63 06 2f c0
       -0.030360183 0.048607856 0.004669659 -2.7347648
0002a0 aa f7 89 be e1 f7 b3 bc 5b 14 2d 3e 06 f3 00 3e
       -0.26946765 -0.021968784 0.16902296 0.12592706
0002b0 e2 21 2a be 74 75 fb bd cb d5 11 c1 b4 18 07 bd
       -0.16614488 -0.12278262 -9.114696 -0.032982543
0002c0 5f 31 01 3d 7c f9 5d 3d 13 f9 60 3c 48 2a ae bf
       0.031541225 0.054193005 0.013731259 -1.3606653
0002d0 5c 50 c5 bd 99 ad 58 bc 8a 1a 64 bc 69 05 98 bc
       -0.09634468 -0.013224983 -0.013922343 -0.018557267
0002e0 cb a6 ef 3c 41 5e d7 bf 2d 18 bc bc 95 62 e7 bb
       0.029254338 -1.6825639 -0.022960747 -0.0070613124
0002f0 72 35 18 c0 f0 2c 47 3d ef 11 ff bb b6 1d 0e c0
       -2.378262 0.04862684 -0.0077841203 -2.2205634
000300 bd 85 76 c0 e9 f5 af bb e0 53 10 bf 80 15 1a bd
       -3.8519127 -0.005369891 -0.56377983 -0.03761816
000310 58 f7 fd b9 17 2b 8b be f5 e2 da bc fb ca a1 38
       -0.00048440206 -0.27181312 -0.02671955 7.714886e-05
000320 59 aa cc bc 04 80 85 bd 4a f5 cc bc 10 88 a7 3f
       -0.024983572 -0.06518558 -0.025019307 1.3088398
000330 73 cd 24 be 59 e6 35 3c 6f c1 9c be 69 4b 19 be
       -0.16093998 0.011102282 -0.30616328 -0.14970173
000340 f6 ee 65 bc ba 7f 85 3e e6 e4 6d bd 20 5b 1e 3b
       -0.0140340235 0.2607401 -0.058079623 0.0024163201
000350 c3 65 10 3c 62 34 a4 c0 74 8b 9f bc f7 8e 21 bf
       0.008813324 -5.1313944 -0.019475676 -0.6310877
000360 e3 2c f6 3d cf 59 83 3e ec 01 6f 3e c2 d5 12 be
       0.1202028 0.25654456 0.23340577 -0.14339355
000370 e3 be cf 3b 99 bb 51 bd 48 ea aa bb fc 44 92 3d
       0.006339894 -0.051204298 -0.005215917 0.07142064
000380 84 eb ec 3e e0 e4 85 bd 16 13 ca 3c 52 9f a2 3c
       0.46273434 -0.06537795 0.024667304 0.01985136
000390 97 b6 4c c0 f4 b0 fb 3c 8f d7 11 bf c2 73 4a 3e
       -3.1986444 0.030724026 -0.5696954 0.1977072
0003a0 77 a1 5b be e9 d6 1b 3f 14 48 87 be 8a 99 cf 3e
       -0.21448313 0.608748 -0.2642218 0.40546829
0003b0 59 17 ff be 51 27 9b 3d 21 d3 d6 bb 1a 50 4d 3f
       -0.498225 0.075758584 -0.0065559302 0.8020035
0003c0 65 30 9e c0 fc c2 65 3c 6a f0 2b be fc 48 24 bf
       -4.9434075 0.014023539 -0.1679093 -0.64173865
0003d0 0c 68 82 bd 33 f8 e1 bd 44 6f f8 be 43 97 51 bc
       -0.063675016 -0.11033668 -0.4852239 -0.012792411
0003e0 ac 00 1b bf 0d 29 19 38 ac 6d 87 3a 78 6a 1a bb
       -0.605479 3.6516274e-05 0.0010332367 -0.0023561995
0003f0 ae 8c 15 bc 34 64 fa bb 0a f6 10 bd 0a a2 dc bf
       -0.009127779 -0.0076413397 -0.03539089 -1.723695

hiddenLayer1.bias f4 [150]
000000 3d c3 32 c0 b9 1a 4f be d3 4a 96 be 4e ce 18 bf
       -2.7931664 -0.20225038 -0.2935396 -0.59689796
000010 cc cc d2 bd c2 66 8d 3e fd 34 be 3f 64 9d c5 3f
       -0.10292968 0.2761746 1.4859921 1.5438657
000020 5e 3b 6b 3f 2a 4e e2 be 51 5b 46 bf 2e a4 1b bf
       0.9188746 -0.4420026 -0.7748309 -0.60797393
000030 cc 89 c2 3d 6e 53 0d bf f4 f1 be bd 0e 22 60 be
       0.09498939 -0.5520543 -0.09323493 -0.21887991
000040 67 24 89 3f 0e bb fa be b3 52 78 be 16 97 af 3f
       1.0714234 -0.48970836 -0.24250297 1.3717983
000050 5a 84 76 bf 1c 40 f6 bf 24 60 d3 be 3e 93 8f bf
       -0.962957 -1.9238315 -0.41284287 -1.121681
000060 a0 eb de bf d7 a4 31 bf 89 b7 59 3f 22 b4 dd be
       -1.7415657 -0.6939215 0.8504568 -0.43301493
000070 3e be 21 bf 4c e7 c6 bf d2 3a c5 3f 79 1a d0 bf
       -0.6318091 -1.5539336 1.5408576 -1.6258079
000080 ab dc 3b bf eb 7e c6 be 11 99 0a be 65 57 da bf
       -0.7338359 -0.38768706 -0.13534953 -1.7057921
000090 7c da 60 bf 21 3c 10 bf 45 79 08 bd 92 c8 01 bf
       -0.8783338 -0.5634175 -0.033318777 -0.5069667
0000a0 72 88 98 3f b4 38 be bf 29 d1 8a 3f 6a ef a6 3f
       1.191664 -1.4861054 1.0845081 1.3041813
0000b0 34 ba fc be 03 3d 2b 3f 2e b8 0e c0 18 f4 d1 be
       -0.49360812 0.6688997 -2.2299914 -0.4100654
0000c0 c5 c2 8a bc 68 c8 29 bd c6 86 e7 3e 7b b3 6a bf
       -0.016938576 -0.041450888 0.4522001 -0.91680115
0000d0 63 86 2e bf 8a 27 8b 3f e8 2a 9d 3f c4 26 b6 bf
       -0.6817381 1.0871441 1.2278719 -1.423058
0000e0 38 2c 87 bf ed b7 95 3f 99 b9 5e bf 73 7b 23 c0
       -1.056037 1.1696755 -0.8700195 -2.5544097
0000f0 2d ef 87 be 7c fd 9a 3f 2c db b1 3f 17 e3 d1 bf
       -0.26549664 1.2108607 1.3895011 -1.6397427
000100 18 f0 0f bf 46 21 5b be d9 ca a1 bc bc ab 44 bf
       -0.5622573 -0.21399412 -0.019750046 -0.76824546
000110 43 6c 07 3e d3 84 ba 3e 9b 11 14 be 7a b6 5a bf
       0.13224892 0.36429462 -0.14459841 -0.8543469
000120 30 58 fb bf 13 19 69 3f 6b 41 8e 3f 37 38 27 3f
       -1.9636288 0.91053885 1.1113714 0.6532015
000130 3a 48 36 bf bb 58 a0 3f ed b1 9e bf fb f7 1e c0
       -0.7120396 1.2527078 -1.2398049 -2.4838855
000140 83 93 d1 be 2a 42 69 bf 13 4a 54 bf 62 4d e9 bc
       -0.40932855 -0.91116583 -0.8292553 -0.028479282
000150 23 75 db bd 51 19 19 bf 94 10 ae bf b9 2c 34 3f
       -0.107157014 -0.59804255 -1.3598809 0.7038074
000160 fa 58 2b be 1b 53 14 bf be 75 b0 bf 90 b5 91 be
       -0.1673316 -0.5793931 -1.3785932 -0.28458834
000170 71 91 44 bf bc 06 32 bf 61 91 8b bf 7a 2f a1 3f
       -0.76784426 -0.69541526 -1.0903741 1.2592614
000180 3d 9a 2f 3f 7a 37 26 be dd 49 b1 3f e4 fb 0f bf
       0.68594724 -0.162321 1.3850666 -0.5624373
000190 4b 36 ae be 05 fe 75 3f 39 3b 51 be 12 e3 5b bf
       -0.34025797 0.9609073 -0.20432748 -0.85893357
0001a0 52 76 1d bf 58 b6 3c 3f 69 48 ec 3d bf 9c 71 bf
       -0.6150867 0.73715734 0.11537249 -0.943798
0001b0 09 7d 0d be 1d 7d 50 3f d7 88 1d 3c d0 7d 2b 3f
       -0.13817228 0.8144091 0.009615145 0.6698885
0001c0 fb 2b 04 c0 d3 45 fc be 5a b8 29 bf 61 33 8f bc
       -2.0651844 -0.49272022 -0.66296923 -0.017480554
0001d0 83 4a b1 bf 15 62 8f be 90 d7 3c bf 6d a1 f5 bd
       -1.3850864 -0.28004518 -0.7376642 -0.1199368
0001e0 61 bc cb bd 13 c4 5b bf 16 3b 0d c0 60 d6 9b 3f
       -0.0994804 -0.8584606 -2.2067313 1.2174797
0001f0 f3 12 3b 3f 57 50 ea bc c9 f2 92 bf 40 25 6c 3f
       0.7307579 -0.028602762 -1.1480342 0.9224434
000200 e0 5e 9c be ac f8 b0 bd a9 16 88 bf a0 13 7e bf
       -0.30541134 -0.086411804 -1.0631915 -0.99248695
000210 d4 5c 36 3f 6f e5 cb be 2d a0 39 bf ef 77 58 bf
       0.71235394 -0.3982348 -0.72510034 -0.84558004
000220 c6 56 aa 3d 64 71 41 bf b8 cf e0 bf 16 11 5e 3f
       0.08317332 -0.75563645 -1.7563391 0.8674482
000230 17 1c db 3f e9 17 ed bf fa 86 39 bf 40 06 ab bf
       1.7117947 -1.8522922 -0.7247158 -1.3361282
000240 f2 ef bb bd 87 9f 16 3f 28 06 25 3e 1b 57 84 bf
       -0.09176625 0.5883717 0.1611563 -1.0339082
000250 c8 d2 1f bd c7 44 b9 3f
       -0.039019376 1.4474114

hiddenLayer2.weight f4 [150, 150]
000000 26 f1 f0 be 97 a4 83 bd 96 0e 9c 3d 93 cb 78 be
       -0.47058982 -0.064278774 0.076199695 -0.24296407
000010 95 4a 61 bf be c2 0b 3e 30 d1 47 be b4 25 20 be
       -0.8800443 0.13648507 -0.19513392 -0.15639383
000020 75 86 9a 3d fd 3f 19 3f d2 98 88 3b 87 34 2c bb
       0.07545177 0.59863263 0.004168608 -0.0026276426
000030 d5 f0 a7 3c e1 e3 b3 3e aa f7 be 3d a5 33 be be
       0.02050058 0.35134795 0.09324582 -0.37148777
000040 ff 7f bd be d1 d5 da be b6 9b 06 bf 20 ee 7d be
       -0.37011716 -0.42741254 -0.52581346 -0.24797869
000050 5e 92 7f bf 95 90 de be 3c fb ad bf 2d af 9c bf
       -0.99832714 -0.43469682 -1.3592296 -1.224096
000060 83 7d b2 bf bd 42 dd 3e 98 d7 aa 3c 7b 97 d6 3c
       -1.3944553 0.4321498 0.020854756 0.026195278
000070 e8 d2 be 3e 2b 75 a2 bf 89 09 34 be 29 6b b5 bf
       0.37270284 -1.2692007 -0.17581762 -1.4173328
000080 aa 61 69 3e 55 2a a4 3e 3f cc 1f 3e 38 ef 68 bf
       0.22791162 0.32063547 0.15605257 -0.9099002
000090 32 8c af be 55 2e 0b 3d 8d 36 8b 3d 97 9d 4c 3e
       -0.34286648 0.033979733 0.06797514 0.19981991
0000a0 6f c0 91 be 3c 03 f9 be 6d 8a 1c be c3 72 2f be
       -0.28467128 -0.4863528 -0.1528718 -0.17133622
0000b0 1f 91 fd 3e f2 1f 2e 3d 87 5d 98 bf 8a f5 ae bd
       0.4952478 0.042510934 -1.1903542 -0.085429266
0000c0 a0 c1 10 3f d9 c9 04 3e 37 17 db bc 3c a4 c0 3e
       0.5654545 0.12967624 -0.026744468 0.376253
0000d0 88 c8 91 be 2e 6d 7a be b3 0a 17 bb d6 f3 5e 3f
       -0.28473306 -0.24455711 -0.0023047149 0.87090814
0000e0 c0 6f 83 bf 04 45 a0 3c ca 6e 28 3f 55 73 35 bf
       -1.0268478 0.01956416 0.6579405 -0.7087911
0000f0 80 f9 8d bf 2b b4 ca 3d 37 b6 26 3e 54 18 d6 3f
       -1.1091766 0.098976456 0.16280447 1.6726174
000100 19 d4 c4 3d 28 cf d5 3d 37 19 9b be c6 bc 91 3f
       0.09610767 0.104399025 -0.30292675 1.1385734
000110 d4 c6 a8 be bc 32 ec be 4f 02 b6 be fd cf ab bd
       -0.32964194 -0.46132457 -0.35548636 -0.0838928
000120 35 f0 cc 3e 31 61 d6 3d 37 4f 77 be df ef ca be
       0.40027013 0.104677565 -0.24151312 -0.39636132
000130 5e cb 45 bf 76 d7 a4 be 2b 20 0e 3e 3a f6 9c be
       -0.7726344 -0.32195634 0.13879459 -0.30656606
000140 af b4 1e be 7d b7 34 bf 50 d4 d1 be 7f ab ab bd
       -0.15498613 -0.7059248 -0.40982294 -0.0838232
000150 2b 85 a5 3d 3e 7d 11 bf ea 02 bd be 50 b8 36 3e
       0.080820404 -0.5683173 -0.36916286 0.17843747
000160 a6 85 a2 be d1 b3 aa 3e cf 6d 74 bf 8f 80 38 3f
       -0.3174259 0.33340314 -0.95480055 0.72071165
000170 d4 60 d2 bf b5 b5 44 bd e5 c1 50 be ce 54 36 bd
       -1.64358 -0.04802485 -0.20386465 -0.04451447
000180 00 d7 81 bc c5 af 0e bf ed d6 56 3d 28 de 7a c0
       -0.01584959 -0.55736953 0.052451063 -3.9198093
000190 8a 7a 8e 3e 00 3f 6d be 1f 11 74 be b6 46 57 bf
       0.27827865 -0.23168564 -0.23834656 -0.8409227
0001a0 fd e2 7b c0 6b e7 0a bf 70 c0 16 be f3 61 c5 3e
       -3.9357293 -0.54259366 -0.14721847 0.38551292
0001b0 42 a6 f1 bf ed 72 af be 66 71 61 be 33 2c ba be
       -1.8878863 -0.3426737 -0.22015914 -0.36361846
0001c0 c0 ca a8 bf cd f5 bd be fa 8a 38 3f d8 e3 2d 3c
       -1.3186874 -0.37101594 0.7208706 0.010613404
0001d0 7d ba fb bc bb aa 6e be 2d b1 07 bf 62 5f ae be
       -0.030728573 -0.23307316 -0.53004724 -0.34057146
0001e0 59 2d 22 bc 31 0b 47 c0 2d 48 b9 bf 34 a6 ba be
       -0.009898507 -3.110058 -1.4475151 -0.36454928
0001f0 e8 ad 03 be 2e 00 74 be 57 04 25 c0 e4 62 26 be
       -0.12859309 -0.23828194 -2.57839 -0.16248661
000200 b2 f1 84 be 95 ef d9 be c3 9f 6d 3e 8d 86 94 3e
       -0.2596565 -0.425656 0.23205476 0.29008904
000210 9f d2 8e be f7 a5 b5 be d3 cc 88 bf 85 d1 91 3f
       -0.27895066 -0.35478184 -1.0687507 1.1392065
000220 6c 8c f7 bd 53 8d 4b c0 5a 8a 4f 3f 92 92 42 be
       -0.1208733 -3.1805007 0.8107048 -0.19001225
000230 01 56 d0 3d 2f 5c 07 bd 1c ea eb be 99 ad 36 3e
       0.10172654 -0.033046898 -0.4607705 0.1783966
000240 95 65 eb be d3 a2 72 be d1 af 56 be da 41 13 3f
       -0.45975938 -0.23694925 -0.20965506 0.57522357
000250 b6 b2 58 3d 68 76 9d be 51 96 06 bf 55 ef a5 be
       0.052904807 -0.307544 -0.52573115 -0.32409158
000260 dc 41 08 3d 15 10 26 3f 1d b3 68 3c f9 4f b2 3e
       0.033265933 0.6486829 0.01420286 0.3482664
000270 df a4 3b 3e 5f 1d 2b 3f fe 8f c5 bb 98 81 b3 be
       0.18324612 0.6684169 -0.006029128 -0.3505981
000280 4d f1 3e bf 6c 01 45 be 4b da fa 3b fd 1d aa c0
       -0.74586946 -0.19238824 0.007655417 -5.3161607
000290 81 f8 01 be 5a 2e 76 3f 71 1b 4b 3e 67 4c 01 3f
       -0.12692453 0.96164477 0.19834687 0.50507206
0002a0 10 c4 3b 3d 69 d1 1d 3e 3b d0 b6 bf 27 46 cc 3c
       0.045841277 0.15411915 -1.4282297 0.024935795
0002b0 78 d5 b5 3c 80 6b 6a be 8d 55 b6 be d5 7d a0 3e
       0.022196516 -0.2289257 -0.35612145 0.31346002
0002c0 93 d2 3c bd d0 9a 95 be ed 15 a3 be 6d 92 84 3e
       -0.046099257 -0.29219675 -0.31852666 0.25892964
0002d0 e5 f6 25 3f a6 8e dd be b8 dc 20 3f ba 4d 02 3f
       0.64829856 -0.43272895 0.6283679 0.5089985
0002e0 92 0d 80 bf f3 3b 03 be 17 ae c5 be f0 0f 76 be
       -1.0004141 -0.12815838 -0.38609383 -0.24029517
0002f0 4f d7 42 3d 8b 12 fc be 1a e1 07 3e 53 0e b2 3f
       0.047568616 -0.49232897 0.13269463 1.3910621
000300 92 42 24 3e 18 f1 c4 3d 47 71 da 3d 77 c0 af bd
       0.1604102 0.096162975 0.10666137 -0.08581632
000310 dc 49 fb be 44 bf 00 be 6f 60 b0 3d d9 ec 10 3e
       -0.49079788 -0.12572962 0.08612143 0.1415285
000320 d2 86 83 be 2e 53 95 c0 ee 10 9c be 77 5e fb bd
       -0.25688797 -4.666404 -0.30481666 -0.12273877
000330 0b d3 9c 3e 7d f9 8d be df 2a db be 11 12 aa 3c
       0.30629763 -0.27729407 -0.42806146 0.020760568
000340 65 77 cc be cf 82 42 c0 a2 ef 0b be 6b 74 bf 3e
       -0.3993484 -3.039234 -0.13665631 0.37393507
000350 25 9d 0e 3f 75 6a 9d be 20 44 d0 3f 8e 12 2c bc
       0.55708534 -0.30745283 1.627079 -0.010502471
000360 15 ae 35 bd fc 7c 01 3d 92 b4 02 3e 0b fe 21 3e
       -0.04435547 0.031613335 0.12764195 0.15819566
000370 41 98 c7 bd c7 64 ec be 65 b1 4e bc db 64 58 3e
       -0.09745837 -0.46170637 -0.012615536 0.21132223
000380 f8 af 3e 3e dc 5c bd bd 6e 10 2c 3f 12 d7 6e bd
       0.18621814 -0.09246227 0.6721257 -0.058310576
000390 58 64 08 3e 53 25 df be 41 df ae bf 12 f2 ae bf
       0.13319528 -0.43583164 -1.3661882 -1.3667624
0003a0 85 14 50 bf 20 2d 2f bd c7 af 84 bc 7c 4f b2 be
       -0.8128131 -0.042767644 -0.016197098 -0.34826267
0003b0 bc b1 3f bf 63 9b 07 3e 20 3f 31 bd 8a 44 35 be
       -0.74880576 0.13242869 -0.04327309 -0.17701927
0003c0 43 60 04 be 17 da 39 3e c5 ba 8e bd f8 99 01 40
       -0.12927346 0.18149601 -0.06969217 2.0250225
0003d0 10 ab 19 bf 6f 86 0c 3e 0f d5 f0 bd cf f8 df bd
       -0.60026646 0.13723157 -0.11759388 -0.10936128
0003e0 92 66 d2 3e 98 cd eb bd a4 5f af be 2e 99 06 bd
       0.4109388 -0.11513823 -0.34252656 -0.032860927
0003f0 d0 18 4d be 01 a6 6d be 4d 55 77 be 92 c4 c0 3e
       -0.20028996 -0.23207857 -0.24153633 0.3764997

hiddenLayer2.bias f4 [150]
000000 46 9f 20 3e f1 a5 b5 3f ae 60 a6 b9 5a 65 8e 3f
       0.15685758 1.4191266 -0.0003173402 1.112468
000010 d8 9c 48 3e 84 5b 4c be 50 83 04 be 6e 38 3c bb
       0.19591081 -0.19956785 -0.12940717 -0.0028720158
000020 05 ec 84 3f 09 a3 2a bd 8a ac 34 3e 15 31 c5 3e
       1.0384527 -0.04165939 0.17643943 0.3851401
000030 a6 6a 04 3e 5e 66 02 3f 3b a2 22 bd fe 90 d8 bc
       0.12931308 0.5093745 -0.039705496 -0.026436325
000040 91 48 32 3f 64 ed 8c 3e ba 33 bf 3f a9 61 99 3e
       0.6964198 0.27524865 1.4937661 0.2995732
000050 44 6a b9 bc 30 6e 9b 3c 61 8d a7 3e 16 17 80 bd
       -0.02263368 0.01897344 0.3272505 -0.06254403
000060 46 9a 88 bd 71 78 3a bc 14 57 4c 3e 2f 63 b9 3f
       -0.0667005 -0.0113812545 0.19955093 1.4483393
000070 2c 58 2d 3e 70 e9 ab bb c5 09 43 3e eb 2f e7 bc
       0.16928166 -0.005246334 0.19046696 -0.028221091
000080 f9 ef b0 bd 50 86 df 3d 0c 12 1d 3f 1f 1c 04 3e
       -0.08639521 0.1091429 0.6135566 0.12901352
000090 67 20 b5 3d ea 9a f1 3e 40 82 65 bb 8c 90 fb 3d
       0.08844071 0.47188503 -0.0035020262 0.122834295
0000a0 9d 02 2d 3d b6 b0 2c 3e f7 da 1c 3e 8d 4c 22 bd
       0.04223882 0.16864285 0.15317903 -0.039623786
0000b0 e7 3a 10 bb 78 5e 19 be 3a 20 a9 be b7 0d 99 3c
       -0.0022007765 -0.14977443 -0.330324 0.018683298
0000c0 91 e9 c2 3e 86 66 d2 3d c7 96 06 be 2b 62 85 3c
       0.38068822 0.10273461 -0.13143454 0.016282162
0000d0 24 62 e3 3e 31 a9 ab bc 9d ce 49 bf 7f 10 9f 3d
       0.44410813 -0.0209547 -0.7883089 0.07766818
0000e0 69 dc ba bc 73 50 27 be f3 48 74 3f 2c 9b 08 3e
       -0.022810178 -0.16339283 0.9542381 0.13340443
0000f0 e3 05 df bd 9e d7 ae bd c0 c5 e7 bc 10 6e 96 bd
       -0.10889795 -0.085372195 -0.028292537 -0.073452115
000100 da e3 cf 3d 65 f9 b5 3f ee 77 01 bf b8 87 84 3e
       0.10150881 1.4216734 -0.50573623 0.25884795
000110 61 da c2 bc 5e d9 be 3e 58 af 86 3e 9a 36 d3 3c
       -0.023785772 0.37275213 0.26305652 0.025782872
000120 1a 31 e7 3f bd 79 f4 3f c9 d9 aa be e3 c3 e6 bd
       1.806186 1.9099652 -0.33369282 -0.11267831
000130 cf db b8 3e 96 20 80 3d 8d d4 91 3c e9 88 1a 3e
       0.361052 0.06256215 0.017801547 0.1509129
000140 92 df 8f bf 6b d0 34 3d 04 d3 e1 3d 35 10 90 bc
       -1.1240103 0.044144075 0.11026576 -0.017585853
000150 7d b3 cb 3e b4 2e 55 3d f6 4b 0d 3e fe db 31 bb
       0.39785376 0.052046493 0.13798508 -0.0027139182
000160 64 4c 40 3f d6 e6 62 3c cd 6a f5 3e 80 7e 84 3f
       0.7511656 0.013848981 0.47933045 1.0351105
000170 c9 56 3d bd 5c bd 02 3f 57 13 2b 3d 46 96 1b be
       -0.046225343 0.5107019 0.04176649 -0.15194044
000180 2e 02 e0 3d fd d0 d1 3d c6 8e 49 3e 01 ec fe 3f
       0.10937916 0.102449395 0.1968337 1.9915773
000190 52 3c 2d be ea c1 36 bd c1 56 33 bd 55 b6 2a 3e
       -0.16917542 -0.044618525 -0.043783907 0.16671117
0001a0 35 03 4c 3d a5 2d d0 3f c0 90 e2 3e c3 5c 4a be
       0.049807746 1.626393 0.4425106 -0.19761948
0001b0 09 c4 d1 3f ed 4b a0 be c5 6d 9e 3e c2 24 9c 3f
       1.638795 -0.31307927 0.30943123 1.2198718
0001c0 2d d9 07 3d db 6b c5 3f 45 61 d0 3f b7 16 e5 3c
       0.0331661 1.542354 1.6279684 0.027964933
0001d0 94 0e 5c be 59 d4 81 3e 32 a1 bc be 92 54 a1 3d
       -0.21489936 0.2535732 -0.36841732 0.07877459
0001e0 b6 73 20 bd e6 73 d7 be 7b 97 53 3f b3 e6 61 bd
       -0.03917285 -0.4208061 0.82653016 -0.055151653
0001f0 df 99 b0 be 00 02 7c 3f 02 0a a9 3c f6 01 65 3d
       -0.34492394 0.9844055 0.020634655 0.055910073
000200 da d3 ed 3e a8 56 a2 bc 3b 23 31 3f a8 4a a4 3d
       0.46450692 -0.019816712 0.6919438 0.08022052
000210 2c a9 f4 3f 80 b2 34 3e 01 75 5d be d5 47 05 3f
       1.9114127 0.17646217 -0.21626665 0.5206273
000220 e3 c5 d4 3c 42 17 5e bc 99 ff 46 3d a2 3a 9a bb
       0.025973266 -0.01355535 0.0485836 -0.0047066966
000230 ac 38 e7 3f 80 6b f9 3c 9a 5e 47 bd 89 0a 0e 3e
       1.806417 0.030446768 -0.048674203 0.13871206
000240 f1 c7 f8 bc f2 89 a3 be 14 46 5e 3e 40 6e cd bd
       -0.030368777 -0.3194118 0.2170642 -0.10030794
000250 1f 3f a8 3c 29 e6 62 be
       0.020537911 -0.22158112

hiddenLayer3.weight f4 [150, 150]
000000 0a bd 79 be a1 43 1b 3c 9c 00 f2 be 45 ad eb 3e
       -0.24388519 0.009476573 -0.4726609 0.46030632
000010 52 f2 ec 3e 5c 3d b4 bd f8 cd c2 3d 53 e5 4f 3c
       0.46278626 -0.08800766 0.09511942 0.0126889525
000020 26 ee 09 3f 06 e2 6a 3e 65 84 12 3e 3e 88 8f 3d
       0.5387901 0.22937784 0.14308317 0.07008408
000030 b3 1e 0c be dc 1e c9 3d 9d 53 9f 3c c5 d4 9f 3e
       -0.13683586 0.09820339 0.01944905 0.31217018
000040 93 d7 8c 3e 13 f9 14 3f 91 99 7a 3d 99 93 65 3d
       0.2750822 0.5819256 0.06118161 0.056048963
000050 5c 61 16 bf 1a 8d 66 bd a8 53 aa bd 3d 36 71 3e
       -0.5874231 -0.05628691 -0.083167374 0.23555847
000060 78 61 05 3d 19 93 96 bd 5b 56 88 be 0e e3 9d 3e
       0.032563657 -0.073522754 -0.26628384 0.3083729
000070 99 36 42 be d1 ad 94 be c9 3e 7d 3d 46 3f 36 3d
       -0.1896614 -0.2903886 0.061827455 0.044493936
000080 78 85 e1 be b9 0e 8d bd b1 4c 43 3e 6f 63 c7 3e
       -0.4404714 -0.06887574 0.19072224 0.3894305
000090 6f 4d 9a bf 6c 6f 91 3d 1f a8 d1 bb 51 2c ac 3e
       -1.2054881 0.0710133 -0.0063982154 0.3362756
0000a0 d9 28 cb bd 66 63 c1 bd dd ab 15 bd 15 b9 25 3d
       -0.099199004 -0.09442787 -0.036540855 0.04045971
0000b0 fe d4 c4 bd 58 f1 b0 3e c8 7a 94 3d 48 e8 72 3e
       -0.096109375 0.3455913 0.07249981 0.23721421
0000c0 66 db 00 3e cd 69 fd 3b df 7b 96 be 30 c6 11 3e
       0.12583694 0.0077335597 -0.2939138 0.14235759
0000d0 93 65 40 be 82 a1 0a 3d c3 17 bf bd 96 8f 5c bc
       -0.18788747 0.033845432 -0.09330704 -0.013461968
0000e0 0e ff 0a bf 27 5f 47 bd ae 3e d8 3e a9 90 71 3e
       -0.5429543 -0.04867473 0.4223532 0.2359034
0000f0 00 38 57 be a3 8b ce bc 57 83 39 bc 42 1a 69 be
       -0.21017456 -0.025213068 -0.011322818 -0.22763923
000100 c3 22 ef bd 76 e3 c6 3c 97 aa c4 3e 31 1b 47 be
       -0.11676552 0.024278384 0.384114 -0.19443966
000110 75 c5 b5 3d 83 fd 5d 3e c2 30 69 bc 90 11 46 be
       0.088755526 0.21678738 -0.014232816 -0.19342637
000120 ff 9c 03 3f f4 0f c8 3e cc c1 7a 3e cb d6 76 bd
       0.5141143 0.3907467 0.2448799 -0.060263436
000130 09 b8 5f be 3c 9d ce be 01 5b 10 3e 09 22 7b 3e
       -0.21847548 -0.40354335 0.14097215 0.24524702
000140 96 36 8e bd 22 01 c3 be 6f 68 00 3e 51 27 b8 bd
       -0.06944005 -0.38086802 0.12539838 -0.08991874
000150 d1 8a a2 be eb d3 93 3d 8f 78 18 3e d6 1c 02 3f
       -0.31746534 0.072181545 0.1488974 0.5082525
000160 0b 28 61 3e 05 81 55 3d 75 2e 7d 3e ef 99 b4 3e
       0.21987931 0.052124996 0.24724753 0.35273692
000170 91 f6 0d 3d 2a 0d 59 3e 04 19 17 c0 23 70 2a 3f
       0.034658972 0.21196428 -2.3609018 0.6657736
000180 0b ff ef 3e ba 82 16 3e 3b 44 a8 3e 50 66 cd 3e
       0.4687427 0.14698306 0.32864556 0.4011712
000190 36 d5 27 bd a8 20 ac be 38 c1 83 3d 5b 4a ab 3f
       -0.04097482 -0.33618665 0.06433338 1.3382066
0001a0 38 9c 73 bd 51 44 6e 3e 5d f1 a5 be cb a4 6e be
       -0.059475154 0.23268248 -0.32410708 -0.23305051
0001b0 c4 59 1a 3e e1 6d 98 bd 68 ba 92 bc 61 bc 94 3e
       0.15073305 -0.07442833 -0.017911151 0.29049972
0001c0 6a f3 40 3c 1b c9 72 3e 0c 7d 8c 3e 0b 2f 25 3d
       0.011776784 0.23709528 0.27439153 0.040328067
0001d0 ae c1 e1 be 6c 23 9f bd b6 d7 20 3e 82 ed 75 3e
       -0.44093078 -0.07770428 0.15707287 0.24016383
0001e0 4d db 1a 3d c9 65 8f 3e 63 38 91 3e c3 d1 40 3d
       0.037806798 0.28007343 0.28363332 0.047075044
0001f0 07 4e 0e bd 60 52 5e 3e 5c f0 70 3d 34 4a eb 3e
       -0.03474238 0.21711111 0.058822975 0.4595505
000200 b7 88 9d bd be 4f 19 be 46 69 95 3e 77 03 4d 3e
       -0.07692092 -0.14971825 0.2918188 0.20020853
000210 c5 b4 b2 3e df ee e5 bd 7c a3 8e bf 5c 4c 86 3d
       0.3490354 -0.11227202 -1.1143641 0.06557533
000220 bd 62 9a 3d 8a 25 2d be a2 45 09 3d 06 14 07 3e
       0.07538364 -0.16908851 0.033513673 0.13191232
000230 9b c5 53 3e 2f 37 cf be 53 fa f7 bc 2b bb 0e bf
       0.20680849 -0.4047179 -0.030270731 -0.55754346
000240 e5 ef c3 bd 88 98 14 be 53 da 6a 3d dc 8f d0 3d
       -0.095672406 -0.14511311 0.057337116 0.10183689
000250 c3 89 a3 3e 39 8c 5e bc 5e d4 70 3e 3a bb d1 bd
       0.3194104 -0.013583236 0.23518512 -0.10240789
000260 c8 de e1 bd 6b a0 26 be 07 83 d9 bd fa 20 03 bd
       -0.1102882 -0.16272132 -0.106206946 -0.03201387
000270 2f 98 29 bf 63 d5 14 3f 0b e3 54 be 5f 64 38 3e
       -0.6624784 0.581381 -0.20789735 0.18007039
000280 aa 84 a9 3d d5 1d 41 3e 6f 84 be be cf 9c 67 be
       0.08277257 0.18859036 -0.37210414 -0.22618411
000290 fd 53 a9 bc f5 16 a8 3e 18 e7 8a bd 77 08 a7 be
       -0.020669932 0.32830015 -0.06782359 -0.32623646
0002a0 e9 37 01 bd 8a 79 5d bd 65 8c 7a be 80 04 7a bc
       -0.03154746 -0.054070987 -0.24467619 -0.015259862
0002b0 3c 7f ef be 4d 4f c6 be ab cc ea 3d f4 80 8a 3e
       -0.4677676 -0.38732377 0.114648186 0.27051508
0002c0 0f 07 c5 ba 06 4f 8c 3d 16 d7 68 bd 84 e8 d5 be
       -0.0015032011 0.0685101 -0.056845747 -0.41778958
0002d0 ce 91 90 be 77 de c1 3d 09 f1 e7 be 5b d4 35 3d
       -0.2823624 0.0946626 -0.45301083 0.04439197
0002e0 e8 b2 88 3e 6f a6 12 bf 71 5e 80 3f 8d 31 09 be
       0.26698995 -0.5728521 1.0028821 -0.13397808
0002f0 1f 46 c5 be b4 22 64 3e f3 8b f8 3d 0c c8 11 be
       -0.3853006 0.22278863 0.12136068 -0.14236468
000300 7c 74 01 3d 5f 60 4c 3d 76 75 22 be 89 24 01 bd
       0.03160523 0.049896594 -0.1586512 -0.031528983
000310 b6 44 89 3d 97 6d 20 3e c4 52 48 3d 5b cb 02 3d
       0.06702559 0.15666805 0.048907056 0.031932216
000320 a2 85 c8 bd f9 b1 0a bd 0e f0 2e 3e 29 45 e1 3d
       -0.097911134 -0.033861134 0.17083761 0.109995194
000330 cd 2e 5a 3d ce a9 76 be bc 4b bd 3d 67 34 80 3e
       0.05326729 -0.24088213 0.09242961 0.2503998
000340 2b 0e e0 3d 42 6c 6f bd 91 ea a4 bd e3 30 9b 3d
       0.10940202 -0.058452852 -0.080525525 0.07577684
000350 bf 55 8f be 7e 62 68 bd df 30 37 be c5 57 d3 be
       -0.27995107 -0.056734554 -0.17889737 -0.412779
000360 9f 02 f7 be 85 f6 f2 be 80 fa 08 bd d6 4b 94 3d
       -0.48244187 -0.47453704 -0.03344202 0.07241027
000370 0b 1f d6 3a a4 ac 59 bb 4f 10 e8 bd d7 99 f0 bd
       0.0016336156 -0.0033214474 -0.113312356 -0.117480926
000380 6b a1 7b be 78 ff 45 3f 62 31 b4 bd cf 26 c7 bd
       -0.24573295 0.7734294 -0.087984815 -0.09724199
000390 03 d3 3a 3e ee 06 fa bd 73 4c 41 be 93 08 ef bb
       0.18244557 -0.12208353 -0.1887682 -0.0072947233
0003a0 02 8c 9c be a4 97 81 bd 8a f3 b6 3c 3f ed 4f be
       -0.30575567 -0.06327751 0.022332925 -0.20305346
0003b0 43 5f 12 bd 5f 3f 5d 3d ff 71 90 bd 32 df 83 3d
       -0.03573538 0.054015514 -0.07052993 0.064390555
0003c0 fc b5 da bd fb 70 a9 bd 26 38 e4 bc d7 73 4f 3d
       -0.10679242 -0.082735024 -0.027858805 0.050647583
0003d0 94 07 e0 bc ba e3 b2 3e fe 74 54 3c e8 c3 90 3e
       -0.027347364 0.34939367 0.012967346 0.28274465
0003e0 b5 3e af 3e bf 76 6b bc 3f aa ef 3e 3d 87 ce be
       0.3422753 -0.014371573 0.46809575 -0.40337554
0003f0 56 8d bf 3e e0 a5 30 3e 28 d7 3d 3c 61 e3 e6 bd
       0.37412518 0.17250776 0.011586942 -0.11273838

hiddenLayer3.bias f4 [150]
000000 34 a4 d5 3f 6b ec 91 3d 3c f3 66 be 35 fa 50 bf
       1.6690736 0.07125171 -0.22553724 -0.81631786
000010 0f 1b 13 3f c7 89 d8 3f d2 b3 e1 be 9d f6 0c 3d
       0.57463163 1.6917046 -0.44082505 0.034414876
000020 12 b4 82 bd 7c e0 28 bf f1 c3 a4 3d e7 2b 49 be
       -0.06382002 -0.65967536 0.08045185 -0.19645654
000030 95 52 26 be 87 11 5e be af 59 b5 3f e0 fa d9 be
       -0.1624244 -0.21686374 1.4167994 -0.42574215
000040 28 52 61 be 90 d9 f7 3f e0 92 27 bf 09 1f 83 be
       -0.22003996 1.936327 -0.6545849 -0.25609615
000050 31 8d e5 bd 67 1d 8a 3d c6 21 0a 40 0e 8a de be
       -0.11208571 0.06743889 2.1583114 -0.43464702
000060 0c f9 b9 be 87 f2 8f 3f 5d 09 83 3f 88 9d 2a be
       -0.3632282 1.1245888 1.0237232 -0.16661656
000070 ee 9a b6 3d 7f 33 e7 3f 4e c8 1b 3e da 67 61 be
       0.08916269 1.806259 0.15213129 -0.22012272
000080 1c d2 43 bd ba a0 36 3d 7a a1 02 40 85 ae 86 3f
       -0.047807798 0.044586875 2.0411057 1.0522009
000090 8d d6 f8 3f be 20 c6 3f b3 8c cd 3c a4 b5 6a be
       1.9440476 1.5478742 0.025091505 -0.22920853
0000a0 6a 12 5f be bc 90 63 be 09 18 fe 3f 0f 3e 03 bf
       -0.21784368 -0.2222318 1.9851085 -0.5126657
0000b0 4a 9b 21 3e 4e a0 10 be e8 68 ac be 4f f3 02 40
       0.15781894 -0.14123651 -0.33673787 2.0461004
0000c0 4d 05 e4 be 24 5f 88 be 0f e7 ed 3f 84 98 c4 bd
       -0.44535294 -0.26635087 1.8586138 -0.095994025
0000d0 53 56 59 3f 47 1b 3b bd e8 64 68 3f 6d ef 80 3f
       0.84897345 -0.04568031 0.9077897 1.0073067
0000e0 d8 b3 31 3e ba 8d ba 3f f6 43 48 be 87 c6 f4 bc
       0.17353761 1.4574502 -0.19557175 -0.029879821
0000f0 ca e0 a4 be 84 6b f5 3d 9e 15 45 be 3a 7a 27 be
       -0.3220275 0.119833976 -0.19246528 -0.1635522
000100 9d 60 9d bd 2e 3f 8c bd 11 9e 48 be 42 e4 c7 bc
       -0.07684443 -0.06847988 -0.19591548 -0.024400834
000110 f2 dd f7 bc c2 f5 22 be d1 28 09 40 0d f7 8c 3f
       -0.030257199 -0.15914062 2.1431162 1.1012894
000120 5c fb af 3d 0a 2d fb 3f d5 33 f8 3f cf 84 4b 3e
       0.08592865 1.962312 1.9390818 0.19874881
000130 6e cc d0 3c 30 e4 4e 3e 99 68 97 bd b7 ca 1e be
       0.025488105 0.20204234 -0.07392997 -0.15507017
000140 cf 16 4c bd 86 6a de 3f 6d 97 97 3f 8c af 83 3f
       -0.04982644 1.7376258 1.1843086 1.0287948
000150 bf 3f a0 bf 67 eb b2 bd bd 83 5b be 37 73 a4 be
       -1.2519454 -0.08736306 -0.21436973 -0.32119152
000160 2a 0d 17 bd a9 cc b1 bd 1a be be be e9 dd f2 3f
       -0.03687779 -0.08681614 -0.3725441 1.8973972
000170 a2 65 2c be 6e 12 f6 3f c8 9a 2e be fa 5f 0d be
       -0.16835645 1.9224374 -0.17051232 -0.13806143
000180 76 3f 10 3e b3 69 e4 bd 12 29 2b bd db 1c b1 3f
       0.14086708 -0.11152973 -0.041787215 1.3836931
000190 5d 75 17 be 53 5b b8 3f dc 7e 64 bf 4b 94 9a be
       -0.14790864 1.440287 -0.8925607 -0.30191264
0001a0 03 21 04 40 45 c3 ae 3d 6c 9e 46 be de 5b 92 bf
       2.0645149 0.085333385 -0.1939637 -1.1434286
0001b0 3a 14 a2 3d 82 89 ec 3f 41 0d 04 bf c3 8e 00 bf
       0.07914014 1.8479464 -0.51582724 -0.5021784
0001c0 98 ee f3 3f 7e f0 aa 3e c6 df 86 bf ad 91 04 bf
       1.9057188 0.33386606 -1.053704 -0.51784784
0001d0 a7 0c a2 3c 5d 86 81 3b 17 8d 01 40 e7 a4 36 3e
       0.019781424 0.003952785 2.0242364 0.17836343
0001e0 43 aa 51 bd 25 4b 53 3f 9a 0c 04 40 d4 5d e1 3c
       -0.051187765 0.82536536 2.0632691 0.027510561
0001f0 51 1a 45 be 15 17 35 bf 2d 44 81 3d 12 9b 08 be
       -0.1924832 -0.70738345 0.063118316 -0.13340405
000200 34 3d e6 3f 88 43 b2 3f 58 90 33 be af dc 71 bf
       1.7987428 1.3926859 -0.17535532 -0.9447736
000210 a6 33 cb bd 95 d6 23 be a3 5d 9b be 68 7b e5 3f
       -0.099219605 -0.15999825 -0.30344877 1.7928286
000220 24 08 89 bd 49 ad 05 bd 62 11 c5 3d 2f b4 79 be
       -0.06691006 -0.03263596 0.09622456 -0.24385141
000230 0a 6d 83 bc 74 19 14 bf 84 02 4d 3f 94 65 97 be
       -0.016043205 -0.5785134 0.80081964 -0.29569685
000240 0a 4f cd 3f 1d 25 84 3e 8d 3c 3a 3f db c9 55 be
       1.6039746 0.25809565 0.72748643 -0.20877783
000250 2d a1 d3 3d c5 f0 e3 3d
       0.10333476 0.111299075

outputLayer.weight f4 [2, 150]
000000 a4 83 36 3d 14 99 5f 3c 34 73 8a 3c 6d 7a 79 bf
       0.044559136 0.0136473365 0.016900636 -0.9745243
000010 33 06 8c 3e 5e e1 04 3d 2b e3 97 be e1 74 00 3e
       0.2734848 0.03244149 -0.29665503 0.12544586
000020 ee 90 33 c0 49 25 41 40 ec a2 da bc 72 23 01 bf
       -2.8057208 3.0179007 -0.026689015 -0.5044471
000030 e4 f5 55 3f 72 80 67 3f ea 92 98 3e ba d9 bc be
       0.83578324 0.90430367 0.29799587 -0.36884862
000040 b8 8e 9f bc f9 4a 97 3e 12 72 a8 be 74 14 0e 40
       -0.019477233 0.29549387 -0.3289953 2.2199984
000050 b2 41 7b bf 44 08 18 bf 6e 34 98 3e 0f 1a 09 bf
       -0.9814712 -0.5938761 0.297275 -0.5355539
000060 ad d4 7b c0 93 0e f9 3d fa f2 d2 3e fa 2f 98 3e
       -3.9348557 0.12160983 0.41201 0.29724103
000070 da 16 ad 3f db dc 3f 3e 52 03 85 bf 77 29 5f 3f
       1.3522599 0.18736593 -1.0391638 0.87172645
000080 fe ce 6a 40 cc 50 9b bc fc f5 64 3e 0e 5c 18 3f
       3.6688838 -0.018959425 0.2235946 0.59515464
000090 d2 93 75 3e 63 6c 2d 3f d3 18 d1 bf 63 8f dc bd
       0.2398217 0.6774351 -1.6335701 -0.10769536
0000a0 51 9d 2a bf 33 5a 77 3f f6 9b 92 3e 2d e7 d2 3f
       -0.66646296 0.9662201 0.28634614 1.6476799
0000b0 24 c7 9e 3e ab 69 06 be 39 31 93 3f 75 6f 17 3f
       0.31011307 -0.13126247 1.1499397 0.59154445
0000c0 68 dd c7 be b9 d4 2c 3f a8 41 8b 3e 06 de 00 3c
       -0.39036107 0.6751209 0.2719853 0.0078654345
0000d0 50 e3 bf 3f 34 a1 e4 3c 92 db b0 3d be b2 1d 3f
       1.4991245 0.027908899 0.0863563 0.61600864
0000e0 49 ef 09 3f 70 72 02 40 da 9a 2c 3f e0 35 02 3e
       0.53880745 2.0382347 0.67423785 0.12715864
0000f0 b4 4a b6 3f 2f 2b 0f c0 56 93 d8 be ef 05 76 3f
       1.4241548 -2.2370107 -0.42299908 0.96102804
000100 de d5 e1 bf 08 8f 1a 3e 1e 6e 64 3f 58 84 06 c0
       -1.7643392 0.15093625 0.89230525 -2.1018276
000110 e6 12 b0 3e 93 c7 fd 3c 3f 11 06 3f c4 c2 ed 3e
       0.34389418 0.030978953 0.52370065 0.46437657
000120 be d3 38 bd 9f 85 e7 3e 5d 55 76 3e 0e 04 0c 3f
       -0.045123808 0.45219132 0.24056001 0.54693687
000130 40 2f c3 bd 7e 1a 21 be f8 78 af be a7 57 39 bf
       -0.095304966 -0.15732762 -0.3427198 -0.7239937
000140 6b 75 73 3f 5d bf e8 3d 17 86 06 3f e6 b5 27 3f
       0.9510104 0.11364625 0.52548355 0.6551193
000150 e8 42 ee be 6a 3b a8 bd 9a 1f 9e bf 97 1b 67 bf
       -0.4653542 -0.08214457 -1.2353394 -0.90276474
000160 7a e5 db bc 0d 3f 7d bf 4c f4 73 3f 2e f9 a2 3e
       -0.026842821 -0.9892433 0.9529464 0.31830734
000170 ed 69 2f bf ce 23 92 3e cc 76 6c 3b 62 b5 8d bf
       -0.68521005 0.28542942 0.003608155 -1.1070979
000180 aa 99 8c bd 2c c6 55 3f cc 46 f3 3d e4 6a c4 3e
       -0.068652466 0.8350551 0.11878738 0.383628
000190 fa 60 e4 be 51 54 8f bc 7b 19 ed be 7d 9b dc bf
       -0.44605237 -0.01749626 -0.46308503 -1.7234951
0001a0 19 8e 9a 3e 0b 98 28 c0 86 32 32 3f b4 33 28 bc
       0.30186537 -2.63428 0.6960834 -0.010266233
0001b0 cc 89 33 bf c5 34 d2 3e 18 97 91 be cb bf 71 be
       -0.70132136 0.41055885 -0.28435588 -0.2360832
0001c0 14 83 ba 3e 49 dd 57 3f 33 6d c7 be 50 84 bb 3c
       0.3642813 0.8432203 -0.389505 0.02289024
0001d0 34 a7 fd 3c ca 70 b7 3c 6f 80 a8 3e d3 19 4a bf
       0.030963518 0.02239265 0.32910487 -0.78945655
0001e0 fb 33 61 3f 5c f2 16 bf 65 5a bb 3e f1 fa 0e bf
       0.8796994 -0.5896356 0.36592403 -0.55851656
0001f0 8f 6e 33 3f ec dc 82 3f 12 b9 00 bb 0a af 08 bd
       0.70090574 1.022367 -0.001964156 -0.033370055
000200 80 c3 eb 3e 30 59 9e 3e f6 82 0d be aa 5b 04 bf
       0.46047592 0.3092742 -0.13819489 -0.5170237
000210 89 c6 5c be 66 98 8a be 76 eb 6e 3e 2e 62 8d 3e
       -0.2156011 -0.27069396 0.23332009 0.27613968
000220 0c f9 49 3d 12 e9 3f 3d 4b 2e 09 3f ff 7c fe 3f
       0.049309775 0.046853133 0.5358626 1.9881896
000230 9a 95 b9 bc 70 78 11 3d 13 56 1b 3f e7 ef bc be
       -0.022654343 0.03551525 0.60678214 -0.3690178
000240 e1 79 47 3e 53 39 b6 3e 7a f1 d1 bc bf 03 f1 bc
       0.19480087 0.3559061 -0.02562784 -0.029420732
000250 3d 21 85 3e 60 7e 0f bf 5a b6 1e 3f e4 9c 44 bd
       0.2600192 -0.5605221 0.61996996 -0.048001185
000260 7a bf 27 3c 0d 93 73 bf a3 1c cb be 32 cb 45 3d
       0.010238523 -0.95146257 -0.39670286 0.048289485
000270 51 21 0d bf 98 e1 12 bd be ab 3a 40 73 36 40 c0
       -0.5512896 -0.035859674 2.9167323 -3.0033233
000280 41 68 e9 3c 6d 56 2e 3f e8 5c 72 bf f2 41 88 bf
       0.028492095 0.68100625 -0.94673014 -1.0645125
000290 7f 00 1b 3e bc a3 f7 3e ab 0b b9 bc 60 79 83 3e
       0.15136908 0.48367107 -0.022588572 0.2567854
0002a0 55 5a 05 bf 5b 37 11 c0 e0 32 b0 3f d4 3f 34 3f
       -0.5209096 -2.2690036 1.3765526 0.70409894
0002b0 f5 2a c1 3e 0b 25 9c bc ef 8f 80 40 cb c5 ba 3e
       0.37728086 -0.019060632 4.01757 0.3647903
0002c0 c8 9e cc 3e 04 c2 94 be 66 fa b8 bf 13 f1 97 3e
       0.3996489 -0.29054272 -1.4451416 0.29676113
0002d0 d2 ac 8c 3f 9f 14 14 bf 2c 86 67 c0 e3 de 37 3c
       1.099024 -0.57843965 -3.6175642 0.011222574
0002e0 fd 8f 60 3e d5 08 1e be a2 54 d1 3e c6 0d c6 3e
       0.21929927 -0.15433057 0.40884882 0.38682383
0002f0 15 1a d6 3f 1a 5a 4d 3e 9a ab 30 3f 88 94 65 bf
       1.672671 0.20053902 0.69011843 -0.89679766
000300 e3 13 a0 3e 46 ea 70 bf 55 14 99 be 9a ac b6 3d
       0.31265172 -0.9410747 -0.29898325 0.0891964
000310 48 da 9a bf 48 42 c1 3e 48 2a 01 3f f9 cb 25 bd
       -1.2097864 0.3774588 0.5045514 -0.040477727
000320 29 4d 86 3e ab 14 1b 3c d0 64 cc 3f 48 8b 18 bd
       0.26230744 0.009465377 1.5968266 -0.037242204
000330 50 11 6e bd 0f c1 50 be be 38 56 bf e6 4d 02 40
       -0.05812198 -0.20386146 -0.8368033 2.0360045
000340 fa dc 15 bf ba cb 6d be e5 61 b5 bf b6 3b 0a 40
       -0.5854031 -0.23222247 -1.41705 2.1598945
000350 e8 e9 ff 3e b5 c7 84 bf c9 24 e3 3f 3b bb 90 bd
       0.49983144 -1.0373446 1.7745601 -0.070669614
000360 c7 d6 8a bf c0 e0 07 40 49 ee be be d2 22 b5 bc
       -1.0846795 2.1230927 -0.37291172 -0.02211133
000370 5b 54 09 3f a5 39 f2 3e 93 89 c4 3c f2 f9 64 3e
       0.5364434 0.47309604 0.023991382 0.22360972
000380 d9 bb 02 3f 25 b4 59 3f b0 26 e9 3a ca 4f 8b 3e
       0.5106788 0.85040504 0.0017788019 0.27209312
000390 1b 40 d3 3e b1 b1 46 3f 45 3b cf 3d 51 85 2b 3e
       0.41259846 0.77614886 0.10118727 0.16750075
0003a0 41 6c a2 bd 79 88 54 3f d2 61 08 3f c2 6f cd 3c
       -0.07930804 0.8302074 0.5327426 0.025077704
0003b0 05 3d 9e 3f 2d ec 86 3f d4 a5 29 bc 32 62 7c 3f
       1.2362372 1.0540825 -0.010354478 0.98587334
0003c0 1c 8f 75 bf 3f 1f a7 3e 57 7c 4d 3f ff 57 d2 3e
       -0.9592149 0.32641026 0.8026785 0.4108276
0003d0 a4 c0 8d bc 34 f4 51 3e de f7 2c 3e 5a 95 b7 be
       -0.017303772 0.20503312 0.16891429 -0.35856134
0003e0 cc 40 3c 3e 44 02 4e 3e 34 58 0b 3f 76 5f b0 3e
       0.18384093 0.20118052 0.5443146 0.3444783
0003f0 77 02 f2 be 32 b9 dc 3f 67 cc c5 3e 71 38 2a 40
       -0.47267506 1.7244017 0.3863251 2.659695

outputLayer.bias f4 [2]
000000 0b ba d5 3f 8b fa 01 40
       1.6697401 2.030917
