ftl/pretrain/weight/scratch_wdev_0/scratch_wdev_0_74.pth (torch, 187635 bytes, 8 tensors)

hiddenLayer1.weight f4 [150, 3]
0	0xbfe19e2a	-1.7626393
1	0xbe8693dd	-0.26284686
2	0xbd9cc3f1	-0.0765456
3	0xc0a2e57a	-5.0905123
4	0xba640619	-0.00086984184
5	0xbd527552	-0.051381417
6	0xbf190cfa	-0.59785426
7	0xbbe064c2	-0.006847949
8	0xbe7ecbb6	-0.24882397
9	0xc0b82e85	-5.7556787
10	0x3c5bae9f	0.013408332
11	0xbba5131b	-0.005037678
12	0xbcbbf2bc	-0.022942893
13	0x3b1416b0	0.002259653
14	0xbcba661b	-0.022753766
15	0xc07a8419	-3.9143126
16	0xbd3c4962	-0.04596842
17	0x3cb01ed3	0.021499073
18	0x3e41f77f	0.18942069
19	0x3c8dc714	0.017306842
20	0x3fa5aa90	1.2942677
21	0xbd51faac	-0.05126445
22	0xbc0b7694	-0.008512158
23	0x3fad1cee	1.3524454
24	0xbfa045a1	-1.2521249
25	0x3c6f1b76	0.01459395
26	0x3c84efcf	0.01622763
27	0xc0150dc8	-2.3289661
28	0x3c051f17	0.008125088
29	0x3c6cb5c0	0.014447629
30	0xc012a3e8	-2.291254
31	0x3c02ef1d	0.007991579
32	0xbf53e29a	-0.8276764
33	0xbe897e77	-0.26854298
34	0x3ad2a2fc	0.0016070302
35	0xbf4c0efe	-0.79710376
36	0xc0d18a83	-6.548158
37	0xbbebbaa4	-0.00719388
38	0xbe08a790	-0.1334517
39	0xbf1bcb18	-0.6085677
40	0x3c853425	0.016260216
41	0x3cea0195	0.028565207
42	0xbe52976e	-0.20565578
43	0xbbe3c9be	-0.00695154
44	0xbc0f16ec	-0.008733492
45	0xc066ba34	-3.605115
46	0x3b5c4e04	0.0033615837
47	0xbc2cb5ee	-0.010541422
48	0xc06ea8a3	-3.7290428
49	0xbce31563	-0.027720159
50	0x3c956dc5	0.018240819
51	0xc10eba95	-8.920552
52	0xbc64fbad	-0.01397602
53	0xbde4fb5b	-0.11180755
54	0xc0e57047	-7.1699557
55	0xbac27fc4	-0.0014839103
56	0xba79fea9	-0.00095365435
57	0xc04fe6c7	-3.2484605
58	0x3caa0f73	0.02075932
59	0xbd4f67bd	-0.050636042
60	0xbd91bb8e	-0.07115851
61	0xbd883c44	-0.0665212
62	0x3bc07930	0.0058738217
63	0x3e54502e	0.20733711
64	0x3a6862a0	0.0008864794
65	0x40882edb	4.2557197
66	0x3c0c7a5f	0.008574097
67	0xbdb6dd74	-0.089289576
68	0x3dcc0596	0.09962003
69	0xbf1f20d5	-0.6215947
70	0x3e1b7ade	0.15183589
71	0xbd416813	-0.047218394
72	0x3ceba747	0.028766287
73	0xb9eee9af	-0.00045569005
74	0x3e9963e6	0.2995903
75	0xbff140b5	-1.8847872
76	0x3c9dfa27	0.019284321
77	0xbf32dc20	-0.69867134
78	0xbe9afcf0	-0.302711
79	0xbba0ba30	-0.004905008
80	0x3b5ffa35	0.0034176235
81	0xc0176cfe	-2.3660274
82	0xbb89341a	-0.004187119
83	0xbed3060e	-0.41215557
84	0xbfe6d8e3	-1.8034939
85	0x3c5e150f	0.013554825
86	0xbf03c181	-0.5146714
87	0x3c48f501	0.012265445
88	0x3d50e83a	0.05100272
89	0x3ed26642	0.41093642
90	0xbd08ac1d	-0.033367265
91	0x3b81a885	0.0039568567
92	0x3f2e7384	0.6814501
93	0x3b0b28cf	0.002123404
94	0x3c3ad091	0.011402265
95	0x3c6a7c7b	0.014311905
96	0xc0014405	-2.0197766
97	0x3cac85a9	0.021059828
98	0xbed8e664	-0.42363274
99	0xc0431a04	-3.0484629
100	0xbaa9252a	-0.0012904753
101	0xbe537623	-0.20650534
102	0xc0298208	-2.6485615
103	0x3b449841	0.0029997977
104	0xbc8a3237	-0.016869647
105	0x3cfe1f7c	0.031020872
106	0x3cb3319d	0.021874243
107	0x3e7a6e42	0.24456123
108	0xc0c48649	-6.141392
109	0xbaa782bd	-0.0012780052
110	0xbf9ce712	-1.2258017
111	0xc05e06f1	-3.4691737
112	0x3c27608a	0.010215888
113	0xbefffbde	-0.49996847
114	0xbc87ab5b	-0.0165612
115	0xba37e93b	-0.000701565
116	0xbce39e89	-0.027785556
117	0xc077301e	-3.8623118
118	0xb9b5dc2d	-0.00034687054
119	0xbeef923f	-0.46791264
120	0xbf8acb18	-1.0843229
121	0xbc6ba0b5	-0.014381577
122	0x3ce15a8b	0.027508995
123	0xbdf03169	-0.11728174
124	0xbe0b1128	-0.13580763
125	0xbf4623be	-0.7739829
126	0xc03a744b	-2.913348
127	0x3ba5eec2	0.0050638625
128	0xbd0b1f03	-0.033965122
129	0xc01f6bd7	-2.490957
130	0x39a557a9	0.00031536564
131	0xbe033514	-0.12813216
132	0xbf53d80a	-0.82751524
133	0xbc92b18b	-0.017906925
134	0xbea0fdd9	-0.3144367
135	0xbd4d47ac	-0.05011718
136	0x3d18e0ac	0.03732364
137	0xbec639a1	-0.38715842
138	0x3ea86a77	0.32893726
139	0xb7a2169c	-1.9322433e-05
140	0x3f9ca823	1.2238811
141	0xbf89304b	-1.0717863
142	0xbb773290	-0.0037719347
143	0xbeed9183	-0.4640008
144	0xbdaca63a	-0.08430143
145	0x3b7fc65d	0.0039028146
146	0xbca3b2dc	-0.019982748
147	0xbe172f2a	-0.14764085
148	0xbadfa818	-0.0017063646
149	0xbcba7675	-0.022761563
150	0xc001a0a9	-2.025431
151	0x3b5f61f8	0.0034085494
152	0xbe89b8e4	-0.26898873
153	0xbcc2c1c3	-0.023774033
154	0xbd8dcc7f	-0.0692377
155	0xbe491683	-0.19637494
156	0xbee5e96b	-0.44904646
157	0x3d2b73ff	0.04185867
158	0xbec5a1c6	-0.38599986
159	0xc034a098	-2.8223019
160	0x3bc0a5ac	0.0058791246
161	0xbefc7af9	-0.4931257
162	0xbed59192	-0.41712624
163	0xbca84b07	-0.020543588
164	0x3ccf04c6	0.02527083
165	0xbcf39e38	-0.02973853
166	0xbdd6d767	-0.104903035
167	0xc00b19eb	-2.173457
168	0xbf019422	-0.5061666
169	0x3d4e919f	0.050431844
170	0x3dcbd2b2	0.09952296
171	0xc0cebeb7	-6.4607806
172	0xb9a086d1	-0.00030618024
173	0xbe46fb41	-0.19431783
174	0xc111d5cb	-9.114696
175	0xbd0718b4	-0.032982543
176	0x3d01315f	0.031541225
177	0x3dc3cc29	0.09560425
178	0x3b3be6a6	0.0028671413
179	0xc0b81435	-5.7524667
180	0xbdc5505c	-0.09634468
181	0xbc58ad99	-0.013224983
182	0xbc641a8a	-0.013922343
183	0xbe2d8da2	-0.1694856
184	0xbb3c4f79	-0.0028733893
185	0xbf8ed943	-1.1160053
186	0xbd47ef1b	-0.048812013
187	0x3aceffad	0.001579275
188	0xc01e8d81	-2.4773867
189	0xc088abce	-4.2709723
190	0x3a4a1467	0.00077087287
191	0xbfdfcb62	-1.7483943
192	0xc0c2466d	-6.071097
193	0x3bca8afa	0.006181118
194	0xbee98b63	-0.45614156
195	0xbd1a1580	-0.03761816
196	0xb9fdf758	-0.00048440206
197	0xbe8b2b17	-0.27181312
198	0xbcdae2f5	-0.02671955
199	0x38a1cafb	7.714886e-05
200	0xbcccaa59	-0.024983572
201	0xc04fb3ee	-3.245357
202	0x3cadae39	0.02120124
203	0x3dc5a2c3	0.09650185
204	0xc022dbcf	-2.544666
205	0xbbe175c9	-0.006880496
206	0xbec08cbf	-0.3760738
207	0xc021bd0e	-2.527164
208	0x3b773981	0.0037723484
209	0xbf22afaa	-0.6354929
210	0xbd6de4e6	-0.058079623
211	0x3b1e5b20	0.0024163201
212	0x3c1065c3	0.008813324
213	0xc0a43462	-5.1313944
214	0xbc9f8b74	-0.019475676
215	0xbf218ef7	-0.6310877
216	0x3c864531	0.016390415
217	0x3e4664ae	0.19374344
218	0xbc5fb750	-0.013654545
219	0xbe0983ea	-0.13429227
220	0x3b8057fb	0.003916738
221	0xbe3d5ac1	-0.18491651
222	0xc08292cc	-4.0804195
223	0x3c8fd0e2	0.017555658
224	0xbccbaa08	-0.02486135
225	0xc10cb93e	-8.795225
226	0x3c609ded	0.013709527
227	0xbc9b8bb9	-0.018987523
228	0xc04cb697	-3.1986444
229	0x3cfbb0f4	0.030724026
230	0xbf11d78f	-0.5696954
231	0xc0981e42	-4.7536936
232	0x3bce7abb	0.0063012517
233	0xbb907531	-0.0044085016
234	0xbd5fafba	-0.054610945
235	0x3e0e8c86	0.13920793
236	0xbf2eb0d2	-0.68238556
237	0xbd2abbc0	-0.04168296
238	0x3a4af77e	0.00077425677
239	0x3fcfdf2d	1.6239983
240	0xc09e3065	-4.9434075
241	0x3c65c2fc	0.014023539
242	0xbe2bf06a	-0.1679093
243	0xbf2448fc	-0.64173865
244	0xbd82680c	-0.063675016
245	0xbde1f833	-0.11033668
246	0xbef86f44	-0.4852239
247	0xbc519743	-0.012792411
248	0xbf1b00ac	-0.605479
249	0x3819290d	3.6516274e-05
250	0x3a876dac	0.0010332367
251	0xbb1a6a78	-0.0023561995
252	0xbc158cae	-0.009127779
253	0xbbfa6434	-0.0076413397
254	0xbd10f60a	-0.03539089
255	0xbfdca20a	-1.723695

hiddenLayer1.bias f4 [150]
0	0xc035e637	-2.8421762
1	0xbe4f1ab9	-0.20225038
2	0xbe964ad3	-0.2935396
3	0xbf18ce4e	-0.59689796
4	0xbdd2cccc	-0.10292968
5	0xbf26ce74	-0.6515877
6	0x4066f91f	3.6089551
7	0x4047e504	3.123353
8	0xbec90787	-0.39263555
9	0xbee70dcf	-0.45127723
10	0xbf54f901	-0.8319245
11	0xbf1ba42e	-0.60797393
12	0xbec602ee	-0.3867411
13	0xbf16f800	-0.5897217
14	0xbdbef1f4	-0.09323493
15	0xbe60220e	-0.21887991
16	0xbf16f73a	-0.5897099
17	0xbefabb0e	-0.48970836
18	0xbe7852b3	-0.24250297
19	0xbf03b4ca	-0.5144774
20	0xbf76845a	-0.962957
21	0xc0cbeaae	-6.3723974
22	0xbfe0aab7	-1.7552098
23	0xbfbb495c	-1.4631763
24	0xc065ddbe	-3.591659
25	0xbf31a4d7	-0.6939215
26	0xbf0535b7	-0.5203509
27	0xbeddb422	-0.43301493
28	0xbf21be3e	-0.6318091
29	0xc0847d97	-4.140331
30	0x40558b8b	3.336642
31	0xbe92fb1f	-0.28707215
32	0xbf3bdcab	-0.7338359
33	0xbec67eeb	-0.38768706
34	0xbe0a9911	-0.13534953
35	0xc06d362b	-3.7064312
36	0xbf8ce3d9	-1.1007034
37	0xbf103c21	-0.5634175
38	0xbd087945	-0.033318777
39	0xbf01c892	-0.5069667
40	0xbf2cf5c1	-0.6756249
41	0xbffa4c0e	-1.955446
42	0xbe84763b	-0.25871453
43	0xbe643e1e	-0.22289321
44	0xbefcba34	-0.49360812
45	0xbf1bbdac	-0.6083629
46	0xc08c67c6	-4.3876677
47	0xbed1f418	-0.4100654
48	0xbd9b4a5e	-0.07582544
49	0xbd29c868	-0.041450888
50	0xbea499f2	-0.321487
51	0xbf6ab37b	-0.91680115
52	0xbf2e8663	-0.6817381
53	0xbef96bd3	-0.48715076
54	0xbf3b7488	-0.7322469
55	0xc026b482	-2.6047673
56	0xbfc42ced	-1.532621
57	0xbeb0fff5	-0.3457028
58	0xbf5eb999	-0.8700195
59	0xc0c0459e	-6.008498
60	0xbe87ef2d	-0.26549664
61	0x3fd475f5	1.6598498
62	0x406421f2	3.5645719
63	0xbfc68e64	-1.5512204
64	0xbf201c75	-0.6254342
65	0xbe5b2146	-0.21399412
66	0xbca1cad9	-0.019750046
67	0xbfd663a2	-1.6749156
68	0xbed9a3be	-0.42507738
69	0xbf39a3c6	-0.72515523
70	0xbe14119b	-0.14459841
71	0xbf5ab67a	-0.8543469
72	0xc005a57c	-2.0882254
73	0x3fcca93c	1.5989146
74	0xbe97d1ad	-0.29652157
75	0xbee44624	-0.44584763
76	0xbf36483a	-0.7120396
77	0xbe50adbd	-0.20378776
78	0xbfcb228c	-1.5869918
79	0xc0c28b4a	-6.079503
80	0xbed19383	-0.40932855
81	0xbf69422a	-0.91116583
82	0xbf544a13	-0.8292553
83	0xbce94d62	-0.028479282
84	0xbddb7523	-0.107157014
85	0xbf191951	-0.59804255
86	0xbfae1094	-1.3598809
87	0xbf021a1c	-0.5082109
88	0xbe2b58fa	-0.1673316
89	0xbf45b28e	-0.7722558
90	0xbf96e3e6	-1.1788299
91	0xbea1f22e	-0.3163008
92	0xbf4caf9c	-0.7995546
93	0xbf455033	-0.770755
94	0xbf8fa120	-1.1221046
95	0xbf091cd3	-0.5355961
96	0xbe5d19a6	-0.21591815
97	0xbe26377a	-0.162321
98	0xbf25e3d0	-0.6480074
99	0xbf8d5f01	-1.1044618
100	0xbeae364b	-0.34025797
101	0xbf92b1be	-1.1460493
102	0xbe513b39	-0.20432748
103	0xbfb10ddc	-1.3832355
104	0xbf259574	-0.6468117
105	0xbec29175	-0.380016
106	0xbe965979	-0.29365137
107	0xbeb6e90d	-0.3572468
108	0xbe0d7d09	-0.13817228
109	0xbe567070	-0.20941329
110	0xbe85812c	-0.26075113
111	0xbf05bb12	-0.5223857
112	0xc082f057	-4.0918384
113	0xbefc45d3	-0.49272022
114	0xbf29b85a	-0.66296923
115	0xbc8f3361	-0.017480554
116	0xbfb14a83	-1.3850864
117	0xbf230c71	-0.6369086
118	0xbf3cd790	-0.7376642
119	0xbf02d904	-0.5111239
120	0xbdcbbc61	-0.0994804
121	0xbf6f2fdb	-0.93432397
122	0xc06e0d7e	-3.7195735
123	0xbe905c70	-0.28195524
124	0xbeadca19	-0.3394325
125	0xbcea5057	-0.028602762
126	0xbfcec3a2	-1.6153452
127	0x400b659b	2.1780765
128	0xbe9c5ee0	-0.30541134
129	0xbdb0f8ac	-0.086411804
130	0xbf974091	-1.1816579
131	0xbf7e13a0	-0.99248695
132	0xbf039310	-0.51396275
133	0xbecbe56f	-0.3982348
134	0xbf6bfc33	-0.921817
135	0xbf5877ef	-0.84558004
136	0xbea2a62e	-0.3176741
137	0xbf608f81	-0.8771897
138	0xbfe0cfb8	-1.7563391
139	0xbe243f8d	-0.16039868
140	0x40860d19	4.189099
141	0xc06ee1b6	-3.7325263
142	0xbf3986fa	-0.7247158
143	0xbfd035e0	-1.6266441
144	0xbdbbeff2	-0.09176625
145	0xbe79d248	-0.24396622
146	0xbf154aa5	-0.58317024
147	0xbf84571b	-1.0339082
148	0xbd1fd2c8	-0.039019376
149	0x404bf067	3.186548

hiddenLayer2.weight f4 [150, 150]
0	0xbef0f126	-0.47058982
1	0xbd83a497	-0.064278774
2	0x3d9c0e96	0.076199695
3	0xbe78cb93	-0.24296407
4	0xbf614a95	-0.8800443
5	0x3dd691ed	0.10477052
6	0xbe984b7f	-0.297451
7	0xbe861ce8	-0.2619393
8	0xbcda30af	-0.026634542
9	0x3f193ffd	0.59863263
10	0x3b8898d2	0.004168608
11	0xbb2c3487	-0.0026276426
12	0xbc37718e	-0.011196507
13	0x3eb3e3e1	0.35134795
14	0x3dbef7aa	0.09324582
15	0xbebe33a5	-0.37148777
16	0xbee15c82	-0.4401589
17	0xbedad5d1	-0.42741254
18	0xbf069bb6	-0.52581346
19	0xbeb3c2f2	-0.3510967
20	0xbf7f925e	-0.99832714
21	0xbede9095	-0.43469682
22	0xbfadfb3c	-1.3592296
23	0xbf9caf2d	-1.224096
24	0xbfb27d83	-1.3944553
25	0x3edd42bd	0.4321498
26	0xbda70b2e	-0.08156429
27	0x3cd6977b	0.026195278
28	0x3ebed2e8	0.37270284
29	0xbfa2752b	-1.2692007
30	0xbe8e60db	-0.2780827
31	0xbfb56b29	-1.4173328
32	0x3e6961aa	0.22791162
33	0x3ea42a55	0.32063547
34	0x3e1fcc3f	0.15605257
35	0xbf68ef38	-0.9099002
36	0xbebfc93c	-0.37458217
37	0x3d0b2e55	0.033979733
38	0x3d8b368d	0.06797514
39	0x3e4c9d97	0.19981991
40	0xbea1f64e	-0.31633228
41	0xbef9033c	-0.4863528
42	0xbe82913f	-0.2550144
43	0xbe8cf032	-0.27527004
44	0x3efd911f	0.4952478
45	0x3c30b45e	0.01078519
46	0xbf985d87	-1.1903542
47	0xbdaef58a	-0.085429266
48	0x3f10c1a0	0.5654545
49	0x3e04c9d9	0.12967624
50	0xbcdb1737	-0.026744468
51	0x3ec0a43c	0.376253
52	0xbe91c888	-0.28473306
53	0xbeb11e4d	-0.3459343
54	0xbdd58c6a	-0.104271725
55	0x3f4959dc	0.7865274
56	0xbf836fc0	-1.0268478
57	0xbdaac351	-0.08338035
58	0x3f286eca	0.6579405
59	0xbf357355	-0.7087911
60	0xbf8df980	-1.1091766
61	0xbb425d8a	-0.0029657804
62	0x3d79bd77	0.060971703
63	0x3fc9e3ef	1.5772685
64	0x3dc4d419	0.09610767
65	0x3dd5cf28	0.104399025
66	0xbe9b1937	-0.30292675
67	0x3f91bcc6	1.1385734
68	0xbeb9038e	-0.36135525
69	0xbefc605a	-0.4929226
70	0xbeb6024f	-0.35548636
71	0xbdabcffd	-0.0838928
72	0x3eccf035	0.40027013
73	0x3b301608	0.00268686
74	0xbeb0fd76	-0.34568375
75	0xbeee3725	-0.46526447
76	0xbf45cb5e	-0.7726344
77	0xbeca077a	-0.3945883
78	0x3ddb47e2	0.1070707
79	0xbe9cf63a	-0.30656606
80	0xbe1eb4af	-0.15498613
81	0xbf34b77d	-0.7059248
82	0xbed1d450	-0.40982294
83	0xbdabab7f	-0.0838232
84	0x3da5852b	0.080820404
85	0xbf117d3e	-0.5683173
86	0xbebd02ea	-0.36916286
87	0x3d9d8fee	0.07693468
88	0xbea285a6	-0.3174259
89	0x3e6db287	0.23212634
90	0xbf746dcf	-0.95480055
91	0x3f38808f	0.72071165
92	0xbfd260d4	-1.64358
93	0xbd44b5b5	-0.04802485
94	0xbe50c1e5	-0.20386465
95	0xbe177289	-0.14789785
96	0xbdf100f4	-0.1176776
97	0xbf0eafc5	-0.55736953
98	0xbd47cca1	-0.048779134
99	0xc07ade28	-3.9198093
100	0x3e8e7a8a	0.27827865
101	0xbe998f77	-0.29992267
102	0xbe74111f	-0.23834656
103	0xbf5746b6	-0.8409227
104	0xc07be2fd	-3.9357293
105	0xbf0ae76b	-0.54259366
106	0xbe35efec	-0.17767304
107	0x3eb4c029	0.35302857
108	0xbff1a642	-1.8878863
109	0xbeae63ac	-0.3406042
110	0xbe80e2c9	-0.25173023
111	0xbeee9b9d	-0.466031
112	0xbfa8cac0	-1.3186874
113	0xbebdf5cd	-0.37101594
114	0x3f388afa	0.7208706
115	0x3c2de3d8	0.010613404
116	0xbcfbba7d	-0.030728573
117	0xbe8791e8	-0.26478505
118	0xbf07b12d	-0.53004724
119	0xbeae5f62	-0.34057146
120	0xbc222d59	-0.009898507
121	0xc0470b31	-3.110058
122	0xbfb9482d	-1.4475151
123	0xbef01424	-0.46890366
124	0xbe2425cb	-0.16030042
125	0xbe74002e	-0.23828194
126	0xc0250457	-2.57839
127	0xbe875e05	-0.2643892
128	0xbe84f1b2	-0.2596565
129	0xbed9ef95	-0.425656
130	0x3e6d9fc3	0.23205476
131	0x3e94868d	0.29008904
132	0xbe8ed29f	-0.27895066
133	0xbeb5a5f7	-0.35478184
134	0xbf88ccd3	-1.0687507
135	0x3f91d185	1.1392065
136	0xbe1c3c00	-0.15257263
137	0xc04b8d53	-3.1805007
138	0x3f4f8a5a	0.8107048
139	0xbe630f55	-0.22173817
140	0xb9cf6fba	-0.0003956536
141	0xbd075c2f	-0.033046898
142	0xbeebea1c	-0.4607705
143	0x3e16359c	0.14668888
144	0xbeeb6595	-0.45975938
145	0xbe9d2df0	-0.3069911
146	0xbe9c6475	-0.30545393
147	0x3f1341da	0.57522357
148	0x3d58b2b6	0.052904807
149	0xbed137e0	-0.40862942
150	0xbf24389e	-0.6414889
151	0xbea5ef55	-0.32409158
152	0x3d0841dc	0.033265933
153	0x3f261015	0.6486829
154	0x3c68b31d	0.01420286
155	0x3cf5818c	0.029969
156	0xbeb06290	-0.34450197
157	0x3dfe1869	0.124069996
158	0xc00fa9a7	-2.2447298
159	0xbea78fa6	-0.32726783
160	0xbf3ef14d	-0.74586946
161	0xbe45016c	-0.19238824
162	0xbca192b4	-0.019723274
163	0xc0a82c5b	-5.2554145
164	0xbe01f881	-0.12692453
165	0x3f762e5a	0.96164477
166	0x3f2b452f	0.6690244
167	0x3f014c67	0.50507206
168	0x3d3bc410	0.045841277
169	0xbeaace68	-0.333606
170	0xbfb6d03b	-1.4282297
171	0xbff1cc63	-1.8890499
172	0xbf0f4c22	-0.55975544
173	0xbeaa67bd	-0.3328227
174	0xbfb50556	-1.4142253
175	0x3ea07dd5	0.31346002
176	0xbfb3c0ce	-1.4043214
177	0xbe959ad0	-0.29219675
178	0xbea315ed	-0.31852666
179	0xbf4a363b	-0.78989
180	0x3daa8dc2	0.083278194
181	0xbf90bfdd	-1.1308552
182	0x3f20dcb8	0.6283679
183	0x3f024dba	0.5089985
184	0xbf800d92	-1.0004141
185	0xbda10704	-0.07862666
186	0xbf4f3c7d	-0.8095167
187	0xbe760ff0	-0.24029517
188	0x3d42d74f	0.047568616
189	0xbefc128b	-0.49232897
190	0xbe80bd62	-0.25144488
191	0x3fb37bf7	1.4022206
192	0xbe442557	-0.19154869
193	0xbed9445c	-0.42434967
194	0x3dda7147	0.10666137
195	0xbe3b2778	-0.18276775
196	0xbfa809af	-1.3127955
197	0xbe00bf44	-0.12572962
198	0x3db5dfdf	0.08880591
199	0x3e10ecd9	0.1415285
200	0xbf0f7868	-0.560431
201	0xc095532e	-4.666404
202	0xbe9c10ee	-0.30481666
203	0xbf055ec5	-0.5209773
204	0xbe83ee9b	-0.2576798
205	0xbf00e612	-0.5035106
206	0xbeeac150	-0.4585061
207	0xbe9bc3c0	-0.30422783
208	0xbecc7765	-0.3993484
209	0xbfb17162	-1.3862727
210	0xbe0befa2	-0.13665631
211	0xbe33e4e5	-0.17567785
212	0x3d71a562	0.058995612
213	0xbf3556c4	-0.7083552
214	0x3f0cb5e0	0.5496502
215	0xbc2c128e	-0.010502471
216	0xbd35ae15	-0.04435547
217	0xbead820e	-0.33888286
218	0x3f8d4346	1.1036155
219	0x3e8f18f7	0.27948734
220	0xbdc79841	-0.09745837
221	0xbeec64c7	-0.46170637
222	0xbe65ef42	-0.22454551
223	0xbf2cf832	-0.67566216
224	0xbd3ea7b2	-0.046546645
225	0xbfcb451e	-1.5880468
226	0x3f2c106e	0.6721257
227	0xbf04b5fa	-0.51840174
228	0x3ea47abb	0.32124886
229	0xbe70ab3b	-0.23502819
230	0xbfaedf41	-1.3661882
231	0xbfaef212	-1.3667624
232	0xbf501485	-0.8128131
233	0xbd2f2d20	-0.042767644
234	0xbc84afc7	-0.016197098
235	0xbeb24f7c	-0.34826267
236	0xbf3fb1bc	-0.74880576
237	0xc0196a72	-2.397122
238	0xbd313f20	-0.04327309
239	0xbf3bb2ad	-0.7331951
240	0xbefa2662	-0.4885741
241	0x3e1be4f4	0.15224057
242	0xbd1c5201	-0.038164143
243	0x3ff571a0	1.9175301
244	0xbf119c7d	-0.5687941
245	0xbe73f56c	-0.2382409
246	0xc05a890f	-3.4146154
247	0xbddff8cf	-0.10936128
248	0xbe4f5e6c	-0.20250863
249	0xbeaa3128	-0.33240628
250	0xbeaf5fa4	-0.34252656
251	0x3ea2dd7f	0.31809613
252	0xbe4d18d0	-0.20028996
253	0xbe83a4c3	-0.2571164
254	0xbe59e756	-0.21279654
255	0x3e6280cc	0.22119445

hiddenLayer2.bias f4 [150]
0	0x3d5f8c94	0.054577425
1	0x3f910046	1.1328208
2	0xb9a660ae	-0.0003173402
3	0x406ab20b	3.6671169
4	0x3e117a9b	0.14206927
5	0xbe6cd663	-0.23128657
6	0xbe048350	-0.12940717
7	0xbd0cf6de	-0.03441512
8	0x4054a2d9	3.3224394
9	0xbd8e6d6a	-0.06954463
10	0x3dfe706e	0.12423788
11	0x3e3ad9a3	0.18247084
12	0x3d83927d	0.06424425
13	0x3e3925ae	0.1808078
14	0xbd22a23b	-0.039705496
15	0xbcd890fe	-0.026436325
16	0x3f68ccb6	0.90937364
17	0x3e1eba5b	0.15500776
18	0x40848e4f	4.1423717
19	0x3e910ff6	0.2833249
20	0xbe201998	-0.15634763
21	0xbc0eba80	-0.008711457
22	0xbca34fc2	-0.019935492
23	0xbd801716	-0.06254403
24	0xbd889a46	-0.0667005
25	0xbd306095	-0.043060858
26	0x3e1065a9	0.1410128
27	0x408439c6	4.1320524
28	0x3ca84512	0.020540748
29	0xbbabe970	-0.005246334
30	0x3e022245	0.12708385
31	0xbce72feb	-0.028221091
32	0xbdb0eff9	-0.08639521
33	0xbd3a1a8e	-0.04543548
34	0x3ed3d091	0.4137006
35	0x3e041c1f	0.12901352
36	0x3db52067	0.08844071
37	0x3e8b054e	0.27152485
38	0xbd398c62	-0.045299895
39	0xbc45b0c2	-0.012066068
40	0x3d2d029d	0.04223882
41	0x3da4e99c	0.0805237
42	0x3d8b3636	0.06797449
43	0xbd224c8d	-0.039623786
44	0xbd06780c	-0.03282933
45	0xbe195e78	-0.14977443
46	0xbec823f0	-0.39089918
47	0xbc54bb59	-0.01298412
48	0x3ec2e991	0.38068822
49	0x3dd26686	0.10273461
50	0xbe257a61	-0.16159965
51	0x3c85622b	0.016282162
52	0x3eaffcfb	0.34372696
53	0xbcaba931	-0.0209547
54	0xbf0b8d85	-0.54512817
55	0x3c982d9b	0.018576434
56	0xbda4c839	-0.08046002
57	0xbe275073	-0.16339283
58	0x3f7e4aa4	0.9933264
59	0x3e089b2c	0.13340443
60	0xbddf05e3	-0.10889795
61	0xbe0d9d4a	-0.13829532
62	0xbce7c5c0	-0.028292537
63	0xbe4565e4	-0.1927715
64	0x3cd6439d	0.026155287
65	0x3f7d96cb	0.99058217
66	0xbf19b5ea	-0.60043204
67	0x3e8487b8	0.25884795
68	0xbcc2da61	-0.023785772
69	0x3e6a6f77	0.22894083
70	0x3d817abc	0.06322238
71	0x3cd3369a	0.025782872
72	0x40a55c4c	5.1675167
73	0x40a8ce6c	5.275198
74	0xbeaad9c9	-0.33369282
75	0xbde6c3e3	-0.11267831
76	0x3e822e88	0.25426126
77	0xbd66618b	-0.056245368
78	0xbc5e65ed	-0.013574106
79	0x3e0a684e	0.13516352
80	0xbfdc4cc3	-1.7210926
81	0x3cd0bc1e	0.025480326
82	0xbbe89826	-0.0070982156
83	0xbda594ab	-0.08084997
84	0x3ea16249	0.31520298
85	0x3d37b210	0.044847548
86	0xbee96b7d	-0.4558982
87	0xbb31dbfe	-0.0027139182
88	0x3fddac67	1.7318238
89	0xbd49945e	-0.04921376
90	0x3e9154e7	0.28385088
91	0x3fa10483	1.2579502
92	0xbd9f39eb	-0.07774719
93	0x3e7378cc	0.23776549
94	0x3c295afb	0.010336633
95	0xbe1b9646	-0.15194044
96	0xbc35389c	-0.01106086
97	0xbd998dbe	-0.07497738
98	0x3dc7c4aa	0.097543076
99	0x40a96089	5.293034
100	0xbe9af119	-0.30262068
101	0xbd36c1ea	-0.044618525
102	0xbd3356c1	-0.043783907
103	0x3e17bc46	0.14817914
104	0x3d4c0335	0.049807746
105	0x40253f3b	2.5819843
106	0x3ed253ae	0.41079468
107	0xbe4a5cc3	-0.19761948
108	0x407b0ffc	3.9228506
109	0xbea04bed	-0.31307927
110	0x3e8e2fac	0.27770746
111	0x3fb54b89	1.4163677
112	0xbeacaffb	-0.33728012
113	0x3fa8a6df	1.3175925
114	0x405f7f19	3.4921324
115	0x3ce516b7	0.027964933
116	0xbe5c0e94	-0.21489936
117	0x3e3213b6	0.17390332
118	0xbeca70f3	-0.39539298
119	0xbb575285	-0.0032855582
120	0xbd9077d2	-0.07054104
121	0xbee4ab0c	-0.44661748
122	0x3f3e555e	0.7434901
123	0xbd61e6b3	-0.055151653
124	0xbeb099df	-0.34492394
125	0x3f975d78	1.1825399
126	0xbc32d926	-0.01091603
127	0x3cc724f4	0.024309613
128	0x3ecd3988	0.40082955
129	0xbda3563d	-0.07975433
130	0x3ecebab1	0.4037681
131	0x3d1f9e66	0.03896942
132	0x40a9129b	5.283521
133	0x3e143900	0.14474869
134	0xbe5d7501	-0.21626665
135	0x3eb631ec	0.35584962
136	0xbd050705	-0.032477397
137	0xbc5e1742	-0.01355535
138	0x3d46ff99	0.0485836
139	0xbd13da53	-0.036096882
140	0x408fbd59	4.4918637
141	0x3c4b056b	0.012391428
142	0xbdaa1418	-0.08304614
143	0x3c5db046	0.013530796
144	0xbcf8c7f1	-0.030368777
145	0xbeffe767	-0.49981233
146	0x3e1a22df	0.15052365
147	0xbdcd6e40	-0.10030794
148	0xbcbcde9d	-0.023055369
149	0xbe62e629	-0.22158112

hiddenLayer3.weight f4 [150, 150]
0	0xbe362c3d	-0.17790313
1	0xbe5d2b22	-0.21598485
2	0xbef2009c	-0.4726609
3	0x3e0c5570	0.13704467
4	0x3ed09850	0.40741205
5	0xbde4fdd4	-0.111812264
6	0x3dc2cdf8	0.09511942
7	0xbc624c9b	-0.0138122095
8	0x3eee3609	0.465256
9	0x3e4521ce	0.19251177
10	0x3e1d4206	0.15357217
11	0x3e369fc8	0.17834389
12	0xbf0daff6	-0.5534662
13	0xbe53b587	-0.20674716
14	0x3c9f539d	0.01944905
15	0x3e9fd4c5	0.31217018
16	0x3e25efdb	0.16204779
17	0x3ed0b814	0.4076544
18	0x3d11f134	0.03563042
19	0x3d885e51	0.066586144
20	0xbed229b6	-0.41047448
21	0xbdadd4ec	-0.08487877
22	0xbe435758	-0.19076288
23	0x3e71363d	0.23555847
24	0x3d056178	0.032563657
25	0xbdd736d0	-0.105085015
26	0xbe306524	-0.17226082
27	0x3e758bfc	0.23979181
28	0xbcf8e816	-0.030384105
29	0xbe94add1	-0.2903886
30	0x3d6ea264	0.058260337
31	0x3d363f46	0.044493936
32	0xbee18578	-0.4404714
33	0x3d36c848	0.044624597
34	0xbd7fecfe	-0.062481873
35	0x3ec7636f	0.3894305
36	0xbf9a4d6f	-1.2054881
37	0xbdd6c073	-0.104859255
38	0xbd83e96d	-0.06441007
39	0x3eb7ac45	0.3587362
40	0xbdcb28d9	-0.099199004
41	0xbed6c988	-0.4195063
42	0xbd5184f3	-0.05115218
43	0x3d25b915	0.04045971
44	0xbdb0889f	-0.086198084
45	0x3eb0f158	0.3455913
46	0xbd073c70	-0.033016622
47	0x3e594837	0.21218954
48	0x3e00db66	0.12583694
49	0x3bfd69cd	0.0077335597
50	0xbe8bbac1	-0.2729092
51	0x3e11c630	0.14235759
52	0xbe3587f9	-0.1772765
53	0x3d0aa182	0.033845432
54	0xbddb2342	-0.10700084
55	0xbd8d7a4e	-0.069080934
56	0xbf09ae3e	-0.537815
57	0xbd475f27	-0.04867473
58	0xbc7842e6	-0.015152669
59	0x3e7190a9	0.2359034
60	0xbe573800	-0.21017456
61	0x3d8ace5b	0.067776404
62	0xbc398357	-0.011322818
63	0x3ea09d9b	0.31370243
64	0xbf252a4c	-0.64517665
65	0xbe47cb84	-0.19511229
66	0x3ef51116	0.47864598
67	0xbe471b31	-0.19443966
68	0x3db5c575	0.088755526
69	0x3e8ad2f4	0.2711407
70	0x3eb9659c	0.36210334
71	0xbe461190	-0.19342637
72	0x3f2bb001	0.67065436
73	0x3eba0b89	0.36336926
74	0x3e7ac1cc	0.2448799
75	0xbd76d6cb	-0.060263436
76	0xbe2df5f3	-0.16988353
77	0xbe7aee6c	-0.24505013
78	0x3e0c61fd	0.13709255
79	0x3e596557	0.21230064
80	0xbd123b37	-0.035701003
81	0xbeaeefbd	-0.3416728
82	0x3d26d0a2	0.04072631
83	0xbdb8e4cd	-0.09028015
84	0xbe986ae5	-0.29769054
85	0x3d059336	0.032611094
86	0xbdc9f628	-0.09861404
87	0x3f021cd6	0.5082525
88	0x3da80685	0.082043685
89	0x3d8e8f6f	0.069609515
90	0x3d2e522e	0.04255884
91	0xbd2ecc70	-0.042675436
92	0x3d863421	0.065529115
93	0xbda2a655	-0.079418816
94	0xc0152441	-2.3303378
95	0x3f2a7023	0.6657736
96	0x3ed03748	0.40667176
97	0x3e0bc210	0.13648248
98	0x3e9bc21b	0.30421528
99	0x3ec55bc4	0.38546574
100	0x3db2657d	0.087107636
101	0xbeac20a8	-0.33618665
102	0x3d83c138	0.06433338
103	0x3fa97a5c	1.3240466
104	0xbd739c38	-0.059475154
105	0xbd336f51	-0.04380733
106	0xbeb61d66	-0.35569304
107	0xbe6ea4cb	-0.23305051
108	0xbe117af7	-0.14207064
109	0xbd986de1	-0.07442833
110	0xbd4781ca	-0.04870776
111	0xbc7545b1	-0.014970229
112	0xbdd01b47	-0.10161453
113	0x3ec40747	0.38286802
114	0xbe1c9f07	-0.15295039
115	0x3d252f0b	0.040328067
116	0xbee1c1ae	-0.44093078
117	0xbd93495e	-0.07191728
118	0x3e2f03b8	0.17091262
119	0x3e0b5329	0.13605942
120	0x3bd98ccd	0.006639099
121	0x3e9aa6af	0.30205294
122	0x3e36908a	0.17828575
123	0x3d40d1c3	0.047075044
124	0xbd0e4e07	-0.03474238
125	0x3d8a6819	0.06758136
126	0x3db8c64e	0.090221986
127	0x3edb1eb4	0.42796862
128	0xbe4aecf3	-0.19816951
129	0xbe1a5b5b	-0.15073912
130	0xbe3bb09f	-0.18329094
131	0x3e3336a8	0.17501318
132	0x3eb6bf1d	0.35692683
133	0xbe12d60f	-0.1433947
134	0xbf8ea37c	-1.1143641
135	0xbf09c734	-0.53819585
136	0x3db6e55b	0.08930465
137	0xbe2d258a	-0.16908851
138	0x3d0945a2	0.033513673
139	0x3dd0d8b2	0.10197581
140	0xbc9bad8c	-0.019003652
141	0xbebd6b38	-0.36995864
142	0xbd84f09c	-0.06491205
143	0xbec4cc10	-0.38436937
144	0xbdc3efe5	-0.095672406
145	0xbe081c16	-0.13291964
146	0xbc0f146f	-0.008732899
147	0x3dd08fdc	0.10183689
148	0x3e860687	0.26176855
149	0xbc5e8c39	-0.013583236
150	0x3e70d45e	0.23518512
151	0xbdd1bb3a	-0.10240789
152	0xbde1dec8	-0.1102882
153	0xbe26a06b	-0.16272132
154	0xbdd98307	-0.106206946
155	0xbd0320fa	-0.03201387
156	0xbf29982f	-0.6624784
157	0x3f14d563	0.581381
158	0xbe54e30b	-0.20789735
159	0x3e38645f	0.18007039
160	0x3da984aa	0.08277257
161	0x3e411dd5	0.18859036
162	0xbebe846f	-0.37210414
163	0xbe679ccf	-0.22618411
164	0xbca953fd	-0.020669932
165	0x3ea816f5	0.32830015
166	0xbd8ae718	-0.06782359
167	0xbea70877	-0.32623646
168	0xbd0137e9	-0.03154746
169	0xbd5d798a	-0.054070987
170	0xbe7a8c65	-0.24467619
171	0xbc7a0480	-0.015259862
172	0xbeef7f3c	-0.4677676
173	0xbec64f4d	-0.38732377
174	0x3deaccab	0.114648186
175	0x3e8a80f4	0.27051508
176	0xbac5070f	-0.0015032011
177	0x3d8c4f06	0.0685101
178	0xbd68d716	-0.056845747
179	0xbed5e884	-0.41778958
180	0xbe9091ce	-0.2823624
181	0x3dc1de77	0.0946626
182	0xbee7f109	-0.45301083
183	0x3d35d45b	0.04439197
184	0x3e88b2e8	0.26698995
185	0xbf12a66f	-0.5728521
186	0x3f805e71	1.0028821
187	0xbe09318d	-0.13397808
188	0xbec5461f	-0.3853006
189	0x3e6422b4	0.22278863
190	0x3df88bf3	0.12136068
191	0xbe11c80c	-0.14236468
192	0x3d01747c	0.03160523
193	0x3d4c605f	0.049896594
194	0xbe227576	-0.1586512
195	0xbd012489	-0.031528983
196	0x3d8944b6	0.06702559
197	0x3e206d97	0.15666805
198	0x3d4852c4	0.048907056
199	0x3d02cb5b	0.031932216
200	0xbdc885a2	-0.097911134
201	0xbd0ab1f9	-0.033861134
202	0x3e2ef00e	0.17083761
203	0x3de14529	0.109995194
204	0x3d5a2ecd	0.05326729
205	0xbe76a9ce	-0.24088213
206	0x3dbd4bbc	0.09242961
207	0x3e803467	0.2503998
208	0x3de00e2b	0.10940202
209	0xbd6f6c42	-0.058452852
210	0xbda4ea91	-0.080525525
211	0x3d9b30e3	0.07577684
212	0xbe8f55bf	-0.27995107
213	0xbd68627e	-0.056734554
214	0xbe3730df	-0.17889737
215	0xbed357c5	-0.412779
216	0xbef7029f	-0.48244187
217	0xbef2f685	-0.47453704
218	0xbd08fa80	-0.03344202
219	0x3d944bd6	0.07241027
220	0x3ad61f0b	0.0016336156
221	0xbb59aca4	-0.0033214474
222	0xbde8104f	-0.113312356
223	0xbdf099d7	-0.117480926
224	0xbe7ba16b	-0.24573295
225	0x3f45ff78	0.7734294
226	0xbdb43162	-0.087984815
227	0xbdc726cf	-0.09724199
228	0x3e3ad303	0.18244557
229	0xbdfa06ee	-0.12208353
230	0xbe414c73	-0.1887682
231	0xbbef0893	-0.0072947233
232	0xbe9c8c02	-0.30575567
233	0xbd8197a4	-0.06327751
234	0x3cb6f38a	0.022332925
235	0xbe4fed3f	-0.20305346
236	0xbd125f43	-0.03573538
237	0x3d5d3f5f	0.054015514
238	0xbd9071ff	-0.07052993
239	0x3d83df32	0.064390555
240	0xbddab5fc	-0.10679242
241	0xbda970fb	-0.082735024
242	0xbce43826	-0.027858805
243	0x3d4f73d7	0.050647583
244	0xbce00794	-0.027347364
245	0x3eb2e3ba	0.34939367
246	0x3c5474fe	0.012967346
247	0x3e90c3e8	0.28274465
248	0x3eaf3eb5	0.3422753
249	0xbc6b76bf	-0.014371573
250	0x3eefaa3f	0.46809575
251	0xbece873d	-0.40337554
252	0x3ebf8d56	0.37412518
253	0x3e30a5e0	0.17250776
254	0x3c3dd728	0.011586942
255	0xbde6e361	-0.11273838

hiddenLayer3.bias f4 [150]
0	0x40afaa9f	5.489578
1	0x3d91ec6b	0.07125171
2	0xbe66f33c	-0.22553724
3	0xc06f134e	-3.7355533
4	0x3f131b0f	0.57463163
5	0x3fc6c4a3	1.5528759
6	0xbef8c94b	-0.48591074
7	0x3cc17e65	0.02361984
8	0xbd82b412	-0.06382002
9	0xbf28e07c	-0.65967536
10	0x3da4c3f1	0.08045185
11	0xbe492be7	-0.19645654
12	0xbe265295	-0.1624244
13	0xbe5e1187	-0.21686374
14	0x3ff4532d	1.9087883
15	0xbed9fae0	-0.42574215
16	0xbe75c776	-0.2400187
17	0x408685ed	4.2038484
18	0xbf725e3d	-0.94675046
19	0xbe831f09	-0.25609615
20	0xbde58d31	-0.11208571
21	0x3d8a1d67	0.06743889
22	0x40c58352	6.1722803
23	0xbede8a0e	-0.43464702
24	0xbeb9f90c	-0.3632282
25	0x3fbb1166	1.4614685
26	0x4010fa81	2.2652895
27	0xbe2a9d88	-0.16661656
28	0x3d6be917	0.05759534
29	0x400e3a6b	2.2223155
30	0x3e1bc84e	0.15213129
31	0xbe6167da	-0.22012272
32	0xbd43d21c	-0.047807798
33	0x3d36a0ba	0.044586875
34	0x402d871f	2.7113721
35	0x3f965492	1.1744559
36	0x40bc037d	5.875426
37	0x40bb77b6	5.858363
38	0xbaf52be7	-0.00187051
39	0xbe8417d6	-0.25799435
40	0xbe5f126a	-0.21784368
41	0xbe6390bc	-0.2222318
42	0x40a8236b	5.2543235
43	0xbf033e0f	-0.5126657
44	0x3e219b4a	0.15781894
45	0xbe10a04e	-0.14123651
46	0xbeac68e8	-0.33673787
47	0x40cad559	6.3385434
48	0xbefe9e6e	-0.49730247
49	0xbe885f24	-0.26635087
50	0x407b75e5	3.9290707
51	0xbdc49884	-0.095994025
52	0x3f798650	0.9747057
53	0xbd3b1b47	-0.04568031
54	0x3f6864e8	0.9077897
55	0x3f86f609	1.0543834
56	0x3e31b3d8	0.17353761
57	0x3feb68bd	1.8391339
58	0xbe4843f6	-0.19557175
59	0xbcf4c687	-0.029879821
60	0xbea4e0ca	-0.3220275
61	0x3df56b84	0.119833976
62	0xbe45159e	-0.19246528
63	0xbe277a3a	-0.1635522
64	0xbd9d609d	-0.07684443
65	0xbe4a6b80	-0.1976757
66	0xbe489e11	-0.19591548
67	0xbcc7e442	-0.024400834
68	0xbdbf832f	-0.09351193
69	0xbe22f5c2	-0.15914062
70	0x40cf206b	6.4727073
71	0x40353f43	2.8319862
72	0x3d6053cb	0.05476741
73	0x40bc7705	5.8895288
74	0x40c193bd	6.0492845
75	0x3e4b84cf	0.19874881
76	0x3b845598	0.004038524
77	0x3e2e67bb	0.17031758
78	0xbd976899	-0.07392997
79	0xbe1ecab7	-0.15507017
80	0xbd4c16cf	-0.04982644
81	0x3fd550e7	1.6665314
82	0x3fba9a19	1.4578277
83	0x3f7f414b	0.99709004
84	0xbfa4cc9d	-1.2874943
85	0xbdb2eb67	-0.08736306
86	0xbe63ccfa	-0.22246161
87	0xbea47337	-0.32119152
88	0xbd170d2a	-0.03687779
89	0xbdd41c34	-0.10356942
90	0xbebebe1a	-0.3725441
91	0x40b9cf6d	5.8065705
92	0xbe2c65a2	-0.16835645
93	0x40453cfb	3.081847
94	0xbe2e9ac8	-0.17051232
95	0xbe0d5ffa	-0.13806143
96	0x3e103f76	0.14086708
97	0xbde469b3	-0.11152973
98	0xbe158918	-0.14603078
99	0x401d59da	2.458609
100	0xbe17755d	-0.14790864
101	0x3fb59851	1.4187108
102	0xc046058a	-3.094088
103	0xbe9a944b	-0.30191264
104	0x40c23eeb	6.0701804
105	0x3d9b4aad	0.07582603
106	0xbe71d013	-0.2361453
107	0xbf925bde	-1.1434286
108	0x3da2143a	0.07914014
109	0x40be1e2a	5.941182
110	0xbf20757c	-0.62679267
111	0xbf008ec3	-0.5021784
112	0x40b708ed	5.7198396
113	0x3eaaf07e	0.33386606
114	0xbfef44a7	-1.8692826
115	0xbf0491ad	-0.51784784
116	0x3ca20ca7	0.019781424
117	0xbb9af407	-0.0047287974
118	0x40bf288c	5.9736996
119	0x3cc17b3e	0.023618337
120	0xbd51aa43	-0.051187765
121	0x3f67b00b	0.90502995
122	0x40c0af1a	6.0213747
123	0x3ce15dd4	0.027510561
124	0xbe451a51	-0.1924832
125	0xbf351715	-0.70738345
126	0x3d81442d	0.063118316
127	0xbe089b12	-0.13340405
128	0x40b3f24e	5.623328
129	0x3ff94168	1.9473085
130	0xbe339058	-0.17535532
131	0xbfc4795f	-1.534954
132	0xbdcb33a6	-0.099219605
133	0xbe43eeb1	-0.19134022
134	0xbe9b5da3	-0.30344877
135	0x40bbb902	5.866334
136	0xbd890824	-0.06691006
137	0xbd05ad49	-0.03263596
138	0x3dc51162	0.09622456
139	0xbf1ace8d	-0.6047142
140	0xbc836d0a	-0.016043205
141	0xbf141974	-0.5785134
142	0x3f4ab4cf	0.7918214
143	0xbe976594	-0.29569685
144	0x40b7f447	5.748569
145	0x3e84251d	0.25809565
146	0x3f17422c	0.59085345
147	0xbe55c9db	-0.20877783
148	0xbadc40fd	-0.0016804036
149	0x3de3f0c5	0.111299075

outputLayer.weight f4 [2, 150]
0	0x3edb426a	0.42824107
1	0x3c5f9914	0.0136473365
2	0x3c8a7334	0.016900636
3	0xbf8719cc	-1.0554748
4	0x3e8c0633	0.2734848
5	0xbc7513ac	-0.014958303
6	0xbec01b96	-0.37521046
7	0x3dd6235a	0.104559615
8	0xc03390ee	-2.8057208
9	0x40412549	3.0179007
10	0xbcdaa2ec	-0.026689015
11	0xbf012372	-0.5044471
12	0x3f55f5e4	0.83578324
13	0x3f678072	0.90430367
14	0xbb9ef60e	-0.0048511093
15	0xbebcd9ba	-0.36884862
16	0x3cef5ac5	0.029218087
17	0x3e2abcd6	0.16673598
18	0xbe81c28d	-0.25343743
19	0x400e1474	2.2199984
20	0xbf7b41b2	-0.9814712
21	0xbf180844	-0.5938761
22	0x3f242d31	0.64131457
23	0xbf091a0f	-0.5355539
24	0xc07bd4ad	-3.9348557
25	0xbe04c2b5	-0.129649
26	0xbc9c97e5	-0.019115398
27	0x3e982ffa	0.29724103
28	0x3fa93c30	1.3221493
29	0x3d221c75	0.03957792
30	0xbf850352	-1.0391638
31	0x3f5f2977	0.87172645
32	0x406acefe	3.6688838
33	0xbc9b50cc	-0.018959425
34	0xbd817b53	-0.0632235
35	0xbd50679b	-0.050880056
36	0x3f094e77	0.5363535
37	0x3f8b3cd9	1.0877944
38	0xbfcd71b8	-1.6050329
39	0xbda90c9f	-0.082543604
40	0xbf2a9d51	-0.66646296
41	0x3f775a33	0.9662201
42	0xbe632481	-0.22181894
43	0x3fd2e72d	1.6476799
44	0x3e9ec724	0.31011307
45	0xbe0669ab	-0.13126247
46	0x3f933139	1.1499397
47	0x3f8520ba	1.0400612
48	0xbe73800a	-0.23779312
49	0x3f2cd4b9	0.6751209
50	0x3ca763b5	0.020433286
51	0x3c00de06	0.0078654345
52	0x402eae77	2.7293985
53	0x3ce4a134	0.027908899
54	0x3db0db92	0.0863563
55	0x3ccf73aa	0.025323708
56	0x3f09ef49	0.53880745
57	0x3ccbf823	0.024898594
58	0x3f2c9ada	0.67423785
59	0x3e0235e0	0.12715864
60	0x3fb64ab4	1.4241548
61	0xc00f2b2f	-2.2370107
62	0xbed89356	-0.42299908
63	0x3f7605ef	0.96102804
64	0xbfe1d5de	-1.7643392
65	0x3d1e8e43	0.03870989
66	0x3f646e1e	0.89230525
67	0xc0068458	-2.1018276
68	0x3ea01094	0.31262648
69	0x3cfdc793	0.030978953
70	0x3f804f64	1.0024228
71	0x3c68ab3b	0.014200981
72	0xbcf7054a	-0.03015389
73	0x3f1804e5	0.5938247
74	0x3f3328f4	0.69984365
75	0x3f0c040e	0.54693687
76	0xbe043d08	-0.12913907
77	0xbe00d94a	-0.12582889
78	0xbeaf78f8	-0.3427198
79	0xbf3957a7	-0.7239937
80	0x3f73756b	0.9510104
81	0x3ce6059c	0.028078847
82	0xbba48bd3	-0.005021551
83	0x3f2fd498	0.6868377
84	0xbedc6864	-0.43048394
85	0xbda83b6a	-0.08214457
86	0xbf8e2033	-1.1103576
87	0xbf671b97	-0.90276474
88	0xbcdbe57a	-0.026842821
89	0xbf77be9e	-0.96775234
90	0x3f73f44c	0.9529464
91	0x3f0e56c7	0.5560116
92	0xbf2f69ed	-0.68521005
93	0xbd391467	-0.045185473
94	0x3b6c76cc	0.003608155
95	0xbf8db562	-1.1070979
96	0xbd8c99aa	-0.068652466
97	0x3f55c62c	0.8350551
98	0xbd675554	-0.05647786
99	0x3c065217	0.008198283
100	0xbee460fa	-0.44605237
101	0xbd383196	-0.044969164
102	0xbe3a5769	-0.18197407
103	0xbfdc9b7d	-1.7234951
104	0x3f1f8f2e	0.6232785
105	0xc0269610	-2.602909
106	0x3f236386	0.63823736
107	0xbc2833b4	-0.010266233
108	0xbf3389cc	-0.70132136
109	0x3f4830dd	0.7819956
110	0xbe48554f	-0.19563793
111	0xbe71bfcb	-0.2360832
112	0x3eed3e1b	0.46336445
113	0x3f57dd49	0.8432203
114	0x3e812545	0.25223747
115	0x3cbb8450	0.02289024
116	0x3cfda734	0.030963518
117	0xbcae3b54	-0.021268524
118	0x3f19516a	0.59889853
119	0xbf4298c8	-0.76014376
120	0x3f6133fb	0.8796994
121	0xbca9ec85	-0.020742664
122	0x3f160e78	0.5861583
123	0xbf0efaf1	-0.55851656
124	0x3f336e8f	0.70090574
125	0x3f82dcec	1.022367
126	0xbb00b912	-0.001964156
127	0xbd08af0a	-0.033370055
128	0x3efcfc38	0.49411178
129	0x3d7b4fca	0.06135539
130	0xbe0d82f6	-0.13819489
131	0x3cb0629c	0.021531396
132	0xbe5cc689	-0.2156011
133	0xbe77723e	-0.24164674
134	0x3e6eeb76	0.23332009
135	0x3f1fe1cc	0.62453914
136	0x3d49f90c	0.049309775
137	0x3d3fe912	0.046853133
138	0x3f092e4b	0.5358626
139	0x3fb5bc7f	1.419815
140	0xbcb9959a	-0.022654343
141	0x3d117870	0.03551525
142	0x3c8fd275	0.017556408
143	0xbebcefe7	-0.3690178
144	0x3f2931ea	0.6609179
145	0x3eb63953	0.3559061
146	0xbcc082c5	-0.023499856
147	0xbcf103bf	-0.029420732
148	0x3e92e683	0.2869149
149	0xbf0f7e60	-0.5605221
150	0x3f14f8dc	0.5819223
151	0xbd449ce4	-0.048001185
152	0x3c27bf7a	0.010238523
153	0xbf86c128	-1.0527697
154	0xbecb1ca3	-0.39670286
155	0xb8bbfee8	-8.964335e-05
156	0xbeca6fba	-0.39538366
157	0xbd3f1699	-0.04665241
158	0x403aabbe	2.9167323
159	0xc0403673	-3.0033233
160	0x3ce96841	0.028492095
161	0x3f2e566d	0.68100625
162	0xbf725ce8	-0.94673014
163	0xbf8841f2	-1.0645125
164	0xbcc08c01	-0.023504259
165	0x3ef7a3bc	0.48367107
166	0x3b9bdd13	0.0047565787
167	0x3e323ca7	0.1740595
168	0xbf09071f	-0.5352649
169	0xc011375b	-2.2690036
170	0x3fb032e0	1.3765526
171	0x3f343fd4	0.70409894
172	0x3f25d552	0.64778626
173	0xbc9c250b	-0.019060632
174	0x40808fef	4.01757
175	0x3e0b2ff9	0.13592519
176	0xbcb28bdc	-0.021795206
177	0xbe94c204	-0.29054272
178	0xbfb8fa66	-1.4451416
179	0x3d0b5dae	0.034024887
180	0x3f8cacd2	1.099024
181	0xbf14149f	-0.57843965
182	0xc067862c	-3.6175642
183	0x3c37dee3	0.011222574
184	0x3caebfd9	0.021331714
185	0x3cc0cdc8	0.023535624
186	0x3f1752da	0.59110796
187	0x3f6bbfda	0.9208962
188	0x3fd1a334	1.6377931
189	0x3e300695	0.17190011
190	0x3f30ab9a	0.69011843
191	0xbf659488	-0.89679766
192	0xbf247352	-0.64238465
193	0xbf70ea46	-0.9410747
194	0xbe991455	-0.29898325
195	0x3db6ac9a	0.0891964
196	0xbf9ada48	-1.2097864
197	0x3f6d1625	0.92611915
198	0x3f03b06f	0.5144109
199	0xbd25cbf9	-0.040477727
200	0x3df80346	0.12109999
201	0x3c1b14ab	0.009465377
202	0x402eef91	2.733372
203	0xbd188b48	-0.037242204
204	0xbd6e1150	-0.05812198
205	0xbda0abf8	-0.078453004
206	0xbf5638be	-0.8368033
207	0x3cd5312f	0.02602443
208	0xbf15dcfa	-0.5854031
209	0xbe6dcbba	-0.23222247
210	0xbfb561e5	-1.41705
211	0x400a3bb6	2.1598945
212	0x3effe9e8	0.49983144
213	0xbf84c7b5	-1.0373446
214	0x3fe324c9	1.7745601
215	0xbeeb7c9d	-0.4599351
216	0xbf8ad6c7	-1.0846795
217	0x4007e0c0	2.1230927
218	0xbe9ed885	-0.31024566
219	0xbcb522d2	-0.02211133
220	0x3f80895c	1.0041919
221	0x3c8e4311	0.017365964
222	0x3cc48993	0.023991382
223	0x3f03e920	0.51527596
224	0x3f4eac90	0.8073206
225	0x3f59b425	0.85040504
226	0x3a668fdb	0.000879524
227	0x3e76cac5	0.24100788
228	0x3ed3401b	0.41259846
229	0x3f46b1b1	0.77614886
230	0x3dcf3b45	0.10118727
231	0xbc9d2525	-0.019182751
232	0xbd43c711	-0.047797266
233	0x3f548879	0.8302074
234	0x3efd6a21	0.49495032
235	0x3ccd6fc2	0.025077704
236	0x3f9f62fc	1.2452083
237	0x3f86ec2d	1.0540825
238	0xbc29a5d4	-0.010354478
239	0x3f76bfe9	0.9638658
240	0xbf758f1c	-0.9592149
241	0x3f128dd4	0.5724766
242	0x3f4d7c57	0.8026785
243	0x3cc97ee1	0.024596633
244	0xbc8dc0a4	-0.017303772
245	0x3e51f434	0.20503312
246	0x3e2cf7de	0.16891429
247	0xbeb7955a	-0.35856134
248	0xbd5d16f7	-0.05397698
249	0x3d3ef407	0.04661944
250	0x3f0b5834	0.5443146
251	0x3d731267	0.05934372
252	0xbe7acef4	-0.24493009
253	0x3fdcb932	1.7244017
254	0x3f24d4e4	0.64387345
255	0x402bea37	2.6861703

outputLayer.bias f4 [2]
0	0x40ccfc57	6.405803
1	0x40d87ce4	6.7652454
