ftl/pretrain/weight/scratch_wdev_0/scratch_wdev_0_51.pth (torch, 187635 bytes, 8 tensors)

hiddenLayer1.weight f4 [150, 3]
000000 2a 9e e1 bf dd 93 86 be f1 c3 9c bd 7a e5 a2 c0
       -1.7626393 -0.26284686 -0.0765456 -5.0905123
000010 19 06 64 ba 52 75 52 bd fa 0c 19 bf c2 64 e0 bb
       -0.00086984184 -0.051381417 -0.59785426 -0.006847949
000020 b6 cb 7e be 85 2e b8 c0 9f ae 5b 3c 1b 13 a5 bb
       -0.24882397 -5.7556787 0.013408332 -0.005037678
000030 bc f2 bb bc b0 16 14 3b 1b 66 ba bc 19 84 7a c0
       -0.022942893 0.002259653 -0.022753766 -3.9143126
000040 62 49 3c bd d3 1e b0 3c f4 1a 46 3e 8b 85 04 bd
       -0.04596842 0.021499073 0.1934622 -0.03235392
000050 40 34 89 3f af 40 c9 bc d6 58 bd bb a7 80 e0 3f
       1.071907 -0.024566976 -0.0057784123 1.7539262
000060 a1 45 a0 bf 76 1b 6f 3c cf ef 84 3c c8 0d 15 c0
       -1.2521249 0.01459395 0.01622763 -2.3289661
000070 17 1f 05 3c c0 b5 6c 3c e8 a3 12 c0 1d ef 02 3c
       0.008125088 0.014447629 -2.291254 0.007991579
000080 9a e2 53 bf 77 7e 89 be fc a2 d2 3a fe 0e 4c bf
       -0.8276764 -0.26854298 0.0016070302 -0.79710376
000090 83 8a d1 c0 a4 ba eb bb 90 a7 08 be 18 cb 1b bf
       -6.548158 -0.00719388 -0.1334517 -0.6085677
0000a0 25 34 85 3c 95 01 ea 3c 6e 97 52 be be c9 e3 bb
       0.016260216 0.028565207 -0.20565578 -0.00695154
0000b0 ec 16 0f bc 34 ba 66 c0 04 4e 5c 3b ee b5 2c bc
       -0.008733492 -3.605115 0.0033615837 -0.010541422
0000c0 a3 a8 6e c0 63 15 e3 bc c5 6d 95 3c 95 ba 0e c1
       -3.7290428 -0.027720159 0.018240819 -8.920552
0000d0 ad fb 64 bc 5b fb e4 bd 47 70 e5 c0 c4 7f c2 ba
       -0.01397602 -0.11180755 -7.1699557 -0.0014839103
0000e0 a9 fe 79 ba c7 e6 4f c0 73 0f aa 3c bd 67 4f bd
       -0.00095365435 -3.2484605 0.02075932 -0.050636042
0000f0 8e bb 91 bd 44 3c 88 bd 30 79 c0 3b b5 20 38 3e
       -0.07115851 -0.0665212 0.0058738217 0.17981227
000100 30 56 ff ba 7c e8 63 40 5f 7a 0c 3c 74 dd b6 bd
       -0.0019480642 3.5610647 0.008574097 -0.089289576
000110 96 05 cc 3d d5 20 1f bf de 7a 1b 3e 13 68 41 bd
       0.09962003 -0.6215947 0.15183589 -0.047218394
000120 e9 4b 7b 3b 32 7a 99 3b 90 f6 8a 3e b5 40 f1 bf
       0.0038344807 0.0046837563 0.27141237 -1.8847872
000130 27 fa 9d 3c 20 dc 32 bf 7d ff aa be 95 a6 98 3b
       0.019284321 -0.69867134 -0.33398047 0.00465853
000140 5c da 0e 3d fe 6c 17 c0 1a 34 89 bb 0e 06 d3 be
       0.034876212 -2.3660274 -0.004187119 -0.41215557
000150 e3 d8 e6 bf 0f 15 5e 3c 81 c1 03 bf ce 30 f1 3b
       -1.8034939 0.013554825 -0.5146714 0.0073605543
000160 d3 39 aa 3c 41 cb 21 3f 17 be e7 bc 05 ea c7 3c
       0.020779526 0.63200766 -0.028288884 0.024403581
000170 94 a1 62 3f cf 28 0b 3b 91 d0 3a 3c 7b 7c 6a 3c
       0.885278 0.002123404 0.011402265 0.014311905
000180 05 44 01 c0 a9 85 ac 3c 64 e6 d8 be 04 1a 43 c0
       -2.0197766 0.021059828 -0.42363274 -3.0484629
000190 2a 25 a9 ba 23 76 53 be 08 82 29 c0 41 98 44 3b
       -0.0012904753 -0.20650534 -2.6485615 0.0029997977
0001a0 37 32 8a bc 37 3d 91 3b 6b 17 c5 3d 42 db c6 3e
       -0.016869647 0.004432346 0.09623607 0.38839155
0001b0 49 86 c4 c0 bd 82 a7 ba 12 e7 9c bf f1 06 5e c0
       -6.141392 -0.0012780052 -1.2258017 -3.4691737
0001c0 8a 60 27 3c de fb ff be 5b ab 87 bc 3b e9 37 ba
       0.010215888 -0.49996847 -0.0165612 -0.000701565
0001d0 89 9e e3 bc 1e 30 77 c0 2d dc b5 b9 3f 92 ef be
       -0.027785556 -3.8623118 -0.00034687054 -0.46791264
0001e0 18 cb 8a bf b5 a0 6b bc 8b 5a e1 3c 69 31 f0 bd
       -1.0843229 -0.014381577 0.027508995 -0.11728174
0001f0 28 11 0b be be 23 46 bf 4b 74 3a c0 c2 ee a5 3b
       -0.13580763 -0.7739829 -2.913348 0.0050638625
000200 03 1f 0b bd d7 6b 1f c0 a9 57 a5 39 14 35 03 be
       -0.033965122 -2.490957 0.00031536564 -0.12813216
000210 0a d8 53 bf 8b b1 92 bc d9 fd a0 be ac 47 4d bd
       -0.82751524 -0.017906925 -0.3144367 -0.05011718
000220 ac e0 18 3d a1 39 c6 be 24 b7 9e 3e 50 76 07 3b
       0.03732364 -0.38715842 0.309991 0.0020669885
000230 ce 56 91 3f 4b 30 89 bf 90 32 77 bb 83 91 ed be
       1.1354616 -1.0717863 -0.0037719347 -0.4640008
000240 3a a6 ac bd 5d c6 7f 3b dc b2 a3 bc 2a 2f 17 be
       -0.08430143 0.0039028146 -0.019982748 -0.14764085
000250 18 a8 df ba 75 76 ba bc a9 a0 01 c0 f8 61 5f 3b
       -0.0017063646 -0.022761563 -2.025431 0.0034085494
000260 e4 b8 89 be c3 c1 c2 bc 7f cc 8d bd 83 16 49 be
       -0.26898873 -0.023774033 -0.0692377 -0.19637494
000270 6b e9 e5 be ff 73 2b 3d c6 a1 c5 be 98 a0 34 c0
       -0.44904646 0.04185867 -0.38599986 -2.8223019
000280 ac a5 c0 3b f9 7a fc be 9c 9e e5 be 69 d2 32 3c
       0.0058791246 -0.4931257 -0.44847572 0.0109144235
000290 fe 5c 68 3d 38 9e f3 bc 67 d7 d6 bd eb 19 0b c0
       0.05672931 -0.02973853 -0.104903035 -2.173457
0002a0 22 94 01 bf 9f 91 4e 3d b2 d2 cb 3d b7 be ce c0
       -0.5061666 0.050431844 0.09952296 -6.4607806
0002b0 d1 86 a0 b9 41 fb 46 be cb d5 11 c1 b4 18 07 bd
       -0.00030618024 -0.19431783 -9.114696 -0.032982543
0002c0 5f 31 01 3d 8a 84 fa 3d e3 f6 16 3b 81 4f 89 c0
       0.031541225 0.12232311 0.002303534 -4.290955
0002d0 5c 50 c5 bd 99 ad 58 bc 8a 1a 64 bc df d5 46 be
       -0.09634468 -0.013224983 -0.013922343 -0.19417523
0002e0 02 1c c4 3b b8 42 a8 bf 09 41 26 bd 4b 63 0a 3b
       0.005984784 -1.3145361 -0.040589366 0.0021116312
0002f0 5c 58 11 c0 ce ab 88 c0 67 14 4a 3a 62 cb df bf
       -2.271018 -4.2709723 0.00077087287 -1.7483943
000300 6d 46 c2 c0 fa 8a ca 3b 63 8b e9 be 80 15 1a bd
       -6.071097 0.006181118 -0.45614156 -0.03761816
000310 58 f7 fd b9 17 2b 8b be f5 e2 da bc fb ca a1 38
       -0.00048440206 -0.27181312 -0.02671955 7.714886e-05
000320 59 aa cc bc ee b3 4f c0 39 ae ad 3c c3 a2 c5 3d
       -0.024983572 -3.245357 0.02120124 0.09650185
000330 cf db 22 c0 c9 75 e1 bb bf 8c c0 be 0e bd 21 c0
       -2.544666 -0.006880496 -0.3760738 -2.527164
000340 81 39 77 3b aa af 22 bf e6 e4 6d bd 20 5b 1e 3b
       0.0037723484 -0.6354929 -0.058079623 0.0024163201
000350 c3 65 10 3c 62 34 a4 c0 74 8b 9f bc f7 8e 21 bf
       0.008813324 -5.1313944 -0.019475676 -0.6310877
000360 31 45 86 3c ae 64 46 3e 50 b7 5f bc 2f ba 0d be
       0.016390415 0.19374344 -0.013654545 -0.13840555
000370 17 91 4a 3b 42 2c 66 be cc 92 82 c0 e2 d0 8f 3c
       0.0030909234 -0.2247782 -4.0804195 0.017555658
000380 08 aa cb bc eb ba 0d c1 73 9e 60 3c 51 8b 9b bc
       -0.02486135 -8.858134 0.013709652 -0.01898733
000390 97 b6 4c c0 f4 b0 fb 3c 8f d7 11 bf 42 1e 98 c0
       -3.1986444 0.030724026 -0.5696954 -4.7536936
0003a0 bb 7a ce 3b 31 75 90 bb ba af 5f bd 86 8c 0e 3e
       0.0063012517 -0.0044085016 -0.054610945 0.13920793
0003b0 d2 b0 2e bf 61 97 2a 3e d9 76 4d 3b 28 c9 bb 3f
       -0.68238556 0.16659309 0.0031351356 1.4670763
0003c0 65 30 9e c0 fc c2 65 3c 6a f0 2b be fc 48 24 bf
       -4.9434075 0.014023539 -0.1679093 -0.64173865
0003d0 0c 68 82 bd 33 f8 e1 bd 44 6f f8 be 43 97 51 bc
       -0.063675016 -0.11033668 -0.4852239 -0.012792411
0003e0 ac 00 1b bf 0d 29 19 38 ac 6d 87 3a 78 6a 1a bb
       -0.605479 3.6516274e-05 0.0010332367 -0.0023561995
0003f0 ae 8c 15 bc 34 64 fa bb 0a f6 10 bd 0a a2 dc bf
       -0.009127779 -0.0076413397 -0.03539089 -1.723695

hiddenLayer1.bias f4 [150]
000000 37 e6 35 c0 b9 1a 4f be d3 4a 96 be 4e ce 18 bf
       -2.8421762 -0.20225038 -0.2935396 -0.59689796
000010 cc cc d2 bd 74 ce 26 bf 3a d1 45 40 27 7d 43 40
       -0.10292968 -0.6515877 3.0908952 3.0545137
000020 87 07 c9 be cf 0d e7 be 01 f9 54 bf 2e a4 1b bf
       -0.39263555 -0.45127723 -0.8319245 -0.60797393
000030 ee 02 c6 be 00 f8 16 bf f4 f1 be bd 0e 22 60 be
       -0.3867411 -0.5897217 -0.09323493 -0.21887991
000040 3a f7 16 bf 0e bb fa be b3 52 78 be ca b4 03 bf
       -0.5897099 -0.48970836 -0.24250297 -0.5144774
000050 5a 84 76 bf c4 82 a8 c0 b7 aa e0 bf 5c 49 bb bf
       -0.962957 -5.2659626 -1.7552098 -1.4631763
000060 44 1a 4d c0 d7 a4 31 bf 56 50 fa be 22 b4 dd be
       -3.2047281 -0.6939215 -0.48889416 -0.43301493
000070 3e be 21 bf 2e 5a 68 c0 ca e0 46 40 1f fb 92 be
       -0.6318091 -3.6305041 3.10747 -0.28707215
000080 ab dc 3b bf eb 7e c6 be 11 99 0a be c2 1a 62 c0
       -0.7338359 -0.38768706 -0.13534953 -3.5328832
000090 d9 e3 8c bf 21 3c 10 bf 45 79 08 bd 92 c8 01 bf
       -1.1007034 -0.5634175 -0.033318777 -0.5069667
0000a0 c1 f5 2c bf 0e 4c fa bf 3b 76 84 be 1e 3e 64 be
       -0.6756249 -1.955446 -0.25871453 -0.22289321
0000b0 34 ba fc be ac bd 1b bf 40 de 80 c0 18 f4 d1 be
       -0.49360812 -0.6083629 -4.02713 -0.4100654
0000c0 5e 4a 9b bd 68 c8 29 bd f2 99 a4 be 7b b3 6a bf
       -0.07582544 -0.041450888 -0.321487 -0.91680115
0000d0 63 86 2e bf d3 6b f9 be 0b 67 33 bf 82 b4 26 c0
       -0.6817381 -0.48715076 -0.70079106 -2.6047673
0000e0 ed 2c c4 bf f5 ff b0 be 99 b9 5e bf 7c 8a bc c0
       -1.532621 -0.3457028 -0.8700195 -5.891905
0000f0 2d ef 87 be ee be f0 3f 00 61 4d 40 64 8e c6 bf
       -0.26549664 1.8808267 3.2090454 -1.5512204
000100 75 1c 20 bf 46 21 5b be d9 ca a1 bc a2 63 d6 bf
       -0.6254342 -0.21399412 -0.019750046 -1.6749156
000110 be a3 d9 be c6 a3 39 bf 9b 11 14 be 7a b6 5a bf
       -0.42507738 -0.72515523 -0.14459841 -0.8543469
000120 7c a5 05 c0 98 66 d8 3f ad d1 97 be 9a 0c c4 be
       -2.0882254 1.6906309 -0.29652157 -0.38290864
000130 3a 48 36 bf bd ad 50 be 8c 22 cb bf 96 15 b3 c0
       -0.7120396 -0.20378776 -1.5869918 -5.596385
000140 83 93 d1 be 2a 42 69 bf 13 4a 54 bf 62 4d e9 bc
       -0.40932855 -0.91116583 -0.8292553 -0.028479282
000150 23 75 db bd 51 19 19 bf 94 10 ae bf 1c 1a 02 bf
       -0.107157014 -0.59804255 -1.3598809 -0.5082109
000160 fa 58 2b be 8e b2 45 bf e6 e3 96 bf 2e f2 a1 be
       -0.1673316 -0.7722558 -1.1788299 -0.3163008
000170 9c af 4c bf 33 50 45 bf 20 a1 8f bf d3 1c 09 bf
       -0.7995546 -0.770755 -1.1221046 -0.5355961
000180 a6 19 5d be 7a 37 26 be f9 9f 12 40 01 5f 8d bf
       -0.21591815 -0.162321 2.291014 -1.1044618
000190 4b 36 ae be be b1 92 bf 39 3b 51 be dc 0d b1 bf
       -0.34025797 -1.1460493 -0.20432748 -1.3832355
0001a0 74 95 25 bf 75 91 c2 be 79 59 96 be 0d e9 b6 be
       -0.6468117 -0.380016 -0.29365137 -0.3572468
0001b0 09 7d 0d be 70 70 56 be 2c 81 85 be 12 bb 05 bf
       -0.13817228 -0.20941329 -0.26075113 -0.5223857
0001c0 f7 81 4f c0 d3 45 fc be 5a b8 29 bf 61 33 8f bc
       -3.2423074 -0.49272022 -0.66296923 -0.017480554
0001d0 83 4a b1 bf 71 0c 23 bf 90 d7 3c bf 04 d9 02 bf
       -1.3850864 -0.6369086 -0.7376642 -0.5111239
0001e0 61 bc cb bd db 2f 6f bf 2b 0e 4e c0 d1 e1 6b be
       -0.0994804 -0.93432397 -3.2196147 -0.23035361
0001f0 19 ca ad be 57 50 ea bc a2 c3 ce bf e4 b8 ee 3f
       -0.3394325 -0.028602762 -1.6153452 1.8650174
000200 e0 5e 9c be ac f8 b0 bd 91 40 97 bf a0 13 7e bf
       -0.30541134 -0.086411804 -1.1816579 -0.99248695
000210 10 93 03 bf 6f e5 cb be 33 fc 6b bf ef 77 58 bf
       -0.51396275 -0.3982348 -0.921817 -0.84558004
000220 2e a6 a2 be 81 8f 60 bf b8 cf e0 bf 8d 3f 24 be
       -0.3176741 -0.8771897 -1.7563391 -0.16039868
000230 c1 f9 63 40 b6 e1 6e c0 fa 86 39 bf e0 35 d0 bf
       3.5621188 -3.7325263 -0.7247158 -1.6266441
000240 f2 ef bb bd 48 d2 79 be a5 4a 15 bf 1b 57 84 bf
       -0.09176625 -0.24396622 -0.58317024 -1.0339082
000250 c8 d2 1f bd d2 a5 38 40
       -0.039019376 2.8851209

hiddenLayer2.weight f4 [150, 150]
000000 26 f1 f0 be 97 a4 83 bd 96 0e 9c 3d 93 cb 78 be
       -0.47058982 -0.064278774 0.076199695 -0.24296407
000010 95 4a 61 bf ed 91 d6 3d 7f 4b 98 be e8 1c 86 be
       -0.8800443 0.10477052 -0.297451 -0.2619393
000020 af 30 da bc fd 3f 19 3f d2 98 88 3b 87 34 2c bb
       -0.026634542 0.59863263 0.004168608 -0.0026276426
000030 8e 71 37 bc e1 e3 b3 3e aa f7 be 3d a5 33 be be
       -0.011196507 0.35134795 0.09324582 -0.37148777
000040 82 5c e1 be d1 d5 da be b6 9b 06 bf f2 c2 b3 be
       -0.4401589 -0.42741254 -0.52581346 -0.3510967
000050 5e 92 7f bf 95 90 de be 3c fb ad bf 2d af 9c bf
       -0.99832714 -0.43469682 -1.3592296 -1.224096
000060 83 7d b2 bf bd 42 dd 3e 2e 0b a7 bd 7b 97 d6 3c
       -1.3944553 0.4321498 -0.08156429 0.026195278
000070 e8 d2 be 3e 2b 75 a2 bf db 60 8e be 29 6b b5 bf
       0.37270284 -1.2692007 -0.2780827 -1.4173328
000080 aa 61 69 3e 55 2a a4 3e 3f cc 1f 3e 38 ef 68 bf
       0.22791162 0.32063547 0.15605257 -0.9099002
000090 3c c9 bf be 55 2e 0b 3d 8d 36 8b 3d 97 9d 4c 3e
       -0.37458217 0.033979733 0.06797514 0.19981991
0000a0 4e f6 a1 be 3c 03 f9 be 3f 91 82 be 32 f0 8c be
       -0.31633228 -0.4863528 -0.2550144 -0.27527004
0000b0 1f 91 fd 3e 5e b4 30 3c 87 5d 98 bf 8a f5 ae bd
       0.4952478 0.01078519 -1.1903542 -0.085429266
0000c0 a0 c1 10 3f d9 c9 04 3e 37 17 db bc 3c a4 c0 3e
       0.5654545 0.12967624 -0.026744468 0.376253
0000d0 88 c8 91 be 4d 1e b1 be 6a 8c d5 bd dc 59 49 3f
       -0.28473306 -0.3459343 -0.104271725 0.7865274
0000e0 c0 6f 83 bf 51 c3 aa bd ca 6e 28 3f 55 73 35 bf
       -1.0268478 -0.08338035 0.6579405 -0.7087911
0000f0 80 f9 8d bf 8a 5d 42 bb 77 bd 79 3d ef e3 c9 3f
       -1.1091766 -0.0029657804 0.060971703 1.5772685
000100 19 d4 c4 3d 28 cf d5 3d 37 19 9b be c6 bc 91 3f
       0.09610767 0.104399025 -0.30292675 1.1385734
000110 8e 03 b9 be 5a 60 fc be 4f 02 b6 be fd cf ab bd
       -0.36135525 -0.4929226 -0.35548636 -0.0838928
000120 35 f0 cc 3e 08 16 30 3b 76 fd b0 be 25 37 ee be
       0.40027013 0.00268686 -0.34568375 -0.46526447
000130 5e cb 45 bf 7a 07 ca be e2 47 db 3d 3a f6 9c be
       -0.7726344 -0.3945883 0.1070707 -0.30656606
000140 af b4 1e be 7d b7 34 bf 50 d4 d1 be 7f ab ab bd
       -0.15498613 -0.7059248 -0.40982294 -0.0838232
000150 2b 85 a5 3d 3e 7d 11 bf ea 02 bd be ee 8f 9d 3d
       0.080820404 -0.5683173 -0.36916286 0.07693468
000160 a6 85 a2 be 87 b2 6d 3e cf 6d 74 bf 8f 80 38 3f
       -0.3174259 0.23212634 -0.95480055 0.72071165
000170 d4 60 d2 bf b5 b5 44 bd e5 c1 50 be 89 72 17 be
       -1.64358 -0.04802485 -0.20386465 -0.14789785
000180 f4 00 f1 bd c5 af 0e bf a1 cc 47 bd 28 de 7a c0
       -0.1176776 -0.55736953 -0.048779134 -3.9198093
000190 8a 7a 8e 3e 77 8f 99 be 1f 11 74 be b6 46 57 bf
       0.27827865 -0.29992267 -0.23834656 -0.8409227
0001a0 fd e2 7b c0 6b e7 0a bf ec ef 35 be 29 c0 b4 3e
       -3.9357293 -0.54259366 -0.17767304 0.35302857
0001b0 42 a6 f1 bf ac 63 ae be c9 e2 80 be 9d 9b ee be
       -1.8878863 -0.3406042 -0.25173023 -0.466031
0001c0 c0 ca a8 bf cd f5 bd be fa 8a 38 3f d8 e3 2d 3c
       -1.3186874 -0.37101594 0.7208706 0.010613404
0001d0 7d ba fb bc e8 91 87 be 2d b1 07 bf 62 5f ae be
       -0.030728573 -0.26478505 -0.53004724 -0.34057146
0001e0 59 2d 22 bc 31 0b 47 c0 2d 48 b9 bf 24 14 f0 be
       -0.009898507 -3.110058 -1.4475151 -0.46890366
0001f0 cb 25 24 be 2e 00 74 be 57 04 25 c0 05 5e 87 be
       -0.16030042 -0.23828194 -2.57839 -0.2643892
000200 b2 f1 84 be 95 ef d9 be c3 9f 6d 3e 8d 86 94 3e
       -0.2596565 -0.425656 0.23205476 0.29008904
000210 9f d2 8e be f7 a5 b5 be d3 cc 88 bf 85 d1 91 3f
       -0.27895066 -0.35478184 -1.0687507 1.1392065
000220 00 3c 1c be 53 8d 4b c0 5a 8a 4f 3f 55 0f 63 be
       -0.15257263 -3.1805007 0.8107048 -0.22173817
000230 ba 6f cf b9 2f 5c 07 bd 1c ea eb be 9c 35 16 3e
       -0.0003956536 -0.033046898 -0.4607705 0.14668888
000240 95 65 eb be f0 2d 9d be 75 64 9c be da 41 13 3f
       -0.45975938 -0.3069911 -0.30545393 0.57522357
000250 b6 b2 58 3d e0 37 d1 be 9e 38 24 bf 55 ef a5 be
       0.052904807 -0.40862942 -0.6414889 -0.32409158
000260 dc 41 08 3d 15 10 26 3f 1d b3 68 3c 8c 81 f5 3c
       0.033265933 0.6486829 0.01420286 0.029969
000270 1b 48 a0 be a3 3e 1f 3e a7 a9 0f c0 a6 8f a7 be
       -0.31305012 0.15551238 -2.2447298 -0.32726783
000280 4d f1 3e bf 6c 01 45 be b4 92 a1 bc 5b 2c a8 c0
       -0.74586946 -0.19238824 -0.019723274 -5.2554145
000290 81 f8 01 be 5a 2e 76 3f 2f 45 2b 3f 67 4c 01 3f
       -0.12692453 0.96164477 0.6690244 0.50507206
0002a0 10 c4 3b 3d 68 ce aa be 3b d0 b6 bf 63 cc f1 bf
       0.045841277 -0.333606 -1.4282297 -1.8890499
0002b0 22 4c 0f bf bd 67 aa be 56 05 b5 bf d5 7d a0 3e
       -0.55975544 -0.3328227 -1.4142253 0.31346002
0002c0 ce c0 b3 bf d0 9a 95 be ed 15 a3 be 3b 36 4a bf
       -1.4043214 -0.29219675 -0.31852666 -0.78989
0002d0 ee f3 ea 3d dd bf 90 bf b8 dc 20 3f ba 4d 02 3f
       0.11472307 -1.1308552 0.6283679 0.5089985
0002e0 92 0d 80 bf 04 07 a1 bd 7d 3c 4f bf f0 0f 76 be
       -1.0004141 -0.07862666 -0.8095167 -0.24029517
0002f0 4f d7 42 3d 8b 12 fc be 62 bd 80 be f7 7b b3 3f
       0.047568616 -0.49232897 -0.25144488 1.4022206
000300 57 25 44 be 5c 44 d9 be 47 71 da 3d 78 27 3b be
       -0.19154869 -0.42434967 0.10666137 -0.18276775
000310 af 09 a8 bf 44 bf 00 be df df b5 3d d9 ec 10 3e
       -1.3127955 -0.12572962 0.08880591 0.1415285
000320 68 78 0f bf 2e 53 95 c0 ee 10 9c be c5 5e 05 bf
       -0.560431 -4.666404 -0.30481666 -0.5209773
000330 9b ee 83 be 12 e6 00 bf 50 c1 ea be c0 c3 9b be
       -0.2576798 -0.5035106 -0.4585061 -0.30422783
000340 65 77 cc be 62 71 b1 bf a2 ef 0b be e5 e4 33 be
       -0.3993484 -1.3862727 -0.13665631 -0.17567785
000350 4e 3b b9 3d c4 56 35 bf e0 b5 0c 3f 8e 12 2c bc
       0.090445146 -0.7083552 0.5496502 -0.010502471
000360 15 ae 35 bd 0e 82 ad be 46 43 8d 3f f7 18 8f 3e
       -0.04435547 -0.33888286 1.1036155 0.27948734
000370 41 98 c7 bd c7 64 ec be 42 ef 65 be af 23 25 bf
       -0.09745837 -0.46170637 -0.22454551 -0.64507574
000380 b2 a7 3e bd 1e 45 cb bf 6e 10 2c 3f fa b5 04 bf
       -0.046546645 -1.5880468 0.6721257 -0.51840174
000390 bb 7a a4 3e 3b ab 70 be 41 df ae bf 12 f2 ae bf
       0.32124886 -0.23502819 -1.3661882 -1.3667624
0003a0 85 14 50 bf 20 2d 2f bd c7 af 84 bc 7c 4f b2 be
       -0.8128131 -0.042767644 -0.016197098 -0.34826267
0003b0 bc b1 3f bf 72 6a 19 c0 20 3f 31 bd ad b2 3b bf
       -0.74880576 -2.397122 -0.04327309 -0.7331951
0003c0 62 26 fa be f4 e4 1b 3e 01 52 1c bd a0 71 f5 3f
       -0.4885741 0.15224057 -0.038164143 1.9175301
0003d0 7d 9c 11 bf 6c f5 73 be 0f 89 5a c0 cf f8 df bd
       -0.5687941 -0.2382409 -3.4146154 -0.10936128
0003e0 62 72 2f be 28 31 aa be a4 5f af be 7f dd a2 3e
       -0.17133477 -0.33240628 -0.34252656 0.31809613
0003f0 d0 18 4d be c3 a4 83 be 56 e7 59 be cc 80 62 3e
       -0.20028996 -0.2571164 -0.21279654 0.22119445

hiddenLayer2.bias f4 [150]
000000 94 8c 5f 3d 01 06 95 3f ae 60 a6 b9 7e 7c 3c 40
       0.054577425 1.1642457 -0.0003173402 2.9450984
000010 9b 7a 11 3e 63 d6 6c be 50 83 04 be de f6 0c bd
       0.14206927 -0.23128657 -0.12940717 -0.03441512
000020 d1 3b 33 40 6a 6d 8e bd 6e 70 fe 3d a3 d9 3a 3e
       2.800526 -0.06954463 0.12423788 0.18247084
000030 7d 92 83 3d ae 25 39 3e 3b a2 22 bd fe 90 d8 bc
       0.06424425 0.1808078 -0.039705496 -0.026436325
000040 b6 cc 68 3f 48 d9 3e 3e 2f 4b 59 40 f6 0f 91 3e
       0.90937364 0.18637574 3.3952138 0.2833249
000050 98 19 20 be 30 6e 9b 3c 41 f7 fa 3d 16 17 80 bd
       -0.15634763 0.01897344 0.12254191 -0.06254403
000060 46 9a 88 bd 95 60 30 bd a9 65 10 3e df 04 60 40
       -0.0667005 -0.043060858 0.1410128 3.5002973
000070 12 45 a8 3c 70 e9 ab bb 45 22 02 3e eb 2f e7 bc
       0.020540748 -0.005246334 0.12708385 -0.028221091
000080 f9 ef b0 bd 8e 1a 3a bd 91 d0 d3 3e 1f 1c 04 3e
       -0.08639521 -0.04543548 0.4137006 0.12901352
000090 67 20 b5 3d 4e 05 8b 3e af d6 0f bd c2 b0 45 bc
       0.08844071 0.27152485 -0.035116848 -0.012066068
0000a0 9d 02 2d 3d 9c e9 a4 3d 36 36 8b 3d 8d 4c 22 bd
       0.04223882 0.0805237 0.06797449 -0.039623786
0000b0 0c 78 06 bd 78 5e 19 be f0 23 c8 be 59 bb 54 bc
       -0.03282933 -0.14977443 -0.39089918 -0.01298412
0000c0 91 e9 c2 3e 86 66 d2 3d 61 7a 25 be 2b 62 85 3c
       0.38068822 0.10273461 -0.16159965 0.016282162
0000d0 fb fc af 3e 31 a9 ab bc 85 8d 0b bf 9b 2d 98 3c
       0.34372696 -0.0209547 -0.54512817 0.018576434
0000e0 39 c8 a4 bd 73 50 27 be 3b 29 83 3f 2c 9b 08 3e
       -0.08046002 -0.16339283 1.0246958 0.13340443
0000f0 e3 05 df bd 7b 84 ef bd c0 c5 e7 bc e4 65 45 be
       -0.10889795 -0.116951905 -0.028292537 -0.1927715
000100 9d 43 d6 3c 7c 92 8b 3f d0 a9 11 bf b8 87 84 3e
       0.026155287 1.0904078 -0.5689974 0.25884795
000110 61 da c2 bc 77 6f 6a 3e bc 7a 81 3d 9a 36 d3 3c
       -0.023785772 0.22894083 0.06322238 0.025782872
000120 14 d3 8a 40 d8 3f 8c 40 c9 d9 aa be e3 c3 e6 bd
       4.3382664 4.3827934 -0.33369282 -0.11267831
000130 88 2e 82 3e 8b 61 66 bd ed 65 5e bc e9 88 1a 3e
       0.25426126 -0.056245368 -0.013574106 0.1509129
000140 e1 d9 d3 bf 1e bc d0 3c 59 1a 41 3d ab 94 a5 bd
       -1.6550866 0.025480326 0.047144268 -0.08084997
000150 4c fe b7 3e 10 b2 37 3d 19 76 b2 be fe db 31 bb
       0.359362 0.044847548 -0.34855726 -0.0027139182
000160 0e 3a bb 3f b1 04 92 bc e7 54 91 3e 83 04 a1 3f
       1.4627092 -0.017824503 0.28385088 1.2579502
000170 eb 39 9f bd cc 78 73 3e 57 13 2b 3d 46 96 1b be
       -0.07774719 0.23776549 0.04176649 -0.15194044
000180 3f e9 6c 3c be 8d 99 bd aa c4 c7 3d 4c 63 8d 40
       0.014459907 -0.07497738 0.097543076 4.418371
000190 19 f1 9a be ea c1 36 bd c1 56 33 bd 55 b6 2a 3e
       -0.30262068 -0.044618525 -0.043783907 0.16671117
0001a0 35 03 4c 3d db 52 28 40 ae 53 d2 3e c3 5c 4a be
       0.049807746 2.630057 0.41079468 -0.19761948
0001b0 41 3c 61 40 ed 4b a0 be ac 2f 8e 3e b8 ac ba 3f
       3.5193026 -0.31307927 0.27770746 1.458396
0001c0 79 a2 9c be ac 49 a8 3f 06 a0 5e 40 b7 16 e5 3c
       -0.30592707 1.3147483 3.478517 0.027964933
0001d0 94 0e 5c be b6 13 32 3e f3 70 ca be 85 52 57 bb
       -0.21489936 0.17390332 -0.39539298 -0.0032855582
0001e0 b6 73 20 bd 0c ab e4 be 5e 55 3e 3f b3 e6 61 bd
       -0.03917285 -0.44661748 0.7434901 -0.055151653
0001f0 df 99 b0 be 78 5d 97 3f 26 d9 32 bc f4 24 c7 3c
       -0.34492394 1.1825399 -0.01091603 0.024309613
000200 88 39 cd 3e 3d 56 a3 bd b1 ba ce 3e 66 9e 1f 3d
       0.40082955 -0.07975433 0.4037681 0.03896942
000210 8f 75 8c 40 00 39 14 3e 01 75 5d be ec 31 b6 3e
       4.3893504 0.14474869 -0.21626665 0.35584962
000220 05 07 05 bd 42 17 5e bc 99 ff 46 3d a2 3a 9a bb
       -0.032477397 -0.01355535 0.0485836 -0.0047066966
000230 ab 67 77 40 6b 05 4b 3c 18 14 aa bd a4 ff 37 3d
       3.8657024 0.012391428 -0.08304614 0.044921532
000240 f1 c7 f8 bc 05 e5 ef be df 22 1a 3e 40 6e cd bd
       -0.030368777 -0.46854416 0.15052365 -0.10030794
000250 9d de bc bc 29 e6 62 be
       -0.023055369 -0.22158112

hiddenLayer3.weight f4 [150, 150]
000000 3d 2c 36 be 92 70 76 be 9c 00 f2 be bd 37 9c 3e
       -0.17790313 -0.2406638 -0.4726609 0.30511275
000010 50 98 d0 3e d4 fd e4 bd f8 cd c2 3d 9b 4c 62 bc
       0.40741205 -0.111812264 0.09511942 -0.0138122095
000020 40 04 e9 3e ce 21 45 3e 06 42 1d 3e c8 9f 36 3e
       0.45511055 0.19251177 0.15357217 0.17834389
000030 f6 af 0d bf 87 b5 53 be 9d 53 9f 3c c5 d4 9f 3e
       -0.5534662 -0.20674716 0.01944905 0.31217018
000040 db ef 25 3e 82 44 e0 3e 26 01 84 3d 51 5e 88 3d
       0.16204779 0.43802267 0.064455315 0.066586144
000050 b6 29 d2 be 1a 8d 66 bd 8a 56 0f bd 3d 36 71 3e
       -0.41047448 -0.05628691 -0.03499464 0.23555847
000060 78 61 05 3d d0 36 d7 bd 24 65 30 be 35 3c 91 3e
       0.032563657 -0.105085015 -0.17226082 0.28366247
000070 16 e8 f8 bc d1 ad 94 be 64 a2 6e 3d 46 3f 36 3d
       -0.030384105 -0.2903886 0.058260337 0.044493936
000080 78 85 e1 be 48 c8 36 3d fe ec 7f bd 6f 63 c7 3e
       -0.4404714 0.044624597 -0.062481873 0.3894305
000090 6f 4d 9a bf 73 c0 d6 bd 9f 1c 17 bd 45 ac b7 3e
       -1.2054881 -0.104859255 -0.03689253 0.3587362
0000a0 d9 28 cb bd 88 c9 d6 be f3 84 51 bd 15 b9 25 3d
       -0.099199004 -0.4195063 -0.05115218 0.04045971
0000b0 9f 88 b0 bd 58 f1 b0 3e 70 3c 07 bd 37 48 59 3e
       -0.086198084 0.3455913 -0.033016622 0.21218954
0000c0 66 db 00 3e cd 69 fd 3b c1 ba 8b be 30 c6 11 3e
       0.12583694 0.0077335597 -0.2729092 0.14235759
0000d0 f9 87 35 be 82 a1 0a 3d 42 23 db bd 4e 7a 8d bd
       -0.1772765 0.033845432 -0.10700084 -0.069080934
0000e0 3e ae 09 bf 27 5f 47 bd 52 08 80 3c a9 90 71 3e
       -0.537815 -0.04867473 0.015628967 0.2359034
0000f0 00 38 57 be 80 61 dd 3a 57 83 39 bc 9b 9d a0 3e
       -0.21017456 0.0016890019 -0.011322818 0.31370243
000100 4c 2a 25 bf 97 53 ac bd a7 fb e4 3e 31 1b 47 be
       -0.64517665 -0.08414381 0.44723246 -0.19443966
000110 75 c5 b5 3d f4 d2 8a 3e 9c 65 b9 3e 90 11 46 be
       0.088755526 0.2711407 0.36210334 -0.19342637
000120 52 6a 39 3f f5 5c d0 3e cc c1 7a 3e cb d6 76 bd
       0.72427857 0.4069592 0.2448799 -0.060263436
000130 f3 f5 2d be 6c ee 7a be fd 61 0c 3e 09 22 7b 3e
       -0.16988353 -0.24505013 0.13709255 0.24524702
000140 d2 a7 ea bc bd ef ae be 2e 73 82 3d cd e4 b8 bd
       -0.028644476 -0.3416728 0.06369625 -0.09028015
000150 67 23 87 be 36 93 05 3d a0 76 0f 3d d6 1c 02 3f
       -0.26394197 0.032611094 0.03502524 0.5082525
000160 87 a1 24 3e 91 f4 a9 3d 2e 52 2e 3d 70 cc 2e bd
       0.16077243 0.082986005 0.04255884 -0.042675436
000170 21 34 86 3d 55 a6 a2 bd 04 19 17 c0 23 70 2a 3f
       0.065529115 -0.079418816 -2.3609018 0.6657736
000180 fc ba de 3e 10 c2 0b 3e 1b c2 9b 3e ac 99 d0 3e
       0.43502033 0.13648248 0.30421528 0.40742242
000190 7d 65 b2 3d a8 20 ac be 38 c1 83 3d 5b 4a ab 3f
       0.087107636 -0.33618665 0.06433338 1.3382066
0001a0 38 9c 73 bd 59 99 f2 bd 66 1d b6 be cb a4 6e be
       -0.059475154 -0.11845655 -0.35569304 -0.23305051
0001b0 dc c0 6a bc e1 6d 98 bd ca 81 47 bd 9b cc 92 3a
       -0.014328208 -0.07442833 -0.04870776 0.0011199893
0001c0 b8 23 08 be 9f a2 9a 3d 88 29 bc 3d 0b 2f 25 3d
       -0.13294876 0.07550549 0.09187609 0.040328067
0001d0 ae c1 e1 be 5e 49 93 bd b8 03 2f 3e 29 53 0b 3e
       -0.44093078 -0.07191728 0.17091262 0.13605942
0001e0 4d db 1a 3d af a6 9a 3e 8a 90 36 3e c3 d1 40 3d
       0.037806798 0.30205294 0.17828575 0.047075044
0001f0 07 4e 0e bd 19 68 8a 3d 4e c6 b8 3d b4 1e db 3e
       -0.03474238 0.06758136 0.090221986 0.42796862
000200 f3 ec 4a be 5b 5b 1a be 9f b0 3b be a8 36 33 3e
       -0.19816951 -0.15073912 -0.18329094 0.17501318
000210 ca d4 cf 3e 0f d6 12 be 7c a3 8e bf 34 c7 09 bf
       0.40592033 -0.1433947 -1.1143641 -0.53819585
000220 5b e5 b6 3d 8a 25 2d be a2 45 09 3d 06 14 07 3e
       0.08930465 -0.16908851 0.033513673 0.13191232
000230 f5 96 ce 3d 38 6b bd be 9c f0 84 bd ea d7 d4 be
       0.100873865 -0.36995864 -0.06491205 -0.4157098
000240 e5 ef c3 bd c4 0d d0 bd 6f 14 0f bc dc 8f d0 3d
       -0.095672406 -0.101588756 -0.008732899 0.10183689
000250 87 06 86 3e 39 8c 5e bc 5e d4 70 3e 3a bb d1 bd
       0.26176855 -0.013583236 0.23518512 -0.10240789
000260 c8 de e1 bd 6b a0 26 be 07 83 d9 bd fa 20 03 bd
       -0.1102882 -0.16272132 -0.106206946 -0.03201387
000270 2f 98 29 bf 63 d5 14 3f 0b e3 54 be 5f 64 38 3e
       -0.6624784 0.581381 -0.20789735 0.18007039
000280 aa 84 a9 3d d5 1d 41 3e 6f 84 be be cf 9c 67 be
       0.08277257 0.18859036 -0.37210414 -0.22618411
000290 fd 53 a9 bc f5 16 a8 3e 18 e7 8a bd 77 08 a7 be
       -0.020669932 0.32830015 -0.06782359 -0.32623646
0002a0 e9 37 01 bd 8a 79 5d bd 65 8c 7a be 80 04 7a bc
       -0.03154746 -0.054070987 -0.24467619 -0.015259862
0002b0 3c 7f ef be 4d 4f c6 be ab cc ea 3d f4 80 8a 3e
       -0.4677676 -0.38732377 0.114648186 0.27051508
0002c0 0f 07 c5 ba 06 4f 8c 3d 16 d7 68 bd 84 e8 d5 be
       -0.0015032011 0.0685101 -0.056845747 -0.41778958
0002d0 ce 91 90 be 77 de c1 3d 09 f1 e7 be 5b d4 35 3d
       -0.2823624 0.0946626 -0.45301083 0.04439197
0002e0 e8 b2 88 3e 6f a6 12 bf 71 5e 80 3f 8d 31 09 be
       0.26698995 -0.5728521 1.0028821 -0.13397808
0002f0 1f 46 c5 be b4 22 64 3e f3 8b f8 3d 0c c8 11 be
       -0.3853006 0.22278863 0.12136068 -0.14236468
000300 7c 74 01 3d 5f 60 4c 3d 76 75 22 be 89 24 01 bd
       0.03160523 0.049896594 -0.1586512 -0.031528983
000310 b6 44 89 3d 97 6d 20 3e c4 52 48 3d 5b cb 02 3d
       0.06702559 0.15666805 0.048907056 0.031932216
000320 a2 85 c8 bd f9 b1 0a bd 0e f0 2e 3e 29 45 e1 3d
       -0.097911134 -0.033861134 0.17083761 0.109995194
000330 cd 2e 5a 3d ce a9 76 be bc 4b bd 3d 67 34 80 3e
       0.05326729 -0.24088213 0.09242961 0.2503998
000340 2b 0e e0 3d 42 6c 6f bd 91 ea a4 bd e3 30 9b 3d
       0.10940202 -0.058452852 -0.080525525 0.07577684
000350 bf 55 8f be 7e 62 68 bd df 30 37 be c5 57 d3 be
       -0.27995107 -0.056734554 -0.17889737 -0.412779
000360 9f 02 f7 be 85 f6 f2 be 80 fa 08 bd d6 4b 94 3d
       -0.48244187 -0.47453704 -0.03344202 0.07241027
000370 0b 1f d6 3a a4 ac 59 bb 4f 10 e8 bd d7 99 f0 bd
       0.0016336156 -0.0033214474 -0.113312356 -0.117480926
000380 6b a1 7b be 78 ff 45 3f 62 31 b4 bd cf 26 c7 bd
       -0.24573295 0.7734294 -0.087984815 -0.09724199
000390 03 d3 3a 3e ee 06 fa bd 73 4c 41 be 93 08 ef bb
       0.18244557 -0.12208353 -0.1887682 -0.0072947233
0003a0 02 8c 9c be a4 97 81 bd 8a f3 b6 3c 3f ed 4f be
       -0.30575567 -0.06327751 0.022332925 -0.20305346
0003b0 43 5f 12 bd 5f 3f 5d 3d ff 71 90 bd 32 df 83 3d
       -0.03573538 0.054015514 -0.07052993 0.064390555
0003c0 fc b5 da bd fb 70 a9 bd 26 38 e4 bc d7 73 4f 3d
       -0.10679242 -0.082735024 -0.027858805 0.050647583
0003d0 94 07 e0 bc ba e3 b2 3e fe 74 54 3c e8 c3 90 3e
       -0.027347364 0.34939367 0.012967346 0.28274465
0003e0 b5 3e af 3e bf 76 6b bc 3f aa ef 3e 3d 87 ce be
       0.3422753 -0.014371573 0.46809575 -0.40337554
0003f0 56 8d bf 3e e0 a5 30 3e 28 d7 3d 3c 61 e3 e6 bd
       0.37412518 0.17250776 0.011586942 -0.11273838

hiddenLayer3.bias f4 [150]
000000 18 60 8f 40 6b ec 91 3d 3c f3 66 be 13 66 36 c0
       4.48048 0.07125171 -0.22553724 -2.84998
000010 0f 1b 13 3f 5c e6 cb 3f 4b c9 f8 be 65 7e c1 3c
       0.57463163 1.5929675 -0.48591074 0.02361984
000020 12 b4 82 bd 7c e0 28 bf f1 c3 a4 3d e7 2b 49 be
       -0.06382002 -0.65967536 0.08045185 -0.19645654
000030 95 52 26 be 87 11 5e be 2d 53 f4 3f e0 fa d9 be
       -0.1624244 -0.21686374 1.9087883 -0.42574215
000040 76 c7 75 be 43 95 88 40 8a b7 63 bf 09 1f 83 be
       -0.2400187 4.2682204 -0.88951933 -0.25609615
000050 31 8d e5 bd 67 1d 8a 3d 36 37 a3 40 0e 8a de be
       -0.11208571 0.06743889 5.1004896 -0.43464702
000060 0c f9 b9 be 4a 15 bf 3f 81 fa 10 40 88 9d 2a be
       -0.3632282 1.4928372 2.2652895 -0.16661656
000070 17 e9 6b 3d ed 0f 12 40 4e c8 1b 3e da 67 61 be
       0.05759534 2.282222 0.15213129 -0.22012272
000080 1c d2 43 bd ba a0 36 3d 13 89 2f 40 38 58 9a 3f
       -0.047807798 0.044586875 2.7427413 1.2058172
000090 c1 c2 9a 40 2e 46 96 40 e7 2b f5 ba d6 17 84 be
       4.8362737 4.696067 -0.00187051 -0.25799435
0000a0 6a 12 5f be bc 90 63 be 7b 49 97 40 0f 3e 03 bf
       -0.21784368 -0.2222318 4.72772 -0.5126657
0000b0 4a 9b 21 3e 4e a0 10 be e8 68 ac be 45 7c a5 40
       0.15781894 -0.14123651 -0.33673787 5.1714196
0000c0 4d 05 e4 be 24 5f 88 be 6f 4d 7d 40 84 98 c4 bd
       -0.44535294 -0.26635087 3.9578512 -0.095994025
0000d0 50 86 79 3f 47 1b 3b bd e8 64 68 3f 91 8b 88 3f
       0.9747057 -0.04568031 0.9077897 1.0667592
0000e0 d8 b3 31 3e 46 5f ef 3f f6 43 48 be 87 c6 f4 bc
       0.17353761 1.870095 -0.19557175 -0.029879821
0000f0 ca e0 a4 be 84 6b f5 3d 9e 15 45 be 3a 7a 27 be
       -0.3220275 0.119833976 -0.19246528 -0.1635522
000100 9d 60 9d bd 2e 3f 8c bd 11 9e 48 be 42 e4 c7 bc
       -0.07684443 -0.06847988 -0.19591548 -0.024400834
000110 2f 83 bf bd c2 f5 22 be 64 86 a9 40 91 d1 37 40
       -0.09351193 -0.15914062 5.297655 2.872166
000120 5c fb af 3d ec 61 9b 40 5f f5 9d 40 cf 84 4b 3e
       0.08592865 4.8557034 4.9362025 0.19874881
000130 98 55 84 3b bb 67 2e 3e 99 68 97 bd b7 ca 1e be
       0.004038524 0.17031758 -0.07392997 -0.15507017
000140 cf 16 4c bd 1a 5c da 3f 2a cd bf 3f 4b 41 7f 3f
       -0.04982644 1.7059357 1.4984486 0.99709004
000150 9d cc a4 bf 67 eb b2 bd bd 83 5b be 37 73 a4 be
       -1.2874943 -0.08736306 -0.21436973 -0.32119152
000160 2a 0d 17 bd a9 cc b1 bd 1a be be be 92 ce 98 40
       -0.03687779 -0.08681614 -0.3725441 4.775216
000170 a2 65 2c be b8 5d 47 40 c8 9a 2e be fa 5f 0d be
       -0.16835645 3.1150951 -0.17051232 -0.13806143
000180 76 3f 10 3e b3 69 e4 bd fd 51 ef bd 76 e1 1e 40
       0.14086708 -0.11152973 -0.1168556 2.482511
000190 5d 75 17 be 51 98 b5 3f b1 d6 4e c0 4b 94 9a be
       -0.14790864 1.4187108 -3.2318537 -0.30191264
0001a0 16 fe 9f 40 45 c3 ae 3d 13 d0 71 be de 5b 92 bf
       4.9997663 0.085333385 -0.2361453 -1.1434286
0001b0 3a 14 a2 3d f3 87 9a 40 7c 75 20 bf c3 8e 00 bf
       0.07914014 4.8290954 -0.62679267 -0.5021784
0001c0 04 60 97 40 7e f0 aa 3e a7 44 ef bf ad 91 04 bf
       4.7304707 0.33386606 -1.8692826 -0.51784784
0001d0 a7 0c a2 3c 07 f4 9a bb 56 90 9d 40 2f 83 f7 3d
       0.019781424 -0.0047287974 4.923869 0.12085568
0001e0 43 aa 51 bd 0b b0 67 3f 4b 51 9f 40 d4 5d e1 3c
       -0.051187765 0.90502995 4.9786735 0.027510561
0001f0 51 1a 45 be 15 17 35 bf 2d 44 81 3d 12 9b 08 be
       -0.1924832 -0.70738345 0.063118316 -0.13340405
000200 ef 63 94 40 dc 4d fb 3f 58 90 33 be 5f 79 c4 bf
       4.637199 1.9633136 -0.17535532 -1.534954
000210 a6 33 cb bd 95 d6 23 be a3 5d 9b be 4f eb 98 40
       -0.099219605 -0.15999825 -0.30344877 4.778724
000220 24 08 89 bd 49 ad 05 bd 62 11 c5 3d 8f e6 fa be
       -0.06691006 -0.03263596 0.09622456 -0.49004027
000230 0a 6d 83 bc 74 19 14 bf e1 b6 5a 3f 94 65 97 be
       -0.016043205 -0.5785134 0.854353 -0.29569685
000240 25 f9 93 40 1d 25 84 3e e1 ce 23 3f db c9 55 be
       4.624163 0.25809565 0.6398755 -0.20877783
000250 8c 40 f3 3c c5 f0 e3 3d
       0.029693864 0.111299075

outputLayer.weight f4 [2, 150]
000000 7b 84 b4 3e 14 99 5f 3c 34 73 8a 3c 1f 5a 7e bf
       0.35257325 0.0136473365 0.016900636 -0.99356264
000010 33 06 8c 3e 2f a2 77 3c 96 1b c0 be 5a 23 d6 3d
       0.2734848 0.015114351 -0.37521046 0.104559615
000020 ee 90 33 c0 49 25 41 40 ec a2 da bc 72 23 01 bf
       -2.8057208 3.0179007 -0.026689015 -0.5044471
000030 e4 f5 55 3f 72 80 67 3f 0e f6 9e bb ba d9 bc be
       0.83578324 0.90430367 -0.0048511093 -0.36884862
000040 c5 5a ef 3c 74 f9 72 3e b3 cf 91 be 74 14 0e 40
       0.029218087 0.23727971 -0.28478774 2.2199984
000050 b2 41 7b bf 44 08 18 bf c4 b8 0d 3f 0f 1a 09 bf
       -0.9814712 -0.5938761 0.55360055 -0.5355539
000060 ad d4 7b c0 3c b4 21 be e5 97 9c bc fa 2f 98 3e
       -3.9348557 -0.1579141 -0.019115398 0.29724103
000070 30 3c a9 3f ed 07 dc 3c 52 03 85 bf 77 29 5f 3f
       1.3221493 0.026859248 -1.0391638 0.87172645
000080 fe ce 6a 40 cc 50 9b bc 44 7c c1 bd 9b 67 50 bd
       3.6688838 -0.018959425 -0.0944753 -0.050880056
000090 a3 91 f4 3e bc 36 72 3f b8 71 cd bf 9f 0c a9 bd
       0.47767362 0.9461477 -1.6050329 -0.082543604
0000a0 51 9d 2a bf 33 5a 77 3f 7f 4f ba 3e 2d e7 d2 3f
       -0.66646296 0.9662201 0.36388776 1.6476799
0000b0 24 c7 9e 3e ab 69 06 be 39 31 93 3f 6d 9a 61 3f
       0.31011307 -0.13126247 1.1499397 0.8812626
0000c0 68 dd c7 be b9 d4 2c 3f de bd 8f bd 06 de 00 3c
       -0.39036107 0.6751209 -0.07018636 0.0078654345
0000d0 77 ae 2e 40 34 a1 e4 3c 92 db b0 3d 7a 9f a6 3c
       2.7293985 0.027908899 0.0863563 0.020339716
0000e0 49 ef 09 3f 28 67 d3 bb da 9a 2c 3f e0 35 02 3e
       0.53880745 -0.006451506 0.67423785 0.12715864
0000f0 b4 4a b6 3f 2f 2b 0f c0 56 93 d8 be ef 05 76 3f
       1.4241548 -2.2370107 -0.42299908 0.96102804
000100 de d5 e1 bf 08 8f 1a 3e 1e 6e 64 3f 58 84 06 c0
       -1.7643392 0.15093625 0.89230525 -2.1018276
000110 94 10 a0 3e 93 c7 fd 3c c9 af 5c 3f 2d 5b 85 bc
       0.31262648 0.030978953 0.86205727 -0.016278828
000120 be d3 38 bd d5 e7 0d 3f d5 b6 13 3f 0e 04 0c 3f
       -0.045123808 0.5543187 0.57700855 0.54693687
000130 08 3d 04 be 4a d9 00 be f8 78 af be a7 57 39 bf
       -0.12913907 -0.12582889 -0.3427198 -0.7239937
000140 6b 75 73 3f 94 e5 d0 3c 89 db ab bc 98 d4 2f 3f
       0.9510104 0.025500096 -0.020978706 0.6868377
000150 64 68 dc be 6a 3b a8 bd 9a 1f 9e bf 97 1b 67 bf
       -0.43048394 -0.08214457 -1.2353394 -0.90276474
000160 7a e5 db bc 0d 3f 7d bf 4c f4 73 3f 35 d4 f9 3e
       -0.026842821 -0.9892433 0.9529464 0.48794714
000170 ed 69 2f bf 16 de ca 3b cc 76 6c 3b 62 b5 8d bf
       -0.68521005 0.0061910255 0.003608155 -1.1070979
000180 aa 99 8c bd 2c c6 55 3f fe a1 b9 bd bd e7 61 3b
       -0.068652466 0.8350551 -0.09064101 0.0034470402
000190 fa 60 e4 be 96 31 38 bd 4a a5 80 be 7d 9b dc bf
       -0.44605237 -0.044969164 -0.25126106 -1.7234951
0001a0 a6 f5 0b 3f 0b 98 28 c0 86 63 23 3f b4 33 28 bc
       0.54671705 -2.63428 0.63823736 -0.010266233
0001b0 cc 89 33 bf 80 45 2b 3f 4f 55 48 be cb bf 71 be
       -0.70132136 0.66902924 -0.19563793 -0.2360832
0001c0 44 35 f7 3e 49 dd 57 3f 45 25 81 3e 50 84 bb 3c
       0.48282826 0.8432203 0.25223747 0.02289024
0001d0 34 a7 fd 3c 54 3b ae bc ae 3f 09 3f 63 00 4a bf
       0.030963518 -0.021268524 0.5361279 -0.7890684
0001e0 fb 33 61 3f 85 ec a9 bc d9 ff 07 3f f1 fa 0e bf
       0.8796994 -0.020742664 0.5312477 -0.55851656
0001f0 8f 6e 33 3f ec dc 82 3f 12 b9 00 bb 0a af 08 bd
       0.70090574 1.022367 -0.001964156 -0.033370055
000200 57 84 01 3f ae f4 be 3d f6 82 0d be 9c 62 b0 3c
       0.5059256 0.09324013 -0.13819489 0.021531396
000210 89 c6 5c be 66 98 8a be 76 eb 6e 3e 00 84 04 3f
       -0.2156011 -0.27069396 0.23332009 0.51763916
000220 0c f9 49 3d 12 e9 3f 3d 4b 2e 09 3f ce 09 bf 3f
       0.049309775 0.046853133 0.5358626 1.4924867
000230 9a 95 b9 bc 70 78 11 3d 35 cd 89 3c e7 ef bc be
       -0.022654343 0.03551525 0.016821483 -0.3690178
000240 84 0a 05 3f 53 39 b6 3e 14 6f 95 bc bf 03 f1 bc
       0.5196917 0.3559061 -0.018241443 -0.029420732
000250 83 e6 92 3e 60 7e 0f bf 37 0d 16 3f e4 9c 44 bd
       0.2869149 -0.5605221 0.58613914 -0.048001185
000260 7a bf 27 3c 80 20 7e bf a3 1c cb be a4 65 fe 3b
       0.010238523 -0.9926834 -0.39670286 0.0077635814
000270 ba 6f ca be 99 16 3f bd be ab 3a 40 73 36 40 c0
       -0.39538366 -0.04665241 2.9167323 -3.0033233
000280 41 68 e9 3c 6d 56 2e 3f e8 5c 72 bf f2 41 88 bf
       0.028492095 0.68100625 -0.94673014 -1.0645125
000290 01 8c c0 bc bc a3 f7 3e 13 dd 9b 3b 24 5c 73 3e
       -0.023504259 0.48367107 0.0047565787 0.23765618
0002a0 08 b3 0c bf 5b 37 11 c0 e0 32 b0 3f d4 3f 34 3f
       -0.5496068 -2.2690036 1.3765526 0.70409894
0002b0 b7 4d 12 3f 0b 25 9c bc ef 8f 80 40 f9 2f 0b 3e
       0.57149833 -0.019060632 4.01757 0.13592519
0002c0 dc 8b b2 bc 04 c2 94 be 66 fa b8 bf e0 3b 90 3c
       -0.021795206 -0.29054272 -1.4451416 0.017606676
0002d0 d2 ac 8c 3f 9f 14 14 bf 2c 86 67 c0 e3 de 37 3c
       1.099024 -0.57843965 -3.6175642 0.011222574
0002e0 d9 bf ae 3c db 0b 61 3d 5f 02 0b 3f e8 eb 3f 3f
       0.021331714 0.054942947 0.54300493 0.7496934
0002f0 34 a3 d1 3f 95 06 30 3e 9a ab 30 3f 88 94 65 bf
       1.6377931 0.17190011 0.69011843 -0.89679766
000300 5b ea b4 3e 46 ea 70 bf 55 14 99 be 9a ac b6 3d
       0.3533505 -0.9410747 -0.29898325 0.0891964
000310 48 da 9a bf 3f 24 3f 3f 48 2a 01 3f f9 cb 25 bd
       -1.2097864 0.7466468 0.5045514 -0.040477727
000320 af 16 cd 3d ab 14 1b 3c 91 ef 2e 40 48 8b 18 bd
       0.10014092 0.009465377 2.733372 -0.037242204
000330 50 11 6e bd f8 ab a0 bd be 38 56 bf 2f 31 d5 3c
       -0.05812198 -0.078453004 -0.8368033 0.02602443
000340 fa dc 15 bf ba cb 6d be e5 61 b5 bf b6 3b 0a 40
       -0.5854031 -0.23222247 -1.41705 2.1598945
000350 e8 e9 ff 3e b5 c7 84 bf c9 24 e3 3f 3b bb 90 bd
       0.49983144 -1.0373446 1.7745601 -0.070669614
000360 c7 d6 8a bf c0 e0 07 40 85 d8 9e be d2 22 b5 bc
       -1.0846795 2.1230927 -0.31024566 -0.02211133
000370 ac cd 5b 3f 2e fa 64 bc 93 89 c4 3c 63 bb e3 3e
       0.85860705 -0.013975663 0.023991382 0.44478902
000380 f0 45 38 3f 25 b4 59 3f db 8f 66 3a c5 ca 76 3e
       0.71981716 0.85040504 0.000879524 0.24100788
000390 1b 40 d3 3e b1 b1 46 3f 45 3b cf 3d b4 4f 73 bc
       0.41259846 0.77614886 0.10118727 -0.014850546
0003a0 8c b5 51 bd 79 88 54 3f 21 6a fd 3e c2 6f cd 3c
       -0.051198527 0.8302074 0.49495032 0.025077704
0003b0 05 3d 9e 3f 2d ec 86 3f d4 a5 29 bc 32 62 7c 3f
       1.2362372 1.0540825 -0.010354478 0.98587334
0003c0 1c 8f 75 bf 58 c4 fe 3e 57 7c 4d 3f 08 37 65 3d
       -0.9592149 0.49759173 0.8026785 0.055960685
0003d0 a4 c0 8d bc 34 f4 51 3e de f7 2c 3e 5a 95 b7 be
       -0.017303772 0.20503312 0.16891429 -0.35856134
0003e0 cd 6c 53 bd 24 6e 5c 3d 34 58 0b 3f 67 12 73 3d
       -0.051617432 0.053815976 0.5443146 0.05934372
0003f0 14 84 20 bd 32 b9 dc 3f 61 52 11 3f 71 38 2a 40
       -0.03918846 1.7244017 0.56766325 2.659695

outputLayer.bias f4 [2]
000000 a0 86 a3 40 0c 95 ae 40
       5.1101837 5.455694
