ftl/pretrain/weight/scratch_hm_0/scratch_hm_0_27.pth (torch, 187615 bytes, 8 tensors)

hiddenLayer1.weight f4 [150, 3]
000000 9a ae d2 bf 2c db a9 be bf b8 08 bf cb 5c 15 bf
       -1.6459534 -0.33175027 -0.534069 -0.58344716
000010 c1 16 ca bc ce 0a 14 bf 46 37 f9 bf e4 cd a4 38
       -0.024669053 -0.57828987 -1.9469993 7.8584795e-05
000020 bc 3b 92 be bc c8 5c bf de cf 5a bd 5d 29 11 be
       -0.285612 -0.86243796 -0.053420894 -0.14175935
000030 85 20 4f bf cd 7e 8d bc 55 14 df be 0b b1 af bc
       -0.80908996 -0.017272377 -0.435702 -0.021446725
000040 0e 6f f4 3a 07 20 a8 ba b4 73 84 3d 49 01 a8 bd
       0.001864882 -0.0012826928 0.06467381 -0.0820337
000050 b3 c2 9c 3e cd 2d cf bc 2b 90 1d 3a d3 9b 9e 3f
       0.30617294 -0.025290394 0.00060105574 1.2391304
000060 c1 eb ba bd a7 fc 39 3c c6 08 ae be 53 8c 8e bd
       -0.09126998 0.011351741 -0.3399107 -0.069603585
000070 41 81 ce bd 06 66 8a be 5a 58 39 bf 30 82 87 bc
       -0.10083247 -0.27030963 -0.7240044 -0.01654157
000080 97 b9 85 bf e2 be 8e bf 7c d7 ac bd 90 7b c4 be
       -1.0447263 -1.1152003 -0.08439538 -0.3837552
000090 0e 0e 9e c0 4c 94 bb 3d 0b 72 ae bc a2 59 46 bd
       -4.9392157 0.09159145 -0.021294614 -0.048425324
0000a0 ab db 18 be 11 5e b6 bb bc 2d 5d bd 97 0a d2 ba
       -0.14927547 -0.005565413 -0.053998694 -0.0016024885
0000b0 60 b4 ed ba 7c 8b 5b c0 d3 e6 88 bc ba 6b cb bb
       -0.0018135421 -3.4303885 -0.016711628 -0.0062079104
0000c0 44 ff 05 be 80 5b 43 bc 2c 4f 59 be 83 41 cc c0
       -0.13085657 -0.011923671 -0.21221608 -6.382997
0000d0 75 b3 f4 bc 51 d6 7c 3c e3 a5 e8 c0 b0 f9 4f 3d
       -0.029870728 0.015431956 -7.27025 0.05077523
0000e0 4f 9b 8b bc fa 2f 99 bc 66 7c 11 bd 4e 4e 01 3e
       -0.01704183 -0.018699635 -0.035519026 0.12627527
0000f0 85 e9 87 bf 62 9e 93 bb 17 08 71 3e b5 00 20 3e
       -1.061814 -0.0045049647 0.23538242 0.1562527
000100 79 b1 e2 39 d9 3f d2 3e 25 26 d0 bf 15 15 d7 bd
       0.00043238307 0.41064337 -1.6261641 -0.10502068
000110 75 e5 b8 3c b9 64 e9 be 53 06 45 3e 4a fd 20 3d
       0.022570351 -0.45584658 0.19240694 0.039304055
000120 a7 02 2c 3e 14 12 0c bb ec 6b a0 3e 48 80 0e be
       0.16797887 -0.002137308 0.31332338 -0.13916123
000130 d9 ab be 3c c5 e7 61 bf 42 e8 e1 bf 08 9e 20 bb
       0.023275303 -0.8824428 -1.7649004 -0.0024508256
000140 7b 60 ec be b1 df 44 c0 8d 04 b9 3a 7a b0 73 bf
       -0.4616736 -3.076153 0.0014115736 -0.95191157
000150 4f 28 42 bf 50 02 a9 bb 95 db 4e bf a0 f0 99 c0
       -0.75842756 -0.0051577464 -0.80803806 -4.810623
000160 d2 fd d7 3c 71 d0 2d 3c df a2 ff 3b e0 ff 65 3d
       0.026366148 0.010608778 0.007801398 0.056152225
000170 9a cc f1 3e b5 c8 30 be 0b d6 64 bd 84 61 e9 3d
       0.4722641 -0.17264064 -0.05586819 0.11395553
000180 35 b0 10 bf 10 d5 5f bd 04 c8 3f bf b1 8e f5 bf
       -0.5651887 -0.05464655 -0.74914575 -1.9184171
000190 11 97 84 bc 87 5a fb 3a 62 86 e8 bf d8 e4 c2 bc
       -0.016185315 0.001917676 -1.816601 -0.023790762
0001a0 7e b2 d9 3c 3f ff 16 3e a9 f5 39 3b 81 b1 1d bc
       0.02657437 0.14745806 0.0028375185 -0.00962484
0001b0 fa c5 04 bf e7 87 a6 3e 0e 4b b7 be 7d 36 0b c0
       -0.5186459 0.3252556 -0.3579945 -2.1752007
0001c0 39 21 1e 3b 81 da 12 be 5b ab 87 bc 3b e9 37 ba
       0.002412869 -0.14341165 -0.0165612 -0.000701565
0001d0 89 9e e3 bc c9 b2 80 c0 32 d3 a3 bd 85 8a 11 be
       -0.027785556 -4.0218244 -0.07999267 -0.14212997
0001e0 c4 9e be bc 23 6c fe 3c 87 e1 a6 3f 76 aa 97 bf
       -0.023269065 0.031057423 1.3037575 -1.1848896
0001f0 d1 1e a4 be 8e c7 8f bf 10 e8 35 c0 2f 89 39 3c
       -0.3205476 -1.1232774 -2.842289 0.011324211
000200 f9 db a8 bd 9b 06 8e bd c4 67 ef bb 70 d8 83 3d
       -0.082450815 -0.06934854 -0.007306071 0.064377666
000210 7e 02 48 bf 19 6f c0 bd 42 f5 2e bf db e2 c2 be
       -0.781288 -0.0939619 -0.68342984 -0.38063702
000220 42 a8 89 3b 18 ec 9f bc f6 41 86 3e 25 2f 49 bc
       0.004200966 -0.019521758 0.262222 -0.012279307
000230 16 78 30 3f 7f ca 4f c0 a0 5d af bc 4b a0 e8 3b
       0.68933237 -3.2467344 -0.021406949 0.0070991865
000240 e1 45 f4 bf c3 59 40 3d f0 9d bf bc 47 78 b8 bd
       -1.9083825 0.046960603 -0.02339074 -0.09007316
000250 98 94 dc 3b 1d b3 8a be aa d9 02 bf af 94 04 38
       0.006731581 -0.27089778 -0.5111338 3.1609725e-05
000260 1d 58 df bd ad 84 e4 bf d7 35 24 be 37 85 61 3d
       -0.10905478 -1.785299 -0.16036163 0.055058684
000270 42 ac 2e c0 0d e2 94 3c 2d f3 3b 3e e0 e1 a3 bd
       -2.7292638 0.018174196 0.18354483 -0.080020666
000280 01 cc 04 bc 9d a8 a4 bd f2 20 0c bf c0 50 5c bc
       -0.008105279 -0.08039973 -0.5473777 -0.013446987
000290 9f d9 e3 bd 38 f6 eb bb ac fc d6 3d 6e 98 60 bf
       -0.11125492 -0.0072009824 0.10497412 -0.8773259
0002a0 ab f6 16 bf 6a ca b3 3b 19 ce 82 bf a4 46 a2 bd
       -0.58970135 0.005486776 -1.0219146 -0.0792363
0002b0 00 08 06 bb 21 dd c0 bd 82 c4 ee c0 12 15 9c 3d
       -0.0020451546 -0.09417177 -7.461488 0.07621206
0002c0 d7 7e df 3c 92 aa 89 be db 4a 42 3e e9 0b 1d bf
       0.027282162 -0.26887947 0.18973868 -0.613463
0002d0 e7 9f 46 c0 79 a8 62 bd 00 f3 b1 3c ad 96 30 c0
       -3.1035097 -0.05533645 0.021722317 -2.7591965
0002e0 ae f7 71 3b d4 67 6c bf cd 81 9d bc 01 c1 3f bc
       0.003692131 -0.9234593 -0.019226933 -0.011703731
0002f0 4f cc ac bf f8 da d3 be ac dd 8f 3e db a3 d1 be
       -1.349985 -0.41377997 0.2809881 -0.40945324
000300 97 2c d9 bf b1 e8 13 bd 69 b3 fa be cd b0 cd be
       -1.6966733 -0.036110584 -0.48965004 -0.4017395
000310 52 fd 84 3c 85 3a 03 be 0c 52 04 be d3 3f ad 3c
       0.016234074 -0.12815292 -0.12921923 0.021148598
000320 de 34 05 bc c4 03 a2 39 da a0 f5 3b 55 17 65 3f
       -0.00813028 0.00030901853 0.0074959816 0.89488727
000330 3e 74 20 bf 99 d7 8f bc e9 d6 84 be 6d 3c 60 bf
       -0.6267737 -0.01755886 -0.25945213 -0.875922
000340 86 54 c1 b9 6a dd 15 bf 8a 43 94 bf e3 01 35 bc
       -0.00036874803 -0.58540976 -1.1583111 -0.011047813
000350 c7 28 93 bc eb 3a b0 c0 ed 48 8f bb 71 c1 42 bf
       -0.01796378 -5.507192 -0.004372707 -0.7607642
000360 da 92 8e 3c 6d 80 f2 3d 6c ee 7b 3f a2 0a 90 bd
       0.017404009 0.118409015 0.9841068 -0.07033278
000370 9e d2 96 b9 d6 0f e9 3d 1b 5b 67 bd 4b b7 c4 ba
       -0.00028767152 0.113799736 -0.05648337 -0.0015008239
000380 ac f6 a8 3e f4 2f c8 bd af 75 db 3b 41 05 40 3d
       0.33000696 -0.09774771 0.0066973786 0.04688001
000390 c7 22 ef bf fd 9c 02 3c dc e2 dd be 28 94 e6 3d
       -1.8682488 0.007971999 -0.43337142 0.11258727
0003a0 18 59 39 be 45 8b f8 bc 55 c0 94 be c0 f2 9d 3e
       -0.18100393 -0.030339846 -0.29052988 0.30849266
0003b0 1e 8c 24 3c 43 5d d7 be d3 39 fd 3b 56 30 86 3f
       0.010043172 -0.4206334 0.0077278404 1.0483501
0003c0 47 df b4 c0 fc 22 1b 3b e8 9f 5c be 50 a4 7e bf
       -5.6522555 0.0023671975 -0.21545374 -0.9946947
0003d0 d7 d2 5b be 85 6d 1a bf 7d d1 cd be d5 47 b7 bd
       -0.21467148 -0.60323364 -0.4019889 -0.08949248
0003e0 1c 79 59 be 0d 29 19 38 ac 6d 87 3a 78 6a 1a bb
       -0.21237606 3.6516274e-05 0.0010332367 -0.0023561995
0003f0 9c 6d 8e c0 c0 79 8d 3b af e0 06 bf f3 10 17 c0
       -4.45088 0.0043174922 -0.5268659 -2.3604095

hiddenLayer1.bias f4 [150]
000000 84 88 e3 bf 0b 97 d8 be dc c5 4c be 36 ad e5 be
       -1.7776036 -0.42302737 -0.19997352 -0.44858712
000010 71 fe bd be c9 17 1e bc 4c 68 15 40 b6 03 28 40
       -0.37108186 -0.0096492255 2.3344908 2.6252265
000020 5a 76 9b 3f 0b 3c 33 bf 44 96 27 bf e3 da 1d bf
       1.2145493 -0.70013493 -0.6546366 -0.6166212
000030 d5 68 06 bf 16 b1 4e bf 21 c9 1b bc 43 0c 32 be
       -0.5250371 -0.8073896 -0.009508402 -0.1738749
000040 b9 b6 a0 3f 66 7c d1 be af 9b ee be 02 e3 fa 3f
       1.2555763 -0.4091522 -0.46603152 1.9600527
000050 37 06 6b bf 13 a4 84 c0 ce 12 14 bf 77 cf ae bf
       -0.9180636 -4.1450286 -0.57841194 -1.3657063
000060 69 75 28 c0 c6 2a 35 bf 2d 1b c4 be 35 da 2f bf
       -2.6321661 -0.7076839 -0.38301983 -0.6869233
000070 14 df fe be ee 65 f7 be 5d d0 35 40 b9 ed e0 bf
       -0.4977957 -0.48319954 2.8408425 -1.7572547
000080 aa 81 31 bf 8b 6b 16 be 53 f4 9e be d1 f5 8d c0
       -0.69338477 -0.14689462 -0.3104578 -4.436257
000090 e3 86 d1 bf be 9a 34 be 45 79 08 bd 46 72 12 bf
       -1.6369289 -0.17637154 -0.033318777 -0.5720562
0000a0 9b 4e d4 3f e9 5a f4 bf b0 eb ed 3d ea b9 1c 3f
       1.6586488 -1.9090244 0.116172194 0.6122118
0000b0 a2 db 56 bf 96 94 2c 3f 63 9d 63 c0 94 d9 c5 3d
       -0.83928883 0.67414224 -3.5564811 0.0966064
0000c0 e0 ad dd be 45 66 39 be 96 5c 63 3f 88 86 85 bf
       -0.4329672 -0.18105419 0.8881315 -1.0431681
0000d0 18 fd 71 bf ba 3e 65 3f 5b cd df 3e 7d 89 8c bf
       -0.94526815 0.8954884 0.4371136 -1.0979458
0000e0 b7 3b 15 bf a8 8a 66 3f 62 d3 86 bf 24 94 8c bf
       -0.5829424 0.9005532 -1.0533259 -1.0982709
0000f0 cc 00 37 bf 95 87 29 bf 2b 98 0b 40 a8 cf ba bf
       -0.7148559 -0.66222507 2.1811626 -1.4594622
000100 5f 14 0c bf 77 01 10 be b9 b5 01 bf 7a 9c b8 bf
       -0.54718584 -0.14063059 -0.5066791 -1.4422753
000110 10 e9 89 3f 0e f7 ab be 1c de 15 be 8f c8 24 bf
       1.077425 -0.33586925 -0.14635509 -0.6436853
000120 92 a9 82 c0 b3 50 fb 3f 90 c6 03 3f 30 2d 54 3f
       -4.0831995 1.9634002 0.5147486 0.8288145
000130 25 3c d1 be b7 81 06 40 bb 2d b8 bf 91 d4 6a c0
       -0.408662 2.1016672 -1.4388956 -3.669224
000140 6f 36 b0 be 47 59 a5 bf 0b b7 23 bf 62 4d e9 bc
       -0.3441653 -1.291787 -0.63951176 -0.028479282
000150 64 f4 cf be 49 ed f9 bd 5e 79 72 bf e7 0e 09 bf
       -0.40616143 -0.12203462 -0.9471644 -0.53538364
000160 a0 b2 88 be 12 2c 87 bf b3 53 2d c0 49 d7 a9 3f
       -0.2669878 -1.0560324 -2.7082336 1.3268825
000170 d3 9a 35 bf aa 55 e3 be dd 00 c4 bf 53 be 08 40
       -0.7093937 -0.44401294 -1.5312763 2.1366165
000180 8e e3 95 3f c3 cf 51 bf 95 15 f7 3f 4e d9 60 bf
       1.1710069 -0.81957644 1.9303461 -0.8783158
000190 74 09 87 be 6a 6e 14 be 04 c2 22 be 38 15 84 bf
       -0.263744 -0.14495245 -0.15894324 -1.0318975
0001a0 63 a8 67 bf 85 1c 23 bf 97 5f 7b bf b6 7e bd bf
       -0.9049131 -0.6371539 -0.98192734 -1.4804294
0001b0 d9 c6 82 bf 26 8b 88 be 2a 07 ca bd c9 58 13 3f
       -1.0216933 -0.26668662 -0.09864648 0.5755735
0001c0 08 29 38 c0 1f 02 97 be 90 59 0b bf 61 33 8f bc
       -2.8775043 -0.29493806 -0.54433537 -0.017480554
0001d0 e1 71 9f bf db 5e ee be 85 0f 8e bf ab 8e 8b bd
       -1.2456628 -0.46556744 -1.1098486 -0.06814321
0001e0 d8 98 31 be a2 a3 db be 19 ba 9c c0 c0 83 03 40
       -0.17343462 -0.4289828 -4.897717 2.0549164
0001f0 2d 5a d7 bd 57 50 ea bc 95 43 78 bf e3 ee 0f bf
       -0.105152465 -0.028602762 -0.9697812 -0.5622389
000200 c8 b5 c2 be 42 23 4f bf a1 8c 6f bf 4f 44 54 bf
       -0.38029313 -0.80913174 -0.9357396 -0.8291673
000210 cc bf 00 bf 35 6e b0 be ba 3e 16 c0 20 f9 ab be
       -0.5029266 -0.3445908 -2.3475785 -0.33588505
000220 e3 96 4e be 35 08 c3 be 99 58 b2 bf 63 6c a1 bd
       -0.20174746 -0.380922 -1.3933288 -0.07882001
000230 d9 86 31 40 c7 2d bf bf f8 63 c9 bf eb 41 5d bf
       2.7738554 -1.4935845 -1.5733633 -0.8642871
000240 6b 10 22 bf af 0a 15 bf 0d 85 9f bf 69 8d 8e bf
       -0.633063 -0.58219427 -1.2462479 -1.1136905
000250 c8 d2 1f bd b8 a5 19 40
       -0.039019376 2.4007397

hiddenLayer2.weight f4 [150, 150]
000000 a8 17 f8 bf 8e f3 03 3f 86 96 ec be ea 88 f2 bf
       -1.9382219 0.5154351 -0.4620859 -1.8948033
000010 f8 fb 97 be d5 e0 5a 3d db 6d 18 be e6 f1 c5 be
       -0.29684424 0.053437073 -0.14885657 -0.38661116
000020 4b 02 87 3e c1 6c 09 bf a3 98 a6 bf 52 ee 98 be
       0.26368937 -0.5368157 -1.3015331 -0.29869324
000030 5d e5 ea bf 7f 7a c9 bf ac 71 fc 3d 4e 0c 24 bf
       -1.8351246 -1.5740508 0.12326369 -0.64081275
000040 cf dc e8 be b1 58 81 bf 36 7f 9d bf f9 61 73 be
       -0.45480964 -1.0105191 -1.2304447 -0.23767842
000050 56 dd 0f c1 1c af a5 be d9 a8 08 bf 5f de 99 3f
       -8.991537 -0.3236016 -0.5338264 1.2020987
000060 bd 31 5b bf c2 49 e5 bd 00 d7 ef c0 b7 de 3c bf
       -0.8562277 -0.11195709 -7.494995 -0.73777336
000070 f7 5b f6 bd 14 2d 75 bf 80 e5 d7 bd a2 96 7f be
       -0.1202926 -0.9577191 -0.105418205 -0.24959806
000080 78 04 06 bf 5d c3 15 be 6a a4 88 3e 4b 72 83 be
       -0.5235057 -0.14625306 0.26687938 -0.25673136
000090 a8 01 83 3e 81 b5 90 3d 8d 36 8b 3d bc f9 f0 be
       0.255872 0.07065869 0.06797514 -0.47065532
0000a0 35 fc 4c bf a5 8b 25 be f4 c4 51 bf 01 b0 97 bd
       -0.8007234 -0.16166551 -0.8194115 -0.07406617
0000b0 a4 a1 f3 be 50 16 c8 3e cf 2f 5d bf f9 c6 0d 3e
       -0.4758426 0.39079523 -0.86401075 0.13845433
0000c0 39 a4 4e 3f d9 93 f5 3d ec 2a 3b 3f e2 39 35 c0
       0.80719334 0.1199109 0.7311237 -2.831658
0000d0 ac 77 44 3e 80 b7 89 be 4c d8 0c c0 ac b9 d2 bf
       0.19186276 -0.26897812 -2.2007017 -1.6462913
0000e0 0b ae e2 bf 3e 08 32 3e 4a 5e 42 40 5f 80 f6 be
       -1.7709364 0.17385957 3.037005 -0.48144814
0000f0 60 23 44 c0 89 a9 98 3e f7 91 cc 3e 4a 25 89 3f
       -3.064659 0.29816845 0.39955112 1.0714505
000100 4b c5 32 3e cd 0d 16 3e fb 5a 89 bd 9c 42 b1 3f
       0.17458074 0.14653702 -0.06706806 1.3848453
000110 64 57 a2 be 14 21 9a be 95 77 13 bf 3f 09 8a be
       -0.317073 -0.30103362 -0.5760434 -0.2696018
000120 77 0d 54 40 03 a0 df 3d 24 e9 97 be 2f a2 9c be
       3.3133218 0.10919192 -0.2967006 -0.30592486
000130 7c 19 17 bf b4 75 ba be db 37 c7 3e 39 ba ac bf
       -0.5902326 -0.36417925 0.38909802 -1.3494331
000140 22 5f a9 bf 15 71 ca bf 30 57 a8 be 7f ab ab bd
       -1.3232157 -1.581576 -0.3287902 -0.0838232
000150 78 bb bb 3e 09 68 ad be ee c1 e8 be ac f4 64 bf
       0.36666465 -0.33868435 -0.45460457 -0.8943584
000160 b9 33 d8 be 1e d4 2e bf 5a 8f 81 c0 02 6f 0b 3e
       -0.4222696 -0.68292415 -4.048749 0.13616565
000170 85 00 92 c0 ce d3 3f 3f 67 f1 8d c0 c0 66 9a 3d
       -4.5625634 0.74932563 -4.435718 0.07539129
000180 b9 16 0c 3e e1 5c 4c bf 05 93 c0 3d ad 16 3b c0
       0.13680543 -0.7982922 0.09403042 -2.923259
000190 08 43 f0 bf 44 a3 c3 bf 04 33 0e be f4 70 16 c0
       -1.8770456 -1.52842 -0.13886648 -2.350644
0001a0 f5 61 e7 be d5 60 2f 3e 43 1d 4c 3e 01 87 8a 3f
       -0.45191923 0.17126782 0.19933037 1.082245
0001b0 c7 8b 50 c0 56 e9 30 c0 93 e8 10 be 50 86 3a be
       -3.2585313 -2.7642417 -0.1415122 -0.18215299
0001c0 e3 e6 49 c0 e1 2d 96 bf 04 4c 39 3d d8 e3 2d 3c
       -3.1547172 -1.1732751 0.04523851 0.010613404
0001d0 b6 d7 32 c0 99 04 4b bf 97 38 ed be bb 78 70 c0
       -2.794416 -0.7930389 -0.46332237 -3.7573688
0001e0 e7 f2 33 be 8d 38 c2 c0 a5 16 a3 bf 0c a1 96 be
       -0.17573129 -6.069403 -1.2741286 -0.29419744
0001f0 35 d9 a9 3d 2e 00 74 be 5a f7 1d c0 27 ca 0e bd
       0.08293382 -0.23828194 -2.4682221 -0.034860756
000200 fa 73 d8 3f 14 da 10 bf 35 5d 43 40 47 e2 57 bd
       1.6910393 -0.5658276 3.052564 -0.05270603
000210 db df 3f bf 7c d5 45 3d c4 f0 65 c0 4c 27 3b 3f
       -0.7495095 0.048299298 -3.5928202 0.7310684
000220 74 e5 e7 bc c4 6e 10 c0 16 aa 04 3f 1e c7 a0 bd
       -0.028307654 -2.2567606 0.5182203 -0.078504786
000230 fa c2 1a 3e d6 fd a1 c0 d9 5a 86 bd 0e d9 86 3d
       0.1511344 -5.062236 -0.065602966 0.06584369
000240 25 b5 9d be ad 88 82 bd 0b 55 34 3f e0 2e 9b 3e
       -0.30802265 -0.06373725 0.70442265 0.303092
000250 b6 b2 58 3d 67 ab 6a be d1 9f a5 be b4 67 ca bf
       0.052904807 -0.22916947 -0.32348493 -1.5812898
000260 ee 02 b1 be 1c 8b 19 bf 58 d3 e8 be e9 b6 09 3d
       -0.34572548 -0.5997789 -0.45473742 0.033621702
000270 dc 8f 1d be f3 6d c7 bd 66 15 28 be 10 af 0b 3e
       -0.15386909 -0.09737768 -0.16414413 0.13641
000280 39 ed de c0 22 0d e5 be 1a 3f ea bf 1e eb bc c0
       -6.966458 -0.44736582 -1.8300507 -5.903701
000290 72 27 6f bc 0a a7 52 3f 46 b0 a4 bd f8 dc 5d bf
       -0.014596807 0.8228613 -0.08041434 -0.86665297
0002a0 0f 67 39 bf 8f 4c 2d be ba 1e 14 bf 09 c0 33 3e
       -0.7242288 -0.16923736 -0.57859385 0.17553724
0002b0 a1 94 45 c0 f6 1e 81 bf cd bb 12 c0 6a 19 f6 3e
       -3.0871966 -1.0087574 -2.2927125 0.48066264
0002c0 4c fe c1 bf 2b d8 1e 40 d0 6e 53 bf 79 f1 3c 3c
       -1.515573 2.4819438 -0.8259096 0.011532181
0002d0 bd f9 af 3d b9 c2 ac bf 72 d2 1d 3f fe cb a3 bf
       0.08592556 -1.3496925 0.6164924 -1.2796628
0002e0 29 61 17 bf 50 06 06 3f 13 70 f5 3f 01 39 8b bd
       -0.5913263 0.5235338 1.9174827 -0.06797982
0002f0 4f d7 42 3d ef f2 8a bf 69 6f 03 bf 32 96 52 40
       0.047568616 -1.0855387 -0.51341873 3.2904172
000300 6e 0d 51 bd 92 18 c1 be 4d df 10 bf 17 b2 9c be
       -0.0510382 -0.37714058 -0.5659073 -0.30604622
000310 2f 9a 13 c0 d1 1e 67 be 47 4c 15 bd 7c 3c 77 be
       -2.3062856 -0.2257035 -0.036449697 -0.24144167
000320 87 2f 38 3e 73 fd 46 c0 a1 58 0a 3e 88 e9 7e bf
       0.1798688 -3.1092193 0.13510372 -0.9957509
000330 ea 0d c0 bc 6f 7f f6 be e2 49 0c c0 19 ca 7f be
       -0.023444135 -0.481441 -2.1920094 -0.24979438
000340 1a 60 09 bf d4 7b 80 be db e3 2b bf 77 c4 7e be
       -0.53662264 -0.25094473 -0.67144555 -0.24879633
000350 00 18 cb bd e2 ed 2b 3f 1e f6 e5 3f c2 55 54 bf
       -0.09916687 0.67159855 1.7965734 -0.82943356
000360 4c 24 29 bf ed a8 94 be b2 5e 18 3e 9c 09 d5 bd
       -0.6607101 -0.2903513 0.14879873 -0.104022235
000370 10 11 9d be 29 14 94 bf 17 f9 80 bc af 64 13 bc
       -0.3067708 -1.1568652 -0.015743775 -0.008996173
000380 e5 e2 c2 bd 73 17 f8 be 59 a7 7c 3e eb 66 03 bf
       -0.09515933 -0.4845539 0.24673213 -0.51328915
000390 43 f3 2b b8 70 14 f9 bf 35 68 cc 3e 5f bc da bf
       -4.0996132e-05 -1.9459362 0.39923254 -1.7088736
0003a0 1a 18 88 bf 20 2d 2f bd d1 cb 97 be 74 cd 27 bf
       -1.0632355 -0.042767644 -0.29647687 -0.6554787
0003b0 06 32 a4 bf 87 06 ca be 78 3b df bf e3 a2 79 3e
       -1.2827766 -0.39458105 -1.7440023 0.24378543
0003c0 e1 6f 06 bf 84 81 0b bf e8 87 2e c0 b0 71 24 3f
       -0.52514464 -0.544945 -2.727045 0.64235973
0003d0 ce 2b fd be 29 d8 88 bd fe 19 21 bc cc 2d 82 be
       -0.49447483 -0.06681854 -0.009832857 -0.25425565
0003e0 a1 6a 14 3e b3 42 78 be a3 4e a1 3e d4 23 86 bf
       0.144938 -0.24244194 0.31505308 -1.0479684
0003f0 4c c5 24 be 38 44 ca bf 0a 01 dd bd 92 fd f3 bd
       -0.16090888 -1.5802069 -0.10791214 -0.11913599

hiddenLayer2.bias f4 [150]
000000 62 b6 4d 3e 3a 42 8b 3e 7f c1 5a bd 41 77 a3 3f
       0.20089105 0.27198964 -0.05340719 1.2770768
000010 06 dc aa bd 9e d6 72 be 2a ef d8 3d 61 a4 c1 bd
       -0.083427474 -0.23714682 0.10592492 -0.09455181
000020 60 0a 74 3f 4e e4 a3 bc 2b 30 8a 3e ce 45 7e 3e
       0.9532833 -0.020006325 0.26989874 0.24831316
000030 45 cb 12 3f d9 81 66 bd 81 99 02 bc 9c 5f 57 bd
       0.57341415 -0.056276176 -0.0079711685 -0.052581415
000040 03 44 4d 3f 8f 32 98 3c b9 3b 1b bf c1 30 9e 3e
       0.801819 0.018578796 -0.60638005 0.3089657
000050 0a c3 d3 be 79 81 a4 bc 6a 9a 41 3e 6d 1f f0 bd
       -0.4135974 -0.020081269 0.1890656 -0.11724744
000060 17 4b 7b bd 75 bd 59 3d 76 3b bb 3f 49 19 0c 3f
       -0.061350908 0.053159196 1.4627521 0.5472608
000070 74 42 6b 3d ac 71 53 3e 39 7f b7 3e 10 7c 8f bd
       0.05743642 0.20648831 0.3583925 -0.07006085
000080 a2 29 8f 3d e4 27 98 3d 52 e2 3e 40 16 0a 30 bc
       0.06990363 0.074294835 2.9825635 -0.010744592
000090 eb 39 91 bd d3 77 2a 3e c7 f2 21 bd 79 78 6b be
       -0.07091125 0.16647272 -0.03953817 -0.22995175
0000a0 91 19 2f 3e 98 12 52 bd d7 00 0b 3f 72 94 d5 bc
       0.17099597 -0.051287264 0.54298156 -0.02607176
0000b0 96 5a 27 bd e3 0d 25 be 9b 1b cd be 00 52 e3 be
       -0.040857874 -0.16118579 -0.40060124 -0.443985
0000c0 ef 30 58 3f ec 8c be 3e 51 7e e3 bd 84 b0 32 3e
       0.84449667 0.3721689 -0.11108077 0.17450148
0000d0 ea 90 a6 3d 0a d6 ea bc d0 b2 ed bd 85 9e ea 3e
       0.08133109 -0.028666515 -0.116063714 0.45824066
0000e0 e0 f8 7b bd 57 8e d8 be 7b b8 20 40 aa 2a 07 3e
       -0.061516643 -0.42296097 2.5112598 0.13199869
0000f0 43 b4 b8 bd c9 3c c0 bb 61 74 03 3d c8 28 67 3c
       -0.09018757 -0.005866621 0.03209341 0.014108844
000100 e0 f4 15 3e 03 d1 50 3d 63 0a e8 be 52 59 93 3e
       0.14644194 0.05098058 -0.45320424 0.28779083
000110 ef 20 9c 3e 53 55 25 3f e2 50 49 3f 10 7c 98 bd
       0.30493876 0.6458332 0.7863904 -0.07445538
000120 4e 3d 9f bc 61 32 75 40 31 f4 a0 3c c9 54 2a be
       -0.019438412 3.8312 0.01964769 -0.16633905
000130 b2 75 e0 3d ab 33 02 bf 53 31 cd be 09 88 39 3e
       0.109599486 -0.5086009 -0.40076694 0.181183
000140 1b b7 45 c0 a8 2d 03 3e 42 5a 09 3e f0 da 24 bf
       -3.0893009 0.12810385 0.13413337 -0.6439657
000150 f4 3a 8b 3d ca da de 3e 3f be 1d 3e 31 41 de bd
       0.06798354 0.43526298 0.15404604 -0.10852278
000160 92 a1 76 3f 12 5e 67 bc 44 32 ec 3c b3 e8 7b 3f
       0.96340287 -0.014121549 0.028832562 0.98401946
000170 69 9a 85 3c 33 da 8e bd 92 14 d3 bb 01 b1 b8 bd
       0.01630898 -0.06975212 -0.006441661 -0.09018136
000180 c3 bf 67 3e a9 7a 55 3d 6d dd d4 3c 7a 7b 6c 40
       0.22631745 0.05211893 0.02598449 3.6950364
000190 ce fc ab bd ab 5c 18 bd c5 b8 85 bd 2b e6 a5 3f
       -0.08397828 -0.03719775 -0.065293826 1.2960867
0001a0 35 03 4c 3d 23 48 f3 3e d5 2e 72 be 84 32 2a 3c
       0.049807746 0.47515973 -0.23650678 0.01038802
0001b0 7a ee 62 40 0e b1 75 be cc 48 a0 3d 24 5b d8 3f
       3.5458055 -0.23993322 0.07826385 1.6902814
0001c0 31 1b f5 3e c2 c6 15 40 ed a2 55 40 ff 4e e5 bc
       0.47872308 2.3402562 3.3380692 -0.02799177
0001d0 7b d1 bc bf 1b 0d 18 3e 81 a1 8d be 6d c1 1b 3d
       -1.4751428 0.1484875 -0.2766228 0.038026262
0001e0 02 60 8e bc aa bc ff be 2b d9 82 3d 7f 73 76 bd
       -0.017379764 -0.49948627 0.06389078 -0.06016874
0001f0 aa 05 c0 be a4 d4 53 40 7a 1d be be 1a 42 cf 3c
       -0.3750432 3.3098536 -0.37131864 0.025300074
000200 9c b3 41 3e 83 4d 07 3b 88 c4 8e 3f a7 3f e8 3e
       0.18916172 0.0020645566 1.1153727 0.45361063
000210 81 98 77 40 a5 f7 0e 3e f3 cd ad bc b2 99 3a 3f
       3.868683 0.13961656 -0.021216368 0.7289077
000220 84 dc 4f be 04 0e 26 3b f2 3a da 3c 83 f5 10 be
       -0.20298964 0.0025337944 0.026639435 -0.14156155
000230 a4 1d 4e 3f 56 10 23 bd 25 8d 2e bd e1 55 f4 3c
       0.8051398 -0.0398105 -0.042615075 0.029826107
000240 bc 69 41 bd 35 62 3c be 73 fd 8e bd 7a e8 dc bd
       -0.047219977 -0.18396838 -0.06981935 -0.10786529
000250 db 9e b1 bb bf e0 89 3e
       -0.0054205484 0.2692928

hiddenLayer3.weight f4 [150, 150]
000000 8a b5 33 bf 5f 2d 15 3e 8b 66 7e be d1 81 64 3e
       -0.7019888 0.14568089 -0.24843805 0.22315146
000010 eb 8c f0 3d a4 e7 00 be 71 ac 17 be a9 84 f5 be
       0.11745628 -0.12588364 -0.14811875 -0.47952774
000020 0c 19 76 3f 40 8d be 3e cc 4a 4a 3e 66 be 24 3f
       0.9613197 0.3721714 0.19755095 0.64353025
000030 36 12 71 be 98 f6 6f 3e f3 1c 40 bc 65 df c0 bd
       -0.23542103 0.23433912 -0.011725652 -0.09417609
000040 51 f2 75 be 48 80 a7 be 0a dd 32 bf 54 c4 bf bd
       -0.24018218 -0.32715058 -0.6986853 -0.093636185
000050 f3 99 f6 be 71 20 5c bd 5f d9 c0 3d 2f 6d 55 be
       -0.4816433 -0.053741876 0.0941646 -0.20842431
000060 a0 26 c8 3d bc 9c a5 be 1b 81 f4 bc ce db 5a 3f
       0.09772992 -0.3234614 -0.029846719 0.85491645
000070 27 e6 0b 3e 87 8f 4a be cd 51 dc 3e 48 f8 5b 3d
       0.13662015 -0.19781314 0.4303116 0.053703576
000080 f9 38 e4 bd f2 39 89 3d 5d fd f8 3e 44 61 37 3e
       -0.11143679 0.06700505 0.486308 0.17908198
000090 42 ab 32 bf cf 4a b8 3c 36 70 1e 3e c1 62 2f be
       -0.6979257 0.022496609 0.15472493 -0.17127515
0000a0 9b 64 c0 3e 10 01 79 3e d9 74 45 40 54 b8 58 3c
       0.37576756 0.24316812 3.0852568 0.013227541
0000b0 d5 d1 c3 3d 91 fd 4b 3e 90 8b b8 bd 22 6e 7a be
       0.09561507 0.19920947 -0.090109944 -0.24456075
0000c0 e2 40 f5 bd 17 c8 a0 bc 11 79 78 be 76 c7 c6 3e
       -0.11975266 -0.01962666 -0.24264933 0.38824052
0000d0 e7 a9 a3 be 09 c8 93 bc 95 3b ba be 66 bb 89 3e
       -0.31965563 -0.01803972 -0.36373582 0.26900786
0000e0 d1 51 df be 78 6a ad be d9 4a 74 3e 73 46 06 be
       -0.43617108 -0.33870292 0.23856677 -0.13112812
0000f0 e1 cc 86 be 47 1c 3e 3e 41 f6 9f 3e d1 96 1f bf
       -0.26328185 0.18565474 0.31242564 -0.623395
000100 bd 32 dd bf d1 58 ab 3d ab 0d d9 3e 45 b3 4b be
       -1.7281109 0.0836655 0.4239324 -0.19892605
000110 21 61 ab 3d a2 13 e8 3f bd 00 82 3f 5d dd 38 3e
       0.08368135 1.8130991 1.0156475 0.18053193
000120 6e 57 e9 3d 04 1e 56 3f c3 a9 90 3e ee 77 50 be
       0.11393629 0.8363955 0.28254518 -0.2035825
000130 e7 55 9c 3c 58 c7 57 be db e3 26 3e c0 5b 9b 3d
       0.01908393 -0.21072137 0.16297857 0.07585859
000140 75 41 6d bf 02 ec 3e bf 64 1d a7 3f e7 08 f2 be
       -0.92678005 -0.7457887 1.3055844 -0.47272417
000150 46 e4 14 3d 3b a5 97 3d 51 61 8c 3c 09 74 9f 3e
       0.03635051 0.07404562 0.017136248 0.31143215
000160 50 68 74 3e 68 b3 b5 3c e7 ad 49 3e 82 e2 65 3e
       0.23867917 0.022180274 0.19695245 0.22449687
000170 bc d4 5e 3e cf 39 7a 3d ec 9b 14 c0 87 b1 82 bf
       0.21760839 0.061090287 -2.3220167 -1.0210427
000180 40 03 73 3b 70 d3 59 3f 8f b7 91 3e 6e c4 5b 3f
       0.0037080795 0.85088253 0.28460357 0.858466
000190 8b ee 52 3d 32 88 d0 be ad 3c 7d 3e fb c4 b3 3e
       0.051497024 -0.4072891 0.24730177 0.35111222
0001a0 38 9c 73 bd 48 38 c3 3c 75 d5 06 bf 17 cf ce 3e
       -0.059475154 0.023830548 -0.5266946 0.40392372
0001b0 e7 55 36 3f 7c b8 08 3e c8 cb d9 be c2 6b dd 3e
       0.71224827 0.13351625 -0.42538285 0.43246275
0001c0 70 87 16 be 14 d8 27 3f 0b fb 42 3f 54 f4 fc bd
       -0.14700103 0.65564084 0.7616431 -0.123512894
0001d0 66 74 1c c1 a9 68 36 bd b3 62 cc 3e 5f cc a4 be
       -9.778418 -0.044533405 0.39919052 -0.32187173
0001e0 79 05 56 3c 37 66 8b 3e 41 29 44 be bb 61 6c 3d
       0.013062828 0.2722642 -0.19156362 0.05771039
0001f0 ec de 02 bd 64 29 f2 3e a9 d1 10 3e 34 51 fe 3e
       -0.031950876 0.47297204 0.14142479 0.49671328
000200 c0 0b c1 be bc ba 18 3f 64 c0 98 3d 8d 36 ea 3d
       -0.37704277 0.59659934 0.074585706 0.11436186
000210 87 ba ef 3e 66 a2 b4 bc 4a ed c7 bf 6d c2 c3 bd
       0.46821997 -0.022050094 -1.561929 -0.09558568
000220 cb 6d 67 be 90 a0 06 be 12 f0 8b 3e 9c 6b b1 3d
       -0.22600476 -0.13147187 0.27331597 0.08663103
000230 ed 33 7c bb 52 fb d9 be 53 50 26 bd 83 73 4b be
       -0.0038483099 -0.42574555 -0.040603947 -0.19868283
000240 e3 60 e4 bc 8f ce a2 bc fd 1e 91 3e 6e d8 35 3d
       -0.02787823 -0.019873885 0.28343955 0.044395857
000250 a0 f5 36 bd 19 53 04 be 8d 05 8d be d5 54 c2 bd
       -0.04466784 -0.12922324 -0.27543297 -0.09488837
000260 0b 99 80 be 2a 1b 68 be bd 84 11 bd 85 f1 97 bd
       -0.25116763 -0.22666612 -0.03552698 -0.07419113
000270 c3 19 46 bf 3b 95 28 3f 37 7f 21 be 8b 0f 4e be
       -0.7738306 0.6585271 -0.15771185 -0.20123117
000280 86 60 a0 3d 1d ca c0 bd 23 fa 90 be 7f 20 f9 be
       0.078309104 -0.0941355 -0.2831584 -0.48657605
000290 fd 53 a9 bc b5 a2 55 3e 98 af 51 bd 57 d6 20 be
       -0.020669932 0.20862849 -0.05119285 -0.15706764
0002a0 ab d8 21 bf 4f a4 be be c0 b8 83 3d 80 04 7a bc
       -0.63221234 -0.37234733 0.06431723 -0.015259862
0002b0 ac c9 18 bf f2 17 f5 be fb 1a 99 3d 40 88 bf bd
       -0.59682727 -0.4786983 0.07475849 -0.093521595
0002c0 7e 45 2c be a8 4e f4 bd 6c 3c a7 be 69 da dd b9
       -0.16823384 -0.11929065 -0.32663286 -0.00042315133
0002d0 90 75 8a be 68 f8 0e 3c 31 55 a5 be 57 bc a0 be
       -0.27042818 0.008726217 -0.32291558 -0.31393692
0002e0 2a a9 b5 3d f3 2a c9 be 3c 2a 18 3f dc 1b a9 bd
       0.08870156 -0.3929058 0.59439445 -0.08257267
0002f0 6c 2b 02 bf 6a c6 31 3e 1b 18 ac 3d b3 68 49 bc
       -0.50847507 0.17360845 0.08403035 -0.012293029
000300 2f a9 84 3c 29 88 df 3c dd fd 36 be 5c 24 ec 3d
       0.016193954 0.027286606 -0.17870279 0.115303725
000310 b2 f4 10 bd 5f 03 2d be b8 f6 46 be f3 d9 eb bd
       -0.03538961 -0.16895817 -0.19430053 -0.1151618
000320 ea 27 99 3c f2 da 1b 3f 96 f7 89 3d 32 1a 95 bd
       0.01869579 0.6088096 0.067366764 -0.07280387
000330 0b 42 30 be e3 b8 21 be 16 ca 92 bd 48 49 f7 bd
       -0.17212693 -0.15793185 -0.07167451 -0.12074524
000340 11 45 fa bd ac cc db be 29 f7 c1 bd 61 70 a7 3e
       -0.122202046 -0.4292959 -0.0947097 0.32702926
000350 9f c5 92 bd 7e 06 9d bd 4e 39 21 c0 d9 51 ae be
       -0.071665995 -0.07667254 -2.5191226 -0.3404682
000360 72 76 a5 be a6 55 df be c8 22 67 bd 4a c1 f8 3d
       -0.3231693 -0.43620032 -0.056429654 0.12146242
000370 d9 de 93 bc 55 34 9d bd 20 ac 04 3d f0 78 d5 be
       -0.018050598 -0.07675997 0.032390714 -0.4169383
000380 16 6f 11 bf 15 de 57 3f e9 b8 00 be 62 b0 b3 bd
       -0.5681013 0.84323245 -0.12570538 -0.08773877
000390 41 62 4d be 33 52 61 bd 91 e5 14 3e 27 68 0b be
       -0.20057012 -0.055010032 0.14540698 -0.1361395
0003a0 0a 4f d2 3e 54 5b b8 3e ca 98 8f bd df cb 21 be
       0.41075927 0.36007178 -0.07011564 -0.15800427
0003b0 b9 25 15 be 23 c4 05 3e cf 36 a9 be 32 df 83 3d
       -0.14565171 0.13063101 -0.33049628 0.064390555
0003c0 12 d2 73 be 9a 6b cc be 22 6c a3 bd c0 19 6b bc
       -0.23810604 -0.39925843 -0.07979609 -0.014349401
0003d0 39 aa 82 3c 6e 98 98 be 5b 66 33 bd 4e 40 7d 3f
       0.01595031 -0.29803795 -0.043798786 0.98926246
0003e0 a4 dc da 3e 01 18 c0 bd 70 b6 af 3c 43 98 2e be
       0.4274646 -0.093795784 0.021449298 -0.1705027
0003f0 1f 80 89 3e 1c 6a 0d 3e 28 d7 3d 3c 8d a1 1b bd
       0.2685556 0.13810009 0.011586942 -0.037995864

hiddenLayer3.bias f4 [150]
000000 e5 c6 6c 40 60 a8 da 3f f7 76 5b 40 f6 d7 ba bc
       3.6996396 1.7082634 3.429136 -0.022808056
000010 09 37 12 3f 49 01 69 40 82 d5 96 be 99 44 2e 3e
       0.57115227 3.6407034 -0.2945977 0.17018355
000020 de 6d cd bd 7d 1e 3d bf ee 0a 0c 3e 4f fe a8 3e
       -0.10030721 -0.73874646 0.13676044 0.33006522
000030 c3 5d 44 be c3 ee 87 be 0a 3a bc 3f 6a 97 cf be
       -0.19176392 -0.26549348 1.4705212 -0.40545207
000040 6c 6e a7 be ca 3f 7e 40 15 a5 ed bb 85 5d 91 be
       -0.32701433 3.9726434 -0.0072523453 -0.28391662
000050 9f 4c 0e be 0f 44 3b 3f cc 47 8d 40 03 28 e0 be
       -0.13896416 0.73150724 4.4150143 -0.43780527
000060 2b f6 d7 be 8a d8 96 3f 8d a1 82 3f c6 c9 30 be
       -0.4218 1.1784832 1.0205551 -0.1726447
000070 50 f4 a2 3c ce ac 00 40 01 eb 89 3e af aa 8d be
       0.019891888 2.0105472 0.26937106 -0.27669284
000080 c6 f9 86 bd 6d 9d 65 3d bc c3 4f 3f cd 7d 86 40
       -0.06590609 0.056058336 0.8115804 4.2028565
000090 33 5a 7e 40 a5 ce 64 40 a2 01 d8 3d bb 72 51 be
       3.9742553 3.5751126 0.105471864 -0.20453922
0000a0 ae 17 90 be 10 fe a9 be d5 91 19 40 8d 22 0a bf
       -0.28143066 -0.33201647 2.399526 -0.5395897
0000b0 3c d0 17 3e 33 5f c4 bd f9 80 bb be 1a 9b 29 40
       0.14825529 -0.0958847 -0.36621836 2.6500916
0000c0 c7 17 02 bf a9 f6 f9 bd 06 60 78 40 55 6a 33 be
       -0.5081753 -0.1220525 3.8808608 -0.17521031
0000d0 30 e4 5d 40 4b f7 86 bd e1 92 7b 3f 22 16 c0 3d
       3.4670525 -0.06590136 0.98270994 0.093792215
0000e0 73 51 f4 3d 0f a9 30 40 04 34 24 be b9 46 3d bd
       0.11929598 2.7603185 -0.16035467 -0.046210025
0000f0 3a 54 bb be 61 0d 2f 3e 8f 84 8c 3f 44 f5 38 be
       -0.36587697 0.17094947 1.0977954 -0.18062311
000100 2b fa 94 bc 63 8a 4c be 7e 2e 8a be f3 3f d8 3c
       -0.018185696 -0.19974665 -0.26988596 0.02639768
000110 26 10 02 3d 90 eb 23 be ca 79 86 40 f9 cd 07 3f
       0.03175368 -0.16007829 4.202367 0.53048664
000120 51 44 44 bb de 49 53 40 49 54 81 40 7a 76 b7 3f
       -0.0029947946 3.3013835 4.0415387 1.4333031
000130 31 43 28 3d ce 1d 35 3e 98 a2 bb bc e1 32 31 be
       0.041079704 0.17687151 -0.02290468 -0.17304565
000140 0b a0 19 be b8 fd ad 3f 55 98 f0 3d 9f b6 16 3e
       -0.15002458 1.3593054 0.11747805 0.14718102
000150 79 7f a7 bf 8e 62 ac bd 6d 66 49 be 11 5e 97 be
       -1.3085777 -0.08417235 -0.19667979 -0.29563954
000160 d1 73 26 bd 84 43 e3 bd c7 76 d8 be da 48 34 40
       -0.040637795 -0.11096862 -0.4227812 2.8169465
000170 5d 33 12 be af 80 a8 40 bf 8a 65 be 69 b5 59 be
       -0.14277406 5.2657084 -0.22416209 -0.21260609
000180 ee 09 9c bf 3d 9e 1f be ec 1e 52 3b cf cc 69 40
       -1.219053 -0.15587707 0.0032061888 3.6531255
000190 17 3d 21 be 34 b5 57 40 20 c6 90 3d 56 ab 83 be
       -0.1574596 3.3704348 0.07069039 -0.25716656
0001a0 28 e7 75 40 a0 00 89 3d 04 4f 6c be 6d 5e 96 bf
       3.8422337 0.06689572 -0.23077017 -1.1747566
0001b0 cd 6d 25 3f 00 d0 61 40 d4 a6 0d bf 59 9a 33 3e
       0.6462067 3.5283203 -0.55332685 0.17539348
0001c0 2a 1a f4 3f e1 7e a8 3e 1c 30 1b be 54 a4 5a 40
       1.9070485 0.329093 -0.15155071 3.4162798
0001d0 33 da a1 3d d9 c8 9f 3c db fb 1f 40 00 4f 27 3e
       0.07902946 0.019504951 2.499747 0.1633873
0001e0 65 62 a9 bd 2b 63 23 be ec cd aa 3c 11 ae 05 3d
       -0.082707204 -0.15955798 0.020850144 0.032636706
0001f0 76 8d 43 be 29 ca 9f bf 57 42 c0 3d 9d dd 07 be
       -0.19096932 -1.2483569 0.09387653 -0.13268133
000200 1b 36 09 40 f4 6d 68 40 68 6f 9a 3d 04 9c e4 3f
       2.1439273 3.631711 0.0754078 1.7860112
000210 c8 3f 56 bc 48 c0 8e be d9 54 1b be a0 09 cc 3f
       -0.01307673 -0.27881074 -0.15169086 1.5940437
000220 e5 a4 6a bd 30 df 72 bf 19 73 d5 3c 1e cc 8f bd
       -0.057286162 -0.9487181 0.02605586 -0.07021354
000230 f6 71 16 bd b3 b8 b4 3e 18 b0 9b 40 a4 2c 95 be
       -0.036729775 0.35297164 4.865246 -0.2913562
000240 bd a3 0d 40 bf 91 8b 3e 74 76 df 3d 4d a1 5d be
       2.2131188 0.27259633 0.10911265 -0.21643563
000250 aa 90 f1 3d 52 a3 85 3d
       0.117951706 0.065252915

outputLayer.weight f4 [2, 150]
000000 42 b0 f0 3e 1a 32 27 bd ff 3d ef bc 38 49 24 3e
       0.47009474 -0.040819265 -0.029204367 0.16043556
000010 ac 8b a1 3e e7 64 11 3f 6d 76 c4 3e 1f fa b6 3d
       0.31551874 0.5679459 0.38371602 0.089344256
000020 8a ef 34 c0 ac f8 3f 40 b5 e8 bc 3c 0c 1b b3 3e
       -2.8271203 2.9995527 0.023060182 0.34981573
000030 16 13 f4 bd 24 ed 8f 3d 54 7d 1e bd 7a 50 4d bf
       -0.11917703 0.07027653 -0.03869374 -0.8020092
000040 9f 73 b1 bd 04 ab 51 3f 62 99 8b bb cf 7b 0c 40
       -0.08664631 0.81901574 -0.004260228 2.1950567
000050 d5 68 86 3b 8f f0 03 3f 2d 08 d6 3e 6f d9 b3 bf
       0.0041018524 0.5153894 0.41803113 -1.405073
000060 9e 9c 7c c0 b8 6d 81 bd c6 e3 ab 3e 96 40 92 3e
       -3.9470592 -0.06319755 0.33572215 0.285649
000070 e0 eb 64 3f 43 68 48 bd 10 5d 9a 3d af 1e 1d 3f
       0.89422417 -0.048927557 0.075372815 0.61374944
000080 fe e7 6b 40 fd d1 e8 3d 1d 83 f0 3e aa d7 c7 3c
       3.6860347 0.11368177 0.46975031 0.024394829
000090 1b 6e 05 3f 29 64 28 3f dc bf d1 bf 42 fa 8d be
       0.5212113 0.6577783 -1.6386676 -0.27729994
0000a0 46 53 ff be 94 08 8e 3e 4b f0 37 3b 89 c5 c2 3f
       -0.4986822 0.2774092 0.002806681 1.5216533
0000b0 e1 43 99 3e 66 99 91 3e ae 93 9d 3f b3 66 8e 3b
       0.299346 0.28437346 1.2310693 0.004345739
0000c0 61 30 60 bf 7a 5e a6 3e 37 6d 4a 3f af cc 5e 3f
       -0.8757382 0.32493955 0.790729 0.8703107
0000d0 fd af fe 3b f0 e6 0e bc 1e 54 d4 3d 3f 48 a8 3f
       0.0077724443 -0.008722052 0.103676066 1.3147048
0000e0 2b 74 38 3f 43 75 a9 3e fb 15 32 3f b8 21 53 3e
       0.7205226 0.33097276 0.6956479 0.20618331
0000f0 87 b2 af 3f 52 8e 0b c0 60 14 7a bd c3 e2 75 3f
       1.3726357 -2.1805615 -0.061054587 0.96049136
000100 57 37 99 bf b3 a1 82 3c 5c c7 42 3f 35 5f df bf
       -1.1970013 0.015946245 0.7608545 -1.745093
000110 d6 cb a7 3e 13 2d 10 3d c9 4f 2f 3f 9e 3a eb bd
       0.32772702 0.035199236 0.6848112 -0.1148579
000120 26 cd 17 bf b6 30 03 3d 1b 05 16 3f 30 0e c8 bb
       -0.59297407 0.032028876 0.5860154 -0.006105207
000130 fb d7 1c bd bb ce 96 be 2b 6e e4 be e7 28 22 bf
       -0.038291913 -0.29454598 -0.446153 -0.6334366
000140 94 d0 1d 3f 8c a1 b4 bb 2d aa 1c 3e 07 b8 cb be
       0.6164639 -0.005512422 0.15299292 -0.3978884
000150 4c 9d 0d bf ed 54 b3 bd 4e 2a a2 bf 1a 72 83 bf
       -0.5531814 -0.08756433 -1.266916 -1.0269196
000160 ef c0 9c bc d3 b8 74 bf 39 1b a3 3f 23 4a 00 3e
       -0.019134967 -0.9559452 1.2742683 0.12528281
000170 0d fa 34 bf ce 01 d8 3e c9 ac e6 bd de ed 73 bf
       -0.7069405 0.42188877 -0.11263425 -0.9528483
000180 ea ac 9f bd bb 91 05 3f 33 46 a3 3f 54 2f 54 3f
       -0.077966526 0.5217549 1.2755798 0.82884717
000190 55 b2 f1 be 1b 9f 0d 3f 61 04 86 bd 93 f4 dc bf
       -0.4720637 0.553209 -0.06543804 -1.7262138
0001a0 fb d6 54 3d e2 6b 28 c0 15 9f f2 3e 32 9f af 3c
       0.051962834 -2.6315846 0.47386995 0.021438215
0001b0 49 e6 32 3d f7 ec 94 3d fa 84 10 bf c5 6e a2 bd
       0.04367665 0.0727176 -0.56452906 -0.07931284
0001c0 dd 17 bf bb 96 e5 44 3f 96 bc e1 3e 78 69 8a 3d
       -0.005831702 0.7691282 0.44089192 0.06758398
0001d0 2f d0 f7 bc 00 a9 b0 bb ed 69 76 ba 3e b3 59 bf
       -0.030250637 -0.00539124 -0.00093999394 -0.85039127
0001e0 2a 44 0d 3f 96 e1 8e bf 56 29 4e 3b d7 93 02 bf
       0.55182135 -1.1162593 0.0031457744 -0.51006836
0001f0 28 49 1d 3f d0 91 8d be 0e 75 05 3b 6c 45 26 bd
       0.6143975 -0.2765031 0.002036396 -0.04059355
000200 41 a8 78 3b e1 40 2a 3f b3 ec b4 be d4 17 98 bc
       0.0037942084 0.6650525 -0.35336837 -0.01856605
000210 b1 05 a0 3c 7a 00 bd bf 43 98 14 bd 10 57 82 3e
       0.019533964 -1.476577 -0.03627802 0.25457048
000220 23 2e 2f 3b 62 e9 ce be 77 e5 98 bd 27 10 05 40
       0.002673038 -0.40412432 -0.07465642 2.0791109
000230 9b 38 53 bc e0 dc 3e 3e c5 72 40 3f ad 5f c0 be
       -0.012891914 0.18638945 0.75175124 -0.37572995
000240 21 3f 05 bd bc 98 a5 3e 78 88 20 bf dd 74 16 3d
       -0.032530908 0.3234309 -0.62708235 0.036732543
000250 c3 8d 18 3f b6 bb 26 be 5c 3c 7f 3f d3 a4 db bc
       0.5959131 -0.16282544 0.99701476 -0.026811993
000260 79 d9 ac bc 75 d6 3e 3f f6 e4 a6 be f0 63 0d 3f
       -0.021099793 0.74545985 -0.32596558 0.5523062
000270 3e 4c d4 3e f9 49 29 be 8c 03 37 40 38 f7 3e c0
       0.41464418 -0.16532125 2.8595915 -2.983839
000280 06 02 1d 3e fa 8c 9b 3e 56 8c 0e bf 7f de b5 be
       0.15332803 0.30380994 -0.55682886 -0.35521314
000290 a7 db 23 3d 7c 0f 6c 3e cd 7b a8 bd 9b 18 39 3f
       0.0400044 0.23052782 -0.08226738 0.7230317
0002a0 88 cf 38 3b c8 f9 04 c0 64 9d b3 3d c0 b4 6e 3f
       0.002819987 -2.0777454 0.08770254 0.9324455
0002b0 73 60 e6 3e 0d 53 c6 3f 6e b7 7c 40 d1 91 b6 3c
       0.4499546 1.5494095 3.9486957 0.022286328
0002c0 d4 d4 bc be 8b 7a 98 be 44 0e c3 bf 2a 8f 4e 3d
       -0.36881125 -0.29780993 -1.5238729 0.0504295
0002d0 13 9d ea 3e 04 d3 fa be 0d a9 67 c0 69 62 ab bd
       0.45822963 -0.48989117 -3.619693 -0.083683796
0002e0 00 06 cb 3e 66 7e aa 3c e2 f8 33 3f f7 ef c4 3e
       0.39653015 0.020812225 0.7030164 0.3846433
0002f0 a0 c6 dc 3f 07 54 76 3e 2c b3 b9 3f 0a c5 a2 bf
       1.7248116 0.24055491 1.4507804 -1.2716382
000300 ea 84 59 bc 53 d3 ff be b1 18 9f be 67 a4 a9 3e
       -0.013276318 -0.49965915 -0.31073526 0.33133242
000310 0e 93 9b bf 97 a2 7d bd 7d 7c 07 3f 8b 77 4b bf
       -1.2154253 -0.061922636 0.5292433 -0.79479283
000320 b2 72 3c 3f d7 cb 0d 3f ec 3c bb bc 3c 8c a0 bd
       0.7361251 0.5538916 -0.022856198 -0.078392476
000330 ce b0 1a 3e 85 88 b5 bf 5c 25 2e bf 99 49 a7 3e
       0.15106508 -1.4182287 -0.68025756 0.32673338
000340 29 9f 08 bf cf 13 b2 bc 96 08 bd bf 7b 25 01 40
       -0.5336786 -0.021737961 -1.4768245 2.0179126
000350 b4 44 ba 3d f8 f6 84 bf fa 6d 8c 3f 6c 41 19 3c
       0.09095135 -1.0387869 1.0971062 0.009353977
000360 3a f9 70 bf da 50 16 40 09 db cd be 51 15 24 bc
       -0.9413029 2.3486848 -0.40206173 -0.010014848
000370 d2 6d 23 3f ec 56 89 bc b8 33 a6 3e 07 b8 e7 3c
       0.6383945 -0.01676508 0.32461333 0.028285993
000380 99 9a 53 3f 02 d8 fb b9 82 db 67 3d e8 fe 92 3e
       0.8265777 -0.0004803539 0.056605823 0.28710103
000390 0c 6a 1c 3f d4 3a 87 3f 6e 32 3b bf c2 fe 07 bd
       0.61099315 1.0564828 -0.73123825 -0.03320194
0003a0 39 ee 2e be 20 32 df 3d 1b 09 5f 3f 32 19 97 3c
       -0.17083062 0.108982325 0.8712327 0.018444631
0003b0 08 3c ac 3f e7 bd 6d 3f 0f e9 c9 3b f2 4a 72 3f
       1.345582 0.92867893 0.006161816 0.9464561
0003c0 9e f7 ec be de 50 f6 3c dc 30 47 3f 00 e4 f0 3e
       -0.46282667 0.030067857 0.7780893 0.4704895
0003d0 f8 8e b6 bd e3 ea 61 3f 9c dd ae be 0e 41 c3 be
       -0.08913988 0.88249034 -0.3415345 -0.3813557
0003e0 e3 b7 f1 be 3e df 01 3f f7 31 02 3f 20 5f 0e 3f
       -0.47210607 0.50731266 0.5085749 0.556139
0003f0 07 36 b0 3d 7b a1 df 3f a5 d9 36 3d cb 78 27 40
       0.08604055 1.7471155 0.044641156 2.6167476

outputLayer.bias f4 [2]
000000 31 63 78 40 43 d7 87 40
       3.8810542 4.245027
