ftl/pretrain/weight/finetune_hm_0_v2/finetune_hm_0_36.pth (torch, 187625 bytes, 8 tensors)

hiddenLayer1.weight f4 [150, 3]
0	0xbf59d97a	-0.8509747
1	0xbfa100ac	-1.257833
2	0xbf19ea28	-0.6012292
3	0xbcb1a773	-0.021686291
4	0x39004968	0.00012234377
5	0xbd5b1a1c	-0.053491697
6	0xbea49660	-0.32145977
7	0xbf00921a	-0.50222933
8	0xbf75c9fd	-0.96011335
9	0xbfe107b9	-1.7580482
10	0xbb0bf2e2	-0.0021354486
11	0x3f59d577	0.85091347
12	0xb7d2347a	-2.5058387e-05
13	0xbb46fac8	-0.003036188
14	0xbb29cfd7	-0.0025911236
15	0xbdeb567d	-0.11491106
16	0x39e4c539	0.0004363449
17	0xbde5e119	-0.112245746
18	0xbe76e2d8	-0.24109972
19	0xbb6af04f	-0.0035848801
20	0xc00a66f4	-2.1625338
21	0xc05f6e5c	-3.4911108
22	0x3bf0b9d5	0.0073463717
23	0xbe010f79	-0.12603559
24	0xbecfe315	-0.40602937
25	0xbd0e16e7	-0.03468981
26	0xbe7a9bb1	-0.24473454
27	0xbf048dec	-0.51779056
28	0xbda371e6	-0.07980709
29	0xbd91dc97	-0.07122152
30	0xbfaf62a0	-1.3701973
31	0x3a0af1cd	0.00053003134
32	0xc0b646a9	-5.6961255
33	0xbeab733e	-0.3348636
34	0x3c62331f	0.0138061335
35	0xbec2274c	-0.37920606
36	0xc187e3a0	-16.986145
37	0xbd982347	-0.074286036
38	0xbe568094	-0.20947486
39	0xbd056ddf	-0.032575484
40	0x3b8f1f69	0.004367758
41	0x3d01df0c	0.031706855
42	0xbcb1e0fa	-0.021713722
43	0x3a048cfe	0.000505641
44	0xbbe4d832	-0.0069837803
45	0xc0a6c3ba	-5.2113924
46	0x3b1b4f4a	0.0023698383
47	0x3ea041c2	0.3130017
48	0xbdc16bba	-0.09444375
49	0x3c63ee06	0.01391173
50	0xbcd68e24	-0.026190825
51	0xc207a2b0	-33.908875
52	0x3d519279	0.051165078
53	0xbe6b1876	-0.2295855
54	0xc05de1d0	-3.4669075
55	0xbc5d756d	-0.013516766
56	0xbc505131	-0.01271467
57	0xbd69d3b6	-0.05708667
58	0xba397437	-0.00070745073
59	0xbd0454e2	-0.032307513
60	0x394757d3	0.00019010836
61	0x3c0dd908	0.008657701
62	0xbb9225c6	-0.0044600694
63	0xc013bfc8	-2.3085804
64	0xbddfdda7	-0.10930949
65	0x3f498df0	0.78732204
66	0xbc226eac	-0.009914082
67	0xbd9c3ae1	-0.07628418
68	0x3b561a0e	0.0032669338
69	0xc13237e8	-11.138649
70	0x3c815f59	0.015792536
71	0xbad465ed	-0.0016204693
72	0x3b9e92af	0.0048392634
73	0x3d962e68	0.0733307
74	0xbbc63679	-0.006048974
75	0xbf1fd575	-0.62435085
76	0x37abc6ff	2.0477453e-05
77	0xc07e9698	-3.9779415
78	0xbf92c9e1	-1.1467859
79	0x3dc8b338	0.09799808
80	0xbfa06ad5	-1.2532603
81	0xbd884775	-0.06654254
82	0xbf49e7d5	-0.7886937
83	0x3f95ea4d	1.1712128
84	0xbf0e2996	-0.55532205
85	0x3eeef326	0.46669883
86	0x3d2c6257	0.04208597
87	0xbe9cbd69	-0.30613258
88	0xbd2b71cd	-0.041856576
89	0xbcf246a7	-0.029574705
90	0xbceeacbf	-0.029135106
91	0x3a157023	0.00057006086
92	0x400cd11e	2.2002635
93	0xc047eed3	-3.1239517
94	0xbe86e924	-0.26349747
95	0x3f791625	0.97299415
96	0xbfe56669	-1.7921878
97	0xbb5f7c0c	-0.0034101037
98	0xc06fcdad	-3.7469285
99	0xbef04c65	-0.46933284
100	0x3b09b200	0.0021010637
101	0xbd5e0276	-0.054201566
102	0xbd9a9bb3	-0.075492285
103	0xb87cba0d	-6.0254755e-05
104	0xbdcf1c78	-0.10112852
105	0xbf17a8a9	-0.5924173
106	0xbf872e3b	-1.0560983
107	0xbeff08f0	-0.49811506
108	0xbf4d59ca	-0.8021513
109	0xbbed85b8	-0.0072486065
110	0xc0a16277	-5.0432696
111	0xbe8bbfe4	-0.27294838
112	0x3ba9b2ce	0.005178786
113	0xbe52f169	-0.20599903
114	0xbc87ab5b	-0.0165612
115	0xba37e93b	-0.000701565
116	0xbce39e89	-0.027785556
117	0xc11b8713	-9.720477
118	0xbc33b02c	-0.010967296
119	0xbf89bdb9	-1.0761024
120	0xbd00a3e2	-0.03140629
121	0xbb9b55c0	-0.004740447
122	0xbcd3de74	-0.02586291
123	0xbefcaac7	-0.49349043
124	0xbe885cf7	-0.26633427
125	0xc01a181c	-2.4077215
126	0xbd7dfc86	-0.062008403
127	0x3913ab6b	0.0001408287
128	0xbc3c22d5	-0.011482914
129	0xbe18c981	-0.14920618
130	0xb8528919	-5.0195584e-05
131	0xbd3f8d7e	-0.046765797
132	0xbfbe8ef6	-1.4887378
133	0xbecbeaba	-0.3982752
134	0xbfd91774	-1.6960282
135	0xbf1805c8	-0.5938382
136	0xbcbc0338	-0.022950754
137	0xc07a880b	-3.9145534
138	0x3ceca122	0.028885428
139	0xbc684427	-0.014176405
140	0x3fca5f89	1.5810405
141	0xbebe28a1	-0.37140372
142	0x3becfb2f	0.007232092
143	0xc024e1bd	-2.576278
144	0xbf008c70	-0.5021429
145	0x3a024c47	0.00049704727
146	0xb9998acf	-0.00029285855
147	0xbfa841f7	-1.3145131
148	0x3d8af054	0.0678412
149	0xbebea926	-0.37238425
150	0xbf0148e2	-0.50501835
151	0xbef4a5c3	-0.47782716
152	0xbef73727	-0.48284265
153	0xbcc7dfea	-0.024398763
154	0xbf89085e	-1.0705678
155	0x3db0842b	0.08618959
156	0xbec35e88	-0.3815806
157	0x3baa833a	0.0052036317
158	0x3fdd3ab7	1.7283543
159	0xbff6cc29	-1.9281055
160	0xbc88a60f	-0.016680745
161	0x3ce09bfc	0.02741813
162	0xbd90460a	-0.07044609
163	0xb7fe72e2	-3.0332656e-05
164	0xbd10e71b	-0.03537665
165	0xbf0d02b7	-0.5508227
166	0x3b980bc8	0.0046400763
167	0xc0b80c71	-5.7515187
168	0xbe676205	-0.22595985
169	0xbe8cf466	-0.2753021
170	0xbe97572b	-0.2955869
171	0xbb8cbbd0	-0.00429485
172	0xb93c9993	-0.00017986288
173	0xbdd4afe0	-0.10385108
174	0xc22642b2	-41.565132
175	0x3bf161bd	0.0073663876
176	0xbd0c9e2f	-0.034330543
177	0xc01c77c4	-2.44481
178	0x3f3b3302	0.73124707
179	0x3e53bf7d	0.20678516
180	0xbce7828e	-0.028260496
181	0x3a0b9b4a	0.0005325569
182	0xbd55071d	-0.052008737
183	0x3e9afb19	0.30269697
184	0xba4deb4a	-0.000785519
185	0xc098fcb9	-4.78085
186	0xbf8b9398	-1.0904417
187	0x3c80ca4a	0.015721459
188	0xc0da4830	-6.821312
189	0xbfb739fd	-1.4314572
190	0x3dfd5e52	0.12371506
191	0xc05ae480	-3.4201965
192	0xc1c6120b	-24.75881
193	0xbcbc8d85	-0.0230167
194	0x3c3dd2b1	0.011585877
195	0xbf058450	-0.5215502
196	0xbbc6586d	-0.0060530216
197	0xc056fe97	-3.359289
198	0xbcfd6f8d	-0.03093698
199	0x3f50123e	0.81277835
200	0x3e41ba50	0.18918729
201	0xbed1c21e	-0.40968412
202	0x3aeaa1a7	0.0017900959
203	0x409d3193	4.9123015
204	0xbd6735c4	-0.05644776
205	0x3d3e4a01	0.046457294
206	0xbc923311	-0.017846616
207	0xbdb76a95	-0.08955876
208	0x3b432af6	0.0029780245
209	0xbc3326dc	-0.010934558
210	0xc017abf3	-2.36987
211	0x3e04ad1f	0.12956665
212	0x3cafe925	0.021473477
213	0xc17e56a8	-15.896156
214	0x3e5917f0	0.21200538
215	0xbf4f7fd1	-0.8105441
216	0xc09bb5b9	-4.865933
217	0x3eeb41d9	0.45948675
218	0xbc18b34a	-0.00932009
219	0xbdeb258a	-0.114817694
220	0x3be1ec43	0.0068946197
221	0xbcb236b5	-0.021754602
222	0xbd8f49de	-0.06996511
223	0x3b674c3f	0.003529325
224	0xbbe286b6	-0.0069130315
225	0xbd96bb88	-0.073599875
226	0x39f28acf	0.00046261257
227	0xbdb2cf34	-0.08730927
228	0xbee8f119	-0.45496443
229	0xbf23da63	-0.64005107
230	0xbe897d45	-0.26853386
231	0xbd56c5b2	-0.05243463
232	0xbbb6b996	-0.005576323
233	0xbd28f5fe	-0.04125022
234	0xc0a61d39	-5.191067
235	0x3e25d288	0.16193593
236	0x3ce0b2ca	0.027429003
237	0x3cc5ace8	0.0241303
238	0x3afcb480	0.0019279867
239	0x40545210	3.3175087
240	0xbcc88a59	-0.024480032
241	0x3b6ce2d9	0.0036145954
242	0xbc7eb5f4	-0.015546311
243	0xc1f8dd45	-31.108042
244	0xbdcc4fbe	-0.09976147
245	0xbdebd3cf	-0.11515009
246	0xc0b6e532	-5.715478
247	0xbedad7c1	-0.42742732
248	0xbf26bb7f	-0.65129846
249	0x3819290d	3.6516274e-05
250	0x3a876dac	0.0010332367
251	0xbb1a6a78	-0.0023561995
252	0xbdbc5467	-0.09195786
253	0xbad3b3ce	-0.0016151608
254	0x3e508367	0.20362626
255	0xc023b2ce	-2.5577884

hiddenLayer1.bias f4 [150]
0	0xc0ac6d72	-5.38836
1	0xbdb36da4	-0.08761147
2	0xc022f01b	-2.5459049
3	0xc025366c	-2.5814466
4	0xbd743bb5	-0.059627254
5	0xbdba8ab9	-0.091084905
6	0x3d031b63	0.03200854
7	0xbe30afcb	-0.1725456
8	0xbeaf6651	-0.3425775
9	0xbf9955b8	-1.1979284
10	0xbecec5a5	-0.40385166
11	0xbec2e781	-0.38067248
12	0xbfd0dfbb	-1.6318277
13	0xc0827650	-4.0769424
14	0xbc2fe364	-0.0107353665
15	0xbfa4b0a1	-1.2866403
16	0xbe884024	-0.26611435
17	0xbfbf7e27	-1.4960374
18	0xbeac9a38	-0.3371141
19	0xbd1d1c43	-0.03835703
20	0xbe41183d	-0.18856902
21	0xc0a0ff96	-5.0311995
22	0xbf97dd1e	-1.1864355
23	0xbf20c8db	-0.6280648
24	0xc0112cc9	-2.2683585
25	0xbf36eb9c	-0.7145326
26	0xbf8ae257	-1.0850323
27	0xc101dbe3	-8.116183
28	0xc003f28a	-2.0616784
29	0xbf24b2e0	-0.6433544
30	0x40795ab1	3.8961604
31	0xc0b68aac	-5.7044277
32	0xbf77f212	-0.96853745
33	0xbdb5ab66	-0.08870582
34	0xbe2fe73c	-0.17178053
35	0xc093c2ab	-4.617513
36	0xbf21383b	-0.62976426
37	0xbe50ea2e	-0.20401832
38	0xbd087945	-0.033318777
39	0xbfb742f9	-1.4317313
40	0xbe15cad2	-0.14628151
41	0xc013ae1e	-2.3075023
42	0xbc753dd7	-0.014968357
43	0xbd3204ad	-0.04346149
44	0xc01ec0e0	-2.4805222
45	0xc00e7805	-2.2260754
46	0xc0877eed	-4.234244
47	0x3e34ea5b	0.17667525
48	0xbc5d284c	-0.013498377
49	0xbf8c639c	-1.0967898
50	0xc00a3248	-2.159319
51	0xc08c40d7	-4.382915
52	0xc0c60e1f	-6.189224
53	0xbfe408d8	-1.7815199
54	0xbcf7e069	-0.030258374
55	0x3ef8b60f	0.485764
56	0xc07f0aed	-3.9850419
57	0xbdaa293f	-0.08308648
58	0xbf812326	-1.0088851
59	0xc0bdfc92	-5.9370813
60	0xbdbaf006	-0.09127812
61	0x403d479d	2.957496
62	0xbf36c2b1	-0.71390826
63	0xc0173263	-2.3624504
64	0xbfcebf27	-1.6152085
65	0xbf6902a2	-0.9101964
66	0xc08a1d4b	-4.316076
67	0xbf5699ff	-0.8382873
68	0xbf2938b9	-0.66102177
69	0xbd89e183	-0.06732466
70	0xbfee64ae	-1.8624475
71	0xc05555ea	-3.3333688
72	0xbfff3841	-1.9939042
73	0xbe1f799b	-0.15573733
74	0xbda28952	-0.07936348
75	0xbd957d7b	-0.07299324
76	0xc0f29837	-7.581081
77	0xbdf2abda	-0.11849184
78	0xc017222c	-2.3614607
79	0xc0a62b08	-5.192753
80	0xbd7e3476	-0.06206175
81	0xc01c15f9	-2.438841
82	0xc00bbca6	-2.1833892
83	0xbce94d62	-0.028479282
84	0x3f852d2a	1.0404408
85	0xc094ddf4	-4.652094
86	0xbfe2cc79	-1.771865
87	0x3fcc4f35	1.5961672
88	0xbc5b3e07	-0.013381488
89	0xbeec11de	-0.46107382
90	0xbeb1255d	-0.34598818
91	0xbefb5024	-0.4908458
92	0xc008102c	-2.125987
93	0xbff3d1be	-1.9048383
94	0xc05adac3	-3.4196022
95	0xbdbf02de	-0.09326719
96	0xbebd7de3	-0.37010106
97	0xc06ab1ee	-3.66711
98	0xbdd0d9b2	-0.10197772
99	0xc0592ce8	-3.3933659
100	0xbe0c7f3b	-0.1372041
101	0xbf2156fd	-0.6302336
102	0xc01b7c13	-2.429448
103	0xbf82f3ca	-1.0230649
104	0xc0886cf9	-4.2633023
105	0xbdb74caf	-0.08950173
106	0xbd127346	-0.035754465
107	0xc03b2194	-2.9239244
108	0xbf875508	-1.0572824
109	0xc0f6442f	-7.695823
110	0xbfeed916	-1.8659999
111	0xbddee877	-0.10884183
112	0xc06e75c6	-3.7259383
113	0xc07ccdfe	-3.9500728
114	0xbf3dccec	-0.7414081
115	0xbc8f3361	-0.017480554
116	0xc08fc628	-4.492939
117	0xbf87c62f	-1.0607356
118	0xc0535ddc	-3.3026037
119	0xbdf6d34e	-0.12052022
120	0xbd5e2f6c	-0.054244444
121	0xc0b44543	-5.633455
122	0xc176b339	-15.418756
123	0xbcd9ad44	-0.026571877
124	0xbd37c3e7	-0.04486456
125	0xbcea5057	-0.028602762
126	0xbfb759c6	-1.4324272
127	0xbd7a1f47	-0.061064985
128	0xbf53576b	-0.82555264
129	0xbf22d699	-0.636087
130	0xbf198711	-0.5997172
131	0xbf36539b	-0.7122132
132	0xbe08a95d	-0.13345857
133	0xbfc3cbcf	-1.5296572
134	0xbf0fa0fd	-0.56105024
135	0xc02f7b7d	-2.7419121
136	0xbe43e338	-0.19129646
137	0xbec47539	-0.38370684
138	0xc07fd104	-3.9971323
139	0xbdce5bfd	-0.10076139
140	0x4067b7b8	3.6205883
141	0xc0719934	-3.7749758
142	0xc0f3e2b0	-7.621422
143	0xbe317687	-0.17330371
144	0xbe8f16d1	-0.27947095
145	0xbc613bfb	-0.013747211
146	0xc04745d5	-3.1136372
147	0xbfb71d2d	-1.4305779
148	0xbe005524	-0.12532479
149	0xbe790cc1	-0.24321271

hiddenLayer2.weight f4 [150, 150]
0	0xbeac28d0	-0.33624887
1	0x3d9be3a3	0.07611778
2	0xbfe3ec03	-1.78064
3	0xbfe4ced9	-1.7875625
4	0xbf1849ac	-0.59487414
5	0x3e7f00e1	0.24902679
6	0xc0a85a1c	-5.2609997
7	0xbf232c17	-0.6373915
8	0x4082e337	4.090236
9	0xbfb3f89d	-1.4060246
10	0xc0efc16b	-7.4923606
11	0xc01f8a4c	-2.492816
12	0xc12d63fa	-10.836908
13	0xbdf30b5f	-0.11867403
14	0x3dcde6cc	0.10053787
15	0x3f81ed82	1.0150607
16	0xbdc5df95	-0.096617855
17	0x3eead565	0.45865932
18	0xbd2034ae	-0.03911274
19	0xbe0b61c5	-0.13611515
20	0xc049f2e7	-3.1554506
21	0xbec2631d	-0.37966242
22	0xbed3c798	-0.41363215
23	0xc0020fa9	-2.0322058
24	0xc0868980	-4.2042847
25	0xbfca22a3	-1.579182
26	0x3f5886a5	0.8458045
27	0xc007bced	-2.120906
28	0x4013e1b3	2.3106506
29	0xbf435342	-0.76298916
30	0xbf2d81f6	-0.6777643
31	0xbf55d1b0	-0.8352308
32	0xc09b3ce7	-4.8511844
33	0xbe87db09	-0.26534298
34	0xbdace18e	-0.08441459
35	0xbed66eb1	-0.41881326
36	0xbfb46f41	-1.4096452
37	0xbecc4e72	-0.399036
38	0x3d8b368d	0.06797514
39	0xc0ad7765	-5.4208245
40	0xbe593432	-0.21211317
41	0xc1b7d4e3	-22.978949
42	0xbdc1006e	-0.0942391
43	0xbe3e5bcc	-0.18589705
44	0xbca000b2	-0.019531582
45	0x3e9dc499	0.30814055
46	0xbfb86778	-1.4406576
47	0xc1575702	-13.458742
48	0xc10ed2d0	-8.926468
49	0x400f4dbf	2.2391202
50	0xc091abec	-4.5522366
51	0x3fd3589d	1.6511418
52	0xbf93ddb9	-1.1552039
53	0xc09378ed	-4.6085114
54	0x3ca1958e	0.019724634
55	0xc16efc7e	-14.936644
56	0xc0a9a814	-5.3017673
57	0x3dd53dec	0.10412201
58	0x402bee4f	2.6864202
59	0xbfc40250	-1.5313206
60	0xbef2c533	-0.47416076
61	0xbf03b465	-0.51447135
62	0xbee9ad4c	-0.45640028
63	0xc19bb834	-19.464943
64	0xc131e4d5	-11.118367
65	0x3f04e030	0.5190458
66	0xc10b8d5e	-8.722013
67	0xc142abc2	-12.166933
68	0x3f1ff987	0.62490124
69	0xbdd92e6c	-0.106045574
70	0x4002e0cc	2.0449705
71	0xc0c8f414	-6.2797947
72	0xc217f18b	-37.98588
73	0xbd28a1ee	-0.041170053
74	0xbd39146e	-0.0451855
75	0xbe32f4b3	-0.17476158
76	0xc0837587	-4.1080966
77	0xbe88b786	-0.26702517
78	0xc0c4ff7b	-6.1561866
79	0xbe804572	-0.25052983
80	0xbdfc164e	-0.12308942
81	0x402cdeb0	2.7010918
82	0xbdc352bd	-0.095372654
83	0xbdabab7f	-0.0838232
84	0x3fb9e270	1.4522228
85	0xc042f79a	-3.0463624
86	0xc0c20926	-6.0636168
87	0xbe88a9a0	-0.26691914
88	0x3e8bbda9	0.27293137
89	0x405ad47e	3.4192195
90	0xc0c5f313	-6.185922
91	0xbee0d5e2	-0.4391318
92	0xc02ecb4c	-2.7311583
93	0x409a295a	4.817548
94	0xbe91ad43	-0.284525
95	0x3fd66878	1.6750631
96	0xbe776253	-0.24158601
97	0xbe9519ca	-0.29121238
98	0x3f6efc10	0.93353367
99	0xc0a35c28	-5.1049995
100	0x3ece5cee	0.40305275
101	0x3fecfb45	1.8514181
102	0x3ffb6cad	1.964254
103	0xbbbdd95f	-0.005793735
104	0xbf415e43	-0.75534457
105	0x3efcb319	0.4935539
106	0x3ea9a7fb	0.3313597
107	0x3e1ef0a4	0.15521485
108	0xc08b51c2	-4.35373
109	0xbf51295a	-0.8170372
110	0x40b24f39	5.5721707
111	0xbdf38eb0	-0.1189245
112	0xc04f62aa	-3.240397
113	0x3f67d28c	0.90555644
114	0xc081500d	-4.041022
115	0x3c2de3d8	0.010613404
116	0xc080d694	-4.0261936
117	0x40d4b1ad	6.646689
118	0xc138ff60	-11.562347
119	0xbe447a15	-0.19187196
120	0xbc98e73a	-0.018664945
121	0xbfedcb6b	-1.8577703
122	0xbea0f78a	-0.31438857
123	0xbda53b85	-0.08067993
124	0xbdaff143	-0.08590939
125	0xbe74002e	-0.23828194
126	0xc020ba9c	-2.5113897
127	0x40123234	2.2843142
128	0xc00a7394	-2.1633043
129	0x3f928237	1.1445988
130	0xbeb7b450	-0.35879755
131	0xbe1f7da4	-0.15575272
132	0xbde6bb25	-0.11266164
133	0xbf9ec069	-1.2402469
134	0xc098dc3d	-4.7768846
135	0xc128fdd9	-10.561975
136	0x3fe463cc	1.7842956
137	0xc0156db4	-2.3348207
138	0x3fc1a8a3	1.5129589
139	0x3dad02d7	0.08447807
140	0xbed9112b	-0.4239591
141	0xbf5f116b	-0.8713595
142	0xbf1a914f	-0.60377973
143	0xbf2a74d3	-0.6658451
144	0xbf72c631	-0.94833666
145	0xbce73d7f	-0.028227566
146	0xc0be263a	-5.9421663
147	0xc06f591a	-3.7398133
148	0x3d58b2b6	0.052904807
149	0x40094715	2.1449635
150	0xc18c1df3	-17.514624
151	0x3d37d3e2	0.0448798
152	0xbf157941	-0.58388144
153	0x40005ed3	2.0057876
154	0xbd891c63	-0.066948675
155	0xbe7d3e20	-0.2473073
156	0xc0b0e6e0	-5.528183
157	0xbf101b1c	-0.56291366
158	0xbdc59d07	-0.09649091
159	0xc0a04f94	-5.009714
160	0xbf2a2dab	-0.66475934
161	0xbfa856f0	-1.3151531
162	0x3fb929c4	1.4465871
163	0xc0aeabf9	-5.4584928
164	0x3cc9bc2c	0.02462586
165	0xbf2f4666	-0.68466794
166	0x3e3e9752	0.18612412
167	0xc059d3f5	-3.4035618
168	0xbf606f88	-0.87670183
169	0xbd64f44f	-0.055897053
170	0x40bf8628	5.9851265
171	0x3f84ae8b	1.0365766
172	0x3f0b5452	0.5442554
173	0xbfb523d3	-1.4151558
174	0xc0b714b1	-5.721276
175	0xbf6cec7e	-0.9254836
176	0xbf45777c	-0.77135444
177	0xbf676410	-0.9038706
178	0xc01e81d0	-2.4766731
179	0xbf0d3d45	-0.55171615
180	0xbfd8a884	-1.6926427
181	0x3ef8fa4d	0.48628464
182	0xbff61243	-1.9224323
183	0x3eca62de	0.39528555
184	0x3eb11752	0.34588104
185	0xbf033862	-0.5125791
186	0xbfaa5ad3	-1.3308967
187	0x3ec31b95	0.3810698
188	0x3d42d74f	0.047568616
189	0x40267c8f	2.6013525
190	0xbf0a6a01	-0.54068
191	0x4002be34	2.042859
192	0xbc3e6e6b	-0.011623005
193	0xbcc5172a	-0.024058897
194	0xc118d510	-9.552017
195	0xbf22dc58	-0.6361747
196	0x3fb115d1	1.3834783
197	0xbf20d4ac	-0.6282451
198	0xc1069c0d	-8.413098
199	0xbee933c9	-0.4554732
200	0x3fa0333b	1.2515634
201	0x3f06625f	0.5249385
202	0xbfd66a5d	-1.675121
203	0x402daeb7	2.7137887
204	0xbe0e39ac	-0.13889188
205	0xbf9bca76	-1.2171161
206	0x4035f80a	2.843264
207	0xbea3f407	-0.32022116
208	0xbdd5f62d	-0.10447345
209	0xbf4aed7c	-0.7926862
210	0xbf4cd02f	-0.8000516
211	0xc043e939	-3.0611098
212	0x3e8e254e	0.27762836
213	0xbf9b79cb	-1.2146543
214	0x408f688b	4.4815116
215	0xbeedd9be	-0.46455187
216	0xc0324e1a	-2.786017
217	0xbee01b34	-0.43770754
218	0xbec76be4	-0.38949502
219	0xbe1be2e3	-0.15223269
220	0xc0724afe	-3.7858272
221	0x3f93d700	1.1549988
222	0xc02a1244	-2.6573648
223	0x3db6860a	0.08912285
224	0xbdaf4373	-0.08557787
225	0x3de7ce4a	0.113186434
226	0x402b2cd4	2.674611
227	0xbea9ccf8	-0.3316419
228	0x3f00d647	0.5032696
229	0x4084180b	4.127935
230	0x3e727f4c	0.23681372
231	0xc00ba317	-2.1818292
232	0xc12de938	-10.869438
233	0xbd2f2d20	-0.042767644
234	0xbfffbd8c	-1.997972
235	0xbffbaf35	-1.9662844
236	0xc093d648	-4.6199074
237	0xc072447d	-3.7854302
238	0xbc936e97	-0.01799707
239	0xbfea853e	-1.8321912
240	0xbe1f9aa6	-0.15586337
241	0xbf891cc6	-1.0711906
242	0xbfc884bf	-1.5665511
243	0x3fedc0be	1.8574445
244	0xbfb7e280	-1.4365997
245	0xbfe5da90	-1.7957325
246	0x3d0de479	0.034641717
247	0xc01e41e8	-2.4727726
248	0x3e959d76	0.29221696
249	0x3e37fd7f	0.17967795
250	0x3f058abd	0.5216482
251	0x3f522bbd	0.8209799
252	0xbf3f6796	-0.74767435
253	0xbf55c42b	-0.83502454
254	0xc1041226	-8.254431
255	0xbf8f160a	-1.1178601

hiddenLayer2.bias f4 [150]
0	0xbf03a241	-0.51419455
1	0xc00669bf	-2.1002042
2	0x3f8fcbe1	1.1234094
3	0xbdf7108d	-0.12063704
4	0xbf3a01fb	-0.7265927
5	0x3dae6cca	0.085168436
6	0x400f87ce	2.2426639
7	0xbdc22c97	-0.09481161
8	0x40f368cc	7.6065426
9	0xbe197445	-0.1498576
10	0xbe9be93a	-0.30451375
11	0xbe8cfdbe	-0.2753734
12	0x3e9326fb	0.28740677
13	0xbf0647a4	-0.52453065
14	0xbd910cf6	-0.0708255
15	0xc08ffa00	-4.4992676
16	0x408f126b	4.4709983
17	0xbd09e2c8	-0.03366354
18	0x3fa3a891	1.2785817
19	0x3f83e233	1.0303406
20	0xbf03eef6	-0.515365
21	0xbd8ea3d4	-0.069648415
22	0xbf53c1fd	-0.8271788
23	0xbfd4bae7	-1.6619538
24	0xbdd9061a	-0.10596867
25	0xbfb1c9cd	-1.388971
26	0xbfe52095	-1.7900568
27	0x3e91e2b9	0.28493288
28	0x3e6c3d55	0.23070271
29	0xbf47c681	-0.7803727
30	0x3f776208	0.9663396
31	0xbe4581f3	-0.19287853
32	0xbe210951	-0.1572621
33	0xbf4e9fc5	-0.8071254
34	0x40088641	2.1331942
35	0xc0173004	-2.3623056
36	0xbe20e20e	-0.15711233
37	0xbee157bf	-0.44012257
38	0xbffb2e57	-1.9623517
39	0xbd85dd93	-0.065364026
40	0xbf86883c	-1.0510325
41	0xbe29eb1c	-0.16593593
42	0xbef7068f	-0.4824719
43	0xbd9a0255	-0.07519976
44	0xc000ef43	-2.0146034
45	0xbf103ae5	-0.56339866
46	0xc0947c77	-4.6401935
47	0xc04aa7c4	-3.1664896
48	0x3945bcc0	0.00018857699
49	0xbf369bf0	-0.7133169
50	0xbe754284	-0.23951155
51	0xbfa2539f	-1.2681769
52	0xbf07d689	-0.5306173
53	0xbee53b8d	-0.44771996
54	0xbf083de2	-0.53219426
55	0xbee92d0c	-0.4554218
56	0xbdcc17f4	-0.09965506
57	0xbf4250f3	-0.7590477
58	0x3d375cbe	0.04476618
59	0x3edddf00	0.43334198
60	0xbe823994	-0.25434554
61	0xbec1fce5	-0.37888256
62	0x3cfff12f	0.031242935
63	0x3e31e5d5	0.1737283
64	0xbf29e38d	-0.6636284
65	0x409c2817	4.879894
66	0xc042d463	-3.044213
67	0x3cecda7b	0.028912773
68	0xbeed97a0	-0.46404743
69	0x3f1c9527	0.6116509
70	0x401112ed	2.2667801
71	0xbf846ff7	-1.0346669
72	0x3f55a29c	0.8345125
73	0x3f0a84ad	0.541087
74	0xbf5e5edc	-0.86863494
75	0xbf1880cf	-0.59571546
76	0xbe811002	-0.25207525
77	0xbf1862a0	-0.5952549
78	0xbefa9353	-0.48940524
79	0xbf420ff9	-0.7580562
80	0xbfb9e407	-1.4522713
81	0xbf508dbf	-0.8146629
82	0xbfb08c10	-1.3792744
83	0xc02ac96b	-2.6685436
84	0x3e11cfcc	0.14239424
85	0xbfe8c49f	-1.8185004
86	0x3efceb22	0.49398142
87	0xbe0d1032	-0.1377571
88	0x3f4a2fd8	0.78979254
89	0xbe03920f	-0.12848686
90	0xbf81fbf4	-1.0155015
91	0xbe32483e	-0.1741037
92	0xbf478793	-0.77941245
93	0x3f61ed62	0.8825284
94	0xbf210f2d	-0.6291378
95	0xbf1bc261	-0.60843474
96	0xbdd536b6	-0.10410826
97	0xbef30006	-0.47460955
98	0xbf254f41	-0.64574057
99	0x40f97a7d	7.796202
100	0xbffdb47b	-1.9820703
101	0xbe8334e0	-0.25626278
102	0xbe0be289	-0.13660635
103	0x3e9bc9bd	0.30427352
104	0x3cd79c98	0.026319787
105	0x3fabed80	1.3431854
106	0xbe7adc99	-0.24498214
107	0xbe57c9c2	-0.21073058
108	0xbe15e37a	-0.14637557
109	0xc106dc32	-8.428759
110	0xbd5d5e82	-0.054045208
111	0xbeee77fb	-0.46575913
112	0xbe587633	-0.2113884
113	0x3e957b09	0.2919543
114	0x3f46ecb1	0.7770491
115	0xbe1289f7	-0.14310442
116	0xc023d417	-2.55982
117	0xbff470d6	-1.9096935
118	0xbed3ef03	-0.4139329
119	0xbf545f4b	-0.82957906
120	0xbd9eecc1	-0.07760001
121	0xbf7e5a6e	-0.99356735
122	0xbfb1e0a2	-1.3896677
123	0xbdbc119e	-0.09183048
124	0xbf087da9	-0.5331674
125	0x3f31e29d	0.6948641
126	0xbdf9444e	-0.12171231
127	0xbe390183	-0.18066983
128	0x3db7acd8	0.08968514
129	0xbe0b5cc4	-0.13609606
130	0xbf5691fe	-0.83816516
131	0xbe595ee3	-0.21227603
132	0x40d5bb20	6.6790924
133	0xbfda81bc	-1.7070842
134	0xbedaadd9	-0.4271076
135	0xbe8e0b0e	-0.2774281
136	0xbff53991	-1.9158193
137	0xbfba42b3	-1.4551605
138	0x3cc2d976	0.023785334
139	0x3f78fe46	0.9726299
140	0x3e25a4ea	0.16176191
141	0xbf9efdee	-1.2421243
142	0xbd8c2311	-0.06842626
143	0xbf258e9d	-0.64670736
144	0xbf45246b	-0.77008694
145	0xc028d889	-2.6382163
146	0x3f7e711f	0.9939136
147	0xbe78bd44	-0.24290949
148	0xbe3b0d0f	-0.182667
149	0x3d97cafe	0.074117646

hiddenLayer3.weight f4 [150, 150]
0	0x40269723	2.6029747
1	0x3f5a94a0	0.85383034
2	0x3e05f45a	0.13081494
3	0xbe5e798b	-0.21726052
4	0xbf35f1c0	-0.71072006
5	0xbf072c02	-0.52801526
6	0xbfe18876	-1.761977
7	0xbeb10d5c	-0.34580505
8	0x3e87cb7f	0.26522443
9	0xbf8636c5	-1.0485464
10	0x3cf287f9	0.029605852
11	0x3ead9910	0.3390584
12	0x3f047d1a	0.5175339
13	0x3e873e2e	0.26414627
14	0xbd21b3e4	-0.039478198
15	0x3e72f0c9	0.23724665
16	0xc02178f2	-2.523007
17	0xbf9803ee	-1.1876199
18	0xc159e88e	-13.619276
19	0xc134ff94	-11.312397
20	0xbf09ac6f	-0.5377874
21	0xbd167210	-0.036729872
22	0x3d87f5e5	0.066386975
23	0x3f16909a	0.58814394
24	0x3d2bb3cb	0.04191951
25	0x3d0e0e96	0.03468188
26	0xc071f01f	-3.7802808
27	0xbe72e944	-0.23721796
28	0x401b194f	2.4234197
29	0xc018735c	-2.382041
30	0xbf43c2a4	-0.76468873
31	0x3e507f3c	0.20361036
32	0xc01a26ef	-2.4086263
33	0xc000f730	-2.0150871
34	0xbf43cc9f	-0.764841
35	0xbf469be6	-0.7758163
36	0xbf259653	-0.646825
37	0xbdf263e1	-0.11835457
38	0xc08da945	-4.426913
39	0x400d9e06	2.21277
40	0x407393e5	3.8059018
41	0xc0014b32	-2.0202146
42	0x3f8aa166	1.0830505
43	0x3c97aa37	0.018513782
44	0x41229033	10.160205
45	0x3e5f43cf	0.2180321
46	0x3fc9150d	1.5709549
47	0xbe5bd66d	-0.21468516
48	0xc00ac9a7	-2.168558
49	0x3f7ac22d	0.9795254
50	0xba3c7073	-0.0007188387
51	0xbf9d767f	-1.2301787
52	0x3b0f0352	0.0021822047
53	0x3f8db663	1.1071285
54	0xc0ed38c6	-7.4131804
55	0xbe4f6685	-0.20253952
56	0xbee44500	-0.44583893
57	0xbf5d1421	-0.8635884
58	0x3dc52132	0.09625472
59	0x3f50958e	0.814782
60	0xbeaf7e6f	-0.3427615
61	0x3f07d59a	0.53060305
62	0xbd673cf2	-0.056454606
63	0x40c0a855	6.0205483
64	0xc0b46401	-5.6372075
65	0xbff81633	-1.9381775
66	0xc07be6d4	-3.9359636
67	0x3e1050e4	0.14093357
68	0x3e0cde22	0.13756612
69	0xc057ce22	-3.3719563
70	0xbfcd90e5	-1.6059843
71	0x3fbaa78d	1.4582382
72	0xbd7c6114	-0.06161602
73	0xbe830cbc	-0.25595653
74	0x3f01d403	0.5071413
75	0xbd51c6dc	-0.051215038
76	0xc04cc13c	-3.199294
77	0xc0487468	-3.1321049
78	0xc088ffc4	-4.2812214
79	0xbf27d12d	-0.6555355
80	0xbf813b34	-1.0096192
81	0x3f48dabf	0.7845878
82	0xbfc1972f	-1.5124263
83	0xbd9f231b	-0.07770368
84	0x3e944bdd	0.2896413
85	0xc112414c	-9.140942
86	0x3f373201	0.71560675
87	0x3e0eb786	0.13937196
88	0x3f8f8e0a	1.1215222
89	0x3af1db1a	0.0018452138
90	0xbfc2c293	-1.5215629
91	0x4004982f	2.0717885
92	0x3f3127e6	0.69201505
93	0x4011961d	2.2747872
94	0xc00972cd	-2.147632
95	0xbf3d6d96	-0.7399534
96	0xc0c23318	-6.068737
97	0x3f70eeb5	0.9411424
98	0x4017d1db	2.3721836
99	0x3eb2757f	0.34855267
100	0xc0c57e47	-6.1716647
101	0xbea31dde	-0.31858724
102	0x3e8b3df8	0.27195716
103	0x40b22f5b	5.5682807
104	0xbd231f47	-0.03982475
105	0xc02c15d9	-2.6888335
106	0xc09393dc	-4.6117992
107	0x3f0359c7	0.51308864
108	0x40123596	2.2845206
109	0x3fc3441c	1.525516
110	0xbe210355	-0.15723927
111	0xbf0a1aef	-0.5394735
112	0x3d1e8e92	0.038710184
113	0x3c75f48e	0.01501192
114	0x3e482c30	0.19548106
115	0xc00543e8	-2.0822697
116	0xbfe19134	-1.7622437
117	0xbf9d06ba	-1.2267678
118	0x3ea787fe	0.3272094
119	0x408be193	4.371286
120	0x3d09c778	0.033637494
121	0x3ea7ce12	0.32774407
122	0xc05a03ad	-3.4064744
123	0x3dbc161e	0.09183906
124	0xbd632f4c	-0.055465028
125	0x4034f520	2.8274612
126	0x3fb8f983	1.4451145
127	0xbfe9d44d	-1.8267914
128	0x3f9fefbc	1.2495036
129	0xbd998aa4	-0.07497147
130	0xc013c59f	-2.3089368
131	0xbfb9bb55	-1.4510294
132	0xbf92ae17	-1.1459378
133	0x3f15350f	0.58284086
134	0xbfb890e5	-1.4419218
135	0x3f0ca060	0.5493221
136	0xc1039375	-8.2235
137	0xbeaeaa49	-0.34114292
138	0xc021549b	-2.520789
139	0x409e144c	4.9399776
140	0x3d8754ba	0.06607957
141	0xbfda8c37	-1.707404
142	0xbca67ddf	-0.020323692
143	0x3e18532e	0.1487548
144	0xc05628bd	-3.3462365
145	0x3faeff37	1.3671635
146	0x3faa31c6	1.329644
147	0x3dd0a6c5	0.10188059
148	0x3f91311f	1.1343116
149	0x3d912d45	0.070887126
150	0xbf3c4107	-0.73536724
151	0xc044739a	-3.0695558
152	0xc1380efe	-11.50366
153	0xc096b8e8	-4.7100716
154	0xbf46af35	-0.77611095
155	0xc0beb706	-5.9598417
156	0xc0268720	-2.6019974
157	0x3f1b3c3e	0.606388
158	0xbf65df7e	-0.89794147
159	0xc0ba276c	-5.8173122
160	0xc091d39b	-4.5570807
161	0xbfc9c459	-1.5763046
162	0xc0aecd1d	-5.4625382
163	0xc0ab65f5	-5.356196
164	0xbc9ba90a	-0.019001503
165	0xbe936524	-0.28788102
166	0xc075ff38	-3.8437023
167	0x3edc8d12	0.43076378
168	0xc03ea198	-2.978613
169	0xbf9c8561	-1.2228204
170	0x3fdd009c	1.7265811
171	0xbd0e6513	-0.03476436
172	0xbed2b101	-0.41150668
173	0xc02fbe69	-2.7459967
174	0x3d2fa87f	0.0428853
175	0x405a29e1	3.408806
176	0x40227919	2.5386412
177	0x3f73a7d5	0.95177966
178	0xbebea3de	-0.37234396
179	0xc1a51338	-20.634384
180	0xbf6011ff	-0.8752746
181	0x3f16feef	0.5898275
182	0xc0a63c40	-5.1948547
183	0xbcfc42cb	-0.030793568
184	0xbff947f9	-1.9475089
185	0xc0499cd4	-3.150197
186	0x3f187a14	0.59561276
187	0xc0cdb030	-6.4277573
188	0x4069f318	3.6554623
189	0xc00b4671	-2.1761744
190	0xc0638ed6	-3.555593
191	0xbff66ee2	-1.9252589
192	0x40602d2c	3.502757
193	0x3d9abbf5	0.07555381
194	0xc1011628	-8.067909
195	0x3cce3580	0.025171995
196	0x3e99e644	0.3005849
197	0x3dbd16d9	0.092328735
198	0xbf81b500	-1.0133362
199	0x3ec5e70b	0.38652834
200	0xbda3ba04	-0.07994464
201	0x40838e56	4.111125
202	0xc0dbca08	-6.868412
203	0x3edc8c7b	0.43075928
204	0xbee8de9b	-0.45482334
205	0xbe7818c3	-0.24228196
206	0xbe1c0864	-0.15237576
207	0x3ff6eeb1	1.9291593
208	0xbe89f93b	-0.2694796
209	0x3daab47c	0.08335206
210	0xbe0c691a	-0.13711968
211	0xc1211ba0	-10.069244
212	0xc0ab0883	-5.344789
213	0x3f0f4268	0.559607
214	0xc162679b	-14.150294
215	0xbf5a2d0a	-0.85224974
216	0xc0480316	-3.1251884
217	0xbf19edb4	-0.6012833
218	0xbe1321e5	-0.14368398
219	0x3e7ac00b	0.24487321
220	0x3fce1cdc	1.6102557
221	0x3f4df26d	0.8044804
222	0x3de6093b	0.11232229
223	0xbffc8128	-1.9726915
224	0x3b4c13e8	0.0031139795
225	0x3f8bb19b	1.0913576
226	0xbfa83143	-1.3140033
227	0xc0bec5d8	-5.961651
228	0xc06cb422	-3.6984944
229	0x3ee713ec	0.45132387
230	0xbfe750d6	-1.8071544
231	0x403b3c42	2.9255528
232	0xc0003596	-2.0032706
233	0xc01620df	-2.3457563
234	0xbf51ff59	-0.82030255
235	0xc1953b99	-18.6541
236	0xbd67304b	-0.05644254
237	0xbdcc6167	-0.099795155
238	0x3f30f9e7	0.6913132
239	0x3d715136	0.05891534
240	0x403b65bf	2.928085
241	0xc0b68558	-5.7037773
242	0x40142b2a	2.3151345
243	0x3f101c30	0.5629301
244	0x3eaa9e01	0.33323672
245	0xc07219ce	-3.782825
246	0xc0b8c760	-5.774338
247	0x3f3e297b	0.74282044
248	0x40b50279	5.656552
249	0xbe932609	-0.28739956
250	0xc0a757f9	-5.229489
251	0xbd2eec4f	-0.04270583
252	0x3e678220	0.22608232
253	0xc0a13be2	-5.03856
254	0x3cbb1a1d	0.0228396
255	0x40a1543e	5.0415335

hiddenLayer3.bias f4 [150]
0	0x4117692d	9.463178
1	0x410ec4cc	8.923046
2	0xbe948735	-0.29009405
3	0xbf143168	-0.5788789
4	0x3f8a8e03	1.0824589
5	0x40dcfc64	6.9058094
6	0xc08eb702	-4.45984
7	0x40022b05	2.0338757
8	0xbf17d116	-0.59303415
9	0xbf94a6fe	-1.1613462
10	0xbe91f3c4	-0.2850629
11	0x406d10e7	3.7041566
12	0xbee72468	-0.45144963
13	0xc0796c93	-3.8972518
14	0x40dfcd85	6.993838
15	0xbf86ff37	-1.0546635
16	0xbea8aa16	-0.32942265
17	0x40e73714	7.2254734
18	0xbe225155	-0.15851338
19	0xbf3c0d26	-0.7345756
20	0x40b95a96	5.792308
21	0xbf0b4e94	-0.54416776
22	0x415be1f7	13.742667
23	0x4028aa72	2.6354032
24	0xbf24222a	-0.6411463
25	0x4090b35d	4.521895
26	0x40dd8a9e	6.923171
27	0xbe30c9c6	-0.1726447
28	0x40a63c25	5.194842
29	0x401b670c	2.4281645
30	0x3f931484	1.1490636
31	0x4105d086	8.363409
32	0xbf1389b3	-0.5763199
33	0x40dde6aa	6.934407
34	0xbf8d17b2	-1.1022856
35	0xbee5c77a	-0.4487875
36	0x410c1a14	8.756367
37	0x40083e2c	2.1287947
38	0xbfbbda5b	-1.4676012
39	0xbf3b77d4	-0.7322972
40	0x3fa6ad85	1.3021704
41	0xbebaeff0	-0.36511183
42	0x40801b87	4.0033603
43	0xbf47b060	-0.780035
44	0xbe009ba7	-0.12559377
45	0x40d73e49	6.726353
46	0xbf2db463	-0.67853373
47	0x41764020	15.3906555
48	0xbf389c53	-0.7211353
49	0x409cad25	4.896136
50	0x4137fc5b	11.49911
51	0xbe624ba6	-0.2209917
52	0xc12a593e	-10.646788
53	0xbd9e77c5	-0.07737688
54	0xbe96d58d	-0.294598
55	0x409fed2e	4.9977026
56	0xbf2aee0a	-0.6676947
57	0x40e156d0	7.041847
58	0x4088b934	4.272608
59	0xc15b35d0	-13.700638
60	0xbf383b5e	-0.7196559
61	0xbe01ed30	-0.12688136
62	0xbefe821a	-0.49708635
63	0x4115d284	9.363895
64	0xbe7a6b5d	-0.24455018
65	0xbf1066a3	-0.5640661
66	0xbf3db79c	-0.7410829
67	0xc109e910	-8.6194
68	0xbf385b12	-0.7201396
69	0xbe3bae0e	-0.18328115
70	0x40f602e3	7.6878524
71	0x4022786e	2.5386004
72	0x4013475b	2.3012302
73	0x413c7ff2	11.781237
74	0x410da9e3	8.853976
75	0x4015400b	2.3320339
76	0xc106dde4	-8.4291725
77	0xbfb1fe90	-1.3905811
78	0x411cbd94	9.796284
79	0xbf6fb48f	-0.93634886
80	0xbf919db0	-1.1376247
81	0x41179b61	9.475434
82	0x40882b32	4.255273
83	0x3faec517	1.3653897
84	0xc01ba9dc	-2.4322424
85	0xbdb69216	-0.089145824
86	0xbee1e4af	-0.44119784
87	0xbecb80d2	-0.3974672
88	0xbde47d26	-0.11156683
89	0xbea85354	-0.32876074
90	0x3f6b944d	0.92023164
91	0x41349f92	11.288958
92	0xbea7331c	-0.3265618
93	0xbff9e466	-1.9522827
94	0xbe632c69	-0.2218491
95	0xc0872957	-4.2237964
96	0x411542a8	9.3287735
97	0xbf2b013e	-0.6679877
98	0xc125d54d	-10.364575
99	0x4125d52c	10.364544
100	0xbe07ee52	-0.13274506
101	0x40e4af0e	7.146369
102	0xbf1d3985	-0.6141589
103	0xbee96cb1	-0.45590737
104	0x408e8d39	4.454739
105	0xbdc49a55	-0.09599749
106	0x409aaaa6	4.833331
107	0xbf9c9327	-1.2232407
108	0xbe0417c8	-0.12899697
109	0x416b781c	14.716824
110	0xbf8a3337	-1.079688
111	0x3f3afd3a	0.73042643
112	0x4131e395	11.118062
113	0xbb5f2283	-0.003404767
114	0x3f73964f	0.9515123
115	0x41714ad1	15.080766
116	0x3fab5073	1.3383926
117	0xbd30cecd	-0.04316597
118	0x417268d9	15.150598
119	0xc00dedc8	-2.217638
120	0xbefec0f1	-0.49756578
121	0xbed30477	-0.41214344
122	0xbdd64008	-0.10461432
123	0xbe00da80	-0.12583351
124	0xbe9b9bea	-0.3039239
125	0xc113679d	-9.212796
126	0xbc08c716	-0.008348247
127	0xbe3d1410	-0.18464684
128	0x40c790e1	6.2364354
129	0x40f5869c	7.672682
130	0xbf33c6c5	-0.70225173
131	0x40e6e166	7.2150145
132	0xbfd428a0	-1.6574898
133	0x403dcc1b	2.9655826
134	0x400ad162	2.1690297
135	0x414e3001	12.88672
136	0xbf6eab02	-0.9322969
137	0xc08adb78	-4.3392906
138	0x3fe18387	1.7618264
139	0xbe5f18b9	-0.21786775
140	0xbd8538fd	-0.0650501
141	0x4135493a	11.330378
142	0xbef0d1c4	-0.47035038
143	0xc0e24480	-7.070862
144	0x409a4a82	4.821595
145	0xbc79e53a	-0.015252406
146	0x40111729	2.2670386
147	0x40c226d9	6.067242
148	0xc05f1e51	-3.4862254
149	0xbcc23e51	-0.023711355

outputLayer.weight f4 [2, 150]
0	0x400451d3	2.0674942
1	0x3f6956b9	0.91147953
2	0x392995e5	0.00016172936
3	0xbef33ea4	-0.47508729
4	0x3e175cd5	0.14781506
5	0x3f8e2589	1.1105205
6	0xc0a56fe0	-5.1699066
7	0x3c642f12	0.013927238
8	0xbfc5f22a	-1.5464528
9	0x4029082a	2.6411233
10	0x3ef33bc0	0.47506523
11	0x3fe9ebd2	1.8275092
12	0x3efac936	0.48981637
13	0xbf4591d4	-0.7717564
14	0xbfa769e9	-1.3079196
15	0x3f9536e3	1.1657375
16	0x3c972ccf	0.018453984
17	0x3fb076fe	1.3786314
18	0xbcab5fc9	-0.020919697
19	0x3ff79fd5	1.9345652
20	0x3ed3fc5a	0.41403466
21	0xbce43bde	-0.027860578
22	0x3fe49f05	1.7861029
23	0x3f3ad361	0.7297879
24	0xc0569ea0	-3.3534317
25	0x4113a755	9.228353
26	0x3ffb94e1	1.9654809
27	0x3e924096	0.285649
28	0xbd880841	-0.06642199
29	0x3ffa88df	1.957302
30	0xbf12cdb8	-0.5734515
31	0x3f9a369c	1.2047915
32	0x40ab630a	5.3558397
33	0x3f782942	0.96937954
34	0xc0e2607c	-7.074278
35	0x3f0a4fce	0.5402802
36	0x3eeda47f	0.46414563
37	0x3f44ea82	0.7692033
38	0xbdae7805	-0.08518986
39	0x3f874960	1.0569267
40	0x3d392594	0.045201853
41	0x3f7cd24d	0.98758394
42	0x415385ff	13.220214
43	0x3f862754	1.0480752
44	0xbcbdf9f7	-0.023190482
45	0x3cfce434	0.030870534
46	0x3f7555a1	0.95833784
47	0x401bf225	2.4366543
48	0xbeaebdba	-0.34129125
49	0x400e114c	2.2198057
50	0x3f9b6c81	1.2142488
51	0xbcf12f3e	-0.029441472
52	0x3f0447c4	0.51672006
53	0x3ce4a134	0.027908899
54	0x4036f98b	2.858981
55	0x3fcf1012	1.6176779
56	0x3fbd2853	1.4777931
57	0x3f1404d2	0.57819855
58	0x3f433b43	0.762623
59	0xc0338c65	-2.805444
60	0x3f989679	1.1920921
61	0xc006cd22	-2.1062703
62	0xbea59fa4	-0.3234836
63	0x40e8aeba	7.271329
64	0xbfb30d43	-1.3988422
65	0xbfdbee7e	-1.7182157
66	0x3f985c5b	1.1903185
67	0xbf924bf2	-1.1429427
68	0xc048f003	-3.1396492
69	0xbd1a9664	-0.03774108
70	0x404ae6b2	3.1703305
71	0x40a19402	5.0493174
72	0xbe707e54	-0.2348569
73	0x3fb6b006	1.4272468
74	0x4021c6d2	2.52776
75	0xc00b2e2b	-2.1746929
76	0xbe4fceb9	-0.20293702
77	0xbe60b009	-0.21942152
78	0x3febf5c6	1.8434379
79	0xbfca1631	-1.5788022
80	0x3fcdb36f	1.6070384
81	0x3fb78871	1.4338514
82	0xbf96694e	-1.1750886
83	0x3fd2db28	1.6473131
84	0xbf07bc44	-0.53021646
85	0xbd2d94e3	-0.042378318
86	0xbf972846	-1.1809165
87	0x404ab503	3.167298
88	0xbcd5dba9	-0.026105719
89	0xbf723d8d	-0.9462517
90	0xbf8d7eb1	-1.1054288
91	0x3f40b587	0.7527699
92	0xbf86f6ff	-1.0544127
93	0xbfa50e4b	-1.2894987
94	0x3cd215c8	0.025645152
95	0xc157cd90	-13.487686
96	0x400cc18d	2.1993134
97	0x40b1a112	5.550912
98	0xbf8a2afb	-1.0794367
99	0x3f96c391	1.1778432
100	0xc0f1abf4	-7.5522404
101	0x3fc44c23	1.5335735
102	0x3fc9000b	1.5703138
103	0xbfc9ff70	-1.5781078
104	0x3f364149	0.7119337
105	0xc020e265	-2.513818
106	0x3ff662ae	1.9248865
107	0xbcc04823	-0.023471897
108	0xbf92a8f9	-1.1457816
109	0x3f6ad13b	0.9172551
110	0xbf362203	-0.7114565
111	0xbf2369b6	-0.6383318
112	0x40d2e407	6.5903354
113	0x3f351a79	0.7074352
114	0xbff2396f	-1.8923777
115	0x400d3e90	2.2069435
116	0xbc43a6f4	-0.01194166
117	0xbbb222ad	-0.0054362626
118	0x3f890ef6	1.0707691
119	0xbfab997d	-1.3406216
120	0x3db91957	0.09038036
121	0xbe5ba1d5	-0.21448453
122	0xbd39d5b4	-0.04536982
123	0xbedef8ce	-0.43549198
124	0x3f0b428e	0.5439843
125	0x3f11d7a2	0.56969655
126	0xbb04141d	-0.002015359
127	0x3c963638	0.0183364
128	0xbf82f122	-1.0229838
129	0x3f02def7	0.5112147
130	0xc11009c6	-9.002386
131	0x3e72da38	0.23716056
132	0xc0839947	-4.1124606
133	0xc0676b07	-3.6159074
134	0x4082d292	4.0882044
135	0x3f94a0a4	1.1611524
136	0xbe156224	-0.14588219
137	0xbfbc9c69	-1.4735233
138	0x40bfff31	5.9999013
139	0x4005d69d	2.091224
140	0xbc70ff9a	-0.014709378
141	0x406126a0	3.5179825
142	0x400fcb24	2.2467737
143	0xbf55f444	-0.83575845
144	0xbf84148f	-1.0318774
145	0x3e6679a6	0.22507343
146	0x4083f8da	4.1241274
147	0x3fcadfec	1.5849586
148	0x4099e957	4.809734
149	0xbc76d999	-0.015066528
150	0x40037880	2.0542297
151	0x3f5adbc6	0.854916
152	0x3c684831	0.014177368
153	0x3ec0c182	0.37647635
154	0x3f7415ad	0.95345575
155	0x3fb92523	1.4464458
156	0xc0a2e077	-5.0899005
157	0x3f96f89d	1.1794621
158	0x40691453	3.6418655
159	0xc0352782	-2.8305364
160	0xbd2f996c	-0.042870924
161	0x40224eb4	2.5360537
162	0xbf1cb65e	-0.6121577
163	0xbf31b570	-0.69417477
164	0xbfae7d2d	-1.3631951
165	0xbf9883bb	-1.1915201
166	0x3cb4a3ba	0.022050727
167	0x3fbc807c	1.472671
168	0xbb5e4c90	-0.0033920147
169	0xc0024ff5	-2.0361302
170	0xbcff632f	-0.031175224
171	0xbe8a3814	-0.2699591
172	0x3fe4f392	1.7886832
173	0x3f3d64ae	0.7398175
174	0x40811ced	4.034781
175	0x4122aa4c	10.166576
176	0x3f8ad91c	1.0847507
177	0xbe987a8b	-0.29780993
178	0x3fac7769	1.3473941
179	0x40cbd556	6.369792
180	0x401b594c	2.4273252
181	0x3f324819	0.6964126
182	0xbfca7d25	-1.5819441
183	0x401a3931	2.4097407
184	0xc1022212	-8.133318
185	0x3ec638e3	0.38715276
186	0x3ff8cd3b	1.9437631
187	0x3e53dc59	0.20689525
188	0x3f93a3a4	1.1534314
189	0x3d69467e	0.056951992
190	0x3fb2d8f5	1.397246
191	0xbf6f3f99	-0.9345642
192	0x41761441	15.379945
193	0xbfa3026a	-1.2735112
194	0xbd48b12b	-0.048997086
195	0x3f95081a	1.1643097
196	0xbf87fe34	-1.0624452
197	0x401bc1ce	2.433704
198	0x3e3ebcde	0.18626735
199	0x40373340	2.862503
200	0x3f9ad4cc	1.209619
201	0xbcb72933	-0.022358513
202	0xbeb036ed	-0.34416905
203	0xbbd54c63	-0.00650935
204	0xc012941d	-2.29029
205	0x40237be7	2.5544374
206	0x4005e8ae	2.0923266
207	0x3fda1a92	1.7039359
208	0x4002e00b	2.0449245
209	0xc0325a79	-2.786772
210	0xbf8f7ca7	-1.1209916
211	0x400d91ae	2.2120166
212	0x3e4736e7	0.19454537
213	0x410aaf64	8.66782
214	0x3fc7179b	1.5554079
215	0xbf265ddb	-0.6498696
216	0x401543e3	2.3322685
217	0xc010e82a	-2.2641702
218	0xc043e1c3	-3.0606544
219	0x3c361a48	0.011114664
220	0x406ec616	3.7308402
221	0x40d0a586	6.5202055
222	0x3f8c4f33	1.096167
223	0x3fb75b3d	1.4324719
224	0x4021bf44	2.527299
225	0xc00d826e	-2.2110858
226	0x3e0e0daa	0.138724
227	0xbeede904	-0.4646684
228	0x400aa47c	2.1662893
229	0xc0043461	-2.065697
230	0x3fd7381d	1.6814
231	0x3fb8b942	1.4431536
232	0x405fdf52	3.4980054
233	0x4040b6b4	3.0111513
234	0xbe8501c2	-0.25977904
235	0xbb4d87e7	-0.0031361522
236	0x3f9b4730	1.21311
237	0x40271884	2.6108713
238	0xbcef8d9d	-0.029242331
239	0x3f1fef9f	0.6247501
240	0xbf7d7969	-0.9901338
241	0x3f3f5f16	0.74754465
242	0x3facfb0a	1.3514111
243	0xbfa7965c	-1.3092761
244	0xbbae87c2	-0.005326242
245	0xc18555cf	-16.666899
246	0x400e5a20	2.2242508
247	0x40735f24	3.802682
248	0xbf8916a5	-1.0710036
249	0x3f956531	1.1671506
250	0xc00382aa	-2.05485
251	0x3fe18a74	1.7620378
252	0x3fc3d843	1.5300373
253	0x3fd0d73e	1.6315687
254	0x40bfd819	5.995129
255	0x40201688	2.5013752

outputLayer.bias f4 [2]
0	0x41715f7b	15.085811
1	0x41737fea	15.218729
