ftl/pretrain/weight/multi-workload_v2/multi-workload_v2_23.pth (torch, 187665 bytes, 8 tensors)

hiddenLayer1.weight f4 [150, 3]
00000000: b662 a9be 7e14 0cc0 ad39 1a3e 73a7 b1bc
00000010: 6849 0039 1c1a 5bbd 92a8 54bd 371b 97be
00000020: 90ee 32c0 5700 c0bd 4f60 8c3d 2b9e af3f
00000030: 7a34 d2b7 c8fa 46bb d7cf 29bb 7d56 ebbd
00000040: 39c5 e439 19e1 e5bd f4ec c2bd 5579 77bd
00000050: 9cfd 3dbe 3f9c 25bb aed4 66bd 0f14 5340
00000060: 2f1c e9bd 74bc 45bd 9ac7 89bf 3da5 a9bd
00000070: cd3a 19bf c9b6 a8bd 69d4 35be 89b4 83be
00000080: 2646 85c0 3ba5 073e bb98 35bd 01f8 adbf
00000090: 2038 81c1 59b7 033e 101e 59bf 5b46 85bf
000000a0: 0b07 19bf 9854 f2be fae0 b1bc fe8c 043a
000000b0: 32d8 e4bb 71df c7be 81b3 453c d541 67bd
000000c0: 47c0 1ebe f6b2 643c 6276 a23b 79dc 4dc1
000000d0: 514b df3e cbef a03d d0e1 5dc0 6d75 5dbc
000000e0: 3151 50bc b6d3 69bd 3774 39ba e254 04bd
000000f0: b809 763e 6170 a3be e6dd ea3b 958a 16bc
00000100: 4a93 f53e 5ed9 843f ed07 28bd b00c 37bd
00000110: f1d0 0e3d 9601 2fc1 1517 953d 3d41 2d3e
00000120: 9360 9b3e d2c2 e8be ff8e 763f e148 ccbf
00000130: 4b00 9d3e 6b8e 96c0 4f3c 89be c598 023e
00000140: 6aa5 8dbf 4bae 90bf 9eb6 95be a49c 823e
00000150: 1160 6ec0 71df 9a3f c5d8 bfbe d127 77be
00000160: f66a 68bc cc19 903c 4432 14bb f74b d7bd
00000170: c462 443f 7f14 a3bf 299d b1be 7654 023f
00000180: af50 4bbe 0d5a 2f3f bb14 30c0 654c f0be
00000190: 00b2 093b 7602 5ebd b39b 9abd 0dba 7cb8
000001a0: 781c cfbd 4038 2e3d ef26 4dbf 0ecf 55bd
000001b0: ccc5 bfbe 4ffb 8e3d c03d 28c0 e4bf 8bbe
000001c0: ceb2 a93b 69f1 52be 5bab 87bc 3be9 37ba
000001d0: 899e e3bc fa6d 36c1 12e3 97be a258 62bf
000001e0: e2a3 00bd c055 9bbb 74de d3bc b643 c83d
000001f0: 9036 80bf 23f8 9fc0 86fc 7dbd 6bab 1339
00000200: d522 3cbc 81c9 18be 1989 52b8 7e8d 3fbd
00000210: 3878 36be eb2e 9cbf 73cd 883e c796 09be
00000220: 0594 35be e078 e5bf 3e22 503e 629a a2be
00000230: f3aa bd3e 1b7b 843d b677 ccbe 0218 5ac0
00000240: 5a74 c8c0 f901 3c3e a18a 893f 07c3 6dbe
00000250: 33ba 083f 3ff4 8cbf 2271 b7bb 743d 1cbf
00000260: 1680 ebbb f61f 8abd ce84 b3bf 39ad bf3c
00000270: 43ad 94bf b34c 173b d3c8 bd3f e5c1 00bd
00000280: 85b6 77bf 6db3 f93c 0a46 90bd e272 feb7
00000290: 1be7 10bd 35d7 063d 8624 25bd 82d9 c0c0
000002a0: c3b3 c5be 706a 01bf 6899 223e d0bb 8cbb
000002b0: 9399 3cb9 e0af d4bd ccfd eac1 90fb 98ba
000002c0: 9749 8a3b 09dd 51c0 299d b63f 2483 553e
000002d0: 7e7b 31bb cee7 bfba ad66 ac3a 4a5a b23e
000002e0: 9704 6c3e f409 7fc0 db4c 313c ee60 25bc
000002f0: fac8 07c1 5a76 09bc 2d6b 963f 2a8b 80c0
00000300: 4b2f a1c1 2eff 4ebe 94d1 aa3e 954e 3bc0
00000310: 05a0 1dbf 2b58 00c0 9e6f 33be 1354 de3f
00000320: 6461 293d c36d c63b 94c2 0abd c9ae 9f40
00000330: c435 67bd 014a 3e3d 1133 92bc 956a b7bd
00000340: f62a 433b dc26 33bc b885 03be 3a68 453f
00000350: 3d53 2b3d 6bd6 16c1 81a1 3e3e 02c9 16c0
00000360: fec0 c53d 5cad c33f bb29 063f 8a25 ebbd
00000370: 43ec e13b b536 b2bc de49 8fbd 3f4c 673b
00000380: b686 e2bb 88bb 96bd cf8a f239 34cf b2bd
00000390: 95ac f9c0 88d1 99be b8a2 2ac0 b2c5 56bd
000003a0: 96b9 b6bb fef5 28bd 3bf4 62c0 117f 583f
000003b0: 8208 e4be 48d1 103e af71 a23c 579d 4240
000003c0: 598a c8bc d9e2 6c3b f4b5 7ebc 47a1 80c1
000003d0: 29ff 2cbf 0841 613d 21e7 9ebe 667a 50bf
000003e0: c172 e2bd 0d29 1938 ac6d 873a 786a 1abb
000003f0: 511e c0be a1d9 503c 54c7 a8bf e533 62c0
-0.33083123 -2.1887507 0.15061064 -0.021686291 0.00012234377 -0.053491697 -0.051918574 -0.2951295
-2.7958107 -0.09375065 0.06854307 1.3720144 -2.5058387e-05 -0.003036188 -0.0025911236 -0.11491106
0.0004363449 -0.112245746 -0.095178515 -0.060418446 -0.18553776 -0.0025270132 -0.05635517 3.2980993
-0.11382329 -0.048275426 -1.0764039 -0.0828347 -0.5985535 -0.082379885 -0.1775681 -0.25723675
-4.164813 0.13246624 -0.04433511 -1.359131 -16.152405 0.1286291 -0.84811497 -1.0412096
-0.5977637 -0.47330165 -0.021713722 0.000505641 -0.0069837803 -0.3903766 0.012066723 -0.056459267
-0.15503035 0.013958683 0.00495796 -12.866326 0.4361215 0.07858237 -3.4669075 -0.013516766
-0.01271467 -0.05708667 -0.00070745073 -0.032307513 0.24027145 -0.31921676 0.0071675656 -0.009188314
0.47963935 1.0378835 -0.041023184 -0.044689834 0.03486723 -10.937887 0.07279793 0.16919418
0.30347118 -0.45461136 0.96311945 -1.5959741 0.30664286 -4.704885 -0.26803824 0.1275359
-1.1066105 -1.130319 -0.29240888 0.25510132 -3.7246134 1.2099439 -0.3747007 -0.24136283
-0.014185658 0.017590426 -0.0022612968 -0.10512536 0.76713204 -1.274063 -0.34690216 0.5091013
-0.19854997 0.6849678 -2.7512653 -0.46933284 0.0021010637 -0.054201566 -0.075492285 -6.0254755e-05
-0.10112852 0.042534113 -0.8013753 -0.052199416 -0.37455595 0.06981527 -2.628769 -0.27294838
0.005178786 -0.20599903 -0.0165612 -0.000701565 -0.027785556 -11.40185 -0.29665428 -0.8841649
-0.03140629 -0.004740447 -0.02586291 0.0977854 -1.0016651 -4.99904 -0.062008403 0.0001408287
-0.011482914 -0.14920618 -5.0195584e-05 -0.046765797 -0.17819297 -1.2201818 0.26719245 -0.13436423
-0.17732246 -1.7927513 0.20325562 -0.3175841 0.37044486 0.06468793 -0.39935082 -3.4077153
-6.264203 0.18360128 1.0745431 -0.23218928 0.5340912 -1.1012038 -0.0055982033 -0.6103127
-0.0071869 -0.06744377 -1.4024904 0.023398029 -1.1615375 0.0023086488 1.4826912 -0.031434912
-0.9676288 0.030481065 -0.07044609 -3.0332656e-05 -0.03537665 0.03292008 -0.040318035 -6.0265512
-0.3861371 -0.50553036 0.15878832 -0.00429485 -0.00017986288 -0.10385108 -29.373924 -0.0011671651
0.0042201984 -3.279116 1.4266711 0.20850807 -0.0027081664 -0.0014641227 0.0013153158 0.3483451
0.23048626 -3.9849825 0.010821546 -0.010093911 -8.486567 -0.008390034 1.1751457 -4.016988
-20.148092 -0.20214531 0.3336302 -2.9266713 -0.61572295 -2.0053813 -0.17523047 1.7369407
0.041352645 0.006055565 -0.03387697 4.990086 -0.05644776 0.046457294 -0.017846616 -0.08955876
0.0029780245 -0.010934558 -0.12843978 0.7711216 0.04182743 -9.427348 0.18616296 -2.3560185
0.09655951 1.528728 0.52407426 -0.114817694 0.0068946197 -0.021754602 -0.06996511 0.003529325
-0.0069130315 -0.073599875 0.00046261257 -0.08730927 -7.802317 -0.30042672 -2.6661816 -0.05243463
-0.005576323 -0.04125022 -3.5461566 0.8456889 -0.4453774 0.14142334 0.0198296 3.0408533
-0.024480032 0.0036145954 -0.015546311 -16.078749 -0.67576844 0.05499366 -0.31035712 -0.81436765
-0.11057044 3.6516274e-05 0.0010332367 -0.0023561995 -0.3752313 0.012747199 -1.318583 -3.5344174

hiddenLayer1.bias f4 [150]
00000000: 7f1b 3dc0 a46d b3bd 02eb 8bbd 344a 9fbf
00000010: b53b 74bd b98a babd 9679 c33e 034b c23f
00000020: 597d 593f 7bee 8bbe ad73 f7be 1246 8dbe
00000030: b49b b0be 9eaf bfbe 64e3 2fbc 5f02 a73e
00000040: 84ab 53be 1a0d 08bf 389a acbe 431c 1dbd
00000050: 9264 0dbf 88b3 16c0 edd1 93bf d835 c9be
00000060: cf54 abc0 c040 42bf ef20 ff3e 989b 2ec0
00000070: 59c7 503e fa84 1abf e9a3 e63f 6508 31c0
00000080: 15e6 40bf 66ab b5bd 3ce7 2fbe 8840 e2bf
00000090: e154 f6be 2eea 50be 4579 08bd ae3e 47bf
000000a0: d2ca 15be 7ecf 00c0 d73d 75bc ad04 32bd
000000b0: 603a 73bf 47c4 72be a405 febf 2314 eb3e
000000c0: 38f4 fbbe 545c e4bd 1b0a f4bb 4746 cfbf
000000d0: 8cb6 82c0 bc64 bebe 69e0 f7bc d82a a3bf
000000e0: 1f91 35c0 3f29 aabd 724d 09bf e370 9bc0
000000f0: 68e1 82bd fe7d 9f3f a681 043f 7d5a c6bf
00000100: 7c05 e8be 2f00 9ebf 372d 0dc0 1d95 07be
00000110: b938 29bf 83e1 89bd f157 83bf 2e23 23bf
00000120: ba10 1cc0 9b79 1fbe 5289 a2bd 7b7d 95bd
00000130: dc0b b4bf daab f2bd 0faa e3bf 569a 85c0
00000140: 7634 7ebd 5525 6dbf f549 efbe 624d e9bc
00000150: b4d9 923e f027 d3bf e6a8 0ec0 7670 7a3f
00000160: 073e 5bbc e643 9abd 95f8 a0be 2450 fbbe
00000170: 8fe9 7abf a678 81bf dc07 71bf de02 bfbd
00000180: 30ad 933f f95f 0ec0 b2d9 d0bd abf3 c1bf
00000190: 3b7f 0cbe 42f0 843e 5976 19c0 caf3 82bf
000001a0: 0f6d 0dc0 af4c b7bd 4673 12bd fb61 efbf
000001b0: 2d4f 70bf f424 febf 1ffa d63d 77e8 debd
000001c0: e867 55c0 0718 b0bf 7f94 6ebd 6133 8fbc
000001d0: b2bc ccbf e160 53be 926a 88bf 4ed3 f6bd
000001e0: 6c2f 5ebd 09f0 47c0 da54 26c1 44ad d9bc
000001f0: e7c3 37bd 5750 eabc 8a75 24bf b85b e03e
00000200: 6b57 53bf 8e82 3bbe ff6e eebf 10ab 07bf
00000210: 5da9 08be 031c 073e fda0 0fbf 0ff7 1dbe
00000220: a783 d43d 3975 c4be 226a 17c0 fd5b cebd
00000230: 499b 0740 866d abbf daaf 37c0 ff72 8dbf
00000240: d116 8fbe fb3b 61bc 9de9 c9be 5b0e 02be
00000250: c8d2 1fbd 1aad 873f
-2.9548032 -0.08761147 -0.068319336 -1.244452 -0.059627254 -0.091084905 0.381787 1.5179142
0.8495689 -0.27330384 -0.4833044 -0.27592522 -0.34493792 -0.37438673 -0.0107353665 0.32618997
-0.20670897 -0.5314499 -0.3371141 -0.03835703 -0.55231583 -2.3547077 -1.1548439 -0.39298892
-5.3541026 -0.7588005 0.49829814 -2.7282467 0.20388545 -0.60359156 1.8018771 -2.7661374
-0.7535108 -0.08870582 -0.17178053 -1.7675943 -0.48111632 -0.20401832 -0.033318777 -0.77830017
-0.14628151 -2.0126643 -0.014968357 -0.04346149 -0.9501095 -0.23707686 -1.9845471 0.459138
-0.49209762 -0.11150423 -0.0074474937 -1.6193322 -4.0847836 -0.3718623 -0.030258374 -1.274745
-2.8369825 -0.08308648 -0.536338 -4.85753 -0.06390649 1.2460325 0.5176033 -1.5496365
-0.45316684 -1.2343806 -2.2058847 -0.13240476 -0.66102177 -0.06732466 -1.0261213 -0.63725555
-2.438521 -0.15573733 -0.07936348 -0.07299324 -1.4066119 -0.11849184 -1.7786273 -4.17509
-0.06206175 -0.9263509 -0.46736112 -0.028479282 0.2868172 -1.6496563 -2.2290587 0.9782785
-0.013381488 -0.07532482 -0.31439653 -0.4908458 -0.9801263 -1.0114944 -0.9415262 -0.09326719
1.1537228 -2.2246077 -0.10197772 -1.5152487 -0.1372041 0.25964552 -2.3978484 -1.0230649
-2.2097814 -0.08950173 -0.035754465 -1.8701776 -0.9387081 -1.9855027 0.104969256 -0.10884183
-3.334467 -1.3757333 -0.058247086 -0.017480554 -1.5995085 -0.20642425 -1.0657523 -0.12052022
-0.054244444 -3.1240256 -10.395716 -0.026571877 -0.04486456 -0.028602762 -0.6424185 0.43819976
-0.82555264 -0.18311521 -1.8627623 -0.52995396 -0.13345857 0.1319428 -0.56105024 -0.15426277
0.10376673 -0.38370684 -2.3658528 -0.10076139 2.1188529 -1.3392799 -2.8701081 -1.1050719
-0.27947095 -0.013747211 -0.39436045 -0.12700789 -0.039019376 1.0599701

hiddenLayer2.weight f4 [150, 150]
00000000: d028 acbe a3e3 9b3d 0aa6 2dbf d9ce e4bf
00000010: ac49 18bf e100 7f3e 5b13 cdbc 263b bfbe
00000020: f546 873e 9df8 b3bf d4ac 0ac0 5a82 86bf
00000030: dcfc 26c1 5f0b f3bd cce6 cd3d 4cf2 a4be
00000040: 95df c5bd 03fe 733f ae34 20bd c561 0bbe
00000050: ec0c e3bf 1d63 c2be 98c7 d3be a9dc 0fc0
00000060: 8089 86c0 48b7 12bf 67d2 323f edbc 07c0
00000070: 0a78 773f 4253 43bf e2fd a4bd b0d1 55bf
00000080: 301c fbbf 09db 87be 8ee1 acbd b16e d6be
00000090: d5c2 0740 724e ccbe 8d36 8b3d 6577 adc0
000000a0: 3234 59be 0977 a3c1 6e00 c1bd cc5b 3ebe
000000b0: b200 a0bc 9ed0 0f40 7867 b8bf d2aa 47be
000000c0: 936b a1c0 734c cb3f 54ad aac0 9d58 d33f
000000d0: b9dd 93bf f1cc 9bc0 8e95 a13c ebbc 08c0
000000e0: 14a8 a9c0 ec3d d53d 38a0 5741 17d1 acbf
000000f0: f385 05bf 5bb1 c33e 8b5e 5d3f 8332 1d3f
00000100: 50e3 5bc0 30e0 043f 4872 d5bf 3ddf 1fc1
00000110: 87f9 1f3f 6c2e d9bd d52d 0dbf 4264 2abf
00000120: 3118 9fbf eea1 28bd 6e14 39bd b3f4 32be
00000130: 8775 83c0 86b7 88be 7bff c4c0 7245 80be
00000140: 4e16 fcbd 524e 3340 bd52 c3bd 7fab abbd
00000150: 613e 273e 98a7 6ec0 dfd5 37c0 c6de 8b3e
00000160: a9bd 8b3e 2df2 d6bd 13f3 c5c0 e2d5 e0be
00000170: 4ccb 2ec0 5a29 9a40 43ad 91be 7868 d63f
00000180: 55b5 023e ca19 95be 10fc 6e3f 285c a3c0
00000190: ee5c ce3e b06f 60bf ad6c fb3f 5fd9 bdbb
000001a0: 435e 41bf 19b3 fc3e fba7 a93e a4f0 1e3e
000001b0: c251 8bc0 5a29 51bf c4fd 0f3f b08e f3bd
000001c0: 8920 45c0 0663 9a3f f52e 86c0 d8e3 2d3c
000001d0: 94d6 80c0 63bc c1c0 f58f 31c0 157a 44be
000001e0: 3ae7 98bc 6bcb edbf 8af7 a0be 853b a5bd
000001f0: 43f1 afbd 2e00 74be 9cba 20c0 abe6 2f3e
00000200: 9473 0ac0 100d 953e 104a cc3f bd20 923f
00000210: 25bb e6bd d8d4 82c0 3ddc 98c0 7e2c 3fc1
00000220: db4c 4d3f b46d 15c0 a3a8 c13f d702 ad3d
00000230: 6b48 223e 6b11 5fbf 4f91 1abf 6f42 b8bf
00000240: 31c6 72bf 7f3d e7bc c4c9 303f f737 78bf
00000250: b6b2 583d 4795 c6bd 99fa 9ac1 e2d3 373d
00000260: 4179 15bf e6cc 6f3f 631c 89bd 203e 7dbe
00000270: 3e8d 00c0 af72 32be a1f6 9c3d 426f a8c0
00000280: ab2d 2abf f056 a8bf 03c1 bf3f fb79 07c1
00000290: 2cbc c93c 0edb 0fbc 5297 3e3e aeab 9d3e
000002a0: 886f 60bf 4ff4 64bd 173e 98bf 398c 53bc
000002b0: 5254 0b3f bd48 9cbf 37a6 64bf 7eec 6cbf
000002c0: 19e3 f6be 1064 67bf d5b8 e63f 453d 0dbf
000002d0: 2503 19bf 4dfa f83e 4312 f6bf de62 ca3e
000002e0: 5217 b13e e104 1ebd d35a aabf 951b c33e
000002f0: 4fd7 423d 8f7c 2640 016a 0abf 34be 0240
00000300: 6b6e 3ebc 2a17 c5bc cb17 d9c0 58dc 22bf
00000310: 851d a53e 5c57 013e f13a ae3c 3ae3 84be
00000320: 7738 403f 3a26 2ec0 1396 7bbf 3a0b b8be
00000330: ac39 0ebe 6ddb 77bf 0af8 3540 07f4 a3be
00000340: 683b 0541 7ced 4abf 2fd0 4cbf 128c 87bf
00000350: f322 9cbe cb79 9bbf eca8 2d40 bed9 edbe
00000360: 8adb cbbf f169 093e e46b c7be e3e2 1bbe
00000370: 1c17 28c0 00d7 933f 1dcb e5bf 0a86 b63d
00000380: 7343 afbd 4ace e73d d42c 2b40 f8cc a9be
00000390: 47d6 003f 9c43 0d40 4c7f 723e de2b 0240
000003a0: c93d 0bc1 202d 2fbd c68b c4bf c6ef 79bf
000003b0: 51ec 67c0 79ab a33e 976e 93bc 3e85 eabf
000003c0: a69a 1fbe c61c 89bf 74e9 2ebe 150b 43bf
000003d0: baed 973f 90da e5bf c802 a53e 0847 b8bf
000003e0: 769d 953e 14c4 033f bd8a 053f 1d21 54bf
000003f0: 9667 3fbf 2bc4 55bf 2712 55bf 0a16 8fbf
-0.33624887 0.07611778 -0.6783148 -1.7875625 -0.59487414 0.24902679 -0.025033643 -0.37349814
0.26421323 -1.4060246 -2.1667986 -1.050853 -10.436733 -0.11867403 0.10053787 -0.32216108
-0.096617855 0.95309466 -0.03911274 -0.13611515 -1.7738318 -0.37966242 -0.41363215 -2.247843
-4.2042847 -0.57310915 0.698523 -2.120906 0.9666754 -0.76298916 -0.08056237 -0.8352308
-1.9617977 -0.26534298 -0.08441459 -0.41881326 2.1212666 -0.399036 0.06797514 -5.4208245
-0.21211317 -20.433123 -0.0942391 -0.18589705 -0.019531582 2.247108 -1.4406576 -0.19498757
-5.0443816 1.5882705 -5.333658 1.6511418 -1.1552039 -4.8687673 0.019724634 -2.1365306
-5.3017673 0.10412201 13.476616 -1.3501309 -0.52157515 0.3822125 0.86472386 0.614052
-3.435749 0.5190458 -1.6675501 -9.992002 0.62490124 -0.106045574 -0.5514806 -0.6655923
-1.2429258 -0.041170053 -0.0451855 -0.17476158 -4.1080966 -0.26702517 -6.1561866 -0.25052983
-0.12308942 2.8016553 -0.095372654 -0.0838232 0.1633239 -3.728979 -2.8724287 0.273184
0.27293137 -0.1049541 -6.185922 -0.4391318 -2.7311583 4.817548 -0.284525 1.6750631
0.12764485 -0.29121238 0.93353367 -5.1049995 0.40305275 -0.8767042 1.964254 -0.005793735
-0.75534457 0.4935539 0.3313597 0.15521485 -4.35373 -0.8170372 0.5624659 -0.1189245
-3.0801108 1.206147 -4.193232 0.010613404 -4.0261936 -6.0542464 -2.7744114 -0.19187196
-0.018664945 -1.8577703 -0.31438857 -0.08067993 -0.08590939 -0.23828194 -2.5113897 0.17177837
-2.1633043 0.29111528 1.5960102 1.1416241 -0.11266164 -4.088482 -4.7768846 -11.948362
0.801954 -2.3348207 1.5129589 0.08447807 0.15847938 -0.8713595 -0.60377973 -1.4395274
-0.94833666 -0.028227566 0.6905787 -0.96960396 0.052904807 -0.09696441 -19.372362 0.0448798
-0.58388144 0.93672025 -0.066948675 -0.2473073 -2.0086207 -0.17426561 0.07664228 -5.2635813
-0.66475934 -1.3151531 1.4980778 -8.46728 0.02462586 -0.008780254 0.18612412 0.30795044
-0.87670183 -0.055897053 -1.1893948 -0.01291185 0.5442554 -1.2209698 -0.89316124 -0.9254836
-0.48220137 -0.9038706 1.8025156 -0.55171615 -0.59770423 0.48628464 -1.9224323 0.39528555
0.34588104 -0.03857887 -1.3308967 0.3810698 0.047568616 2.6013525 -0.54068 2.042859
-0.011623005 -0.024058897 -6.7841544 -0.6361747 0.32249084 0.12630981 0.02126834 -0.2595461
0.7508616 -2.7210832 -0.9827587 -0.35946065 -0.13889188 -0.9681919 2.843264 -0.32022116
8.3270035 -0.7926862 -0.8000516 -1.0589621 -0.30495414 -1.2146543 2.7134352 -0.46455187
-1.5926373 0.1341932 -0.38949502 -0.15223269 -2.6264105 1.1549988 -1.795261 0.08912285
-0.08557787 0.113186434 2.674611 -0.3316419 0.5032696 2.2072515 0.23681372 2.0339274
-8.702584 -0.042767644 -1.5355155 -0.9763149 -3.6237986 0.3196676 -0.01799707 -1.8321912
-0.15586337 -1.0711906 -0.17081243 -0.76188785 1.1869423 -1.7957325 0.32228684 -1.4396677
0.29221696 0.51471066 0.5216482 -0.82863027 -0.74767435 -0.83502454 -0.83230823 -1.1178601

hiddenLayer2.bias f4 [150]
00000000: 7f87 2d3e 6017 52bf d336 9b3f 316d 013f
00000010: 1051 ee3e bcc8 243d 17ab 2c3f 34aa 97bd
00000020: 2702 6a40 7aae 2b3e 2fcc bf3e a946 bf3e
00000030: 1ca3 2c3f bb83 4d3e f60c 91bd 9414 6dc0
00000040: 7095 3640 9d52 2c3f c783 c63f aafe b93f
00000050: 866f 243e c55a 03bd fdc1 53bf cde7 9abf
00000060: 91ad 86bd e75c 0cbe 341a 24bf af98 fc3e
00000070: e231 d63e fd67 8a3e b13a 753f 7b54 cabb
00000080: d9ee 1f3f 3c0e bc3d 93f3 2f40 3bc6 1bbf
00000090: 0e42 c1bd 3289 8a3f 3cbc 6b3e e453 5e3e
000000a0: 8c6f f8be 0542 48bc f34a b13c 9bf5 32bd
000000b0: c3e6 6abe 1c27 a0be 74c2 57c0 42be 7bbf
000000c0: 5037 a73e 8001 adbd 8442 75be 2392 343e
000000d0: c052 af3e eabd 94be 1ffe 01bf 053d 7ebe
000000e0: 42eb 8bbd 8468 01be c1f0 5a3e 168f 3d3d
000000f0: dd39 f3bd 29be d13e 11f5 05bd 11c1 8c3d
00000100: 904e 1e3e d219 4940 0f1d 22c0 86f3 af3d
00000110: c9c7 40be 1e5b 893f a9c6 d63f 647d 6bbe
00000120: ae60 453f 0e30 0040 d02a 3bbe bc61 dbbe
00000130: 11d0 433e 7c10 993d b9a0 8bbe 0c89 143f
00000140: 5d05 323f 6680 da3e bb0f c7be f1d4 3bbf
00000150: 9168 513e a61c 0dbf d8ca 973f bd10 c7bd
00000160: a25f c93f b5b6 31bd 0845 873d 361d 2f3e
00000170: 5ea6 65be 7535 b23f 8e21 f7be 426b 273f
00000180: 2c7e 9c3d 5f66 5d3e 06cd 57be 9172 7140
00000190: d580 d0bf b75a e1bd 89e2 0bbe f549 4d3f
000001a0: 989c d73c b9fe 2b40 9732 9b3e 6ddc dbbd
000001b0: 3e9e ccbc cd98 c4c0 f9c0 9b3d b88c 4e3e
000001c0: 736a d1bd f9df ca3e e9a5 6f3f f7ef 973e
000001d0: d822 5ebf 2fba 3ebf 3310 a9be 9a35 e9bd
000001e0: c74d 3cbd bcad 69bf 02cf 053e e759 77bd
000001f0: 8764 00bf 6f39 753f 185f 673e 50ad 15bd
00000200: 3a92 b03e 73dd d6bd 4ef4 d3be 843d 4ebc
00000210: f0d8 4440 c822 503e 52fe 91be 8ded 3a3e
00000220: c15c 39bf d161 14bf 638f 2b3f b29b 023f
00000230: 68bc 2a3f a655 3fbf 1123 8cbd 221b cdbe
00000240: 4fe8 e23d 7c9b eabf 9d17 b2bd 69a5 58be
00000250: 5448 0b3e f154 773f
0.16946219 -0.8206692 1.2126106 0.5055724 0.4654622 0.040230498 0.6744856 -0.074055105
3.6563814 0.16765776 0.37460467 0.37358597 0.67436385 0.20069782 -0.0708255 -3.704381
2.852871 0.6731356 1.5508965 1.4530842 0.16058168 -0.032068986 -0.8271788 -1.210199
-0.06576074 -0.13707314 -0.6410248 0.49335238 0.41834933 0.27032462 0.9579268 -0.0061746216
0.6247383 0.091824025 2.7492416 -0.6084935 -0.09436427 1.0823119 0.23021024 0.21711689
-0.48522604 -0.0122227715 0.021642184 -0.04369126 -0.22939591 -0.31279838 -3.3712435 -0.98337185
0.32659388 -0.08447552 -0.23951155 0.17633872 0.3424282 -0.29051143 -0.50778383 -0.24827965
-0.06831981 -0.12637526 0.21380903 0.046279036 -0.11876271 0.40965393 -0.032704417 0.06872762
0.15459657 3.142201 -2.5330236 0.0859137 -0.18826212 1.0730932 1.6779376 -0.22997051
0.77100646 2.002933 -0.1827805 -0.42848003 0.1912234 0.07473847 -0.2727106 0.58021617
0.69539434 0.42676085 -0.3887919 -0.733718 0.20450045 -0.5512184 1.1858778 -0.097199894
1.573231 -0.043387134 0.066049635 0.17100987 -0.22426745 1.3922564 -0.48267788 0.6539804
0.07641253 0.21621083 -0.21074304 3.7726176 -1.6289316 -0.110036306 -0.13660635 0.80190974
0.026319787 2.687422 0.30312034 -0.10735402 -0.0249778 -6.1436524 0.07605166 0.20170867
-0.10225382 0.39624003 0.93612534 0.29675266 -0.8677192 -0.74502844 -0.33020172 -0.11387177
-0.04597261 -0.9128072 0.13067248 -0.060388472 -0.5015339 0.9579076 0.22594869 -0.036542237
0.34486562 -0.10491457 -0.41397327 -0.012587909 3.0757408 0.20325768 -0.28514344 0.18254681
-0.72407156 -0.57961756 0.67015666 0.5101882 0.66693735 -0.74740064 -0.06842626 -0.40059763
0.110794656 -1.83287 -0.0869591 -0.21156849 0.1360181 0.96613985

hiddenLayer3.weight f4 [150, 150]
00000000: bc64 83be e403 c0bf c8c6 afbf 607c cd3e
00000010: 679f 68be 7568 32bf c4eb 32be 95c8 a1be
00000020: 6519 473f ef3c 07bf 6c0a 1fbf 1300 b93e
00000030: bebb 81be 694c 6bbe e4b3 21bd 503f 47bd
00000040: fba3 fd3e c68d ecbe b4c6 dcbe 020b 82be
00000050: ce13 01bf 25aa a7bd e5f5 873d 5bd0 c93e
00000060: cbb3 2b3d 3673 afbe f653 77be 7a23 04bf
00000070: 2fb9 da3e bbe8 4bc0 96ab 99be 7e69 8b3e
00000080: 3087 483f 2e14 803f c955 ad3e 7373 98bf
00000090: b4a0 2dbf e665 003e d2fb af3e 34cc 14be
000000a0: 10fc 0cc0 324b 01c0 4e1e bdbe 815f 4c3d
000000b0: 20d8 08be cf43 5f3e b870 943d 038d efbe
000000c0: b155 62be 10ac ea3e 7370 3cba 4116 19be
000000d0: bd45 c5bf 7cbe 913f b041 d1c0 08da aabd
000000e0: 0045 e4be 86eb 073f e9e6 c63e 1931 68bf
000000f0: d651 83be eb49 1fbf b175 4b3f cd44 2dbf
00000100: 1a9d 29bf 8cdc f93d 873c f23d 010a fc3d
00000110: a3ae 323e c57f 4c3e 910a 0f3f d991 b73e
00000120: 6e1b ab3e 9405 f6be ab6d 7d3e 02dc a8bd
00000130: 938d d6c0 5acc 43bf 71c7 173e 257b d03c
00000140: e2d0 47bf bc3c edbd ea9b 403e 1828 25bf
00000150: a08f d13e 11d4 2f3f dd28 76bd 86b7 0e3e
00000160: b3d2 e53d 807a 9b3c ea15 a1be 8a95 cc3e
00000170: faad d63e 949a 5a3e 90c5 10c0 2b98 743d
00000180: 5ad1 0fbf 1b02 c9bd cd3e 97bc eb3a 693f
00000190: 6b49 2e3f 539a 93be f83d 8b3e 9258 aa3c
000001a0: 471f 23bd 0a35 b53e ae0d 4d3f cdd7 f63e
000001b0: 9ecb d8bd 808b 1ebf 453d 16be 5c1b 4fbe
000001c0: 209a d1bd 0f2c 883d e504 ad3e 0f32 9bbd
000001d0: d81c 7dbe 6191 c43e fe87 a73e 1689 51bf
000001e0: 78c7 093d 891b a33e ed9f 74bd 05dd 9d3d
000001f0: b8f1 acbd 06c9 b7be 631e 6dbd 82ff febf
00000200: f7bd a2be ee16 dabd 92cc d0be 7a9b 713e
00000210: e697 9f3e 4b5c 30c1 237c bebf 4708 303f
00000220: 5894 05c0 216b 01c0 81af 85be 6d8f b33d
00000230: 9ac7 b63f a39a bfc0 df7d a6bc c99e bc36
00000240: 8c39 5c3f 9613 b83e 739b 0f3e c5a6 d03d
00000250: d1fb 883e 7ba3 4e3f f082 c13e d727 57bf
00000260: e11f 31c0 8403 98be e8c8 12bf dad1 06c0
00000270: 3930 fcbe 49f1 223f b7ec 103f cc53 b8bf
00000280: d580 403d 7ada 9f3e 610c 4fbf d8a6 51bf
00000290: 0aa9 9bbc 7f24 ef3e 35eb d33d a3c9 b8be
000002a0: da48 34bf c55f 02be a098 bd3d f4cf 48bd
000002b0: 01b1 d2be d096 703e 801a a43d d9a7 a03d
000002c0: 732d 22bf 17eb 5b3f 81bb 49c0 8513 b8c1
000002d0: 2ee3 4fbf 180a 253f 38e7 d0bf ca8a 86bf
000002e0: fd37 093f 0e8f b1be 147a 183f 7eb7 563e
000002f0: c368 cebe 640d 4dbf fd32 373d f247 12c0
00000300: fb55 643f f5bb 9a3d 5389 cf3c 8035 ce3c
00000310: de41 00be f280 3ebf c331 b13e f6ee 2b3e
00000320: 04ba a3bd a0e2 71be aac8 403e 7b8c dc3e
00000330: 9904 5a3f a2f4 573f 6408 1cbe 7538 a53f
00000340: bd68 4a3d 3c69 c1be bbf7 46bd 12d4 8bbe
00000350: 1185 17bf c0a3 893d 010d bd3c 55af c6be
00000360: 3424 39bd 5f9e 1cbf e521 13be d1ab b93e
00000370: 1062 393f 58ca 6d3f 6781 a83e 07a8 39bf
00000380: 88bb 59bf 62b7 873f d86c df3f c216 29c0
00000390: f7ec 7a3f 3e35 f2be dcc1 ea3e bc88 f43e
000003a0: 756c 14be 5493 c73e 0e38 433e ed5a 073f
000003b0: a874 d73e 6761 ccbd b725 abbc acaa 0a3e
000003c0: 0fe9 4840 4de1 c93e fadf d6bd 265a 663e
000003d0: 3853 9a3e afdf 48bf f89e 6ec0 14c3 b33e
000003e0: 3fc6 023f a788 7c3e f346 12c0 4fec 2ebd
000003f0: 2082 673e ecb2 1c3f 1d1a bb3c 0b1f 90be
-0.25662792 -1.5001187 -1.3732538 0.40133953 -0.22717057 -0.6969064 -0.1747275 -0.31598344
0.77773124 -0.5282735 -0.6212528 0.3613287 -0.25338548 -0.22978367 -0.039478198 -0.048644364
0.4953917 -0.46201915 -0.43120348 -0.25399023 -0.50420845 -0.08186749 0.066386975 0.39416775
0.04191951 -0.34267586 -0.24153122 -0.5161663 0.4271941 -3.1860797 -0.30013722 0.27228922
0.7833128 1.0006158 0.3385451 -1.1910232 -0.6782334 0.12538871 0.3437181 -0.14531022
-2.2028847 -2.0202146 -0.36937183 0.049895767 -0.13363695 0.2180321 0.07248062 -0.4678727
-0.22103001 0.45834398 -0.0007188387 -0.14949895 -1.5411907 1.1386256 -6.5392685 -0.083423674
-0.44583893 0.53093755 0.38848045 -0.9069992 -0.25648373 -0.62222165 0.7947646 -0.67683107
-0.6625534 0.12200269 0.11827951 0.123065956 0.17449431 0.19970615 0.558755 0.3585346
0.33419365 -0.4805113 0.24748866 -0.08245088 -6.704782 -0.7648369 0.14822175 0.025449345
-0.78053105 -0.1158385 0.18809476 -0.64514303 0.4092989 0.6868296 -0.060097564 0.13937196
0.11221828 0.018979311 -0.31462032 0.3995784 0.4192961 0.2134803 -2.2620583 0.05971543
-0.5617882 -0.09814855 -0.018462563 0.91105527 0.68080777 -0.28828678 0.27195716 0.020794187
-0.03982475 0.35392028 0.80099 0.48211518 -0.10585712 -0.6193161 -0.1467181 -0.2022528
-0.10234475 0.066490285 0.33792797 -0.07577907 -0.24718034 0.38392165 0.3272094 -0.818498
0.033637494 0.31856945 -0.05972283 0.07708172 -0.08444542 -0.35895556 -0.057890307 -1.9921725
-0.31785557 -0.10648905 -0.40781075 0.23594466 0.31170577 -11.022532 -1.4881634 0.6876263
-2.0871792 -2.0221636 -0.2611046 0.08767591 1.4279664 -5.9876266 -0.020323692 5.6213216e-06
0.8602531 0.35952443 0.14024143 0.10188059 0.2675462 0.807182 0.3779521 -0.84045166
-2.7675707 -0.29690182 -0.5733781 -2.1065583 -0.4925554 0.6364942 0.566112 -1.4400573
0.046997864 0.31221372 -0.80878264 -0.8189521 -0.019001503 0.46707532 0.103475966 -0.36091337
-0.7042366 -0.12731846 0.092576265 -0.049026445 -0.41150668 0.2349503 0.08012867 0.078445144
-0.633506 0.85905594 -3.1520693 -23.009531 -0.81206024 0.64468527 -1.6320562 -1.0511105
0.53601056 -0.34679455 0.59561276 0.20968434 -0.40314302 -0.8009856 0.04472636 -2.2856412
0.89193696 0.07555381 0.025334036 0.025171995 -0.12525126 -0.74415505 0.34608278 0.16790375
-0.07994464 -0.23621607 0.18826547 0.43075928 0.85163265 0.84357655 -0.15237576 1.2907854
0.049416292 -0.377756 -0.048576098 -0.27310234 -0.5918742 0.06720686 0.02307749 -0.38805643
-0.04520054 -0.61179155 -0.14368398 0.36263898 0.72415257 0.9288688 0.32911226 -0.72522014
-0.85051775 1.0602839 1.7455091 -2.642014 0.9801783 -0.47306246 0.45851028 0.4776057
-0.14494498 0.3897959 0.19064352 0.52873117 0.4208119 -0.099795155 -0.020892007 0.13541669
3.1392248 0.39429703 -0.10491939 0.22495326 0.30141616 -0.78466314 -3.7284527 0.3510977
0.5108375 0.24661504 -2.2855804 -0.04270583 0.22608232 0.61210513 0.0228396 -0.28148684

hiddenLayer3.bias f4 [150]
00000000: 4aff 8740 5255 c140 d312 50be 2b19 69be
00000010: 26d3 093f 8f66 4b40 a060 5bc0 ed44 683f
00000020: a343 a5be df50 87bf 372e fc3d 080b d73f
00000030: 737a 6bbe fd57 19c0 118d 6740 1f6f 33bf
00000040: cfc3 86be d814 5540 588d 08bd 3103 11bf
00000050: 7ba3 0840 ca84 3c3e 424f db40 260b 693f
00000060: e657 0abf 7285 6540 96e5 4740 c6c9 30be
00000070: 7cb6 4640 dd21 1040 0fa3 ab3d df49 3440
00000080: b60f 74be 67db 4f40 0794 69bf 5eee 02be
00000090: 76ce 8a40 f1ef 2e40 aa1a 9fbe a1a8 31bf
000000a0: f608 423f 0dcc aabe 77d9 3040 9ea8 40bf
000000b0: 53d9 f93c 4da1 6a40 1d71 fbbe ddce e040
000000c0: 539c 38bf ae3c f93f 2ea7 a540 cd69 42be
000000d0: 7429 85c0 c577 9ebd fe5f 3abe a212 2e40
000000e0: 7758 18bf 4165 5340 3b7c 0240 2934 efc0
000000f0: 7998 0dbf bccd 08bc 9a99 8bbe 5aff bd40
00000100: cd9c 46bd 6650 153e e1ab dfbe 744d 87c0
00000110: 3e9f 7cbc 6264 36be 4c7c 5040 005c 1f3f
00000120: e0c9 a03f 3be6 a840 474e 8340 b58a 1b40
00000130: b120 aac0 945a 023c 64d3 4140 c78e 13bf
00000140: 5691 8dbf 4d10 9040 81d8 8740 f57d fc3d
00000150: 34e5 b3bf 8e62 acbd 23e6 b6be b452 babe
00000160: 2c3d a5bd a700 88be e714 fc3f c3b5 9f40
00000170: 3ebd a2be a4ac f1be 794b 28be 5739 39c0
00000180: b9aa 7b40 8b5e cc3e 1b0d 88c0 38d7 a140
00000190: 51ef d73e 50b8 bd40 5995 bebe e0a0 bfbe
000001a0: 9bf2 6740 fec7 c9ba fab8 c83f 1b8f 98bf
000001b0: c817 04be 3dc3 d640 ff65 3ebf 4a1d 3540
000001c0: 03c8 b840 f141 8e3e 4004 3540 13fe d040
000001d0: 1a09 5a3c d6ad 9f3c ff74 df40 6e46 36bd
000001e0: 1683 a0be f0f1 a1be 1525 ee3b 36e2 00be
000001f0: ea9b 9bbe fec7 97c0 9610 883d ed12 36be
00000200: f0b5 c240 42c1 7740 0aff 5abe a967 6b40
00000210: 039b 8ebe c2b4 5840 ede7 813f 1916 c340
00000220: d3cb c7bd bc1b 11c0 3a38 a53f b918 5fbe
00000230: 138d 0bbd 718e a740 996c b9bd 4df4 55c0
00000240: 87bd 7240 77c8 533e de3a 853f 26c1 3b40
00000250: 0ae7 40c0 402e 8c3c
4.249913 6.041665 -0.20319681 -0.22763507 0.5383781 3.1781347 -3.4277725 0.9073017
-0.32278165 -1.0571555 0.12313502 1.6800241 -0.2299593 -2.3959954 3.617985 -0.7009143
-0.26321265 3.3293972 -0.03333792 -0.56645495 2.134978 0.1841003 6.853425 0.91032636
-0.5404037 3.5862699 3.1233878 -0.1726447 3.104888 2.2520669 0.0838071 2.8170087
-0.23834118 3.2477663 -0.91241497 -0.12786242 4.3377028 2.7333949 -0.3107503 -0.6939793
0.75794923 -0.33358803 2.763273 -0.7525729 0.030499136 3.666095 -0.49109736 7.025252
-0.7211353 1.9471643 5.1766577 -0.18985672 -4.16131 -0.07737688 -0.1820068 2.7198873
-0.59509987 3.303055 2.0388324 -7.475117 -0.5531078 -0.008349832 -0.27265626 5.937421
-0.04848938 0.14581451 -0.4368582 -4.2282047 -0.015418826 -0.1781173 3.2575865 0.62249756
1.2561607 5.2781043 4.1033053 2.430341 -5.3164907 0.007956166 3.0285273 -0.57639736
-1.1059978 4.50199 4.2451787 0.12328712 -1.4054322 -0.08417235 -0.35722455 -0.36391222
-0.08068308 -0.26562998 1.9693879 4.9909377 -0.31785005 -0.47202027 -0.1643504 -2.8941247
3.932295 0.3991588 -4.2516 5.057522 0.4217477 5.928749 -0.37223318 -0.37427425
3.6241825 -0.0015394685 1.568145 -1.1918672 -0.12899697 6.711333 -0.74374384 2.8299127
5.7744155 0.27784684 2.8283844 6.531015 0.013307834 0.019492071 6.9830317 -0.04450076
-0.3135001 -0.31629896 0.007267604 -0.12586293 -0.3039239 -4.743163 0.066437885 -0.17780657
6.084709 3.8711705 -0.21386352 3.678202 -0.2785264 3.3860326 1.0148903 6.0964475
-0.09755673 -2.2673178 1.2907784 -0.21786775 -0.034070086 5.236138 -0.090539165 -3.343036
3.7928178 0.2068194 1.040859 2.9336638 -3.0141015 0.017111897

outputLayer.weight f4 [2, 150]
00000000: bd40 d43e c661 9b3e 55c2 8839 0c17 20bf
00000010: 0dae a03e 6cd3 8a3f 9984 94bf 3d8a a7bb
00000020: 014d 1fc0 6aaf 3440 aad4 80bd 8748 773f
00000030: 60d9 463f 1e34 3bbf 97b8 623f 0365 0abf
00000040: d51a c5ba 650b 833f 07c2 2f3c efa8 ff3f
00000050: 72be be3f bd5e dbbe bddb 003f 239c 8e3f
00000060: 4102 6ac0 ed09 0541 fb24 243f 9640 923e
00000070: 653a 9cbd ed57 2140 2133 1fbf c112 0f40
00000080: c8c0 6440 acd9 8b3f fdcd 84bf 48fb 1a3f
00000090: eea7 0f3f d410 613f f5b0 74bf bf7a 883f
000000a0: 6427 413f 4dd2 7c3f 740a af3f 7d33 8a3f
000000b0: 646d 613e 2538 093f 738b 993f 4bca 9f3f
000000c0: babd aebe fee8 2a40 96db 123f 2693 c3bc
000000d0: 824a 2bbf 34a1 e43c 59e0 3a40 7999 d940
000000e0: 5328 bd3f 8e92 0c40 aed8 8d3f 3681 0dc0
000000f0: ec0f af3f 7ebe 0bc0 bf78 e1be 9298 f73e
00000100: b0cb c5bf 49b2 debe ae20 313f 37ed 26c0
00000110: 50f0 2a3e 59fa 75bb 83d8 df3e 6f42 ed40
00000120: 7e3c 6b3c 6c77 2b3f 76e3 b33e 8adf a13f
00000130: 0d48 bcbf 1b08 1dbe cc5b 6540 0e86 2ac0
00000140: c6bf d13f a226 423f 819d 743e 2ad2 c8be
00000150: 6377 0fbf ed54 b3bd 6632 9bbf 86bb 71bf
00000160: f9d2 ab3b 8d3d 72bf ce12 3c3f 4e82 163f
00000170: 7249 b0be d97e 41c0 71fd 41bc f85a 63c1
00000180: 3c97 7a3f bb01 7740 32bf 7bbf 1eca f23e
00000190: 78b3 e13f ea97 133f 15fc 6f3e 63ed cbbf
000001a0: d6d5 9a3f 11e6 22c0 98f0 683f 2348 c0bc
000001b0: f9a8 92bf 12a4 e33e 20f5 dfbe be8f 25bf
000001c0: b257 3abd e141 453f 2264 afbf e3f3 813f
000001d0: 12cc 863b ad22 b2bb 9649 f03e dbd4 12bf
000001e0: 058b cd3e 3708 4abf 3d42 b23b 89e9 cebe
000001f0: 8e42 0b3f f722 a4bf 870e f2bc 2bd8 09bd
00000200: c9eb 8e3e 980f 1e3f 98cf a9c0 100e 263d
00000210: f200 9d3e c4a2 e93e 65d9 b63e 3f8b 273f
00000220: fc33 2c3a 5c18 2cc0 7953 d540 9dd6 0540
00000230: 0293 843c 0b63 2e40 45c1 f03e a46a 04bf
00000240: efa2 31bf 7d9b 7d3e 7168 9d40 4de9 443f
00000250: cd40 c540 c109 933c c8d7 e63e 5582 a13e
00000260: 3c5d 3b3d 2583 223f 9023 99be cefe 883f
00000270: bb49 93bf 08d0 28bd a391 2e40 7004 2ec0
00000280: 6913 b53b 66b4 733f 20e1 2bbf 68c6 36bf
00000290: a78e 6c3f 8884 35be e800 d53b 78b0 7c3f
000002a0: adc3 e33c 6056 0ac0 4f22 c43f 20f3 48be
000002b0: fe2b fd3e b728 8e3f a89c 8240 3690 6940
000002c0: f2fe 213f 8b7a 98be 4021 903f 3117 7e40
000002d0: 4f1f 9e3f a94e 0f40 eda5 5fc0 3abe 8d3f
000002e0: ea33 89bf e4cb b2be e381 0d3f 1769 8fbf
000002f0: 4613 ac3f 28d5 b43d 3a84 4c3f 63a7 76bf
00000300: eedf ac3f bc0b a1bf 1a3a 4cbe f1b7 083f
00000310: f78c 8abf 08a1 a03f debc 3e3e 023b 2c40
00000320: 8ea8 173f 6e0f 113c 19e4 24bf 634c d5bb
00000330: 1d94 12c0 debf d940 b84d 0c40 f1b9 0b40
00000340: b0d2 893f 32b6 0fc0 b560 93bf af9a 1140
00000350: f77d dd3e c0d7 f13e bf15 d63f c36e 0fc0
00000360: 5942 0dbf b68c 2cc0 ec8c c4bf ca3d c5bc
00000370: 5aca c93e c084 e940 98b4 48bb 038b 273f
00000380: 44e5 b43e 55fe a23f b4ba c3bf 87d6 523e
00000390: c1a8 6840 5fb0 b0be 1d38 d73f fee1 403f
000003a0: 28af 7c3e ebab 113f 5120 4f3e 3219 973c
000003b0: 1171 a23f 9d1a 683f 9d8d efbc b417 303f
000003c0: ad8b 3c3f b918 163f d424 563f 6b8c 6ec0
000003d0: 544d c5bc ef01 8bc1 8fc0 733f db91 9e40
000003e0: e284 78bf 728e ee3e 6491 df3f 743a 143f
000003f0: 7e8b 85be 2bdc d83f dcf3 a83f d81d 2440
0.4145564 0.30348033 0.0002608473 -0.62535167 0.3138279 1.0845771 -1.1602966 -0.005112915
-2.489075 2.8232064 -0.062905625 0.9659504 0.7767544 -0.731264 0.8856291 -0.5406038
-0.0015037904 1.0237852 0.010727412 1.997343 1.4901869 -0.42845717 0.50335294 1.1141399
-3.6563876 8.314923 0.6411893 0.285649 -0.076283254 2.5209916 -0.6218739 2.2355196
3.5742664 1.0925803 -1.0375363 0.60539675 0.56115615 0.879163 -0.95582515 1.0662459
0.7545073 0.98758394 1.3675065 1.0796963 0.22014385 0.53601295 1.1995682 1.248361
-0.34129125 2.6704707 0.5736631 -0.023873877 -0.66910565 0.027908899 2.919943 6.7999845
1.4777931 2.196445 1.108175 -2.2110114 1.3676734 -2.1835017 -0.44037434 0.4835859
-1.5452785 -0.43495396 0.6919049 -2.6082284 0.16693234 -0.0037533252 0.43719873 7.4143596
0.014357684 0.669791 0.35134476 1.2646344 -1.4709488 -0.15335123 3.5837278 -2.664432
1.638665 0.758402 0.23888208 -0.39222842 -0.56041545 -0.08756433 -1.2124755 -0.94426763
0.0052436558 -0.9462517 0.73466194 0.5879258 -0.34431034 -3.0233672 -0.01184021 -14.209709
0.97887015 3.8594806 -0.98338616 0.47419828 1.7632895 0.5765368 0.23436005 -1.593182
1.2096508 -2.5452921 0.90992117 -0.023471897 -1.1457816 0.44461113 -0.43741703 -0.6467246
-0.04549379 0.7705365 -1.3702433 1.0152553 0.0041136825 -0.0054362626 0.46931142 -0.5735604
0.40145126 -0.78918785 0.005440025 -0.40412548 0.5439843 -1.282317 -0.029547943 -0.03365342
0.27914265 0.61742544 -5.306591 0.040540755 0.30664784 0.45631993 0.35712734 0.6544685
0.00065690256 -2.6889868 6.6664395 2.091224 0.01618338 2.724795 0.47022453 -0.5172522
-0.6938924 0.24766345 4.918999 0.7691849 6.1641603 0.017948987 0.45086503 0.31544748
0.045743212 0.6348136 -0.29909945 1.070276 -1.1506876 -0.04121402 2.727639 -2.7190208
0.0055259955 0.9519714 -0.6714039 -0.71396494 0.9240517 -0.17726338 0.006500352 0.9870677
0.027803266 -2.161522 1.532297 -0.19623995 0.49447626 1.1106175 4.081623 3.649427
0.6327964 -0.29780993 1.1260147 3.9701655 1.2353305 2.239176 -3.4945023 1.1073678
-1.0718968 -0.3492118 0.55276316 -1.1203946 1.3443382 0.08829719 0.7988926 -0.9634916
1.3505838 -1.2581706 -0.19944039 0.5340567 -1.0824269 1.2549143 0.18626735 2.6911016
0.5924157 0.008853776 -0.6441055 -0.00650935 -2.29029 6.8046713 2.1922436 2.183224
1.0767422 -2.2454953 -1.1513888 2.2750661 0.43260166 0.47234917 1.6725386 -2.2411354
-0.55179363 -2.6960883 -1.5355506 -0.024077315 0.39412194 7.297455 -0.003062522 0.6544649
0.35331166 1.2733866 -1.5291352 0.20589648 3.6353 -0.3450956 1.6814 0.75344837
0.24676192 0.5690295 0.20227171 0.018444631 1.2690755 0.9066561 -0.029242331 0.6878617
0.7365063 0.58631474 0.83649945 -3.7273204 -0.024084724 -17.375944 0.95215696 4.9553046
-0.97077763 0.46593052 1.7466245 0.5790169 -0.26082987 1.694219 1.319942 2.5643215

outputLayer.bias f4 [2]
00000000: 2bf7 d440 c6cc dc40
6.655172 6.8999968
