ftl/pretrain/weight/multi-workload_v2/multi-workload_v2_17.pth (torch, 187665 bytes, 8 tensors)

hiddenLayer1.weight f4 [150, 3]
-0.23412362 -2.2224684 0.032769028 -0.021686291 0.00012234377 -0.053491697 -0.04837093 -0.39101198
-3.7155426 -0.1547182 -0.004242168 1.1568953 -2.5058387e-05 -0.003036188 -0.0025911236 -0.11491106
0.0004363449 -0.112245746 0.018256035 -0.04418555 -0.10699285 0.0048395237 -0.014261293 3.2965941
-0.13092235 -0.0071140896 -1.0392338 -0.13591273 -0.5196083 -0.027965233 -0.18207611 -0.6426014
-4.6902375 0.13084194 -0.18956316 -1.5834016 -11.950448 0.51654106 -1.9586774 -1.0981652
-0.5376123 -0.39508066 -0.021713722 0.000505641 -0.0069837803 -0.38263935 0.009038078 0.048596963
-0.15503035 0.013958683 0.00495796 -11.246823 0.9733261 0.035790045 -3.4669075 -0.013516766
-0.01271467 -0.05708667 -0.00070745073 -0.032307513 0.21574847 -0.32875744 0.12696035 -0.104334086
0.55578524 1.0639521 -0.024396226 -0.04425684 1.1986971 -10.52877 -0.099043414 0.40462518
0.29494336 -0.45435897 0.63339317 -0.47345302 0.39339277 -5.4948926 -0.16848135 -0.07474199
-0.9820286 -0.0869665 -0.22623579 -0.06808409 -3.861417 3.0707636 -0.24171887 -0.24136283
-0.014185658 0.017590426 0.05181453 -0.0801421 0.8651559 -0.14872856 -0.42998606 0.5300392
-0.1992205 0.8631218 -3.1394324 -0.46933284 0.0021010637 -0.054201566 -0.04453282 -0.14779146
-0.22258344 0.18002605 -0.8145217 -0.29962158 -0.23146391 0.27006078 -2.8190227 -0.27294838
0.005178786 -0.20599903 -0.0165612 -0.000701565 -0.027785556 -10.866602 0.13134836 -0.6086399
-0.03140629 -0.004740447 -0.02586291 0.0995254 -0.9576159 -5.0986676 -0.062008403 0.0001408287
-0.011482914 -0.14920618 -5.0195584e-05 -0.046765797 -0.1776102 -1.077088 -0.018571269 -0.0050930525
0.012451347 -3.346659 0.23964433 -0.39046445 0.3816394 0.08580932 -0.47037417 -3.58841
-5.859476 0.18929736 1.322872 -0.61743045 0.8934438 -1.1615424 -0.06435602 -0.78313106
0.41744035 -0.0918623 -1.4589489 -0.09736181 -3.373504 0.16615145 1.2747798 -0.09570934
-1.197197 -0.34339967 -0.07044609 -3.0332656e-05 -0.03537665 0.060487922 0.0049936622 -5.7811055
-0.0044315583 -0.5223393 0.5258798 -0.00429485 -0.00017986288 -0.10385108 -27.11389 0.009618278
0.009684329 -1.9494437 1.3653153 0.077599406 -0.0027081664 -0.0014641227 0.0013153158 0.21698573
0.23140009 -3.7943015 -0.012391829 0.002619504 -8.167726 0.025636682 1.0993208 -3.265136
-19.337463 0.0026788376 0.16499971 -1.7854139 -0.387454 -2.708791 -0.39232817 1.6543818
-0.050266545 -0.0052926484 -0.023780057 5.2441826 -0.05644776 0.046457294 -0.017846616 -0.08955876
0.0029780245 -0.010934558 -0.24012895 0.56540537 0.29838556 -9.308989 0.5000261 -2.6608021
0.123689644 1.4161768 0.42610243 -0.114817694 0.0068946197 -0.021754602 -0.06996511 0.003529325
-0.0069130315 -0.073599875 0.00046261257 -0.08730927 -8.193696 -0.2355045 -2.6513133 -0.05243463
-0.005576323 -0.04125022 -2.550634 0.99387866 -0.4027836 0.132766 0.035759844 2.753334
-0.024480032 0.0036145954 -0.015546311 -14.21754 -0.49543384 0.34191015 -0.093535155 -0.74989206
-0.41942683 3.6516274e-05 0.0010332367 -0.0023561995 -0.2347444 0.05882788 -2.0145917 -1.3234078
00000000: 1abe 6fbe ec3c 0ec0 d138 063d 73a7 b1bc
00000010: 6849 0039 1c1a 5bbd 9920 46bd b932 c8be
00000020: 73cb 6dc0 736e 1ebe e201 8bbb 2515 943f
00000030: 7a34 d2b7 c8fa 46bb d7cf 29bb 7d56 ebbd
00000040: 39c5 e439 19e1 e5bd ae8d 953c e8fb 34bd
00000050: 111f dbbd de94 9e3b 33a8 69bc 66fb 5240
00000060: 8210 06be 4f1d e9bb 9d05 85bf b52c 0bbe
00000070: 0d05 05bf 5817 e5bc 2972 3abe 8681 24bf
00000080: 6d16 96c0 6efb 053e d81c 42be e7ac cabf
00000090: 0935 3fc1 093c 043f f1b5 fabf ad90 8cbf
000000a0: f6a0 09bf 0348 cabe fae0 b1bc fe8c 043a
000000b0: 32d8 e4bb 4ee9 c3be 7214 143c 9c0d 473d
000000c0: 47c0 1ebe f6b2 643c 6276 a23b fdf2 33c1
000000d0: e62b 793f 9598 123d d0e1 5dc0 6d75 5dbc
000000e0: 3151 50bc b6d3 69bd 3774 39ba e254 04bd
000000f0: 2bed 5c3e e552 a8be e501 023e 1cad d5bd
00000100: f147 0e3f 952f 883f 98da c7bc a946 35bd
00000110: e86e 993f d875 28c1 46d7 cabd 082b cf3e
00000120: d102 973e bda1 e8be 0e26 223f 6f68 f2be
00000130: c76a c93e 29d6 afc0 6086 2cbe 5412 99bd
00000140: 3a66 7bbf 7e1b b2bd 5baa 67be ac6f 8bbd
00000150: 7521 77c0 6487 4440 2785 77be d127 77be
00000160: f66a 68bc cc19 903c 793b 543d 8b21 a4bd
00000170: db7a 5d3f 4d4c 18be 2227 dcbe a6b0 073f
00000180: 7500 4cbe 8df5 5c3f 76ec 48c0 654c f0be
00000190: 00b2 093b 7602 5ebd 0c68 36bd a556 17be
000001a0: eaec 63be c058 383e 7e84 50bf 0068 99be
000001b0: e004 6dbe 6845 8a3e de6a 34c0 e4bf 8bbe
000001c0: ceb2 a93b 69f1 52be 5bab 87bc 3be9 37ba
000001d0: 899e e3bc 9add 2dc1 2f80 063e d3cf 1bbf
000001e0: e2a3 00bd c055 9bbb 74de d3bc f9d3 cb3d
000001f0: 5126 75bf 4928 a3c0 86fc 7dbd 6bab 1339
00000200: d522 3cbc 81c9 18be 1989 52b8 7e8d 3fbd
00000210: 73df 35be 05de 89bf c622 98bc 9fe3 a6bb
00000220: bc00 4c3c a92f 56c0 5365 753e f5ea c7be
00000230: 3d66 c33e ccbc af3d e2d4 f0be 82a8 65c0
00000240: d480 bbc0 2bd7 413e df53 a93f ec0f 1ebf
00000250: bcb8 643f 6cad 94bf 17cd 83bd 477b 48bf
00000260: beba d53e 4d22 bcbd d6be babf a165 c7bd
00000270: 7de7 57c0 9b23 2a3e fc2b a33f 4203 c4bd
00000280: c03d 99bf 15d2 afbe 0a46 90bd e272 feb7
00000290: 1be7 10bd 2fc2 773d e0a1 a33b d1fe b8c0
000002a0: 9b36 91bb 07b8 05bf 0fa0 063f d0bb 8cbb
000002b0: 9399 3cb9 e0af d4bd 3fe9 d8c1 fb95 1d3c
000002c0: 05ab 1e3c 5f87 f9bf a7c2 ae3f 70ec 9e3d
000002d0: 7e7b 31bb cee7 bfba ad66 ac3a 8231 5e3e
000002e0: 25f4 6c3e d6d5 72c0 1907 4bbc fcab 2b3b
000002f0: 01af 02c1 0504 d23c 8bb6 8c3f fdf7 50c0
00000300: 20b3 9ac1 708f 2f3b aff5 283e 7188 e4bf
00000310: 5f60 c6be d55c 2dc0 3ddf c8be c8c2 d33f
00000320: 4be4 4dbd f46d adbb 65ce c2bc 58d0 a740
00000330: c435 67bd 014a 3e3d 1133 92bc 956a b7bd
00000340: f62a 433b dc26 33bc 5de4 75be 68be 103f
00000350: fec5 983e 9ef1 14c1 b601 003f 954a 2ac0
00000360: ff50 fd3d 4845 b53f 192a da3e 8a25 ebbd
00000370: 43ec e13b b536 b2bc de49 8fbd 3f4c 673b
00000380: b686 e2bb 88bb 96bd cf8a f239 34cf b2bd
00000390: 6119 03c1 1728 71be 1eaf 29c0 b2c5 56bd
000003a0: 96b9 b6bb fef5 28bd 963d 23c0 d56e 7e3f
000003b0: a739 cebe cff3 073e ea78 123d a036 3040
000003c0: 598a c8bc d9e2 6c3b f4b5 7ebc 0b7b 63c1
000003d0: 81a9 fdbe d90e af3e 5c8f bfbd edf8 3fbf
000003e0: 1dbf d6be 0d29 1938 ac6d 873a 786a 1abb
000003f0: d660 70be 81f5 703d 12ef 00c0 6d65 a9bf

hiddenLayer1.bias f4 [150]
-2.6410954 -0.08761147 -0.1083489 -1.1768305 -0.059627254 -0.091084905 0.7360065 1.4137257
1.0069366 -0.0619058 -0.65441155 -0.33374456 -0.3726527 -0.16265589 -0.0107353665 0.23473081
-0.20670897 -0.19618948 -0.3371141 -0.03835703 -0.49572235 -1.8135579 -0.626023 -0.43822792
-5.220919 -0.7491999 0.726075 -1.4216298 -0.08944458 -0.60359156 1.4705513 -2.022969
-0.56992006 -0.08870582 0.051367484 -3.0544705 -0.51585454 -0.20401832 -0.033318777 -0.16674569
-0.14628151 -1.9093488 -0.014968357 -0.04346149 -0.8656712 0.34400755 -2.153184 0.561716
-0.28099918 0.019009931 0.08949362 -1.5376425 -3.5545259 -0.14032884 -0.030258374 -1.1997504
-2.1970093 -0.08308648 -0.5255328 -4.278916 -0.06390649 0.932432 0.73087925 -1.1138984
-0.39999342 -0.96059334 -1.3133694 -0.16531667 -0.66102177 -0.06732466 -0.26219404 -0.5889069
-2.358371 -0.15573733 -0.07936348 -0.07299324 -1.0558188 -0.11849184 -1.836267 -3.9223697
-0.06206175 -0.7724449 -0.2832524 -0.028479282 0.3420578 -1.6193554 -1.8705992 1.097034
-0.013381488 -0.08230035 -0.31439653 -0.4908458 -0.9099836 -0.71385044 -0.7828973 -0.005436839
1.1393852 -1.5537394 0.23053272 -1.4851431 -0.1372041 0.7439354 -2.3978484 -0.991415
-2.1233752 -0.08950173 -0.035754465 -1.3531199 -0.6393272 -1.495115 0.093587935 -0.10884183
-3.309278 -0.93671244 -0.14995816 -0.017480554 -1.5227227 -0.18828274 -0.92292684 -0.12052022
-0.054244444 -2.5347147 -9.285461 -0.026571877 -0.04486456 -0.028602762 -0.4084402 0.43020484
-0.36519253 -0.31516868 -1.6491535 -0.5421342 -0.13345857 -0.041322257 -0.52939624 -0.077208884
0.042837065 -0.38370684 -1.8354304 -0.10076139 1.6842628 -1.1149719 -2.2655504 -0.8263932
-0.27947095 -0.013747211 -0.026187977 -0.12721288 -0.039019376 0.84958804
00000000: b507 29c0 a46d b3bd 07e6 ddbd 62a2 96bf
00000010: b53b 74bd b98a babd ec6a 3c3f f7f4 b43f
00000020: 4ce3 803f f090 7dbd 8487 27bf 91e0 aabe
00000030: 56cc bebe 448f 26be 64e3 2fbc 465d 703e
00000040: 84ab 53be e5e5 48be 389a acbe 431c 1dbd
00000050: 52cf fdbe aa22 e8bf 0b43 20bf 695f e0be
00000060: c511 a7c0 91cb 3fbf 0de0 393f f7f7 b5bf
00000070: b82e b7bd fa84 1abf 063b bc3f 5378 01c0
00000080: 48e6 11bf 66ab b5bd b666 523d 727c 43c0
00000090: 0b0f 04bf 2eea 50be 4579 08bd 62bf 2abe
000000a0: d2ca 15be 8b65 f4bf d73d 75bc ad04 32bd
000000b0: a19c 5dbf c221 b03e c4cd 09c0 9fcc 0f3f
000000c0: 20df 8fbe b7ba 9b3c 6e48 b73d 78d1 c4bf
000000d0: 5a7d 63c0 5db2 0fbe 69e0 f7bc 6c91 99bf
000000e0: cd9b 0cc0 3f29 aabd 5189 06bf e1ec 88c0
000000f0: 68e1 82bd ddb3 6e3f e71a 3b3f 3994 8ebf
00000100: f0cb ccbe 72e9 75bf 7d1c a8bf c648 29be
00000110: b938 29bf 83e1 89bd 4c3e 86be 9ac2 16bf
00000120: 8def 16c0 9b79 1fbe 5289 a2bd 7b7d 95bd
00000130: 1225 87bf daab f2bd cc0a ebbf 1b08 7bc0
00000140: 7634 7ebd f3be 45bf 7506 91be 624d e9bc
00000150: 3322 af3e 0a47 cfbf cb6f efbf 9c6b 8c3f
00000160: 073e 5bbc 168d a8bd 95f8 a0be 2450 fbbe
00000170: aff4 68bf e7be 36bf f56b 48bf 8327 b2bb
00000180: 60d7 913f efe0 c6bf c510 6c3e 2b19 bebf
00000190: 3b7f 0cbe 8d72 3e3f 5976 19c0 60cd 7dbf
000001a0: 61e5 07c0 af4c b7bd 4673 12bd 0833 adbf
000001b0: f3aa 23bf ee5f bfbf 08ab bf3d 77e8 debd
000001c0: 36cb 53c0 63cc 6fbf a28e 19be 6133 8fbc
000001d0: 94e8 c2bf 31cd 40be ef44 6cbf 4ed3 f6bd
000001e0: 6c2f 5ebd c438 22c0 4091 14c1 44ad d9bc
000001f0: e7c3 37bd 5750 eabc 131f d1be cf43 dc3e
00000200: 84fa babe ca5d a1be 7617 d3bf 4fc9 0abf
00000210: 5da9 08be 8741 29bd 8386 07bf b11f 9ebd
00000220: eb75 2f3d 3975 c4be 62ef eabf fd5b cebd
00000230: ec95 d73f 66b7 8ebf c7fe 10c0 818e 53bf
00000240: d116 8fbe fb3b 61bc 2b88 d6bc 1844 02be
00000250: c8d2 1fbd 9a7e 593f

hiddenLayer2.weight f4 [150, 150]
-0.33624887 0.07611778 0.14481315 -1.7875625 -0.59487414 0.24902679 -0.20027032 -0.4419223
0.19025707 1.1171505 -2.9419925 -1.0415068 -6.498723 -0.19112316 0.10053787 -0.04525635
-0.096617855 3.5917876 -0.03911274 -0.13611515 -2.1120782 -0.309304 -0.41363215 -2.394282
-4.2042847 -2.4752834 0.26374015 -2.120906 1.0560433 -0.76298916 -0.16396347 -0.8352308
-2.285221 -0.26534298 0.12899584 -0.41881326 0.62117255 -0.399036 0.06797514 -5.467507
-0.21211317 -11.214424 -0.0942391 -0.18589705 -0.019531582 0.3741346 -1.1805872 -0.1121461
-1.8954533 1.396175 -3.9915414 1.6511418 -1.1552039 1.5974385 0.019724634 -2.056806
-5.3017673 0.10412201 12.951488 -1.279467 -0.52157515 0.3714849 0.8858121 1.3150485
-1.5154766 0.2393389 -0.95277196 -12.893687 0.62490124 -0.106045574 0.12638327 0.585556
0.32097074 -0.041170053 -0.0451855 -0.17476158 -4.1080966 -0.26702517 -1.0999305 -0.25052983
-0.12308942 2.8016553 0.7052259 -0.0838232 0.32403615 -0.85718954 0.67979646 0.23220561
0.27293137 0.58829373 -6.185922 -0.4391318 -2.7311583 4.817548 -0.284525 1.2150896
0.08717139 -0.29121238 0.7054976 -5.1049995 0.40305275 -0.59459823 1.964254 -0.005793735
-0.75534457 0.4935539 0.3313597 0.22685884 -0.891699 -0.8170372 0.9357122 -0.1189245
-2.8445125 -0.49155515 -4.272025 0.010613404 -4.0261936 -4.5096674 -3.209333 -0.19187196
-0.018664945 -1.8577703 -0.31438857 -0.08067993 -0.08590939 -0.23828194 -2.5113897 0.26653564
0.3682033 0.4478569 0.039073862 -0.38220236 -0.11266164 -2.357521 -4.7768846 -9.297748
0.4178658 -2.3348207 1.5129589 0.08447807 0.10970618 -0.8713595 -0.60377973 -1.3431913
-0.94833666 -0.028227566 0.90557814 -0.64992017 0.052904807 -0.14441934 -15.532597 0.0448798
-0.93410057 0.8119549 -0.066948675 -0.2473073 -1.133161 -0.10467019 -0.28629357 -1.784811
-0.57594806 -1.2835226 2.5593183 -5.6754007 0.02462586 1.3441485 0.18612412 -0.16859838
-0.87670183 -0.055897053 -1.1418196 1.0649209 0.42714247 -1.9806963 -0.51573807 -0.8279006
-0.3741223 -0.9038706 1.2608527 -0.55171615 -0.36741534 0.5216068 -1.6707346 0.39528555
0.47776586 -0.23926471 -0.5860529 0.3810698 0.047568616 3.0942833 -0.54068 2.042859
-0.011623005 -0.024058897 -10.824295 -0.71545565 0.31458357 0.08114689 0.6794994 -0.40118855
0.5396436 -2.0273497 -1.6014735 -1.2561944 -0.13889188 -0.6580309 2.5637314 -0.32022116
8.375698 -0.6992633 -0.8000516 -0.43121803 -0.5574253 -0.24088037 1.235455 -0.46455187
-1.3660241 0.1226188 -0.38949502 -0.15223269 -2.2868402 1.5084283 -0.6879814 0.08912285
-0.08557787 0.113186434 2.674611 -0.3316419 0.5137747 1.8275234 0.23681372 -0.95723367
-6.7576947 -0.042767644 -0.5030206 1.2329235 -2.2654145 -0.034281883 -0.01799707 -1.5018046
-0.15586337 -1.0711906 -0.44577694 -3.9930055 0.7905856 -0.85908866 -0.26049832 -1.0676998
0.23549774 0.42497566 0.5216482 -0.19453318 -0.74767435 -0.83502454 0.34135655 -1.1178601
00000000: d028 acbe a3e3 9b3d e649 143e d9ce e4bf
00000010: ac49 18bf e100 7f3e aa13 4dbe a443 e2be
00000020: c0d2 423e cafe 8e3f 9b49 3cc0 1850 85bf
00000030: 8af5 cfc0 cab5 43be cce6 cd3d b95e 39bd
00000040: 95df c5bd d9df 6540 ae34 20bd c561 0bbe
00000050: 4a2c 07c0 185d 9ebe 98c7 d3be eb3b 19c0
00000060: 8089 86c0 0b6b 1ec0 f308 873e edbc 07c0
00000070: 6d2c 873f 4253 43bf 0ae6 27be b0d1 55bf
00000080: 1041 12c0 09db 87be 7c17 043e b16e d6be
00000090: 2a05 1f3f 724e ccbe 8d36 8b3d d1f5 aec0
000000a0: 3234 59be 486e 33c1 6e00 c1bd cc5b 3ebe
000000b0: b200 a0bc 928e bf3e 7b1d 97bf dbac e5bd
000000c0: 379e f2bf ddb5 b23f 6a75 7fc0 9d58 d33f
000000d0: b9dd 93bf dd78 cc3f 8e95 a13c b6a2 03c0
000000e0: 14a8 a9c0 ec3d d53d 4b39 4f41 93c5 a3bf
000000f0: f385 05bf 4533 be3e 95c4 623f 8253 a83f
00000100: 23fb c1bf 4215 753e dde8 73bf 8b4c 4ec1
00000110: 87f9 1f3f 6c2e d9bd 9e6a 013e ffe6 153f
00000120: 4756 a43e eea1 28bd 6e14 39bd b3f4 32be
00000130: 8775 83c0 86b7 88be 86ca 8cbf 7245 80be
00000140: 4e16 fcbd 524e 3340 af89 343f 7fab abbd
00000150: 11e8 a53e c670 5bbf 2407 2e3f 4fc7 6d3e
00000160: a9bd 8b3e 6b9a 163f 13f3 c5c0 e2d5 e0be
00000170: 4ccb 2ec0 5a29 9a40 43ad 91be 0e88 9b3f
00000180: ea86 b23d ca19 95be 7e9b 343f 285c a3c0
00000190: ee5c ce3e 9737 18bf ad6c fb3f 5fd9 bdbb
000001a0: 435e 41bf 19b3 fc3e fba7 a93e af4d 683e
000001b0: 6346 64bf 5a29 51bf d68a 6f3f b08e f3bd
000001c0: 7e0c 36c0 1ead fbbe 6eb4 88c0 d8e3 2d3c
000001d0: 94d6 80c0 324f 90c0 b665 4dc0 157a 44be
000001e0: 3ae7 98bc 6bcb edbf 8af7 a0be 853b a5bd
000001f0: 43f1 afbd 2e00 74be 9cba 20c0 5c77 883e
00000200: 2585 bc3e 804d e53e ea0b 203d 07b0 c3be
00000210: 25bb e6bd a0e1 16c0 3ddc 98c0 93c3 14c1
00000220: 82f2 d53e b46d 15c0 a3a8 c13f d702 ad3d
00000230: a2ad e03d 6b11 5fbf 4f91 1abf b1ed abbf
00000240: 31c6 72bf 7f3d e7bc f8d3 673f 2b61 26bf
00000250: b6b2 583d aae2 13be 8485 78c1 e2d3 373d
00000260: 3721 6fbf 47dc 4f3f 631c 89bd 203e 7dbe
00000270: 6b0b 91bf 535d d6bd 1295 92be b074 e4bf
00000280: 5571 13bf 784a a4bf dfcb 2340 e29c b5c0
00000290: 2cbc c93c 0f0d ac3f 5297 3e3e 0ea5 2cbe
000002a0: 886f 60bf 4ff4 64bd 2527 92bf 544f 883f
000002b0: 6bb2 da3e 7587 fdbf 6907 04bf 4bf1 53bf
000002c0: f58c bfbe 1064 67bf 9f63 a13f 453d 0dbf
000002d0: dd1d bcbe 0688 053f a2da d5bf de62 ca3e
000002e0: ba9d f43e cf01 75be 9007 16bf 951b c33e
000002f0: 4fd7 423d bd08 4640 016a 0abf 34be 0240
00000300: 6b6e 3ebc 2a17 c5bc 5030 2dc1 1a28 37bf
00000310: 1911 a13e 5730 a63d acf3 2d3f 9668 cdbe
00000320: 1526 0a3f 19c0 01c0 15fd ccbf faca a0bf
00000330: ac39 0ebe b774 28bf 2d14 2440 07f4 a3be
00000340: dc02 0641 eb02 33bf 2fd0 4cbf 9cc8 dcbe
00000350: 6db3 0ebf 58a9 76be 6423 9e3f bed9 edbe
00000360: e1d9 aebf 911f fb3d e46b c7be e3e2 1bbe
00000370: 975b 12c0 2e14 c13f 8d1f 30bf 0a86 b63d
00000380: 7343 afbd 4ace e73d d42c 2b40 f8cc a9be
00000390: bd86 033f 49ec e93f 4c7f 723e 440d 75bf
000003a0: 093f d8c0 202d 2fbd f5c5 00bf 70d0 9d3f
000003b0: 8dfc 10c0 296b 0cbd 976e 93bc 223b c0bf
000003c0: a69a 1fbe c61c 89bf e03c e4be 678d 7fc0
000003d0: d163 4a3f 3ced 5bbf 0960 85be 63aa 88bf
000003e0: 5226 713e 6996 d93e bd8a 053f b533 47be
000003f0: 9667 3fbf 2bc4 55bf 49c6 ae3e 0a16 8fbf

hiddenLayer2.bias f4 [150]
0.14890385 -0.42437947 1.0006438 0.47268292 0.35180163 0.0835541 0.014385562 -0.061519083
2.9553964 0.23124081 0.3112329 0.25825545 0.64421195 0.20072308 -0.039279517 -3.0019236
2.3180249 0.80286485 1.5130472 1.3648043 0.20619883 -0.011228814 -0.8182945 -0.87847733
-0.06576074 0.07285566 -0.24777837 0.5204565 0.56803197 0.23955762 0.7455823 -0.0061746216
0.53292817 0.14159693 2.220002 -0.037094768 -0.09436427 1.0320804 0.38167253 0.18702659
-0.39079913 -0.0122227715 -0.08638903 -0.04369126 -0.31871554 -0.31279838 -2.912716 -0.6108475
0.22118519 -0.3109549 -0.16380528 0.22218136 0.39455727 -0.29051143 -0.33105746 -0.24827965
-0.06831981 -0.0843292 0.21380903 0.11320945 -0.11876271 0.3723772 -0.004234831 0.17601977
0.035322584 2.6018329 -2.6313517 0.11757487 -0.13662046 1.0089737 1.4168499 -0.33558068
0.97328913 1.5028116 -0.029805755 -0.4109759 -0.09766138 0.15118499 -0.055050712 0.6067182
0.793412 0.46182814 -0.3909746 -0.97071946 0.20293866 -0.47687066 0.9407733 -0.097199894
1.362405 -0.043387134 0.15753537 0.34484798 -0.14395624 1.2167486 -0.45102474 0.5187116
0.016338808 0.13773927 -0.1615255 3.1162345 -1.2172922 -0.110036306 -0.13660635 0.6192596
0.026319787 2.2619662 0.4362542 -0.10735402 -0.28871214 -5.3730516 0.07605166 0.4395363
-0.07060394 0.39624003 0.9745334 0.29087293 -0.7524817 -0.4469437 -0.33020172 -0.41669047
-0.04597261 -0.9128072 0.1052898 -0.060388472 -0.46988386 0.95707726 0.17113613 -0.008443526
0.4645399 -0.061385393 -0.1868555 -0.021764798 2.444616 0.31194383 -0.28514344 0.03212674
-0.36925378 -0.39840126 0.6728972 0.7188979 0.7088785 -0.49151307 -0.06842626 -0.31661275
0.18653288 -1.183898 -0.12359136 -0.21156849 0.07732965 0.9888268
00000000: 407a 183e 4448 d9be 1915 803f 7f03 f23e
00000010: 581f b43e 691e ab3d 6cb1 6b3c 6ffb 7bbd
00000020: 3725 3d40 64ca 6c3e eb59 9f3e 0f3a 843e
00000030: 13eb 243f 5a8a 4d3e 8fe3 20bd 841f 40c0
00000040: 855a 1440 8d88 4d3f 88ab c13f e8b1 ae3f
00000050: c925 533e 0ff9 37bc c07b 51bf e4e3 60bf
00000060: 91ad 86bd 5935 953d 9db9 7dbe a33c 053f
00000070: 8b6a 113f 984e 753e 7bde 3e3f 7b54 cabb
00000080: fb6d 083f c9fe 103e 8314 0e40 aff0 17bd
00000090: 0e42 c1bd 361b 843f 956a c33e e683 3f3e
000000a0: d316 c8be 0542 48bc bbec b0bd 9bf5 32bd
000000b0: af2e a3be 1c27 a0be f069 3ac0 8060 1cbf
000000c0: 5f7e 623e 7b35 9fbe 92bc 27be 8383 633e
000000d0: 6903 ca3e eabd 94be 5d80 a9be 053d 7ebe
000000e0: 42eb 8bbd cab4 acbd c1f0 5a3e 5bda e73d
000000f0: dd39 f3bd 39a8 be3e 56c4 8abb 873e 343e
00000100: 6aae 103d 6e84 2640 1168 28c0 18cb f03d
00000110: 3ce6 0bbe 0d26 813f 565b b53f 3bd1 abbe
00000120: 7a29 793f 215c c03f 332b f4bc 6f6b d2be
00000130: b102 c8bd 3dd0 1a3e db7c 61bd e251 1b3f
00000140: 0d1d 4b3f bd74 ec3e d32d c8be 1281 78bf
00000150: 27cf 4f3e 6428 f4be 85d6 703f bd10 c7bd
00000160: 4963 ae3f b5b6 31bd f450 213e ea8f b03e
00000170: 4469 13be 6bbe 9b3f b7ec e6be 49ca 043f
00000180: f7d8 853c 860b 0d3e f166 25be 6370 4740
00000190: 3bd0 9bbf b75a e1bd 89e2 0bbe cc87 1e3f
000001a0: 989c d73c 0ec4 1040 b65c df3e 6ddc dbbd
000001b0: 14d2 93be 0af0 abc0 f9c0 9b3d e70a e13e
000001c0: cc98 90bd f9df ca3e 057b 793f 4ced 943e
000001d0: a4a2 40bf ced5 e4be 3310 a9be 7458 d5be
000001e0: c74d 3cbd bcad 69bf 2ea2 d73d e759 77bd
000001f0: 9e94 f0be 0403 753f 4f3e 2f3e b756 0abc
00000200: 2cd8 ed3e 406f 7bbd 0c57 3fbe 174c b2bc
00000210: 9774 1c40 1ab7 9f3e 52fe 91be 5497 033d
00000220: d50e bdbe 40fb cbbe fe42 2c3f b109 383f
00000230: 1079 353f 9aa7 fbbe 1123 8cbd 111b a2be
00000240: 7a02 3f3e f889 97bf 781d fdbd 69a5 58be
00000250: 025f 9e3d c123 7d3f

hiddenLayer3.weight f4 [150, 150]
-0.41252702 -1.7897885 -1.7186856 1.1201925 0.2325127 -0.27739492 0.07477436 -0.28319386
0.8046745 -0.35779402 -0.70944995 0.04656144 -0.28663027 -0.30320588 -0.011725652 -0.044940256
0.5057446 -0.12027551 -0.42883286 -0.108710796 -0.3947203 -0.08186749 0.066386975 -0.3853635
0.04191951 -0.47800893 -0.33264816 -1.518173 -0.46256587 -1.6249747 -0.31862733 0.27228922
-0.25820777 1.3909795 0.48078856 -0.6813199 -0.6782334 0.2839451 0.39912108 -0.05708443
-1.0638776 -2.0202146 0.2114626 0.049895767 0.08522041 0.2180321 -0.20356582 -0.51881593
-0.2493419 0.20413129 -0.09212172 -0.21703741 -0.77925265 1.1386256 -2.0535622 -0.083423674
-0.44583893 0.6096911 0.38848045 -1.007868 -0.25648373 -0.103502 0.05956001 -0.15987329
0.0016342524 0.12652695 0.203592 0.123065956 0.090749405 0.25352427 0.5173497 0.2990955
-0.20686024 -0.17817108 0.7878912 -0.05080012 -3.162532 0.07329319 -0.22660102 0.14562368
-0.73660374 -0.4557823 0.4304521 -0.37636095 0.32428378 0.7395905 0.0024627112 0.13937196
0.2800788 0.018979311 1.2043283 -0.3576359 0.52414054 0.14561656 -2.2620583 0.13637947
0.31870782 0.19435064 -0.16356856 0.9111117 2.8848433 -0.28828678 0.27195716 1.1214645
-0.03982475 0.3743915 1.3862808 0.48211518 -0.047466367 -0.68321097 -0.1467181 0.0075804275
-0.10234475 0.066490285 0.24402755 -0.12480047 -0.37741113 0.86924124 0.3272094 -0.56840485
0.033637494 0.31856945 -0.5336769 0.07708172 -0.11571899 -0.11390197 0.0614947 -2.0067925
-0.94640553 -0.121317975 0.6346839 -0.20589343 0.2660152 -1.0023651 -1.4881634 0.27404854
-1.1947443 -2.7953162 -0.009846512 0.18147835 1.3091722 -3.8726263 -0.020323692 -0.14822647
-0.21973738 0.7375923 -0.065936185 0.10188059 0.47819045 -0.5035138 0.1696795 -0.4587678
-1.3270388 1.1219794 -0.20002972 -2.559372 -0.44216052 0.6692287 0.59951746 -0.1599472
0.2690173 -0.41905367 -1.0235536 -1.8913516 0.008182075 0.5609018 0.23133574 -0.26717058
-0.6050991 0.15068617 0.10952378 -0.015259862 -0.39313206 0.031351704 0.08012867 -0.32499835
-0.57483983 -0.91899395 -0.7440646 -23.882328 -0.8908815 0.64468527 -2.1978724 -1.3824598
0.7676369 -0.08997258 0.59561276 0.28191143 -0.84884125 -1.7205639 -0.15746114 -2.2856412
1.612267 0.07555381 0.17443766 0.025171995 -0.10593765 -0.51478666 0.098962545 0.24990398
-0.0769038 -0.36593577 0.9537411 0.43075928 0.42121452 0.84357655 -0.15237576 1.3690107
0.049416292 -0.24527206 -0.048576098 0.2760762 -0.65431046 -0.44352958 0.42383954 -0.32124975
-0.10034081 -0.6426072 -0.20519805 0.35418504 0.7631929 2.287879 -0.058532916 -0.5336324
-0.34779105 1.1075193 0.5130394 -1.2188278 0.54606414 -0.2559578 0.5247393 0.049127806
0.081352554 0.4129941 0.0976105 -0.08956074 0.42071053 -0.099795155 0.20647357 0.13541669
1.8279468 -0.4076443 0.035508506 0.3017544 0.26988536 -0.3002507 -4.5340104 0.39244872
0.3311827 0.35037753 -1.4147099 -0.04270583 0.22608232 1.5809301 0.0228396 -0.17013271
00000000: be36 d3be ca17 e5bf e4fd dbbf 7862 8f3f
00000010: cf17 6e3e b506 8ebe 4d23 993d c9fe 90be
00000020: 26ff 4d3f c730 b7be 839e 35bf 35b7 3e3d
00000030: 34c1 92be cd3d 9bbe f31c 40bc 4613 38bd
00000040: 7a78 013f 0253 f6bd fb8f dbbe c4a3 debd
00000050: c718 cabe 25aa a7bd e5f5 873d 5d4e c5be
00000060: cbb3 2b3d 96bd f4be dc50 aabe 7e53 c2bf
00000070: 6fd5 ecbe 2cff cfbf 1f23 a3be 7e69 8b3e
00000080: cf33 84be 9e0b b23f eb29 f63e fb6a 2ebf
00000090: b4a0 2dbf 4161 913e 9959 cc3e 5dd1 69bd
000000a0: 242d 88bf 324b 01c0 a789 583e 815f 4c3d
000000b0: 0a88 ae3d cf43 5f3e 8f73 50be 1fd1 04bf
000000c0: 7c53 7fbe cb07 513e 50aa bcbd 0e3f 5ebe
000000d0: 1a7d 47bf 7cbe 913f 906d 03c0 08da aabd
000000e0: 0045 e4be b714 1c3f e9e6 c63e d201 81bf
000000f0: d651 83be dbf8 d3bd 32f5 733d d3b5 23be
00000100: 6934 d63a 4890 013e 6c7a 503e 010a fc3d
00000110: d3da b93d efcd 813e 0871 043f 0c23 993e
00000120: 2cd3 53be 7b72 36be 3db3 493f c913 50bd
00000130: ed66 4ac0 bd1a 963d 190a 68be 601e 153e
00000140: 1092 3cbf 4c5c e9be 3864 dc3e 62b2 c0be
00000150: 8608 a63e ce55 3d3f 7065 213b 86b7 0e3e
00000160: 7d66 8f3e 807a 9b3c 6e27 9a3f 0d1c b7be
00000170: 132e 063f 821c 153e 90c5 10c0 0fa7 0b3e
00000180: ac2d a33e db03 473e 847e 27be 9e3e 693f
00000190: 46a1 3840 539a 93be f83d 8b3e 268c 8f3f
000001a0: 471f 23bd 3eb0 bf3e a671 b13f cdd7 f63e
000001b0: 186c 42bd eae6 2ebf 453d 16be 3c65 f83b
000001c0: 209a d1bd 0f2c 883d 5ce2 793e 6497 ffbd
000001d0: 083c c1be 9886 5e3f fe87 a73e fb82 11bf
000001e0: 78c7 093d 891b a33e 0d9f 08bf 05dd 9d3d
000001f0: 14fe ecbd 7045 e9bd dee1 7b3d 4a6f 00c0
00000200: a247 72bf 8f75 f8bd a57a 223f bad5 52be
00000210: 2533 883e 804d 80bf 237c bebf 1750 8c3e
00000220: 62ed 98bf 76e6 32c0 4453 21bc 76d5 393e
00000230: f492 a73f 1cd9 77c0 df7d a6bc aec8 17be
00000240: d602 61be d9d2 3c3f 8d09 87bd c5a6 d03d
00000250: 61d5 f43e 48e6 00bf 76c0 2d3e 9de3 eabe
00000260: 68dc a9bf 059d 8f3f 97d4 4cbe c0cc 23c0
00000270: dd62 e2be 9252 2b3f fa79 193f 33c9 23be
00000280: a3bc 893e 348e d6be ce03 83bf cf17 f2bf
00000290: 1c0e 063c 4397 0f3f 47e3 6c3e 95ca 88be
000002a0: c6e7 1abf 7a4d 1a3e 014e e03d 8004 7abc
000002b0: 9b48 c9be a56a 003d 801a a43d 2f66 a6be
000002c0: b428 13bf 3043 6bbf 057b 3ebf 020f bfc1
000002d0: cf10 64bf 180a 253f f1a9 0cc0 71f4 b0bf
000002e0: da83 443f 8b43 b8bd 147a 183f b256 903e
000002f0: a94d 59bf 703b dcbf 7e3d 21be f247 12c0
00000300: c45e ce3f f5bb 9a3d c99f 323e 8035 ce3c
00000310: d7f5 d8bd 0fc9 03bf e0ac ca3d d4e6 7f3e
00000320: bd7f 9dbd ef5b bbbe 6028 743f 7b8c dc3e
00000330: 6ea9 d73e a2f4 573f 6408 1cbe be3b af3f
00000340: bd68 4a3d 9928 7bbe bbf7 46bd dc59 8d3e
00000350: e480 27bf 4f16 e3be 7f01 d93e d97a a4be
00000360: 7c7f cdbd e881 24bf 701f 52be be57 b53e
00000370: 9c60 433f 9c6c 1240 36c0 6fbd 229c 08bf
00000380: ab11 b2be 31c3 8d3f 8d56 033f 8d02 9cbf
00000390: dcca 0b3f e70c 83be 5155 063f 3d3a 493d
000003a0: 2b9c a63d f673 d33e 04e8 c73d 9f6b b7bd
000003b0: 5f67 d73e 6761 ccbd cf6d 533e acaa 0a3e
000003c0: 29fa e93f c1b6 d0be 5e71 113d 8d7f 9a3e
000003d0: 6a2e 8a3e 76ba 99be 9d16 91c0 0aef c83e
000003e0: c790 a93e af64 b33e 3715 b5bf 4fec 2ebd
000003f0: 2082 673e eb5b ca3f 1d1a bb3c 4537 2ebe

hiddenLayer3.bias f4 [150]
3.46513 4.940099 -0.20319681 -0.22763507 0.5700388 2.4708557 -3.0715213 0.9073017
-0.32278165 -1.0255166 0.12351357 1.2887357 -0.17772855 -2.13466 2.7352507 -0.7009143
-0.26321265 2.6163127 -0.0023492393 -0.56645495 1.4827467 0.6337369 5.659385 0.5980348
-0.5404037 3.5582786 2.5068703 -0.1726447 3.4741786 2.6534247 0.0838071 2.094396
-0.23834118 2.540529 -0.39656818 -0.064561345 3.578167 3.4375458 -0.3107503 -0.5681509
0.6709066 -0.33358803 2.471948 -0.7525729 0.030499136 2.9796386 -0.49109736 5.7375054
-0.6895069 1.447579 4.2433996 -0.18985672 -3.1895163 -0.07737688 0.011051328 2.3638177
-0.59509987 2.7704365 1.7154281 -6.4499416 -0.5531078 -0.008349832 -0.27265626 4.6806364
-0.04848938 0.2983676 -0.4368582 -3.9310372 0.23585777 -0.1781173 2.7750947 0.27951217
1.2963316 4.3532786 3.3984814 1.9949938 -4.28421 0.007956166 2.352865 -0.57639736
-1.0743598 3.744265 3.4587803 0.12328712 -1.4054322 -0.08417235 -0.35722455 -0.36391222
-0.08068308 -0.23398097 1.4153881 4.09036 -0.25455832 -0.39774352 -0.1643504 -2.774695
3.2091749 0.6408049 -3.7048829 4.144885 0.104835846 5.525048 -0.35093054 -0.37427425
3.2811449 0.030099848 1.3092778 -1.1918672 -0.12899697 5.479848 -0.74374384 2.688047
5.160463 0.27784684 3.0053453 5.0479393 0.047350433 0.019492071 5.740813 -0.012841097
-0.2818657 -0.284644 0.007267604 -0.12586293 -0.3039239 -3.8833756 0.066437885 -0.17780657
4.9913154 3.160817 -0.13505968 2.905113 -0.23552123 2.4661546 1.1096009 4.996776
-0.09755673 -2.1718645 1.1980534 -0.18620022 -0.034070086 4.2535076 -0.064330935 -2.9856262
4.2163105 0.2068194 0.918656 2.2962208 -2.7288725 0.017111897
00000000: b1c4 5d40 4a15 9e40 d312 50be 2b19 69be
00000010: 10ee 113f 8022 1e40 ce93 44c0 ed44 683f
00000020: a343 a5be 2144 83bf aff4 fc3d 4bf5 a43f
00000030: 79fe 35be 459e 08c0 590e 2f40 1f6f 33bf
00000040: cfc3 86be ab71 2740 b2f5 19bb 3103 11bf
00000050: a5ca bd3f 953c 223f af19 b540 cf18 193f
00000060: e657 0abf d6ba 6340 9070 2040 c6c9 30be
00000070: f158 5e40 b6d1 2940 0fa3 ab3d 960a 0640
00000080: b60f 74be 0798 2240 fc0a cbbe bd38 84bd
00000090: b000 6540 c000 5c40 aa1a 9fbe 5672 11bf
000000a0: 89c0 2b3f 0dcc aabe 6534 1e40 9ea8 40bf
000000b0: 53d9 f93c 66b2 3e40 1d71 fbbe a599 b740
000000c0: 8683 30bf 454a b93f eec9 8740 cd69 42be
000000d0: 0921 4cc0 c577 9ebd a110 353c ca48 1740
000000e0: 7758 18bf d54e 3140 2693 db3f ec65 cec0
000000f0: 7998 0dbf bccd 08bc 9a99 8bbe c6c7 9540
00000100: cd9c 46bd a3c3 983e e1ab dfbe 1d96 7bc0
00000110: b384 713e 6264 36be 279b 3140 381c 8f3e
00000120: 32ee a53f 0f4e 8b40 b880 5940 f55b ff3f
00000130: 4018 89c0 945a 023c 5795 1640 c78e 13bf
00000140: 9f84 89bf 0aa2 6f40 a85c 5d40 f57d fc3d
00000150: 34e5 b3bf 8e62 acbd 23e6 b6be b452 babe
00000160: 2c3d a5bd b598 6fbe 702b b53f 3be4 8240
00000170: 7855 82be 0aa5 cbbe 794b 28be 9a94 31c0
00000180: 1f63 4d40 ca0b 243f cd1c 6dc0 e6a2 8440
00000190: 2db4 d63d 31cd b040 2bad b3be e0a0 bfbe
000001a0: 47fe 5140 f593 f63c 6a96 a73f 1b8f 98bf
000001b0: c817 04be ea5a af40 ff65 3ebf f608 2c40
000001c0: 8322 a540 f141 8e3e 9457 4040 b888 a140
000001d0: 87f2 413d d6ad 9f3c bdb4 b740 7763 52bc
000001e0: b350 90be dcbc 91be 1525 ee3b 36e2 00be
000001f0: ea9b 9bbe 3a89 78c0 9610 883d ed12 36be
00000200: dbb8 9f40 d34a 4a40 164d 0abe 5fed 3940
00000210: 7a2c 71be 7ad5 1d40 6707 8e3f 97e5 9f40
00000220: d3cb c7bd d4ff 0ac0 d059 993f 45ab 3ebe
00000230: 138d 0bbd bc1c 8840 f0bf 83bd 8014 3fc0
00000240: 04ec 8640 77c8 533e 0a2d 6b3f 48f5 1240
00000250: d9a5 2ec0 402e 8c3c

outputLayer.weight f4 [2, 150]
0.41491488 0.35782275 0.0002608473 -0.62535167 0.3138279 1.0225102 -1.4446081 -0.005112915
-2.489075 2.8232064 -0.050337926 1.0281085 0.8133324 -0.9087367 1.6120334 -0.5406038
-0.0015037904 0.7251615 0.010727412 1.997343 0.34623006 -0.5375203 0.53534645 1.6408731
-3.6563876 0.45430848 0.6861066 0.285649 2.1873558 0.170064 -0.6218739 1.9454048
3.5742664 1.0699748 -0.9261765 0.66869015 0.6092522 0.120357454 -0.95582515 -0.020816624
0.5710559 0.98758394 0.11499122 1.0796963 0.22014385 0.59248114 1.1995682 0.95857424
-0.34129125 2.6704314 0.5566201 -0.023873877 -0.9573291 0.027908899 1.4864177 6.9942074
1.4777931 2.7620497 1.8674636 -2.489022 1.3676734 -2.1835017 -0.44037434 0.26498795
-1.5452785 0.08380486 0.6919049 -3.0611174 0.7107003 -0.0037533252 0.4046006 7.664983
0.027052643 0.62807024 0.47227347 0.6100583 -1.1865914 -0.15335123 3.2482486 -2.664432
1.670304 0.7966544 0.32121712 -0.39222842 -0.56041545 -0.08756433 -1.2124755 -0.94426763
0.0052436558 -0.97788596 0.95721483 0.56906474 -0.34431034 -1.3493346 -0.01184021 -14.199766
0.5303732 4.497453 -0.7573674 0.49616063 2.4957356 0.35563028 0.26700783 -1.593182
0.41610107 -2.5452921 1.0706196 -0.023471897 -1.1457816 0.44676012 -0.43741703 -0.48330233
0.22132923 0.7705365 0.09259489 0.94413316 -0.030250637 -0.0054362626 0.45082512 -0.5735604
0.43309015 -0.78918785 0.005440025 -0.40412548 0.5439843 -0.8788309 -0.029547943 -0.03365342
0.37224904 0.56359905 -6.8703156 0.32423 0.44217867 0.78112817 0.34677085 0.6165123
0.00065690256 -2.6789603 3.6237721 2.091224 0.01618338 2.8612041 0.47022453 -0.30198225
-0.20053093 0.24766345 5.3424563 0.75562483 1.0065553 0.017948987 0.4442003 0.3826266
0.045743212 0.6348136 -0.33076116 1.0468307 -1.4550699 -0.04121402 2.727639 -2.7506604
0.0055259955 1.1158957 -0.6714039 -0.91274863 1.6541142 -0.17726338 0.006500352 0.70618254
-0.0038340671 -2.161522 0.4371612 -0.33249095 0.5181953 1.592351 4.081623 0.44530198
0.637233 -0.29780993 2.155674 0.1888502 1.2353305 1.9421811 -3.4945023 1.0573007
-0.8123939 -0.3492118 0.61881495 0.14986096 1.3443382 0.11970988 0.58102334 -0.9634916
-0.1043795 -1.2581706 -0.19944039 0.6083091 -1.0824269 0.9552493 0.21790339 2.6811965
0.5912623 0.008853776 -0.9197555 -0.00650935 -2.663329 7.0139146 2.1922436 2.7439866
1.8182461 -2.5005145 -1.1513888 2.2750661 0.43260166 0.2770703 1.6725386 -0.01688506
-0.55179363 -2.979856 -0.8684307 -0.024077315 0.4264266 7.6376553 0.0014897652 0.6074832
0.47172457 0.5977619 -1.190934 0.20589648 3.23482 -0.3450956 1.6814 0.78956103
0.28165874 0.5690295 0.20227171 0.018444631 1.2690755 0.9066561 -0.029242331 0.6878617
0.83240503 0.5746191 0.8997616 -2.441104 -0.024084724 -17.53094 0.51715 4.478412
-0.7620525 0.47515157 2.421331 0.35835412 -0.22916308 1.694219 0.34745702 2.5959501
00000000: b96f d43e 8b34 b73e 55c2 8839 0c17 20bf
00000010: 0dae a03e 9de1 823f ebe8 b8bf 3d8a a7bb
00000020: 014d 1fc0 6aaf 3440 242f 4ebd 0f99 833f
00000030: 8d36 503f f8a2 68bf 1c57 ce3f 0365 0abf
00000040: d51a c5ba 2fa4 393f 07c2 2f3c efa8 ff3f
00000050: 1145 b13e ee9a 09bf 770c 093f 2108 d23f
00000060: 4102 6ac0 1f9b e83e afa4 2f3f 9640 923e
00000070: a3fd 0b40 4225 2e3e 2133 1fbf 0603 f93f
00000080: c8c0 6440 eff4 883f e719 6dbf 472f 2b3f
00000090: f4f7 1b3f f87d f63d f5b0 74bf a087 aabc
000000a0: b830 123f 4dd2 7c3f 8480 eb3d 7d33 8a3f
000000b0: 646d 613e d8ac 173f 738b 993f 1f65 753f
000000c0: babd aebe 59e8 2a40 a87e 0e3f 2693 c3bc
000000d0: 8513 75bf 34a1 e43c ef42 be3f 8cd0 df40
000000e0: 5328 bd3f 6cc5 3040 0c09 ef3f 234c 1fc0
000000f0: ec0f af3f 7ebe 0bc0 bf78 e1be 80ac 873e
00000100: b0cb c5bf e2a1 ab3d ae20 313f 59e9 43c0
00000110: 74f0 353f 59fa 75bb cf27 cf3e 8a47 f540
00000120: 819d dd3c 36c9 203f d4cd f13e c82c 1c3f
00000130: 3ae2 97bf 1b08 1dbe 4ee3 4f40 0e86 2ac0
00000140: 85cc d53f 8bf1 4b3f 9276 a43e 2ad2 c8be
00000150: 6377 0fbf ed54 b3bd 6632 9bbf 86bb 71bf
00000160: f9d2 ab3b bc56 7abf 080c 753f 3aae 113f
00000170: 7249 b0be ffb6 acbf 71fd 41bc 3e32 63c1
00000180: 8ac6 073f 23eb 8f40 d4e2 41bf c408 fe3e
00000190: 22ba 1f40 2c15 b63e 40b5 883e 63ed cbbf
000001a0: 330b d53e 11e6 22c0 100a 893f 2348 c0bc
000001b0: f9a8 92bf bebd e43e 20f5 dfbe 6773 f7be
000001c0: 21a4 623e e141 453f 64a2 bd3d b6b2 713f
000001d0: 2fd0 f7bc ad22 b2bb 8dd2 e63e dbd4 12bf
000001e0: febd dd3e 3708 4abf 3d42 b23b 89e9 cebe
000001f0: 8e42 0b3f 10fb 60bf 870e f2bc 2bd8 09bd
00000200: 6d97 be3e 0748 103f a0d9 dbc0 7901 a63e
00000210: 3e65 e23e 04f8 473f f38b b13e c0d3 1d3f
00000220: fc33 2c3a 1674 2bc0 e2eb 6740 9dd6 0540
00000230: 0293 843c f81d 3740 45c1 f03e 6b9d 9abe
00000240: fb57 4dbe 7d9b 7d3e 67f5 aa40 a170 413f
00000250: ced6 803f c109 933c 396e e33e a2e7 c33e
00000260: 3c5d 3b3d 2583 223f 8759 a9be 8cfe 853f
00000270: bb3f babf 08d0 28bd a391 2e40 d20a 30c0
00000280: 6913 b53b acd5 8e3f 20e1 2bbf e5a9 69bf
00000290: 04ba d33f 8884 35be e800 d53b 61c8 343f
000002a0: f944 7bbb 6056 0ac0 98d3 df3e 413c aabe
000002b0: 72a8 043f 28d2 cb3f a89c 8240 9ffe e33e
000002c0: b421 233f 8b7a 98be 90f6 0940 f261 413e
000002d0: 4f1f 9e3f 6499 f83f eda5 5fc0 a155 873f
000002e0: 0cf9 4fbf e4cb b2be a86a 1e3f 2775 193e
000002f0: 4613 ac3f 742a f53d f2bd 143f 63a7 76bf
00000300: ebc4 d5bd bc0b a1bf 1a3a 4cbe 25ba 1b3f
00000310: f78c 8abf 388b 743f 1122 5f3e b998 2b40
00000320: f75c 173f 6e0f 113c 1975 6bbf 634c d5bb
00000330: fb73 2ac0 fd71 e040 b84d 0c40 7a9d 2f40
00000340: 4abc e83f 6e08 20c0 b560 93bf af9a 1140
00000350: f77d dd3e 29dc 8d3e bf15 d63f 8a52 8abc
00000360: 5942 0dbf f6b5 3ec0 7951 5ebf ca3d c5bc
00000370: 9654 da3e ac67 f440 3a44 c33a 0584 1b3f
00000380: e285 f13e ed06 193f 8670 98bf 87d6 523e
00000390: 4a07 4f40 5fb0 b0be 1d38 d73f ac20 4a3f
000003a0: 9335 903e ebab 113f 5120 4f3e 3219 973c
000003b0: 1171 a23f 9d1a 683f 9d8d efbc b417 303f
000003c0: 7f18 553f 3d1a 133f c756 663f 0c3b 1cc0
000003d0: 544d c5bc 5d3f 8cc1 f163 043f 274f 8f40
000003e0: df15 43bf 1147 f33e 16f7 1a40 317a b73e
000003f0: baa9 6abe 2bdc d83f e3e5 b13e 0c24 2640

outputLayer.bias f4 [2]
5.377949 5.688953
00000000: 2918 ac40 e70b b640
